flare/polgrad/lightning_logs/version_21/checkpoints/epoch=97.ckpt (torch_old, 152910 bytes, 36 tensors)

exp_avg f4 [6]
0	0x3c233767	0.009961939
1	0x3bb09c85	0.0053897523
2	0x3bef57cb	0.007304167
3	0x3b5db350	0.0033828802
4	0x3c0523fd	0.008126256
5	0x3b839449	0.0040154797

exp_avg_sq f4 [6]
0	0x39f1edb2	0.000461442
1	0x39adbb78	0.00033136806
2	0x396e31bc	0.00022715976
3	0x39a3b1cc	0.00031222252
4	0x399326a1	0.00028066806
5	0x39842cf0	0.00025210483

exp_avg f4 [64, 26]
0	0x394a500c	0.00019294041
1	0x00000000	0.0
2	0xbb32fe40	-0.002731219
3	0xb90c6d66	-0.00013392195
4	0x00000000	0.0
5	0x3a993693	0.0011689238
6	0x00000000	0.0
7	0xba7d3a34	-0.0009659857
8	0xba595512	-0.00082905695
9	0xba652adb	-0.00087420427
10	0x3a90ae3b	0.0011038253
11	0x397eddbe	0.00024305933
12	0x39bcb6fd	0.0003599449
13	0x3a19ca34	0.00058666174
14	0xbb03e320	-0.002012439
15	0xba5fdd55	-0.0008539756
16	0x3b714ed9	0.0036820679
17	0xbac32d98	-0.0014890907
18	0xbaa3a458	-0.0012484891
19	0x3bd8f92c	0.0066215005
20	0x3a38ea46	0.00070539524
21	0x39a704e8	0.00031856378
22	0xb9be1e32	-0.0003626212
23	0xb9fba05c	-0.00047993928
24	0x3a3c79b2	0.0007189765
25	0xb8916785	-6.933421e-05
26	0xb916a354	-0.00014365959
27	0x00000000	0.0
28	0x3a68dde0	0.00088831596
29	0x38290ef8	4.030668e-05
30	0x00000000	0.0
31	0xb9ebd310	-0.00044979947
32	0x00000000	0.0
33	0x3872230c	5.7729936e-05
34	0x39358832	0.00017312242
35	0x39ff524f	0.00048698715
36	0x3a24b891	0.0006283606
37	0xb9fac2ec	-0.00047828944
38	0xba14633b	-0.00056605384
39	0xba1ae7b8	-0.00059091626
40	0x3a592038	0.0008282694
41	0x3a0d379b	0.0005387009
42	0xbab1ffa9	-0.0013580221
43	0x39164f28	0.00014334603
44	0x3a22535c	0.0006192231
45	0xbaf6fe98	-0.0018844185
46	0xb915b4b2	-0.00014277062
47	0x37ad02ac	2.0624451e-05
48	0xb9b34078	-0.00034189573
49	0x39dcbe1c	0.00042103312
50	0xb893bd4f	-7.044768e-05
51	0x3784c8d4	1.5829144e-05
52	0xb9238c4e	-0.00015597159
53	0x00000000	0.0
54	0x3510c800	5.393522e-07
55	0xb78cc6a0	-1.6781793e-05
56	0x00000000	0.0
57	0x396db098	0.00022667868
58	0x00000000	0.0
59	0x37f07920	2.8666633e-05
60	0x3954756a	0.00020261636
61	0xba07050b	-0.0005150593
62	0x3949d008	0.00019246351
63	0x3a063564	0.000511965
64	0x39a202b6	0.00030901068
65	0x3a26c83b	0.0006362234
66	0xba046cc3	-0.0005051607
67	0x3939f87b	0.00017735541
68	0x37086280	8.1291655e-06
69	0x394a1904	0.0001927354
70	0xb98b6846	-0.00026589836
71	0x3b415e70	0.0029505752
72	0x3a3abe4e	0.00071236945
73	0xb8ece4c0	-0.00011295965
74	0x3a5b0e12	0.00083562837
75	0xba972cd3	-0.0011533744
76	0xb8fb59c2	-0.000119853314
77	0xb78a7500	-1.6505364e-05
78	0x39b7ed41	0.00035081248
79	0x00000000	0.0
80	0xb95a003c	-0.00020790187
81	0x38faed00	0.00011965074
82	0x00000000	0.0
83	0xb998b981	-0.0002912991
84	0x00000000	0.0
85	0x3a0758be	0.0005163065
86	0xb9128160	-0.00013971841
87	0x3a0b8ee4	0.00053237216
88	0xbaba00ba	-0.001419089
89	0xb59f3e80	-1.1864613e-06
90	0xba05c4e6	-0.00051028875
91	0x3ab06a78	0.0013459465
92	0x381a6dbc	3.681866e-05
93	0x399dcc2c	0.00030097493
94	0xbad21859	-0.0016028985
95	0xba6e6ef4	-0.0009095513
96	0x3a9d450d	0.0011998728
97	0xba64ae4a	-0.0008723481
98	0xba703708	-0.0009163474
99	0x38cd2b40	9.783218e-05
100	0xba02dbcc	-0.0004991859
101	0x3a718148	0.0009212685
102	0xb9d52236	-0.00040652015
103	0xb72968dd	-1.00976e-05
104	0x38768b3b	5.878064e-05
105	0x00000000	0.0
106	0x3904b9dd	0.0001265774
107	0x39482e22	0.00019090672
108	0x00000000	0.0
109	0x3906744e	0.00012822563
110	0x00000000	0.0
111	0xb9896360	-0.00026204716
112	0x390abad0	0.00013230299
113	0x389f82e4	7.606091e-05
114	0x3842c2c4	4.6434594e-05
115	0xb84363e3	-4.658465e-05
116	0x39fcc765	0.00048213746
117	0x399282be	0.000279447
118	0xb9baf291	-0.0003565741
119	0x39d6d47e	0.0004097558
120	0x395e59ee	0.00021205071
121	0xb976a702	-0.00023522603
122	0x3a2433a3	0.0006263798
123	0x3a89f24c	0.0010524481
124	0xb9660ec6	-0.00021940013
125	0x38b03f28	8.404098e-05
126	0x39cd4a40	0.00039155968
127	0xbaa439f7	-0.0012529482
128	0x392464c9	0.00015677804
129	0x3756e960	1.2809731e-05
130	0x398b6089	0.0002658407
131	0x00000000	0.0
132	0xbac392f1	-0.0014921111
133	0x3791d7d0	1.7385843e-05
134	0x00000000	0.0
135	0x3a15b08d	0.0005710207
136	0x00000000	0.0
137	0xb9d151c0	-0.00039924495
138	0xb9ee9b0a	-0.0004551041
139	0xba3542b4	-0.00069145416
140	0xb9a395e2	-0.00031201454
141	0x3a1e2f0c	0.0006034232
142	0x3a7c389e	0.0009621474
143	0x3a5b6666	0.00083694456
144	0xbabe60f0	-0.0014524739
145	0xba4a42db	-0.0007715651
146	0x3b00953e	0.0019620205
147	0x38928b30	6.987748e-05
148	0xb93a06a8	-0.00017740822
149	0x3b16a645	0.0022987288
150	0x39fae08b	0.00047851013
151	0xb9a402db	-0.00031282645
152	0x3a055057	0.0005085519
153	0xba89c8ce	-0.0010512115
154	0x39879237	0.00025858145
155	0xb79c562a	-1.8636772e-05
156	0x38c4f50f	9.391654e-05
157	0x00000000	0.0
158	0xb8b537c9	-8.641143e-05
159	0x3877c190	5.9069658e-05
160	0x00000000	0.0
161	0xb92622bc	-0.00015843933
162	0x00000000	0.0
163	0xb96946cd	-0.00022246987
164	0xba3645a9	-0.0006953129
165	0xb9534507	-0.00020148243
166	0xb948b045	-0.00019139152
167	0x37519718	1.249255e-05
168	0x3abc9fd3	0.0014390893
169	0x3a688cfa	0.0008871105
170	0xb7a12047	-1.9207726e-05
171	0x39ad5607	0.00033061227
172	0x3a857923	0.0010183196
173	0xbab9fdee	-0.0014190057
174	0x3a2a90ca	0.00065065606
175	0x39097dd8	0.00013112219
176	0xb9502e1a	-0.000198536
177	0x38866c6e	6.4098145e-05
178	0x3730f870	1.0548261e-05
179	0x3917e44d	0.00014485531
180	0x392820a0	0.00016033882
181	0xb835ccb4	-4.3344407e-05
182	0x39109d3c	0.00013791485
183	0x00000000	0.0
184	0x3abcb8ac	0.0014398298
185	0x38e65830	0.00010983681
186	0x00000000	0.0
187	0xb9e5b057	-0.00043809667
188	0x00000000	0.0
189	0x39ce2e2f	0.0003932579
190	0x3989efe2	0.00026309403
191	0x3a70dde0	0.00091883354
192	0xb9d67086	-0.00040901097
193	0xba9fc54e	-0.0012189539
194	0xb9fa1983	-0.00047702724
195	0x3b162844	0.0022912184
196	0x3a8e4163	0.0010853227
197	0x3afbd958	0.0019214554
198	0xbb4e96e8	-0.0031523053
199	0xbb21ee3d	-0.0024708651
200	0x3b1118dc	0.0022140061
201	0xb9b6dce6	-0.00034878327
202	0xbac7b681	-0.0015236886
203	0x3a5193eb	0.0007994759
204	0xba34fee4	-0.0006904437
205	0xbb0e6e17	-0.00217331
206	0xb98f41aa	-0.0002732401
207	0xb8be50ec	-9.074979e-05
208	0xb8170e40	-3.6014477e-05
209	0x00000000	0.0
210	0xba2a0344	-0.0006485472
211	0x393daa16	0.00018087807
212	0x00000000	0.0
213	0x3a0f82da	0.00054745155
214	0x00000000	0.0
215	0xba2089c8	-0.00061240466
216	0x38f0a700	0.00011475198
217	0xb895aad8	-7.136696e-05
218	0x3a1de597	0.0006023286
219	0x38f21a70	0.000115443836
220	0x3a27a691	0.0006395365
221	0x3a432e89	0.0007445594
222	0xba7120cf	-0.0009198309
223	0x3a165839	0.0005735192
224	0x3a51aa9c	0.000799814
225	0xbaaf818d	-0.001339005
226	0xba01d87a	-0.0004953217
227	0x3b8fb78f	0.0043858956
228	0xb7cab180	-2.4162931e-05
229	0x3a424d9c	0.00074120774
230	0x39a19314	0.00030817895
231	0xba99caae	-0.0011733377
232	0x399f0053	0.00030327085
233	0xb8b19a6e	-8.4687825e-05
234	0xb9595262	-0.00020725423
235	0x00000000	0.0
236	0xb84ab0b0	-4.8325106e-05
237	0xba2fa313	-0.000670002
238	0x00000000	0.0
239	0xba063c0f	-0.0005120644
240	0x00000000	0.0
241	0xb6b9f8f0	-5.54241e-06
242	0xba9fe13f	-0.0012197866
243	0xb9edd5ec	-0.00045363547
244	0x3a8505e8	0.0010148855
245	0xb94adad2	-0.00019345738
246	0x3a52febe	0.0008048824
247	0xb9777924	-0.00023600884
248	0x3a3f3ef9	0.00072954554
249	0xba32247b	-0.0006795597
250	0x3ad8ca74	0.0016539828
251	0xb9fe584d	-0.00048512444
252	0xb94a4a60	-0.00019291928
253	0xbaeace3c	-0.0017914246
254	0x39d1eeec	0.00040041597
255	0xb90340c4	-0.0001251726

exp_avg_sq f4 [64, 26]
0	0x3a2e15f3	0.0006640844
1	0x00000000	0.0
2	0x3b47d2d7	0.003049066
3	0x37955845	1.7803288e-05
4	0x00000000	0.0
5	0x37de5d77	2.6507985e-05
6	0x00000000	0.0
7	0x392ebe2c	0.00016664778
8	0x3aeae7d0	0.0017921869
9	0x38a1e5c6	7.719877e-05
10	0x3b169a1a	0.0022980035
11	0x38d35ad6	0.000100781835
12	0x3b1ca900	0.0023904443
13	0x38eb982f	0.000112340196
14	0x3b380512	0.0028079194
15	0x38754824	5.8479738e-05
16	0x3b25b4fe	0.0025284882
17	0x396f3cd7	0.00022815481
18	0x3b1132bb	0.0022155482
19	0x3a176b72	0.00057762035
20	0x3b21c68a	0.002468499
21	0x395bdcac	0.00020967674
22	0x38e00ecc	0.000106839085
23	0x3b25a5a1	0.0025275724
24	0x3670dcbb	3.589127e-06
25	0x364d9730	3.0635383e-06
26	0x382a7f8c	4.0649946e-05
27	0x00000000	0.0
28	0x395289f9	0.0002007856
29	0x360333a2	1.9550575e-06
30	0x00000000	0.0
31	0x361c90ee	2.3330172e-06
32	0x00000000	0.0
33	0x37312519	1.055866e-05
34	0x38ef7cbd	0.000114196424
35	0x36df99ca	6.6638213e-06
36	0x391a500d	0.00014716406
37	0x370aa2e1	8.263364e-06
38	0x391c69b4	0.00014916697
39	0x37371330	1.0912117e-05
40	0x393cfd0e	0.00018023347
41	0x36bb31b6	5.5788214e-06
42	0x3922991b	0.0001550656
43	0x37cae0ad	2.41849e-05
44	0x39108ac0	0.00013784599
45	0x388761b5	6.455501e-05
46	0x391faa3d	0.0001522684
47	0x37910207	1.7286291e-05
48	0x3713c25a	8.807134e-06
49	0x3929fe4c	0.00016211829
50	0x3525848d	6.1660177e-07
51	0x3500f383	4.803807e-07
52	0x38a5c162	7.9038335e-05
53	0x00000000	0.0
54	0x39c80403	0.00038149962
55	0x362908d0	2.5188092e-06
56	0x00000000	0.0
57	0x369ab942	4.6111245e-06
58	0x00000000	0.0
59	0x37a3ae7c	1.9512365e-05
60	0x396553f9	0.00021870424
61	0x3761ccde	1.3458744e-05
62	0x39951224	0.0002843301
63	0x379a98fa	1.8429466e-05
64	0x399d6d61	0.00030026867
65	0x3781838a	1.5439251e-05
66	0x39b19e47	0.00033877997
67	0x373e29aa	1.1334583e-05
68	0x39a98882	0.00032335898
69	0x381d23a0	3.7464895e-05
70	0x3990effa	0.00027644617
71	0x38814bc4	6.165312e-05
72	0x39a063fb	0.0003059207
73	0x37dd7fcb	2.6404761e-05
74	0x37710d91	1.4367878e-05
75	0x39a4db23	0.00031443787
76	0x3597bd66	1.1305499e-06
77	0x3570dc27	8.972733e-07
78	0x3951dd47	0.00020014225
79	0x00000000	0.0
80	0x3a6763fe	0.00088268507
81	0x368b1ae1	4.145652e-06
82	0x00000000	0.0
83	0x36e2cc45	6.759105e-06
84	0x00000000	0.0
85	0x38501d32	4.9618255e-05
86	0x3a0ddb9b	0.0005411447
87	0x379587f5	1.7825494e-05
88	0x3a36e269	0.0006976487
89	0x37ca1278	2.4088877e-05
90	0x3a3fc1f9	0.0007314976
91	0x37d0bf7d	2.48847e-05
92	0x3a56f667	0.0008200169
93	0x379d2e2e	1.8737363e-05
94	0x3a506996	0.0007950304
95	0x38921cbd	6.9671754e-05
96	0x3a3556c0	0.0006917529
97	0x38b14ae5	8.453968e-05
98	0x3a456b1f	0.0007530916
99	0x38860897	6.391218e-05
100	0x382d1bf7	4.127246e-05
101	0x3a461091	0.0007555569
102	0x35b8e904	1.3776885e-06
103	0x35a844df	1.253702e-06
104	0x379fad06	1.9034847e-05
105	0x00000000	0.0
106	0x38b66159	8.696569e-05
107	0x351fa676	5.947435e-07
108	0x00000000	0.0
109	0x356b350e	8.7621527e-07
110	0x00000000	0.0
111	0x36a0302c	4.7739795e-06
112	0x385d9406	5.2828364e-05
113	0x365593d3	3.1825518e-06
114	0x388fe46a	6.861317e-05
115	0x3688056a	4.053746e-06
116	0x3899ae41	7.328066e-05
117	0x3662e55b	3.3810127e-06
118	0x38a6f032	7.960237e-05
119	0x36214905	2.4033372e-06
120	0x38a7aa9a	7.9949576e-05
121	0x37136510	8.785413e-06
122	0x388b0433	6.628819e-05
123	0x37708113	1.4335167e-05
124	0x389cbd45	7.473914e-05
125	0x36f8b937	7.412538e-06
126	0x36a94468	5.044556e-06
127	0x389cddb0	7.479952e-05
128	0x3457760f	2.0066385e-07
129	0x3455949f	1.9891239e-07
130	0x394319c0	0.00018606242
131	0x00000000	0.0
132	0x3a5d0744	0.00084315636
133	0x36a7b6ce	4.998269e-06
134	0x00000000	0.0
135	0x36e1791a	6.7196206e-06
136	0x00000000	0.0
137	0x3842cdce	4.6444875e-05
138	0x3a07a3ca	0.0005174248
139	0x37a7adb2	1.9988835e-05
140	0x3a2ea880	0.00066626817
141	0x37cff273	2.4789222e-05
142	0x3a331be5	0.0006832465
143	0x37fdbd0d	3.0247984e-05
144	0x3a4c1a21	0.0007785876
145	0x37818eef	1.5444557e-05
146	0x3a3d7905	0.0007227811
147	0x387e68d5	6.065595e-05
148	0x3a2162bf	0.0006156377
149	0x390dbc6c	0.00013517
150	0x3a3821d0	0.00070240814
151	0x387e0bdb	6.056936e-05
152	0x380b4aea	3.320995e-05
153	0x3a3978c8	0.0007075188
154	0x35af35d6	1.3054184e-06
155	0x359119c7	1.0810844e-06
156	0x383b0822	4.459185e-05
157	0x00000000	0.0
158	0x395bdfd0	0.00020968844
159	0x35c1d812	1.4442505e-06
160	0x00000000	0.0
161	0x3607c1f5	2.0229465e-06
162	0x00000000	0.0
163	0x3740563f	1.14641725e-05
164	0x390247d9	0.00012424531
165	0x36b3cd56	5.35852e-06
166	0x3924d2f2	0.00015718842
167	0x36d757db	6.417727e-06
168	0x392ae49f	0.00016297631
169	0x37293839	1.0086275e-05
170	0x39499771	0.0001922527
171	0x3695c12c	4.463034e-06
172	0x39305cb8	0.00016819208
173	0x379e3784	1.886092e-05
174	0x3921b4d9	0.00015421527
175	0x38565ce5	5.110809e-05
176	0x392bf5a6	0.00016399342
177	0x379fc25e	1.9044786e-05
178	0x3719ff23	9.178914e-06
179	0x39347fdb	0.00017213768
180	0x34fb8b1e	4.6853614e-07
181	0x34c4f41e	3.6685464e-07
182	0x39928092	0.00027943082
183	0x00000000	0.0
184	0x3aa06fb1	0.0012240318
185	0x366cf6eb	3.5310466e-06
186	0x00000000	0.0
187	0x37059cad	7.963897e-06
188	0x00000000	0.0
189	0x388f034d	6.819386e-05
190	0x3a4a1848	0.00077093067
191	0x37cfe4a1	2.4782787e-05
192	0x3a8151eb	0.0009866332
193	0x3811ab98	3.4730503e-05
194	0x3a850a08	0.0010150084
195	0x37ffdb77	3.0500565e-05
196	0x3a950b82	0.0011371227
197	0x379c1caa	1.8609997e-05
198	0x3a8e5e3b	0.0010861823
199	0x3851b8f3	5.000173e-05
200	0x3a7321c5	0.00092747464
201	0x389d7253	7.507638e-05
202	0x3a8937ce	0.0010468902
203	0x3894d244	7.096355e-05
204	0x384d58c2	4.895847e-05
205	0x3a87f48b	0.0010372562
206	0x35486f56	7.466782e-07
207	0x3520044b	5.961089e-07
208	0x397cec66	0.00024120658
209	0x00000000	0.0
210	0x3a8d18fa	0.001076489
211	0x36ce76c4	6.1531046e-06
212	0x00000000	0.0
213	0x370e2fbc	8.474974e-06
214	0x00000000	0.0
215	0x3879e8ed	5.9583155e-05
216	0x3a2bbcc9	0.00065512635
217	0x37d5f686	2.5506375e-05
218	0x3a602e26	0.00085517985
219	0x3807f8c0	3.2418175e-05
220	0x3a67deec	0.00088451686
221	0x3809cc0b	3.2853375e-05
222	0x3a8338a9	0.0010011393
223	0x37b67bc2	2.175372e-05
224	0x3a788f51	0.0009481805
225	0x38a44688	7.833267e-05
226	0x3a5de8d4	0.0008465175
227	0x3922ecd5	0.00015537751
228	0x3a6fc7eb	0.00091469166
229	0x388a25e8	6.5874134e-05
230	0x37fa2377	2.9818837e-05
231	0x3a7099b7	0.0009178179
232	0x35b5f874	1.355786e-06
233	0x35a85422	1.2541461e-06
234	0x389cad73	7.470967e-05
235	0x00000000	0.0
236	0x39c2e190	0.0003717062
237	0x364df3f7	3.0689387e-06
238	0x00000000	0.0
239	0x36a1a519	4.817394e-06
240	0x00000000	0.0
241	0x379f612b	1.8999524e-05
242	0x395ab1c8	0.00020856329
243	0x3753aa5d	1.2616246e-05
244	0x398c7734	0.00026791694
245	0x378af98e	1.656709e-05
246	0x39910445	0.00027659736
247	0x37ae6c5f	2.079288e-05
248	0x39ac1592	0.00032822468
249	0x373fdd9c	1.1436085e-05
250	0x399b63ad	0.00029638168
251	0x38243c23	3.9156654e-05
252	0x39889cf0	0.0002605687
253	0x3893eb0c	7.053287e-05
254	0x3993377d	0.00028079367
255	0x3814c35c	3.5467892e-05

exp_avg f4 [64]
0	0xbb32fe38	-0.002731217
1	0x3a68ddf8	0.00088831736
2	0x350fc200	5.355396e-07
3	0xb95a01f8	-0.00020790834
4	0x3904b9bc	0.00012657692
5	0xbac39304	-0.0014921133
6	0xb8b5382a	-8.641214e-05
7	0x3abcb94c	0.0014398484
8	0xba2a02e9	-0.0006485419
9	0xb84ab000	-4.8324466e-05
10	0x39220192	0.00015450109
11	0xbac61c1a	-0.0015114576
12	0xb993153b	-0.00028053843
13	0xba7faad6	-0.00097529346
14	0x3a99042b	0.0011674216
15	0xbaf7c8c4	-0.0018904437
16	0x39633668	0.00021668675
17	0xbafeae5e	-0.0019430628
18	0xb8973c64	-7.21149e-05
19	0xb8618274	-5.3765674e-05
20	0x3a8b586b	0.0010631209
21	0x3a7300e8	0.00092698494
22	0x3a4940de	0.00076772075
23	0x3b2325e1	0.0024894404
24	0x392fc94d	0.00016764291
25	0x398ef672	0.00027267967
26	0xba0ef8c6	-0.000545394
27	0x395a18cc	0.00020799338
28	0xb7ea0b80	-2.7900329e-05
29	0xb9c5b30e	-0.00037708174
30	0x39b79ec6	0.00035022775
31	0xb89036a6	-6.876634e-05
32	0x3a0ec5fe	0.0005446373
33	0xba01fb94	-0.00049584475
34	0x3a0ef308	0.00054530846
35	0xb7c4b3f2	-2.3448814e-05
36	0x3a2bdd84	0.0006556141
37	0x38d61e12	0.00010209916
38	0x38aad7ab	8.146403e-05
39	0xba11d44d	-0.00055629463
40	0x382f41ac	4.1784413e-05
41	0x3a1d07a6	0.00059902144
42	0xba83538c	-0.0010019406
43	0xba92e951	-0.001120845
44	0xb990e0b4	-0.00027633237
45	0x396e3222	0.00022716125
46	0x3a8e4834	0.0010855258
47	0x3876a4f0	5.880458e-05
48	0xb8bed530	-9.099615e-05
49	0xba794ff2	-0.0009510509
50	0x3a140e49	0.00056478806
51	0xb927080a	-0.00015929356
52	0x38fae1d8	0.000119629956
53	0x391bbb38	0.00014851696
54	0x3912c910	0.00013998547
55	0xb9210b62	-0.00015358397
56	0xb808e5a0	-3.263878e-05
57	0xba01ec71	-0.0004956192
58	0x3aaee09e	0.0013342088
59	0xb9b72bfe	-0.00034937257
60	0x3ab49742	0.0013777988
61	0xb8edaf7c	-0.00011333727
62	0x3983f516	0.0002516887
63	0xba19d6cc	-0.0005868494

exp_avg_sq f4 [64]
0	0x3b47d2d8	0.0030490663
1	0x395289f8	0.00020078558
2	0x39c80409	0.0003814998
3	0x3a6763fe	0.00088268507
4	0x38b66157	8.696567e-05
5	0x3a5d0747	0.00084315654
6	0x395bdfcf	0.00020968843
7	0x3aa06faf	0.0012240316
8	0x3a8d18fa	0.001076489
9	0x39c2e18f	0.00037170618
10	0x397afa03	0.00023934995
11	0x390ffc4c	0.0001373153
12	0x37f3c951	2.9061603e-05
13	0x3a0e2057	0.0005421689
14	0x3a89269c	0.0010463777
15	0x39bbef62	0.00035845774
16	0x3b55a0d8	0.003259709
17	0x38ea0731	0.00011159329
18	0x3a0577d8	0.00050914055
19	0x3847cc17	4.763537e-05
20	0x3b1e7dc2	0.0024183844
21	0x390c582a	0.00013384284
22	0x3aceb20d	0.0015769616
23	0x3b5d8033	0.0033798337
24	0x37cfd6cb	2.4776344e-05
25	0x3aa26c1e	0.001239184
26	0x3b237360	0.0024940595
27	0x3aaa040d	0.0012971178
28	0x39e8bef0	0.00044392748
29	0x3978f3a8	0.00023741892
30	0x3806dd02	3.215392e-05
31	0x39766432	0.00023497714
32	0x3b0f2b09	0.002184572
33	0x3b8116ba	0.003939477
34	0x38ed1fcb	0.000113069626
35	0x3849b045	4.80863e-05
36	0x38b81948	8.778513e-05
37	0x37d71806	2.5641184e-05
38	0x382e7bee	4.160025e-05
39	0x3917641c	0.00014437776
40	0x3961d20f	0.00021535925
41	0x39f9fa9d	0.00047679702
42	0x3aa3fae0	0.001251068
43	0x3ac76df8	0.0015215268
44	0x379a636c	1.8404528e-05
45	0x38eb6565	0.000112245594
46	0x3aaa9ecd	0.0013017297
47	0x3834c6af	4.3100383e-05
48	0x3aa8e768	0.0012886347
49	0x38ae63b2	8.315536e-05
50	0x3a423ba6	0.0007409401
51	0x3ab0cf4e	0.0013489516
52	0x3a34c000	0.00068950653
53	0x3929f453	0.00016208114
54	0x3a44b16d	0.0007503245
55	0x37c7ebfd	2.383254e-05
56	0x3a2a08d5	0.00064863014
57	0x376e9ec1	1.4222868e-05
58	0x3b0914f2	0.0020917025
59	0x3826a365	3.9729657e-05
60	0x3a64f07e	0.0008733346
61	0x39d4ad17	0.00040564753
62	0x39491858	0.00019177923
63	0x3b5dd9ac	0.0033851666

exp_avg f4 [64, 64]
0	0x39a6cdf0	0.00031815423
1	0xba1653fa	-0.00057345594
2	0xba27a526	-0.00063951535
3	0xb9acaf28	-0.00032936898
4	0x36b4ae20	5.384689e-06
5	0x39f08190	0.000458729
6	0x3999ba07	0.00029321035
7	0x3a0b5ad3	0.0005315963
8	0xba1d34ef	-0.00059969624
9	0x395a2844	0.000208051
10	0x39154335	0.00014234784
11	0x39d8079d	0.00041204403
12	0x3a1feb16	0.0006100399
13	0xb9956f4c	-0.00028502417
14	0x38568e48	5.1154086e-05
15	0x3a1dc9fa	0.00060191716
16	0x38cecfdf	9.8615645e-05
17	0x3a12fb02	0.0005606861
18	0xb998e3c9	-0.00029161412
19	0xb9ab9c6b	-0.00032732202
20	0x39973f0a	0.00028847932
21	0xba4c0824	-0.00077831955
22	0xba0d6908	-0.0005394374
23	0xb8ac9893	-8.230018e-05
24	0x37ec50e8	2.8171067e-05
25	0xb94620f2	-0.00018895025
26	0x3a1890b9	0.0005819905
27	0x37273f78	9.968753e-06
28	0x39a1d9a9	0.00030870482
29	0xb83c0c99	-4.4834425e-05
30	0xb972e711	-0.00023164997
31	0x38a8d326	8.050194e-05
32	0x38807991	6.126159e-05
33	0x399073fc	0.00027552235
34	0xb8f5d1b6	-0.00011721572
35	0x39bcba50	0.00035996968
36	0x39233a5a	0.00015566629
37	0x38d68014	0.000102281716
38	0xb85c7aec	-5.2566567e-05
39	0x399595c3	0.00028531076
40	0x39e94a3e	0.00044496538
41	0xb7f80654	-2.956685e-05
42	0xb9f9d048	-0.00047648163
43	0xb98052fd	-0.00024475894
44	0x3a027c07	0.0004977588
45	0x390174cc	0.00012345909
46	0x39c7807a	0.0003805196
47	0x39d334c4	0.0004028437
48	0x3989aa63	0.00026257624
49	0xba316a6e	-0.00067678734
50	0xb98f2777	-0.0002730449
51	0x38cf8613	9.8955024e-05
52	0xb88c7e99	-6.699301e-05
53	0xb98a1546	-0.0002633726
54	0x3a3135bd	0.0006760022
55	0xb9ac4ca8	-0.0003286351
56	0xb9366983	-0.00017396179
57	0x3a1f5ff9	0.00060796697
58	0xb8d668aa	-0.000102238104
59	0x38a97f0e	8.082214e-05
60	0x370ac02c	8.2701845e-06
61	0xb9ec4b69	-0.00045069613
62	0x3a7bb783	0.00096022355
63	0x39820b0f	0.00024803772
64	0xb926c8b4	-0.00015905761
65	0x39008450	0.00012256321
66	0x39fe9cc6	0.0004856346
67	0x39a39192	0.0003119824
68	0xb9890f76	-0.00026142196
69	0xb9e7f03c	-0.00044238742
70	0x390cdfd7	0.00013434827
71	0xba11feee	-0.00055692985
72	0x3986348b	0.0002559762
73	0xb90471e5	-0.0001263093
74	0xb80a3556	-3.2951437e-05
75	0xba2e0a53	-0.00066391117
76	0xb94c5796	-0.00019487584
77	0x39c938f8	0.00038380153
78	0xb8da5298	-0.00010410434
79	0xba458a42	-0.00075355556
80	0xb8ab31b0	-8.1631704e-05
81	0xba1cba72	-0.000597871
82	0x399d9159	0.00030053666
83	0x3924ba3d	0.00015709638
84	0xb9621a43	-0.00021562823
85	0x3a075493	0.0005162444
86	0x39d04e12	0.00039731018
87	0x37408d30	1.1476965e-05
88	0xb8b14464	-8.4527564e-05
89	0x39457f44	0.00018834794
90	0xb99a3142	-0.0002940987
91	0xb810ed06	-3.455302e-05
92	0xb95f7de9	-0.00021313842
93	0xb924c1aa	-0.00015712404
94	0xb9563db1	-0.00020431612
95	0xb88d0414	-6.7241635e-05
96	0xb9b91244	-0.0003529956
97	0xb9a2cdd6	-0.00031052408
98	0xb8609d24	-5.355211e-05
99	0xb81028bc	-3.4370212e-05
100	0xb83efe8e	-4.5536603e-05
101	0xb88bfe59	-6.6754124e-05
102	0xb88b29cc	-6.635822e-05
103	0xb9392b9b	-0.00017659219
104	0xb75ccd18	-1.3160774e-05
105	0x3767cb68	1.3816032e-05
106	0x39a8166e	0.00032060168
107	0x39bd0d0a	0.00036058604
108	0xb951bd71	-0.00020002366
109	0xb7e18040	-2.6881811e-05
110	0xb9c32dce	-0.00037227425
111	0xb9d9bc81	-0.00041529912
112	0xb8dd1704	-0.00010542388
113	0x39e4ee91	0.00043665295
114	0x39115b5a	0.00013862309
115	0xb82c14ef	-4.102749e-05
116	0x3988badc	0.00026079162
117	0x38728fd2	5.783124e-05
118	0xb9d554d0	-0.00040689716
119	0x395cbf6a	0.00021052142
120	0x36805ee8	3.825746e-06
121	0xb9fd1bd1	-0.00048276645
122	0x39709ae5	0.00022945886
123	0xb9d991ae	-0.00041498005
124	0x391e5074	0.00015098025
125	0xb8a10d55	-7.6795615e-05
126	0xb9eda2cc	-0.00045325456
127	0xb9af730a	-0.00033464312
128	0x38e013d2	0.00010684844
129	0x3a1d38e6	0.0005997553
130	0x3878c736	5.9313337e-05
131	0x38ed2957	0.00011308741
132	0xb91cdc5c	-0.0001495941
133	0xb9d4aff7	-0.00040566895
134	0x38af703b	8.365555e-05
135	0xba1efe6a	-0.00060651323
136	0x39c35bef	0.00037261794
137	0xb99f78fb	-0.0003041698
138	0x37f58f64	2.9273047e-05
139	0xb9f40d8c	-0.000465494
140	0xba0f173e	-0.00054584804
141	0x3a0c5a4c	0.00053540315
142	0xb9e6a0a8	-0.00043988717
143	0xba41b2f5	-0.00073890324
144	0x3870b78a	5.7391393e-05
145	0xba14fd02	-0.0005683453
146	0x3924f1e8	0.00015730376
147	0x39a43690	0.0003132117
148	0x3862337a	5.393054e-05
149	0x3a3af27d	0.00071314705
150	0x39f3bc82	0.0004648902
151	0xb68d3f40	-4.2094907e-06
152	0x39a025e9	0.00030545823
153	0x38ab2c9f	8.162227e-05
154	0xb7ef5652	-2.8531216e-05
155	0x382ee56c	4.16985e-05
156	0xba0e140a	-0.0005419856
157	0x37ac38d0	2.0530453e-05
158	0x3a1d2a30	0.0005995361
159	0xb89f52d8	-7.597142e-05
160	0xb82a257a	-4.056606e-05
161	0xb985eb0c	-0.0002554286
162	0x399e09cb	0.00030143405
163	0xb99e53ae	-0.00030198455
164	0xb80eb52e	-3.4024175e-05
165	0xb8dca852	-0.000105217696
166	0x38ce650c	9.841667e-05
167	0x369b8300	4.6346104e-06
168	0xb95d4e37	-0.0002110534
169	0x38a927cf	8.065963e-05
170	0x39a2626a	0.00030972372
171	0x39fdd8f2	0.00048417557
172	0xb9b8bc38	-0.0003523545
173	0x3907d32a	0.00012953268
174	0xb9934b24	-0.0002809401
175	0xb9cd5dfd	-0.00039170674
176	0xb8b748ee	-8.739704e-05
177	0x3a2e7d0e	0.0006656208
178	0x37782b50	1.4792036e-05
179	0xb90dcc34	-0.0001352288
180	0x3892fc4a	7.008815e-05
181	0xb98c0f77	-0.00026714403
182	0xb9a328f2	-0.0003112029
183	0x398a5acd	0.00026389063
184	0x39a8708a	0.00032127305
185	0xb9bce275	-0.00036026878
186	0xb88b817a	-6.6521534e-05
187	0xb8f08ec0	-0.00011470681
188	0x38c531de	9.4029805e-05
189	0x397c7342	0.0002407553
190	0xba69123b	-0.0008890961
191	0xb9e7b1ec	-0.00044192316
192	0xb98a9618	-0.0002643324
193	0x3933fbfe	0.00017164645
194	0x38c22910	9.258289e-05
195	0x383222fb	4.2471085e-05
196	0x3715ac28	8.921175e-06
197	0xb7dbe7b0	-2.6214722e-05
198	0xb9816b5b	-0.00024684783
199	0x38bfeffe	9.152292e-05
200	0x39038210	0.00012541586
201	0x3819d4d6	3.667626e-05
202	0xb96b62b5	-0.00022448118
203	0x379c37c2	1.8622613e-05
204	0xb9463588	-0.00018902693
205	0x3905d73b	0.00012764048
206	0xb8455c9d	-4.7054713e-05
207	0x38a584a4	7.892519e-05
208	0x39376fce	0.0001749389
209	0x3809a968	3.2821117e-05
210	0xb84e0668	-4.9120194e-05
211	0x3903c7b4	0.00012567529
212	0xb9296302	-0.00016153979
213	0x379f6010	1.899901e-05
214	0xb7498538	-1.2011551e-05
215	0x388a9053	6.607235e-05
216	0x396d8b28	0.00022653921
217	0x38c0df6e	9.1968905e-05
218	0xb9bc48d6	-0.0003591242
219	0x372da230	1.0349366e-05
220	0xb8dd4390	-0.00010550686
221	0x38df6dd2	0.00010653924
222	0xb8f3966a	-0.0001161516
223	0x3689e2e6	4.1093326e-06
224	0xb829442e	-4.0356237e-05
225	0x38d012ea	9.921736e-05
226	0xb815c476	-3.5707337e-05
227	0xb9400e3e	-0.00018315853
228	0x375056c0	1.2417964e-05
229	0xb8338a50	-4.280574e-05
230	0x37c36585	2.3293085e-05
231	0xb8e58142	-0.00010943647
232	0xb903d2ee	-0.00012571711
233	0xb7b9ca7a	-2.2148004e-05
234	0x388aa432	6.6109365e-05
235	0xb895e562	-7.1475995e-05
236	0xb9073393	-0.00012893816
237	0xb7468e87	-1.1834904e-05
238	0xb84f62ff	-4.9444843e-05
239	0xb929ae79	-0.00016182092
240	0xb8896e12	-6.553171e-05
241	0x382c444c	4.1071602e-05
242	0x36ddb3b0	6.6072316e-06
243	0x39178199	0.00014448761
244	0xb9303aba	-0.00016806545
245	0x393f2e80	0.00018232502
246	0xb82b8147	-4.0889976e-05
247	0xb7a94afb	-2.0181285e-05
248	0xb9188a96	-0.00014547477
249	0xb796a3b1	-1.7957618e-05
250	0x37c1bc34	2.3095032e-05
251	0x386ee682	5.69583e-05
252	0xb9374e7b	-0.00017481476
253	0x398f9c40	0.000273915
254	0xb8aedca5	-8.338065e-05
255	0x37483263	1.19326605e-05

exp_avg_sq f4 [64, 64]
0	0x3699f0b1	4.5877755e-06
1	0x384b2dba	4.8441558e-05
2	0x37248016	9.804984e-06
3	0x37359094	1.0822103e-05
4	0x37c7a092	2.379742e-05
5	0x374bd370	1.2148972e-05
6	0x36eaf968	7.002778e-06
7	0x37364c67	1.0865834e-05
8	0x37745867	1.4564116e-05
9	0x362bee51	2.5619704e-06
10	0x37065a2f	8.00802e-06
11	0x36d62f13	6.383177e-06
12	0x38d6f45e	0.00010249832
13	0x3783549e	1.565582e-05
14	0x3782f2c3	1.5610252e-05
15	0x37304573	1.0506587e-05
16	0x36f7d270	7.385672e-06
17	0x3892f6c3	7.0077855e-05
18	0x37648b6a	1.3622319e-05
19	0x380758c8	3.2269192e-05
20	0x36782919	3.6978802e-06
21	0x38b0498b	8.4060324e-05
22	0x36f74b92	7.369971e-06
23	0x36a6a811	4.966751e-06
24	0x38b0bdbe	8.427676e-05
25	0x376f1eaa	1.425265e-05
26	0x36e3152f	6.7675933e-06
27	0x3671d6c7	3.6036815e-06
28	0x3790d965	1.726737e-05
29	0x363b582e	2.7916499e-06
30	0x38e9df92	0.00011151949
31	0x36c6626b	5.912317e-06
32	0x36872608	4.027741e-06
33	0x372fbef8	1.0475276e-05
34	0x36c3782a	5.825442e-06
35	0x37a30530	1.943353e-05
36	0x37acbff4	2.0593383e-05
37	0x388b7343	6.649506e-05
38	0x374ea560	1.2317061e-05
39	0x3836cfff	4.3585893e-05
40	0x374fce16	1.2386145e-05
41	0x36e054b5	6.6855814e-06
42	0x36c8d4d7	5.9852423e-06
43	0x36c8b772	5.9818203e-06
44	0x38c7168e	9.4932606e-05
45	0x37c60038	2.3603541e-05
46	0x363cc654	2.8129625e-06
47	0x37b443ff	2.1489335e-05
48	0x37031d31	7.815005e-06
49	0x37d2ef94	2.5145513e-05
50	0x36bf54b6	5.702105e-06
51	0x36ddd498	6.6110624e-06
52	0x3750d043	1.2446256e-05
53	0x381bee3e	3.717676e-05
54	0x371c6fd9	9.324366e-06
55	0x380384a3	3.135636e-05
56	0x36a09f03	4.786883e-06
57	0x38182374	3.6272642e-05
58	0x36d8fb51	6.4665587e-06
59	0x384ea8c4	4.9271403e-05
60	0x369a9eec	4.6080586e-06
61	0x38081b21	3.2450193e-05
62	0x38849715	6.322392e-05
63	0x36c642ad	5.908622e-06
64	0x3625b312	2.4691149e-06
65	0x37baba98	2.2259817e-05
66	0x36a6fab6	4.976372e-06
67	0x36cc632d	6.0912193e-06
68	0x373ffb57	1.1443007e-05
69	0x36ce03ee	6.139736e-06
70	0x36929e7b	4.3695886e-06
71	0x3709d2e4	8.214938e-06
72	0x36de1117	6.618105e-06
73	0x35ba87b9	1.389758e-06
74	0x368a1122	4.114715e-06
75	0x368ebfb4	4.254247e-06
76	0x384ee46a	4.9326954e-05
77	0x3711fa6b	8.7009785e-06
78	0x36fe3de6	7.576996e-06
79	0x36d8c6da	6.460451e-06
80	0x36942f43	4.4162457e-06
81	0x380bedbe	3.3361597e-05
82	0x36ec6246	7.0447886e-06
83	0x378abf1e	1.6539878e-05
84	0x3615bc13	2.2312204e-06
85	0x38267f17	3.9695846e-05
86	0x36792b6f	3.7129173e-06
87	0x3642b5a2	2.9013977e-06
88	0x382ec284	4.166599e-05
89	0x370d3a11	8.417775e-06
90	0x36886954	4.0653777e-06
91	0x3615cd7e	2.2322342e-06
92	0x370e4898	8.480762e-06
93	0x35e07690	1.6723807e-06
94	0x386344cb	5.4185086e-05
95	0x36478b6c	2.9734465e-06
96	0x360af13e	2.0704024e-06
97	0x370778ba	8.074736e-06
98	0x364b1e57	3.0267017e-06
99	0x3723865d	9.746841e-06
100	0x372f0677	1.0432318e-05
101	0x3803076c	3.1239746e-05
102	0x36df3eb6	6.6532184e-06
103	0x37b7741c	2.1869368e-05
104	0x36c85d04	5.971293e-06
105	0x36816a2c	3.8568596e-06
106	0x3675ef77	3.6647232e-06
107	0x3689a9ce	4.102686e-06
108	0x383c8acb	4.4951954e-05
109	0x372f9d42	1.0467427e-05
110	0x35dd7263	1.6499074e-06
111	0x3738ddf3	1.1018931e-05
112	0x36b49208	5.3814183e-06
113	0x3760d94e	1.3402036e-05
114	0x366511df	3.4134061e-06
115	0x367571a8	3.6574002e-06
116	0x36f14928	7.190876e-06
117	0x37939945	1.7595137e-05
118	0x36c43139	5.8469855e-06
119	0x3796c8e4	1.797494e-05
120	0x36505b93	3.1047718e-06
121	0x37a82523	2.0044454e-05
122	0x364992bc	3.0036745e-06
123	0x37cbf829	2.4315044e-05
124	0x36414c48	2.8803643e-06
125	0x378f23f5	1.7063672e-05
126	0x37ff8724	3.0461299e-05
127	0x366edebe	3.5594417e-06
128	0x3638209a	2.7437113e-06
129	0x38021123	3.1010375e-05
130	0x36d0325c	6.2047457e-06
131	0x36fc1089	7.51211e-06
132	0x377d9925	1.5115632e-05
133	0x3704ad34	7.90814e-06
134	0x369a436b	4.597406e-06
135	0x36ed15dd	7.0656956e-06
136	0x371262ef	8.725313e-06
137	0x35dd3d03	1.648354e-06
138	0x36ab9448	5.1134593e-06
139	0x369b5c64	4.6301157e-06
140	0x3888b42e	6.5185464e-05
141	0x3720197e	9.5426785e-06
142	0x3720ebc9	9.591641e-06
143	0x36efa9a8	7.1425056e-06
144	0x36beb31c	5.6832923e-06
145	0x383baf3b	4.474747e-05
146	0x37196f3f	9.145412e-06
147	0x37b25764	2.1259948e-05
148	0x36068bcb	2.0048926e-06
149	0x385fcb2f	5.3356573e-05
150	0x36911938	4.3242726e-06
151	0x365c2944	3.2806574e-06
152	0x386825f2	5.534845e-05
153	0x37180f05	9.063403e-06
154	0x368982db	4.0981517e-06
155	0x36119de5	2.169859e-06
156	0x373b9969	1.1181787e-05
157	0x35d4cd50	1.5854985e-06
158	0x38957bf3	7.127961e-05
159	0x36809021	3.831476e-06
160	0x362c2fb6	2.5657769e-06
161	0x36e34613	6.773285e-06
162	0x36724253	3.6099416e-06
163	0x37520c57	1.25198485e-05
164	0x3758ea00	1.2929086e-05
165	0x3831b172	4.2365347e-05
166	0x370407e5	7.869651e-06
167	0x37f06b28	2.8660128e-05
168	0x3704c119	7.912772e-06
169	0x369b51f2	4.6288997e-06
170	0x3659c55e	3.2450403e-06
171	0x369963b9	4.5713646e-06
172	0x387ffaec	6.1030427e-05
173	0x37818046	1.543773e-05
174	0x35e0f7a8	1.6761378e-06
175	0x376484fa	1.362082e-05
176	0x36b3ec33	5.362113e-06
177	0x37866bf6	1.6024318e-05
178	0x3689f612	4.1115645e-06
179	0x36a288fb	4.843923e-06
180	0x37045903	7.888538e-06
181	0x37c683cd	2.3664814e-05
182	0x36c36057	5.8226683e-06
183	0x37b4e202	2.1562915e-05
184	0x364d6996	3.060884e-06
185	0x37bfd4aa	2.2868004e-05
186	0x368f2b02	4.266739e-06
187	0x3808a2f6	3.2576696e-05
188	0x3645a271	2.944984e-06
189	0x37b4f9d5	2.157401e-05
190	0x382a492e	4.0599312e-05
191	0x36810bd6	3.8458775e-06
192	0x35ea8c9c	1.7475281e-06
193	0x3796b05e	1.796352e-05
194	0x36539e98	3.1533764e-06
195	0x36845379	3.943624e-06
196	0x3717d5d2	9.050085e-06
197	0x369e9ad6	4.726792e-06
198	0x364210a8	2.8917948e-06
199	0x368c4d16	4.181299e-06
200	0x36b4608a	5.3756567e-06
201	0x356cb7e3	8.818444e-07
202	0x364c0975	3.0403874e-06
203	0x361c20d4	2.326492e-06
204	0x38214176	3.8446356e-05
205	0x36d0d817	6.224039e-06
206	0x36c4ed9a	5.8689157e-06
207	0x368b67e3	4.154617e-06
208	0x363c7657	2.8083066e-06
209	0x37dbbede	2.6195714e-05
210	0x369ab980	4.6111527e-06
211	0x3756fcf8	1.2814293e-05
212	0x35b4bc5f	1.3465868e-06
213	0x38027902	3.1107113e-05
214	0x363a6031	2.777215e-06
215	0x360404d2	1.9672339e-06
216	0x38020276	3.0996707e-05
217	0x36b5a0e6	5.4129514e-06
218	0x3629087c	2.51879e-06
219	0x35b107db	1.3189814e-06
220	0x36d6f88d	6.406632e-06
221	0x358a5a91	1.030816e-06
222	0x382e62f6	4.1576997e-05
223	0x360fd27d	2.143118e-06
224	0x35b96d05	1.3815303e-06
225	0x368bdf79	4.1685385e-06
226	0x361ed7cf	2.3669452e-06
227	0x3701b8e7	7.73205e-06
228	0x36f4d590	7.2966286e-06
229	0x37cdb8e5	2.4524003e-05
230	0x369eeab3	4.7360895e-06
231	0x379092bc	1.7234466e-05
232	0x369af3e1	4.617949e-06
233	0x362c5dde	2.5684635e-06
234	0x3622e302	2.4272017e-06
235	0x360ade5d	2.0693035e-06
236	0x38137cfc	3.5163932e-05
237	0x3708a29b	8.144091e-06
238	0x357cb28c	9.4137135e-07
239	0x370a7f01	8.255011e-06
240	0x364cc762	3.0514425e-06
241	0x371f2ed8	9.488045e-06
242	0x361d1541	2.3407194e-06
243	0x361cb467	2.335082e-06
244	0x36a5e08b	4.9435234e-06
245	0x376223c7	1.347898e-05
246	0x365059e7	3.1046745e-06
247	0x374252a4	1.1582542e-05
248	0x35e74b46	1.7232749e-06
249	0x37693c0b	1.3901862e-05
250	0x3615d91a	2.23291e-06
251	0x379b748b	1.853171e-05
252	0x35f20f6f	1.8034897e-06
253	0x37584e1b	1.2892789e-05
254	0x37c2bc54	2.32143e-05
255	0x36068bfc	2.0049038e-06

exp_avg f4 [64]
0	0x3953b1e7	0.00020188802
1	0xba80732c	-0.0009799949
2	0xb9052898	-0.00012698991
3	0x39a4e102	0.00031448161
4	0xb7380400	-1.0968186e-05
5	0xb8f716de	-0.00011782137
6	0xb98dc8c0	-0.00027043186
7	0xb942746b	-0.00018544651
8	0xba0363fe	-0.00050121534
9	0x38d86354	0.00010318184
10	0xb92f4421	-0.0001671468
11	0xba34de33	-0.00068995653
12	0xb9932c99	-0.00028071253
13	0x3921d067	0.00015431792
14	0xb9d12a20	-0.00039894972
15	0xba5b794c	-0.00083722617
16	0xba78f0ae	-0.0009496313
17	0x3a4e8793	0.00078784785
18	0x39592f8b	0.00020712444
19	0xb7c3fe98	-2.3364366e-05
20	0xba5bc098	-0.0008382886
21	0x396012fc	0.00021369377
22	0x381ebaf0	3.7844235e-05
23	0xba1bb169	-0.0005939217
24	0xba68a1da	-0.00088742154
25	0xb9bc9732	-0.00035970804
26	0xb9af2f8e	-0.00033414032
27	0xb9eae6bf	-0.00044803877
28	0x3a008c0d	0.00049036817
29	0x39abfce0	0.00032804068
30	0xb990ab9e	-0.00027593685
31	0x38d3b0c9	0.00010094193
32	0x3a099b0c	0.0005249239
33	0xb993537a	-0.0002810022
34	0x3a3d1a8e	0.0007213735
35	0xb9c96cbe	-0.00038418727
36	0x3913a561	0.00014080621
37	0xb918218a	-0.00014508344
38	0xb8f12732	-0.00011499076
39	0xba7de091	-0.0009684647
40	0x3a19e826	0.00058710796
41	0x38ba8be4	8.895228e-05
42	0xb9409168	-0.00018364715
43	0x3990a8d0	0.00027591595
44	0xb9fbf9f7	-0.0004806069
45	0xba1543d8	-0.00056940084
46	0xb78aa680	-1.6528415e-05
47	0x39389bdb	0.00017605668
48	0x3978783c	0.00023695914
49	0x39920421	0.00027850366
50	0xb94aa800	-0.00019326806
51	0xb9b042ce	-0.0003361911
52	0x39d6fcf5	0.00041005728
53	0xb8b29c38	-8.5167994e-05
54	0xb96a4756	-0.00022342554
55	0x3a1f0b60	0.00060670637
56	0x3a35157e	0.00069078046
57	0xb9c7c546	-0.00038103218
58	0x39647860	0.00021788618
59	0x3a225fe5	0.0006194099
60	0xb9d5c044	-0.00040769775
61	0x39e1ec00	0.00043091178
62	0x3a0a0d70	0.00052662846
63	0x395d4362	0.00021101304

exp_avg_sq f4 [64]
0	0x39b89d64	0.0003521248
1	0x394077d1	0.00018355182
2	0x39775e97	0.00023590993
3	0x390b71f7	0.00013298528
4	0x395f4aa0	0.00021294737
5	0x382e24a8	4.151897e-05
6	0x3896d3b1	7.191988e-05
7	0x37bc2daa	2.243261e-05
8	0x394602cc	0.00018883793
9	0x38d28f5e	0.000100402845
10	0x38d39de7	0.00010090676
11	0x39470e9a	0.00018983558
12	0x37aa8a75	2.0330053e-05
13	0x3779caa3	1.4888737e-05
14	0x38ddb26f	0.00010571337
15	0x3796f2a6	1.7994385e-05
16	0x384dd5f9	4.9075086e-05
17	0x39a4f1e1	0.0003146073
18	0x389d12b5	7.489828e-05
19	0x372a14c4	1.01376245e-05
20	0x3938f612	0.00017639276
21	0x38ebba8e	0.00011240422
22	0x375c8192	1.314319e-05
23	0x38ae7da2	8.3203675e-05
24	0x384d0634	4.8881586e-05
25	0x3835cd67	4.334506e-05
26	0x376ad21e	1.3996409e-05
27	0x38865fe7	6.407481e-05
28	0x390f3d31	0.00013660338
29	0x389831f9	7.257233e-05
30	0x398f2706	0.0002730416
31	0x381a4db8	3.6788842e-05
32	0x3792c9da	1.749855e-05
33	0x39c71d35	0.00037978
34	0x39880a1b	0.0002594747
35	0x38e4f07c	0.00010916681
36	0x37bad559	2.2272276e-05
37	0x38a99a00	8.087233e-05
38	0x38881e05	6.490577e-05
39	0x38f5c3b7	0.00011718965
40	0x395e7e2f	0.00021218577
41	0x38e4bf8c	0.000109075656
42	0x3899da3b	7.336257e-05
43	0x3897ff0d	7.247748e-05
44	0x39af1446	0.00033393706
45	0x39225d6f	0.0001548433
46	0x37d46ee8	2.5324014e-05
47	0x39af1989	0.00033397626
48	0x38d9ecd0	0.00010391476
49	0x38ba9fc7	8.898932e-05
50	0x3805f1c4	3.1934833e-05
51	0x39026c6e	0.0001243816
52	0x38155dab	3.5611603e-05
53	0x394696c8	0.00018938922
54	0x397e9204	0.00024277723
55	0x38bfa2a0	9.137881e-05
56	0x38de5281	0.000106011525
57	0x39486160	0.00019109761
58	0x392b4c46	0.00016336245
59	0x3798778d	1.8175482e-05
60	0x38fbfdb2	0.00012015867
61	0x38e46f9a	0.000108926746
62	0x388be803	6.671252e-05
63	0x380b4ad4	3.320987e-05

exp_avg f4 [6, 64]
0	0xb919f1f1	-0.00014681347
1	0x3976bbda	0.00023530368
2	0xb801a7b4	-3.0912182e-05
3	0xba6f7042	-0.0009133854
4	0x3a2cc1bb	0.00065901474
5	0xb960ee05	-0.00021450974
6	0xb9cf940e	-0.00039592426
7	0x398197d9	0.00024717933
8	0xba32ead1	-0.00068251515
9	0xba70d6cc	-0.00091872807
10	0xbaad6c25	-0.0013231082
11	0xba490c36	-0.0007669361
12	0xba1dd3db	-0.00060206436
13	0x38ed8ee8	0.00011327659
14	0x392b0e82	0.00016313235
15	0xba2ee5b7	-0.00066718034
16	0xba739b08	-0.0009292816
17	0x399bef3b	0.00029742144
18	0xb96eaf2c	-0.00022762705
19	0xba62a935	-0.00086464296
20	0xba93f4a7	-0.0011288122
21	0xb6904b90	-4.300331e-06
22	0x3a0426ce	0.0005041183
23	0xba64e2ea	-0.00087313226
24	0xb96f938d	-0.00022847783
25	0x38f34954	0.000116008014
26	0xb8fd34e8	-0.00012073835
27	0xb9ec8eb3	-0.00045119747
28	0x3a2dfa45	0.00066367193
29	0x39a4d4bb	0.00031439014
30	0xba4d8c1a	-0.0007841006
31	0xb8a27085	-7.74572e-05
32	0x39a186c0	0.0003080871
33	0xb8d32deb	-0.00010069817
34	0x3a1e28f6	0.00060333253
35	0x39edfd26	0.00045392773
36	0x3a1fa9c3	0.0006090665
37	0x3a34d875	0.00068987097
38	0xb8cb3884	-9.690321e-05
39	0x39a0b1d3	0.00030650067
40	0x39c018f3	0.00036639682
41	0x3741e910	1.15579605e-05
42	0xb82f3d52	-4.178036e-05
43	0x3987d6f0	0.00025909347
44	0x39525dde	0.00020062129
45	0x381b2a18	3.6994083e-05
46	0x39b5ec83	0.00034699225
47	0x39f8e976	0.00047476188
48	0xba1bb395	-0.00059395406
49	0xb9c264f7	-0.00037077788
50	0xba658df2	-0.0008756808
51	0x3a246cef	0.0006272336
52	0xb963df68	-0.00021731632
53	0xb6cc6270	-6.0911334e-06
54	0x390f95b0	0.00013693306
55	0xb99edc5c	-0.0003030029
56	0xb9669130	-0.00021988596
57	0x39019981	0.00012359583
58	0x3a9111ef	0.0011067967
59	0x39e27b6f	0.00043198044
60	0xb98bc202	-0.00026656693
61	0x3a439f37	0.00074623845
62	0x3adfb058	0.0017066104
63	0xb9626e82	-0.00021594207
64	0xba2d872c	-0.00066195684
65	0xb7322080	-1.0617194e-05
66	0xba2a95a7	-0.0006507285
67	0x3949fb52	0.00019262478
68	0x3a6bd18e	0.00089957647
69	0xba249ae7	-0.0006279186
70	0xb83efe40	-4.553632e-05
71	0xbab52fab	-0.001382341
72	0x38aa7f26	8.129915e-05
73	0xb80f36d0	-3.4144905e-05
74	0xba6283eb	-0.0008640873
75	0x38dd1613	0.00010542213
76	0xba9534d9	-0.0011383548
77	0x3acda9a4	0.0015690816
78	0xb97e9a1c	-0.00024280738
79	0xbb3e9dc8	-0.0029085744
80	0xbadf1273	-0.0017019048
81	0xb9a39614	-0.000312016
82	0x3a907982	0.001102254
83	0x3a6637ea	0.00087821356
84	0xb9ff46a0	-0.0004869001
85	0xba2b0b85	-0.0006524849
86	0x3b265596	0.0025380603
87	0xba8620ad	-0.0010233127
88	0xb971bcd3	-0.00023053894
89	0x3a12424e	0.0005579338
90	0xbb1eece4	-0.0024250085
91	0xbafb44a0	-0.0019170232
92	0xba429732	-0.00074230426
93	0xb8680a1b	-5.532252e-05
94	0xba0b4478	-0.0005312632
95	0x3985a435	0.0002549008
96	0x3a9788f1	0.0011561197
97	0xb9a1ef5d	-0.00030886653
98	0x38e0f4fc	0.00010726784
99	0xba2a2a9e	-0.0006491336
100	0xbadf134a	-0.0017019298
101	0x38afb704	8.3787396e-05
102	0x3ae049de	0.0017111858
103	0x390df654	0.00013538572
104	0x3a5e9f0d	0.00084923283
105	0xba80a41a	-0.0009814531
106	0xba2189dc	-0.0006162205
107	0xb8e2ba68	-0.00010811241
108	0x39eb3c34	0.00044867548
109	0x389a58c8	7.359829e-05
110	0x3b07428c	0.002063903
111	0x3976eb9c	0.0002354816
112	0x39b3998a	0.00034255936
113	0x3a5748bd	0.0008212438
114	0x3a72fcd8	0.0009269244
115	0x39c4b5be	0.00037519442
116	0x3937f7c0	0.00017544534
117	0xb8a18174	-7.701191e-05
118	0x3aa10877	0.0012285848
119	0x38f99118	0.00011900271
120	0x394c29d2	0.00019470535
121	0xba3fd1fc	-0.0007317362
122	0x3a1df33a	0.0006025318
123	0x3a45c42e	0.00075441867
124	0x3a0a13e8	0.00052672485
125	0x3a0a4646	0.0005274754
126	0xb9c53e9a	-0.0003762141
127	0x3af6296c	0.0018780655
128	0x38dbcdd0	0.00010481069
129	0x3acc26d8	0.0015575541
130	0x3a9b3599	0.0011841535
131	0x3aa8499b	0.0012839319
132	0x3a803e6c	0.0009784228
133	0x39445591	0.00018723893
134	0x391c3786	0.00014898003
135	0x39a32a06	0.00031121093
136	0x3a9025c1	0.001099758
137	0x3a94b1da	0.0011344508
138	0xb91354a0	-0.00014050538
139	0x3afb8a70	0.0019191038
140	0x384d4e40	4.8948685e-05
141	0xba4158c9	-0.0007375596
142	0x3a4f6c31	0.0007912545
143	0x3a8edaa5	0.0010898901
144	0x3a9ec5d0	0.0012113396
145	0xba05e306	-0.00051073765
146	0x3a574da2	0.00082131673
147	0x39f9b8c3	0.0004763064
148	0x39c87b04	0.00038238626
149	0x398538b3	0.0002540998
150	0xb9d9c0ef	-0.00041533212
151	0xb906ccf6	-0.0001285559
152	0x3992cddc	0.00028000667
153	0xb9800022	-0.0002441416
154	0x3a234b56	0.00062291825
155	0x3a948e77	0.0011333962
156	0xba86d09e	-0.0010285561
157	0x3a3ac38e	0.0007124477
158	0xb9f13c27	-0.0004601192
159	0x3986d502	0.00025717175
160	0xba319f90	-0.0006775791
161	0xba36022a	-0.00069430715
162	0xba9f9013	-0.0012173675
163	0xba7d5199	-0.0009663343
164	0xba012c30	-0.0004927544
165	0xba0826c6	-0.0005193766
166	0x3a1dafbc	0.0006015261
167	0x3ada71fe	0.0016666052
168	0xb7c3d368	-2.3344255e-05
169	0xb9b61b3b	-0.00034734033
170	0xba24e363	-0.0006289987
171	0xbab71758	-0.0013968749
172	0xb9b40c3f	-0.000343414
173	0x3a49a388	0.00076919096
174	0xba5f85d8	-0.0008526719
175	0xb99ea2e8	-0.00030257483
176	0x3a3ab174	0.00071217795
177	0x37ce6b20	2.4606998e-05
178	0x37dd1a90	2.6357622e-05
179	0xba0b893d	-0.00053228793
180	0xba034c60	-0.0005008634
181	0x3aa56996	0.0012619968
182	0x3a0a0ed4	0.0005266492
183	0x3978133a	0.00023658285
184	0x37c8d704	2.3941982e-05
185	0xba81df60	-0.000990849
186	0xbaaf5f3d	-0.0013379824
187	0xba60da94	-0.00085774926
188	0x3a98041f	0.0011597908
189	0xbaff49d4	-0.0019476959
190	0xba1dd8b1	-0.0006021364
191	0xba1d783a	-0.000600699
192	0xba426a0a	-0.0007416314
193	0x3a849436	0.0010114971
194	0x39d814a9	0.00041214123
195	0x39897324	0.00026216463
196	0x39fbc9f1	0.0004802491
197	0xb83268f8	-4.2536267e-05
198	0xb9a1909f	-0.00030816064
199	0xb8dc1604	-0.00010494518
200	0x3a1cca06	0.00059810316
201	0x3a9bd7b2	0.0011889844
202	0xbaa7af7c	-0.0012793387
203	0x3ab447f6	0.0013754356
204	0xb9d9d920	-0.00041551236
205	0xbaaca4f4	-0.0013171718
206	0x38f8f1bd	0.00011870589
207	0x3abf2d86	0.0014585711
208	0x39d32fd8	0.00040280703
209	0xba3c527e	-0.0007183923
210	0xb8527218	-5.017416e-05
211	0x3921fe2e	0.00015448846
212	0x3a85582c	0.0010173372
213	0xba4481ee	-0.00074961677
214	0xb8cda554	-9.8059565e-05
215	0x39098a3c	0.00013116834
216	0xb9b38ff8	-0.00034248806
217	0xb9560c70	-0.00020413264
218	0x3a51db48	0.0008005393
219	0x393b221d	0.00017846418
220	0xb99b5cb2	-0.00029632967
221	0xba12f384	-0.00056057447
222	0xb9b1ceff	-0.00033914295
223	0x3a45b617	0.0007542087
224	0xba1628f0	-0.0005728146
225	0x3a2c87a8	0.00065814937
226	0xb91bec4d	-0.00014869981
227	0xbaa62e7d	-0.001267865
228	0xba3a2f7d	-0.0007102413
229	0xba008b0d	-0.00049035327
230	0x39367288	0.00017399539
231	0x3aa2b99c	0.0012414935
232	0xba242bdd	-0.00062626397
233	0xba1721a1	-0.0005765204
234	0xb9450098	-0.00018787605
235	0xba82175b	-0.0009925173
236	0xb9b5400e	-0.00034570735
237	0x39447e00	0.00018738955
238	0xb9f55f10	-0.0004680087
239	0xba4f6786	-0.00079118495
240	0xb93d0f7c	-0.00018030213
241	0x39a94500	0.000322856
242	0x3a0e134e	0.0005419747
243	0x3a0d1ddb	0.0005383172
244	0xba2d9d0b	-0.00066228275
245	0xb9d4fa63	-0.00040622344
246	0x39a9af10	0.00032364624
247	0xba0c3a10	-0.0005349228
248	0xba759106	-0.00093676185
249	0xb8effdc6	-0.00011443677
250	0xb9c579b4	-0.00037665444
251	0xba2b217d	-0.00065281225
252	0x3a8a4a28	0.0010550665
253	0xba0f5ca7	-0.00054688234
254	0xb9ab2780	-0.0003264509
255	0xb9e5466a	-0.00043730746
