flare/polgrad/lightning_logs/version_9/checkpoints/epoch=30.ckpt (torch_old, 115639 bytes, 33 tensors)

exp_avg f4 [64, 4]
000000 a0 c5 66 b8 3b 39 37 3b 38 25 bb ba 27 f0 e3 ba
       -5.5020326e-05 0.0027957696 -0.001427806 -0.0017390297
000010 1e 8c 73 3a a8 67 32 3b 29 26 e0 ba d8 a2 eb ba
       0.00092905934 0.0027222428 -0.0017101216 -0.0017977608
000020 7e 16 93 39 9a d0 aa 3a 77 e3 33 ba 34 82 43 ba
       0.00028054783 0.0013032139 -0.0006862203 -0.00074580614
000030 30 b1 8e 39 63 76 35 3a 83 12 df b9 66 05 e2 b9
       0.00027216366 0.0006922243 -0.00042547667 -0.000431101
000040 fe 6f 07 3a f2 1d b2 3a ef b9 4c ba c1 b7 51 ba
       0.00051665294 0.0013589247 -0.00078096887 -0.0008000099
000050 78 84 8a 38 7e 30 13 ba ce 5d 95 39 d4 c6 c1 39
       6.605027e-05 -0.0005614831 0.00028489385 0.00036959967
000060 96 1e ae b9 d1 7a 7b 3a fb e4 eb b9 00 a6 3e ba
       -0.00033210655 0.0009593191 -0.00044993297 -0.0007272661
000070 d8 9f 14 39 df fc c2 b9 90 db 3b 39 60 82 7b 39
       0.00014173926 -0.00037190967 0.00017915503 0.00023985794
000080 50 b4 ed 39 de 9a 65 3a 67 3f 22 ba 7e 7d 11 ba
       0.00045338506 0.0008758734 -0.0006189257 -0.0005550011
000090 20 ef 6e b9 b2 7a 5f bb 06 e9 ff 3a cd 1a 0e 3b
       -0.0002278653 -0.0034100232 0.0019524402 0.0021683455
0000a0 8e dd 3d ba 4e 5b 63 bb 32 e1 f4 3a e1 a2 0d 3b
       -0.0007242792 -0.0034691873 0.0018682836 0.0021611976
0000b0 42 d3 09 39 05 a5 d8 3a 13 9f 5c ba 7a 91 96 ba
       0.00013144038 0.0016528672 -0.0008416038 -0.0011487447
0000c0 a3 2f 37 b8 11 e7 86 39 d5 35 10 b9 70 71 26 b9
       -4.3674965e-05 0.0002573063 -0.00013752964 -0.00015873252
0000d0 32 6c 7f 39 ea 0d 55 3a 9b df 06 ba 4b 65 16 ba
       0.00024359001 0.00081273785 -0.0005145014 -0.000573714
0000e0 32 1a 84 38 1a fb 68 39 b2 74 21 b9 a8 43 1b b9
       6.29913e-05 0.00022218787 -0.00015397629 -0.00014807156
0000f0 f9 ea 62 ba 4a 15 c0 ba 50 61 8d 3a 46 ec 81 3a
       -0.00086562295 -0.0014654782 0.0010786448 0.0009912334
000100 2e e1 fb 38 84 5f 27 3a 98 58 d2 b9 5f 14 df b9
       0.00012010556 0.00063847774 -0.0004012033 -0.00042549052
000110 3c 4f 02 39 b8 ff 97 3a 59 2c 3e ba a0 11 43 ba
       0.00012427283 0.0011596596 -0.0007254533 -0.0007441286
000120 67 8f 02 3a 76 0d 9d 3a 8e 41 50 ba 38 0d 4a ba
       0.0004980475 0.0011982161 -0.0007944339 -0.0007707658
000130 aa 1b 3e b8 d6 37 17 b9 51 44 e5 38 01 18 e3 38
       -4.5325294e-05 -0.00014421283 0.00010932296 0.000108286746
000140 92 91 53 3a 1b 3d 01 3b 5e 7d a9 ba c3 5c a6 ba
       0.0008070703 0.001972026 -0.0012931039 -0.001269244
000150 66 a0 f4 38 88 5d 5e 3a 74 d3 ce b9 75 b2 14 ba
       0.00011664703 0.0008482565 -0.00039448927 -0.0005672344
000160 c2 8d d3 b9 8e 8b ca ba 20 e3 58 3a a8 87 69 3a
       -0.00040350674 -0.0015452967 0.00082735904 0.0008908459
000170 1c 4c 6f b8 f6 13 82 3a 6e fd f8 b9 94 6a 2e ba
       -5.7052923e-05 0.0009924162 -0.00047491066 -0.00066534546
000180 a5 71 08 ba 66 93 df ba 12 7f 7e 3a 74 92 8d 3a
       -0.00052049226 -0.0017057478 0.0009708266 0.0010801093
000190 08 5e 96 b8 30 d8 f7 ba 06 7b 86 3a 6a b4 9e 3a
       -7.170072e-05 -0.0018909033 0.0010260053 0.0012108211
0001a0 70 27 36 b9 84 8c 37 bb 27 88 c7 3a 6b ba e2 3a
       -0.00017371564 -0.0028007338 0.0015223072 0.0017297989
0001b0 08 cb 7a b9 ae 27 6b ba b3 03 0c 3a a7 8c 07 3a
       -0.00023917493 -0.00089704513 0.00053411274 0.00051708
0001c0 50 84 c3 37 38 f2 2e 36 19 d4 95 b6 a9 4a 2f b7
       2.3307424e-05 2.606901e-06 -4.4652375e-06 -1.0448196e-05
0001d0 a6 50 9d 39 09 7f 9a 3a 26 9c 16 ba fb 4b 34 ba
       0.0003000546 0.0011787127 -0.0005745314 -0.0006877777
0001e0 38 39 cf b8 5b b9 a6 b9 6a 80 2f 39 f7 fb 36 39
       -9.881187e-05 -0.00031800088 0.00016737139 0.00017450737
0001f0 90 7f 35 39 a7 fb 56 3a 02 41 09 ba d4 8c 16 ba
       0.00017309026 0.0008200951 -0.0005235822 -0.0005743031
000200 72 57 3e 3a 5a 43 bc 3a ec 62 84 ba ef 54 6b ba
       0.0007260955 0.0014363334 -0.0010100282 -0.00089771947
000210 de e5 af b9 ce f4 cb ba f1 9a 59 3a 4a a5 71 3a
       -0.00033549865 -0.0015560628 0.0008300981 0.00092180504
000220 80 ce 7c b9 04 a0 b6 ba 58 b2 3b 3a 48 08 4f 3a
       -0.0002410952 -0.0013933186 0.0007160059 0.00078976573
000230 12 a8 81 b9 dc 99 c8 ba 80 e2 50 3a cc 62 88 3a
       -0.0002473002 -0.0015304643 0.00079683214 0.001040542
000240 ef 17 8f b9 4e db f4 b9 a9 31 b3 39 b2 42 a2 39
       -0.00027292917 -0.000467027 0.0003417854 0.0003094874
000250 1c 38 a9 38 af 19 88 3a 4b aa 21 ba 95 86 41 ba
       8.068999e-05 0.0010383631 -0.0006167038 -0.000738242
000260 f8 bd 06 b9 e8 94 3a bb 4f 57 c3 3a 5f 45 eb 3a
       -0.00012850005 -0.0028470103 0.0014903339 0.0017949751
000270 94 b2 06 3a 27 19 dd 3a 48 0d 8c ba 4c 07 96 ba
       0.00051383046 0.0016868458 -0.001068511 -0.0011446266
000280 66 58 85 39 c6 f9 e3 39 36 34 aa b9 3c 41 95 b9
       0.000254336 0.0004348291 -0.00032463827 -0.00028468098
000290 8a e6 95 b8 ba 4f 94 b9 86 87 3d 39 61 a2 44 39
       -7.147815e-05 -0.0002828816 0.00018074931 0.00018752507
0002a0 92 9e b1 b9 71 45 3e bb 86 9e b4 3a 88 50 ef 3a
       -0.00033878215 -0.002903309 0.0013780154 0.0018258253
0002b0 3d cb 31 3a ed d6 ed 3a 7a a5 88 ba 50 97 8c ba
       0.0006782299 0.0018145718 -0.0010425292 -0.0010726247
0002c0 4c a1 dc b9 09 b2 24 bb 0e 53 a4 3a ef a6 ca 3a
       -0.00042081845 -0.0025130531 0.0012536959 0.0015461127
0002d0 b8 bf 12 3a c4 ff 61 3b da 4b eb ba c5 50 09 bb
       0.00055980263 0.0034484724 -0.0017951683 -0.0020952683
0002e0 48 96 2b 3a 88 95 2c 3b 87 71 ac ba 34 e9 c5 ba
       0.0006545526 0.0026334245 -0.0013156392 -0.0015099407
0002f0 7c 01 29 b8 84 0b 74 3a 68 13 e7 b9 5a a3 1a ba
       -4.0294122e-05 0.0009309577 -0.00044074212 -0.0005898975
000300 dc d0 32 b8 64 ff 71 ba 02 31 0c 3a f8 f5 30 3a
       -4.2633023e-05 -0.00092314766 0.0005347879 0.00067505194
000310 50 ff 5e b8 8a e9 81 b9 13 e6 12 39 37 d3 0a 39
       -5.3166703e-05 -0.00024778798 0.00014009354 0.00013239389
000320 78 ca 4e 39 41 e6 28 bb 27 72 cb 3a 7e ce dc 3a
       0.00019721116 -0.0025772008 0.0015521691 0.0016846207
000330 cc 99 8d 38 f1 9e e3 38 4c 23 39 b8 7e d6 47 b8
       6.752051e-05 0.000108538086 -4.414031e-05 -4.764506e-05
000340 7a c4 bd 39 60 8d df 3a 21 56 5a ba 28 24 81 ba
       0.00036195276 0.0017055683 -0.0008328874 -0.0009852694
000350 58 e1 e3 37 00 bd 8e ba 2d ad f3 39 b8 d1 3e 3a
       2.7165443e-05 -0.0010890067 0.00046477598 0.00072791753
000360 d2 5f e4 39 3d 95 e5 ba 4a 91 60 3a e5 04 9c 3a
       0.0004355894 -0.001751579 0.00085665716 0.0011903314
000370 66 e7 da 39 09 ac 56 3a d2 5f 1a ba 46 17 0a ba
       0.00041752605 0.00081890874 -0.0005888912 -0.000526775
000380 a8 9d 17 38 02 c0 d5 3a 14 2c 64 ba 72 cb 8b ba
       3.6148034e-05 0.0016307833 -0.0008704078 -0.001066549
000390 96 26 36 b9 3d 9f 96 ba b5 d3 1a 3a 9f 99 54 3a
       -0.00017371247 -0.0011491549 0.00059061806 0.00081100495
0003a0 3c a1 92 39 37 b8 2d 3b d5 ef ae ba 88 f3 d4 ba
       0.0002796742 0.0026507506 -0.0013346622 -0.0016246894
0003b0 1c 7f 2a 39 13 98 86 3a 17 51 28 ba 55 d4 35 ba
       0.00016259815 0.001026871 -0.0006420775 -0.0006936242
0003c0 68 66 f7 b9 56 8f f3 ba 32 99 8d 3a 87 f8 99 3a
       -0.0004718781 -0.0018582146 0.0010803102 0.001174704
0003d0 50 44 f5 b9 a0 09 50 ba d8 a4 23 3a 78 11 07 3a
       -0.00046780938 -0.00079360045 0.000624252 0.00051524444
0003e0 e4 94 b4 39 94 5b b8 3a 90 e7 3d ba 25 ba 58 ba
       0.00034443208 0.0014065378 -0.00072442833 -0.0008267484
0003f0 f6 42 f1 b9 16 2a 63 ba 88 46 13 3a f8 7b 0f 3a
       -0.00046016992 -0.0008665634 0.0005618115 0.000547349

exp_avg_sq f4 [64, 4]
000000 4a d3 82 37 57 c4 6a 37 4b af 52 35 43 75 61 36
       1.5595597e-05 1.3993201e-05 7.848618e-07 3.3595868e-06
000010 34 bb ce 37 13 5d 78 37 be 6e 8a 35 35 94 8b 36
       2.4644287e-05 1.4803622e-05 1.0314031e-06 4.1597764e-06
000020 42 3f 39 36 41 3a 18 36 51 2a 1c 34 1d 00 45 35
       2.760397e-06 2.2683673e-06 1.4544027e-07 7.3388384e-07
000030 ee 42 ca 35 3e 6f bb 35 aa 51 f5 33 96 f0 25 35
       1.5069652e-06 1.3964961e-06 1.1423556e-07 6.181739e-07
000040 4b 71 84 36 f5 61 59 36 74 a5 6c 34 13 32 80 35
       3.9470956e-06 3.2392538e-06 2.2039404e-07 9.551317e-07
000050 ba 43 0c 35 de 63 00 35 da 64 27 33 6c 38 b8 34
       5.225262e-07 4.782904e-07 3.897444e-08 3.4313723e-07
000060 47 09 d0 35 c8 15 b0 35 0a 56 12 34 a7 70 52 35
       1.5499908e-06 1.3119361e-06 1.362861e-07 7.8395027e-07
000070 20 68 86 34 08 52 a3 34 65 ad d9 32 3f b8 73 34
       2.5035206e-07 3.0420802e-07 2.5340976e-08 2.2698167e-07
000080 c7 76 6e 36 de 31 34 36 06 9c 3d 34 76 f3 51 35
       3.5533901e-06 2.6851117e-06 1.7658758e-07 7.821285e-07
000090 a5 35 03 38 18 7c b7 37 4a fc a3 35 0b 2e c1 36
       3.1282794e-05 2.1873086e-05 1.2217872e-06 5.7572083e-06
0000a0 01 84 f6 37 fc 7d af 37 d0 51 ac 35 a0 bb cf 36
       2.9386954e-05 2.0920292e-05 1.2838809e-06 6.190923e-06
0000b0 d0 25 66 36 ee 0b 0b 36 15 b9 55 34 2d ec 6c 35
       3.429468e-06 2.0719558e-06 1.9904503e-07 8.826053e-07
0000c0 43 93 0b 34 6b 59 38 34 ec a2 d3 32 4a 43 83 34
       1.2998957e-07 1.7168865e-07 2.4637721e-08 2.444961e-07
0000d0 96 00 02 36 f1 5c bc 35 69 b7 b3 33 7a 5f b5 35
       1.937185e-06 1.4034141e-06 8.368699e-08 1.3513338e-06
0000e0 73 96 d2 34 2f c9 a1 35 3c 1a 66 34 4a 4e 61 36
       3.9225014e-07 1.2053987e-06 2.1429963e-07 3.3573183e-06
0000f0 b7 ca 1b 37 c6 df dd 36 cc 25 2e 35 9b 20 71 36
       9.285918e-06 6.612364e-06 6.4875053e-07 3.5930777e-06
000100 8a 14 15 36 c9 0d 26 36 7a 05 59 34 54 50 05 36
       2.2214685e-06 2.4743952e-06 2.0211692e-07 1.9865302e-06
000110 6c 43 75 36 0f 20 2b 36 75 84 35 34 bf 14 b3 35
       3.654709e-06 2.5499646e-06 1.6905126e-07 1.3342577e-06
000120 39 85 98 36 5f 9e 50 36 2b 9d 40 34 da 24 a8 35
       4.545462e-06 3.10866e-06 1.7938571e-07 1.2527701e-06
000130 8e 9c b8 33 4c 75 6a 34 96 d3 9c 32 22 bd 30 35
       8.596645e-08 2.183562e-07 1.8257008e-08 6.5840334e-07
000140 81 d1 48 37 a4 74 03 37 aa e4 19 35 15 7f ff 35
       1.1969708e-05 7.835366e-06 5.732969e-07 1.9035966e-06
000150 58 99 c4 35 11 6a be 35 b2 06 23 34 b5 3b dd 35
       1.4647767e-06 1.4186973e-06 1.5182994e-07 1.648316e-06
000160 ab 0d 9e 36 28 ae 80 36 6c 8d 8c 34 de e0 c8 35
       4.710358e-06 3.8349717e-06 2.617993e-07 1.4966606e-06
000170 2d d5 bc 35 1d 72 82 35 cb 8d b0 33 dc be d3 34
       1.4069134e-06 9.718966e-07 8.221431e-08 3.944068e-07
000180 5e 73 e9 36 fe fc b3 36 83 de b9 34 4e 60 d4 35
       6.9573716e-06 5.364068e-06 3.4620834e-07 1.5823259e-06
000190 e1 ff 11 37 ab 94 02 37 f2 6e df 34 ef ba f5 35
       8.70225e-06 7.783218e-06 4.161771e-07 1.8308327e-06
0001a0 2f 3f 9f 37 81 30 84 37 06 2c 92 35 18 4d dc 36
       1.89837e-05 1.5758213e-05 1.089066e-06 6.565486e-06
0001b0 39 e8 0d 36 9d 6f b6 35 2f 58 ad 33 78 bf 3a 35
       2.1145809e-06 1.359254e-06 8.071981e-08 6.9569023e-07
0001c0 5c 7b 09 33 7b 19 cd 33 37 8a 71 32 6c 24 06 34
       3.2009993e-08 9.550691e-08 1.4059473e-08 1.2492973e-07
0001d0 09 76 2d 36 c2 a2 0b 36 70 b5 21 34 05 f5 5a 35
       2.5847714e-06 2.0807352e-06 1.50603e-07 8.156788e-07
0001e0 3b 22 6d 34 dd 59 48 34 18 cb 82 32 17 ce 61 34
       2.2084798e-07 1.8659144e-07 1.5226348e-08 2.1029733e-07
0001f0 2b 62 f3 35 54 4f 96 35 3b 32 0b 34 95 f9 22 35
       1.8133481e-06 1.1198958e-06 1.2963658e-07 6.071289e-07
000200 e9 63 08 37 e7 45 d7 36 e8 8a df 34 21 12 ef 35
       8.129494e-06 6.415637e-06 4.1638054e-07 1.7812164e-06
000210 08 d8 aa 36 9f 59 86 36 23 30 9b 34 56 24 d2 35
       5.091544e-06 4.0039445e-06 2.8906024e-07 1.5656794e-06
000220 9b 3b 2e 36 3b 15 16 36 d2 70 15 34 8e c4 72 35
       2.5962715e-06 2.23641e-06 1.391775e-07 9.043805e-07
000230 e9 43 b9 36 2a 75 a9 36 05 df 2a 35 24 4b df 36
       5.5213354e-06 5.050232e-06 6.365447e-07 6.6546654e-06
000240 aa 25 8c 35 dd 98 a0 35 bb 5f 0a 34 c2 aa 9a 35
       1.0441775e-06 1.1965418e-06 1.2887078e-07 1.1523591e-06
000250 8d 41 38 36 59 5f 13 36 ff 71 a5 34 d2 c7 11 36
       2.7456292e-06 2.1960207e-06 3.0816588e-07 2.1722994e-06
000260 94 1a 22 37 64 af 0d 37 af a2 5c 35 fb b6 7a 36
       9.662141e-06 8.445091e-06 8.219312e-07 3.7359412e-06
000270 35 50 34 37 fb db e0 36 a2 76 d6 34 ae 07 e0 35
       1.0747511e-05 6.7013293e-06 3.9946923e-07 1.6691536e-06
000280 3e 71 89 35 7a 8d 68 35 52 ab 94 33 8d 96 dc 34
       1.0240253e-06 8.663261e-07 6.92295e-08 4.1087733e-07
000290 6a e8 d8 34 5e ef e3 34 50 a6 f3 32 e2 a0 6f 34
       4.040224e-07 4.2456207e-07 2.8364553e-08 2.2317138e-07
0002a0 a3 1d 90 37 d0 5b 8a 37 f6 0a a3 35 4d 31 09 37
       1.7179938e-05 1.6493635e-05 1.2147636e-06 8.177315e-06
0002b0 fd 98 db 36 1b fe ae 36 fd 1f c3 34 8c 53 d5 35
       6.544519e-06 5.215186e-06 3.6344855e-07 1.5894052e-06
0002c0 af be 74 37 81 3d 4c 37 ff 7d 64 35 62 1c a4 36
       1.458793e-05 1.21736675e-05 8.511997e-07 4.890885e-06
0002d0 b7 cd 80 37 64 09 47 37 d3 88 8a 35 e2 f9 96 36
       1.5354583e-05 1.1863511e-05 1.0321622e-06 4.4994385e-06
0002e0 3f 9c 6c 37 98 00 1f 37 21 dd 1d 35 ff 2a 24 36
       1.4103075e-05 9.477277e-06 5.880884e-07 2.4462931e-06
0002f0 9a 36 b5 35 cc 9a 8d 35 1c d2 9e 33 67 86 c3 34
       1.3501442e-06 1.055037e-06 7.395667e-08 3.641937e-07
000300 bd 07 39 36 33 82 2f 36 3d 5b 76 34 74 16 02 36
       2.7571652e-06 2.6152818e-06 2.2943728e-07 1.938458e-06
000310 76 43 e7 33 4f 52 44 34 c2 5e d0 32 51 26 11 35
       1.0769047e-07 1.8283866e-07 2.4257478e-08 5.4072467e-07
000320 05 8e af 37 71 a0 8b 37 6f 92 86 35 20 8a c4 36
       2.0927759e-05 1.6644803e-05 1.0026396e-06 5.857335e-06
000330 68 60 b1 32 01 4b af 32 a8 6f b9 30 05 80 09 33
       2.0649352e-08 2.040679e-08 1.3492256e-09 3.201423e-08
000340 d2 28 a4 36 72 f3 60 36 b3 2b 54 34 c5 53 86 35
       4.892333e-06 3.3520305e-06 1.9759936e-07 1.0008158e-06
000350 9a 53 ed 35 d0 b2 b7 35 39 e1 f7 33 a8 a7 1a 35
       1.7682207e-06 1.3686604e-06 1.15428016e-07 5.761344e-07
000360 0e de 89 36 c6 db 91 36 01 6d 09 35 aa 85 5f 36
       4.1087687e-06 4.3469217e-06 5.11951e-07 3.3307392e-06
000370 85 66 49 36 bc b6 29 36 54 83 2b 34 3e 9c 40 35
       3.0011008e-06 2.5289328e-06 1.5973393e-07 7.1752936e-07
000380 d1 62 86 36 58 b2 75 36 85 db aa 34 e7 f7 c1 35
       4.005015e-06 3.6611655e-06 3.182469e-07 1.445177e-06
000390 50 7a 39 36 7e 00 f7 35 09 00 ec 33 8b 33 1e 35
       2.7638343e-06 1.8403077e-06 1.0989613e-07 5.893459e-07
0003a0 b0 20 86 37 e5 be 5f 37 c2 00 79 35 67 68 bf 36
       1.5989266e-05 1.3336282e-05 9.276083e-07 5.7043976e-06
0003b0 da 0c 62 36 66 92 38 36 eb 2d 4b 34 a7 6d 65 35
       3.3684105e-06 2.7503352e-06 1.8922553e-07 8.5468713e-07
0003c0 bd c1 1a 37 5b d6 df 36 da 64 d8 34 0b 50 e5 35
       9.2242235e-06 6.670872e-06 4.0306514e-07 1.7085125e-06
0003d0 19 10 5d 36 f2 9c 2f 36 a3 24 4e 34 27 e8 5d 35
       3.2940936e-06 2.6168386e-06 1.9198573e-07 8.266674e-07
0003e0 c5 63 46 36 f0 ed f8 35 48 86 db 33 1a 05 30 35
       2.9562373e-06 1.8546689e-06 1.0222408e-07 6.5572533e-07
0003f0 6a b0 f9 35 f5 0c c2 35 4a cb f8 33 5f f5 0a 35
       1.8603289e-06 1.4457897e-06 1.1585378e-07 5.176607e-07

exp_avg f4 [64]
000000 2a b8 9e 3a 9e 93 73 3a 8a b0 59 3a 4e 5d 4e 39
       0.0012109329 0.0009291711 0.00083041994 0.0001968045
000010 8c e9 27 3a 6a 82 79 b9 c1 53 91 3a e0 df 88 b7
       0.00064053456 -0.00023795074 0.0011087583 -1.6316713e-05
000020 00 43 bf b7 e9 71 a6 ba 85 6c 99 ba b2 c5 56 3a
       -2.2800174e-05 -0.0012698743 -0.0011705315 0.0008192911
000030 c0 f8 ec b7 e8 ae 51 39 1f 7a 00 39 60 84 00 b8
       -2.8249226e-05 0.00019996951 0.00012252525 -3.0640862e-05
000040 34 7e a4 38 69 15 1a 3a c8 2b 8f b8 6e 6a 15 39
       7.8436366e-05 0.0005877824 -6.826926e-05 0.00014249395
000050 00 ae 93 35 92 6a 31 3a ea df 6b ba 96 b3 76 3a
       1.1002994e-06 0.00067678944 -0.00089979044 0.00094109157
000060 ed 7a b9 b9 ef e1 15 ba a1 c7 09 ba e8 51 22 ba
       -0.00035377537 -0.00057175657 -0.0005255882 -0.00061920146
000070 b1 c0 f6 b8 67 91 20 3a ce a0 4b b9 82 66 8f 39
       -0.00011766086 0.0006125182 -0.00019419493 0.0002735146
000080 80 55 a0 36 09 85 2b ba ab da 44 ba 45 24 51 ba
       4.778325e-06 -0.0006542956 -0.00075093907 -0.0007978122
000090 68 17 8c 37 80 85 f8 39 98 c5 ba ba d8 18 1b 3a
       1.67002e-05 0.0004740171 -0.0014249561 0.0005916483
0000a0 33 11 aa b9 95 6d cf 38 83 47 8e ba 9e 22 96 3a
       -0.0003243774 9.8909404e-05 -0.0010855052 0.0011454409
0000b0 29 0b 94 ba 38 09 d8 3a 91 44 b6 3a cf 23 36 3a
       -0.001129483 0.001648224 0.0013905932 0.0006948085
0000c0 02 c2 fb b9 54 8e 6e b9 82 6d 04 ba 6b 04 4d 39
       -0.00048018998 -0.0002275047 -0.00050517183 0.0001955197
0000d0 35 31 78 3a 66 6c 56 ba f4 af 7d ba 0a b5 50 b9
       0.00094677816 -0.0008179605 -0.0009677403 -0.00019903868
0000e0 24 30 46 3a c0 b3 9e b9 bf dc d3 3a 35 98 ea 39
       0.0007560274 -0.00030270033 0.001616381 0.0004474536
0000f0 5a 2f d3 b9 c4 2c c0 38 d3 33 5e 3a 8e fe 09 ba
       -0.00040280336 9.163612e-05 0.00084763503 -0.0005264067

exp_avg_sq f4 [64]
000000 3e f4 58 38 6a df 80 38 5d cb 09 37 e3 0b cc 36
       5.172588e-05 6.14513e-05 8.2131855e-06 6.0810576e-06
000010 f2 55 4b 37 54 69 1d 36 52 af 0b 37 93 04 c5 35
       1.2119754e-05 2.3456132e-06 8.325866e-06 1.4678975e-06
000020 18 49 29 37 dc 26 a1 38 ea b8 9d 38 f3 68 58 37
       1.0090203e-05 7.6843164e-05 7.520786e-05 1.2899039e-05
000030 97 8c 9c 35 15 2f 8c 36 20 b1 fb 36 95 84 10 38
       1.1663823e-06 4.177806e-06 7.501003e-06 3.4455752e-05
000040 2d 64 2a 37 4c 57 1e 37 65 1e 31 37 42 a5 e5 34
       1.0156114e-05 9.437859e-06 1.0557099e-05 4.2774815e-07
000050 6c 12 0d 38 3c dc f5 36 64 5d 6f 37 45 44 a9 36
       3.3634176e-05 7.3272076e-06 1.4267254e-05 5.04454e-06
000060 f6 b9 ad 37 94 cb e2 37 54 d1 81 38 c3 7e 90 36
       2.0709802e-05 2.7036098e-05 6.19019e-05 4.3062914e-06
000070 92 50 1e 35 16 a2 09 37 f1 42 2b 35 8c 1d f6 36
       5.897683e-07 8.203575e-06 6.3799877e-07 7.334811e-06
000080 bb e5 c8 37 fa 3e 86 37 38 0d 04 37 2e 84 fd 37
       2.3948834e-05 1.600337e-05 7.870891e-06 3.0221501e-05
000090 83 89 c6 36 26 08 84 37 94 5c 56 38 a7 32 ce 37
       5.9168683e-06 1.573942e-05 5.1107796e-05 2.45807e-05
0000a0 7a 2a 7d 36 a6 ab d4 35 c0 ed 91 38 c9 12 a9 37
       3.7724662e-06 1.5845187e-06 6.958423e-05 2.0155117e-05
0000b0 9b 52 4a 38 c6 60 83 38 0b fb 0d 38 5a f8 9f 36
       4.8237485e-05 6.264592e-05 3.385082e-05 4.767481e-06
0000c0 8f 05 4e 37 fe e0 37 35 0d b2 7f 38 59 80 81 33
       1.2279851e-05 6.850022e-07 6.096256e-05 6.030377e-08
0000d0 e4 7d 3f 37 51 f2 e5 36 99 32 f4 37 36 03 24 37
       1.1413798e-05 6.852941e-06 2.9110628e-05 9.775909e-06
0000e0 1d 2c a4 37 22 de ec 36 b3 2d 5e 38 a9 96 3f 37
       1.9570865e-05 7.0592077e-06 5.2971485e-05 1.1419565e-05
0000f0 bc 04 cb 37 71 f9 36 37 0a 9a c3 36 56 98 d0 36
       2.420169e-05 1.0906123e-05 5.8293854e-06 6.2166173e-06

exp_avg f4 [64, 64]
000000 04 e6 66 b8 d3 0a 6e 39 06 6a 05 b9 19 ff f5 b8
       -5.5050492e-05 0.00022701481 -0.00012723365 -0.00011730026
000010 ec 4b 0e b9 ed 17 8a 39 31 ee 91 b9 08 17 8f 39
       -0.00013570458 0.00026339237 -0.00027834022 0.00027292245
000020 29 3c 8a b9 a4 eb 56 39 34 6f 4f 38 8c de 68 38
       -0.00026366234 0.00020496413 4.9456212e-05 5.5520373e-05
000030 79 69 f5 b9 00 98 e0 35 7e 41 d9 38 ba 36 c6 39
       -0.00046808625 1.6733538e-06 0.00010359565 0.00037806277
000040 51 56 1e b9 7c 49 93 38 c3 e0 af b9 58 6a 7c 39
       -0.0001510021 7.023194e-05 -0.00033546062 0.00024072209
000050 ce f9 01 ba 9f 94 14 b9 78 51 ca 38 24 86 c9 b9
       -0.0004958183 -0.00014169746 9.647285e-05 -0.0003843765
000060 92 eb 50 39 7f d1 b3 b8 8a 79 a5 39 33 1e 02 b9
       0.00019924183 -8.574407e-05 0.00031561806 -0.00012409016
000070 c2 94 14 b9 9b 2e 95 37 48 a8 98 b9 9a a8 e7 b9
       -0.00014169796 1.7783887e-05 -0.00029117079 -0.0004418537
000080 b1 9f 9c b9 91 32 18 b9 1c 4e c1 38 a2 d3 34 39
       -0.00029873618 -0.00014514687 9.217506e-05 0.00017244977
000090 9f 55 c5 39 a6 71 c4 b9 3d 09 07 b9 7a d3 72 39
       0.0003763856 -0.00037468708 -0.00012878045 0.000231577
0000a0 3b 59 da b9 7f 31 7d 39 67 60 82 b8 80 2f 9b b9
       -0.00041646682 0.00024146399 -6.2168394e-05 -0.00029599294
0000b0 68 ce f1 b7 28 d0 89 37 b0 3c 84 b6 94 42 d3 b8
       -2.8825554e-05 1.6428603e-05 -3.9409715e-06 -0.00010073665
0000c0 e4 6b 1e b8 9c aa 77 b9 35 1d 93 39 7f 20 9d 38
       -3.7770616e-05 -0.00023619313 0.00028059786 7.492396e-05
0000d0 4a 1f 82 b8 34 e4 27 39 28 fa b8 39 02 64 b9 b9
       -6.204711e-05 0.00016011373 0.00035281596 -0.0003536046
0000e0 1d 54 11 39 f6 b0 61 38 dc 12 43 b8 50 84 0c b8
       0.00013859612 5.3808988e-05 -4.6509187e-05 -3.3501827e-05
0000f0 15 f9 35 39 be a7 ac 39 0b 79 c0 b8 e0 ee 90 39
       0.00017354295 0.00032931374 -9.1778194e-05 0.00027643796
000100 1e 04 ce b8 2e 08 ff 39 04 44 cc b9 15 96 93 b9
       -9.823612e-05 0.00048643484 -0.00038960588 -0.00028149845
000110 c4 61 ca b9 fc 39 08 3a e6 40 1f ba 3f ea fb 39
       -0.00038601283 0.00051966286 -0.0006075039 0.00048048978
000120 d9 2c 10 ba 39 91 d4 39 8a ba d4 38 c4 65 aa 38
       -0.0005499847 0.0004054399 0.00010143693 8.125187e-05
000130 58 99 69 ba 5c 32 ae 38 43 97 8a 39 c1 22 55 3a
       -0.00089110946 8.306347e-05 0.0002643411 0.0008130484
000140 e2 03 9d b9 1e 86 43 39 30 ba 39 ba c2 9e 07 3a
       -0.00029948266 0.00018646612 -0.0007084934 0.0005173498
000150 49 99 8a ba af db bd b9 24 be a8 39 44 9e 62 ba
       -0.0010574247 -0.00036212566 0.00032185123 -0.0008644799
000160 ae 38 e6 39 db 00 84 b9 fc 85 20 3a a4 c2 61 b9
       0.00043911248 -0.0002517764 0.0006123481 -0.00021530181
000170 66 e7 a9 b9 ea bf 56 b8 26 c7 18 ba 41 26 70 ba
       -0.00032406597 -5.120031e-05 -0.0005828015 -0.0009160974
000180 e4 74 2b ba 4c 28 7d b9 eb 6c 9a 39 0a cc ca 39
       -0.00065405504 -0.00024142972 0.0002945432 0.00038680463
000190 80 7f 57 3a f3 7e 4c ba f6 2f 51 b9 10 93 0b 3a
       0.0008220598 -0.00078008993 -0.0001994966 0.0005324343
0001a0 b1 89 5a ba 9c a3 02 3a d3 9d 0b b9 1b c9 45 ba
       -0.00083365577 0.0004983486 -0.00013314867 -0.00075449207
0001b0 b4 b9 25 b8 f0 19 2e b8 00 59 af b8 ea 01 6f b9
       -3.9512015e-05 -4.150899e-05 -8.361228e-05 -0.00022793529
0001c0 1c e4 c9 b8 f3 94 d0 b9 c5 b0 05 3a 14 ac ed 38
       -9.6269156e-05 -0.00039783827 0.0005099888 0.00011333093
0001d0 18 c8 5d b9 86 10 cb 39 46 8b 39 3a aa ea 45 ba
       -0.00021150743 0.00038731488 0.00070779433 -0.0007549921
0001e0 c9 a3 82 39 7c 0c 60 38 b4 b0 0d b9 40 28 82 b8
       0.00024917562 5.341739e-05 -0.00013512635 -6.20638e-05
0001f0 b4 27 bf 39 11 f5 3c 3a b1 d6 78 b9 f9 16 39 3a
       0.0003645994 0.00072081486 -0.00023731102 0.0007060613
000200 d4 b7 be b8 be 30 dd 39 8b 90 af b9 50 5f 83 b9
       -9.094147e-05 0.0004218872 -0.00033486294 -0.0002505728
000210 96 29 b1 b9 4b 06 f0 39 98 e0 0c ba 3e bd de 39
       -0.00033791055 0.00045781056 -0.0005374043 0.00042484136
000220 35 3b 02 ba 63 c2 bc 39 17 e7 c0 38 30 5b 8e 38
       -0.0004967929 0.00036002984 9.198317e-05 6.788073e-05
000230 b2 09 4d ba 34 b5 74 38 da d1 76 39 ee b7 3c 3a
       -0.0007821574 5.8342892e-05 0.00023538564 0.00071990385
000240 b0 49 90 b9 4e 00 2f 39 6f b3 25 ba 50 7b f3 39
       -0.00027520722 0.00016689414 -0.0006320988 0.00046440447
000250 fd f7 73 ba a6 4d 9f b9 cd b4 8f 39 58 e0 44 ba
       -0.00093066675 -0.00030384696 0.00027409793 -0.00075102365
000260 6e e6 cc 39 1c 8a 5d b9 9a e2 0d 3a 95 3c 53 b9
       0.00039081596 -0.00021127652 0.00054124894 -0.00020145097
000270 b7 63 97 b9 e4 59 25 b8 9d da 08 ba 1f ac 52 ba
       -0.00028875258 -3.9422783e-05 -0.0005220564 -0.00080365123
000280 a5 7c 19 ba 9c 23 5f b9 0f 33 83 39 7a 43 af 39
       -0.00058550603 -0.00021280203 0.0002502431 0.00033428875
000290 8b be 3d 3a eb 37 33 ba 45 e2 35 b9 15 73 f1 39
       0.0007238171 -0.00068366405 -0.00017345797 0.00046052845
0002a0 8d c6 42 ba e2 c4 ec 39 ca f2 f1 b8 f4 48 2b ba
       -0.0007430099 0.00045160117 -0.000115369985 -0.0006534003
0002b0 5c bb 22 b8 f0 52 20 b8 75 45 8a b8 c4 a1 4c b9
       -3.8798302e-05 -3.8224214e-05 -6.59329e-05 -0.00019515218
0002c0 a0 f2 9d b8 96 87 bb b9 e1 8d ee 39 10 18 eb 38
       -7.531536e-05 -0.0003576844 0.00045500605 0.00011210155
0002d0 a2 f2 38 b9 09 51 af 39 b6 7b 24 3a d2 8b 31 ba
       -0.00017637995 0.00033438977 0.0006274538 -0.0006772849
0002e0 3f 6e 63 39 9a 87 83 38 26 3f e7 b8 92 b1 91 b8
       0.00021689477 6.2718245e-05 -0.00011026701 -6.947214e-05
0002f0 1f 80 ac 39 82 7e 29 3a 27 57 51 b9 4c 84 20 3a
       0.00032901854 0.00064656895 -0.0001996426 0.00061232294
000300 10 cb 3c 37 68 25 41 b8 54 21 d7 37 31 55 c5 37
       1.1252952e-05 -4.6049623e-05 2.5645517e-05 2.35239e-05
000310 de fa e3 37 82 c4 60 b8 7b 45 6b 38 aa 54 6c b8
       2.7177328e-05 -5.3588774e-05 5.6093075e-05 -5.6345634e-05
000320 00 f5 60 38 d7 be 33 b8 8f 05 2c b7 90 b9 2c b7
       5.3633936e-05 -4.285466e-05 -1.0253293e-05 -1.02952035e-05
000330 c4 d3 c9 38 50 c9 35 35 39 75 a8 b7 9d ed a0 b8
       9.623871e-05 6.77207e-07 -2.0081747e-05 -7.6736535e-05
000340 dd 6b 03 38 a0 a5 66 b7 b4 87 90 38 84 06 50 b8
       3.133329e-05 -1.3747631e-05 6.891732e-05 -4.9597133e-05
000350 3f cb d4 38 0c d2 ec 37 b0 cc a2 b7 74 f8 a3 38
       0.00010146805 2.8231203e-05 -1.940722e-05 7.818724e-05
000360 0c 6c 2d b8 d6 9b 93 37 8f 63 88 b8 a8 d2 d2 37
       -4.134704e-05 1.7596332e-05 -6.5035296e-05 2.5132045e-05
000370 d9 cb f5 37 a8 a2 8e b6 24 92 7a 38 55 ce bc 38
       2.93012e-05 -4.2508655e-06 5.974075e-05 9.002971e-05
000380 ce e0 7f 38 f0 2d f9 37 46 65 a0 b7 ab d7 10 b8
       6.1006103e-05 2.9704504e-05 -1.9120645e-05 -3.4533132e-05
000390 e5 32 a1 b8 6e bd 9f 38 2f 7c d7 37 ed 28 45 b8
       -7.686558e-05 7.616995e-05 2.5687825e-05 -4.7006575e-05
0003a0 55 8f b2 38 3a c3 4f b8 9e be 5d 37 56 af 7c 38
       8.514399e-05 -4.9534465e-05 1.3217008e-05 6.0244776e-05
0003b0 b0 1b d1 36 b0 5a 2b b6 70 29 77 35 b1 bc a8 37
       6.2319086e-06 -2.5533773e-06 9.207497e-07 2.0115027e-05
0003c0 98 c6 e4 36 c6 e9 48 38 8a ef 75 b8 cd 0d 86 b7
       6.818049e-06 4.7901434e-05 -5.863564e-05 -1.5980471e-05
0003d0 c2 11 54 37 4a b9 06 b8 82 e4 96 b8 bf d6 98 38
       1.2640319e-05 -3.2120653e-05 -7.19512e-05 7.2879244e-05
0003e0 a3 28 e9 b7 1d 20 4b b7 90 8b 1b 37 30 7d f5 36
       -2.7794687e-05 -1.210722e-05 9.271214e-06 7.3161427e-06
0003f0 1d 01 16 b8 87 04 8c b8 f2 4a a1 37 78 70 6a b8
       -3.5763824e-05 -6.6765635e-05 1.9227595e-05 -5.5894692e-05

exp_avg_sq f4 [64, 64]
000000 6b 4e 61 34 f0 a7 bb 33 6e 5b a0 34 15 87 29 33
       2.0983286e-07 8.738414e-08 2.9868846e-07 3.9471235e-08
000010 51 58 45 34 95 73 40 34 6a 98 3a 35 9d 38 c0 34
       1.8379184e-07 1.7923442e-07 6.951219e-07 3.5803978e-07
000020 c9 55 a2 34 1d b6 7b 34 82 a0 8e 32 5c b5 d2 34
       3.0237268e-07 2.3442449e-07 1.6603966e-08 3.9247504e-07
000030 0c 97 02 35 7a 59 ed 34 b3 4f 00 34 41 d0 34 34
       4.8648576e-07 4.4209793e-07 1.1949923e-07 1.6839569e-07
000040 ad 3c 10 35 e7 00 d6 33 90 bc a8 34 42 18 bb 34
       5.3732475e-07 9.965316e-08 3.1429636e-07 3.4849114e-07
000050 d7 38 76 34 76 97 1a 35 53 5f ac 34 17 9d d9 34
       2.2931214e-07 5.7589875e-07 3.2106854e-07 4.0533698e-07
000060 46 ee 42 34 5b 2f 22 34 c8 63 8e 34 c0 b9 c3 34
       1.8154341e-07 1.5104654e-07 2.6522162e-07 3.645673e-07
000070 7f 37 7d 34 03 25 8a 34 32 f6 e7 34 de 4f 73 34
       2.358265e-07 2.5731433e-07 4.3206234e-07 2.2660194e-07
000080 fd a6 86 34 89 c1 10 34 20 14 4c 34 21 0a 86 34
       2.5080945e-07 1.3481453e-07 1.9006302e-07 2.4966815e-07
000090 7c d1 04 34 e5 9c 80 34 ff 0d a1 34 15 12 9e 33
       1.2369668e-07 2.3956014e-07 2.999877e-07 7.3607374e-08
0000a0 58 97 09 35 89 e6 fb 34 63 16 8a 34 7f de ae 34
       5.125671e-07 4.692013e-07 2.5720792e-07 3.2571913e-07
0000b0 aa b5 77 34 2b 98 8a 34 77 d6 8e 34 21 8b a9 34
       2.3069757e-07 2.581522e-07 2.6605605e-07 3.1579933e-07
0000c0 a9 08 1a 35 bd 15 08 35 e8 97 12 35 d0 45 15 35
       5.738207e-07 5.069558e-07 5.461029e-07 5.5608416e-07
0000d0 78 15 85 34 a3 b3 0f 35 35 e2 af 34 00 7e 25 35
       2.47888e-07 5.3533057e-07 3.2760877e-07 6.1650644e-07
0000e0 91 b8 80 34 3a 7f 1e 35 1b 3d 98 34 a6 35 e4 34
       2.3976148e-07 5.9044726e-07 2.8356666e-07 4.2507344e-07
0000f0 d3 2f 2f 34 9d c2 92 34 d4 35 64 33 07 e9 ad 34
       1.6315543e-07 2.733622e-07 5.3134343e-08 3.239331e-07
000100 f0 d0 b1 35 1f 58 1d 35 7c ab 0e 36 f3 66 8d 34
       1.3248336e-06 5.861529e-07 2.1259466e-06 2.6338202e-07
000110 8a 39 b9 35 0b c7 89 35 5b 39 90 36 94 fd 11 36
       1.380032e-06 1.0265225e-06 4.2982115e-06 2.1754286e-06
000120 f1 18 fe 35 e4 bf c4 35 7a ce d6 33 f8 7d 17 36
       1.8931734e-06 1.4658985e-06 1.00027094e-07 2.2574077e-06
000130 b1 c3 47 36 73 15 33 36 fd 69 44 35 cc 83 95 35
       2.9767218e-06 2.6685564e-06 7.3169923e-07 1.1139723e-06
000140 d2 f8 5a 36 75 d4 17 35 db bf 05 36 e8 c0 0c 36
       3.2629364e-06 5.656105e-07 1.993022e-06 2.0973912e-06
000150 52 e7 cf 35 54 6e 70 36 4f f2 18 36 16 df 34 36
       1.5490025e-06 3.5827006e-06 2.2790807e-06 2.6951943e-06
000160 06 f5 8b 35 98 b4 5f 35 5a 61 d7 35 0f 63 26 36
       1.0427618e-06 8.333677e-07 1.6047081e-06 2.4793587e-06
000170 ad 74 b3 35 8e ac ee 35 b1 42 3c 36 fb 3c bb 35
       1.3370496e-06 1.7782602e-06 2.8053003e-06 1.3950333e-06
000180 d4 46 d5 35 f5 27 71 35 3e d5 a5 35 f4 f6 cc 35
       1.589035e-06 8.983764e-07 1.235552e-06 1.5271057e-06
000190 a1 bc 49 35 0f 6c c3 35 44 da f1 35 0b bf e1 34
       7.5152826e-07 1.4560081e-06 1.8019423e-06 4.2048518e-07
0001a0 b1 f7 5b 36 45 04 41 36 4f 5f d7 35 50 12 23 36
       3.2777718e-06 2.8761726e-06 1.6046487e-06 2.4299552e-06
0001b0 af 9b ca 35 ae 88 e3 35 9e 78 08 36 60 8c fd 35
       1.5095483e-06 1.6952597e-06 2.0335788e-06 1.8890823e-06
0001c0 b3 b3 61 36 62 ad 68 36 87 2a 5e 36 9a 03 67 36
       3.3632211e-06 3.4671616e-06 3.3105332e-06 3.4423779e-06
0001d0 82 c2 f5 35 a5 5d 68 36 57 4f 00 36 af e3 79 36
       1.8310532e-06 3.4625202e-06 1.9119668e-06 3.723642e-06
0001e0 68 ce af 35 23 c8 6f 36 d0 9a f8 35 23 b0 27 36
       1.3098588e-06 3.573027e-06 1.8522496e-06 2.4987464e-06
0001f0 97 48 85 35 83 d7 ec 35 f6 7f be 34 08 ca 18 36
       9.930399e-07 1.7646092e-06 3.5483362e-07 2.2767363e-06
000200 07 bf d8 35 a4 c2 23 35 f9 68 28 36 9f 1a f4 34
       1.614885e-06 6.100547e-07 2.5095053e-06 4.546791e-07
000210 66 3e 04 36 4a bb a3 35 a7 9c 9f 36 dd 4d 11 36
       1.9705853e-06 1.2198955e-06 4.756806e-06 2.1652006e-06
000220 63 73 2b 36 13 99 ff 35 99 c5 0f 34 e6 a4 13 36
       2.554815e-06 1.9043531e-06 1.3389798e-07 2.200069e-06
000230 4d 64 49 36 b6 cf 42 36 34 97 66 35 58 26 f6 35
       3.0009717e-06 2.9029156e-06 8.5901706e-07 1.8339588e-06
000240 04 d9 64 36 2b aa 11 35 77 a7 44 36 c7 8b 28 36
       3.4100967e-06 5.4264336e-07 2.9303753e-06 2.5115312e-06
000250 d7 75 3b 36 56 e3 80 36 15 58 2d 36 a5 29 6c 36
       2.7933763e-06 3.8411627e-06 2.583028e-06 3.519098e-06
000260 26 cc 95 35 29 09 67 35 18 9e 01 36 18 8c 2d 36
       1.116078e-06 8.6067536e-07 1.931452e-06 2.5860554e-06
000270 40 0f b1 35 cd 19 06 36 a1 d5 43 36 58 b9 04 36
       1.3191966e-06 1.9982574e-06 2.9181613e-06 1.9777417e-06
000280 40 d4 22 36 8f d4 71 35 dd d0 a5 35 75 e3 eb 35
       2.4263427e-06 9.008881e-07 1.2354245e-06 1.7575063e-06
000290 94 76 60 35 8d 2d 01 36 30 e9 eb 35 1c cc d5 34
       8.3619057e-07 1.9249012e-06 1.7576731e-06 3.982285e-07
0002a0 ba 03 75 36 0a 38 59 36 66 6c e8 35 41 e9 54 36
       3.6510014e-06 3.2368139e-06 1.7316895e-06 3.1726233e-06
0002b0 ef 51 d9 35 1d 29 f9 35 f1 b8 1e 36 75 38 00 36
       1.6191606e-06 1.8563911e-06 2.3651485e-06 1.9106349e-06
0002c0 06 b5 64 36 a0 3b 73 36 3d a0 81 36 75 e9 6f 36
       3.4080017e-06 3.6244528e-06 3.863154e-06 3.5749665e-06
0002d0 63 ed 0f 36 50 9a 85 36 81 93 1c 36 c2 78 98 36
       2.1446838e-06 3.981673e-06 2.333167e-06 4.544011e-06
0002e0 26 42 9d 35 f2 78 7c 36 e3 85 02 36 14 5a 3e 36
       1.1716663e-06 3.7621326e-06 1.9449442e-06 2.8364639e-06
0002f0 14 0e b1 35 ec 3f 39 36 23 2d cf 34 87 be 43 36
       1.3191625e-06 2.7604356e-06 3.8589596e-07 2.9168166e-06
000300 d8 bf 51 32 a1 85 30 31 98 8e 89 32 e4 fe db 31
       1.2209021e-08 2.568733e-09 1.6013743e-08 6.4027166e-09
000310 2a 8c a0 32 9b 40 59 32 ca 90 03 33 5c a2 3c 32
       1.869019e-08 1.2645752e-08 3.06325e-08 1.09799565e-08
000320 3a b1 d4 32 61 80 63 32 46 a4 8d 30 26 b9 3b 32
       2.4760642e-08 1.3242329e-08 1.030579e-09 1.09269305e-08
000330 ac 90 8f 32 6e fc 7c 32 2b 9b fb 31 fa a3 c8 32
       1.671318e-08 1.4725726e-08 7.322702e-09 2.3357632e-08
000340 c9 24 a7 32 3c 0e 83 31 74 19 ff 32 6c ba b1 32
       1.9458087e-08 3.81422e-09 2.9697482e-08 2.0690287e-08
000350 a6 aa 16 33 39 c6 aa 32 50 66 6e 32 58 db 02 33
       3.50798e-08 1.9880746e-08 1.38766865e-08 3.0467476e-08
000360 4d 73 fd 31 65 2d e3 31 84 2b 76 32 d3 3f 3b 32
       7.3763773e-09 6.6117303e-09 1.4328979e-08 1.08993445e-08
000370 10 1e 16 32 84 5c 32 32 2e fc 65 32 f9 00 c9 32
       8.737985e-09 1.0381999e-08 1.3386893e-08 2.3399922e-08
000380 00 3a e9 32 a9 38 88 31 a9 c7 d0 31 4f 2d 5c 32
       2.7151145e-08 3.9645625e-09 6.0762955e-09 1.2815987e-08
000390 ea c1 ea 31 0e 35 b2 32 9b a3 20 32 89 d0 0c 31
       6.832342e-09 2.0746054e-08 9.350425e-09 2.049122e-09
0003a0 c1 42 be 32 84 3e c5 32 19 91 37 32 b9 62 cf 32
       2.2149267e-08 2.2962247e-08 1.0684993e-08 2.4142865e-08
0003b0 4d e2 10 32 42 01 36 32 4d ed 45 32 84 c4 2f 32
       8.433358e-09 1.059408e-08 1.1520865e-08 1.0231023e-08
0003c0 a3 b5 95 32 b7 45 81 32 f5 09 d0 32 c3 56 8e 32
       1.7428482e-08 1.504928e-08 2.4218915e-08 1.657043e-08
0003d0 ca 2d 47 32 0b 8e dc 32 58 f3 ca 32 c8 a2 1d 33
       1.1593736e-08 2.5675964e-08 2.3626555e-08 3.670246e-08
0003e0 57 17 e7 31 fb 31 93 32 ff 46 1f 32 86 d0 b1 32
       6.7256383e-09 1.713578e-08 9.271161e-09 2.0700337e-08
0003f0 cb 58 4b 32 fc ce 0e 33 a5 b2 22 31 83 39 c8 32
       1.1836344e-08 3.3250203e-08 2.367565e-09 2.3309218e-08

exp_avg f4 [64]
000000 c2 e2 a2 39 e8 e8 03 3a c6 8d f9 39 44 ff 86 b8
       0.00031067996 0.0005031959 0.0004759861 -6.437165e-05
000010 1e 32 bb b9 de 10 86 b9 d4 42 89 39 a8 27 72 36
       -0.0003570476 -0.0002557104 0.00026180467 3.6083893e-06
000020 fa 16 c7 b7 00 77 80 39 5d 0e 9f 39 94 e3 62 39
       -2.3733348e-05 0.00024502724 0.00030337545 0.00021637819
000030 55 b7 83 b9 e4 84 2c 3a 47 48 c9 39 84 fa 88 39
       -0.0002512286 0.00065810815 0.00038391558 0.0002612659
000040 e6 07 4d 39 1c eb d9 38 7a 6a e4 38 94 df 8b b9
       0.00019553266 0.00010391159 0.0001089172 -0.00026678725
000050 df 87 f5 b9 5f 51 97 39 91 51 91 39 ec 95 03 ba
       -0.00046831273 0.0002886159 0.00027717327 -0.00050195935
000060 75 93 4c 39 9d fd 3f 38 de c8 92 b9 9f 94 3e ba
       0.00019509888 4.5774144e-05 -0.00027996948 -0.0007270071
000070 df 72 f6 39 ee cf f1 39 11 cb b7 b8 4a da 05 3a
       0.00047006362 0.00046122022 -8.763944e-05 0.0005106075
000080 82 34 00 b9 5d eb 61 b9 5e fe f1 39 a5 89 0f 39
       -0.00012226592 -0.00021545352 0.0004615662 0.0001368882
000090 4c 03 41 b9 3a d4 96 39 4a 18 87 b9 d1 4e a5 39
       -0.00018407142 0.0002876835 -0.00025767303 0.00031529975
0000a0 d4 c8 a1 39 7d c6 91 b9 c4 8a 28 39 f0 cd 4d b9
       0.00030857942 -0.0002780444 0.00016073423 -0.00019627041
0000b0 5e e4 0d 3a 0b ec 11 b9 d2 c1 0e 3a 31 86 29 3a
       0.00054127525 -0.0001391621 0.00054457516 0.00064668345
0000c0 81 08 27 b9 1d 46 10 b9 1c 5e ac b9 03 bf f8 38
       -0.00015929529 -0.0001375903 -0.00032876513 0.0001186114
0000d0 20 99 10 ba 40 8c c8 39 3a 51 f6 38 ac c0 c0 b9
       -0.00055159815 0.00038251467 0.00011745324 -0.00036764645
0000e0 35 b1 de b9 82 7d 81 b9 e7 3a 81 b9 0c 7d e4 39
       -0.0004247517 -0.00024698308 -0.00024648683 0.00043580716
0000f0 0e 2d 14 b9 1b 6b 26 39 fa 15 1f b9 c6 fb 90 38
       -0.00014131164 0.00015870894 -0.00015171609 6.9133515e-05

exp_avg_sq f4 [64]
000000 bf 2b 2b 36 a0 66 87 37 47 8d 8e 37 c8 bf ad 33
       2.550645e-06 1.6141043e-05 1.6993507e-05 8.090825e-08
000010 a4 ed 14 37 d7 1f 87 37 89 af 1a 36 bb e9 bf 34
       8.876817e-06 1.610808e-05 2.3049963e-06 3.5746584e-07
000020 6e a0 2a 35 20 11 36 36 08 2f 00 37 35 72 81 37
       6.356339e-07 2.7130081e-06 7.640345e-06 1.543118e-05
000030 78 51 83 36 a1 50 a5 37 30 e2 1d 37 9a 69 41 36
       3.9135884e-06 1.9707079e-05 9.410593e-06 2.882071e-06
000040 2e af 6d 36 09 a1 8c 34 66 5e 8e 36 a8 e0 3e 36
       3.541772e-06 2.61942e-07 4.242919e-06 2.8442973e-06
000050 cb a8 28 37 53 8c a6 37 75 07 4c 36 fe 58 10 37
       1.00528805e-05 1.9854086e-05 3.040271e-06 8.603789e-06
000060 70 64 92 36 7c 1f b9 34 bd 43 29 37 57 e6 35 38
       4.3628315e-06 3.4481843e-07 1.00889565e-05 4.3368284e-05
000070 5b 37 a0 37 99 42 df 36 8d 83 c8 35 55 82 b6 37
       1.9099263e-05 6.653671e-06 1.4939448e-06 2.1756781e-05
000080 7a 5b 29 35 6d 54 57 36 e9 78 41 38 eb e2 e1 36
       6.309052e-07 3.2086639e-06 4.6127392e-05 6.7319393e-06
000090 e6 10 a3 35 b9 64 36 37 fe 67 9d 36 20 c8 2b 37
       1.2149364e-06 1.0871497e-05 4.691071e-06 1.02389895e-05
0000a0 82 11 ac 36 61 fc 17 37 48 f9 28 36 54 97 3a 36
       5.1280376e-06 9.059063e-06 2.5179052e-06 2.7804244e-06
0000b0 e5 d8 23 38 56 22 62 37 ff 5f eb 37 75 56 08 38
       3.9064227e-05 1.3478644e-05 2.8058885e-05 3.2505446e-05
0000c0 1d e3 ab 35 c8 b3 fb 34 e4 1f c3 36 42 f8 46 36
       1.2806591e-06 4.68832e-07 5.8151654e-06 2.9648804e-06
0000d0 9d 8b 9d 37 93 f5 6a 37 69 87 b0 35 2e 81 b7 36
       1.8780871e-05 1.4004664e-05 1.3152431e-06 5.4688635e-06
0000e0 36 ce 83 37 a7 26 18 36 94 54 c1 36 1f cd 34 37
       1.5712441e-05 2.2672264e-06 5.7616944e-06 1.07765945e-05
0000f0 20 33 ff 34 5a 6f b2 36 b7 86 4f 36 83 f6 f7 34
       4.753465e-07 5.3177764e-06 3.0923818e-06 4.6186696e-07

exp_avg f4 [2, 64]
000000 f4 c9 ce 3a 86 7b 2c 3b 18 7f 1e 3a c6 fe e0 38
       0.001577674 0.0026318743 0.000604616 0.000107286076
000010 9b 82 85 bb ba 48 5b bb d8 51 99 3a 30 a4 dc ba
       -0.0040744073 -0.0033460096 0.0011697365 -0.00168336
000020 5d e0 b4 ba 77 89 9d b9 08 07 42 ba 82 8c 34 3b
       -0.0013799776 -0.00030047793 -0.00074015604 0.002754957
000030 38 50 61 bb c9 9d 5d 3a b4 ed fd 3a f6 80 e3 3a
       -0.003438009 0.0008453993 0.0019373209 0.0017357159
000040 de 9c 74 3b 59 82 27 3a 67 8a 7b 3b 69 28 d0 ba
       0.0037324945 0.0006389968 0.0038382055 -0.0015881184
000050 08 37 02 ba e1 0c 32 3b 40 e4 3a 39 09 05 42 bb
       -0.0004967307 0.002716832 0.00017823372 -0.0029605052
000060 8a 7f 25 3b 2e 81 c9 3a 20 19 16 bb 79 cb 12 bb
       0.002525302 0.0015373582 -0.002290316 -0.0022399111
000070 86 76 3a 3b 98 dc b9 3a 68 7e b7 ba a4 e2 ec 3a
       0.0028451993 0.0014180122 -0.0013999464 0.0018072915
000080 a0 4d 54 bb 09 18 50 ba a8 29 20 3b 60 c8 14 3b
       -0.00323949 -0.0007938152 0.0024438892 0.002270244
000090 9a da 01 bb 86 f5 2d 3b 96 65 2d bb e5 a3 0a 3b
       -0.0019814135 0.0026544048 -0.0026458255 0.0021154818
0000a0 fc b2 56 b9 18 5f dd ba 45 c6 74 3b 95 4c 8d bb
       -0.00020475307 -0.0016889302 0.0037349623 -0.004312108
0000b0 74 df 1f 3b b4 4b 90 bb 7e 61 3e 3a ea fd 4f 3b
       0.0024394663 -0.0044035558 0.0007262452 0.0031737038
0000c0 9d 94 a9 ba 25 c6 7c 3a d6 32 47 bb 9c 24 a0 3a
       -0.0012937967 0.0009642563 -0.003039529 0.0012217942
0000d0 e7 3f a6 b9 2f 44 1b 3b eb 3e 83 ba f4 9f b9 ba
       -0.00031709598 0.0023691764 -0.0010013258 -0.001416205
0000e0 28 71 f7 ba 78 00 f9 ba c7 d1 29 bb c7 65 34 3a
       -0.0018878328 -0.0018997332 -0.002591239 0.0006881621
0000f0 b8 88 26 ba b0 38 e2 ba a0 65 82 bb ec 32 9e 3a
       -0.000635277 -0.0017259326 -0.0039794 0.0012069619
000100 f4 c9 ce ba 88 7b 2c bb 15 7f 1e ba e8 fe e0 b8
       -0.001577674 -0.0026318748 -0.00060461584 -0.00010728632
000110 9a 82 85 3b ba 48 5b 3b da 51 99 ba 2a a4 dc 3a
       0.004074407 0.0033460096 -0.0011697367 0.0016833593
000120 60 e0 b4 3a 8c 89 9d 39 fe 06 42 3a 83 8c 34 bb
       0.0013799779 0.00030047854 0.00074015546 -0.0027549572
000130 3c 50 61 3b c9 9d 5d ba b7 ed fd ba f8 80 e3 ba
       0.0034380099 -0.0008453993 -0.0019373213 -0.0017357161
000140 e2 9c 74 bb 5a 82 27 ba 66 8a 7b bb 6e 28 d0 3a
       -0.0037324955 -0.00063899683 -0.0038382052 0.001588119
000150 02 37 02 3a e5 0c 32 bb 5c e4 3a b9 0c 05 42 3b
       0.0004967303 -0.002716833 -0.00017823413 0.002960506
000160 89 7f 25 bb 2c 81 c9 ba 24 19 16 3b 79 cb 12 3b
       -0.0025253019 -0.0015373579 0.0022903169 0.0022399111
000170 86 76 3a bb 97 dc b9 ba 68 7e b7 3a a4 e2 ec ba
       -0.0028451993 -0.0014180121 0.0013999464 -0.0018072915
000180 a3 4d 54 3b 0d 18 50 3a aa 29 20 bb 62 c8 14 bb
       0.0032394908 0.0007938154 -0.0024438896 -0.0022702445
000190 9a da 01 3b 87 f5 2d bb 99 65 2d 3b e6 a3 0a bb
       0.0019814135 -0.002654405 0.0026458262 -0.002115482
0001a0 0d b3 56 39 18 5f dd 3a 48 c6 74 bb 95 4c 8d 3b
       0.00020475332 0.0016889302 -0.003734963 0.004312108
0001b0 72 df 1f bb b5 4b 90 3b 81 61 3e ba ee fd 4f bb
       -0.0024394658 0.004403556 -0.0007262454 -0.0031737047
0001c0 9c 94 a9 3a 25 c6 7c ba d8 32 47 3b 98 24 a0 ba
       0.0012937966 -0.0009642563 0.0030395295 -0.0012217937
0001d0 e4 3f a6 39 32 44 1b bb f4 3e 83 3a fa 9f b9 3a
       0.0003170959 -0.002369177 0.0010013268 0.0014162057
0001e0 2a 71 f7 3a 78 00 f9 3a c3 d1 29 3b ce 65 34 ba
       0.001887833 0.0018997332 0.0025912381 -0.0006881625
0001f0 c0 88 26 3a b0 38 e2 3a a1 65 82 3b ee 32 9e ba
       0.0006352775 0.0017259326 0.0039794003 -0.0012069622

exp_avg_sq f4 [2, 64]
000000 61 6b 1d 38 c3 37 6f 37 6f 72 52 37 91 70 d7 37
       3.753172e-05 1.4258493e-05 1.2543619e-05 2.5682415e-05
000010 59 c1 4a 38 96 08 5e 38 0c 4c fd 36 c7 df 56 38
       4.8340622e-05 5.293692e-05 7.5488406e-06 5.1229985e-05
000020 05 17 2d 37 50 4a 0d 38 24 15 e8 38 84 92 fd 37
       1.0316963e-05 3.368623e-05 0.0001106656 3.0228177e-05
000030 7a de 1b 38 10 c5 23 38 b9 34 ec 37 d6 60 c1 37
       3.7162077e-05 3.9045757e-05 2.8157943e-05 2.3052486e-05
000040 15 02 d5 37 02 01 3e 37 22 ca 4e 38 37 0f 9a 38
       2.5392548e-05 1.1325117e-05 4.9302478e-05 7.346126e-05
000050 67 91 01 38 e5 82 3d 38 b7 a1 6a 38 55 3d 5b 38
       3.0891413e-05 4.5183016e-05 5.5940556e-05 5.227079e-05
000060 d7 c1 0a 38 0e 52 85 38 cd 63 40 38 3b be 49 37
       3.308229e-05 6.357218e-05 4.5869314e-05 1.2024825e-05
000070 f5 1c af 37 56 2d d4 37 10 36 28 38 e6 8d 35 37
       2.087511e-05 2.529348e-05 4.010467e-05 1.0821479e-05
000080 1b e9 b7 37 ec 2f bf 36 d6 e9 19 38 f8 ef 21 38
       2.1923848e-05 5.6978224e-06 3.669582e-05 3.860888e-05
000090 92 33 39 38 88 4d e1 37 e0 8c 9b 37 89 00 22 38
       4.4155466e-05 2.6858193e-05 1.854304e-05 3.862431e-05
0000a0 d2 c6 2f 37 dc 94 1c 38 8b 5d 08 38 f5 75 4b 38
       1.0477104e-05 3.7331934e-05 3.2512045e-05 4.8508828e-05
0000b0 49 1c 81 37 cb f6 18 38 50 7a 9f 37 9b 71 63 38
       1.539117e-05 3.6469468e-05 1.9011233e-05 5.422682e-05
0000c0 4c 61 98 37 24 38 1f 38 d5 2f 20 38 2d f6 33 38
       1.816512e-05 3.796084e-05 3.819152e-05 4.2906195e-05
0000d0 0e 50 24 38 3e ba f6 37 d2 de 9f 38 79 4b 9c 38
       3.9175204e-05 2.9412211e-05 7.623214e-05 7.4527175e-05
0000e0 e5 fc c3 37 13 d1 ff 36 b2 bd 8d 38 e5 36 38 37
       2.3363575e-05 7.6239317e-06 6.7587374e-05 1.0980036e-05
0000f0 3e e0 bd 37 74 7c 32 38 2d 6a 05 38 e1 65 a2 38
       2.2634977e-05 4.2554413e-05 3.1808555e-05 7.7437384e-05
000100 61 6b 1d 38 c3 37 6f 37 70 72 52 37 92 70 d7 37
       3.753172e-05 1.4258493e-05 1.254362e-05 2.5682417e-05
000110 57 c1 4a 38 96 08 5e 38 0d 4c fd 36 c5 df 56 38
       4.8340615e-05 5.293692e-05 7.548841e-06 5.1229978e-05
000120 06 17 2d 37 50 4a 0d 38 23 15 e8 38 85 92 fd 37
       1.0316964e-05 3.368623e-05 0.00011066559 3.0228179e-05
000130 7a de 1b 38 0f c5 23 38 b9 34 ec 37 d7 60 c1 37
       3.7162077e-05 3.9045754e-05 2.8157943e-05 2.3052487e-05
000140 15 02 d5 37 02 01 3e 37 22 ca 4e 38 37 0f 9a 38
       2.5392548e-05 1.1325117e-05 4.9302478e-05 7.346126e-05
000150 67 91 01 38 e5 82 3d 38 b7 a1 6a 38 53 3d 5b 38
       3.0891413e-05 4.5183016e-05 5.5940556e-05 5.227078e-05
000160 d6 c1 0a 38 0e 52 85 38 cd 63 40 38 3b be 49 37
       3.3082288e-05 6.357218e-05 4.5869314e-05 1.2024825e-05
000170 f3 1c af 37 57 2d d4 37 10 36 28 38 e6 8d 35 37
       2.0875106e-05 2.5293482e-05 4.010467e-05 1.0821479e-05
000180 1b e9 b7 37 ec 2f bf 36 d6 e9 19 38 f7 ef 21 38
       2.1923848e-05 5.6978224e-06 3.669582e-05 3.8608876e-05
000190 94 33 39 38 86 4d e1 37 df 8c 9b 37 87 00 22 38
       4.4155473e-05 2.685819e-05 1.8543038e-05 3.86243e-05
0001a0 d3 c6 2f 37 db 94 1c 38 8a 5d 08 38 f6 75 4b 38
       1.0477105e-05 3.733193e-05 3.251204e-05 4.850883e-05
0001b0 48 1c 81 37 ca f6 18 38 50 7a 9f 37 9c 71 63 38
       1.5391168e-05 3.6469464e-05 1.9011233e-05 5.4226824e-05
0001c0 4b 61 98 37 26 38 1f 38 d3 2f 20 38 2e f6 33 38
       1.8165118e-05 3.7960846e-05 3.8191512e-05 4.29062e-05
0001d0 0e 50 24 38 3c ba f6 37 d3 de 9f 38 7b 4b 9c 38
       3.9175204e-05 2.9412207e-05 7.623215e-05 7.452719e-05
0001e0 e6 fc c3 37 12 d1 ff 36 b1 bd 8d 38 e6 36 38 37
       2.3363576e-05 7.623931e-06 6.758737e-05 1.0980037e-05
0001f0 3d e0 bd 37 74 7c 32 38 2e 6a 05 38 e1 65 a2 38
       2.2634975e-05 4.2554413e-05 3.180856e-05 7.7437384e-05

exp_avg f4 [2]
000000 c8 48 0a bb c5 48 0a 3b
       -0.002110051 0.0021100503

exp_avg_sq f4 [2]
000000 c5 83 20 3a c4 83 20 3a
       0.0006123151 0.000612315
