flare/polgrad/lightning_logs/version_17/checkpoints/epoch=0_v0.ckpt (torch_old, 115521 bytes, 33 tensors)

exp_avg f4 [64, 4]
000000 ce 64 11 38 90 a1 2c 3a 97 f6 af b8 58 5e 79 ba
       3.4664576e-05 0.0006585354 -8.390581e-05 -0.00095126545
000010 a2 7d f4 b6 e5 3f a3 39 02 6b b0 38 ce d9 1b b9
       -7.2863922e-06 0.00031137388 8.412266e-05 -0.0001486309
000020 ec 9b 12 38 78 93 00 3a d4 68 0f b8 cf 71 24 ba
       3.4954326e-05 0.0004904787 -3.4191486e-05 -0.00062730623
000030 33 fa 71 38 08 07 1c ba de 68 28 b7 3c 8a 42 3a
       5.7691894e-05 -0.00059519755 -1.0037997e-05 0.0007421111
000040 c0 e1 68 38 54 58 84 b9 22 af 78 b9 0b 09 50 b9
       5.5523356e-05 -0.00025242812 -0.00023716365 -0.00019839795
000050 4e 42 5d 38 80 53 28 36 5c 77 61 b9 b6 72 02 ba
       5.2752257e-05 2.5082554e-06 -0.00021502137 -0.00049761997
000060 ac 3e f9 b6 d7 11 2a 3a aa 5a ec 38 5f 04 00 ba
       -7.4280742e-06 0.00064876437 0.000112702444 -0.0004883464
000070 92 92 45 b7 51 75 fe 38 27 1e 04 39 3e 25 5b 39
       -1.1776241e-05 0.00012133516 0.00012599734 0.00020899341
000080 a8 4e 7e b8 ee 59 b5 38 da 90 88 39 76 3c ec 39
       -6.0631573e-05 8.647503e-05 0.00026047864 0.00045058475
000090 02 33 54 b8 7c 02 6e 38 ba 27 78 39 3d b9 03 3a
       -5.0592243e-05 5.6745936e-05 0.00023665922 0.0005024856
0000a0 7d 1c 4d 38 62 2a 45 ba ab c3 c2 b7 99 e4 5d 3a
       4.890234e-05 -0.0007521269 -2.3217717e-05 0.00084645447
0000b0 ea 24 32 37 58 82 ac b8 76 0f fa b6 50 03 75 38
       1.06182215e-05 -8.2258775e-05 -7.4523805e-06 5.8415637e-05
0000c0 4a 58 4b 38 d6 35 2c 3a 2c ff 6b b8 b7 d5 64 ba
       4.8481197e-05 0.00065693015 -5.6266013e-05 -0.0008729356
0000d0 ed 29 24 b8 38 90 3d 39 b2 fc 42 39 61 b5 68 39
       -3.9139693e-05 0.0001807817 0.00018595418 0.00022192813
0000e0 fe 28 2d b8 15 f9 09 ba 68 8c 05 39 64 ff 68 3a
       -4.128459e-05 -0.00052632514 0.00012736174 0.0008888154
0000f0 db e4 96 b8 46 61 64 39 1e 5b da 38 3c bf 2a b8
       -7.195185e-05 0.00021780012 0.00010412022 -4.070926e-05
000100 72 da b8 b7 5a 37 0c 3a e4 be 4f 38 27 ed 05 ba
       -2.203623e-05 0.0005348824 4.9530427e-05 -0.0005108886
000110 6d 62 1b 38 d8 4e c2 b9 3c a6 26 b9 45 1d 0e 38
       3.7046546e-05 -0.00037061307 -0.00015892921 3.3882698e-05
000120 66 22 f7 b7 91 1e 06 39 1c 4e f8 38 68 59 ff 38
       -2.9460713e-05 0.00012790623 0.000118401105 0.00012176001
000130 bd da c0 37 95 e6 10 ba ee e9 9c b8 f4 97 f3 39
       2.2990042e-05 -0.00055275235 -7.4822325e-05 0.00046461786
000140 6e c6 bf b6 23 3f 65 b9 0d ed 07 b8 53 a6 28 39
       -5.715344e-06 -0.00021862662 -3.240728e-05 0.00016083689
000150 98 38 97 b8 53 1c 75 ba d8 ec b6 38 72 58 a2 3a
       -7.2107825e-05 -0.0009350229 8.722552e-05 0.0012385978
000160 d4 62 f8 b7 d0 4d 07 38 2b 33 04 39 3c b6 87 39
       -2.9609924e-05 3.2258977e-05 0.00012607563 0.00025884982
000170 32 eb aa 37 ba 14 8d b9 5a 97 f7 b8 74 98 d5 37
       2.03751e-05 -0.00026909058 -0.00011806069 2.546257e-05
000180 ea b0 a0 b7 ed c5 a1 b9 c2 10 2e b6 26 e2 ae 39
       -1.9155868e-05 -0.0003085578 -2.5937775e-06 0.0003335636
000190 30 3a 06 b7 ef f1 c0 39 12 cd 9f 38 df 9f 76 b9
       -8.00057e-06 0.00036801348 7.619908e-05 -0.00023519945
0001a0 c4 af 01 b8 c9 e4 f0 b9 c6 f4 20 38 60 73 1f 3a
       -3.091969e-05 -0.00045946825 3.8374936e-05 0.0006082561
0001b0 08 ef c6 34 d6 11 37 39 2c b5 c9 38 a0 f7 22 38
       3.7054292e-07 0.00017458884 9.618173e-05 3.885443e-05
0001c0 92 55 56 b8 2e e4 f2 39 b0 47 89 38 74 73 d8 b9
       -5.110127e-05 0.00046327844 6.546022e-05 -0.0004128475
0001d0 a8 e6 4e b8 9d 1c 3f 39 ef f7 15 39 41 02 fe 38
       -4.9329043e-05 0.00018225839 0.0001430211 0.00012112084
0001e0 d1 86 28 37 14 b7 3a b9 de 9d 17 b9 23 2b 44 b9
       1.004497e-05 -0.00017806544 -0.00014459292 -0.00018708086
0001f0 2c 78 3e 37 13 19 82 b9 fe 4a 46 b8 ab 49 05 39
       1.1352862e-05 -0.00024814214 -4.727672e-05 0.00012711312
000200 d9 f8 a6 37 6e 3f 72 b8 3d 9f ee b8 df fa 52 b9
       1.990462e-05 -5.775637e-05 -0.00011378385 -0.00020120617
000210 48 26 73 b8 b8 7c ff 39 3a 88 8f 38 86 76 df b9
       -5.7971367e-05 0.00048730313 6.8441455e-05 -0.0004262218
000220 15 3e 73 b7 a5 44 10 ba ab dd 76 b8 4e e2 f2 39
       -1.4498383e-05 -0.0005503393 -5.8857415e-05 0.00046326447
000230 16 23 da b7 ca ac e7 38 dc 66 9a 38 89 49 4d 38
       -2.6003963e-05 0.00011047123 7.362451e-05 4.8944294e-05
000240 a7 5a 17 38 4e 05 25 ba 17 0c d9 b8 ea 95 09 3a
       3.6085632e-05 -0.0006295041 -0.00010349618 0.0005248474
000250 3d 1d bf b7 33 48 cb 38 e2 6c b4 38 15 84 a2 38
       -2.278259e-05 9.6932425e-05 8.60335e-05 7.749364e-05
000260 77 eb bb b7 c2 9f a4 38 2d be 2c 39 f4 97 b8 39
       -2.2401784e-05 7.8498866e-05 0.00016474044 0.0003520843
000270 3c e2 4f 37 60 3c 40 b9 96 c4 15 b9 f8 af 41 b9
       1.2390836e-05 -0.00018333038 -0.00014282981 -0.00018471468
000280 3c 45 09 b8 bf 06 cb 39 30 0c 94 39 e1 28 9b 39
       -3.2727825e-05 0.00038724203 0.0002823784 0.0002959436
000290 8a d4 98 37 4c 35 30 b9 ca ea e8 b8 2d 75 9c b8
       1.8218783e-05 -0.00016804523 -0.00011106355 -7.460485e-05
0002a0 7d e1 0b b8 5a 7a 77 39 b7 9d 42 39 e7 6b 56 39
       -3.3350185e-05 0.00023601335 0.00018560035 0.00020448827
0002b0 da c0 55 37 90 6d 80 38 8a 26 70 b8 9a 1e 66 b9
       1.2740691e-05 6.123923e-05 -5.725635e-05 -0.00021945909
0002c0 bf 7d c5 b7 55 79 8e b9 df 6f 95 38 d6 84 fb 39
       -2.3542785e-05 -0.0002717475 7.125711e-05 0.0004797342
0002d0 af 3a c9 37 cc 71 32 b9 e4 d4 e4 b8 ea 59 79 b8
       2.3988394e-05 -0.00017017795 -0.00010911541 -5.9449965e-05
0002e0 00 91 4d b7 90 4b f2 39 5a fb c0 38 f5 0e b0 b9
       -1.2252713e-05 0.00046214135 9.202091e-05 -0.0003358048
0002f0 e3 72 0f b7 55 85 08 ba b1 ae 15 b8 14 30 04 3a
       -8.550213e-06 -0.00052078563 -3.5687062e-05 0.00050425646
000300 07 cd 46 b8 61 d4 37 ba ca 16 88 37 15 2a 54 3a
       -4.7397825e-05 -0.0007012543 1.6223075e-05 0.0008093429
000310 86 cd 59 b8 fc a8 ea 39 0b 1f 02 39 54 fa 83 b9
       -5.192824e-05 0.0004475786 0.0001240933 -0.00025172776
000320 ef a6 2e 37 cd ef cf b9 cc 99 0a b9 18 2a 0e 39
       1.0410075e-05 -0.00039660782 -0.00013218 0.00013557856
000330 96 1f 3c 38 e2 fa 72 b9 2d 27 3c b9 4a 3e 2d b9
       4.485211e-05 -0.0002317238 -0.00017943671 -0.0001652177
000340 10 e5 4f b8 55 25 00 37 3e f1 3b 39 22 d3 d4 39
       -4.9565977e-05 7.638087e-06 0.0001792358 0.00040593097
000350 19 2f 8c b7 46 31 3d ba 6a 61 c4 b7 f9 fc 4a 3a
       -1.6711232e-05 -0.000721712 -2.3410383e-05 0.00077433843
000360 3e 6b 8f b8 52 6e 6f 39 7d 1e 1f 39 d4 99 ab 38
       -6.838747e-05 0.00022833914 0.0001517478 8.182568e-05
000370 c4 93 b8 b7 1e 53 02 39 ba b7 b2 38 e8 4e 69 38
       -2.2003318e-05 0.0001242873 8.521923e-05 5.5625016e-05
000380 ec 01 10 38 d2 23 19 38 85 f0 07 b9 5c f0 9b b9
       3.4334065e-05 3.6511403e-05 -0.00012964204 -0.00029742985
000390 56 b6 17 b8 08 46 d5 39 a5 1b b0 38 2a 15 9a b9
       -3.617102e-05 0.00040678703 8.397483e-05 -0.00029388937
0003a0 f2 1f 54 b7 17 ea 68 ba 4a 6c a2 38 29 71 9b 3a
       -1.26436225e-05 -0.000888498 7.7449324e-05 0.0011859286
0003b0 a8 6e 12 b8 58 f4 47 3a 72 07 77 38 a8 b4 4e ba
       -3.491217e-05 0.00076276576 5.8896323e-05 -0.0007885196
0003c0 83 78 b7 b8 fb a7 2f 39 e7 a0 fa 37 ec c9 52 b9
       -8.748567e-05 0.00016751878 2.9877248e-05 -0.00020102382
0003d0 b8 2a 73 38 f3 f4 db b9 87 3e 24 b8 b2 f9 ea 39
       5.79755e-05 -0.00041953436 -3.915888e-05 0.00044817996
0003e0 a4 c2 cf b7 65 f8 51 39 8a 67 c0 38 fe ab 44 b7
       -2.476696e-05 0.00020024327 9.174559e-05 -1.1722555e-05
0003f0 87 bd 5d 37 39 ce 44 b9 59 1b 9b b8 6e d7 a6 37
       1.3216754e-05 -0.0001876884 -7.39607e-05 1.988906e-05

exp_avg_sq f4 [64, 4]
000000 e0 d6 d7 31 23 57 9f 33 b4 1f e6 31 db c4 6b 34
       6.281752e-09 7.4198645e-08 6.6974852e-09 2.1957696e-07
000010 95 fc a5 30 19 d8 3c 32 6c 4a 90 31 67 67 4c 33
       1.2077118e-09 1.0992175e-08 4.1994124e-09 4.7591495e-08
000020 c3 cc f5 2f 83 db 84 32 be 25 a2 30 38 1a 76 33
       4.4710732e-10 1.5466645e-08 1.1797778e-09 5.7300184e-08
000030 3d 3f 94 31 64 40 67 33 f0 ae 54 31 65 f4 f7 33
       4.3145563e-09 5.384244e-08 3.09495e-09 1.1546289e-07
000040 24 76 bb 31 6f 62 56 33 5e 31 ae 32 b4 b8 7c 34
       5.4558473e-09 4.9915283e-08 2.0278716e-08 2.3536523e-07
000050 b6 73 1e 32 00 80 8d 33 c2 fa b2 32 13 53 83 34
       9.22312e-09 6.589107e-08 2.0835959e-08 2.4461096e-07
000060 73 8f ea 31 76 18 52 33 ba ca 63 32 68 f6 24 34
       6.8266046e-09 4.8916682e-08 1.3259234e-08 1.5363332e-07
000070 e1 11 af 30 96 6e 51 32 67 17 6b 31 04 b3 ea 32
       1.2738007e-09 1.21905455e-08 3.4210303e-09 2.7322592e-08
000080 f8 40 a0 32 75 32 26 34 5b b1 48 33 d4 18 42 35
       1.8655996e-08 1.5478311e-07 4.6727433e-08 7.230676e-07
000090 4a 18 32 32 18 ba c3 33 b4 d2 e0 32 80 da cb 34
       1.0366486e-08 9.1142454e-08 2.6172849e-08 3.7970676e-07
0000a0 a2 f9 da 31 c5 1a a7 33 fc 30 ae 31 c9 44 61 34
       6.373015e-09 7.781413e-08 5.0696354e-09 2.0979782e-07
0000b0 70 58 4f 31 50 71 6f 32 5c 8c 87 31 ab f6 24 33
       3.0172735e-09 1.3937395e-08 3.944974e-09 3.840857e-08
0000c0 b2 bb 67 31 16 47 3d 33 65 e5 92 31 24 4a 30 34
       3.3721617e-09 4.4069644e-08 4.2752384e-09 1.641825e-07
0000d0 b6 09 1c 31 00 43 00 33 4c 85 38 32 53 1d 3d 34
       2.2706508e-09 2.986326e-08 1.0740518e-08 1.7612665e-07
0000e0 38 b5 83 32 bc 90 ff 33 0a 5d 8a 32 76 0c b4 34
       1.5332816e-08 1.190069e-07 1.6107624e-08 3.353668e-07
0000f0 15 42 bd 31 0e a1 68 33 ce bd e0 31 46 5c 20 34
       5.5081366e-09 5.4163188e-08 6.5408363e-09 1.493473e-07
000100 97 f8 d7 30 5a 5d 06 33 c8 7e 27 31 aa 7d ec 33
       1.5713962e-09 3.128421e-08 2.4373765e-09 1.10124645e-07
000110 3d b6 a4 31 15 71 37 33 6f 43 22 32 63 cd d5 33
       4.7937463e-09 4.2710855e-08 9.444974e-09 9.955945e-08
000120 a3 4a 53 31 e8 67 e3 32 ff a3 0f 32 ef 92 f7 33
       3.0746967e-09 2.647353e-08 8.360984e-09 1.1528561e-07
000130 84 34 11 31 b8 d0 a3 32 4d 0f 72 31 ef b9 91 33
       2.1130129e-09 1.9070612e-08 3.5224332e-09 6.78591e-08
000140 03 3c 53 31 fd 1d 82 33 20 d9 11 32 0b 27 8a 34
       3.0738654e-09 6.0590516e-08 8.489479e-09 2.573291e-07
000150 ca 62 66 31 0a 22 5e 33 77 42 90 31 e1 38 34 34
       3.352556e-09 5.171936e-08 4.1985078e-09 1.6784499e-07
000160 31 10 5e 31 08 ac 57 33 ea 9c cb 31 ae b0 04 34
       3.2314456e-09 5.021505e-08 5.9259166e-09 1.2357734e-07
000170 99 cb 57 31 c2 84 e7 32 94 e0 31 32 c1 e2 28 34
       3.140235e-09 2.695231e-08 1.0353819e-08 1.5728712e-07
000180 6e 48 83 2f 21 77 a3 31 19 81 f9 2f ce 74 80 32
       2.3880226e-10 4.7574678e-09 4.5384566e-10 1.4954278e-08
000190 2f 97 44 31 b6 02 f4 32 e8 83 18 32 67 62 25 34
       2.8607692e-09 2.8406571e-08 8.8775565e-09 1.5402621e-07
0001a0 58 1f dd 30 62 a4 73 33 7e 39 93 31 50 b0 51 34
       1.6088775e-09 5.672735e-08 4.284799e-09 1.9528784e-07
0001b0 92 3e 28 31 62 88 0e 33 21 80 eb 31 88 a9 fa 33
       2.4482785e-09 3.318599e-08 6.8539667e-09 1.167237e-07
0001c0 71 61 27 31 5c 54 cb 32 94 1c 10 31 5e d7 44 33
       2.4357087e-09 2.3670673e-08 2.0971003e-09 4.583068e-08
0001d0 9a ac 11 31 d4 06 f2 32 d5 29 bb 31 49 a5 cd 33
       2.119839e-09 2.8175613e-08 5.447172e-09 9.5761216e-08
0001e0 f6 0f b4 31 46 02 37 33 4e b2 11 32 9c 99 bd 33
       5.240504e-09 4.2610075e-08 8.480653e-09 8.82894e-08
0001f0 bf a4 1f 30 96 40 d0 31 85 b8 75 30 0a ca 94 32
       5.807798e-10 6.0609393e-09 8.93927e-10 1.7321344e-08
000200 23 ea 54 31 99 db 81 32 fc 40 bd 31 77 7b 22 33
       3.0983152e-09 1.5117438e-08 5.508012e-09 3.7830855e-08
000210 c1 35 e0 31 38 79 a5 33 c5 62 ff 31 af 72 6d 34
       6.525369e-09 7.705461e-08 7.4327056e-09 2.2114067e-07
000220 c0 8e 7b 30 d0 45 7e 32 b7 d0 5b 31 6a fc 6a 33
       9.151613e-10 1.4800619e-08 3.1987335e-09 5.471194e-08
000230 8f 16 0e 30 48 b4 9a 31 f0 9a 8b 30 45 d6 81 32
       5.1691357e-10 4.5024855e-09 1.0157617e-09 1.5115015e-08
000240 42 b4 1c 31 31 b7 e7 32 3a 13 a1 31 6c 17 be 33
       2.2803452e-09 2.6975245e-08 4.6879025e-09 8.851825e-08
000250 19 5f 84 30 26 0a 2b 32 c5 d4 60 31 13 13 56 33
       9.631292e-10 9.9558175e-09 3.2717236e-09 4.9843106e-08
000260 48 13 92 32 4c 45 38 34 ef fb d2 32 26 46 c2 34
       1.7005405e-08 1.7161545e-07 2.4561784e-08 3.6186356e-07
000270 f7 e9 a9 31 83 cd 78 33 69 7c 1a 32 b4 df 0f 34
       4.945146e-09 5.792891e-08 8.992267e-09 1.3399296e-07
000280 0c 26 c0 31 e0 76 7b 33 d5 1f c5 32 8e 92 90 34
       5.592261e-09 5.8548608e-08 2.2948294e-08 2.6928723e-07
000290 56 bb b4 31 d8 30 5a 33 6d ed 67 32 46 c5 86 34
       5.259987e-09 5.0801503e-08 1.3499954e-08 2.510298e-07
0002a0 59 8e 6d 31 b5 06 09 33 93 fb 3b 32 8b 2a 12 34
       3.4568954e-09 3.1903898e-08 1.0942034e-08 1.3612787e-07
0002b0 1c 9f 4f 31 51 6f 8f 32 e6 1e 88 31 03 70 5b 33
       3.0212908e-09 1.6698012e-08 3.9616337e-09 5.1091785e-08
0002c0 f5 80 19 31 c0 7b be 32 ed 8f 1d 31 0e 42 cc 33
       2.2337734e-09 2.2175186e-08 2.292832e-09 9.5115055e-08
0002d0 15 95 59 31 ef c5 c1 32 c6 2a 08 32 2a 86 ed 33
       3.16624e-09 2.2558167e-08 7.925967e-09 1.1060577e-07
0002e0 25 71 1c 31 39 bd a2 32 66 f6 d4 31 4b 60 a1 33
       2.2765303e-09 1.894533e-08 6.1980243e-09 7.514662e-08
0002f0 0e c1 46 30 06 b5 44 32 eb 5d d4 30 2b 6e fb 32
       7.230633e-10 1.14498615e-08 1.5451723e-09 2.9270344e-08
000300 6c 3d e9 30 4f d9 26 33 d2 a5 a7 31 97 8d 30 34
       1.6970438e-09 3.8847528e-08 4.8791913e-09 1.6442787e-07
000310 bb 89 7f 31 fd 72 ff 32 f2 26 be 31 49 57 8e 33
       3.7185675e-09 2.9738198e-08 5.5341554e-09 6.6282674e-08
000320 b0 80 af 31 e6 e5 41 33 31 ae 80 32 47 32 63 34
       5.1078004e-09 4.5145406e-08 1.4980374e-08 2.1159313e-07
000330 12 60 0d 31 e9 91 a0 32 1f 64 05 32 d5 3c c8 33
       2.057281e-09 1.8692804e-08 7.764384e-09 9.324291e-08
000340 e9 f7 14 31 3a 80 74 32 2f 76 f1 31 0b db af 33
       2.1677755e-09 1.4231825e-08 7.027459e-09 8.188916e-08
000350 92 7b cd 30 92 f8 cb 32 69 e1 11 31 ff 16 97 33
       1.4950834e-09 2.3745347e-08 2.1228408e-09 7.0356684e-08
000360 87 3e 1e 31 e0 d0 d4 32 4f 15 86 31 27 37 a6 33
       2.3027569e-09 2.4775034e-08 3.902336e-09 7.7400095e-08
000370 b1 73 b0 31 25 3f e3 33 8e 9a 22 32 01 42 9e 34
       5.1354268e-09 1.0581997e-07 9.464783e-09 2.9477818e-07
000380 03 60 90 31 83 4b b8 32 41 91 07 32 0b ab 7f 33
       4.201867e-09 2.1454758e-08 7.891061e-09 5.9527377e-08
000390 37 54 a3 30 28 4a 2b 32 fe 7f 2b 31 b5 ba 06 33
       1.1883746e-09 9.970371e-09 2.495653e-09 3.1369115e-08
0003a0 11 22 09 32 b7 c8 d9 33 f1 dd 0a 32 8e e4 89 34
       7.982195e-09 1.014136e-07 8.083121e-09 2.5684534e-07
0003b0 77 5f 3b 31 5c 8e 60 33 ee 02 81 31 1e 70 24 34
       2.7266347e-09 5.228354e-08 3.754727e-09 1.5314478e-07
0003c0 d8 52 16 32 5f fd b4 33 e0 82 07 32 7a 38 35 34
       8.749986e-09 8.427991e-08 7.887792e-09 1.6877485e-07
0003d0 e1 96 35 31 11 bb 0f 33 6d 58 03 31 6a bf a1 33
       2.6424731e-09 3.3464918e-08 1.9113273e-09 7.531965e-08
0003e0 0f cf 2a 31 19 48 46 33 db a6 b8 31 08 bf 07 34
       2.4855955e-09 4.616604e-08 5.374074e-09 1.2642352e-07
0003f0 2b 1b a1 30 f3 0c f0 31 39 03 c4 30 c4 92 f1 32
       1.1722013e-09 6.9863915e-09 1.4261793e-09 2.8122834e-08

exp_avg f4 [64]
000000 a0 d5 c4 b9 93 09 c4 b9 9e fe 8f b9 1a 6b 58 3a
       -0.00037543196 -0.00037391167 -0.0002746479 0.00082557055
000010 e1 81 6d 3a cc 63 b0 39 6d 85 59 ba e4 f3 00 ba
       0.0009060186 0.0003364369 -0.0008297775 -0.0004919155
000020 a0 78 5c ba 93 69 26 ba 22 4f 81 3a 90 01 21 39
       -0.00084103085 -0.0006348129 0.0009865502 0.00015354739
000030 02 35 c8 b9 18 e3 36 ba 84 3d 96 39 ad 3e 11 ba
       -0.00038186467 -0.00069765886 0.00028656062 -0.00055406505
000040 2d 8e 5e ba 71 d4 55 3a 35 bd 8d b9 9b a4 27 3a
       -0.0008489814 0.00081569614 -0.00027034586 0.00063950726
000050 42 33 81 39 c0 04 18 3a 3a 20 de b9 ea 64 f8 39
       0.00024642987 0.00057990476 -0.0004236715 0.00047377433
000060 a6 43 84 39 20 6c ef b9 aa d5 aa 39 74 d4 e7 b9
       0.00025227404 -0.00045666192 0.0003258412 -0.00044218043
000070 20 9c 2f ba d8 7a 1f ba 13 7f 1b 3a 28 1e c8 39
       -0.00066989847 -0.0006083674 0.00059317163 0.0003816944
000080 dc 36 4a 39 32 48 42 ba 38 bd 07 3a 24 21 d6 b9
       0.00019284658 -0.00074112706 0.0005178037 -0.00040841952
000090 12 23 73 3a 9e ed b0 b9 93 50 1c ba d8 42 20 3a
       0.000927494 -0.00033746375 -0.0005962934 0.0006113476
0000a0 0b b2 93 ba 80 ff c3 39 11 8a 49 ba 78 a2 39 39
       -0.0011268271 0.0003738366 -0.0007688115 0.00017703499
0000b0 68 a8 9e 38 8a 03 ba 39 df 0a 09 ba 20 74 0b 3a
       7.565395e-05 0.0003547932 -0.0005227755 0.0005319733
0000c0 65 ff 13 3a 1e d5 66 ba f7 4d 0b 3a 65 67 27 3a
       0.0005645662 -0.00088055606 0.0005314047 0.00063859514
0000d0 ea 8f bc b9 31 09 10 3a c3 01 2d ba ad ad cc b9
       -0.0003596538 0.00054945337 -0.0006599689 -0.0003903931
0000e0 f8 d7 ea 38 f0 fe 24 ba c0 39 60 3a a0 55 82 ba
       0.00011198217 -0.0006294092 0.00085535273 -0.0009943731
0000f0 b4 4c ce b9 0c 1e 33 3a d2 c6 06 ba 7b 68 06 3a
       -0.0003934853 0.00068327854 -0.0005141321 0.0005127263

exp_avg_sq f4 [64]
000000 f6 ee 32 35 44 25 cc 32 5c a4 e2 33 6a e8 8a 35
       6.66579e-07 2.3765672e-08 1.0553842e-07 1.0349443e-06
000010 fe 66 1d 35 ea 1d b7 34 0f 23 a0 33 16 e7 c2 33
       5.863693e-07 3.4108172e-07 7.456958e-08 9.075863e-08
000020 da d6 8a 35 bd 66 fc 34 e4 6d bd 35 81 45 8b 33
       1.0344331e-06 4.701341e-07 1.411358e-06 6.4853346e-08
000030 4e 6f 8f 34 86 bf 76 34 c3 22 5d 35 54 6c 71 34
       2.671681e-07 2.2980211e-07 8.23795e-07 2.2484284e-07
000040 d3 c3 99 34 81 47 37 33 4c ac a1 33 85 5d 70 34
       2.8640952e-07 4.267304e-08 7.528487e-08 2.2385764e-07
000050 32 c9 1e 33 04 61 0b 35 c7 25 3b 34 2e d5 49 33
       3.6970228e-08 5.192271e-07 1.7429475e-07 4.6992845e-08
000060 51 08 9f 32 5e d0 15 33 5e aa 2b 34 a9 df 4d 34
       1.8513818e-08 3.4881275e-08 1.5987595e-07 1.917348e-07
000070 f1 9f d6 34 fe 0a df 32 bc d5 27 34 25 39 e8 33
       3.997698e-07 2.5965615e-08 1.5630843e-07 1.08137364e-07
000080 b6 60 e3 33 f5 ea 27 35 79 0f 28 33 78 fe 38 32
       1.0588103e-07 6.2554255e-07 3.912962e-08 1.0768069e-08
000090 c7 36 03 34 a4 e9 46 33 52 eb a3 34 8d ad 18 34
       1.2220254e-07 4.6312962e-08 3.0532334e-07 1.421924e-07
0000a0 6a f8 c6 34 bf 10 da 33 e3 d0 1f 34 8a 0e 7d 33
       3.706112e-07 1.0154462e-07 1.4884021e-07 5.8919376e-08
0000b0 6f 89 64 34 5b 3c 6f 33 8b a2 05 33 ef 9d a3 33
       2.1284153e-07 5.5701417e-08 3.1114308e-08 7.619007e-08
0000c0 e6 6c 27 34 9d 80 09 34 a9 7b d8 33 3c 38 58 33
       1.5592704e-07 1.2805909e-07 1.00807775e-07 5.0342564e-08
0000d0 fd 48 4e 34 f3 27 56 34 49 30 9a 33 69 cf b5 33
       1.9211798e-07 1.9944837e-07 7.179967e-08 8.466197e-08
0000e0 2c 98 6b 34 ad f2 d8 33 c7 71 e6 35 b0 cd 0b 35
       2.194144e-07 1.0102426e-07 1.7169449e-06 5.208085e-07
0000f0 34 e3 45 35 58 50 20 35 8a fe ff 32 92 de 59 32
       7.3718843e-07 5.972156e-07 2.9801658e-08 1.2681669e-08

exp_avg f4 [64, 64]
000000 ea 88 8f b8 1e 7b 4f 39 7e 2d 14 39 26 1d 0e b9
       -6.8442736e-05 0.00019786923 0.00014131327 -0.00013553034
000010 8f 9e 51 b9 e4 51 48 b8 a8 f6 b7 37 f0 18 49 39
       -0.00019990861 -4.7759982e-05 2.1930158e-05 0.00019178144
000020 b3 be 4b 39 e8 fd 21 39 6a 3a f5 b8 76 fb 0e b9
       0.0001943063 0.00015448744 -0.00011693391 -0.00013635852
000030 10 fc ab b7 15 b3 51 39 6d d1 33 b8 f7 14 3b 39
       -2.0502164e-05 0.00019998506 -4.287197e-05 0.0001784152
000040 00 0e b7 38 05 c0 28 b9 d0 b2 c6 38 41 5a 12 b9
       8.728728e-05 -0.00016093261 9.474682e-05 -0.00013957267
000050 b0 85 bd b8 64 37 dc b8 43 b0 fb 38 42 1f 3f b9
       -9.0371235e-05 -0.00010500735 0.00012001444 -0.00018226824
000060 8a 91 12 b9 e4 27 16 39 68 ab a8 b7 4a 4e 30 39
       -0.00013977863 0.00014319975 -2.0106978e-05 0.00016813833
000070 da b5 26 39 58 9a 2d 39 fa 9d 11 b9 8c f6 2e b9
       0.00015898739 0.00016556063 -0.00013887128 -0.00016685779
000080 80 1f 92 b5 a3 fa 1a 39 e6 a1 09 b9 1f 31 2c 39
       -1.0887015e-06 0.00014779954 -0.0001312565 0.00016421497
000090 4b 73 f5 b8 db 22 3d 39 15 52 1e 39 7b 9d 4b b9
       -0.000117039854 0.00018037429 0.00015098632 -0.00019418255
0000a0 c2 12 46 39 db bf 0c b9 44 88 40 39 28 09 0c b8
       0.0001888974 -0.00013422912 0.0001836131 -3.338713e-05
0000b0 5c b4 21 b8 bf 61 1d b9 1e 73 a8 38 0b 58 03 b9
       -3.8553364e-05 -0.000150091 8.0323065e-05 -0.00012525932
0000c0 7c 14 cd b8 e0 dd f5 38 c6 c9 f3 b8 b0 d0 19 b9
       -9.778977e-05 0.00011723838 -0.00011624726 -0.00014668959
0000d0 86 ec 88 39 e0 03 9c 37 44 e4 41 39 72 6d fe 38
       0.00026116165 1.8598454e-05 0.0001849095 0.000121320496
0000e0 1e bb e3 38 bf 5f 2e 39 56 3f a3 b8 a6 f0 ae 38
       0.00010859057 0.00016629601 -7.784243e-05 8.341791e-05
0000f0 a6 84 39 39 bc 05 2a b9 83 8e 31 39 f0 61 8f b8
       0.0001769239 -0.000162146 0.00016933125 -6.837014e-05
000100 38 bd 80 38 a0 99 3e b9 33 36 07 b9 cd 73 fd 38
       6.13876e-05 -0.00018177042 -0.00012894794 0.0001208555
000110 9c 9c 2c 39 74 1f 2e 38 c8 7d 80 b7 7c ed 2c b9
       0.0001646154 4.1514126e-05 -1.531736e-05 -0.00016491668
000120 f8 b6 2d b9 98 d1 0d b9 35 9b d9 38 5b d9 01 39
       -0.00016566727 -0.00013524888 0.00010376276 0.0001238337
000130 40 35 98 37 e4 5b 30 b9 ef 02 29 38 76 3c 22 b9
       1.8144608e-05 -0.000168189 4.0295472e-05 -0.00015472047
000140 d6 3c a0 b8 68 0e 12 39 de 28 ba b8 2d 8b 01 39
       -7.640726e-05 0.00013929012 -8.876783e-05 0.00012354246
000150 3c ff a9 38 ce e7 c5 38 55 98 de b8 65 4b 29 39
       8.106089e-05 9.436869e-05 -0.00010614159 0.00016145183
000160 56 0c 06 39 67 a9 07 b9 10 bc 97 37 11 da 0a b9
       0.00012783831 -0.0001293771 1.8088176e-05 -0.00013241942
000170 98 40 12 b9 fd 88 17 b9 ca 35 f8 38 42 43 19 39
       -0.00013947708 -0.00014451514 0.000118355805 0.00014616273
000180 80 5f af b5 08 90 08 b9 b4 79 fc 38 92 9d 18 b9
       -1.306631e-06 -0.00013023627 0.00012038965 -0.00014554549
000190 04 7a d6 38 15 cf 20 b9 95 62 09 b9 17 1c 2d 39
       0.000102270424 -0.00015335933 -0.00013102063 0.0001650903
0001a0 d4 10 24 b9 16 c3 fc 38 3a 0f 1e b9 30 55 f8 37
       -0.00015646528 0.00012052634 -0.00015073727 2.9603572e-05
0001b0 ec 75 17 38 d1 d2 0e 39 f2 e3 98 b8 16 ec e7 38
       3.611103e-05 0.0001362071 -7.290383e-05 0.00011058913
0001c0 d4 d5 bd 38 68 f3 da b8 52 a0 e4 38 64 31 04 39
       9.052051e-05 -0.00010440388 0.00010901749 0.000126069
0001d0 a4 8e 7d b9 90 f1 9c b7 b3 07 25 b9 21 dd e1 b8
       -0.00024181098 -1.8709135e-05 -0.00015738494 -0.000107700245
0001e0 22 67 d6 b8 69 51 19 b9 f6 84 91 38 04 a3 94 b8
       -0.00010223525 -0.00014621545 6.938905e-05 -7.087554e-05
0001f0 da 04 24 b9 77 44 18 39 ea 83 1c b9 d8 cd 7c 38
       -0.00015642066 0.00014521355 -0.00014926461 6.027319e-05
000200 b0 da be b8 7a 98 8f b9 e6 78 66 b9 40 01 51 37
       -9.10064e-05 -0.0002738869 -0.00021979547 1.2457662e-05
000210 23 99 77 38 49 00 5f 39 dd 4b 07 b9 fc 94 83 b8
       5.903201e-05 0.00021267043 -0.00012902865 -6.274317e-05
000220 a3 aa b8 b8 b5 c6 f0 b8 98 c9 70 b7 b4 65 37 b8
       -8.805587e-05 -0.00011481104 -1.4352052e-05 -4.372532e-05
000230 16 27 08 b9 bd c4 a9 b8 aa c5 07 38 80 3f 31 36
       -0.00012984531 -8.095193e-05 3.2370597e-05 2.6412017e-06
000240 88 d0 ef 37 8e 2b a0 38 e0 2c 86 b9 9c 75 03 39
       2.8588125e-05 7.637507e-05 -0.00025591906 0.00012536946
000250 a2 1b d1 38 ed 1a 3e 39 a0 3a f3 36 76 66 22 39
       9.9710436e-05 0.00018129843 7.248789e-06 0.00015487694
000260 1b e8 5e 39 79 eb 37 b9 c0 56 99 38 78 c9 a8 38
       0.00021258036 -0.0001753996 7.311767e-05 8.048391e-05
000270 f0 24 2a b7 d0 31 9e 38 4e 09 b0 38 90 c0 53 b8
       -1.014139e-05 7.5433054e-05 8.394067e-05 -5.0485658e-05
000280 75 1a 3b 39 18 1d 24 38 15 31 59 39 f8 5b 95 38
       0.00017843566 3.9127743e-05 0.00020713017 7.122004e-05
000290 dc a1 1e 39 cb e9 a8 b7 4c 1e 8e b8 00 f0 15 37
       0.00015128352 -2.0136029e-05 -6.776731e-05 8.936971e-06
0002a0 f8 cb 00 b8 89 08 36 39 a0 10 d5 36 d8 fd af b8
       -3.070754e-05 0.00017360052 6.34983e-06 -8.391932e-05
0002b0 7c e3 22 38 02 40 60 39 43 98 82 b9 d3 31 30 39
       3.883567e-05 0.0002138615 -0.00024908976 0.00016803229
0002c0 88 63 4a 39 80 83 60 b7 c6 ee 98 39 2e b1 92 38
       0.000193013 -1.3382058e-05 0.000291696 6.994825e-05
0002d0 c2 7c ae b9 d4 61 4b 39 40 92 1c 38 1e c6 47 38
       -0.00033280818 0.00019396032 3.7329504e-05 4.762981e-05
0002e0 2c 62 3a 39 d9 80 00 b9 71 6f 22 b8 22 32 af b8
       0.00017774914 -0.00012255031 -3.8727598e-05 -8.353988e-05
0002f0 80 92 fc 36 30 9b 04 b8 90 92 01 38 48 b3 07 b8
       7.52724e-06 -3.1615782e-05 3.0892494e-05 -3.2353477e-05
000300 2a 9f 8b b8 40 17 50 b9 64 2f 26 b9 50 00 53 37
       -6.657683e-05 -0.00019845087 -0.00015848648 1.2576653e-05
000310 17 e9 18 38 5e fc 13 39 e0 49 ad b8 20 91 18 b8
       3.6456706e-05 0.00014113027 -8.263043e-05 -3.6374782e-05
000320 fe fa 7a b8 c5 68 a1 b8 80 d6 bc b6 30 cb ec b7
       -5.98384e-05 -7.696593e-05 -5.6278077e-06 -2.8228009e-05
000330 fc 4b c3 b8 2a ce 56 b8 3c 07 e7 37 80 91 b3 36
       -9.312478e-05 -5.121358e-05 2.7540715e-05 5.351554e-06
000340 a8 1b c2 37 04 a9 38 38 f6 0e 3f b9 26 91 c3 38
       2.313948e-05 4.4026427e-05 -0.00018220753 9.3253606e-05
000350 16 76 9d 38 5b fe 0a 39 d0 71 1a 37 c9 d0 ed 38
       7.5083386e-05 0.0001325546 9.205614e-06 0.0001133993
000360 d9 b0 20 39 03 6b 06 b9 c4 d9 6a 38 56 e0 8a 38
       0.0001532467 -0.00012819101 5.5992758e-05 6.6221386e-05
000370 80 83 53 b7 44 b1 7a 38 64 0b 41 38 c8 e5 05 b8
       -1.2607197e-05 5.9769736e-05 4.6025394e-05 -3.192367e-05
000380 db 3f f3 38 d0 1a e0 37 46 93 1b 39 10 bc 5f 38
       0.00011599037 2.6715366e-05 0.00014836816 5.334249e-05
000390 80 bf ce 38 15 db 5d b7 d4 04 1b b8 80 82 d4 b5
       9.858515e-05 -1.32236355e-05 -3.6959376e-05 -1.5833211e-06
0003a0 10 01 30 b7 54 9b 02 39 00 8e 7b 37 78 3c 7b b8
       -1.0490665e-05 0.0001245563 1.4993828e-05 -5.989938e-05
0003b0 34 b4 13 38 29 40 1f 39 21 a7 35 b9 54 58 f6 38
       3.521536e-05 0.00015187323 -0.00017323765 0.000117466465
0003c0 aa 1a 14 39 60 f3 0c b7 8a 31 59 39 8e 3a 31 38
       0.00014124313 -8.401315e-06 0.00020713187 4.225462e-05
0003d0 70 b7 7c b9 6e e2 0a 39 6c 2b 02 38 44 3a 01 38
       -0.00024100929 0.00013245057 3.1034855e-05 3.081026e-05
0003e0 8a 0a eb 38 6f 1c ba b8 6e 90 c9 b7 7a 77 53 b8
       0.00011207636 -8.874467e-05 -2.4028323e-05 -5.041759e-05
0003f0 00 b7 47 b6 b0 0c a2 b7 c0 7a 9f 37 d8 15 02 b8
       -2.975983e-06 -1.9317813e-05 1.9011437e-05 -3.101476e-05

exp_avg_sq f4 [64, 64]
000000 de 6a b3 32 f8 0b 5d 33 56 bd 62 33 e5 ab 71 32
       2.088694e-08 5.1466458e-08 5.2791925e-08 1.4067131e-08
000010 33 10 bf 33 26 a6 c1 32 b4 66 39 32 37 ee 20 33
       8.897077e-08 2.2543713e-08 1.0791769e-08 3.7469558e-08
000020 ba 47 54 33 f0 78 c4 32 de 80 ee 31 4e 58 4f 32
       4.942533e-08 2.2872399e-08 6.941362e-09 1.2069064e-08
000030 14 db fc 32 2b 29 a8 33 0a 82 32 31 1f 99 16 33
       2.9436286e-08 7.830598e-08 2.5976328e-09 3.506386e-08
000040 bf 66 59 32 aa 6d e8 32 aa fc 2e 33 79 1d fc 32
       1.2654424e-08 2.7058224e-08 4.074233e-08 2.9350064e-08
000050 89 82 cd 32 62 5f 30 33 7e 19 1a 32 54 76 36 33
       2.3924501e-08 4.1064943e-08 8.969776e-09 4.2482796e-08
000060 07 5c 1c 33 2e 83 22 33 8b 66 80 32 ed 99 68 33
       3.640528e-08 3.783787e-08 1.4947792e-08 5.4156704e-08
000070 b7 6d c0 32 7e 52 f1 32 34 40 b5 32 39 78 9e 32
       2.2401634e-08 2.8093606e-08 2.110037e-08 1.8448292e-08
000080 54 2a 9e 32 80 63 9e 32 c9 08 06 33 00 70 c2 32
       1.841287e-08 1.8438868e-08 3.1207296e-08 2.2635504e-08
000090 f7 ef b3 32 bd 44 16 33 17 15 01 33 c0 e0 39 33
       2.0947466e-08 3.4987114e-08 3.0054334e-08 4.3278078e-08
0000a0 64 ec 38 33 26 b8 13 33 a3 79 4c 33 e3 a5 cb 32
       4.3055834e-08 3.4393587e-08 4.760808e-08 2.3707747e-08
0000b0 48 7e 30 32 d6 ca 1f 33 6a 12 0d 33 6d 8b e7 32
       1.0273261e-08 3.720455e-08 3.284587e-08 2.6955343e-08
0000c0 7e 63 36 33 8a 25 8a 32 5c 29 38 33 ac 76 92 32
       4.2465665e-08 1.6082385e-08 4.2878455e-08 1.7050603e-08
0000d0 16 ee 9f 33 49 cb fe 32 da f6 29 33 02 b7 26 32
       7.447322e-08 2.9661935e-08 3.957289e-08 9.704083e-09
0000e0 aa 05 d3 32 36 0d e6 32 c1 90 2c 31 e9 ac 86 32
       2.4566209e-08 2.6781532e-08 2.5111577e-09 1.5678284e-08
0000f0 ef 7e 00 33 67 87 c1 32 0f 0a af 32 70 e5 ef 32
       2.9917768e-08 2.2529731e-08 2.0377255e-08 2.7927598e-08
000100 a6 d5 a8 32 e2 2e 8d 32 b2 0c 93 32 be e5 f3 31
       1.965493e-08 1.643588e-08 1.7118825e-08 7.0983495e-09
000110 af cb 0a 32 69 78 12 32 b1 d4 4d 31 90 ba 43 32
       8.0789695e-09 8.525697e-09 2.9952327e-09 1.1392913e-08
000120 a3 3d 9d 31 fd 1b 1e 31 cc d9 93 31 61 51 0f 32
       4.5763087e-09 2.3007936e-09 4.3030237e-09 8.342199e-09
000130 75 25 dd 32 12 60 ec 31 bc e7 d4 30 fb ec 64 32
       2.574482e-08 6.879426e-09 1.5490893e-09 1.332523e-08
000140 5d 97 3e 32 36 e5 18 32 c0 37 c1 32 f9 dd c9 31
       1.1093872e-08 8.899681e-09 2.249351e-08 5.8751053e-09
000150 66 fd 38 32 81 0c 85 32 8a ed 92 31 fa c8 0b 32
       1.0767826e-08 1.5488924e-08 4.2761643e-09 8.136562e-09
000160 2a a1 68 32 52 9d 78 32 ce cf 31 32 67 56 83 32
       1.3540822e-08 1.447127e-08 1.0350005e-08 1.5289698e-08
000170 10 27 c2 31 88 d4 c3 32 80 9c ae 31 2d 0e 02 32
       5.650584e-09 2.2797636e-08 5.0818585e-09 7.570219e-09
000180 c9 52 30 32 6f 9e 56 32 a6 76 93 32 ba 13 b0 32
       1.02633715e-08 1.2492463e-08 1.7167007e-08 2.0498067e-08
000190 da 17 26 31 fa 04 91 31 10 2e 72 32 11 1c 97 32
       2.4169737e-09 4.220621e-09 1.4096727e-08 1.7591477e-08
0001a0 6e 71 30 32 dc 55 54 32 f9 c0 61 32 68 8d ad 32
       1.0270339e-08 1.2359546e-08 1.3140601e-08 2.0204155e-08
0001b0 64 b0 ea 31 4d 71 5c 32 80 0b 61 32 ea 77 a8 31
       6.8303496e-09 1.2831447e-08 1.30993385e-08 4.903076e-09
0001c0 27 9d e8 32 0b ae 46 32 b8 72 b9 32 57 28 28 31
       2.707982e-08 1.156469e-08 2.1589003e-08 2.4470148e-09
0001d0 8e be 6f 32 a1 ad a7 32 d7 42 8d 32 ae 9b ae 31
       1.3954958e-08 1.9520316e-08 1.6444956e-08 5.0817652e-09
0001e0 f2 cc b0 32 45 25 30 31 6d 23 0d 31 d3 d9 57 31
       2.0582295e-08 2.5632556e-09 2.0538338e-09 3.1410436e-09
0001f0 2a 55 04 32 38 e4 9a 32 a2 6f 15 32 7e 36 cb 32
       7.702775e-09 1.8031741e-08 8.698324e-09 2.365709e-08
000200 8d 5c 3f 33 e3 c3 03 34 44 5c f5 33 59 64 cf 32
       4.4554827e-08 1.2271589e-07 1.14254846e-07 2.4143604e-08
000210 d1 86 6e 34 26 a2 75 33 d6 07 da 32 44 58 98 33
       2.2214523e-07 5.719098e-08 2.5382104e-08 7.094107e-08
000220 53 31 f5 33 52 ae 4a 33 94 31 44 32 56 a8 cd 32
       1.14176736e-07 4.7190333e-08 1.1419974e-08 2.3941691e-08
000230 1e 26 89 33 d2 79 4a 34 08 57 ba 31 4e 64 88 33
       6.386493e-08 1.8857034e-07 5.4232068e-09 6.351239e-08
000240 a1 5d ce 32 14 b0 5c 33 ea 39 c6 33 57 d7 6f 33
       2.4024134e-08 5.1382884e-08 9.230628e-08 5.5842374e-08
000250 78 a4 49 33 2f cd b8 33 22 9f 98 32 7a 3b c2 33
       4.6948543e-08 8.6054904e-08 1.7767494e-08 9.044648e-08
000260 c4 10 a3 33 25 2d aa 33 a5 1a 05 33 0c 40 ef 33
       7.5933286e-08 7.9244536e-08 3.099071e-08 1.1140955e-07
000270 f4 d8 17 33 62 bf 74 33 1f 13 36 33 0b 1e 09 33
       3.5354745e-08 5.698474e-08 4.2392568e-08 3.1925122e-08
000280 2b b2 43 33 62 ce 0b 33 aa ed 93 33 1d 2c 46 33
       4.556402e-08 3.2551164e-08 6.888452e-08 4.614059e-08
000290 df f0 3d 33 bb c5 92 33 62 9a 76 33 2a 16 ae 33
       4.4224063e-08 6.834622e-08 5.741675e-08 8.106538e-08
0002a0 4f 6e cc 33 07 0c 9d 33 d1 08 d2 33 ae 95 57 33
       9.519555e-08 7.31307e-08 9.780491e-08 5.019472e-08
0002b0 39 2d be 32 39 bc b4 33 f3 62 aa 33 01 75 6c 33
       2.2139476e-08 8.416141e-08 7.9342406e-08 5.5054446e-08
0002c0 a4 23 c5 33 30 76 05 33 ec 5e db 33 ba 48 12 33
       9.18001e-08 3.1073967e-08 1.02152484e-07 3.405942e-08
0002d0 3e bc 4e 34 fa 18 94 33 5d 2f a1 33 2c e3 8e 32
       1.9253727e-07 6.89633e-08 7.505762e-08 1.6634282e-08
0002e0 96 89 7f 33 8c 18 5a 33 92 a6 9c 31 bf 1b 00 33
       5.9496948e-08 5.0779406e-08 4.5591344e-09 2.9827557e-08
0002f0 8e ac 4e 33 f6 93 3a 33 0e 3a 19 33 00 db 7b 33
       4.812005e-08 4.344107e-08 3.567589e-08 5.863967e-08
000300 2c 1e ef 32 4c c2 9f 33 59 92 93 33 dc 5c 59 32
       2.7836982e-08 7.439357e-08 6.8718414e-08 1.2652176e-08
000310 4d 8d f1 33 e8 5c 11 33 ad 65 72 32 6e 11 0d 33
       1.12481395e-07 3.384494e-08 1.4109372e-08 3.2844973e-08
000320 2f 69 81 33 b0 4a e1 32 b2 ca d4 31 82 9c 75 32
       6.0261634e-08 2.6227411e-08 6.193056e-09 1.4296463e-08
000330 fd 95 31 33 dd 10 cc 33 1c 6c 81 31 92 64 0a 33
       4.1347437e-08 9.502558e-08 3.7666847e-09 3.2222097e-08
000340 f8 e3 73 32 25 98 c7 32 ea 45 7e 33 c7 c4 0f 33
       1.4196296e-08 2.3235836e-08 5.920257e-08 3.347375e-08
000350 5b 0d 06 33 93 b2 61 33 40 05 30 32 1e c7 63 33
       3.1211453e-08 5.2549307e-08 1.0245742e-08 5.3033652e-08
000360 f4 e0 4b 33 0b fd 56 33 a0 52 af 32 d1 72 74 33
       4.7469214e-08 5.00559e-08 2.0410255e-08 5.6915102e-08
000370 53 bc 9e 32 d3 bf 09 33 59 95 a0 32 35 0d 9f 32
       1.847926e-08 3.207226e-08 1.8694367e-08 1.8516042e-08
000380 37 5e f1 32 3a 35 98 32 5a d0 44 33 59 f3 e4 32
       2.8098937e-08 1.7719334e-08 4.58243e-08 2.6653355e-08
000390 e6 f2 ad 32 09 76 20 33 5a 1f ed 32 bc bc 29 33
       2.0250308e-08 3.7360255e-08 2.7604688e-08 3.952003e-08
0003a0 db 14 3f 33 6c f6 45 33 f8 68 49 33 66 d6 0c 33
       4.448962e-08 4.6091756e-08 4.6894428e-08 3.2791284e-08
0003b0 f2 9e 78 32 4e 1f 61 33 4b b9 4d 33 de 1b 05 33
       1.447164e-08 5.2415366e-08 4.7898805e-08 3.099182e-08
0003c0 37 e8 7f 33 d2 99 94 32 83 a1 8a 33 b2 3e 96 32
       5.9583012e-08 1.7299417e-08 6.4555046e-08 1.7490809e-08
0003d0 f5 6a ee 33 2e a8 3a 33 39 11 28 33 ba b2 29 32
       1.1102194e-07 4.345946e-08 3.9131212e-08 9.877732e-09
0003e0 ed c2 1f 33 d7 51 df 32 25 a9 38 31 bf c0 6a 32
       3.7197356e-08 2.5997833e-08 2.6871672e-09 1.3664418e-08
0003f0 ee 81 dd 32 f8 6f d1 32 8e 32 ad 32 5e 8a 18 33
       2.5786871e-08 2.438172e-08 2.016284e-08 3.5516102e-08

exp_avg f4 [64]
000000 60 82 92 b9 4c e2 83 39 88 bb 6c b9 8c 12 20 b9
       -0.00027944427 0.0002515487 -0.00022576575 -0.00015265698
000010 02 c6 27 3a 9c ad 05 ba 40 42 87 39 32 1e 0f 3a
       0.000640005 -0.0005099417 0.00025798567 0.00054595165
000020 be 58 2b ba 14 2f 8c b9 60 f1 92 37 c3 e0 08 3a
       -0.0006536356 -0.00026737957 1.7516955e-05 0.00052214804
000030 c2 ae 1c ba 32 34 1a 3a 5e cd 4c b9 70 7d 05 ba
       -0.00059769687 0.00058824115 -0.00019531461 -0.0005092239
000040 d0 0f 19 b8 28 5d 62 b9 64 21 04 ba 0e 1a 96 b9
       -3.649277e-05 -0.00021587743 -0.0005040376 -0.00028629642
000050 28 65 b7 b8 0a 27 a7 39 72 86 8e 39 14 39 0d ba
       -8.744962e-05 0.00031881809 0.0002718452 -0.00053872284
000060 e8 85 95 39 d8 14 4d 39 24 4d c1 b9 54 18 93 b9
       0.00028519263 0.00019558088 -0.00036869303 -0.0002805615
000070 02 ca ef 37 33 d7 2c 3a 90 2a 72 b9 ba 5a df b8
       2.8585087e-05 0.00065933465 -0.00023094774 -0.00010650368
000080 a3 dd 10 3a ce 50 58 39 a3 14 80 3a 68 0e c7 39
       0.00055261905 0.00020629467 0.0009771775 0.0003796697
000090 34 12 3d 3a 3f 09 a4 38 56 59 c2 38 ae 5e 4b ba
       0.00072124903 7.8218516e-05 9.267281e-05 -0.0007757944
0000a0 4a d0 0d 3a b6 5b 88 b8 24 95 3f 39 f8 87 bc b9
       0.00054097606 -6.502068e-05 0.00018270739 -0.0003595946
0000b0 80 50 ed 39 3e 6e 3c ba 7c 9a fa 39 34 e7 93 39
       0.0004526414 -0.0007188058 0.00047798816 0.00028210285
0000c0 46 80 21 ba aa 72 19 3a aa 5f 12 3a 40 a7 53 b7
       -0.0006160777 0.0005853573 0.0005583713 -1.2615521e-05
0000d0 10 34 11 39 22 0a 10 b9 f6 74 5b 3a 10 a9 53 38
       0.00013847672 -0.00013736685 0.00083716155 5.0463772e-05
0000e0 58 5b cc b9 ba 4c e7 39 2c 32 72 ba 7a d3 54 39
       -0.00038977969 0.0004411692 -0.00092390436 0.00020296677
0000f0 db 49 e5 39 ca 57 1c 3a 34 da ca 39 c8 b8 99 39
       0.0004373331 0.00059640093 0.00038691016 0.00029320107

exp_avg_sq f4 [64]
000000 2b 5b 18 34 85 19 11 34 fc 78 9c 34 ca 69 41 34
       1.418927e-07 1.3513461e-07 2.9145292e-07 1.8013012e-07
000010 37 0e 2a 35 a7 ee 83 34 b8 0c d0 33 14 61 7f 35
       6.335062e-07 2.4574294e-07 9.688068e-08 9.513617e-07
000020 f5 11 8e 35 2e 24 52 34 b9 ec 14 32 09 bf 86 33
       1.0585051e-06 1.9570936e-07 8.668558e-09 6.27461e-08
000030 40 8c 51 35 c0 7f 5c 35 c4 bd 73 33 b8 e1 0c 35
       7.806266e-07 8.214229e-07 5.6750437e-08 5.248253e-07
000040 b1 a0 09 31 e0 c4 20 34 be bd 08 35 1a cc 6e 34
       2.0027466e-09 1.4972784e-07 5.094006e-07 2.2239729e-07
000050 be 0f 2a 33 f4 59 3b 34 49 c4 32 34 44 74 24 35
       3.9595527e-08 1.7448457e-07 1.664895e-07 6.126395e-07
000060 19 2e 35 34 ba e7 88 33 d4 c5 9f 34 a7 9d 4c 34
       1.6873709e-07 6.375144e-08 2.9759997e-07 1.9056334e-07
000070 be 0e 02 31 28 58 18 35 b0 45 1b 34 80 69 91 32
       1.892587e-09 5.6752697e-07 1.4460852e-07 1.6928198e-08
000080 10 a1 09 35 34 b8 b1 33 d7 61 ba 34 ef 88 d5 34
       5.1270854e-07 8.275711e-08 3.4716388e-07 3.9773974e-07
000090 34 9b 47 34 a2 1e b5 31 30 77 ab 32 bc 67 bf 35
       1.8589782e-07 5.271276e-09 1.996122e-08 1.42608e-06
0000a0 fc 9b fb 34 42 b7 42 32 79 ab 7e 33 90 21 c3 34
       4.6865887e-07 1.1333954e-08 5.9294937e-08 3.6346e-07
0000b0 f5 a6 fb 34 48 99 87 35 4b a1 da 34 d7 5d 03 34
       4.687387e-07 1.0102895e-06 4.072302e-07 1.2234464e-07
0000c0 bf 92 89 35 28 ac 5f 35 88 ad 96 33 46 22 18 33
       1.0250004e-06 8.3324494e-07 7.0164845e-08 3.542143e-08
0000d0 64 9d 16 33 5b 18 19 33 48 5c ab 35 9a 5a ca 31
       3.5067742e-08 3.564524e-08 1.276735e-06 5.889274e-09
0000e0 c4 9d ed 34 1a 36 cd 34 68 4b 0a 36 a6 f4 8f 33
       4.425948e-07 3.822359e-07 2.0607495e-06 6.703458e-08
0000f0 12 7d 10 33 18 9f 99 35 d0 9e a6 34 2d 9b 33 34
       3.3641363e-08 1.1445691e-06 3.103546e-07 1.6727127e-07

exp_avg f4 [2, 64]
000000 20 fb 9b ba a7 e3 f0 3a 5e cf 2b bb 63 13 31 bb
       -0.0011900403 0.0018378393 -0.002621613 -0.0027019612
000010 ba 71 00 3b 62 35 49 bb 77 bf 48 3a d4 3d da 3a
       0.0019599036 -0.0030701985 0.0007657925 0.0016650506
000020 d3 3f dd ba c8 de a6 39 e6 f1 0d 3b 26 53 86 3b
       -0.0016879983 0.00031827972 0.0021659075 0.0040992675
000030 8a 21 f8 ba b0 25 d2 3a 49 bc fa ba f8 62 4a ba
       -0.0018930894 0.001603296 -0.00191296 -0.0007720436
000040 5a 2b ea ba d1 4c 1a bb f9 6e f5 ba c6 96 2b 3a
       -0.0017865703 -0.0023544321 -0.0018725089 0.00065455993
000050 e9 7e 4a 3a d5 ed a8 3a 8b a9 e0 3a 10 2e cb ba
       0.00077245996 0.0012888262 0.0017140371 -0.0015501399
000060 02 ac 8f 3a 33 b5 43 3b 08 94 9c ba 37 02 b6 ba
       0.0010961297 0.0029862642 -0.0011945972 -0.0013886158
000070 58 4d 4c 3a f0 c3 7c 3b 60 67 95 37 ae f4 15 bb
       0.00077935075 0.0038568936 1.7810322e-05 -0.0022881436
000080 0d d8 4a 3b 69 dc 01 3a 7f 52 8d 3b 2c 55 d0 3a
       0.003095153 0.0004953803 0.004312813 0.0015894524
000090 5a aa 5e 3b 12 9b 4f 3a 9e 1f eb 3a 4e 8e cc ba
       0.003397605 0.00079195306 0.00179385 -0.0015606375
0000a0 3f c9 6a 3a a2 6b 23 39 82 e2 c7 3a 77 1e f4 ba
       0.00089563796 0.00015584988 0.001525 -0.0018624802
0000b0 42 3f cc 3a 1c bb 8b ba 28 56 d6 3a 95 8a 90 3a
       0.0015582817 -0.0010660621 0.0016352581 0.0011027629
0000c0 02 80 ca ba be f0 33 ba d1 25 97 3b 0a 56 1f bb
       -0.0015449526 -0.00068641815 0.0046126624 -0.0024312758
0000d0 45 ec 0d 3b fc 94 f9 ba ba cb 3b 3a eb 27 07 3b
       0.002165572 -0.0019041593 0.00071638415 0.0020623158
0000e0 1b 0e cc ba 48 44 23 39 f9 ef e9 ba 86 00 68 3a
       -0.0015568169 0.00015570328 -0.0017848007 0.00088501757
0000f0 2e c5 a8 3b 3a f5 06 3b d2 80 d2 3a 8f 28 02 3b
       0.005150459 0.0020592944 0.001606012 0.00198606
000100 22 fb 9b 3a a7 e3 f0 ba 5e cf 2b 3b 63 13 31 3b
       0.0011900405 -0.0018378393 0.002621613 0.0027019612
000110 b8 71 00 bb 64 35 49 3b 7a bf 48 ba d6 3d da ba
       -0.0019599032 0.003070199 -0.0007657927 -0.0016650509
000120 d2 3f dd 3a c6 de a6 b9 e5 f1 0d bb 25 53 86 bb
       0.0016879982 -0.00031827966 -0.0021659073 -0.004099267
000130 8e 21 f8 3a b3 25 d2 ba 44 bc fa 3a f4 62 4a 3a
       0.0018930899 -0.0016032964 0.0019129594 0.00077204336
000140 5e 2b ea 3a d1 4c 1a 3b f8 6e f5 3a c6 96 2b ba
       0.0017865708 0.0023544321 0.0018725088 -0.00065455993
000150 e2 7e 4a ba d7 ed a8 ba 89 a9 e0 ba 10 2e cb 3a
       -0.00077245955 -0.0012888265 -0.0017140369 0.0015501399
000160 04 ac 8f ba 33 b5 43 bb 08 94 9c 3a 38 02 b6 3a
       -0.0010961299 -0.0029862642 0.0011945972 0.0013886159
000170 5a 4d 4c ba f0 c3 7c bb 40 67 95 b7 b2 f4 15 3b
       -0.00077935087 -0.0038568936 -1.7810264e-05 0.0022881445
000180 0b d8 4a bb 6a dc 01 ba 80 52 8d bb 2c 55 d0 ba
       -0.0030951526 -0.0004953804 -0.0043128133 -0.0015894524
000190 59 aa 5e bb 14 9b 4f ba 9f 1f eb ba 4e 8e cc 3a
       -0.0033976047 -0.0007919532 -0.0017938501 0.0015606375
0001a0 40 c9 6a ba a2 6b 23 b9 80 e2 c7 ba 7d 1e f4 3a
       -0.000895638 -0.00015584988 -0.0015249997 0.0018624809
0001b0 40 3f cc ba 1b bb 8b 3a 29 56 d6 ba 96 8a 90 ba
       -0.0015582815 0.001066062 -0.0016352582 -0.001102763
0001c0 05 80 ca 3a bf f0 33 3a d0 25 97 bb 0c 56 1f 3b
       0.001544953 0.0006864182 -0.004612662 0.0024312763
0001d0 4b ec 0d bb 04 95 f9 3a b4 cb 3b ba ec 27 07 bb
       -0.0021655734 0.0019041602 -0.0007163838 -0.002062316
0001e0 18 0e cc 3a 50 44 23 b9 fc ef e9 3a 82 00 68 ba
       0.0015568165 -0.0001557034 0.001784801 -0.00088501733
0001f0 2e c5 a8 bb 39 f5 06 bb d0 80 d2 ba 90 28 02 bb
       -0.005150459 -0.0020592941 -0.0016060118 -0.0019860603

exp_avg_sq f4 [2, 64]
000000 76 9d 60 34 58 54 23 35 42 19 f6 35 0e dc f8 35
       2.091891e-07 6.084497e-07 1.8335779e-06 1.8541484e-06
000010 50 6c 97 36 15 51 42 36 55 24 97 34 2a b6 ec 35
       4.51276e-06 2.8955449e-06 2.8152377e-07 1.7636387e-06
000020 0e 78 24 35 88 f1 01 35 34 54 1a 36 6c 04 11 37
       6.1269463e-07 4.840772e-07 2.29968e-06 8.643703e-06
000030 0a fc 60 35 ef a6 e3 34 8b e9 71 35 dc 16 86 35
       8.381327e-07 4.2403505e-07 9.0119346e-07 9.990431e-07
000040 3c c1 96 36 be de fd 36 af b8 36 35 3a 3a 53 35
       4.492844e-06 7.565918e-06 6.8069033e-07 7.8688356e-07
000050 f9 38 72 35 e4 46 ca 34 3d b5 25 36 bf 77 be 35
       9.023493e-07 3.7677012e-07 2.469241e-06 1.4190954e-06
000060 b2 9a 7f 35 05 ca 1c 36 6d 1e 21 34 b7 37 9e 35
       9.5220014e-07 2.3363402e-06 1.5005362e-07 1.1788132e-06
000070 8c d4 2c 35 92 81 3c 36 5b 22 13 35 1d 1d 04 36
       6.438429e-07 2.8089603e-06 5.481176e-07 1.968648e-06
000080 1d 79 02 36 6a 88 af 34 b6 ea e8 36 0a a3 30 35
       1.9442007e-06 3.2695544e-07 6.9414627e-06 6.580236e-07
000090 ab 3b ee 36 c0 cb 64 35 07 55 39 36 86 f2 b7 34
       7.099899e-06 8.5233114e-07 2.761664e-06 3.4262865e-07
0000a0 6f 49 f9 34 45 51 1d 35 46 82 3d 35 d4 a2 56 35
       4.6433294e-07 5.860532e-07 7.059756e-07 7.995816e-07
0000b0 1e c2 32 36 71 41 de 34 52 ec 21 35 be 57 b2 34
       2.6637058e-06 4.1398337e-07 6.0321065e-07 3.3218925e-07
0000c0 54 5c 99 35 c0 b5 97 35 a8 70 2a 37 e6 95 f4 35
       1.1426259e-06 1.1303273e-06 1.0159019e-05 1.8223043e-06
0000d0 3c 7d bd 36 5c 24 5d 36 89 b8 80 35 cf 05 73 35
       5.647218e-06 3.295273e-06 9.59045e-07 9.0533007e-07
0000e0 84 18 18 36 b2 5e e3 35 cc 86 2d 35 d5 5c f8 33
       2.2664035e-06 1.6940378e-06 6.464368e-07 1.1565286e-07
0000f0 45 15 8c 37 aa 22 63 36 fc bd 4a 35 0c 7e 06 36
       1.6699205e-05 3.3845813e-06 7.552733e-07 2.0040925e-06
000100 78 9d 60 34 57 54 23 35 46 19 f6 35 0c dc f8 35
       2.0918912e-07 6.084496e-07 1.8335784e-06 1.8541482e-06
000110 4f 6c 97 36 17 51 42 36 57 24 97 34 28 b6 ec 35
       4.5127595e-06 2.8955453e-06 2.8152382e-07 1.7636385e-06
000120 0d 78 24 35 88 f1 01 35 33 54 1a 36 6a 04 11 37
       6.126946e-07 4.840772e-07 2.2996799e-06 8.643701e-06
000130 06 fc 60 35 f0 a6 e3 34 88 e9 71 35 db 16 86 35
       8.3813245e-07 4.2403508e-07 9.011933e-07 9.99043e-07
000140 3c c1 96 36 be de fd 36 af b8 36 35 3a 3a 53 35
       4.492844e-06 7.565918e-06 6.8069033e-07 7.8688356e-07
000150 f5 38 72 35 e5 46 ca 34 3e b5 25 36 be 77 be 35
       9.023491e-07 3.7677015e-07 2.4692413e-06 1.4190953e-06
000160 b2 9a 7f 35 03 ca 1c 36 6c 1e 21 34 b9 37 9e 35
       9.5220014e-07 2.3363398e-06 1.5005361e-07 1.1788135e-06
000170 8f d4 2c 35 91 81 3c 36 5c 22 13 35 1d 1d 04 36
       6.4384307e-07 2.80896e-06 5.4811767e-07 1.968648e-06
000180 1c 79 02 36 69 88 af 34 b4 ea e8 36 0a a3 30 35
       1.9442004e-06 3.2695542e-07 6.941462e-06 6.580236e-07
000190 aa 3b ee 36 bf cb 64 35 06 55 39 36 86 f2 b7 34
       7.0998985e-06 8.523311e-07 2.7616638e-06 3.4262865e-07
0001a0 70 49 f9 34 47 51 1d 35 46 82 3d 35 d6 a2 56 35
       4.6433297e-07 5.860533e-07 7.059756e-07 7.995817e-07
0001b0 1d c2 32 36 6e 41 de 34 52 ec 21 35 bd 57 b2 34
       2.6637056e-06 4.139833e-07 6.0321065e-07 3.3218922e-07
0001c0 54 5c 99 35 c1 b5 97 35 a9 70 2a 37 e8 95 f4 35
       1.1426259e-06 1.1303274e-06 1.015902e-05 1.8223045e-06
0001d0 3a 7d bd 36 60 24 5d 36 88 b8 80 35 d0 05 73 35
       5.647217e-06 3.295274e-06 9.590449e-07 9.053301e-07
0001e0 83 18 18 36 b4 5e e3 35 cd 86 2d 35 d4 5c f8 33
       2.2664033e-06 1.694038e-06 6.4643683e-07 1.1565285e-07
0001f0 46 15 8c 37 aa 22 63 36 f8 bd 4a 35 0c 7e 06 36
       1.6699207e-05 3.3845813e-06 7.5527305e-07 2.0040925e-06

exp_avg f4 [2]
000000 36 38 74 3b 2c 38 74 bb
       0.003726495 -0.0037264926

exp_avg_sq f4 [2]
000000 17 0f e7 37 14 0f e7 37
       2.7544373e-05 2.7544367e-05
