flare-benchmarking/2by5xy7v/checkpoints/epoch=97.ckpt (torch_old, 101057 bytes, 36 tensors)

exp_avg f4 [6]
000000 05 f9 09 3c d1 f3 20 3b 3e 42 0f 3c 9c f5 8a 3c
       0.008421187 0.0024559388 0.008743821 0.016962819
000010 ac d1 3f 3b b7 f0 18 3c
       0.0029269261 0.009334735

exp_avg_sq f4 [6]
000000 6d a1 ff 38 d3 04 5f 39 18 5a 4a 39 d6 d9 09 3a
       0.000121894154 0.00021268734 0.00019297784 0.00052585953
000010 96 51 4d 39 57 11 33 39
       0.00019580717 0.0001707723

exp_avg f4 [64, 26]
000000 0e f6 00 bb 00 00 00 00 c3 51 34 3b 3d ec a7 b9
       -0.001967791 0.0 0.0027514554 -0.00032028733
000010 00 00 00 00 d2 66 99 39 00 00 00 00 d5 c5 88 3a
       0.0 0.0002925904 0.0 0.0010434935
000020 d0 7c 64 3b 26 1c 29 ba 9f 10 ef ba a0 2e bb ba
       0.0034864433 -0.0006451033 -0.0018239206 -0.0014280863
000030 9e c5 3a bb 96 12 cd 39 1b df 5b 3b db 2d 4d ba
       -0.0028499137 0.00039114495 0.003354973 -0.00078269624
000040 a6 df 85 3b 5f 19 98 39 48 44 8a bb 0d c4 b0 3a
       0.004085499 0.00029010602 -0.0042195655 0.0013486162
000050 8c 29 78 3b 86 dc 7d 39 2b 6c 02 b9 a6 b7 78 3b
       0.003786656 0.00024210112 -0.00012438062 0.003795126
000060 04 00 00 00 d9 aa 00 b1 81 57 43 3a 00 00 00 00
       6e-45 -1.8723567e-09 0.0007451699 0.0
000070 3d ea a5 39 01 44 40 3a 00 00 00 00 08 2c 13 ba
       0.00031645774 0.0007334352 0.0 -0.0005614166
000080 00 00 00 00 cc af 2b ba 6a 84 ee 39 ae 6f be 3a
       0.0 -0.0006549328 0.00045493554 0.0014529133
000090 0b cf 83 ba 2b 1e a1 ba df c7 85 3a 41 59 ba ba
       -0.001005621 -0.0012292316 0.0010206661 -0.0014217274
0000a0 8b f0 ca ba be 8e fc 3a 17 df d0 39 d8 eb d8 ba
       -0.0015483064 0.0019268615 0.00039839066 -0.0016549779
0000b0 ab f6 d0 3a 48 25 3c ba 62 e5 56 38 35 58 66 39
       0.0015942653 -0.0007177186 5.1235205e-05 0.00021967369
0000c0 d9 d2 fc 39 b1 eb a6 ba 04 00 00 80 aa d9 67 32
       0.0004822228 -0.0012735036 -6e-45 1.3495461e-08
0000d0 05 ff 8b 3a 00 00 00 00 63 89 e6 ba b6 d3 d1 38
       0.001068086 0.0 -0.0017588552 0.00010005331
0000e0 00 00 00 00 77 9d 85 38 00 00 00 00 49 90 41 ba
       0.0 6.371264e-05 0.0 -0.0007383866
0000f0 70 b8 0f bb d9 13 55 b9 48 73 00 3b f6 f2 96 b9
       -0.0021930002 -0.00020320657 0.0019599963 -0.0002879125
000100 2a 2f c3 3a ab 3b d7 b7 61 14 17 bb e1 47 b8 38
       0.0014891375 -2.5657782e-05 -0.0023052918 8.787192e-05
000110 0c 06 fc ba a1 7a 00 ba 11 f5 d8 3a 7e 27 46 3a
       -0.0019227876 -0.00049010856 0.0016552528 0.00075589854
000120 2b 7c 05 bb 36 5f 26 b9 8b 39 ea b9 49 59 c3 ba
       -0.00203682 -0.00015866462 -0.0004467483 -0.0014903928
000130 04 00 00 80 f5 ee 14 32 20 16 0f 3b 00 00 00 00
       -6e-45 8.669066e-09 0.0021833256 0.0
000140 36 4c da bb 7f e2 60 ba 00 00 00 00 b7 43 ff 39
       -0.006661917 -0.00085786724 0.0 0.00048687842
000150 00 00 00 00 94 11 8c ba b8 e3 ad bb 76 dd d5 ba
       0.0 -0.0010686391 -0.005306687 -0.0016316611
000160 8e d8 84 3b eb 94 22 3b 82 20 97 3b a4 bf 3e 3b
       0.0040541356 0.0024808 0.0046120295 0.0029105926
000170 1e 21 a4 bb f7 e4 d4 ba 80 46 bd bb cf aa 8e 3a
       -0.0050088307 -0.0016242553 -0.0057762265 0.0010884645
000180 d8 b4 22 3b d6 b2 16 3b bc 5f a7 bb 8c 87 5f ba
       0.002482703 0.0022994778 -0.005107848 -0.0008526973
000190 b8 b5 5f ba e4 e2 81 bb 04 00 00 80 f0 dc e0 b1
       -0.0008533853 -0.003963815 -6e-45 -6.5443757e-09
0001a0 04 00 93 39 00 00 00 00 07 f1 c2 39 2e 28 c1 39
       0.00028038037 0.0 0.00037182143 0.00036841765
0001b0 00 00 00 00 4d 0c 0f b9 00 00 00 00 92 b8 5c b9
       0.0 -0.00013642125 0.0 -0.00021049593
0001c0 48 49 0e 39 a9 54 24 3a 48 7b d5 b9 89 42 ed b9
       0.00013569475 0.0006268719 -0.00040718378 -0.00045253735
0001d0 7d dd 19 39 73 5e 41 ba 9d 69 f7 b9 5f c8 18 3a
       0.00014673728 -0.000737644 -0.000471902 0.00058281975
0001e0 13 ee b6 38 27 a7 0d b9 11 74 45 3a 28 f6 59 ba
       8.722781e-05 -0.00013509077 0.0007532249 -0.0008314573
0001f0 56 7a 69 38 3e 17 60 39 22 ba 36 39 38 07 ed b9
       5.5665463e-05 0.00021370963 0.00017426212 -0.0004520954
000200 04 00 00 00 c0 3b 13 31 3d 4f 7f 3a 00 00 00 00
       6e-45 2.142528e-09 0.00097392855 0.0
000210 e7 63 f9 b9 c3 f6 6f 39 00 00 00 00 9a d5 d1 38
       -0.00047567414 0.00022884742 0.0 0.00010005683
000220 00 00 00 00 e3 c2 3c ba 8f 05 4b bb ac 48 17 38
       0.0 -0.0007200671 -0.0030978655 3.6068886e-05
000230 f9 98 4d 3b ad ef 03 b9 61 ab 3c 3a d5 6a 00 bb
       0.0031371696 -0.0001258242 0.00071971683 -0.0019594927
000240 7f 21 92 ba 9e 58 fa b9 f4 b4 4b bb e5 76 d2 39
       -0.0011148899 -0.0004774974 -0.0031083198 0.00040142905
000250 3e 86 3b 3b 44 06 ab ba 82 68 3f bb 87 42 09 ba
       0.002861395 -0.0013048132 -0.0029206579 -0.00052360486
000260 66 a9 04 ba ee e3 db ba 04 00 00 80 46 75 37 32
       -0.0005060643 -0.0016776302 -6e-45 1.0678667e-08
000270 f9 20 cb 3a 00 00 00 00 b2 5c b5 39 ab 50 3f 3a
       0.0015497498 0.0 0.00034592074 0.0007298092
000280 00 00 00 00 0c 56 05 ba 00 00 00 00 09 07 89 ba
       0.0 -0.00050863693 0.0 -0.0010454367
000290 e0 b5 f9 ba 48 ab 85 3a b9 b3 8a 3a fa 57 07 ba
       -0.0019051395 0.001019814 0.0010582126 -0.0005162951
0002a0 64 75 49 3a 9e 14 86 bb 50 e5 3e bb 15 0b fa 3a
       0.0007685034 -0.004091813 -0.002912838 0.0019076789
0002b0 49 62 a8 ba 44 53 06 bb 53 d5 44 3b 82 0f 07 bb
       -0.0012846674 -0.0020496408 0.0030034378 -0.0020608609
0002c0 96 49 3f ba a1 d5 ea 38 af b4 6c 39 2f 1c 00 bb
       -0.0007297037 0.00011197781 0.00022574024 -0.0019548049
0002d0 04 00 00 00 42 06 b8 32 3c 7e 9b 3b 00 00 00 00
       6e-45 2.1423265e-08 0.004745273 0.0
0002e0 54 1c e2 bb b3 ee 2d 3a 00 00 00 00 12 a1 90 b9
       -0.0069003496 0.0006634995 0.0 -0.00027585827
0002f0 00 00 00 00 74 7e 2b bb 21 b5 2b bc 6d c6 5d 3a
       0.0 -0.0026167901 -0.010480196 0.00084600487
000300 0b 76 f3 3b 76 b3 02 3b 33 68 da 3b 51 b9 1a bb
       0.0074298433 0.0019943393 0.0066652535 -0.0023608992
000310 ab 54 16 bc 53 f5 e3 3a 2d fa 19 bc 85 27 07 bb
       -0.00917546 0.0017391838 -0.009398025 -0.002062292
000320 8b e1 11 3c ba 81 41 b9 d4 a2 1a bc 26 1d 3d 3a
       0.008903871 -0.00018454241 -0.009438235 0.0007214121
000330 f1 64 b9 b9 da a6 0e bc 04 00 00 00 97 dd ce 32
       -0.00035361157 -0.008706773 6e-45 2.4082324e-08
000340 4e bc 55 b9 00 00 00 00 09 16 38 3a 8f b8 ab 38
       -0.00020383412 0.0 0.00070223265 8.188292e-05
000350 00 00 00 00 86 a3 e7 b8 00 00 00 00 86 08 3a 39
       0.0 -0.00011045397 0.0 0.00017741518
000360 0f ea 08 ba da 77 24 39 42 6d ce 39 30 0b b3 38
       -0.0005222866 0.00015684907 0.00039372785 8.537469e-05
000370 5d 88 7d ba c8 fe e3 b9 0c 4d 8f 3a 93 fc 13 36
       -0.0009671504 -0.0004348664 0.0010932996 2.2051724e-06
000380 d2 62 07 ba 28 62 38 38 2a 3b 9f 39 28 22 20 ba
       -0.00051645667 4.3960434e-05 0.00030370924 -0.00061086053
000390 f1 a6 d0 b9 c9 3c 42 3a bb 27 3d 37 83 a1 87 39
       -0.00039797233 0.00074095704 1.1274528e-05 0.00025869542
0003a0 04 00 00 00 06 c5 18 b2 fd ec 38 bb 00 00 00 00
       6e-45 -8.892362e-09 -0.0028217428 0.0
0003b0 8c 97 f4 ba 5b 18 f5 ba 00 00 00 00 e1 c5 31 3a
       -0.0018660887 -0.0018699275 0.0 0.00067815004
0003c0 00 00 00 00 d2 f6 00 3b 45 e0 98 3b f4 a6 5c bb
       0.0 0.0019678366 0.004665407 -0.0033668848
0003d0 4a a5 5a bb a4 55 2f 3a 7d c8 aa 39 91 a9 d4 3b
       -0.003336268 0.00066884817 0.00032574302 0.0064899405
0003e0 dc 29 5c 3b 34 e5 8a ba fa 82 86 3b 2f 4b eb ba
       0.0033594286 -0.0010596872 0.004104969 -0.0017951484
0003f0 10 c2 07 bc 12 80 02 3c e4 a1 a7 3b 60 e9 7c 3a
       -0.008286014 0.007965105 0.0051157344 0.00096478127

exp_avg_sq f4 [64, 26]
000000 e2 58 8d 37 00 00 00 00 b9 88 ba 38 da f1 14 35
       1.68499e-05 0.0 8.894638e-05 5.5486237e-07
000010 00 00 00 00 18 b3 2e 35 00 00 00 00 aa a1 11 37
       0.0 6.5080667e-07 0.0 8.680314e-06
000020 98 96 9e 38 68 b0 e1 35 86 c5 90 38 ce 50 59 36
       7.5620774e-05 1.6815147e-06 6.903247e-05 3.2382554e-06
000030 e9 81 99 38 cc bc 47 36 c7 78 9b 38 62 f0 27 36
       7.319806e-05 2.9763205e-06 7.4134725e-05 2.502486e-06
000040 61 6a af 38 5c 7e 07 37 53 1e 56 38 a0 31 4f 37
       8.364465e-05 8.076047e-06 5.1049818e-05 1.2349716e-05
000050 ea c6 a6 38 ce 44 5b 36 b0 07 a9 36 37 3c b0 38
       7.9525475e-05 3.2673593e-06 5.0374874e-06 8.40355e-05
000060 42 57 d8 2d bc 46 0b 33 3e 3c b6 37 00 00 00 00
       2.4595107e-11 3.2427792e-08 2.1724143e-05 0.0
000070 8a a7 ee 38 5c cf 4a 35 00 00 00 00 8b d8 4a 35
       0.00011379931 7.555261e-07 0.0 7.5565976e-07
000080 00 00 00 00 d5 08 3c 37 2e 8e c6 38 ab 20 01 36
       0.0 1.120773e-05 9.467859e-05 1.9241513e-06
000090 5c a4 b6 38 42 c9 85 36 6c 90 c3 38 7b 3f 79 36
       8.7090506e-05 3.9871384e-06 9.325225e-05 3.7140842e-06
0000a0 1c 09 c5 38 56 1d 5c 36 a8 50 e6 38 1f 87 22 37
       9.395389e-05 3.279963e-06 0.00010982278 9.687413e-06
0000b0 e9 33 97 38 68 37 3f 37 5c 7a d9 38 82 19 c9 36
       7.20991e-05 1.1397387e-05 0.000103701575 5.9932363e-06
0000c0 40 67 a9 36 b1 73 e2 38 23 81 ab 2c bf be 97 33
       5.0486124e-06 0.00010798069 4.8744494e-12 7.066182e-08
0000d0 8b 4e e8 36 00 00 00 00 66 1d 1a 38 5a 34 45 34
       6.9232824e-06 0.0 3.674384e-05 1.83661e-07
0000e0 00 00 00 00 cb 66 32 34 00 00 00 00 2c 3b 68 36
       0.0 1.6614938e-07 0.0 3.4605137e-06
0000f0 e5 a0 ff 37 ba ec ed 34 29 eb e2 37 b0 b3 83 35
       3.0473291e-05 4.431693e-07 2.7050804e-05 9.812557e-07
000100 d0 b8 fc 37 9a ef 99 35 7f 98 fc 37 cf 07 1d 35
       3.0126801e-05 1.1469122e-06 3.0111752e-05 5.849842e-07
000110 e8 b1 13 38 bc c5 d1 35 e4 4d c0 37 4b 3e 11 36
       3.521322e-05 1.5629262e-06 2.2924454e-05 2.1642943e-06
000120 a9 14 08 38 1f 28 89 35 65 4a 07 36 00 bb 0d 38
       3.2444168e-05 1.0218972e-06 2.015987e-06 3.3791177e-05
000130 f1 4d a3 2e 43 95 b0 32 eb 05 9f 38 00 00 00 00
       7.426227e-11 2.0556973e-08 7.582813e-05 0.0
000140 17 ed d3 39 92 98 24 36 00 00 00 00 42 44 34 36
       0.00040421702 2.4526712e-06 0.0 2.6861821e-06
000150 00 00 00 00 c2 8e 21 38 c1 9b af 39 13 26 d2 36
       0.0 3.8518345e-05 0.00033494647 6.26292e-06
000160 fa 70 9f 39 04 41 39 37 1a b6 ab 39 f1 9e 45 37
       0.00030411017 1.1041997e-05 0.00032751338 1.1779121e-05
000170 f6 6f ae 39 13 86 29 37 4f c3 c6 39 65 d1 f4 37
       0.00033271284 1.0104402e-05 0.0003791102 2.9184574e-05
000180 43 5b 79 39 d1 aa 32 38 ee b9 bb 39 ef 96 7a 37
       0.00023780488 4.2597592e-05 0.00035805948 1.4936303e-05
000190 0f 49 ba 37 d5 d8 c5 39 74 44 92 2e 01 13 d0 33
       2.2206948e-05 0.0003773632 6.651471e-11 9.6892116e-08
0001a0 2f c1 42 36 00 00 00 00 96 6e 85 37 b6 89 f6 33
       2.90207e-06 0.0 1.5906331e-05 1.1480317e-07
0001b0 00 00 00 00 f9 da d9 33 00 00 00 00 2e 85 c7 35
       0.0 1.0144681e-07 0.0 1.4865416e-06
0001c0 a3 98 53 37 3b f8 9c 34 b9 ac 42 37 71 46 29 35
       1.2612119e-05 2.9237876e-07 1.1603516e-05 6.305991e-07
0001d0 b8 41 57 37 cd 84 0c 35 68 df 57 37 f4 11 0d 35
       1.28303e-05 5.2347315e-07 1.2867014e-05 5.255272e-07
0001e0 9e e5 71 37 2d 18 90 35 5a b7 17 37 b6 5f bd 35
       1.4418181e-05 1.0735872e-06 9.042991e-06 1.4109453e-06
0001f0 70 77 62 37 c5 89 65 35 63 37 c8 35 92 b0 6c 37
       1.3498458e-05 8.550963e-07 1.4917281e-06 1.4107807e-05
000200 f4 e3 8b 2c c3 f0 8f 31 ae 33 02 38 00 00 00 00
       3.9759255e-12 4.189219e-09 3.1042546e-05 0.0
000210 2e 5d 25 39 85 7f 10 35 00 00 00 00 f5 3b 15 35
       0.00015770338 5.3829746e-07 0.0 5.5594074e-07
000220 00 00 00 00 e7 c6 83 37 1b 4c 0f 39 47 f8 be 35
       0.0 1.5709038e-05 0.00013665894 1.4228361e-06
000230 f8 6e 00 39 e6 8b 45 36 6c 2d 07 39 6e 84 57 36
       0.0001224837 2.943672e-06 0.00012891524 3.211458e-06
000240 1f ad 0a 39 46 e8 0e 36 f7 7a 21 39 86 4e 12 37
       0.00013225198 2.129485e-06 0.00015399964 8.720561e-06
000250 18 7c ca 38 93 50 35 37 75 e0 19 39 1b 10 b6 36
       9.655225e-05 1.0807201e-05 0.00014674834 5.4258976e-06
000260 a2 02 e8 36 f1 4f 1e 39 74 1c 0d 2e 3a c3 14 33
       6.9144453e-06 0.00015097835 3.208496e-11 3.4636493e-08
000270 c0 05 21 39 00 00 00 00 89 3a 48 3a 70 03 8f 35
       0.00015356299 0.0 0.0007638117 1.0655331e-06
000280 00 00 00 00 9f 02 bc 35 00 00 00 00 07 2a a3 38
       0.0 1.4007854e-06 0.0 7.780274e-05
000290 fc de 2d 3a 96 6c 44 36 a5 99 1c 3a 91 5c 05 37
       0.00066326535 2.9269481e-06 0.00059738226 7.94897e-06
0002a0 d2 ca 21 3a 5c 97 26 37 12 27 28 3a 1b f5 82 36
       0.0006171885 9.929612e-06 0.00064145133 3.902836e-06
0002b0 75 ce 46 3a 50 82 ae 37 b7 2f 0d 3a 07 05 da 37
       0.0007583865 2.0803098e-05 0.0005385833 2.5989966e-05
0002c0 3b d6 3c 3a 13 01 cf 37 ee 77 8c 37 8d 76 42 3a
       0.00072035537 2.4676823e-05 1.6745147e-05 0.0007418178
0002d0 ae c2 5d 2d d2 ff 02 34 81 66 cd 38 00 00 00 00
       1.2605623e-11 1.220026e-07 9.7942546e-05 0.0
0002e0 c6 20 01 3a 92 d7 ca 35 00 00 00 00 3f cf e1 35
       0.0004925843 1.5112912e-06 0.0 1.6824123e-06
0002f0 00 00 00 00 42 c0 51 38 4c c4 de 39 71 54 8f 36
       0.0 5.0008537e-05 0.00042489392 4.2715624e-06
000300 c0 1a c9 39 96 9b 0d 37 f2 2b d5 39 83 7d 3b 37
       0.00038357638 8.44048e-06 0.00040659268 1.1175292e-05
000310 42 e1 d9 39 ed da b7 36 8d 3d fe 39 98 68 20 37
       0.00041557295 5.4793113e-06 0.00048492514 9.561096e-06
000320 83 71 a1 39 51 2f 83 37 3f 40 f3 39 43 37 6e 37
       0.00030792886 1.563845e-05 0.0004639644 1.4198772e-05
000330 83 e3 a3 37 42 ba f8 39 31 b0 7f 2d 8b 8a 56 34
       1.9537058e-05 0.0004744102 1.4534194e-11 1.9980705e-07
000340 56 75 60 36 00 00 00 00 37 53 a4 37 7f 02 55 34
       3.34469e-06 0.0 1.9589073e-05 1.9838079e-07
000350 00 00 00 00 ea 3f 80 34 00 00 00 00 8c 03 e3 35
       0.0 2.3888362e-07 0.0 1.691385e-06
000360 03 80 7e 37 cb 26 20 35 dc bf 6a 37 59 ef 8d 35
       1.5169385e-05 5.9661096e-07 1.3992158e-05 1.0574978e-06
000370 be 54 85 37 48 ad 8a 35 1a 3e 7e 37 c5 a1 66 35
       1.5894297e-05 1.0332233e-06 1.5154039e-05 8.591708e-07
000380 3f e6 93 37 f0 49 39 36 fe 9a 4d 37 8b a1 87 36
       1.7630982e-05 2.7610185e-06 1.2255039e-05 4.0421196e-06
000390 20 3e 88 37 50 b2 56 35 bc ab c6 35 31 c2 90 37
       1.6241393e-05 7.998069e-07 1.4802131e-06 1.7256565e-05
0003a0 24 d4 59 2d 70 97 a6 32 34 f0 d5 39 00 00 00 00
       1.2382127e-11 1.939381e-08 0.0004080549 0.0
0003b0 2e e2 07 3b ec c2 a2 36 00 00 00 00 2d 86 a8 36
       0.0020734179 4.850668e-06 0.0 5.0224103e-06
0003c0 00 00 00 00 4b dc 56 39 0a bd e9 3a ab 28 3a 37
       0.0 0.00020490696 0.0017832827 1.1095933e-05
0003d0 d9 bd d1 3a 0f 2c b9 37 3b 7f de 3a 87 c7 e5 37
       0.0016002014 2.2074235e-05 0.0016975173 2.739184e-05
0003e0 26 08 e4 3a 83 cf 9f 37 45 ed 03 3b 41 fd 92 38
       0.0017397448 1.9050907e-05 0.0020130437 7.008995e-05
0003f0 a0 13 a9 3a 44 82 cf 38 92 73 fa 3a 87 a7 78 38
       0.0012899525 9.894793e-05 0.0019107929 5.928383e-05

exp_avg f4 [64]
000000 c1 51 34 3b 0b ea a5 39 7a 89 e6 ba 39 4c da bb
       0.002751455 0.00031645628 -0.0017588579 -0.0066619185
000010 05 f1 c2 39 07 64 f9 b9 dc 5d b5 39 60 1c e2 bb
       0.00037182137 -0.00047567507 0.0003459294 -0.006900355
000020 fa 15 38 3a d7 96 f4 ba 98 2e 5e 3b f9 55 f0 3b
       0.0007022318 -0.0018660676 0.0033902284 0.0073344675
000030 96 bd 03 3b 99 a1 29 bb e1 bb 0a 3c ac c5 90 3a
       0.0020102016 -0.0025883673 0.008467645 0.0011045239
000040 c9 53 9c bb f4 46 9b bb f4 86 34 bb ca 6b f8 ba
       -0.00477073 -0.004738683 -0.0027546259 -0.0018953022
000050 df 75 27 3b ec 47 0f bb 14 ff 93 3b 80 61 d6 3a
       0.0025552434 -0.0021862937 0.0045164917 0.0016355962
000060 b6 10 85 ba ac 64 67 3b 11 af 0a b9 22 a8 b5 3a
       -0.0010152075 0.0035307808 -0.00013225923 0.0013859312
000070 6c 5f 44 bb 59 de e9 ba fe e9 50 ba aa 72 b7 3a
       -0.0029964102 -0.0017842754 -0.0007969438 0.0013995965
000080 6a 03 52 3b c9 e1 58 ba c9 e9 1a bb 61 27 25 b9
       0.0032045492 -0.00082733907 -0.0023637882 -0.00015750296
000090 b8 2e 7d b9 0f 65 3a b9 71 a1 cd 3a d3 b1 cf 3a
       -0.00024145364 -0.0001777599 0.0015688372 0.0015845842
0000a0 12 84 c8 ba 2d 92 11 bc 2e 78 17 ba 71 a3 1b 3b
       -0.0015298149 -0.008884949 -0.0005778101 0.0023748542
0000b0 e2 44 b2 bb 66 60 50 3a 6d 58 51 ba 34 7e 88 3a
       -0.0054403404 0.0007948935 -0.0007985894 0.0010413588
0000c0 ab 96 86 ba b5 3f 02 3c fe c7 53 3a 21 d7 a5 ba
       -0.0010268291 0.007949759 0.00080788124 -0.0012652614
0000d0 04 34 14 39 6f ed c0 b9 5d ea ad 3a 03 65 40 bb
       0.00014133757 -0.00036797996 0.0013268698 -0.0029357083
0000e0 91 70 99 3b f5 a3 a4 bb 17 ee 79 bb ba 96 ac ba
       0.0046826084 -0.005024428 -0.0038136297 -0.0013167479
0000f0 f3 30 31 3a a2 c5 95 37 a3 fd e1 3a a4 fd 01 bb
       0.0006759308 1.7854214e-05 0.0017241727 -0.001983502

exp_avg_sq f4 [64]
000000 b5 88 ba 38 88 a7 ee 38 63 1d 1a 38 11 ed d3 39
       8.894635e-05 0.000113799295 3.674383e-05 0.00040421684
000010 97 6e 85 37 2d 5d 25 39 92 3a 48 3a c5 20 01 3a
       1.5906333e-05 0.00015770337 0.0007638122 0.00049258425
000020 3d 53 a4 37 2b e2 07 3b 40 6d 8c 39 1e 60 8a 3a
       1.9589084e-05 0.0020734172 0.00026784278 0.001055721
000030 85 c4 45 38 e2 c4 c5 39 08 f8 52 3a 28 4c ed 38
       4.7151483e-05 0.00037721457 0.0008047824 0.00011315226
000040 62 a4 88 39 1e f0 eb 3a 4e b0 bc 38 0e fa 20 3a
       0.00026062416 0.0018000638 8.997378e-05 0.00061407767
000050 fe 3c 13 38 08 15 30 38 42 0b 3e 3a 2f ea 6c 3a
       3.5104335e-05 4.1981257e-05 0.00072496023 0.00090375816
000060 dd e2 e8 39 07 49 83 3a 41 9f 8a 38 1a f1 84 38
       0.00044419515 0.0010016271 6.610016e-05 6.339159e-05
000070 d0 96 3a 39 31 16 da 38 34 5d fd 37 8e a1 6b 39
       0.00017794524 0.000103991835 3.0203351e-05 0.0002247153
000080 ce 91 f6 38 36 af 18 39 b3 34 36 39 9c d3 f5 37
       0.00011757352 0.00014561121 0.00017376505 2.9304814e-05
000090 3b bb 0b 38 58 e1 4a 39 1a 27 de 39 8d 20 7c 38
       3.3314554e-05 0.00019348168 0.00042372273 6.0111797e-05
0000a0 86 37 53 3a ff 50 ec 3b 29 75 2c 37 20 87 8f 39
       0.0008057285 0.007211804 1.0279277e-05 0.0002737576
0000b0 f1 2a ce 39 6b d4 ed 39 04 c5 5d 39 5c 3b cd 39
       0.00039323376 0.00045362426 0.00021149596 0.00039144873
0000c0 11 4c ad 37 5e 58 88 3b 87 2b a7 38 87 5f 2e 39
       2.0658628e-05 0.004160925 7.971288e-05 0.0001662952
0000d0 82 7d 35 37 ce 10 9b 38 fb 39 db 39 6c 19 94 3a
       1.0817663e-05 7.394106e-05 0.00041814134 0.001129908
0000e0 bf 0d 6b 38 78 a6 b4 39 4b 93 ec 38 88 fd d0 3a
       5.6041168e-05 0.00034456304 0.000112807924 0.0015944699
0000f0 a5 2e 92 3a 83 ef 8d 3b 1a 85 19 38 c8 07 34 39
       0.0011152817 0.0043315305 3.6602003e-05 0.00017169036

exp_avg f4 [32, 64]
000000 98 bb af 38 c4 c5 ff b9 bc fc 06 ba e1 90 11 ba
       8.379592e-05 -0.00048784737 -0.00051493547 -0.00055528997
000010 31 21 35 3a de 10 81 38 99 6a c6 3a 40 2b 2e 38
       0.0006909548 6.154341e-05 0.001513797 4.1525112e-05
000020 18 89 1e 3a 5a e2 93 38 e2 e5 b2 ba 54 cb 60 38
       0.000604765 7.0516675e-05 -0.0013648833 5.3595126e-05
000030 d8 40 25 3a 46 2f 89 3a 40 8b e5 39 ed dc 85 39
       0.0006303913 0.0010466359 0.00043782033 0.0002553234
000040 ee a0 0b 3a d2 93 b2 ba f2 fd e5 39 1f 3a 32 39
       0.00053264096 -0.0013624376 0.00043867488 0.00016997055
000050 ee f1 15 b9 08 33 ad 38 74 f0 1d 3a e4 37 f8 b9
       -0.00014299873 8.258788e-05 0.0006024905 -0.00047343888
000060 37 0a 8f 39 84 3d 94 ba 2b 9d 84 b9 68 df 0b b7
       0.00027282696 -0.0011309837 -0.000252941 -8.337061e-06
000070 79 b4 88 b9 be b0 b5 b9 00 a8 3c 39 ed df b0 b8
       -0.00026074404 -0.00034654693 0.00017991662 -8.4340434e-05
000080 ad fb 2c ba 8d 58 a5 38 4f 41 5c ba 15 1a c5 b6
       -0.0006598782 7.884307e-05 -0.0008402066 -5.874094e-06
000090 ba 40 55 3a 24 b1 97 3a e8 72 2b ba 7e 7c 9c 3a
       0.000813495 0.0011573178 -0.00065402547 0.0011938957
0000a0 a5 cc ba 39 c5 56 f9 38 5b 61 7c 38 88 d5 d3 39
       0.00035629157 0.00011889407 6.017215e-05 0.0004040415
0000b0 70 9d 44 39 0b bc 1e 39 63 3c c3 b9 31 e3 75 3a
       0.00018750667 0.00015138106 -0.0003723829 0.00093798625
0000c0 41 55 d9 b9 fa eb de 39 e5 38 84 38 cb 77 88 b9
       -0.00041452984 0.00042518956 6.304848e-05 -0.00026029194
0000d0 ed 7a ab 39 e2 62 d4 37 2c f8 5d 3a 3c c8 42 39
       0.00032707248 2.5318415e-05 0.00084674614 0.00018575875
0000e0 ea 18 09 3a 2b 89 c0 b9 68 13 e6 38 13 d4 bf 39
       0.0005229848 -0.00036723292 0.00010970869 0.00036588366
0000f0 82 ae e6 38 e2 51 17 39 4f da 55 b9 db 97 10 b9
       0.00010999759 0.00014430986 -0.00020394589 -0.0001378948
000100 a6 9b 4c ba cf 8b 83 ba 05 3b 71 bb e1 74 88 3a
       -0.0007805176 -0.0010036173 -0.003680886 0.0010410809
000110 2f 0c 49 3b 3f b0 dc b9 40 88 e0 3a a6 99 08 3b
       0.0030677428 -0.00042092983 0.0017130449 0.0020843535
000120 31 ac af 3a 28 91 83 ba fd 0e 41 ba 8a ec 31 b9
       0.0013402757 -0.0010037767 -0.0007364599 -0.00016968153
000130 b4 4f 4d 3b 56 4b 9f 3a 8a 43 3a 3a 81 f3 22 3b
       0.0031328024 0.0012153189 0.0007105401 0.0024864378
000140 c9 f8 73 3a 73 88 ab ba b2 c2 be b9 85 d1 7c 3a
       0.0009306786 -0.001308693 -0.00036384683 0.0009644258
000150 32 21 1d ba 9c 64 b3 ba 34 9c 37 ba 59 41 c1 ba
       -0.0005994021 -0.00136866 -0.0007004172 -0.0014744207
000160 c3 ba a6 3a 62 57 0d bb c2 3d da ba 59 01 f6 3a
       0.0012720454 -0.0021566977 -0.0016650485 0.0018768712
000170 08 8f 2e ba 5b df 20 3b ab 4f 84 b9 2e 97 5c bb
       -0.00066588866 0.0024547193 -0.0002523636 -0.0033659446
000180 43 60 be b7 99 8e a0 3a 13 84 5e bb 55 c7 00 bb
       -2.269459e-05 0.0012249529 -0.0033953234 -0.001965006
000190 c2 35 88 3b 23 0c 3d 3b 61 84 cf ba 2e 93 dc 3a
       0.004156799 0.0028846345 -0.0015832299 0.0016828531
0001a0 50 e9 cc b8 b4 7a 9b 3a df 55 34 3b 27 56 14 3b
       -9.770936e-05 0.001186213 0.0027517003 0.0022634359
0001b0 21 cf 04 3a 3e 5e 13 3b 8e 9a 29 bb 75 5d 15 3b
       0.0005066265 0.0022486593 -0.0025879475 0.00227913
0001c0 39 4b 24 bb 5a 70 cf 39 c8 5b b1 3a 08 bf c8 ba
       -0.002506925 0.00039565825 0.0013531381 -0.0015315721
0001d0 f8 b8 72 ba ae 07 03 3b f2 a5 c8 38 18 45 a4 39
       -0.000925913 0.001999359 9.567653e-05 0.00031331996
0001e0 20 2f 8c 38 56 98 38 38 5e 4a 85 ba 5b d8 e9 39
       6.684498e-05 4.4010892e-05 -0.0010169258 0.0004460242
0001f0 90 52 89 3a c6 b3 1e ba 66 89 b5 3a 04 94 49 3b
       0.0010476876 -0.000605401 0.0013850152 0.003075839
000200 ec 8a 15 b9 df 6e 75 3a 5c 29 6c 3a 15 07 2b 39
       -0.000142615 0.00093625294 0.00090088486 0.00016310469
000210 d2 07 a6 ba aa fd e5 39 01 de 04 bb 8e 84 6f 39
       -0.0012667126 0.00043867278 -0.0020273926 0.00022842197
000220 e6 6c 81 39 67 5b b8 b8 10 eb 96 3a 12 3f 27 3a
       0.00024685933 -8.790829e-05 0.0011514146 0.00063799426
000230 6f 94 99 ba cd 81 94 ba fb 9f 00 ba 92 ec f2 39
       -0.001171721 -0.0011330188 -0.00049066514 0.00046334096
000240 59 51 2d ba bd 27 a0 3a c2 b5 f9 b9 57 2c 1d 39
       -0.0006611548 0.0012218874 -0.000476284 0.00014989205
000250 08 fc b5 39 75 82 9e 39 98 e9 46 ba eb 3c 16 3a
       0.00034710788 0.00030233306 -0.0007587909 0.00057311234
000260 1b af c6 b9 49 63 c0 3a 9f ca 1d 3a 0e 6f 1e b9
       -0.00037895967 0.0014678027 0.00060192676 -0.00015109425
000270 d4 f9 8e 3a 09 66 23 3a c9 71 94 38 de 7e 21 3a
       0.0010908195 0.0006233161 7.078384e-05 0.0006160567
000280 b1 17 4a 3a f6 4d 53 35 e6 e3 c1 3a 7a 8f 24 b9
       0.0007709219 7.8717073e-07 0.001479265 -0.00015693708
000290 a5 d2 96 ba 9d 6e 9e ba 40 cd 08 3a 27 4b ac ba
       -0.0011506869 -0.0012087409 0.0005218573 -0.0013144956
0002a0 57 30 15 ba 49 47 59 39 d1 55 29 b9 20 9d 37 ba
       -0.0005691102 0.00020721288 -0.00016149065 -0.00070043094
0002b0 19 c0 ff b9 cb 56 04 ba 4b 7e 00 3a d7 aa 41 ba
       -0.00048780514 -0.00050483336 0.00049016316 -0.0007387823
0002c0 6b c1 18 3a 81 9d 31 ba 65 82 d7 b9 f7 61 2b 3a
       0.00058271614 -0.0006775484 -0.00041105147 0.000653773
0002d0 22 3b 0b ba e8 eb 66 b9 49 20 13 ba 59 d8 90 b9
       -0.00053112407 -0.00022022391 -0.0005612416 -0.00027627012
0002e0 09 54 d0 b9 ef f4 88 38 9e 1b 9f 39 96 4f 4e ba
       -0.00039735463 6.530608e-05 0.0003034742 -0.00078701356
0002f0 92 a2 9c 39 c0 53 85 b9 cd 13 1a 3a 00 ad 01 ba
       0.00029875763 -0.00025430135 0.00058775843 -0.00049467385
000300 8c 8f 89 3a 4d e1 81 39 98 97 27 3b bf a3 b5 ba
       0.0010495051 0.0002477266 0.0025572535 -0.0013858004
000310 2b ed 0b bb 36 aa 73 39 cd f7 1f 39 06 81 ee ba
       -0.002135108 0.00023237694 0.00015255735 -0.0018196411
000320 6a c6 98 ba 70 a4 a8 3a b1 c9 03 ba 5e dc 93 b9
       -0.0011655812 0.0012866389 -0.0005027308 -0.0002820221
000330 8e f8 08 bb 84 ea 10 b9 10 68 b4 b9 1c 68 30 bb
       -0.0020900103 -0.00013820274 -0.00034409808 -0.0026917523
000340 19 c8 b7 b9 ff 02 cb 38 67 70 59 3a 04 fd 9a ba
       -0.00035053564 9.6803524e-05 0.00082946423 -0.0011824672
000350 aa 24 df 39 00 7d 8d 3a ce a2 94 3a c1 ac 81 3a
       0.0004256119 0.0010794699 0.0011340023 0.0009893404
000360 91 cb 6f ba 48 7d 66 3a b0 f4 74 3a 80 64 ce ba
       -0.000914746 0.0008792472 0.00093443226 -0.0015746504
000370 be 86 a0 38 c3 47 3e bb ed 00 ec 39 09 97 4a 3b
       7.654492e-05 -0.0029034473 0.00045014117 0.0030912778
000380 3f 26 2c ba 4c 5f af ba 32 f9 e6 3a 56 8f 06 3b
       -0.00065669784 -0.0013379841 0.0017621873 0.0020532212
000390 e7 71 4d bb 9a ce e9 ba 34 9e 8f 3a 30 86 d1 b9
       -0.0031348409 -0.0017838061 0.0010957182 -0.00039963564
0003a0 bc 66 d5 39 00 dc 92 ba 03 2d 30 bb d9 e1 d0 ba
       0.0004070307 -0.0011204481 -0.0026882298 -0.0015936448
0003b0 fa c4 6b b9 6b 5a f9 ba 62 c2 05 3b 82 12 ac ba
       -0.00022484726 -0.0019024139 0.002041005 -0.0013128074
0003c0 db 04 01 3b 15 a9 09 3a 07 9e 89 ba 48 13 95 3a
       0.0019686732 0.00052513304 -0.0010499366 0.0011373544
0003d0 23 c8 9d 3a b1 2f 05 bb b0 e1 a2 39 27 09 5b 37
       0.0012037795 -0.0020322616 0.00031067198 1.3055548e-05
0003e0 63 03 fc 39 7f dc d0 b9 90 b7 92 3a a9 3f e0 39
       0.0004806771 -0.00039837134 0.0011193622 0.0004277204
0003f0 3b b5 93 ba f5 d3 43 3a bb e1 09 bb 58 f5 13 bb
       -0.0011269221 0.0007470244 -0.0021039087 -0.0022576656

exp_avg_sq f4 [32, 64]
000000 71 45 40 36 7e 71 ad 36 c4 7c 8e 37 93 77 ac 36
       2.865065e-06 5.169014e-06 1.6985818e-05 5.1399197e-06
000010 c7 e5 00 38 4e 67 d0 35 9a 9c 41 37 75 f0 c9 36
       3.0731575e-05 1.5527273e-06 1.1540158e-05 6.0182597e-06
000020 bb 6c 8d 36 8a 64 04 36 82 2d d8 35 bc dd 28 35
       4.2147853e-06 1.9728054e-06 1.6106499e-06 6.2907543e-07
000030 80 b8 a7 37 75 c9 8c 36 ce 00 af 35 69 d6 4a 37
       1.9993866e-05 4.195778e-06 1.303875e-06 1.20900595e-05
000040 83 3b 6f 36 7d 10 d7 36 c1 ba c3 36 a0 d8 12 36
       3.5648416e-06 6.409419e-06 5.833194e-06 2.1881788e-06
000050 f9 bf 21 37 d3 b5 ed 36 fc ad a3 36 b7 96 b7 36
       9.641045e-06 7.0843175e-06 4.878033e-06 5.4713705e-06
000060 89 be b6 36 2f d5 77 37 6e bb 30 37 c1 b5 db 36
       5.446204e-06 1.4771983e-05 1.0534057e-05 6.5478675e-06
000070 f0 68 53 36 e8 53 6d 37 02 25 a4 35 47 b2 20 38
       3.1502532e-06 1.4145837e-05 1.2229723e-06 3.8313006e-05
000080 45 9b 1b 36 52 bc 15 37 e9 4a b0 37 e5 26 bd 37
       2.3187179e-06 8.924939e-06 2.1015718e-05 2.2548667e-05
000090 5c 44 58 38 26 3c d6 37 03 4e 08 37 d8 7d 60 37
       5.1562078e-05 2.5538797e-05 8.124395e-06 1.3380741e-05
0000a0 8a 57 12 36 dc 05 75 35 7b bc 13 38 b6 af a6 37
       2.180665e-06 9.127814e-07 3.5223067e-05 1.9870564e-05
0000b0 83 2f fd 35 bf bd 89 37 20 59 3c 37 f1 20 4b 37
       1.8863797e-06 1.642003e-05 1.1226424e-05 1.2107413e-05
0000c0 07 6f b0 37 77 01 a1 35 b5 8b 58 36 7a 87 1c 37
       2.1032536e-05 1.1995861e-06 3.2267828e-06 9.329868e-06
0000d0 bc 9c 8b 36 37 76 ab 37 75 8b 06 36 15 c1 cc 35
       4.160769e-06 2.0439837e-05 2.004873e-06 1.5255379e-06
0000e0 b4 24 31 35 ab d7 09 36 82 43 74 36 6b f7 24 36
       6.599105e-07 2.0540126e-06 3.6398128e-06 2.458192e-06
0000f0 af 20 0b 36 48 5c 69 35 55 ae 0c 37 1c 5e cb 37
       2.0731638e-06 8.693355e-07 8.38524e-06 2.4243309e-05
000100 37 f3 8c 36 d8 8b f8 36 66 90 cb 37 1a 4e e8 36
       4.200639e-06 7.407256e-06 2.4266727e-05 6.923231e-06
000110 3c b5 39 38 6c 13 08 36 5b e3 8f 37 8b 1c fc 36
       4.4276225e-05 2.0276884e-06 1.7152799e-05 7.513508e-06
000120 46 60 cb 36 41 f4 36 36 71 2a fb 35 6b d6 64 35
       6.061079e-06 2.7262288e-06 1.8713309e-06 8.524864e-07
000130 51 06 f1 37 b5 ae c1 36 7b e2 d4 35 1d 58 90 37
       2.873238e-05 5.772187e-06 1.5861145e-06 1.7207169e-05
000140 af 54 aa 36 a2 30 1d 37 3a 39 08 37 a3 51 4f 36
       5.0762533e-06 9.369252e-06 8.119556e-06 3.0892922e-06
000150 33 66 56 37 65 52 21 37 52 ec c5 36 4f 44 00 37
       1.2779189e-05 9.615532e-06 5.898569e-06 7.645299e-06
000160 0b be fb 36 06 dc ae 37 2e 66 77 37 86 54 1a 37
       7.502507e-06 2.0844873e-05 1.4746138e-05 9.198795e-06
000170 7f 86 88 36 90 18 a5 37 d2 3e f6 35 65 45 63 38
       4.0687733e-06 1.968097e-05 1.8346711e-06 5.4185646e-05
000180 a0 54 42 36 05 e2 5b 37 a3 b7 f9 37 dc 3e 05 38
       2.895751e-06 1.31060415e-05 2.9768626e-05 3.1768213e-05
000190 b1 5f 9b 38 eb 9b 18 38 12 e0 39 37 7c 99 97 37
       7.4088e-05 3.6384834e-05 1.107903e-05 1.8072074e-05
0001a0 24 76 f7 35 30 9e 9e 35 77 44 52 38 e8 af ec 37
       1.8437318e-06 1.1817956e-06 5.0131664e-05 2.8215305e-05
0001b0 e9 cd 12 36 95 dd c3 37 5b a6 86 37 cc 37 90 37
       2.187555e-06 2.3348994e-05 1.605151e-05 1.719212e-05
0001c0 99 df fc 37 ea a6 d0 35 47 cc 9a 36 5b ce 60 37
       3.0144862e-05 1.5545786e-06 4.6133387e-06 1.3399486e-05
0001d0 ef 87 a5 36 63 fa f1 37 64 34 fc 35 fb 71 05 36
       4.933208e-06 2.8846034e-05 1.8790711e-06 1.988489e-06
0001e0 7a 15 75 35 03 60 20 36 5c c4 a5 36 c3 92 57 36
       9.1300865e-07 2.3897744e-06 4.9402424e-06 3.2122923e-06
0001f0 37 4b 50 36 d0 e1 77 35 f7 bd 4b 37 25 36 0a 38
       3.1038196e-06 9.234327e-07 1.21439725e-05 3.295219e-05
000200 8e bf 7d 36 54 a9 cb 36 ac ee af 37 c9 f9 ce 36
       3.7811437e-06 6.069584e-06 2.0972766e-05 6.1683572e-06
000210 61 df 1d 38 0e 2b 0d 36 42 15 75 37 a7 24 fa 36
       3.7639755e-05 2.1035698e-06 1.4608087e-05 7.4548475e-06
000220 1a f1 8a 36 f6 03 37 36 ba 4c f2 35 92 1e 30 35
       4.1407884e-06 2.727143e-06 1.8052735e-06 6.5609595e-07
000230 a0 7c c5 37 a7 c1 be 36 1e b1 c8 35 5d d9 69 37
       2.3542263e-05 5.6849854e-06 1.4952709e-06 1.3938491e-05
000240 b7 33 82 36 ea ef 01 37 39 c1 d7 36 0a c3 4c 36
       3.8803223e-06 7.7448585e-06 6.4299934e-06 3.0511897e-06
000250 36 f2 3a 37 93 8b 1f 37 24 20 d5 36 77 b0 db 36
       1.1142858e-05 9.509636e-06 6.3516363e-06 6.547252e-06
000260 4c e4 ca 36 4d 26 98 37 4e 05 46 37 82 f7 02 37
       6.0466464e-06 1.8137647e-05 1.1802955e-05 7.806231e-06
000270 44 fe 98 36 84 45 8e 37 ec f4 b1 35 76 5d 39 38
       4.5595534e-06 1.696009e-05 1.3258809e-06 4.419448e-05
000280 5a e3 2e 36 da 4b 21 37 03 86 cb 37 dd 7e ce 37
       2.6060357e-06 9.614008e-06 2.426189e-05 2.4616189e-05
000290 a1 fd 7a 38 34 66 f5 37 af e7 29 37 66 b4 82 37
       5.9840855e-05 2.9253868e-05 1.0127128e-05 1.5581212e-05
0002a0 97 99 59 36 de 4d 9c 35 b4 7e 24 38 ad fa be 37
       3.242492e-06 1.1645568e-06 3.921865e-05 2.2766495e-05
0002b0 0d fd 1c 36 87 6e a0 37 0d 84 4e 37 c8 56 61 37
       2.3393106e-06 1.9124955e-05 1.2309302e-05 1.343125e-05
0002c0 01 af c0 37 d9 75 c0 35 96 cd 8a 36 ca 2a 33 37
       2.2969676e-05 1.4339413e-06 4.136654e-06 1.0679194e-05
0002d0 18 e5 90 36 0c 3d c7 37 b1 cc 22 36 92 40 1c 36
       4.3182044e-06 2.3751076e-05 2.4259027e-06 2.3283396e-06
0002e0 8d 6f 3f 35 2a 86 1d 36 1f dd 87 36 da 12 31 36
       7.131537e-07 2.3472917e-06 4.0490554e-06 2.6386028e-06
0002f0 21 21 36 36 37 cf 98 35 8b 68 28 37 3c 31 e8 37
       2.7139397e-06 1.138519e-06 1.0037921e-05 2.7679482e-05
000300 e2 3d 78 36 7e 15 dc 36 23 cc c6 37 2b 43 ec 36
       3.69909e-06 6.559013e-06 2.3698498e-05 7.0411675e-06
000310 69 c6 39 38 29 8a c3 35 8e 12 5d 37 89 2b 0a 37
       4.429222e-05 1.4568842e-06 1.3176947e-05 8.235577e-06
000320 ee 50 a9 36 d7 a7 21 36 b7 4b dc 35 33 00 38 35
       5.046014e-06 2.4088565e-06 1.6413313e-06 6.854563e-07
000330 09 e6 e9 37 46 c9 ae 36 fd 2a a3 35 a2 74 93 37
       2.7882883e-05 5.2090354e-06 1.2156958e-06 1.7578077e-05
000340 55 7d 98 36 10 7a e2 36 8c c7 ed 36 91 ff 3a 36
       4.5445436e-06 6.749535e-06 7.0863807e-06 2.786492e-06
000350 07 2e 58 37 33 1c 1b 37 60 48 bf 36 51 92 f1 36
       1.288532e-05 9.245286e-06 5.700669e-06 7.199393e-06
000360 6a 86 f5 36 98 42 9d 37 6d f8 5b 37 36 d5 10 37
       7.317217e-06 1.8746869e-05 1.3111258e-05 8.632711e-06
000370 eb f0 84 36 2c bf ac 37 f3 51 96 35 51 eb 68 38
       3.961953e-06 2.059302e-05 1.1199721e-06 5.5532266e-05
000380 98 e5 3a 36 8a 94 45 37 38 ed db 37 61 8f 03 38
       2.78498e-06 1.17766995e-05 2.6217298e-05 3.1366366e-05
000390 c7 3f 9a 38 b6 b4 15 38 83 96 46 37 0b a4 90 37
       7.355172e-05 3.569267e-05 1.1836763e-05 1.7242526e-05
0003a0 59 b6 07 36 90 bf 37 35 87 c6 4b 38 c0 c3 e5 37
       2.0222708e-06 6.845157e-07 4.8583865e-05 2.739008e-05
0003b0 71 5d 0a 36 b1 12 bf 37 01 a4 7e 37 1b 7b 81 37
       2.0617993e-06 2.2777678e-05 1.5177765e-05 1.5435324e-05
0003c0 df e7 ef 37 fa e4 81 35 64 e0 83 36 e6 07 59 37
       2.8598994e-05 9.67789e-07 3.9302267e-06 1.2936047e-05
0003d0 6a e8 a4 36 86 a3 f5 37 e4 f4 f7 35 69 82 d1 35
       4.9146374e-06 2.9282422e-05 1.8474207e-06 1.5609668e-06
0003e0 a1 f2 71 35 2d cd 25 36 2a 09 8c 36 e4 a4 15 36
       9.013257e-07 2.4706344e-06 4.173392e-06 2.229871e-06
0003f0 96 2f 24 36 ba ee 4e 35 be e6 44 37 6c 13 00 38
       2.4465603e-06 7.7088373e-07 1.1736234e-05 3.0535666e-05

exp_avg f4 [32]
000000 b7 c2 a7 3a 2a ed a5 3b ff 04 f0 ba a1 be 6e bb
       0.0012799118 0.0050636726 -0.0018312036 -0.0036429542
000010 04 06 13 bb 55 55 a1 ba 41 4f 8e b9 92 90 de 3a
       -0.0022434006 -0.0012308756 -0.000271434 0.0016980341
000020 0e ea 00 ba 42 02 4b bb 0a 60 11 3b 0e 81 40 39
       -0.00049176894 -0.0030976688 0.0022182488 0.00018358623
000030 c0 47 20 38 31 aa b0 3b 97 86 ac 39 f2 9e c0 ba
       3.8213795e-05 0.005391382 0.00032906674 -0.0014695807
000040 3b 70 b2 bb 48 04 0f bb 33 e9 3a 3b c6 23 8f 3a
       -0.005445508 -0.002182262 0.0028520345 0.0010920695
000050 81 3f f6 3a 5a 06 7f 3a e9 5a 9d bb 8b c0 c7 39
       0.0018787236 0.00097284245 -0.004802097 0.00038099693
000060 73 a7 3b 3b fd 05 fa 3a 76 4d 02 3b 79 7f 7c bb
       0.0028633743 0.0019075271 0.0019882596 -0.0038528128
000070 73 4e b8 3b 1e 21 3d 3b c7 10 96 b8 e1 aa b0 ba
       0.0056245863 0.002885885 -7.1556824e-05 -0.001347866

exp_avg_sq f4 [32]
000000 13 e5 d6 38 a4 df 18 39 01 a3 00 39 ed 8b 15 39
       0.000102469836 0.00014579162 0.00012267755 0.00014261874
000010 4b 77 6a 39 e2 8b 27 39 96 ec e4 38 13 c4 8c 38
       0.00022360419 0.00015978471 0.00010915955 6.712242e-05
000020 5c cb 26 39 dc f5 b8 3a 0d a4 60 38 42 01 8d 38
       0.00015906751 0.0014111358 5.3558546e-05 6.723638e-05
000030 8b a2 b2 39 49 1c 31 39 ba 1e ad 37 ad b2 f9 38
       0.0003407191 0.00016890572 2.0637515e-05 0.00011906526
000040 e6 b4 33 39 6c a7 b1 39 7a 9f c8 39 ef 37 ad 38
       0.0001713816 0.0003388481 0.00038265792 8.259701e-05
000050 80 59 98 38 5e bc f5 38 13 34 cd 38 18 b2 73 39
       7.2645955e-05 0.000117175965 9.784861e-05 0.00023240631
000060 86 e7 b7 38 af eb 76 3a 50 80 50 3a 85 b7 3c 39
       8.7692446e-05 0.0009419275 0.00079536904 0.00017997444
000070 07 fd 1d 3a e4 a1 93 38 38 e9 6a 38 e8 e4 05 3a
       0.0006026779 7.039661e-05 5.600715e-05 0.0005107657

exp_avg f4 [6, 32]
000000 74 e0 a1 39 43 94 e1 ba 93 f9 73 b9 b4 eb fe 3a
       0.00030875544 -0.0017210323 -0.0002326726 0.0019448907
000010 39 aa 1f 3b 8b b8 c6 3a 7c 89 8d ba 82 b9 6d ba
       0.0024362935 0.0015161199 -0.001079842 -0.00090684753
000020 19 30 aa 39 e2 d9 78 3b e4 1d 5b ba 2c 66 e8 39
       0.00032460762 0.0037971665 -0.0008358641 0.00044326612
000030 2a 9f 90 b9 77 35 30 3a bc 23 8e ba 1b 3a 55 3a
       -0.00027584407 0.0006721834 -0.001084439 0.00081339636
000040 44 72 a8 ba a8 97 98 38 9e 67 64 bb b9 dc f2 ba
       -0.0012851437 7.276173e-05 -0.00348518 -0.0018528915
000050 8f 88 f9 ba ab 72 12 3a b4 f0 80 ba 95 37 db 3a
       -0.001903789 0.0005586545 -0.000983736 0.0016724939
000060 4d 48 28 3a 61 bd 5e 3b 26 67 5c ba f9 d4 de 3a
       0.0006419465 0.003398739 -0.00084077043 0.0017000727
000070 05 5d bf bb 82 dc dc 3a 0e 6d 9b ba c2 9a e5 ba
       -0.005839946 0.0016850384 -0.0011858062 -0.0017517435
000080 7b 21 aa 3a 10 31 6a 3a c1 63 19 bb 1d 1c b4 3a
       0.0012979949 0.00089337025 -0.0023405405 0.0013741289
000090 1f 6f 61 3b f9 4e a6 ba a6 ea 49 3b 88 d6 a4 ba
       0.0034398509 -0.0012688331 0.0030810027 -0.0012576142
0000a0 16 16 b1 ba 61 44 f8 b9 ec 2b 9e bb 83 b2 2d b9
       -0.001351061 -0.00047353192 -0.0048270132 -0.00016565066
0000b0 2f 15 af 3b 51 40 04 bb 5f ae 81 3b dc d5 70 ba
       0.0053431015 -0.0020179937 0.003957554 -0.0009187141
0000c0 86 bb 9a 3a 03 50 f9 ba 9e 80 69 3a 56 62 56 bb
       0.0011805154 -0.0019021038 0.000890741 -0.0032712421
0000d0 b1 f1 a3 bb f8 d9 b1 ba 97 e5 3a 3b 33 fb 05 bb
       -0.005003177 -0.0013568988 0.0028518194 -0.0020443916
0000e0 aa 37 2f 3a 8b 38 ee 39 8e 25 56 3b e9 d6 44 bb
       0.0006684015 0.00045437025 0.0032676193 -0.0030035323
0000f0 37 ef 8d ba be 80 54 bb 09 5a 83 bb 20 41 d4 39
       -0.0010828738 -0.003242537 -0.0040085358 0.00040484313
000100 87 92 db ba 30 f7 35 3b f5 8a 10 bc 99 26 39 b8
       -0.0016752043 0.0027765743 -0.008822192 -4.4143384e-05
000110 bb 15 92 39 94 d5 96 bb 2c 85 50 3b 5a 16 78 3b
       0.0002786348 -0.004603097 0.0031817658 0.003785512
000120 94 02 e1 ba 87 f2 19 bb a2 8b 15 bc 4c be 2e bc
       -0.0017166906 -0.0023490505 -0.009127529 -0.0106654875
000130 27 aa 90 37 1e a2 bc bb 71 4d 4d 3c e1 90 a1 ba
       1.7245371e-05 -0.0057566306 0.0125306705 -0.0012326502
000140 a3 ec a7 ba 13 8a 4b bb 2d ad ca 3b 0e cf ec bb
       -0.0012811612 -0.003105764 0.006185195 -0.0072268313
000150 a5 c8 ce bb a1 ea cf 3b f9 cf 64 3b 7c f5 8a bb
       -0.00631054 0.0063451086 0.0034914 -0.00424069
000160 70 72 a6 b9 a4 d3 29 bb b8 05 15 ba b7 3b 23 ba
       -0.0003174725 -0.00259135 -0.0005684751 -0.0006226855
000170 d7 f5 b7 3b 9c 06 08 bc 3c 52 f8 bb 5a 29 e7 b9
       0.005614023 -0.008302357 -0.0075781625 -0.00044090563
000180 88 65 a6 39 dc d3 1b bb 88 3c e1 3b 37 63 7c 3b
       0.00031737634 -0.00237774 0.006873671 0.0038511285
000190 26 99 fa 3a bf 9e 80 3b 52 04 b4 bb 01 b1 ed b9
       0.0019119128 0.003925174 -0.005493679 -0.0004533604
0001a0 34 b1 17 bb 5b da a1 3b a2 fb d5 3b f5 af ce 3b
       -0.0023146393 0.00493936 0.006530241 0.006307597
0001b0 99 ec 62 ba 90 f8 76 3b 00 b3 e8 bb 4e 78 d1 3b
       -0.00086564716 0.0037684776 -0.0071014166 0.0063925153
0001c0 0d 0c b5 36 50 d8 91 3b 48 b3 05 bc b4 f9 b7 3a
       5.3956232e-06 0.0044508353 -0.00816042 0.0014036209
0001d0 b2 66 0e 3a 3b cb 7e bb 6c 58 b4 bb 81 58 d2 3b
       0.0005432173 -0.003887846 -0.005503705 0.006419242
0001e0 5f a7 0c bb dc d9 ae 3b 52 e5 76 39 91 f6 2d 3b
       -0.0021462066 0.0053360295 0.00023545817 0.002654467
0001f0 0d c1 9a bb 13 cd 0e 3c 85 c8 10 3b f2 ce 04 3b
       -0.0047227205 0.008715886 0.0022092175 0.002026495
000200 aa 0f ef 3a 20 db 18 3b e4 a2 8c ba e6 d3 99 39
       0.0018238921 0.0023323968 -0.0010729698 0.0002934031
000210 57 ee 1b 3b 60 28 28 bb 69 16 5e 3b c0 2b 26 3a
       0.0023793185 -0.002565883 0.003388787 0.0006338917
000220 02 f7 8f bb f3 5b 1e 3a 44 fb cb ba c6 24 b8 ba
       -0.0043934593 0.0006040923 -0.0015562554 -0.0014049045
000230 e8 3d 80 3a 9b b0 90 ba ef aa bc 3a 4a 99 cc ba
       0.0009784075 -0.0011038961 0.0014394204 -0.0015609649
000240 0d b2 d2 ba ff fa 9b ba ce e6 a8 3a 8d e5 4e 3a
       -0.0016074792 -0.0011900364 0.0012886168 0.0007892482
000250 1e 8f 72 ba 04 25 f9 3a 2c 48 c2 3a 60 95 19 ba
       -0.00092528935 0.0019008224 0.0014822534 -0.00058587454
000260 fa f2 f0 3a a4 6a 9e 39 e4 29 0c 3a b4 e8 9b ba
       0.001838296 0.00030215562 0.00053468184 -0.0011894912
000270 ca 82 85 3a 45 fb e9 38 6f 75 3a bb a7 b3 a6 b8
       0.0010186073 0.000111571084 -0.0028451344 -7.94896e-05
000280 c1 eb 99 ba fa 7c f3 ba fa eb 04 ba 26 fc fb ba
       -0.0011743234 -0.0018576675 -0.00050705636 -0.0019224926
000290 73 32 c5 ba 32 46 49 bb d5 72 38 3b 0b f7 dc b9
       -0.0015044942 -0.0030712006 0.0028144617 -0.0004214573
0002a0 ab 0d c1 3a 29 0a 5f bb 2a 7a 50 ba e2 d3 87 bb
       0.0014728805 -0.0034033156 -0.0007952774 -0.0041451314
0002b0 5f 2d 9a 3a 32 7a 07 bb 8a 98 17 3b c7 91 31 bb
       0.0011762789 -0.00206722 0.0023131692 -0.0027094947
0002c0 a0 01 14 bb 40 c3 36 bb 12 93 5e 3b 6e 5d 89 3a
       -0.0022583976 -0.0027887374 0.0033962172 0.0010480115
0002d0 35 2a 16 3b 7a b2 18 3b 3a 8a 0a 3b d4 27 3f bb
       0.002291334 0.002329974 0.0021139518 -0.0029168027
0002e0 77 d4 d7 3a e3 e4 01 bb 56 9a 23 3a 45 d7 1c 3a
       0.0016466518 -0.0019820265 0.00062409544 0.00059830054
0002f0 a7 eb 48 b9 2e 42 f6 ba 71 d0 2b bb 5c 7d 8c ba
       -0.00019161274 -0.0018788034 -0.002621677 -0.0010718512

exp_avg_sq f4 [6, 32]
000000 9f 7a 88 37 d1 4a f1 37 d9 51 e5 38 4b 6c ac 37
       1.6269563e-05 2.8764278e-05 0.00010934816 2.0554426e-05
000010 54 db ed 37 89 3e 35 38 58 95 24 38 52 63 4f 37
       2.8354734e-05 4.3212003e-05 3.9239734e-05 1.2361286e-05
000020 58 d2 a1 37 7a a9 67 37 4e 1c c0 38 02 fb a5 38
       1.9290645e-05 1.3808132e-05 9.1605456e-05 7.914567e-05
000030 b2 81 fe 37 8c 29 a8 37 d5 cf 16 39 9e 91 dd 37
       3.0339554e-05 2.0046507e-05 0.00014382538 2.6413061e-05
000040 f4 75 b4 37 ac 90 0f 38 f1 1f f4 37 1e 5c bb 38
       2.1512598e-05 3.4228593e-05 2.910194e-05 8.934013e-05
000050 94 0f 54 38 c5 e5 d4 37 ee 1b b4 37 ac a0 ce 37
       5.0559247e-05 2.5379364e-05 2.1470678e-05 2.4631932e-05
000060 02 b5 17 37 71 9d 19 37 22 f5 d6 37 4f d6 7e 37
       9.0424455e-06 9.156168e-06 2.5624937e-05 1.5189477e-05
000070 18 36 10 38 dc 30 87 38 fe 08 98 38 3e ac 92 37
       3.4382654e-05 6.4464024e-05 7.2496e-05 1.7484763e-05
000080 eb 0b c6 37 67 e5 2b 38 49 6f 59 39 62 20 e5 37
       2.3608989e-05 4.0983225e-05 0.0002073619 2.7314007e-05
000090 f7 ed 3a 38 04 79 8b 38 0d 2c 85 38 c7 93 85 37
       4.4567478e-05 6.6505774e-05 6.350139e-05 1.592365e-05
0000a0 2c 21 e7 37 c7 61 4b 37 01 71 33 39 b7 4c 16 39
       2.7552793e-05 1.2122508e-05 0.00017112867 0.00014333693
0000b0 60 1a 1e 38 28 23 0d 38 66 30 8e 39 66 ff ed 37
       3.76947e-05 3.364976e-05 0.0002712041 2.837153e-05
0000c0 b5 2d e7 37 d5 b3 37 38 06 52 18 38 8a f3 2b 39
       2.755863e-05 4.379808e-05 3.6316014e-05 0.00016398556
0000d0 e2 77 c3 38 a9 f3 29 38 fd 34 09 38 93 4b 1e 38
       9.3206545e-05 4.0519666e-05 3.2712695e-05 3.774052e-05
0000e0 61 b9 27 37 1e c4 01 37 33 0e e2 37 4b 87 ba 37
       9.997138e-06 7.734661e-06 2.6947911e-05 2.2235929e-05
0000f0 7c 3c 19 38 b8 14 f5 38 eb 2f 01 39 00 73 b7 37
       3.6534373e-05 0.000116863695 0.0001232025 2.1868851e-05
000100 08 a4 eb 37 5a bf 54 38 74 e7 88 39 7a e0 1a 38
       2.8090566e-05 5.072295e-05 0.00026112387 3.692552e-05
000110 bf d5 79 38 46 95 c0 38 7d d9 a5 38 31 ea be 37
       5.9565293e-05 9.183078e-05 7.9083235e-05 2.2758819e-05
000120 48 c1 10 38 23 8c a1 37 e4 10 66 39 47 23 40 39
       3.4512283e-05 1.9257952e-05 0.00021940802 0.00018323689
000130 47 aa 30 38 23 d4 35 38 28 dc af 39 04 39 1e 38
       4.2120253e-05 4.335133e-05 0.0003354263 3.7723235e-05
000140 06 6d 25 38 48 79 74 38 6d 50 62 38 fb 1a 55 39
       3.94406e-05 5.8287085e-05 5.39575e-05 0.00020323314
000150 8b 58 05 39 e2 ed 73 38 93 7e 2a 38 cd 37 4e 38
       0.00012716853 5.815726e-05 4.064904e-05 4.9166196e-05
000160 42 e0 67 37 c4 38 7c 37 f3 7f 10 38 26 ad e7 37
       1.3820887e-05 1.5033587e-05 3.4451437e-05 2.7617974e-05
000170 e5 af 72 38 a8 53 17 39 04 7f 25 39 24 a8 f6 37
       5.786111e-05 0.00014431647 0.00015782943 2.9403782e-05
000180 58 46 8a 38 fd 1c 0d 39 71 1c 53 3a 54 e1 8d 38
       6.593455e-05 0.00013457607 0.00080532493 6.7653746e-05
000190 b7 74 18 39 00 9a 8a 39 3d 06 71 39 0b d7 50 38
       0.0001453933 0.0002643615 0.00022985875 4.979134e-05
0001a0 91 ac a8 38 c3 a9 a2 37 ec d5 2f 3a 67 2c 0c 3a
       8.043007e-05 1.9390956e-05 0.0006707597 0.00053471926
0001b0 90 1b 85 38 28 ef e9 38 88 08 88 3a de 74 53 38
       6.347068e-05 0.00011154852 0.0010378519 5.041516e-05
0001c0 1f d3 8d 38 36 c5 09 39 d4 9e fb 38 44 48 1d 3a
       6.762728e-05 0.00013138805 0.00011998197 0.0005999843
0001d0 7e 6f c6 39 56 33 24 39 ec 0c d5 38 bd 7c 12 39
       0.0003784857 0.00015659383 0.00010159038 0.00013970114
0001e0 08 5f d1 37 ef 4c 55 37 5d c0 56 38 7f fd 9b 38
       2.4958994e-05 1.2713702e-05 5.120073e-05 7.438193e-05
0001f0 49 a0 8e 38 b3 69 e5 39 9a 8a e7 39 f1 64 81 38
       6.800943e-05 0.00043757036 0.0004416302 6.170001e-05
000200 5f 9f c3 37 fb a8 74 38 d4 14 61 39 d5 fc 02 38
       2.3320024e-05 5.833151e-05 0.00021465431 3.1229883e-05
000210 b1 7f 52 38 38 c7 a2 38 1b ff 92 38 e0 27 b4 37
       5.0186824e-05 7.761869e-05 7.0093396e-05 2.147624e-05
000220 cf f9 16 38 0f 96 75 37 6e c8 3e 39 f0 b6 20 39
       3.599544e-05 1.4638076e-05 0.00018194478 0.00015326939
000230 d1 d6 37 38 ae 02 27 38 6c 94 96 39 7d 9a fa 37
       4.3830663e-05 3.98184e-05 0.00028720812 2.9874262e-05
000240 5e e7 0b 38 63 2b 54 38 fa 99 41 38 f4 48 33 39
       3.335566e-05 5.0585146e-05 4.6158188e-05 0.00017097947
000250 ed a6 d6 38 a3 4d 45 38 21 2f 26 38 dc ed 33 38
       0.000102354075 4.7040765e-05 3.9621376e-05 4.289845e-05
000260 99 04 4d 37 9d 62 48 37 f4 39 1c 38 f5 cc d7 37
       1.2220023e-05 1.1943889e-05 3.724727e-05 2.5725438e-05
000270 b6 14 61 38 74 0c 06 39 5b d4 0c 39 3e 94 ee 37
       5.366347e-05 0.00012783875 0.00013430549 2.8440842e-05
000280 1f 4c 8a 37 2d 62 1f 38 c0 f6 15 39 66 9c b7 37
       1.6486329e-05 3.7999987e-05 0.00014301669 2.1888129e-05
000290 b2 cd 0f 38 f5 ed 63 38 8f 26 4c 38 5d ff 7d 37
       3.4285425e-05 5.4342632e-05 4.86733e-05 1.51394315e-05
0002a0 33 37 bc 37 3f 68 2d 37 d9 38 02 39 47 ea d3 38
       2.243705e-05 1.0335875e-05 0.00012418944 0.000101049016
0002b0 d6 3d 04 38 b2 7f bf 37 75 0a 40 39 a2 a6 d8 37
       3.152884e-05 2.2828437e-05 0.00018314442 2.5826801e-05
0002c0 62 ca c9 37 e7 b7 23 38 fa 33 fa 37 fb 8c f6 38
       2.4055309e-05 3.90335e-05 2.9826526e-05 0.00011756454
0002d0 d8 d4 a1 38 c6 d8 11 38 18 99 dd 37 88 3e f3 37
       7.7167235e-05 3.477258e-05 2.6416543e-05 2.8996976e-05
0002e0 c1 5a 29 37 86 9b f0 36 5b bc dd 37 53 3b 98 37
       1.0094315e-05 7.1706627e-06 2.6432963e-05 1.8147437e-05
0002f0 86 2d f4 37 2c 97 a7 38 43 09 b7 38 75 bb ae 37
       2.9108265e-05 7.9913385e-05 8.727845e-05 2.0829708e-05

exp_avg f4 [6]
000000 5a 0e 02 bb bc 05 04 bc d0 5e 71 bc 00 bb 7c 3b
       -0.001984498 -0.008058008 -0.014732078 0.003856361
000010 28 ca 77 bb 64 bd 3f 3b
       -0.0037809703 0.0029257173

exp_avg_sq f4 [6]
000000 79 a8 d0 39 42 7c 3d 3a ce 02 73 3a 20 f2 2e 3b
       0.00039798373 0.00072282937 0.0009270132 0.002669461
000010 4e 91 48 3a 59 7b 05 3a
       0.00076510466 0.00050919276
