flare/polgrad/lightning_logs/version_39/checkpoints/epoch=249.ckpt (torch_old, 146766 bytes, 36 tensors)

exp_avg f4 [6]
0	0x3ca08fbc	0.019599788
1	0x3bba0289	0.0056765717
2	0x3c0294b9	0.007970029
3	0x3cdc52be	0.026894923
4	0x3cc1770c	0.023616336
5	0xbb003288	-0.001956137

exp_avg_sq f4 [6]
0	0x39c93039	0.00038373636
1	0x39c0f971	0.00036806942
2	0x3999b9aa	0.00029320765
3	0x39cc0301	0.0003891215
4	0x3a004406	0.0004892949
5	0x395f9745	0.0002132329

exp_avg f4 [64, 22]
0	0x3a2d321f	0.0006606895
1	0x00000000	0.0
2	0xba98f6da	-0.0011670247
3	0xba0c4abd	-0.0005351713
4	0x00000000	0.0
5	0xb888415c	-6.4971595e-05
6	0x00000000	0.0
7	0x3b778a5a	0.0037771673
8	0x3a1a93a7	0.00058966357
9	0xba34de2f	-0.0006899563
10	0x3a7a2256	0.00095418596
11	0xb9e84e1e	-0.0004430869
12	0xbac24c7d	-0.0014823821
13	0xba1ed437	-0.0006058844
14	0x3a84cf8e	0.0010132657
15	0xba349969	-0.0006889315
16	0x3a74de2a	0.00093409664
17	0xba71e53e	-0.000922758
18	0xbb1c8840	-0.0023884922
19	0x39175c8e	0.00014434961
20	0xbb5fa937	-0.003412796
21	0xbb1d5c07	-0.0024011151
22	0xbb0ce566	-0.0021499037
23	0x00000000	0.0
24	0x3c9ad69f	0.018901167
25	0x36ebc4a0	7.026436e-06
26	0x00000000	0.0
27	0xb9045465	-0.0001261994
28	0x00000000	0.0
29	0xbc660730	-0.0140398
30	0x3c4033e0	0.011731118
31	0xba33b19a	-0.0006854773
32	0x3c441886	0.0119687375
33	0x3911971a	0.00013884567
34	0x3ba04594	0.004891107
35	0xb703c698	-7.854447e-06
36	0x3c1a05b6	0.009400776
37	0xb96e841e	-0.00022746666
38	0x3c559e38	0.013038211
39	0xba522bdd	-0.00080174004
40	0x3c00c1af	0.007858678
41	0xb72eb1f0	-1.04126375e-05
42	0x3c91ad12	0.017782722
43	0x3c96b0c4	0.018394835
44	0x3b1db85c	0.0024066186
45	0x00000000	0.0
46	0xbc95491a	-0.018223334
47	0xb9fafc5a	-0.00047871732
48	0x00000000	0.0
49	0x39874678	0.0002580171
50	0x00000000	0.0
51	0x3c7d2f02	0.015453102
52	0xbc2c3b80	-0.010512233
53	0xb890e324	-6.908763e-05
54	0xbc2b888e	-0.010469569
55	0xba624078	-0.00086308224
56	0xbbb5b750	-0.005545534
57	0x39b2dc7b	0.00034115076
58	0xbc01aad1	-0.007914261
59	0xba1e43fc	-0.0006037352
60	0xbc3eeae6	-0.011652684
61	0x39b05242	0.00033630623
62	0xbc0bb31c	-0.00852659
63	0xb9e17490	-0.0004300219
64	0xbc982314	-0.018571414
65	0xbc8eaf89	-0.017417686
66	0xba8e92b6	-0.0010877464
67	0x00000000	0.0
68	0xb9bf17b0	-0.00036448007
69	0x3aa98eaa	0.0012936194
70	0x00000000	0.0
71	0xb710f0a0	-8.639094e-06
72	0x00000000	0.0
73	0xbbb86de8	-0.005628336
74	0xbb229a66	-0.0024811267
75	0x3b176429	0.0023100472
76	0xbb845121	-0.0040379916
77	0x3a9d7c86	0.001201526
78	0x3b1e8c5a	0.0024192543
79	0xb7647604	-1.3617337e-05
80	0xbb6d7129	-0.0036230779
81	0x3b1c769e	0.0023874412
82	0xbb74d2ec	-0.0037357165
83	0x3ac1bda3	0.0014781248
84	0x3b80b296	0.003927539
85	0x3a072a0e	0.0005156108
86	0x3b9dde4c	0.0048177596
87	0x3a5fbfa8	0.0008535334
88	0x3bb18014	0.0054168794
89	0x00000000	0.0
90	0xbccaf9eb	-0.024777373
91	0xbae88293	-0.001773911
92	0x00000000	0.0
93	0xbab4f096	-0.001380461
94	0x00000000	0.0
95	0x3cf48cdb	0.029852321
96	0xbc4ecedf	-0.012622564
97	0xbb0f216d	-0.0021839992
98	0xbc0b6f32	-0.008510398
99	0xbb950bc4	-0.0045485217
100	0xbc6cee4c	-0.014461111
101	0x3adb49ab	0.0016730329
102	0xbba48114	-0.00502027
103	0xbb078c76	-0.0020683086
104	0xbc2bdf06	-0.010490185
105	0xbb837668	-0.004011918
106	0xbc92203b	-0.017837634
107	0x3ad05549	0.0015894558
108	0xbd1919d0	-0.037378132
109	0xbd04300c	-0.032272384
110	0x3a8d6244	0.0010786732
111	0x00000000	0.0
112	0xbc358bc0	-0.011080682
113	0x391acc1a	0.00014762618
114	0x00000000	0.0
115	0xb9a5c4f2	-0.00031617988
116	0x00000000	0.0
117	0x3be4d49d	0.0069833533
118	0xbbf41e54	-0.0074499045
119	0xb9febe78	-0.00048588566
120	0xbc033c27	-0.008009947
121	0x3a783f8a	0.0009469917
122	0xbb00c11e	-0.0019646357
123	0xb952ad02	-0.00020091611
124	0xbbd3e7c8	-0.0064668395
125	0xba1e629a	-0.00060419145
126	0xbc09111d	-0.0083658965
127	0x3ac93f92	0.0015354028
128	0xbb3fade4	-0.0029247934
129	0xba502b6a	-0.00079410395
130	0xbc270a4f	-0.010195329
131	0xbc333876	-0.010938754
132	0xba54ffe6	-0.000812529
133	0x00000000	0.0
134	0xbb449d24	-0.003000089
135	0x3aa3e91a	0.0012505383
136	0x00000000	0.0
137	0x39d7a172	0.00041128282
138	0x00000000	0.0
139	0xbb7107c4	-0.003677831
140	0xbb88161d	-0.0041530267
141	0x3b3cc52a	0.0028804042
142	0xbbb2ed6f	-0.005460433
143	0x3a7a5c26	0.00095504744
144	0x3aeec3ea	0.0018216346
145	0x38a26fca	7.745584e-05
146	0xbb9f4b30	-0.004861258
147	0x3b3ce61a	0.0028823675
148	0xbbb48b18	-0.0055097453
149	0x3aae2dc5	0.0013288787
150	0x3b1c537c	0.0023853472
151	0x39f770a6	0.0004719544
152	0x3b41e334	0.0029584887
153	0xba2ce69c	-0.0006595643
154	0x3b0bddd3	0.0021341934
155	0x00000000	0.0
156	0xbcc3d466	-0.02390499
157	0x3aa1cb6c	0.001234395
158	0x00000000	0.0
159	0xba1ae858	-0.00059092557
160	0x00000000	0.0
161	0x3c5cec4a	0.01348407
162	0xbc8d5e7b	-0.017256966
163	0x3b1c2b36	0.0023829467
164	0xbc9157f9	-0.017742144
165	0x39ef89b3	0.00045688226
166	0xbbb516a3	-0.00552638
167	0x39dfb4da	0.0004266862
168	0xbc68bafa	-0.014204735
169	0x3b1837ae	0.0023226547
170	0xbc9a97be	-0.018871184
171	0x3ad68677	0.0016366978
172	0xbbeaaee6	-0.007161963
173	0x3aace147	0.0013189696
174	0xbcad67e7	-0.021167709
175	0xbccee849	-0.025257247
176	0xb89f1552	-7.585682e-05
177	0x00000000	0.0
178	0xbbe0db07	-0.0068620476
179	0x3a697d47	0.00089069124
180	0x00000000	0.0
181	0x39af7cde	0.00033471634
182	0x00000000	0.0
183	0x39bae700	0.00035648793
184	0xbbccf73f	-0.00625506
185	0x3b015dce	0.001973975
186	0xbbe07434	-0.00684979
187	0x3a6d4f1c	0.0009052621
188	0x39d9edae	0.0004156655
189	0x39209f79	0.00015318197
190	0xbbcbebd8	-0.006223183
191	0x3b017b72	0.0019757417
192	0xbbec2f78	-0.007207807
193	0x3aa2034d	0.0012360603
194	0xb9dcc09e	-0.0004210518
195	0x398f422e	0.00027324393
196	0xbb0b8008	-0.002128603
197	0xbb907dfd	-0.00440955
198	0xb9ad4c2e	-0.0003305389
199	0x00000000	0.0
200	0x3bc9a139	0.0061532524
201	0xb9530c96	-0.00020127217
202	0x00000000	0.0
203	0xb9dcfdc2	-0.00042150734
204	0x00000000	0.0
205	0xbb32a634	-0.002725971
206	0x3b99ae83	0.004689993
207	0xba7872dc	-0.00094775646
208	0x3b9f872c	0.0048684087
209	0x3987c038	0.0002589242
210	0x3a4dc03a	0.00078487734
211	0xba2bdbe4	-0.00065558986
212	0x3b846e66	0.004041481
213	0xba38b566	-0.00070460734
214	0x3bb0fa8e	0.005400962
215	0xba17e101	-0.0005793721
216	0x3aa36c51	0.0012468194
217	0x3a1434ac	0.00056536007
218	0x3b704d83	0.0036667294
219	0x3b5fd99c	0.0034156805
220	0x3bbec7b9	0.0058221486
221	0x00000000	0.0
222	0xbcfa0642	-0.030520562
223	0xbb04db38	-0.0020272266
224	0x00000000	0.0
225	0xba81be2c	-0.0009898595
226	0x00000000	0.0
227	0x3d0b9ba4	0.034083977
228	0xbc7a9c06	-0.015295988
229	0xbb32b8fc	-0.0027270904
230	0xbc5132b4	-0.012768436
231	0xbb75bcba	-0.0037496523
232	0xbc6ae644	-0.014337126
233	0x3a885c38	0.001040346
234	0xbc06dae5	-0.008230899
235	0xbb522da1	-0.0032070654
236	0xbc72db03	-0.014822724
237	0xbb22cc92	-0.0024841172
238	0xbc9b16da	-0.018931795
239	0xb9180e3c	-0.00014501152
240	0xbd28e2d2	-0.041231938
241	0xbd12fa2f	-0.035883125
242	0x3a7b0cc2	0.0009576791
243	0x00000000	0.0
244	0xbba94454	-0.005165616
245	0xb8e5855b	-0.0001094441
246	0x00000000	0.0
247	0xb9d7d3f6	-0.0004116592
248	0x00000000	0.0
249	0x3bb40aa6	0.0054944335
250	0xbb2f962e	-0.0026792395
251	0x3a016b34	0.0004936934
252	0xbb26e780	-0.0025467575
253	0xba8f0aec	-0.0010913289
254	0xbb33b0a2	-0.0027418514
255	0x38fe2f90	0.00012120523

exp_avg_sq f4 [64, 22]
0	0x36a6039d	4.947606e-06
1	0x00000000	0.0
2	0x39be40fc	0.0003628804
3	0x35a026dd	1.193224e-06
4	0x00000000	0.0
5	0x359c7d93	1.1659453e-06
6	0x00000000	0.0
7	0x392f73b5	0.00016732405
8	0x39258287	0.00015784251
9	0x36e16939	6.717772e-06
10	0x3946b568	0.0001895033
11	0x36871d37	4.0267146e-06
12	0x37fba44e	2.9998042e-05
13	0x35f23798	1.8046585e-06
14	0x38b40ee4	8.5858424e-05
15	0x3707d944	8.097213e-06
16	0x39854184	0.0002541655
17	0x366ba1fd	3.5112018e-06
18	0x38397e00	4.4224784e-05
19	0x35d675df	1.5978547e-06
20	0x39896910	0.00026208954
21	0x39ae3923	0.00033230436
22	0x3660c891	3.3495346e-06
23	0x00000000	0.0
24	0x397f9692	0.00024374787
25	0x357acc02	9.342913e-07
26	0x00000000	0.0
27	0x35a2309f	1.2084091e-06
28	0x00000000	0.0
29	0x38f6771b	0.00011752379
30	0x38ec9078	0.00011280266
31	0x36cb87c1	6.0656753e-06
32	0x38fe727e	0.0001213299
33	0x364fd962	3.0971937e-06
34	0x379ebe5c	1.892371e-05
35	0x35c8c0bb	1.4957253e-06
36	0x3872523a	5.7773876e-05
37	0x36de54c6	6.6259845e-06
38	0x3932ba10	0.00017044717
39	0x364c9d23	3.0489834e-06
40	0x3806a32b	3.210005e-05
41	0x35ee2c6b	1.7745309e-06
42	0x392c2352	0.00016416356
43	0x3966530e	0.0002196545
44	0x36c14d5e	5.760855e-06
45	0x00000000	0.0
46	0x39d67718	0.00040905993
47	0x36035bd0	1.9573963e-06
48	0x00000000	0.0
49	0x3601f5cd	1.9365573e-06
50	0x00000000	0.0
51	0x394bb2a8	0.00019426143
52	0x3944edff	0.00018780677
53	0x3725c620	9.880896e-06
54	0x395bfd9a	0.00020979941
55	0x36b396db	5.3521776e-06
56	0x3813ce1a	3.5239478e-05
57	0x362b204b	2.5499783e-06
58	0x38da973a	0.00010423218
59	0x3739be89	1.1071222e-05
60	0x3991d820	0.0002781758
61	0x369b97f4	4.6370496e-06
62	0x385ae755	5.2190695e-05
63	0x36494ef3	2.9997288e-06
64	0x398700cd	0.00025749803
65	0x39bc4b21	0.0003591413
66	0x37bbef47	2.240356e-05
67	0x00000000	0.0
68	0x3ae51353	0.0017477073
69	0x3694fa91	4.4399135e-06
70	0x00000000	0.0
71	0x36b51280	5.396374e-06
72	0x00000000	0.0
73	0x3a4d24a5	0.000782559
74	0x3a4a442c	0.0007715847
75	0x37f4957c	2.9156676e-05
76	0x3a7163e7	0.0009208307
77	0x3778fead	1.4841248e-05
78	0x390d9f8a	0.00013506241
79	0x36e370fb	6.77828e-06
80	0x39e02bce	0.00042757246
81	0x3812e42f	3.5021625e-05
82	0x3aa30518	0.0012437431
83	0x376eb8c3	1.4228924e-05
84	0x394fcd8b	0.00019817629
85	0x36f0f6bd	7.1812815e-06
86	0x3a9c8794	0.0011942261
87	0x3acb2463	0.0015498515
88	0x39263c31	0.00015853417
89	0x00000000	0.0
90	0x3c50592f	0.0127165755
91	0x3818121e	3.6256497e-05
92	0x00000000	0.0
93	0x384762b6	4.753723e-05
94	0x00000000	0.0
95	0x3bb1a582	0.0054213414
96	0x3bb8d2b8	0.005640354
97	0x395f5495	0.00021298447
98	0x3be2b127	0.006918091
99	0x38e83230	0.0001107197
100	0x3a7ee4c3	0.0009723419
101	0x387ddd3a	6.0525934e-05
102	0x3b5dc478	0.0033839028
103	0x3986e54e	0.00025729317
104	0x3c13b401	0.009015084
105	0x38e702a3	0.000110154295
106	0x3aac5003	0.0013146404
107	0x38803ecb	6.115212e-05
108	0x3c10edbc	0.008845743
109	0x3c36f78f	0.011167421
110	0x3705355f	7.939844e-06
111	0x00000000	0.0
112	0x3a141eef	0.00056503614
113	0x36218187	2.4066264e-06
114	0x00000000	0.0
115	0x361ed777	2.3669252e-06
116	0x00000000	0.0
117	0x398c01c3	0.00026704193
118	0x3981c431	0.0002475097
119	0x3746f890	1.1859593e-05
120	0x3999d717	0.00029342689
121	0x36d860e8	6.448583e-06
122	0x384cede5	4.8858947e-05
123	0x3680349e	3.8208227e-06
124	0x390cc4f1	0.00013424807
125	0x37761ca2	1.4669409e-05
126	0x39d56a5a	0.00040705764
127	0x370b8802	8.316712e-06
128	0x3893571c	7.0257316e-05
129	0x368ebb8a	4.253762e-06
130	0x39d4a7f9	0.0004056094
131	0x3a06e70e	0.0005146124
132	0x37a0804b	1.9133227e-05
133	0x00000000	0.0
134	0x3acb11f8	0.0015493026
135	0x36668d28	3.4354834e-06
136	0x00000000	0.0
137	0x36a402bc	4.887899e-06
138	0x00000000	0.0
139	0x3a3322e8	0.00068335095
140	0x3a3567d5	0.0006920074
141	0x37df2824	2.6602364e-05
142	0x3a565b4d	0.0008177057
143	0x375d45f6	1.3188916e-05
144	0x38eb6a13	0.00011225431
145	0x36bf48e2	5.7007283e-06
146	0x39cac439	0.0003867464
147	0x38035acf	3.1317406e-05
148	0x3a91545e	0.0011087765
149	0x373c5816	1.1226182e-05
150	0x39352a3c	0.00017277239
151	0x36cc4ed4	6.0888506e-06
152	0x3a8a160c	0.0010535135
153	0x3ab23e70	0.001359893
154	0x38060ea4	3.1961725e-05
155	0x00000000	0.0
156	0x3b20832b	0.0024492245
157	0x37019bdc	7.725288e-06
158	0x00000000	0.0
159	0x372811e4	1.0017746e-05
160	0x00000000	0.0
161	0x3a92ad74	0.0011190609
162	0x3a91f68b	0.0011136098
163	0x3858572f	5.157961e-05
164	0x3aa798c5	0.0012786618
165	0x37b40d89	2.1463975e-05
166	0x3945b94a	0.0001885641
167	0x376308fc	1.3532346e-05
168	0x3a1c7bd2	0.00059693784
169	0x3885d302	6.3812375e-05
170	0x3ae81b87	0.0017708399
171	0x37effcd7	2.8608758e-05
172	0x39986deb	0.00029073594
173	0x3746c2a6	1.184704e-05
174	0x3ad4d45a	0.0016237602
175	0x3b0bb629	0.0021318293
176	0x375b06f8	1.305504e-05
177	0x00000000	0.0
178	0x3a8df533	0.0010830521
179	0x36367f41	2.7194185e-06
180	0x00000000	0.0
181	0x36807d9a	3.829319e-06
182	0x00000000	0.0
183	0x39ef668f	0.00045662044
184	0x39feaccf	0.00048575408
185	0x37a01efe	1.9087918e-05
186	0x3a1c7a6e	0.0005969171
187	0x371a6cd6	9.204456e-06
188	0x38a9f16e	8.103518e-05
189	0x3694d431	4.435446e-06
190	0x3996976a	0.00028723042
191	0x37bc3092	2.2433964e-05
192	0x3a4c3cc7	0.0007791039
193	0x370ee846	8.51794e-06
194	0x38e3dfd1	0.000108658925
195	0x3698c6a3	4.5530774e-06
196	0x3a3afd33	0.00071330665
197	0x3a76b788	0.00094115036
198	0x3677fd22	3.695321e-06
199	0x00000000	0.0
200	0x399d9d89	0.00030062746
201	0x35b45e63	1.3438515e-06
202	0x00000000	0.0
203	0x35cd6d2f	1.5305467e-06
204	0x00000000	0.0
205	0x38fcb1d1	0.00012049417
206	0x391515c1	0.00014217851
207	0x3707686b	8.070939e-06
208	0x3930b7f8	0.00016853202
209	0x367c03a0	3.7553036e-06
210	0x37c409f5	2.3369657e-05
211	0x3625152b	2.4599237e-06
212	0x38b6d2cf	8.7177024e-05
213	0x371c7c12	9.327212e-06
214	0x39624ca5	0.00021581592
215	0x3676bac0	3.676556e-06
216	0x380c7285	3.3485256e-05
217	0x3610dc80	2.158602e-06
218	0x39590d64	0.00020699721
219	0x3986ae33	0.0002568826
220	0x38c8f0eb	9.5816176e-05
221	0x00000000	0.0
222	0x3bf29cc1	0.0074039404
223	0x37a51358	1.967854e-05
224	0x00000000	0.0
225	0x37cc5804	2.435968e-05
226	0x00000000	0.0
227	0x3b5a53d6	0.003331413
228	0x3b532651	0.0032218883
229	0x38f7a787	0.00011809082
230	0x3b7f3130	0.003893923
231	0x387159a2	5.7542355e-05
232	0x3a1760da	0.0005774625
233	0x37dbc2bb	2.6197513e-05
234	0x3af23a26	0.0018480464
235	0x39135c33	0.0001405336
236	0x3ba979d1	0.0051719924
237	0x38788b45	5.9257512e-05
238	0x3a54beca	0.0008115588
239	0x37f1de9c	2.88331e-05
240	0x3ba6ee5a	0.0050943317
241	0x3bd8cd1b	0.0066162474
242	0x36f3eb7c	7.2693783e-06
243	0x00000000	0.0
244	0x3a128556	0.00055893266
245	0x360630f0	1.9996041e-06
246	0x00000000	0.0
247	0x3619df1a	2.2928639e-06
248	0x00000000	0.0
249	0x397d7ee6	0.00024175234
250	0x39803be8	0.00024458696
251	0x371fd0c1	9.525743e-06
252	0x399f196c	0.00030345784
253	0x36a3362e	4.864086e-06
254	0x383de0af	4.5270364e-05
255	0x3636453b	2.716041e-06

exp_avg f4 [64]
0	0xba98f6c7	-0.0011670225
1	0x3c9ad698	0.018901154
2	0xbc95490a	-0.018223304
3	0xb9bf1558	-0.0003644626
4	0xbccaf9f2	-0.024777386
5	0xbc358bb5	-0.011080672
6	0xbb449d46	-0.003000097
7	0xbcc3d46a	-0.023904998
8	0xbbe0daf6	-0.0068620397
9	0x3bc9a130	0.0061532483
10	0xbcfa0656	-0.0305206
11	0xbba94450	-0.005165614
12	0xbaff8111	-0.0019493421
13	0xbc8596e7	-0.016307307
14	0xbbe341a4	-0.006935315
15	0x395941a0	0.0002071918
16	0x3cd7c8e4	0.02634091
17	0xbbb7bf46	-0.0056075184
18	0x3c6470da	0.0139429215
19	0xbc70d3bc	-0.014698919
20	0xbd031d34	-0.032010272
21	0x3bdc1034	0.0067157988
22	0xb978f40e	-0.0002374204
23	0xbcbf1e48	-0.023329869
24	0x3b659a2a	0.0035034516
25	0x3aa16d40	0.0012315884
26	0x3a874d58	0.0010322733
27	0xbcdb8914	-0.026798762
28	0xbc6fa97c	-0.014627811
29	0x3b2eafbe	0.0026655043
30	0xbcb1ba4d	-0.02169528
31	0x3c882507	0.016619219
32	0xbb790978	-0.0038000029
33	0xbcfa007d	-0.030517811
34	0x3c1ae07a	0.009452933
35	0xbc8a1662	-0.016856376
36	0xbd0711c4	-0.032975927
37	0xbb63b20e	-0.003474358
38	0xbc9cf5c8	-0.019160166
39	0xbbe2334f	-0.006903089
40	0x3c352a22	0.0110574085
41	0x3b9f6c7b	0.004865227
42	0x3bb9fdd9	0.005676013
43	0xba64c544	-0.00087269046
44	0x3b26edb4	0.0025471272
45	0x3b89738a	0.0041946815
46	0xbb47c057	-0.0030479634
47	0xbb80f974	-0.003935987
48	0xbbc65788	-0.006052915
49	0x3be383bc	0.006943194
50	0x3c3a0acb	0.011355112
51	0x3c54b91b	0.012983586
52	0xbb875435	-0.0041299113
53	0xb97e3420	-0.00024242746
54	0x3c7541c0	0.014969289
55	0x3c0ee075	0.008720507
56	0xbbe854b2	-0.0070901746
57	0xbcaa03e6	-0.020753812
58	0x3bcd0628	0.0062568374
59	0xbb149fcb	-0.0022678252
60	0xbcc674fc	-0.024225704
61	0x3c889a44	0.016675122
62	0xbb5ceed2	-0.0033711684
63	0x39d8f136	0.00041378447

exp_avg_sq f4 [64]
0	0x39be40ff	0.0003628805
1	0x397f9692	0.00024374787
2	0x39d6771b	0.00040906
3	0x3ae51350	0.0017477069
4	0x3c50592c	0.012716573
5	0x3a141eef	0.00056503614
6	0x3acb11fa	0.0015493028
7	0x3b20832f	0.0024492254
8	0x3a8df533	0.0010830521
9	0x399d9d88	0.00030062743
10	0x3bf29cc2	0.007403941
11	0x3a128557	0.0005589327
12	0x388ae618	6.623211e-05
13	0x3b7aa3d8	0.003824463
14	0x3ace4cd1	0.0015739446
15	0x38db88cd	0.00010468215
16	0x3b16cace	0.0023009065
17	0x39b75d85	0.00034974157
18	0x3ac03653	0.0014664627
19	0x3a97e677	0.001158907
20	0x3b93f72e	0.00451555
21	0x3959dd72	0.00020777227
22	0x382b364d	4.082015e-05
23	0x3ac2d7f3	0.0014865383
24	0x39025f1b	0.00012433196
25	0x398ab31f	0.00026454867
26	0x392a5ba5	0.00016246604
27	0x3abfc3a1	0.0014630446
28	0x3a1e5a5a	0.0006040685
29	0x3a86986e	0.0010268816
30	0x3ab6ca0f	0.0013945716
31	0x3a9416d9	0.0011298313
32	0x3a4164cf	0.00073773874
33	0x3ab2133b	0.0013586053
34	0x38d52d41	0.00010165061
35	0x3b7917d6	0.0038008592
36	0x3a8cee64	0.0010752198
37	0x3ae3dc5b	0.0017384397
38	0x3a082c97	0.00051946327
39	0x3a6bc6d2	0.0008994165
40	0x3a04aa6c	0.0005060795
41	0x3a060081	0.00051117694
42	0x39d8d09f	0.00041354165
43	0x3b03f860	0.0020137057
44	0x3a22bdad	0.00062080735
45	0x3b55548b	0.0032551612
46	0x39d8aa9c	0.00041325844
47	0x3a31ee72	0.0006787545
48	0x384fadbe	4.9514456e-05
49	0x3ac32cc9	0.0014890666
50	0x399e967e	0.00030248234
51	0x39f79973	0.0004722584
52	0x398ddb0a	0.00027056813
53	0x39378810	0.00017502927
54	0x3a4605fe	0.00075539935
55	0x3b6c137c	0.0036022356
56	0x3a23f1a7	0.00062539655
57	0x3a105d28	0.00055070454
58	0x388fa20a	6.8489535e-05
59	0x39ff132d	0.00048651677
60	0x3bc9f536	0.0061632646
61	0x3a38e429	0.00070530415
62	0x3b0da2ff	0.0021612046
63	0x388855ea	6.500988e-05

exp_avg f4 [64, 64]
0	0x3b2997c3	0.002587781
1	0xb93039b7	-0.00016806168
2	0xbb0e6a96	-0.002173101
3	0xb9eca210	-0.00045134174
4	0xb84e6e54	-4.921698e-05
5	0x3af31de0	0.0018548332
6	0x3ab0f270	0.0013499986
7	0xb98292cd	-0.00024904907
8	0x3b40eb76	0.002943722
9	0xbb0050fc	-0.001957952
10	0xb996689c	-0.0002868817
11	0x3ac1d080	0.0014786869
12	0x3ac7dc1a	0.001524809
13	0x3a09e69b	0.0005260498
14	0x3991c604	0.00027804088
15	0xbb098343	-0.002098278
16	0x3a85e483	0.0010215197
17	0x3aa8cf17	0.00128791
18	0x3ab430d4	0.0013747462
19	0x3a55bd22	0.0008153488
20	0xba075965	-0.0005163162
21	0x3b641eda	0.0034808428
22	0x3ad5963c	0.0016295384
23	0xba686f50	-0.00088666845
24	0x3afe487d	0.0019400265
25	0x3a6dd5a0	0.0009072665
26	0x3a8ec9cc	0.001089388
27	0x39dbfca0	0.00041959155
28	0xb9c78766	-0.00038057117
29	0x3a9a4bb0	0.0011771824
30	0x381fe363	3.8120324e-05
31	0xba819b1c	-0.0009888145
32	0x3a7f496a	0.00097384176
33	0x3b009863	0.001962208
34	0x3b8bbcc4	0.004264446
35	0xb917dd3c	-0.00014482898
36	0xba5cae60	-0.0008418318
37	0xbaf0c8da	-0.0018370405
38	0xb99e5b16	-0.00030203973
39	0xba394692	-0.0007067706
40	0xba12272f	-0.0005575297
41	0x3857a544	5.141391e-05
42	0xbad370dc	-0.0016131657
43	0x3ac86ed2	0.0015291816
44	0xbaf052ac	-0.0018335185
45	0x3a150f64	0.00056861923
46	0xbb377a26	-0.002799639
47	0xbb560939	-0.0032659306
48	0xbad85ce8	-0.001650718
49	0xba8a0352	-0.0010529554
50	0x3b11e106	0.0022259369
51	0xbb0a8bd4	-0.0021140473
52	0xb50085a0	-4.7878166e-07
53	0xbb4840d8	-0.0030556228
54	0xba16a6fe	-0.00057469297
55	0xba955af1	-0.00113949
56	0xbb02a826	-0.001993665
57	0x3a4722d6	0.00075964385
58	0xbb077654	-0.0020669894
59	0x3af03122	0.001832519
60	0xb97b3265	-0.00023955999
61	0xbae3d162	-0.0017381127
62	0xb9ce7b5a	-0.00039383286
63	0xbbc30be5	-0.0059523457
64	0xbad14c13	-0.0015968106
65	0x3908d0e9	0.00013047796
66	0x3b2146b0	0.0024608783
67	0x3965fd17	0.00021933425
68	0xba2c32b4	-0.00065688347
69	0xb9c60b8c	-0.00037774106
70	0xba883bee	-0.0010393837
71	0xb9aeec4a	-0.00033363915
72	0xbb881a92	-0.004153558
73	0x3b4519d2	0.0030075205
74	0x391bd9db	0.0001486311
75	0xbaafaaed	-0.001340238
76	0xba7d479e	-0.0009661856
77	0xba397055	-0.0007073929
78	0x39c2e5ff	0.00037173924
79	0x3ae4e655	0.0017463664
80	0xbb010baa	-0.001969079
81	0xba8a8a06	-0.0010569699
82	0xba8f5a6c	-0.0010936982
83	0xbaa27bf6	-0.0012396562
84	0x3af358d4	0.0018565902
85	0xbb72c04c	-0.0037040887
86	0xb9cf6515	-0.0003955743
87	0x3a8b7f94	0.001064288
88	0xbae144c2	-0.0017186629
89	0xbb5ee416	-0.0034010462
90	0xba09085e	-0.0005227382
91	0x3a7efd36	0.00097270624
92	0x390549ed	0.00012711408
93	0xba9a3b4c	-0.001176694
94	0x39e43996	0.00043530454
95	0x3a44c2dd	0.00075058435
96	0xbb1a7a00	-0.0023571253
97	0xbb542a20	-0.0032373741
98	0xbb9ad0e2	-0.004724608
99	0x38f72510	0.00011784781
100	0x3aace2d3	0.0013190157
101	0x3b427188	0.002966972
102	0x3aea5ece	0.0017881037
103	0x3ab24e6e	0.0013603696
104	0x3aa635a0	0.0012680776
105	0xbac6fc98	-0.001518148
106	0x3ada491f	0.0016653872
107	0xbb58da41	-0.0033089074
108	0x3b062a56	0.0020472012
109	0xba6f0fc0	-0.00091194734
110	0x3ad21a62	0.0016029591
111	0x3b3449b9	0.0027509762
112	0x3ab2096d	0.0013583131
113	0x3a15ede8	0.000571935
114	0xbb25d847	-0.0025305913
115	0x3ab7741a	0.0013996393
116	0xbb16f5fe	-0.0023034806
117	0x3b240ffc	0.0025033941
118	0x3b06e817	0.0020585114
119	0x3b29a02a	0.0025882819
120	0x3af84517	0.0018941489
121	0x3985d2bf	0.00025524755
122	0x3a59a166	0.00083019433
123	0xbb5610e2	-0.0032663872
124	0x39e76e74	0.00044142047
125	0x3aa47b2d	0.0012548916
126	0x3a24423e	0.00062659744
127	0x3bb47909	0.0055075926
128	0x3ad49366	0.0016218245
129	0x385284b4	5.019149e-05
130	0xbb1653d3	-0.0022938147
131	0xb922fe2b	-0.00015544209
132	0x394f9172	0.00019795241
133	0x3a3e282c	0.0007253911
134	0x3ab1d396	0.0013567086
135	0x389db9e2	7.520967e-05
136	0x3b37025c	0.002792499
137	0xbb05ce93	-0.0020417317
138	0xb9affb6e	-0.0003356593
139	0x3a881692	0.0010382703
140	0x3a74d1ad	0.00093391055
141	0x38d09c93	9.947377e-05
142	0xb923c426	-0.00015617962
143	0xbab3b97c	-0.0013711895
144	0x3aa212d0	0.0012365226
145	0x3aacc518	0.0013181297
146	0x3a635384	0.00086718076
147	0x3a644d74	0.0008709051
148	0xba803728	-0.0009782063
149	0x3b3876a9	0.00281469
150	0x39eb9622	0.0004493455
151	0xba84b4fc	-0.0010124738
152	0x3ac20a54	0.0014804103
153	0x3b011aee	0.001969989
154	0x3a3990d4	0.0007078771
155	0xb8c330da	-9.307424e-05
156	0xba2d2bab	-0.00066059333
157	0x3a5feafa	0.0008541789
158	0xb9a010e8	-0.00030530174
159	0xba0294b0	-0.00049812626
160	0x3a95b992	0.0011423102
161	0x3b00d8e3	0.0019660525
162	0x3b6c1430	0.0036022775
163	0x3901cb43	0.0001237812
164	0xba6501c1	-0.0008735918
165	0xbb233b26	-0.0024907081
166	0xba92a10e	-0.0011186914
167	0xba9e1644	-0.0012061079
168	0xb9ffe8d0	-0.0004881085
169	0x3a659ae6	0.00087587384
170	0xba806558	-0.0009795828
171	0x3b051b83	0.0020310588
172	0xbae3040c	-0.0017319932
173	0x3a63413a	0.00086690823
174	0xbae60477	-0.0017548938
175	0xbb36db50	-0.0027901717
176	0xba9446e2	-0.0011312629
177	0xba389884	-0.00070417696
178	0x3b00476a	0.0019573816
179	0xbac7832c	-0.0015221587
180	0x3a6bbb3e	0.000899244
181	0xbb1b60f6	-0.0023708916
182	0xba95460d	-0.0011388675
183	0xbabc4e7a	-0.001436665
184	0xbae55f96	-0.00174998
185	0x391c0a06	0.00014881053
186	0xba9a2a94	-0.0011761957
187	0x3b035a95	0.0020043005
188	0xb9a33df4	-0.0003113594
189	0xba7d1302	-0.00096540165
190	0xb922482f	-0.00015476414
191	0xbb95009f	-0.004547193
192	0xbb18fcd7	-0.0023344064
193	0xb4a43c00	-3.0591036e-07
194	0x3aa4eb3b	0.0012582311
195	0x3983d65f	0.00025145986
196	0x39d44857	0.00040489688
197	0xbad733c1	-0.0016418622
198	0xba3eaa6d	-0.000727332
199	0x39a19fd0	0.00030827383
200	0xbaacba41	-0.0013178067
201	0x39ed02d5	0.00045206273
202	0xb7baa802	-2.2251163e-05
203	0xbaa8b01e	-0.001286987
204	0xba94f340	-0.0011363998
205	0xb97e4a66	-0.00024251043
206	0xb9e612fb	-0.0004388316
207	0x3ac06f28	0.0014681565
208	0xb9888fcf	-0.00026047087
209	0xba563cb8	-0.00081725
210	0xba8337f5	-0.0010011183
211	0xb974535e	-0.0002330071
212	0xb9cf7fba	-0.0003957728
213	0xbb072a72	-0.0020624665
214	0xbaed729f	-0.0018115825
215	0x3a3e4319	0.0007257923
216	0xbab60276	-0.0013886231
217	0x3a4e05ba	0.00078591297
218	0xba530364	-0.00080495165
219	0xba489e9a	-0.0007653028
220	0x3a209aea	0.00061265996
221	0xba307e55	-0.0006732692
222	0xb9d73621	-0.00041048325
223	0x3a3507de	0.00069057744
224	0x38790c96	5.9377948e-05
225	0xba057a42	-0.0005091765
226	0xbb24d585	-0.0025151682
227	0x36760260	3.665824e-06
228	0x3a02fccd	0.00049967767
229	0x3a066849	0.0005127234
230	0xb9e94ba8	-0.0004449759
231	0x39ae1748	0.00033205212
232	0xb9392202	-0.00017655644
233	0x39df0fe8	0.00042545726
234	0x3a814482	0.0009862336
235	0xb8c3ccfb	-9.336505e-05
236	0x3a88065d	0.0010377873
237	0xb91dd60a	-0.00015052423
238	0x3b1e8935	0.0024190668
239	0x3b1d9bca	0.0024049156
240	0x3aaa71de	0.0013003906
241	0x3a81e59a	0.0009910346
242	0xbab7dc44	-0.0014027436
243	0x3ae58e68	0.0017513754
244	0x3a890dea	0.0010456417
245	0x3b0e017e	0.002166837
246	0xb9fc0610	-0.00048069702
247	0xb8d17b40	-9.988854e-05
248	0x3aa402cb	0.0012513039
249	0xba8492c8	-0.0010114545
250	0x3b058dd5	0.0020378728
251	0xb9be0063	-0.00036239912
252	0x3943146e	0.0001860426
253	0x3a8d24ca	0.001076841
254	0x3984f2c2	0.0002535787
255	0x3b89e015	0.004207621

exp_avg_sq f4 [64, 64]
0	0x3769250d	1.3896509e-05
1	0x3552d6ec	7.854385e-07
2	0x37879911	1.6164531e-05
3	0x3508208f	5.0711327e-07
4	0x34e81dce	4.3235053e-07
5	0x369e942c	4.7260164e-06
6	0x36958dfb	4.4570747e-06
7	0x35178f42	5.646035e-07
8	0x3774238c	1.455181e-05
9	0x3703691d	7.832682e-06
10	0x35541797	7.901048e-07
11	0x3725005b	9.834849e-06
12	0x36d4a8af	6.3377297e-06
13	0x353deede	7.0755584e-07
14	0x351f3fa7	5.932474e-07
15	0x376159d3	1.3431959e-05
16	0x3604971c	1.975749e-06
17	0x36b23944	5.31148e-06
18	0x360ea819	2.1257495e-06
19	0x3629ce93	2.5303204e-06
20	0x35a5e6e7	1.2360659e-06
21	0x37bec422	2.2741096e-05
22	0x3730f059	1.0546378e-05
23	0x3646061e	2.950786e-06
24	0x375d4da8	1.3190707e-05
25	0x36383568	2.7449223e-06
26	0x35f5a576	1.8302078e-06
27	0x35aaf866	1.273828e-06
28	0x36585a96	3.2239236e-06
29	0x36624b64	3.3720507e-06
30	0x35290f7a	6.297993e-07
31	0x36878e3d	4.0398722e-06
32	0x3619641a	2.2857043e-06
33	0x37077941	8.074859e-06
34	0x383bcba9	4.4773948e-05
35	0x358b846a	1.0394845e-06
36	0x36ae7178	5.1988136e-06
37	0x36e0dbba	6.7012998e-06
38	0x35eac8ba	1.7492778e-06
39	0x3621bc85	2.4100602e-06
40	0x35aae4f1	1.2732618e-06
41	0x35948b16	1.1067339e-06
42	0x36efee89	7.150524e-06
43	0x36e51532	6.8271993e-06
44	0x370c8620	8.375879e-06
45	0x3609c071	2.0526606e-06
46	0x3790169a	1.7176662e-05
47	0x37dfe297	2.6689186e-05
48	0x371b21e8	9.246614e-06
49	0x3689729b	4.09626e-06
50	0x378b2d6b	1.659124e-05
51	0x36f7a8d8	7.3808296e-06
52	0x35d1dabb	1.5635372e-06
53	0x379132c5	1.7308988e-05
54	0x35772c09	9.207875e-07
55	0x3694a640	4.4300978e-06
56	0x3719fca8	9.178337e-06
57	0x35dac1ad	1.6298633e-06
58	0x374bcd45	1.2147536e-05
59	0x36efd8af	7.1479803e-06
60	0x35d3bacc	1.577509e-06
61	0x365154a1	3.1192687e-06
62	0x366766ba	3.4481477e-06
63	0x3899bd7b	7.330902e-05
64	0x38054ec1	3.1783016e-05
65	0x3601f8ba	1.9367276e-06
66	0x3808d414	3.262244e-05
67	0x3582cfa3	9.746185e-07
68	0x356c09f7	8.793135e-07
69	0x373336ca	1.0681988e-05
70	0x372db235	1.0353096e-05
71	0x35974883	1.127148e-06
72	0x37fd4b6d	3.0195073e-05
73	0x3779a47f	1.4879856e-05
74	0x35d003bc	1.5498294e-06
75	0x37b9d0b1	2.2150898e-05
76	0x375af373	1.3050495e-05
77	0x35fdac90	1.8900191e-06
78	0x35b45f8e	1.3438855e-06
79	0x37ecb923	2.8219603e-05
80	0x3683b41a	3.925071e-06
81	0x374ac9d4	1.208713e-05
82	0x36894960	4.09146e-06
83	0x36aaae25	5.086668e-06
84	0x363423a6	2.684284e-06
85	0x3857e730	5.1475305e-05
86	0x37c3c4b4	2.3337408e-05
87	0x36d93da7	6.4742812e-06
88	0x37e2f69f	2.7056141e-05
89	0x36ba40fa	5.5507962e-06
90	0x3689d126	4.1072662e-06
91	0x3651de25	3.1272732e-06
92	0x37000cac	7.632345e-06
93	0x36ee6852	7.105097e-06
94	0x35853923	9.925901e-07
95	0x370d0a2f	8.406626e-06
96	0x368e7fc7	4.246805e-06
97	0x377e9b69	1.5175764e-05
98	0x38c2c22c	9.286808e-05
99	0x360cab7c	2.0961443e-06
100	0x372b3aae	1.0206057e-05
101	0x3768641b	1.3851585e-05
102	0x365e7868	3.3150664e-06
103	0x36a73da6	4.9841647e-06
104	0x362630fa	2.4764436e-06
105	0x362e9158	2.6012622e-06
106	0x3776f474	1.4719659e-05
107	0x37600820	1.3353332e-05
108	0x379dc994	1.8809726e-05
109	0x365f475b	3.3271124e-06
110	0x381c2512	3.7227823e-05
111	0x387bf495	6.0070848e-05
112	0x37a0d877	1.9174286e-05
113	0x3719c73e	9.1659e-06
114	0x380a8e02	3.303402e-05
115	0x3786f05c	1.608597e-05
116	0x367b1b5c	3.741784e-06
117	0x38253cc3	3.9395654e-05
118	0x36017034	1.9287809e-06
119	0x370874af	8.133399e-06
120	0x37a7d062	2.0004987e-05
121	0x3658e722	3.2321045e-06
122	0x37ddccf6	2.6440695e-05
123	0x377cc1cc	1.5065492e-05
124	0x364ab6b4	3.0206693e-06
125	0x36ef5dcd	7.133675e-06
126	0x36cc1c9e	6.0830052e-06
127	0x392634fc	0.00015850732
128	0x380527c8	3.174672e-05
129	0x3652b1c1	3.1395905e-06
130	0x3808f1d8	3.265016e-05
131	0x35c9bb71	1.503022e-06
132	0x359b0f91	1.155293e-06
133	0x37405561	1.1463971e-05
134	0x3739308f	1.1038165e-05
135	0x35d8b6d9	1.614647e-06
136	0x37ecd863	2.8234155e-05
137	0x377ae6bd	1.4954884e-05
138	0x35dcf0b9	1.6461337e-06
139	0x37c3f999	2.336204e-05
140	0x37687f7d	1.3857961e-05
141	0x361a8a84	2.3028415e-06
142	0x3604abe2	1.9769582e-06
143	0x37ede51a	2.8359285e-05
144	0x367c8657	3.7629122e-06
145	0x37516ee3	1.2483189e-05
146	0x36b267d6	5.3169015e-06
147	0x36b5cb60	5.4178963e-06
148	0x3677f93e	3.6950946e-06
149	0x384c841e	4.8760434e-05
150	0x37cdb482	2.452196e-05
151	0x36f0a7b4	7.1720806e-06
152	0x37e6d4df	2.7517262e-05
153	0x36ccd6c6	6.1046767e-06
154	0x369f4adc	4.747284e-06
155	0x366359b8	3.387786e-06
156	0x370accff	8.27317e-06
157	0x37014ad3	7.706421e-06
158	0x35beba71	1.4210365e-06
159	0x3718ae00	9.1004185e-06
160	0x369c63f9	4.6608006e-06
161	0x3788ae76	1.6293703e-05
162	0x38bf3e4e	9.119195e-05
163	0x3643e419	2.9190035e-06
164	0x374b26c1	1.2108766e-05
165	0x3754cee6	1.2684357e-05
166	0x36927fb2	4.3660048e-06
167	0x36b65a9d	5.4345714e-06
168	0x36756ac6	3.6569995e-06
169	0x366e9a0e	3.5554435e-06
170	0x37740530	1.4544741e-05
171	0x376bcf69	1.4055383e-05
172	0x37a03dd4	1.9102277e-05
173	0x36baafc3	5.5636933e-06
174	0x3817fd8f	3.623735e-05
175	0x3879c9e8	5.9554266e-05
176	0x37a66610	1.9836269e-05
177	0x3727f469	1.0010882e-05
178	0x3806e631	3.2162472e-05
179	0x37884f77	1.6249467e-05
180	0x3685de81	3.9896117e-06
181	0x381f7d1d	3.8025075e-05
182	0x363707b8	2.7273618e-06
183	0x370b462b	8.301383e-06
184	0x37aab8e0	2.0351668e-05
185	0x3662fd28	3.382398e-06
186	0x37d13841	2.4940937e-05
187	0x37663d08	1.3723278e-05
188	0x368ca479	4.1914723e-06
189	0x36df6a72	6.6583098e-06
190	0x36e4496c	6.803477e-06
191	0x391c5fde	0.00014913033
192	0x37b4bb95	2.1545022e-05
193	0x35730d7d	9.054418e-07
194	0x37bfc2a5	2.2859613e-05
195	0x351b4caf	5.785359e-07
196	0x35118529	5.4210483e-07
197	0x36fcfa47	7.5393214e-06
198	0x36e8e7d9	6.9411294e-06
199	0x3534eaec	6.739708e-07
200	0x37b7d475	2.1914233e-05
201	0x3738af59	1.1008081e-05
202	0x35823f12	9.704111e-07
203	0x376d2ae4	1.4136287e-05
204	0x3714ab1e	8.861329e-06
205	0x35693d4d	8.688847e-07
206	0x354f9446	7.7329275e-07
207	0x37a23556	1.9336741e-05
208	0x3635e1b6	2.7102483e-06
209	0x3707ef1c	8.102299e-06
210	0x36309240	2.6311172e-06
211	0x367429ce	3.6383167e-06
212	0x35c55e7a	1.470514e-06
213	0x381762c8	3.6093203e-05
214	0x37846aaf	1.5785305e-05
215	0x36843bd3	3.940871e-06
216	0x379d3051	1.8738358e-05
217	0x365d2fab	3.2959313e-06
218	0x363ba043	2.7958456e-06
219	0x360ab37e	2.066808e-06
220	0x369c3b95	4.6560986e-06
221	0x369f6b21	4.7510407e-06
222	0x35383ea7	6.863651e-07
223	0x36bf5ec3	5.7032753e-06
224	0x36411dd4	2.8776603e-06
225	0x373650a2	1.0866819e-05
226	0x3888a70f	6.5161024e-05
227	0x3595042b	1.1102578e-06
228	0x36db5175	6.5361914e-06
229	0x372784aa	9.984864e-06
230	0x36013827	1.9255183e-06
231	0x366a1621	3.4881598e-06
232	0x35be47a7	1.4176957e-06
233	0x35bd7220	1.4114812e-06
234	0x372d6258	1.0334501e-05
235	0x3719daeb	9.1704815e-06
236	0x3752f519	1.2574042e-05
237	0x3609faef	2.0560653e-06
238	0x37dea9ee	2.6543592e-05
239	0x382b8c32	4.0900144e-05
240	0x375aa6c3	1.303264e-05
241	0x36c96b73	6.0027755e-06
242	0x37c8b2e4	2.392516e-05
243	0x3743779e	1.1650756e-05
244	0x361247b9	2.1797443e-06
245	0x37e299d0	2.7012924e-05
246	0x3597837b	1.1288643e-06
247	0x36c2cd9b	5.805586e-06
248	0x376223d3	1.3478991e-05
249	0x361935f9	2.2830193e-06
250	0x37a0a05c	1.914816e-05
251	0x37344048	1.0743803e-05
252	0x35e96202	1.7388377e-06
253	0x36ad2eda	5.161256e-06
254	0x369552af	4.4501717e-06
255	0x38ec82c3	0.00011277713

exp_avg f4 [64]
0	0x3c16b1e0	0.009197682
1	0xbc09c1b7	-0.008408002
2	0x3bed172c	0.0072354283
3	0xbbd4ab60	-0.006490156
4	0xbb0690ec	-0.0020533158
5	0x3b8106c1	0.0039375727
6	0xbae18696	-0.0017206247
7	0x3c4f9e7c	0.012672063
8	0x3afcf65e	0.0019299497
9	0xbb1395e8	-0.002251977
10	0xbc27821e	-0.010223893
11	0xbad78748	-0.0016443515
12	0xbc0bb2b4	-0.008526493
13	0x3c01d2a8	0.0079237595
14	0xbc7aa394	-0.015297789
15	0xbc116fc5	-0.008876746
16	0xbaea64c8	-0.0017882818
17	0x3c1456ea	0.009053925
18	0x3b94d68b	0.004542177
19	0xbad092f6	-0.0015912938
20	0xbb953929	-0.004553933
21	0xbbaa2432	-0.005192303
22	0xbc263999	-0.010145568
23	0x3befb640	0.007315427
24	0xbc5693f4	-0.013096798
25	0xbb1b24c4	-0.0023673037
26	0x3bd2473e	0.006417184
27	0x3b72f8eb	0.0037074636
28	0xbc53aa6e	-0.012919052
29	0x3b80fb7c	0.0039362293
30	0xbc059e60	-0.008155435
31	0x3b9623d6	0.0045819087
32	0xbc2447fc	-0.010026928
33	0x3a9075e9	0.0011021468
34	0xbc461c3e	-0.012091694
35	0x3cad5cee	0.021162476
36	0xbc0c439e	-0.008561043
37	0x3c301a86	0.010748511
38	0xbc8c9dd4	-0.017165102
39	0x3bb1ee6d	0.005430034
40	0x3be5785d	0.007002874
41	0xbafbc082	-0.0019207152
42	0x3c3635c8	0.011121221
43	0xbc8db5da	-0.017298628
44	0x3b8dc4ea	0.0043264525
45	0x3bdaa242	0.0066721747
46	0xbb92b749	-0.0044774157
47	0xbbbc02fc	-0.0057376605
48	0x3b57903e	0.0032892372
49	0xbc42b58c	-0.011884104
50	0xbc0d9708	-0.008641966
51	0x377c3900	1.5033642e-05
52	0x3be521b3	0.0069925427
53	0xbc3df061	-0.011592955
54	0xbae12ea5	-0.0017180039
55	0x3c2db2e8	0.010601737
56	0x3b354f60	0.002766572
57	0xbc1dccf2	-0.009631382
58	0x3bdeb1de	0.0067961058
59	0x3c03839b	0.008026983
60	0xbb4547de	-0.003010265
61	0xbbdeb8e2	-0.006796942
62	0x3b89613a	0.0041924985
63	0x3c4acb90	0.012377635

exp_avg_sq f4 [64]
0	0x393a3a3b	0.00017760035
1	0x39cdac48	0.00039229007
2	0x39c438ad	0.0003742626
3	0x3990c18a	0.00027610018
4	0x390127eb	0.0001231727
5	0x39d764e0	0.00041083153
6	0x39704e86	0.00022917436
7	0x39435d8f	0.00018631502
8	0x3a2ffe25	0.00067135907
9	0x38ad6145	8.267401e-05
10	0x39adae1b	0.0003312685
11	0x38b5a4e1	8.661464e-05
12	0x39b9bec3	0.00035428078
13	0x39c01b5d	0.0003664148
14	0x394bdc3e	0.00019441635
15	0x38868f4e	6.4163105e-05
16	0x38b31710	8.539681e-05
17	0x39988aad	0.0002909502
18	0x39772dcb	0.00023572815
19	0x390866e0	0.00013008295
20	0x39e07dd5	0.00042818362
21	0x39cef6ae	0.00039475173
22	0x39517df0	0.00019978709
23	0x397167d4	0.0002302223
24	0x39a9fcaf	0.00032422456
25	0x388e3809	6.781525e-05
26	0x3919f249	0.00014681475
27	0x38a61166	7.9187375e-05
28	0x39a1815b	0.0003080469
29	0x39109100	0.00013786927
30	0x39343ea7	0.00017189478
31	0x39650516	0.00021841037
32	0x39984f0c	0.00029050594
33	0x38de0cc4	0.00010588163
34	0x3a3bcb45	0.00071637734
35	0x39eaec3d	0.0004480797
36	0x3a394c73	0.0007068582
37	0x3965a637	0.00021901062
38	0x393f854e	0.0001826484
39	0x390dd0cf	0.00013524595
40	0x38bab8a8	8.903566e-05
41	0x39837798	0.0002507537
42	0x3989e713	0.0002630284
43	0x39cc400b	0.00038957628
44	0x3a27a692	0.00063953653
45	0x39a7bded	0.00031994228
46	0x38fa7f25	0.000119446115
47	0x39a95b33	0.0003230214
48	0x38c8364b	9.546856e-05
49	0x3a2dfb7b	0.00066369
50	0x398d9a05	0.0002700837
51	0x39842a69	0.000252086
52	0x3a1ae05c	0.0005908066
53	0x39ca3f2c	0.0003857551
54	0x39af5ebc	0.00033449184
55	0x39de7f6d	0.0004243808
56	0x397429e2	0.00023285256
57	0x3983bffe	0.00025129312
58	0x398a3e51	0.0002636784
59	0x38e774e4	0.00011036711
60	0x394ac7b2	0.00019338613
61	0x39a8cb38	0.00032194867
62	0x3a109934	0.0005515993
63	0x39a73568	0.00031892513

exp_avg f4 [6, 64]
0	0xbbc5aa8b	-0.006032293
1	0x3ac975cd	0.001537019
2	0x3b047cc4	0.0020215968
3	0xbc879d94	-0.016554631
4	0x3c3e2716	0.0116059985
5	0x3c14b2d6	0.009075841
6	0xbc9cc52c	-0.019136988
7	0x3c600f46	0.0136755165
8	0xbbb3d956	-0.005488555
9	0xbc77f682	-0.015134456
10	0x3a6c7a36	0.00090208964
11	0xbc95e0e6	-0.018295716
12	0xbc05ed41	-0.0081742415
13	0x3ba3f1de	0.005003198
14	0x3b9e8c64	0.004838513
15	0xbbc5f685	-0.0060413503
16	0xbc5b2d56	-0.013377508
17	0x3b9a12da	0.0047019543
18	0x3c02dc26	0.007987058
19	0xbc8d2162	-0.017227832
20	0x3aa3d6dc	0.0012499946
21	0x3bf25954	0.0073959026
22	0x3a31fada	0.0006789394
23	0x3aed7afc	0.0018118317
24	0xbb32e715	-0.002729838
25	0x3ca4a27b	0.020097008
26	0xbb7dc7c8	-0.0038723815
27	0xbc16489a	-0.009172583
28	0xba3d10e2	-0.00072122936
29	0x3c12c139	0.008957201
30	0xbc5713f8	-0.0131273195
31	0xbc237abf	-0.009977995
32	0xbc8017fb	-0.015636435
33	0xbbb86e38	-0.0056283735
34	0xbc67539f	-0.014119058
35	0xbaee6066	-0.0018186688
36	0x3ab775fe	0.0013996956
37	0xbb3365dc	-0.0027373945
38	0x3bab3c5c	0.0052257013
39	0xbc5ea08c	-0.013588082
40	0x3c8410dd	0.016121322
41	0x3b19dfb8	0.0023479294
42	0x3c26aa0d	0.010172379
43	0x3a8accb6	0.0010589573
44	0x3ad47674	0.0016209618
45	0xbba51aa4	-0.005038576
46	0xbb78de5a	-0.0037974329
47	0x3a97add2	0.0011572188
48	0x3c11562c	0.008870643
49	0xbb46cc9a	-0.0030334354
50	0xbc2cc489	-0.0105449045
51	0x3c1d9798	0.009618662
52	0xbbc4adf3	-0.0060021817
53	0xbb83f304	-0.0040267725
54	0xba50b316	-0.0007961256
55	0x3bd24694	0.006417105
56	0xbc8eb37e	-0.017419573
57	0xbbe741e7	-0.0070574167
58	0x3b4810de	0.0030527632
59	0xbc7c88d9	-0.015413486
60	0x3c925602	0.017863277
61	0xb9729000	-0.00023132563
62	0x3a1537dc	0.00056922226
63	0x3bd72302	0.0065654526
64	0x39fd170b	0.0004827309
65	0x39dbd3be	0.00041928695
66	0xba870126	-0.0010300025
67	0x3b91b2ea	0.004446377
68	0xbb20f004	-0.0024557123
69	0xba9e58b6	-0.0012080881
70	0x3b713398	0.0036804434
71	0xbb87cd1e	-0.004144325
72	0x3ab93186	0.0014129139
73	0x3b6ef025	0.0036459055
74	0x397f0522	0.00024320607
75	0x3b971e60	0.0046117753
76	0x3aebf2d6	0.0018001448
77	0xbb234d20	-0.0024917796
78	0xba4904d4	-0.0007668261
79	0x3b306ae0	0.0026919171
80	0x3b4af06c	0.0030966057
81	0xbac2c70c	-0.0014860346
82	0xbaddd2ea	-0.0016923819
83	0x3b9df604	0.004820587
84	0x3a0401be	0.000503566
85	0xbb0ccb93	-0.0021483644
86	0x391ac24f	0.0001475897
87	0xbac947e1	-0.0015356505
88	0x3a9dde5b	0.0012044417
89	0xbb90eed2	-0.004423001
90	0x3a5d49b9	0.00084414665
91	0x3a58f46a	0.00082761666
92	0x3a8b44c7	0.0010625356
93	0xbb12eb54	-0.0022418099
94	0x3b80115a	0.0039083185
95	0x3aa0e14c	0.0012274175
96	0x3b64c45e	0.0034907083
97	0x3aca7a10	0.0015447754
98	0x3b76927e	0.0037623937
99	0xba82d339	-0.0009981162
100	0x39089a2c	0.00013027404
101	0x394c3ce3	0.00019477638
102	0x398dae99	0.000270237
103	0x3b1031a4	0.0022002244
104	0xbb84efe9	-0.00405692
105	0xba81d43a	-0.0009905167
106	0xbb3d9c7a	-0.0028932379
107	0x3ac182e7	0.0014763743
108	0xb8a0d4d0	-7.669034e-05
109	0x3abcf809	0.0014417182
110	0x3a5ac1f6	0.00083449425
111	0x38d26445	0.00010032257
112	0xbb1b7000	-0.002371788
113	0x3a4f8ca4	0.00079173804
114	0x3b0b4d2b	0.0021255712
115	0xbb2858ff	-0.0025687811
116	0x3a6f785e	0.00091350626
117	0x3b081b2c	0.0020768149
118	0xb75e0780	-1.3233977e-05
119	0xbac4097a	-0.0014956438
120	0x3b5bb022	0.0033521731
121	0x3aee4c6a	0.0018180732
122	0xb908a782	-0.00013032372
123	0x3b1d076c	0.0023960723
124	0xbb1405aa	-0.0022586384
125	0x3ac63c9a	0.0015124262
126	0x39cc864e	0.00039009977
127	0xbb0eeb9b	-0.0021807912
128	0x3af3f512	0.0018612465
129	0xba88edff	-0.0010446905
130	0x39981272	0.00029005442
131	0xbadefb20	-0.0017012097
132	0xbb068747	-0.002052741
133	0xb9463399	-0.00018901973
134	0x3b288b09	0.0025717637
135	0xb935f320	-0.00017352076
136	0x39bdc438	0.00036195084
137	0x38cd1840	9.779679e-05
138	0x3996a80d	0.00028735437
139	0xbb3021ce	-0.0026875618
140	0x39b0da37	0.0003373192
141	0x3a57e330	0.00082354527
142	0x39d5ff27	0.0004081663
143	0xbb00ed5d	-0.001967273
144	0xbab52a38	-0.0013821786
145	0x3af22be4	0.0018476215
146	0xba1d477a	-0.00059997255
147	0xbaae1434	-0.0013281167
148	0xbb104bc9	-0.0022017828
149	0x3a826dc2	0.0009950923
150	0xbb044c2e	-0.0020187008
151	0x3b10b1a3	0.0022078536
152	0x3a0966d6	0.0005241459
153	0xbadfc5a2	-0.0017072449
154	0xb9546e50	-0.0002025899
155	0x3ade79d8	0.0016973568
156	0x3aa83df4	0.0012835846
157	0xbae087e5	-0.0017130343
158	0xbacf0a03	-0.001579583
159	0xb8d5646a	-0.00010175335
160	0x3aef5cca	0.0018261906
161	0xb8c683c0	-9.465916e-05
162	0x3909c6e0	0.00013139425
163	0xba416c70	-0.0007378524
164	0xba1d99a0	-0.00060119666
165	0x3a2d638c	0.000661426
166	0xba62043d	-0.00086218474
167	0x3ac42656	0.0014965038
168	0x38afde94	8.386109e-05
169	0xba99967b	-0.001171782
170	0xba336b3c	-0.0006844287
171	0xbb0932cd	-0.002093482
172	0xb9d665d2	-0.00040893123
173	0xb9f62f62	-0.0004695608
174	0xba3fb1e5	-0.000731258
175	0x391aadd4	0.0001475134
176	0x3aad7a28	0.0013235258
177	0x39cf8b35	0.00039585834
178	0x3b0e1b4d	0.0021683753
179	0x39f29992	0.00046272256
180	0x3ad952ef	0.0016580502
181	0xbac242f4	-0.0014820979
182	0xbaa68c0c	-0.0012706532
183	0xbae89bce	-0.0017746629
184	0xba8a8d4a	-0.0010570672
185	0xb8812f69	-6.16003e-05
186	0xbaaca5f7	-0.001317202
187	0x3aae8ade	0.0013316532
188	0xbb5f3ec8	-0.003406452
189	0xbb3aefe4	-0.0028524334
190	0x3a39d60e	0.00070890866
191	0x3acab03b	0.0015463898
192	0xbb646d60	-0.0034855232
193	0xbb1f7976	-0.002433387
194	0x3bdfc0d8	0.0068284087
195	0xbc2d5942	-0.010580363
196	0x3b6fde68	0.003660107
197	0x3c400b74	0.011721481
198	0xbc818a7a	-0.015813101
199	0x3c19c2fd	0.009384868
200	0xbaf4cfca	-0.0018677649
201	0xbbe9296e	-0.0071155345
202	0x3b92ed93	0.0044838875
203	0xbc304cd4	-0.010760505
204	0xbb5fe9f2	-0.0034166542
205	0x3b546e18	0.0032414254
206	0xbacaa662	-0.0015460963
207	0xbb8433fe	-0.0040345183
208	0xbbff69b1	-0.007794582
209	0x3b70f998	0.0036769863
210	0x3baf3aee	0.005347601
211	0xbc08daf3	-0.008352983
212	0xba115799	-0.0005544364
213	0x3bfb2ad0	0.0076650158
214	0xba31b14f	-0.0006778435
215	0x3b1978bf	0.0023417918
216	0x3b0a2f49	0.0021085313
217	0x3c216292	0.009850161
218	0xbac90357	-0.0015336078
219	0xbba52735	-0.0050400742
220	0x3b76a3fb	0.003763436
221	0x3c08439e	0.008316902
222	0xbc061bbc	-0.008185323
223	0xbbc54e5a	-0.006021303
224	0xbc461324	-0.012089524
225	0xbb8e14a2	-0.0043359557
226	0xbc379524	-0.0112049915
227	0x3a4e05ae	0.00078591227
228	0x3ab7e0c0	0.0014028773
229	0x3a8a534c	0.0010553389
230	0x3b568686	0.003273399
231	0xbc11c282	-0.008896472
232	0x3be311d2	0.0069296146
233	0xbb11714d	-0.0022192777
234	0x3bda35ea	0.006659259
235	0xb8b90d96	-8.824018e-05
236	0x3b6304cc	0.003464031
237	0xbb57aa61	-0.003290795
238	0xba51dd34	-0.0008005679
239	0x3bdb779a	0.006697607
240	0x3c05725e	0.008144943
241	0xba813791	-0.0009858479
242	0xbb5ef678	-0.0034021419
243	0x3b416f58	0.002951583
244	0xbb30c370	-0.0026971959
245	0xbacb1387	-0.001549349
246	0x3a27f882	0.0006407575
247	0x3bd450d8	0.006479364
248	0xbc59ef28	-0.013301648
249	0xbbd31406	-0.006441596
250	0x3bd628f0	0.006535642
251	0xbc613581	-0.0137456665
252	0x3c57d428	0.013173141
253	0x39ff434e	0.00048687536
254	0x3aa952b4	0.0012918324
255	0x3b76c984	0.0037656734

exp_avg_sq f4 [6, 64]
0	0x381c0ab6	3.7203274e-05
1	0x380a1c42	3.292808e-05
2	0x38504237	4.9652732e-05
3	0x3932f5fb	0.00017067038
4	0x38ddb930	0.00010572595
5	0x38b79c44	8.755227e-05
6	0x397872c8	0.00023693882
7	0x3912f774	0.00014015828
8	0x3793cabf	1.7618177e-05
9	0x38ef2248	0.000114027935
10	0x37f43f5f	2.9116576e-05
11	0x39aba070	0.00032735197
12	0x3809d92b	3.28656e-05
13	0x3888715f	6.506102e-05
14	0x38918622	6.939123e-05
15	0x38a9dc5b	8.0995924e-05
16	0x392491df	0.000156946
17	0x37ff540d	3.0437508e-05
18	0x38884b7f	6.4990476e-05
19	0x39a0eac7	0.000306925
20	0x37e4e646	2.7286947e-05
21	0x38dd0096	0.0001053821
22	0x37b13020	2.1122454e-05
23	0x38648672	5.4484648e-05
24	0x37a1ed5e	1.9303228e-05
25	0x39c34f46	0.00037252362
26	0x38311158	4.221624e-05
27	0x381aa4f3	3.6870082e-05
28	0x38040ec3	3.1485e-05
29	0x38a082d3	7.6537624e-05
30	0x3906476f	0.00012805847
31	0x388be220	6.6701556e-05
32	0x3935f629	0.00017353207
33	0x3768312c	1.3839726e-05
34	0x38cb349e	9.689595e-05
35	0x379fbb13	1.904139e-05
36	0x3789c7f2	1.642478e-05
37	0x37d4e3fa	2.537853e-05
38	0x3801c807	3.0942287e-05
39	0x38dd4ed1	0.00010552782
40	0x3942a3a5	0.00018562244
41	0x37fb421d	2.9952318e-05
42	0x388eda51	6.811752e-05
43	0x37ecedaa	2.8244063e-05
44	0x37d9800e	2.5928046e-05
45	0x37af723b	2.0914818e-05
46	0x3803180a	3.1255222e-05
47	0x386f64f4	5.707606e-05
48	0x384a7d1d	4.8277074e-05
49	0x379772f9	1.8054141e-05
50	0x39129054	0.00013977411
51	0x38a61d96	7.921008e-05
52	0x37de348f	2.6488937e-05
53	0x380f3921	3.4147062e-05
54	0x37b1cce8	2.1195461e-05
55	0x3870bebd	5.7398098e-05
56	0x3917e866	0.00014487057
57	0x37df470a	2.6616752e-05
58	0x388bf084	6.672836e-05
59	0x39125fef	0.00013959383
60	0x3979dcc4	0.00023828732
61	0x381d57bd	3.751343e-05
62	0x3721b81b	9.639213e-06
63	0x382c0fc3	4.1022675e-05
64	0x37efa856	2.8569408e-05
65	0x38040ee6	3.1485128e-05
66	0x38308b33	4.209131e-05
67	0x391dca76	0.0001504811
68	0x38e8fc23	0.00011109586
69	0x388d8464	6.7480636e-05
70	0x393f126b	0.0001822204
71	0x390874f7	0.00013013544
72	0x37835b2c	1.5658872e-05
73	0x38f18c9e	0.000115179675
74	0x380ef640	3.4084776e-05
75	0x39b7b828	0.00035041687
76	0x37f6d8b3	2.9426394e-05
77	0x388bbae4	6.6628476e-05
78	0x38ad173f	8.253613e-05
79	0x38c97b0b	9.6073454e-05
80	0x391b9233	0.00014836415
81	0x37f6286c	2.9344308e-05
82	0x386c3801	5.6318942e-05
83	0x39adec8d	0.00033173375
84	0x37ee476f	2.8405075e-05
85	0x38ce51e2	9.838097e-05
86	0x37a60a51	1.9793546e-05
87	0x38796920	5.946413e-05
88	0x37d958a3	2.590969e-05
89	0x39c02a23	0.00036652488
90	0x3861d3d9	5.384148e-05
91	0x37e1e9cd	2.6930962e-05
92	0x382c7b66	4.112292e-05
93	0x388948f6	6.546259e-05
94	0x38f4a59b	0.00011665673
95	0x38648f20	5.449273e-05
96	0x391674df	0.00014348653
97	0x375cc4f9	1.3158883e-05
98	0x389f35f4	7.5917604e-05
99	0x379f1c63	1.8967496e-05
100	0x379a4172	1.8388706e-05
101	0x37f235ce	2.8873703e-05
102	0x380cf0a4	3.3602715e-05
103	0x38b9769c	8.84358e-05
104	0x394a2e77	0.0001928153
105	0x37e57f04	2.7358074e-05
106	0x386a822b	5.5911176e-05
107	0x37bdb60f	2.2615333e-05
108	0x37c77089	2.3775052e-05
109	0x37b515c5	2.1587019e-05
110	0x3807805b	3.230605e-05
111	0x38814075	6.1632054e-05
112	0x384cab2e	4.8796814e-05
113	0x378d08cf	1.6812612e-05
114	0x390fa920	0.00013700547
115	0x38bf6ff5	9.128443e-05
116	0x37d29633	2.5103893e-05
117	0x37f9bda9	2.977143e-05
118	0x3794a013	1.7717515e-05
119	0x384d96d7	4.901629e-05
120	0x38f2d267	0.0001157865
121	0x379c6292	1.864255e-05
122	0x38732236	5.7967576e-05
123	0x38d75ea7	0.00010269629
124	0x39453cd8	0.0001881005
125	0x38074b4d	3.2256637e-05
126	0x373c51e6	1.1224742e-05
127	0x380ff935	3.432595e-05
128	0x37a98a7c	2.0210857e-05
129	0x379dd303	1.8814118e-05
130	0x37e7226c	2.7553375e-05
131	0x38ab5124	8.169029e-05
132	0x388395fc	6.2745035e-05
133	0x383ba59f	4.473852e-05
134	0x38c8eb70	9.580597e-05
135	0x388aefa2	6.624988e-05
136	0x373feff0	1.1440352e-05
137	0x387f3f4e	6.0855695e-05
138	0x37857002	1.5906993e-05
139	0x39403595	0.00018330508
140	0x37867df9	1.6032705e-05
141	0x38281fba	4.008387e-05
142	0x38563473	5.1070423e-05
143	0x3872ff15	5.793486e-05
144	0x38a9c4dd	8.0952166e-05
145	0x379c6301	1.8642751e-05
146	0x380cb162	3.35438e-05
147	0x39358373	0.00017310474
148	0x379c1ba1	1.8609515e-05
149	0x38592553	5.1771593e-05
150	0x375cf524	1.3170098e-05
151	0x381d987c	3.757373e-05
152	0x374fde3b	1.23899035e-05
153	0x394a556b	0.00019296042
154	0x37e3e5bc	2.7167487e-05
155	0x37a80702	2.0030424e-05
156	0x37b80a54	2.1939319e-05
157	0x380a5e83	3.2989785e-05
158	0x38861d39	6.395061e-05
159	0x380530c6	3.1755095e-05
160	0x3899d105	7.3345414e-05
161	0x36e301e7	6.7653486e-06
162	0x3818cd10	3.6430603e-05
163	0x374e073e	1.2280243e-05
164	0x3752e656	1.2570605e-05
165	0x378f236a	1.706342e-05
166	0x379d8080	1.8775696e-05
167	0x3843e53d	4.6705118e-05
168	0x38de311f	0.000105949344
169	0x37a9e65a	2.0253636e-05
170	0x37fd0095	3.0160221e-05
171	0x37bd6bf2	2.2580822e-05
172	0x37957d71	1.7820597e-05
173	0x376bf253	1.4063512e-05
174	0x37ac3caa	2.0532247e-05
175	0x381b08b9	3.6963003e-05
176	0x37c83ea1	2.3871022e-05
177	0x37613687	1.3423741e-05
178	0x38ac6b7c	8.22162e-05
179	0x3859a38a	5.188914e-05
180	0x3769013e	1.3888171e-05
181	0x37d00dbc	2.4801928e-05
182	0x37460eb1	1.180514e-05
183	0x37f3ec89	2.9078003e-05
184	0x387a9b0f	5.9749054e-05
185	0x372390e4	9.749292e-06
186	0x38313b57	4.2255353e-05
187	0x386d11e3	5.652186e-05
188	0x38e4425f	0.0001088425
189	0x37f1ce57	2.8825523e-05
190	0x36df2f7a	6.651445e-06
191	0x37ac2804	2.0522632e-05
192	0x38226ce0	3.8725208e-05
193	0x383152f5	4.227735e-05
194	0x38713365	5.7506742e-05
195	0x395d72cc	0.00021118968
196	0x38f6a18b	0.00011760284
197	0x38c520c7	9.399797e-05
198	0x396f19b0	0.00022802386
199	0x39276fa8	0.00015967956
200	0x37bf9c90	2.284188e-05
201	0x39080693	0.0001297242
202	0x38003654	3.0568175e-05
203	0x39db8c83	0.00041875624
204	0x3816ad56	3.592422e-05
205	0x38b357f1	8.5517655e-05
206	0x38cc7df0	9.750936e-05
207	0x38f61c2a	0.0001173544
208	0x3941e085	0.00018489554
209	0x381cf919	3.742529e-05
210	0x389248fc	6.975417e-05
211	0x39c7b2c1	0.0003808942
212	0x381f8f1a	3.8041828e-05
213	0x3907d474	0.00012953748
214	0x37cbf747	2.4314633e-05
215	0x38983cf4	7.259278e-05
216	0x37ad991f	2.069451e-05
217	0x39d86ca2	0.00041279668
218	0x3868f3ad	5.554005e-05
219	0x380e73bb	3.396322e-05
220	0x38140eba	3.5299665e-05
221	0x38a3cd99	7.810741e-05
222	0x391f32ff	0.00015182419
223	0x3896fae2	7.199288e-05
224	0x39350ee1	0.00017267048
225	0x378b6fa0	1.662207e-05
226	0x38d6d2b1	0.000102435595
227	0x37c076c7	2.2943494e-05
228	0x37ade78d	2.0731031e-05
229	0x38066d39	3.204981e-05
230	0x37f2a51a	2.892553e-05
231	0x38eeaebc	0.00011381271
232	0x396c85d6	0.00022556572
233	0x381e5096	3.7745187e-05
234	0x388f8c8c	6.84495e-05
235	0x38102ef1	3.4375993e-05
236	0x381cb6d5	3.7363574e-05
237	0x37e90da0	2.778211e-05
238	0x38233de3	3.8919865e-05
239	0x388f108e	6.821855e-05
240	0x38667362	5.494373e-05
241	0x3798cf63	1.8216384e-05
242	0x39159f37	0.0001426906
243	0x38e187a0	0.00010754098
244	0x37ed6178	2.8297989e-05
245	0x38482939	4.7722107e-05
246	0x37d87f6e	2.5808546e-05
247	0x388449bb	6.307984e-05
248	0x392251a8	0.00015479943
249	0x37dd8aaa	2.6409823e-05
250	0x38bcd7f0	9.00476e-05
251	0x391173db	0.00013871437
252	0x3975e168	0.00023448991
253	0x3843fc3c	4.6726534e-05
254	0x375d03eb	1.3173539e-05
255	0x383f3f5d	4.559696e-05

exp_avg f4 [6]
0	0x3d972db8	0.07381767
1	0xbc8c6ade	-0.017140802
2	0x3a317bcc	0.00067704613
3	0x3d3234f8	0.043507546
4	0xbb917a64	-0.004439639
5	0xbbae3ae2	-0.005317078
