flare-benchmarking/1102rl2b/checkpoints/epoch=94.ckpt (torch_old, 101026 bytes, 36 tensors)

exp_avg f4 [6]
00000000: f035 2bbc 3249 fe3b c41e ae3b 261f 763c
00000010: fd7d 9f3c 5eb3 853c
-0.010449871 0.0077601904 0.005313726 0.015022075 0.019469256 0.01632088

exp_avg_sq f4 [6]
00000000: 9a08 7539 e49b f639 51f3 a939 5d28 8b39
00000010: 61a3 0d3a 20e4 9c39
0.00023368225 0.00047036924 0.00032415477 0.0002654222 0.00054030685 0.00029924605

exp_avg f4 [64, 26]
00000000: b358 c8b9 0000 0000 d6b3 243a 20e3 cdb9
00000010: 0000 0000 d302 aab9 0000 0000 7e05 353a
00000020: 8de7 193a e87d 20ba 3ac2 afba b6ed 973a
00000030: 475a ca39 1ef1 b53a 6eb8 803a e218 b639
00000040: d631 cfb8 f272 45ba cb77 8bba 1e16 8d3a
00000050: cde2 8b3a b906 8eba c54e a8b9 48c6 4e3a
00000060: 0400 0080 0400 0080 a9a3 b7ba 0000 0000
00000070: 7a04 7e3b f5a4 fbb9 0000 0000 c234 6fba
00000080: 0000 0000 ebda 183b e714 b338 d45c 0cba
00000090: 2d71 61bb ef8a 8b3a 4327 e539 3629 eb3a
000000a0: e0d3 913b 5381 d03a d817 09ba b9f0 05bb
000000b0: 7571 fcba 02ac af3a a740 7b3b 2231 edb9
000000c0: 43e9 133a 5c84 ae3b 0400 0000 0400 0000
000000d0: 8150 c6ba 0000 0000 88b4 ed3b ecee 0dba
000000e0: 0000 0000 1daa 39bb 0000 0000 ade2 3b39
000000f0: bf7f 203c 3723 79b9 2a4a dbbb 7413 1b3b
00000100: cb75 e1bb 432b 223b 7764 f53b 0815 c53a
00000110: 5f10 eebb c454 98b9 9e93 d73b eb32 5abb
00000120: d8ac e63a a4e5 feba 9ea8 18ba 0fbb ee3b
00000130: 0400 0080 0400 0080 407a 293b 0000 0000
00000140: 333a f5bb d3a0 2ab9 0000 0000 e56a 683a
00000150: 0000 0000 1458 c1bb 1fa5 a83b ec5b 073a
00000160: 264b f33b 229e b6ba 4c92 b8bb 4396 33bb
00000170: 2da9 febb fdef d2ba 84e5 85ba 613d 133b
00000180: 42a9 b53b abcf e5ba 4142 10bc 7b2a 103a
00000190: ef88 d4b9 f81e e1bb 0400 0080 0400 0080
000001a0: 5f83 00b9 0000 0000 93a4 9fb8 60dc 523a
000001b0: 0000 0000 a5ef 8c3a 0000 0000 ff24 4a3a
000001c0: 4842 48bb 484a 0f3a a273 4739 0f51 84ba
000001d0: 9ac7 063b 4d6f 9fba 2d30 d3b9 670c 98ba
000001e0: aa1c e43a 3c53 df3a deb5 06bb 353e deb9
000001f0: a7e4 a33a 88fa cf3a 0342 1939 3a82 0eba
00000200: 0400 0080 0400 0000 135b e2b8 0000 0000
00000210: ef1e a239 5b48 c139 0000 0000 4d7a 3039
00000220: 0000 0000 1c17 61ba 0cf1 4b3b ae02 233a
00000230: 0a73 ec36 56b4 9fb9 a6be 5cbb ce27 9f3a
00000240: ae07 0d3a d7e4 1339 1b62 98ba 04ce 2e3a
00000250: 9757 c13a fa97 13ba 0ba5 eab9 501e 1db8
00000260: 27c6 7b39 799a 7639 0400 0000 0400 0000
00000270: 900c 213a 0000 0000 bece 90bb b1ea 8939
00000280: 0000 0000 4618 d43a 0000 0000 6cae a9b9
00000290: c21c 85bb 5c97 0a39 cbb6 683b ba9c aaba
000002a0: b43c 0f3b 3c2a 48ba a1a6 77bb 2676 bcb9
000002b0: 4db3 473b b64d c0b9 92fd 6ebb 128c 353b
000002c0: a94b d3ba e98f 0f3b 7673 9bb9 e47d 96bb
000002d0: 0400 0080 0400 0000 78f2 2839 0000 0000
000002e0: 011d a1b9 1d64 8dba 0000 0000 91d6 87ba
000002f0: 0000 0000 0657 a4ba 1312 cb3b ded1 c8ba
00000300: 3f42 f2ba 81fb 543b 4734 33bb d2d4 953a
00000310: 8fcf a139 174f 3dba 9d65 2cbb 5500 1e3a
00000320: 1ea6 353b 857f f9b9 5497 f8ba 70c5 57bb
00000330: 504b c1ba 439a c6b8 0400 0080 0400 0080
00000340: 482e 1cba 0000 0000 cdce 293b 425a 9b39
00000350: 0000 0000 7e5c ae39 0000 0000 4ac0 563b
00000360: 9848 d7bb e1cd 9ab9 3d00 2bbb 0e76 043a
00000370: bb56 fe3b f381 16ba cf91 e33a 0473 44ba
00000380: cbbd 363b d014 bc39 6697 77bb c374 6239
00000390: 9cb2 783b 0171 86ba 5259 9839 d0b7 053b
000003a0: 0400 0000 0400 0080 dd37 58ba 0000 0000
000003b0: 13e2 6a3b 39de e639 0000 0000 8fff 78ba
000003c0: 0000 0000 d03e 8aba 8865 0b3c b6c8 843a
000003d0: 8e5e 5ebb ca05 023a fa67 f2bb e019 cc3a
000003e0: 6e7c 893b 2078 e239 599a bfbb 484a cf3a
000003f0: 77a4 b63b cd7e 3bbb 9615 5cb9 293d 4c3a
-0.0003821306 0.0 0.0006282901 -0.00039269868 0.0 -0.0003242703 0.0 0.00069054205
0.00058709906 -0.0006122277 -0.0013409324 0.0011591229 0.00038595704 0.0013881063 0.0009820589 0.00034732284
-9.879812e-05 -0.0007532082 -0.001064056 0.0010764038 0.001067245 -0.0010835744 -0.00032102145 0.00078878226
-6e-45 -6e-45 -0.0014010567 0.0 0.0038759992 -0.00047997353 0.0 -0.0009124988
0.0 0.0023323845 8.5392785e-05 -0.00053544086 -0.0034399733 0.0010646264 0.00043707536 0.0017941359
0.0044503063 0.0015907682 -0.0005229688 -0.0020437671 -0.0019259887 0.0013402703 0.0038338096 -0.0004524077
0.00056423637 0.005325837 6e-45 6e-45 -0.0015130193 0.0 0.007254187 -0.0005414325
0.0 -0.0028330155 0.0 0.00017918153 0.009796082 -0.00023759609 -0.0066921907 0.0023662718
-0.006880497 0.0024745024 0.007488783 0.0015036175 -0.007265135 -0.00029054855 0.0065788766 -0.003329451
0.0017599119 -0.00194471 -0.0005823466 0.0072854827 -6e-45 -6e-45 0.002586022 0.0
-0.0074837445 -0.00016272375 0.0 0.0008866026 0.0 -0.0059003923 0.005146637 0.0005163539
0.00742473 -0.0013932625 -0.0056326743 -0.0027402795 -0.007771632 -0.0016093251 -0.0010215496 0.0022467005
0.0055438587 -0.0017533203 -0.008804859 0.0005499494 -0.00040537814 -0.006870147 -6e-45 -6e-45
-0.00012255971 0.0 -7.612365e-05 0.00080437027 0.0 0.0010752572 0.0 0.00077112013
-0.0030557085 0.0005466086 0.00019021195 -0.0010094958 0.002056575 -0.0012163908 -0.0004028095 -0.0011600376
0.0017403562 0.0017038356 -0.0020555179 -0.00042389487 0.0012504057 0.0015867511 0.00014615808 -0.00054362754
-6e-45 6e-45 -0.00010793484 0.0 0.00030922095 0.00036865738 0.0 0.00016830229
0.0 -0.00085865124 0.0031119017 0.0006218356 7.0467404e-06 -0.00030461204 -0.0033682971 0.00121426
0.00053798675 0.00014104262 -0.0011625917 0.0006668272 0.0014750835 -0.0005630251 -0.00044754925 -3.7459948e-05
0.00024011043 0.00023517934 6e-45 6e-45 0.00061435346 0.0 -0.004419177 0.00026305535
0.0 0.001618155 0.0 -0.00032364146 -0.004062266 0.00013217091 0.0035509344 -0.0013016679
0.002185625 -0.0007635688 -0.0037788528 -0.00035946182 0.0030471862 -0.00036678993 -0.0036467058 0.0027701897
-0.0016120571 0.0021905845 -0.0002964993 -0.004592644 -6e-45 6e-45 0.00016112055 0.0
-0.00030729923 -0.0010787282 0.0 -0.0010363628 0.0 -0.0012538142 0.006197223 -0.0015321334
-0.0018482878 0.003249854 -0.0027344392 0.0011431223 0.00030862956 -0.0007221563 -0.0026305683 0.0006027271
0.0027717422 -0.0004758799 -0.0018965998 -0.0032924078 -0.0014747176 -9.470109e-05 -6e-45 -6e-45
-0.0005957824 0.0 0.0025910616 0.0002963115 0.0 0.00033256778 0.0 0.0032768422
-0.006569933 -0.0002952656 -0.0026092671 0.0005052992 0.007761804 -0.000574141 0.001736218 -0.00074939453
0.0027884122 0.0003587366 -0.003777945 0.00021596537 0.0037948256 -0.0010257066 0.00029058248 0.002040375
6e-45 -6e-45 -0.00082480704 0.0 0.0035840317 0.00044034587 0.0 -0.00094985304
0.0 -0.0010547284 0.008508094 0.0010130617 -0.003393087 0.0004959969 -0.007397649 0.0015571676
0.0041957414 0.0004319558 -0.005847257 0.0015814984 0.005573805 -0.0028609515 -0.00020988876 0.0007791096

exp_avg_sq f4 [64, 26]
00000000: cd7a 5736 0000 0000 6c9b 1a38 e543 4134
00000010: 0000 0000 4ad7 5934 0000 0000 8606 8837
00000020: 57d5 d037 fac6 2235 a55a a937 0f0e 9835
00000030: 55a1 7137 b270 d635 b714 0f38 47e9 5e35
00000040: 2a89 8e35 ea19 4236 fe4c 3537 e4de 1636
00000050: 6623 1138 b5a3 0735 2203 ea34 ae8e 0638
00000060: 29a8 d932 5c9b 6d32 3adb 1137 0000 0000
00000070: 49a1 cf38 8d42 1c35 0000 0000 37ba 1e35
00000080: 0000 0000 051b 3a38 3c44 a038 92c7 e935
00000090: 83cd 4738 aeb6 4a36 5e64 2838 466f a236
000000a0: 4dce c038 88bd 2636 5a52 3636 6332 e336
000000b0: b45f fc37 56a5 9536 199d c538 1803 4735
000000c0: c3fa 8235 854f b538 9fa2 4433 248c 6e32
000000d0: 1395 4a38 0000 0000 7b56 193a c8d1 6936
000000e0: 0000 0000 d1e7 6236 0000 0000 8b16 8339
000000f0: 756d d039 b6d3 3a37 360c a639 1dae 9e37
00000100: 1103 6639 5ab3 d137 9511 0c3a 6056 8237
00000110: 3405 9237 c915 2b38 8ced 2139 8db3 0138
00000120: 05ae 083a fa8d ce36 a2ca a036 c2ec 013a
00000130: 7772 7534 8dae aa33 d6d4 6137 0000 0000
00000140: 3378 2439 82d0 5635 0000 0000 c3bc 7335
00000150: 0000 0000 ca5b 9338 42e8 e438 d1b3 0a36
00000160: 0c5e b538 5a40 8f36 21e1 7238 3c2d ac36
00000170: 7d3d 1839 1fe8 9836 cae9 a736 f970 6e37
00000180: 2f37 3f38 ee79 0237 f3ed 1b39 37ca d935
00000190: 4ed2 2136 1457 1039 e8ed 9a33 8d48 2433
000001a0: 52f9 3b37 0000 0000 fee1 0839 b89d 1835
000001b0: 0000 0000 92ef 0035 0000 0000 0fc2 7438
000001c0: f4bd c538 e101 0536 26a3 8c38 55b3 8336
000001d0: f83c 5338 bd4f 9e36 b562 fb38 2ba6 1e36
000001e0: 82d5 4f36 6772 0737 8918 1738 9348 a136
000001f0: 9c70 fc38 2ae9 a035 589e 7935 4254 ea38
00000200: d772 6733 9072 5d32 d7a3 8f36 0000 0000
00000210: daba 4f38 7afb da34 0000 0000 2d56 1435
00000220: 0000 0000 277c a437 62fa 1d38 e7eb 9335
00000230: 35ab d037 6588 1636 4b71 ba37 cb94 9036
00000240: 096d 3f38 2ce4 0836 128c 5a36 7413 d036
00000250: b3f9 7437 d53c 9a36 32fb 3c38 b886 7435
00000260: 083a 5b35 7680 3438 acc7 2a33 c684 a132
00000270: 86d3 be37 0000 0000 612a 9039 a996 ec35
00000280: 0000 0000 e79e f735 0000 0000 2aa8 fa38
00000290: 0146 4839 07eb a736 9862 1e39 9806 1737
000002a0: 07f1 e138 48ea 3e37 0955 8439 bcaa e336
000002b0: a2e3 1037 830a 8d37 2a42 a038 0327 6037
000002c0: 4b74 8139 1679 6336 8caa f635 4375 7639
000002d0: e37e 6633 94df d232 baf7 ce37 0000 0000
000002e0: 6e20 9439 8b81 a535 0000 0000 ec18 a935
000002f0: 0000 0000 a6fa f138 e59e 4239 15a9 8e36
00000300: a5f8 1039 78af f836 4123 d238 4b99 3737
00000310: 780d 8839 1403 b836 ff92 0a37 16a6 b137
00000320: e5d8 9b38 675a 8a37 72e5 8739 9e88 5436
00000330: a7df 1b36 838f 7839 f2a8 3c34 1de7 8d33
00000340: 58c4 a536 0000 0000 519d 7238 4548 0b35
00000350: 0000 0000 f003 1635 0000 0000 33f5 e337
00000360: 2296 3f38 15a5 b235 7e91 1038 7b00 1f36
00000370: 38ea f137 8433 6436 3941 5f38 e351 2536
00000380: 972b 4736 8336 e036 102e af37 c00a 9036
00000390: d92d 6938 0468 8035 6ed4 ac35 5304 5c38
000003a0: 8654 3733 f873 0a33 f23d a337 0000 0000
000003b0: 65d2 7339 211b cb35 0000 0000 2745 d535
000003c0: 0000 0000 2818 cb38 2ade 2e39 c3b1 a236
000003d0: cab5 0339 985b 1c37 db38 c938 54c9 7737
000003e0: f3e9 5f39 27f0 e236 abd8 3737 adfb b137
000003f0: a38d 8338 0bdb 7a37 e941 5a39 ebf3 3936
3.2108976e-06 0.0 3.686121e-05 1.7999226e-07 0.0 2.0288022e-07 0.0 1.6215501e-05
2.4894876e-05 6.063925e-07 2.018858e-05 1.1328974e-06 1.4402282e-05 1.5977041e-06 3.411315e-05 8.304091e-07
1.0619744e-06 2.8923337e-06 1.0806367e-05 2.2481481e-06 3.460366e-05 5.0529644e-07 4.3588176e-07 3.208097e-05
2.5338595e-08 1.383054e-08 8.693716e-06 0.0 9.900571e-05 5.821137e-07 0.0 5.9130565e-07
0.0 4.437102e-05 7.642104e-05 1.7417935e-06 4.7636695e-05 3.020668e-06 4.0147796e-05 4.84093e-06
9.1937e-05 2.484625e-06 2.7168048e-06 6.770993e-06 3.0085306e-05 4.4597937e-06 9.422954e-05 7.413778e-07
9.758736e-07 8.645564e-05 4.578271e-08 1.3885288e-08 4.829939e-05 0.0 0.00058493734 3.4841814e-06
0.0 3.381156e-06 0.0 0.00025003063 0.00039754403 1.1135757e-05 0.00031671085 1.8916146e-05
0.00021935652 2.4998259e-05 0.0005343196 1.553743e-05 1.740698e-05 4.0789866e-05 0.0001544265 3.0923216e-05
0.0005213919 6.1558067e-06 4.791961e-06 0.0004956239 2.2859045e-07 7.9479925e-08 1.34606e-05 0.0
0.00015685036 8.002463e-07 0.0 9.079924e-07 0.0 7.026603e-05 0.000109151486 2.066827e-06
8.64827e-05 4.2692236e-06 5.7906964e-05 5.1312654e-06 0.00014518756 4.5569755e-06 5.0042045e-06 1.4212209e-05
4.5589342e-05 7.776993e-06 0.00014870595 1.6226612e-06 2.4113283e-06 0.0001376535 7.214459e-08 3.825021e-08
1.1204118e-05 0.0 0.0001305416 5.6853924e-07 0.0 4.8032337e-07 0.0 5.8354864e-05
9.4290735e-05 1.9819638e-06 6.706109e-05 3.9249812e-06 5.03631e-05 4.7180497e-06 0.00011986998 2.3640557e-06
3.0969682e-06 8.073263e-06 3.6024056e-05 4.8066227e-06 0.000120372715 1.1988789e-06 9.299015e-07 0.00011173684
5.3888325e-08 1.2889942e-08 4.2808056e-06 0.0 4.9526665e-05 4.0788638e-07 0.0 5.52597e-07
0.0 1.9608136e-05 3.7664904e-05 1.102101e-06 2.4875257e-05 2.2431134e-06 2.2225684e-05 4.308856e-06
4.5639496e-05 2.0398393e-06 3.2566063e-06 6.2011477e-06 1.4601671e-05 4.5966394e-06 4.5056637e-05 9.1093125e-07
8.1668304e-07 4.3034983e-05 3.976281e-08 1.8803245e-08 2.2748263e-05 0.0 0.00027497395 1.7627218e-06
0.0 1.8449181e-06 0.0 0.00011952252 0.00019099565 5.0043486e-06 0.00015104783 9.001837e-06
0.00010773731 1.137943e-05 0.00025240358 6.7850033e-06 8.636069e-06 1.6813405e-05 7.6417185e-05 1.3360524e-05
0.00024691442 3.3896117e-06 1.8378064e-06 0.00023504072 5.366645e-08 2.454889e-08 2.467247e-05 0.0
0.00028252922 1.233116e-06 0.0 1.2598734e-06 0.0 0.000115384624 0.00018560475 4.2516135e-06
0.00013825537 7.411403e-06 0.00010020147 1.0943341e-05 0.00025949976 5.4839857e-06 8.259666e-06 2.1177384e-05
7.431376e-05 1.6492979e-05 0.00025920157 3.1669983e-06 2.3226983e-06 0.00023704585 1.7570326e-07 6.6078634e-08
4.9402406e-06 0.0 5.784381e-05 5.18867e-07 0.0 5.5885084e-07 0.0 2.7174689e-05
4.567777e-05 1.3310079e-06 3.4467776e-05 2.3693126e-06 2.8838505e-05 3.4004634e-06 5.3228086e-05 2.463458e-06
2.9678683e-06 6.682066e-06 2.0883075e-05 4.292786e-06 5.5594228e-05 9.567016e-07 1.2876824e-06 5.2456115e-05
4.268488e-08 3.2236102e-08 1.945996e-05 0.0 0.00023252664 1.5132574e-06 0.0 1.5889863e-06
0.0 9.684294e-05 0.00016676696 4.8486704e-06 0.00012560855 9.31965e-06 9.595017e-05 1.4769223e-05
0.0002135409 6.7632823e-06 1.0958097e-05 2.121724e-05 6.272949e-05 1.4952161e-05 0.00020814654 2.7709127e-06

exp_avg f4 [64]
00000000: cdb3 243a 6c04 7e3b 81b4 ed3b 2b3a f5bb
00000010: 9fa4 9fb8 331f a239 bbce 90bb 9e1b a1b9
00000020: cbce 293b 2fe2 6a3b 4b2b 303a 60e9 24bc
00000030: a036 c93a c30c d6bb e1b7 c63b 4e93 9d3b
00000040: bb7d 763b b274 1abc 008c 0fbb c578 5fbb
00000050: 46f1 c4bb 820c 083c 2b7d a13a 7f0f e3ba
00000060: eb5b d2bb fd95 753b c345 86bb bb40 83ba
00000070: 57ef 9abb 2dc3 033b 0852 eaba 8db4 efbb
00000080: d3ee c73a d918 b03b 923b 23bb c14d 0ebb
00000090: e7d3 6a39 81a5 423b 2766 58bb 86b8 dfbb
000000a0: 4ef2 ebb9 7b69 af3b 8446 943b ec66 1fbb
000000b0: da79 13bb 94ae eab9 6188 373a 61b9 b838
000000c0: 5276 b03a 0cd0 a63b 8fb2 44bb 9b02 dd3a
000000d0: b2ed 4ebb e49e e6ba 3de0 70bb ca00 b2b9
000000e0: be57 90b9 4df3 edb9 145f 0bbc b835 9d3a
000000f0: c835 2f3c 1329 b8bb 51a7 79bb 7a72 8abb
0.0006282896 0.003875996 0.0072541838 -0.007483741 -7.612374e-05 0.00030922293 -0.0044191754 -0.0003072889
0.0025910612 0.0035840382 0.00067203183 -0.010065407 0.0015351363 -0.006532283 0.0060644005 0.00480882
0.0037611562 -0.009427236 -0.0021903515 -0.0034099084 -0.0060102073 0.008303763 0.0012320628 -0.0017323344
-0.006419649 0.0037473433 -0.0040976717 -0.0010013798 -0.0047282386 0.0020105348 -0.001787723 -0.0073152245
0.001525367 0.005374056 -0.0024907333 -0.0021713825 0.00022394919 0.0029700699 -0.0033019872 -0.006827417
-0.00045003224 0.0053531504 0.0045250077 -0.002432282 -0.002250305 -0.0004476203 0.0007001218 8.808333e-05
0.0013462997 0.005090719 -0.0030013656 0.0016861738 -0.0031574783 -0.001759496 -0.003675475 -0.00033951394
-0.00027531193 -0.00045385436 -0.008506555 0.0011994159 0.010693975 -0.005620131 -0.0038094113 -0.0042250725

exp_avg_sq f4 [64]
00000000: 6a9b 1a38 46a1 cf38 7e56 193a 2e78 2439
00000010: fde1 0839 daba 4f38 5c2a 9039 7220 9439
00000020: 509d 7238 63d2 7339 1ca8 3738 dd81 9c39
00000030: 1397 8139 ce4a 4d39 60e9 a538 7577 ed38
00000040: e7c4 1139 f4af 0b39 44eb 1639 9da9 3739
00000050: 25e3 0439 9487 4f39 2e13 3939 2eec 0139
00000060: ad00 b239 d2a0 b939 c560 fb38 c8a4 7538
00000070: da56 8038 82ed 6f38 5050 4b38 5127 283a
00000080: 68b7 3338 5e7f 8538 bb67 c737 e0d2 2338
00000090: dcfb 3139 ffa6 a939 57e7 1b3a e67e 1639
000000a0: 0291 cb38 3bd4 e338 972d 6038 b4fe 6f37
000000b0: c1d5 9738 22ce 9f38 7a5b 9936 4ebb bf38
000000c0: 16f5 f437 af30 da38 3e9a af37 cfc7 3f38
000000d0: b344 0539 0f22 0338 989f 4238 ecd5 2338
000000e0: c074 e539 70de b438 27f2 f838 17a6 3238
000000f0: ad26 1b3a 586d 7739 7dee c538 3d69 3a39
3.68612e-05 9.900569e-05 0.0005849375 0.00015685029 0.00013054158 4.9526665e-05 0.0002749738 0.00028252933
5.7843805e-05 0.00023252661 4.3787164e-05 0.00029851394 0.00024717356 0.0001957819 7.9112826e-05 0.00011323291
0.0001390163 0.0001332162 0.00014392758 0.00017515426 0.00012673119 0.00019791565 0.0001765012 0.00012390382
0.0003395131 0.0003540577 0.000119866374 5.8566016e-05 6.119693e-05 5.7203237e-05 4.847377e-05 0.000641455
4.2847736e-05 6.365658e-05 2.3770952e-05 3.905862e-05 0.0001697386 0.00032358614 0.0005947253 0.00014352388
9.706804e-05 0.000108637345 5.344822e-05 1.4304813e-05 7.240056e-05 7.620106e-05 4.5704046e-06 9.142478e-05
2.9201194e-05 0.00010404118 2.093345e-05 4.5724035e-05 0.00012709461 3.1264553e-05 4.6401838e-05 3.906146e-05
0.0004376527 8.624501e-05 0.00011870666 4.259319e-05 0.0005918544 0.0002359649 9.438114e-05 0.00017777547

exp_avg f4 [32, 64]
00000000: e5ba cab9 149a 8539 9286 1a38 360c ca39
00000010: 94a3 0e3a d8b0 583a 8830 323a bc00 3938
00000020: ffcc 0cb9 2ddd 5db9 3fe5 9839 06ae 7a3a
00000030: 106f 49ba 8fc8 2139 dc17 b3ba fb69 a539
00000040: 9d05 89b8 bd22 203a 8fac c2b9 d000 503a
00000050: 7ccc 3639 1fe1 13ba 8c71 5cba 7350 63ba
00000060: a726 0fb9 88ff f639 d6f5 6fb9 f880 e3b9
00000070: da18 b6b8 7add 14b9 dd31 6b3a ec69 a03a
00000080: a32c 31ba 07ed 473a 2b2a 413a d44c 393a
00000090: 941e 20b9 b722 14b9 d18c e7b6 882a bdb9
000000a0: b25b 213a 3eac 15ba 2b3e c1b9 b329 1c3b
000000b0: 51b0 3f3a fa4a 3bba 3668 81ba 0970 deb9
000000c0: cbfe e9b9 5306 b9ba 0ebf 3cba 27e8 36ba
000000d0: 762e 1739 6bf0 b139 5b19 6fb9 9af2 a0ba
000000e0: 268f 873a afc3 b8b9 fe7b 22ba d7da 5739
000000f0: 2319 aeb9 4279 9d39 b699 0638 a027 c135
00000100: fb3e 23b8 3bf9 d439 8013 b6b8 b788 fd39
00000110: c735 cc3a 34b2 be38 a130 7f38 eacc 6cba
00000120: d854 3e3a d8bd 7bb9 ced2 fab9 a3f8 30b7
00000130: 8aad 82b9 9ba9 f139 0330 42bb d76b 1d3a
00000140: 8a4c 17ba 0eea a5b9 fc82 ceb6 400f ea3a
00000150: 1d4e 2839 76ff 4a38 5059 65ba d2d5 1aba
00000160: b7b5 77b9 ce01 8839 fe73 013a 3055 2ab8
00000170: 9b98 c839 442a 2aba cdc0 0d3a bf64 913a
00000180: 426b 35ba 9eb2 7c3a 2998 3a3a 96a1 913a
00000190: 164d 673a 8e59 093a dc21 05ba 793e ffb9
000001a0: 6125 f539 d29c e8b8 2198 6b3a 9e32 f03a
000001b0: fc35 cfb9 507a 33ba eb69 caba e618 be39
000001c0: 6e26 69ba d3f0 f2ba 858d 853a c032 42ba
000001d0: 886c ddb9 a12d 84ba 46e6 1fba 2c2c eeb9
000001e0: 4e36 5bb9 2ca6 1939 a478 13ba d0df 7f39
000001f0: 4111 93b9 29af d539 84b7 09ba effa db38
00000200: 1cac 2d3a d382 153b 8dc8 553a ae70 1e3a
00000210: d7f8 013b 0737 3839 c0b7 8bb8 7ea5 edba
00000220: 1d2a 013a 3cf5 3bb9 3e5b adba c10e 81ba
00000230: a0e5 05b9 0177 1738 04d0 d6ba fec2 f239
00000240: 7dfa a8ba 0f68 99b9 1742 a0ba 47ac c63a
00000250: c3f1 4fb9 02f8 7bb7 6ad7 11ba 5c28 b7b9
00000260: 81ed 66ba 2481 8f38 2191 4e3a 71a1 66b9
00000270: fd64 b5b9 5be6 43ba 9599 a1b8 d54e 263a
00000280: 3613 333a 012c 563a 7eda b838 7fc9 813a
00000290: 960c c23a 8429 873a e2b3 65ba b330 6ab9
000002a0: 4fc4 46b7 64c3 50ba 739e 853a 0701 403a
000002b0: fcf9 11b9 ef82 3db9 0335 03bb aafe c23a
000002c0: c390 59ba a930 43ba 2389 683a 617d 82ba
000002d0: b102 a9ba 6849 07ba 3a39 e539 b1ea 0e3a
000002e0: e642 6d3a 5675 dfb7 efa3 5f38 90d8 8139
000002f0: f7e7 91b9 4070 083a 69fb 15ba 4c09 a5b8
00000300: b8c8 77b9 764a 92ba cdb2 b0b9 a6a0 00b9
00000310: 7482 ab38 33f6 2dba 185a 6dba b0ed 9cb9
00000320: eb41 5e3a a6f6 04b8 a9ac 01ba 5735 09ba
00000330: 93f1 103a 6b17 ba39 46cc c1ba 0409 da39
00000340: a0f7 d2b7 7d8d 6eba a18c 8d3a 3b65 493a
00000350: 2355 9cb8 927c 033a b85c b937 ee6f d239
00000360: 1538 4339 8c27 0b39 79e4 d839 caf4 f039
00000370: 84ad 403a 1bc1 13ba 7bc3 7cb9 2cc2 6fb9
00000380: d21e 65ba e7b7 4f39 65d7 b238 8097 8039
00000390: 54ca 183a 0284 393a 37cf b3b9 8d32 09ba
000003a0: 8007 99b7 1d2a 5f3a 143c 003a fcc3 21ba
000003b0: 1cc7 edba 8aa4 b4b9 2f7b 8639 8c66 e638
000003c0: bf4c 8db9 daca 09ba 1682 a23a 4b13 073a
000003d0: 9140 e4b9 1bd7 deba 44ae fbb9 6802 593a
000003e0: 2639 d7ba 3c4e 1c3a d501 deb8 a92b 8bb9
000003f0: 7f3d 0b39 3b06 0038 b84a a6b9 1025 ba39
-0.0003866769 0.00025482534 3.684179e-05 0.0003853754 0.0005441245 0.0008266098 0.0006797393 4.410812e-05
-0.00013427807 -0.00021158597 0.000291625 0.00095626747 -0.0007684091 0.0001542887 -0.0013663727 0.00031550214
-6.5337146e-05 0.0006108692 -0.0003713113 0.00079346914 0.00017433049 -0.00056411506 -0.0008409254 -0.00086713507
-0.00013651942 0.00047111162 -0.00022884397 -0.00043392903 -8.683065e-05 -0.00014196886 0.0008971969 0.0012238598
-0.00067586655 0.00076265674 0.0007368649 0.0007068638 -0.0001527018 -0.00014127312 -6.9007297e-06 -0.00036080577
0.0006155326 -0.0005709565 -0.00036858147 0.0023828566 0.0007312345 -0.0007144656 -0.0009872976 -0.00042426612
-0.0004463106 -0.0014116265 -0.00072001 -0.00069773424 0.0001441779 0.00033939196 -0.00022802262 -0.0012279332
0.0010342344 -0.0003524101 -0.0006198286 0.00020585522 -0.00033206595 0.00030035718 3.2091244e-05 1.4391153e-06
-3.8920884e-05 0.00040621482 -8.6820684e-05 0.0004835778 0.0015579992 9.093099e-05 6.0842027e-05 -0.000903322
0.00072605675 -0.00024007948 -0.00047840778 -1.0548308e-05 -0.0002492483 0.00046093468 -0.0029630668 0.0006005144
-0.0005771598 -0.00031645637 -6.154527e-06 0.0017857328 0.00016050828 4.839847e-05 -0.00087489653 -0.00059064955
-0.0002362345 0.00025941286 0.00049382437 -4.0610495e-05 0.00038260673 -0.00064912834 0.00054074527 0.0011092647
-0.0006920585 0.0009639653 0.00071180105 0.0011110778 0.00088234374 0.000523948 -0.0005078593 -0.00048683936
0.0004675789 -0.00011091832 0.00089872075 0.0018325632 -0.00039522338 -0.0006846534 -0.0015442943 0.00036258175
-0.0008893971 -0.0018534906 0.0010189271 -0.0007408075 -0.00042233267 -0.0010084399 -0.0006099682 -0.00045427808
-0.00020905698 0.00014653121 -0.0005625582 0.00024402072 -0.0002805088 0.0004075703 -0.0005253481 0.00010489474
0.00066250726 0.0022813573 0.00081551896 0.0006044012 0.0019832158 0.00017568107 -6.6622626e-05 -0.0018130986
0.0004927235 -0.00017925067 -0.0013226045 -0.0009846316 -0.0001276941 3.6112036e-05 -0.0016388898 0.00046303117
-0.0012892034 -0.00029259964 -0.0012226728 0.0015157544 -0.00019831122 -1.501851e-05 -0.000556341 -0.0003493455
-0.00088091946 6.842826e-05 0.0007879902 -0.00021994651 -0.00034598252 -0.00074729853 -7.705685e-05 0.00063441443
0.0006831171 0.0008170009 8.814501e-05 0.000990197 0.0014804776 0.0010312055 -0.00087624614 -0.00022334121
-1.1847426e-05 -0.0007963686 0.0010194316 0.0007324372 -0.00013921404 -0.00018073221 -0.002002061 0.0014876921
-0.0008299464 -0.00074459106 0.00088705326 -0.0009955579 -0.0012894479 -0.00051607797 0.0004372092 0.0005451842
0.0009050801 -2.663831e-05 5.332002e-05 0.0002476615 -0.00027829382 0.0005204715 -0.0005721362 -7.869545e-05
-0.00023630529 -0.0011161107 -0.00033702553 -0.00012266877 8.178214e-05 -0.0006636113 -0.00090542575 -0.0002993173
0.00084784505 -3.170096e-05 -0.0004946688 -0.00052340835 0.00055291614 0.00035494132 -0.001478561 0.00041586917
-2.514926e-05 -0.0009100063 0.0010799357 0.0007682626 -7.4545176e-05 0.0005015816 2.2096894e-05 0.00040137715
0.00018617541 0.00013270805 0.00041368956 0.0004595875 0.00073500746 -0.000563638 -0.00024105415 -0.00022865151
-0.00087402493 0.00019809567 8.527822e-05 0.0002452694 0.0005828489 0.00070768606 -0.00034295928 -0.0005233668
-1.8242514e-05 0.000851305 0.0004891765 -0.00061708665 -0.0018141004 -0.00034454867 0.0002565025 0.000109863555
-0.00026950796 -0.00052563625 0.0012398388 0.0005152716 -0.00043535655 -0.0017001362 -0.0004800429 0.00082782516
-0.001642023 0.00059625856 -0.00010586126 -0.00026544675 0.00013278982 3.052338e-05 -0.00031717657 0.00035504298

exp_avg_sq f4 [32, 64]
00000000: 4639 0a37 a5a8 3437 dcce 6436 d862 5236
00000010: a739 3e37 1f6a 9f35 d502 4136 d8cf d336
00000020: dcea 8036 eaac 8836 694b 8b36 149f b535
00000030: 632c 2b36 bca5 7537 6012 3238 b258 5937
00000040: e78c b136 5dcc f936 6200 b036 ef09 5f36
00000050: e98d 8336 6229 2c37 b613 8d36 2e6c 0538
00000060: 1659 c236 24c4 d736 680f 1c36 1425 5737
00000070: ed50 0237 a357 fb36 689c 4d37 46af d035
00000080: 77ac 5037 0251 f536 68c1 1537 02bc 3637
00000090: 9501 b936 29ee 1636 b855 0536 d6eb 9637
000000a0: b6e0 f136 a3d7 4436 43c8 0838 f401 a837
000000b0: 1fd7 d436 2346 9b36 f214 3f38 bca6 b136
000000c0: 34f1 6c37 bbfa 8c37 ed30 3a38 0db5 8d37
000000d0: c66f 3e37 d630 7137 2d15 1638 0909 3d38
000000e0: 6104 f036 8e85 1636 1cc4 1a38 8ce0 9037
000000f0: 653f a935 103b 0836 e24e 9236 bf8d 1837
00000100: 9d79 0836 31f7 6f36 04b9 6335 3cc8 6135
00000110: 7dac 3c36 5a6e af34 8f42 8835 8afe ca35
00000120: f81d 8935 defb 8135 645f 8335 4e5a c734
00000130: fde3 1435 e4e3 4036 885e 1137 49b1 4336
00000140: d0b8 a235 6292 c435 6c76 ee35 c36b 9835
00000150: 338c 8235 24c2 0736 0df5 a135 206c ca36
00000160: 1837 ac35 f4ac b235 3659 1835 5c93 1b36
00000170: 029d c835 291d b735 8abc 2736 6977 0f35
00000180: d6d7 6336 59cc d135 1dd5 0a36 2d5e 1b36
00000190: 0a96 bf35 fa88 3c35 2164 1a35 7d75 6336
000001a0: c5ed b335 cfcc 2e35 fec1 c236 1487 9636
000001b0: 31fd 1e36 01f7 9035 2f6b 1c37 c63a b835
000001c0: 15dc 2a36 be01 5b36 6fb7 0c37 2d5d 7736
000001d0: b2bc 4936 0731 7236 7602 d836 68b2 0937
000001e0: 998b b235 04fd 2d35 c14d d736 8ba9 8436
000001f0: 3b48 ba34 ce62 1635 a2f5 a035 bb74 f235
00000200: ce41 ce36 36df 3937 9e96 4536 d4db 4336
00000210: 301a 0b37 7d97 a335 0b94 2d36 648e bf36
00000220: 52ea 3a36 880e 4236 497f 6236 2423 ae35
00000230: c46b fc35 976b 3c37 ce52 0238 9a4a 2137
00000240: be7d a336 ee18 c336 676f 9236 aca2 3f36
00000250: 6e2a 7036 4c8d f836 d2ea 6f36 81f2 ca37
00000260: a392 a436 a2c4 a336 5eac 0136 e7f9 2637
00000270: 4609 ba36 f815 bf36 17bf 2e37 a60e aa35
00000280: 0c5d 3337 fb9c c636 59aa ba36 c97e e736
00000290: 8097 bb36 c3f6 2736 cbad d335 dda7 7537
000002a0: 94f2 b836 9825 0c36 fa69 c737 4378 7737
000002b0: 0db0 de36 da54 7b36 00e2 0438 a09d 9636
000002c0: 69a8 3637 92c8 5d37 cfed 0538 14a0 5337
000002d0: 7fcc 1037 014b 4037 a89b e137 8da0 0738
000002e0: 3ea0 c036 b029 f235 9063 ee37 f2b3 4237
000002f0: a307 9235 bf87 df35 38f5 4236 7a2c fc36
00000300: 8193 fb36 7b69 4437 d5ee 6636 3269 4036
00000310: 62a7 3c37 f11b 9c35 fffb 4436 1304 ce36
00000320: 14e5 8436 dba5 7b36 715b 7936 6330 c135
00000330: e4be 1236 0345 5337 7aca 1838 635a 4937
00000340: 32ed b736 f10b e236 a6b0 c336 802a 7436
00000350: 6d6c 6b36 d0f9 1337 19bb 8536 5281 e637
00000360: 602c ba36 2c50 b436 33cf 1c36 9328 3137
00000370: 0afb df36 7273 d236 ce28 3f37 03ec cd35
00000380: e320 4937 ce3f db36 fcd9 0237 c091 2537
00000390: 1612 b336 a366 0336 2d21 0636 c2b5 7e37
000003a0: 87bc ce36 b115 3536 a7b1 e637 243f 9537
000003b0: 027e e036 a69f 8736 ed30 2838 9b9c ae36
000003c0: f7b7 4937 b580 7437 0c40 1f38 f5ba 7337
000003d0: 8cad 2c37 c2fa 5a37 c821 fe37 22fd 1f38
000003e0: 101b d036 9e81 1436 b885 ff37 c488 8037
000003f0: f626 a035 6e9f 0d36 c0b8 9336 6a67 0037
8.238776e-06 1.0768102e-05 3.4095056e-06 3.1349973e-06 1.1338306e-05 1.1877308e-06 2.876089e-06 6.312486e-06
3.8420385e-06 4.0732457e-06 4.1513017e-06 1.3531849e-06 2.5506822e-06 1.4641726e-05 4.245562e-05 1.2954859e-05
5.2914143e-06 7.4445693e-06 5.2452533e-06 3.3235372e-06 3.9206247e-06 1.0261634e-05 4.204422e-06 3.181042e-05
5.7920215e-06 6.430333e-06 2.325478e-06 1.2823632e-05 7.767446e-06 7.490585e-06 1.2255368e-05 1.5548219e-06
1.2437921e-05 7.3109995e-06 8.926123e-06 1.0891819e-05 5.513614e-06 2.249037e-06 1.986844e-06 1.7991213e-05
7.2085195e-06 2.9331793e-06 3.2611435e-05 2.002807e-05 6.3431357e-06 4.627525e-06 4.5557455e-05 5.2944215e-06
1.4122856e-05 1.6806056e-05 4.439142e-05 1.6892818e-05 1.1350907e-05 1.437609e-05 3.578251e-05 4.5069526e-05
7.153067e-06 2.242948e-06 3.6899102e-05 1.72707e-05 1.2609931e-06 2.0299958e-06 4.3603222e-06 9.092909e-06
2.0336367e-06 3.575766e-06 8.4833323e-07 8.411041e-07 2.8114584e-06 3.2676581e-07 1.0152161e-06 1.5124253e-06
1.0216017e-06 9.684552e-07 9.788023e-07 3.7132344e-07 5.5466063e-07 2.874288e-06 8.664683e-06 2.9160458e-06
1.2123728e-06 1.4645741e-06 1.7766847e-06 1.1356245e-06 9.726558e-07 2.0229572e-06 1.2066754e-06 6.0326565e-06
1.2831033e-06 1.331237e-06 5.675423e-07 2.3182574e-06 1.4946856e-06 1.3643049e-06 2.4994683e-06 5.3445416e-07
3.395127e-06 1.5631186e-06 2.068765e-06 2.3151617e-06 1.4274276e-06 7.0234785e-07 5.751518e-07 3.3894023e-06
1.3405739e-06 6.5118087e-07 5.804234e-06 4.4860735e-06 2.3691211e-06 1.0800724e-06 9.32328e-06 1.3726174e-06
2.5460079e-06 3.2634557e-06 8.387359e-06 3.6860104e-06 3.006117e-06 3.6089348e-06 6.437588e-06 8.207375e-06
1.3302662e-06 6.481571e-07 6.416551e-06 3.953644e-06 3.4697754e-07 5.6023134e-07 1.1992418e-06 1.8064378e-06
6.146939e-06 1.107883e-05 2.9442958e-06 2.9185221e-06 8.291143e-06 1.2188535e-06 2.5865181e-06 5.70882e-06
2.7852552e-06 2.891671e-06 3.3750714e-06 1.2974238e-06 1.8806827e-06 1.1230723e-05 3.1071533e-05 9.613717e-06
4.872417e-06 5.814355e-06 4.364108e-06 2.8555905e-06 3.5787484e-06 7.407425e-06 3.5750459e-06 2.4193201e-05
4.9046516e-06 4.8806696e-06 1.9322829e-06 9.952556e-06 5.5443115e-06 5.694801e-06 1.04157e-05 1.267025e-06
1.0690896e-05 5.9191348e-06 5.563063e-06 6.899096e-06 5.590671e-06 2.5028573e-06 1.5771305e-06 1.4642222e-05
5.511867e-06 2.0883508e-06 2.3771998e-05 1.4750348e-05 6.6366106e-06 3.7451305e-06 3.168173e-05 4.4886983e-06
1.0887256e-05 1.3219325e-05 3.1931148e-05 1.2613851e-05 8.630682e-06 1.1461555e-05 2.6894573e-05 3.2336033e-05
5.7407005e-06 1.8042538e-06 2.8418173e-05 1.1605198e-05 1.088007e-06 1.6654302e-06 2.9050989e-06 7.515363e-06
7.4975546e-06 1.17070695e-05 3.441169e-06 2.8671461e-06 1.1244645e-05 1.1631038e-06 2.9352957e-06 6.1397527e-06
3.9605748e-06 3.7498455e-06 3.7157117e-06 1.4393703e-06 2.1866808e-06 1.2592648e-05 3.6428195e-05 1.2001578e-05
5.481438e-06 6.736715e-06 5.8320175e-06 3.6383572e-06 3.508084e-06 8.820047e-06 3.98549e-06 2.7478356e-05
5.548398e-06 5.3737513e-06 2.3366417e-06 1.0559469e-05 6.6751427e-06 6.2719273e-06 1.1393988e-05 1.5342379e-06
1.1988191e-05 6.5341364e-06 7.799357e-06 9.868701e-06 5.336721e-06 1.9580264e-06 1.9986867e-06 1.5181899e-05
6.161226e-06 2.6983728e-06 2.7500862e-05 1.7791586e-05 6.6903895e-06 4.041899e-06 4.0099887e-05 5.2038354e-06
1.2023366e-05 1.45735e-05 3.7968202e-05 1.4527458e-05 1.0292406e-05 1.3052197e-05 3.029489e-05 3.8144302e-05
6.2020335e-06 2.2129166e-06 3.0460636e-05 1.5322476e-05 1.1932268e-06 2.1103438e-06 4.402449e-06 7.6534725e-06

exp_avg f4 [32]
00000000: 09ed 8c3a 2b0a 003b dc53 223b 1bb9 ccb9
00000010: 1e00 9939 20ae e6ba cb98 6d3a 243f 693b
00000020: 0755 ceba 2448 c83b f5db 0139 f836 acbb
00000030: 5336 48bb e924 1f3b 7582 9c3a 552c a2bb
00000040: ec13 a239 f4b3 4739 944a 15bc 544f 703a
00000050: 8373 dc3a 4a2a 5c39 0536 ccbb 93b2 d4b9
00000060: 21b8 03bc bb9f f63a f8c4 c3bb c488 c4bb
00000070: 6397 05bb e4e0 c3bb 9d48 e13b 465f 5fba
0.0010751794 0.001953731 0.0024769222 -0.00039047826 0.0002918252 -0.0017599501 0.00090636004 0.0035590613
-0.0015741893 0.0061121155 0.00012384339 -0.005255576 -0.0030549958 0.0024283475 0.0011940735 -0.0049491324
0.0003091389 0.00019045157 -0.009112019 0.0009167094 0.0016819093 0.00020996589 -0.0062320256 -0.0004056884
-0.008039505 0.0018815914 -0.0059744082 -0.005997749 -0.0020384423 -0.005977737 0.0068751113 -0.0008520972

exp_avg_sq f4 [32]
00000000: 2c58 1239 abbf de37 527c d438 8ab5 fc38
00000010: 6200 4d38 442c 1f39 de9f 0d38 e4b1 ad38
00000020: ae69 a439 b51a 6839 d581 3f39 f31d 1f39
00000030: 40f6 0c39 1791 e138 e910 3c39 12bb 5d39
00000040: 969b 3d38 4cfb d438 7aea 2239 da38 8638
00000050: cf8b 3039 816e 0c39 9478 2b39 23f6 9938
00000060: 8a2c 3d39 e60a ab38 5c68 5e39 b80f 2a39
00000070: 0515 1f39 660a f238 6fc9 d238 19c9 b438
0.00013956492 2.6553715e-05 0.00010132104 0.00012050111 4.8876165e-05 0.00015179912 3.3765908e-05 8.2824175e-05
0.00031359255 0.00022135193 0.00018263546 0.00015174579 0.00013443176 0.00010755861 0.00017935377 0.00021145892
4.5206012e-05 0.000101557554 0.00015536873 6.400207e-05 0.00016836751 0.00013392606 0.0001635275 7.341455e-05
0.00018041037 8.1559454e-05 0.00021210447 0.00016218319 0.00015171252 0.00011541396 0.000100511 8.620526e-05

exp_avg f4 [6, 32]
00000000: 0977 063b 6728 f93a ee88 6a3b 2258 c3bb
00000010: 5775 8fba 658c ebbb 01b8 4ab9 74b2 80ba
00000020: 47b2 763b 3575 3c3a 97ef 09bb 4f29 0cb8
00000030: db5c a3bb 1d26 37bb d618 ceba b8af 163b
00000040: 7509 88ba be6a 0bb9 d711 c2ba d5f7 8ebb
00000050: 6bba 5d3b 59e8 3d3b c0cc 93ba ab87 92bb
00000060: 88a1 86bb dc70 7cbb b4c2 92bb d704 8ebb
00000070: 5b3b 063a 1e56 a33b 70c6 9b3b 6e7c 823b
00000080: 300e c1b9 0fe2 96ba 6248 823b 2934 9bb9
00000090: ee9b 3eba 8584 f338 0169 a43b dcfd 88b8
000000a0: 6629 b5ba 8ae3 e8ba 1290 1639 c03b 233a
000000b0: 3f27 85ba cda8 a7bb 649a 65ba 3855 2b3b
000000c0: 7714 823b 13af 04bb 8beb 3fb9 b3f5 4e3a
000000d0: b106 e53a c698 9fbb f278 b43a 42ec b8bb
000000e0: 2355 69bb d8ac 9b3a f955 3d3b 08fa 86bb
000000f0: e72b 4e3b 9642 8b3b c853 32bc c8fd ac3a
00000100: fae5 86bb a326 643b 079f fe3a 75e9 a23b
00000110: 3622 0c3b 789c c1bb 677c 32bb 6763 813b
00000120: aad5 79ba aa09 7d3b b47c 9bb8 f6c3 85bb
00000130: 2e96 6abb 0d99 443b 33ab 18bb 64da cbbb
00000140: 6f24 2bbb dbba e63b 62c1 13bb 6969 cbbb
00000150: 6b3f c4b9 c241 8b3b 991e 82b9 1489 0dbb
00000160: 4253 9cbb b95f fdba 8ecd b6bb 6b3f 09bb
00000170: ce4b e3bb 99c4 3cbb f202 693c f9eb 213b
00000180: 6d7d ecba f75f 4eba 39e2 033b ac76 d63a
00000190: 1527 5bba dfda 4d3a 91ce 373b 3ade 7a3a
000001a0: cd68 a6ba 955f 2db9 7ce7 5c3b 5b32 6eba
000001b0: 58b0 43ba 427f e1ba e91c 733a c9e7 1539
000001c0: b4b3 2f3b 3691 aa39 5563 edb9 5912 8939
000001d0: 7e71 3a3a 39f8 2bbb 6e15 e03a fc36 4bbb
000001e0: a8bf daba 1666 e23a 22a2 3f3b 2dbd 42bb
000001f0: bca4 373b 907d cf3a d005 efbb 900e 2eba
00000200: ec3c fc3a ea57 89ba e828 9eba 2352 80ba
00000210: 421a 81b9 10c1 5e39 540f 823b 140f 23bb
00000220: c31e d33a a359 90ba db21 633a d196 013b
00000230: bdaf 3d3b b3f1 7ebb e91f fc3a 267c 293b
00000240: 2349 283a 75a8 83bb c6ee 0b3b 2142 6a3b
00000250: e35e 063b 35d2 8f3a 72b3 2e3b 3456 30ba
00000260: f33b 623b 2625 c2ba 94af 983b bb5c 8a3b
00000270: bfa8 0cbb 55d4 9e3a eab9 3abb af0b 023b
00000280: 0cea 5f39 ae18 1aba 9813 87bb 98b9 e23b
00000290: cbb8 1f3b 43a7 933b 2872 453b 618d 9039
000002a0: 9754 a0bb 2995 f2ba ea23 e8ba 9687 86b9
000002b0: 064c 5a3b f1b8 1eba 4d7c 993b bb59 b1ba
000002c0: 3b62 663b 507e 0eb9 bb39 2939 33f4 b03b
000002d0: 339d 37bb 558e 1ebb 2ce9 4e3a 3983 6d3b
000002e0: d917 8f3b a41a 673b 282f c03b 41fb 9a3b
000002f0: 8236 66ba 664e 70bb d1b4 a9bb 81ea 4dba
0.0020517728 0.0019009233 0.0035787183 -0.005961434 -0.0010945004 -0.007188367 -0.00019332768 -0.0009818808
0.0037642883 0.0007189096 -0.0021047348 -3.3417073e-05 -0.0049854345 -0.0027946301 -0.0015723954 0.002299292
-0.0010378795 -0.00013295838 -0.0014806342 -0.00436304 0.0033833038 0.0028977601 -0.001127623 -0.0044717393
-0.0041086115 -0.0038519418 -0.004478777 -0.004334073 0.0005120539 0.004984631 0.00475388 0.0039821183
-0.000368224 -0.0011511463 0.003975914 -0.00029602766 -0.000727116 0.000116118266 0.0050174003 -6.53227e-05
-0.0013821542 -0.0017768007 0.00014358785 0.000622686 -0.0010158791 -0.005116558 -0.0008758663 0.0026143324
0.0039697248 -0.0020245954 -0.00018302926 0.00078948884 0.0017473308 -0.004870507 0.0013768955 -0.0056433985
-0.0035603724 0.0011877073 0.0028890355 -0.0041191615 0.0031459273 0.004249881 -0.010884233 0.0013198191
-0.004116771 0.0034813068 0.0019426056 0.004971678 0.0021382696 -0.005908545 -0.0027234794 0.0039486173
-0.00095304346 0.0038610497 -7.414204e-05 -0.0040821983 -0.003579508 0.0029998452 -0.0023295402 -0.0062211026
-0.0026114245 0.007041318 -0.0022545685 -0.006207634 -0.00037431283 0.0042497823 -0.0002481833 -0.0021596598
-0.0047706673 -0.0019330896 -0.0055787032 -0.002094234 -0.006936527 -0.0028803705 0.014221894 0.00247073
-0.0018042751 -0.0007872576 0.0020123853 0.0016362271 -0.00083600107 0.0007852744 0.0028046707 0.00095698575
-0.0012696028 -0.00016534173 0.0033707311 -0.0009086483 -0.0007464937 -0.0017204063 0.00092740223 0.00014296094
0.0026809992 0.00032533117 -0.0004527817 0.00026144346 0.00071122486 -0.0026240482 0.001709623 -0.0031008115
-0.0016689198 0.0017272856 0.0029240926 -0.0029714808 0.0028021773 0.0015830267 -0.007294394 -0.0006639743
0.001924423 -0.0010478471 -0.0012066634 -0.0009790104 -0.0002462436 0.00021243491 0.0039691124 -0.0024880813
0.001610719 -0.0011013042 0.00086644077 0.0019773731 0.002894386 -0.0038901388 0.0019235584 0.0025861352
0.00064195896 -0.0040178844 0.0021352037 0.0035744982 0.0020503334 0.0010972681 0.002665725 -0.00067267125
0.0034520596 -0.0014812096 0.0046596024 0.00422248 -0.0021462885 0.0012117723 -0.002849216 0.001984339
0.00021354127 -0.00058783113 -0.004122209 0.006919097 0.002437162 0.004506023 0.0030127857 0.00027571156
-0.0048928964 -0.0018507588 -0.0017710899 -0.0002565949 0.0033309474 -0.000605478 0.0046840073 -0.001353077
0.0035153765 -0.0001358923 0.00016138602 0.0054002046 -0.0028017282 -0.0024193723 0.00078930217 0.0036241545
0.0043668565 0.0035263682 0.0058649965 0.004729659 -0.0008781926 -0.0036667823 -0.0051790257 -0.0007855073

exp_avg_sq f4 [6, 32]
00000000: e87d a637 5e06 2237 255d 4d37 98e5 6438
00000010: b80a ad37 facd c637 b9d0 9f38 abb0 0637
00000020: 0a60 dc37 b50b 8c37 a6d1 8638 b07b 5c37
00000030: 2446 d737 b006 1038 fab4 1038 e1bc 5f37
00000040: e425 1038 7e6a fb37 a2e0 0838 a517 5438
00000050: 781a 1b37 b0de 4238 6e8a e437 79a0 5338
00000060: 7840 d837 e069 a538 f0e3 6f38 d6b3 7638
00000070: 738e 1338 4f55 2a38 e725 f538 2c9d c437
00000080: 3482 b537 f182 7137 d17a 5d37 1a31 8538
00000090: 8ae0 ba37 6c07 b537 da9c b738 b9a1 0437
000000a0: 6013 0438 700d 5b37 48f1 8a38 1dcb 7d37
000000b0: 2191 9937 186b 1e38 4c10 1838 ed36 6037
000000c0: c8db 2338 5add dc37 94ec 1538 3d3f 5338
000000d0: 4033 3c37 e566 6c38 cfa5 fa37 487e 4d38
000000e0: 6587 d137 ff89 d238 2220 7c38 1eab 6738
000000f0: d961 1138 d8dd 0f38 0f5c 0d39 3aee 0f38
00000100: 9880 6d37 a988 1a37 d9d0 2437 850a 1238
00000110: f097 8737 ef52 9937 55a9 6538 69b8 e036
00000120: a56a 9537 660a 7937 f40d 6b38 592e 4e37
00000130: dda5 9037 d17b e937 65e9 bd37 ed77 6837
00000140: 5048 e237 4ac5 d737 4652 d937 1032 2a38
00000150: 696e 2237 a337 0a38 4269 ac37 87ff 1538
00000160: cce3 b037 3c0f 6838 49ed 2a38 38f5 2938
00000170: c0d5 0a38 2cd5 c337 e676 cd38 1d66 c237
00000180: f3fa 3e37 4d8e d036 508e d636 5414 eb37
00000190: d5c4 7e37 23b1 5937 93a3 4338 d7d4 8036
000001a0: 7c78 7137 e935 0537 9815 2238 e7ee 1937
000001b0: 0083 2637 1d96 9537 d916 8a37 a2ae 0437
000001c0: 7265 d237 d166 b137 0859 9e37 0e1a 1338
000001d0: ffdb ab36 63fd d537 5f3b 8137 b1a2 df37
000001e0: 9478 8437 d246 5138 d454 0638 2bdc 1a38
000001f0: 8271 cd37 296b 8737 01c5 a638 a889 8b37
00000200: 976a ee37 ff8a 9437 26e6 8a37 45dd ae38
00000210: a85d 3338 678b 0c38 1621 0839 e987 0f37
00000220: 0d70 3738 f426 9337 659b be38 3180 ca37
00000230: 5096 b537 d6b1 4138 3241 4638 2e19 a537
00000240: 033b 8638 49c6 6a38 77ca 4b38 1bdb c338
00000250: af06 5037 0713 a838 9264 1f38 cfc2 8938
00000260: fd59 2438 e025 1c39 ae23 b338 d4f5 c638
00000270: b538 6d38 ac0e 1c38 f17e 5939 998b 3738
00000280: 2e65 b437 5e9d 5a37 1a71 4a37 3cc5 9238
00000290: df92 e437 8a9e e837 fbe6 d438 2b47 0837
000002a0: 524b 1738 f1a4 8437 9634 9538 b8aa 9837
000002b0: f7c4 b237 2d11 2938 8076 1338 1ccc 6f37
000002c0: 2f00 5938 e9e2 0538 df5e 2d38 16cd 6b38
000002d0: bd52 2337 df4a 8638 418b f837 7f53 6338
000002e0: 4b71 e537 a9a5 fa38 6bb8 9238 6702 8138
000002f0: c59c 2038 04a1 0c38 5428 2a39 b934 0a38
1.9847372e-05 9.657435e-06 1.2240639e-05 5.4573262e-05 2.0628198e-05 2.3699355e-05 7.6205884e-05 8.028156e-06
2.6270765e-05 1.6694752e-05 6.428668e-05 1.314182e-05 2.5662659e-05 3.4338504e-05 3.4500823e-05 1.3335813e-05
3.4367564e-05 2.9971121e-05 3.2634132e-05 5.056676e-05 9.244883e-06 4.64606e-05 2.724418e-05 5.0455772e-05
2.5779227e-05 7.887534e-05 5.7194324e-05 5.8818456e-05 3.5180197e-05 4.061061e-05 0.0001168957 2.343821e-05
2.1637512e-05 1.4395207e-05 1.3201222e-05 6.35108e-05 2.2277487e-05 2.1580337e-05 8.755336e-05 7.905467e-06
3.1489297e-05 1.3056546e-05 6.625295e-05 1.5127266e-05 1.8306602e-05 3.7769874e-05 3.62548e-05 1.3364229e-05
3.9066916e-05 2.6329119e-05 3.57447e-05 5.0365215e-05 1.1217606e-05 5.6362613e-05 2.9879533e-05 4.8993417e-05
2.497779e-05 0.00010039284 6.0111408e-05 5.5234057e-05 3.466182e-05 3.4300465e-05 0.00013481102 3.4315723e-05
1.4156241e-05 9.210934e-06 9.823788e-06 3.481891e-05 1.6164006e-05 1.827764e-05 5.4755557e-05 6.6971884e-06
1.7811844e-05 1.4843978e-05 5.604136e-05 1.2289348e-05 1.7243374e-05 2.7833421e-05 2.2639239e-05 1.38562e-05
2.6974973e-05 2.5721867e-05 2.5906727e-05 4.0577783e-05 9.681659e-06 3.295358e-05 2.0553012e-05 3.5762347e-05
2.1086911e-05 5.53273e-05 4.0752147e-05 4.0521118e-05 3.3100834e-05 2.3345077e-05 9.797308e-05 2.3174152e-05
1.1383311e-05 6.215449e-06 6.3942643e-06 2.8023649e-05 1.5185408e-05 1.2975451e-05 4.6643963e-05 3.839475e-06
1.4392772e-05 7.93997e-06 3.864392e-05 9.175134e-06 9.924872e-06 1.7832086e-05 1.6461521e-05 7.908473e-06
2.508119e-05 2.1147922e-05 1.8876526e-05 3.5071796e-05 5.121808e-06 2.5509571e-05 1.5405645e-05 2.665943e-05
1.5791775e-05 4.989544e-05 3.2027092e-05 3.692151e-05 2.449076e-05 1.6143154e-05 7.952192e-05 1.6634192e-05
2.8421446e-05 1.77077e-05 1.6558053e-05 8.338181e-05 4.276415e-05 3.350843e-05 0.00012982296 8.555108e-06
4.3734955e-05 1.7541905e-05 9.0888505e-05 2.413997e-05 2.1646876e-05 4.618041e-05 4.7267597e-05 1.9681258e-05
6.40061e-05 5.5974615e-05 4.858753e-05 9.339136e-05 1.2399322e-05 8.0144084e-05 3.8002217e-05 6.568955e-05
3.9184455e-05 0.00014891429 8.542031e-05 9.487165e-05 5.6558016e-05 3.7206963e-05 0.00020742022 4.376061e-05
2.1504788e-05 1.30304525e-05 1.2066472e-05 6.99856e-05 2.724811e-05 2.773038e-05 0.00010151971 8.122802e-06
3.6071353e-05 1.5812433e-05 7.1146686e-05 1.819931e-05 2.1310972e-05 4.0308736e-05 3.5157893e-05 1.4293033e-05
5.1737003e-05 3.1920998e-05 4.133477e-05 5.6219367e-05 9.734821e-06 6.403564e-05 2.9628749e-05 5.419878e-05
2.7351683e-05 0.000119517856 6.996173e-05 6.151647e-05 3.8292976e-05 3.352856e-05 0.00016227487 3.2950866e-05

exp_avg f4 [6]
00000000: 2821 50b9 b133 893c a10f 0fbb 7ee2 573c
00000010: e8d9 6d3a ec2a 443b
-0.00019848777 0.016748281 -0.0021829384 0.013176559 0.0009073303 0.002993281

exp_avg_sq f4 [6]
00000000: 896f 3c3a 5bfd 613a 20c5 ff39 be2e ec39
00000010: a9f7 ab3a 8075 893a
0.0007188251 0.0008620822 0.0004878426 0.00045048253 0.0013120073 0.0010487288

exp_avg f4 [64, 26]
00000000: 455d d8b9 0000 0000 7fa3 3c3b 8f73 ad39
00000010: 0000 0000 1ee1 b33a 0000 0000 e543 02bb
00000020: 6da6 a43b b168 be3a ad7d 153b e21f 0cb9
00000030: 3fbf 54bc 528c 833a d68a 283a 4278 b6ba
00000040: a46a 2fbb 089d 943b 0da1 da3b 1a4c c2bb
00000050: 4d3e b03a d738 2d3b 36d5 8138 5434 213a
00000060: 0400 0080 0400 0080 acf9 cebb 0000 0000
00000070: 9b84 403a 7786 bd3b 0000 0000 0c53 de3b
00000080: 0000 0000 cea0 693b e3ed 903c 187d 94bb
00000090: 6b3e 19bc 7f7d e73b fc4b 053c 2788 123c
000000a0: 1498 093c a4d0 8bbb 54c9 063c 7aad 8b3c
000000b0: 8fca bbbc 2713 3b3c 3186 ce3c d500 b9b9
000000c0: 476b 2db9 04d5 253c 0400 0000 0400 0000
000000d0: 02e6 9f3a 0000 0000 7c39 193c 3c38 ac38
000000e0: 0000 0000 89aa 2e3b 0000 0000 9bca fcba
000000f0: 3b46 97bb 0973 4e3b b3f2 a73b 4a10 8dbb
00000100: 8fe8 eabb 417d a33b 53c5 25bb a62b 84ba
00000110: f500 463b 96f2 473b e572 7c3c c424 02bc
00000120: fbcf 0bbb 0d64 e939 dcdf d137 420b ffba
00000130: 0400 0080 0400 0080 be9d 9a3b 0000 0000
00000140: 20ee 0bbb be17 76bb 0000 0000 8fd1 8ab9
00000150: 0000 0000 a2a0 d6ba b7cf 63bc 7adf 8e3b
00000160: c048 bd3b 0cb6 25bc 60bb cb3b 3f0c 9039
00000170: cd13 15bc f17b 9bbb 7060 bcb9 c451 d1bb
00000180: 92fa 373c 15f5 3dbb 440d 72bc da1b 3ebb
00000190: bcfd d537 7eb4 b8bb 0400 0080 0400 0080
000001a0: 9ba6 64bb 0000 0000 9604 26bb 45ad 0a3b
000001b0: 0000 0000 89e6 5f3a 0000 0000 d15b 3c3a
000001c0: 8f66 4e3c 1f00 6abb 6734 6fbb daa5 f73b
000001d0: 1ce4 e8bb db22 8bba 887f c63b 8563 483b
000001e0: 2bac 3cbb 7891 623b d1e5 38bc 6af6 473b
000001f0: 8275 4d3c 86c9 803b 7773 cf36 a1ae b03b
00000200: 0400 0080 0400 0000 a899 a23a 0000 0000
00000210: 67eb 803c c0aa 9839 0000 0000 5d1a a4bb
00000220: 0000 0000 00a7 7f3a 3692 cabb b88a c93b
00000230: 9751 c7bb 04c2 15bc 82f2 9a39 0f99 afbb
00000240: 35f2 de3b 5548 1e3b 16e2 d5bb 43d2 8fbb
00000250: 3637 9d3c 7b8f 36bc 44a1 0ebc d50a 68bb
00000260: f5a5 1538 fee2 4f3b 0400 0080 0400 0080
00000270: 22ac f538 0000 0000 5dc7 ccba 0ca4 203a
00000280: 0000 0000 e93f 06ba 0000 0000 273e 97ba
00000290: 3df3 3e3b e130 ebb8 449b 353a 83cc 6e3a
000002a0: 96ce f0ba d146 8bba 29bd 22ba c272 9d3a
000002b0: 7527 deb9 39b1 8c3a 151d b5b9 fb20 3cba
000002c0: fc5d 5bba 91d0 db38 58bf 46b6 1196 06bb
000002d0: 0400 0080 0400 0080 857e 303b 0000 0000
000002e0: 031f ca3c 731c deba 0000 0000 5226 25bc
000002f0: 0000 0000 efd2 c239 ab54 01bc 35a3 2a3c
00000300: 788d 2bbc 8861 64bc 405b b0bb 4de0 3cbc
00000310: 516e 3b3c 12ba 163b 6e55 98bc ac13 1fbc
00000320: a716 1c3d 9b1f afbc e385 b1bc 2be6 5fbb
00000330: 7be1 ac38 def7 843b 0400 0080 0400 0080
00000340: d86f e3ba 0000 0000 1daf 823b 0c43 08bb
00000350: 0000 0000 99d3 613b 0000 0000 b37a 35bb
00000360: 98d0 3f3c 0a3e cbb9 9810 043b d998 28ba
00000370: 346b 09bd df43 063b 255a 893b 7e59 ddba
00000380: 2a5e 40bc 843a 8a3b dc4b 163c 10f6 60bc
00000390: b25a 083c a6af 383c 4477 8139 5c9a 463c
000003a0: 0400 0080 0400 0080 6e21 3239 0000 0000
000003b0: 4c24 07bb c8ea 1a3a 0000 0000 f94c c93a
000003c0: 0000 0000 2678 07bb ac99 773b 31dd 013a
000003d0: 5f09 503b 6089 c239 ce0d 9fbb f4d8 a03a
000003e0: 3072 f5ba 8755 21ba 22da 3db9 ba07 653b
000003f0: 0f08 7a3a 9c7d b3ba 3e07 083a 8838 df3a
-0.00041268222 0.0 0.0028783975 0.0003308323 0.0 0.0013723706 0.0 -0.0019876894
0.0050247223 0.001452705 0.0022810504 -0.00013363318 -0.01298505 0.0010036326 0.00064293796 -0.0013921338
-0.0026766444 0.004535321 0.006672031 -0.005929482 0.0013446301 0.0026431584 6.190913e-05 0.000614946
-6e-45 -6e-45 -0.0063163843 0.0 0.00073439785 0.0057838517 0.0 0.0067848023
0.0 0.0035648826 0.017691558 -0.004531514 -0.0093532605 0.007064521 0.008135792 0.008943594
0.008398075 -0.0042668153 0.008226711 0.017050494 -0.022923736 0.0114181405 0.025210472 -0.0003528657
-0.0001653853 0.010121588 6e-45 6e-45 0.0012199285 0.0 0.009352084 8.2120736e-05
0.0 0.002665194 0.0 -0.0019286455 -0.0046165264 0.0031501672 0.0051253675 -0.0043049203
-0.0071688364 0.0049892967 -0.0025294616 -0.0010083809 0.0030212973 0.0030509583 0.015408252 -0.007943336
-0.0021333683 0.00044515767 2.5018984e-05 -0.0019458311 -6e-45 -6e-45 0.0047185114 0.0
-0.002135165 -0.0037550773 0.0 -0.00026477544 0.0 -0.0016374777 -0.013904504 0.0043601366
0.0057764947 -0.010114204 0.006217405 0.00027474944 -0.009098959 -0.0047449996 -0.00035930006 -0.006387921
0.011229174 -0.0028985192 -0.014773671 -0.00290083 2.5509733e-05 -0.0056367507 -6e-45 -6e-45
-0.0034889344 0.0 -0.0025332323 0.0021160406 0.0 0.00085411273 0.0 0.00071853126
0.012597694 -0.0035705639 -0.003649974 0.007557613 -0.007107271 -0.0010615246 0.0060576834 0.0030576896
-0.0028789144 0.003457157 -0.011285261 0.0030511864 0.012540223 0.0039302735 6.1825226e-06 0.005391911
-6e-45 6e-45 0.0012405412 0.0 0.015737249 0.00029118918 0.0 -0.0050080256
0.0 0.0009752363 -0.0061819805 0.0061505698 -0.0060827243 -0.009140495 0.0002955385 -0.005358822
0.0068037757 0.0024152 -0.0065271957 -0.004389079 0.019191366 -0.011142607 -0.008705441 -0.0035406847
3.5678928e-05 0.0031720991 -6e-45 -6e-45 0.000117145726 0.0 -0.001562338 0.00061279605
0.0 -0.00051212177 0.0 -0.0011538909 0.002913668 -0.000112147776 0.00069277384 0.0009109454
-0.0018372114 -0.0010625963 -0.00062079966 0.001201235 -0.00042372537 0.0010733969 -0.00034544678 -0.00071765453
-0.0008368192 0.00010481582 -2.9615676e-06 -0.0020536224 -6e-45 -6e-45 0.002693088 0.0
0.02467299 -0.0016945734 0.0 -0.010079937 0.0 0.0003715972 -0.007893722 0.010414888
-0.0104707405 -0.013939269 -0.0053819716 -0.011528087 0.011439876 0.002299909 -0.018595424 -0.00970928
0.03810754 -0.021377375 -0.021670287 -0.003416429 8.243598e-05 0.0040578684 -6e-45 -6e-45
-0.0017352058 0.0 0.0039881603 -0.0020791916 0.0 0.0034458397 0.0 -0.0027691543
0.0117074475 -0.000387654 0.0020151492 -0.00064314675 -0.033549502 0.0020487232 0.0041916543 -0.0016887633
-0.0117412 0.0042184014 0.00917336 -0.013730541 0.008322405 0.011272347 0.00024693657 0.012121763
-6e-45 -6e-45 0.00016987856 0.0 -0.0020621 0.0005909619 0.0 0.0015358023
0.0 -0.002067098 0.0037780805 0.00049539196 0.0031743867 0.00037104916 -0.0048539406 0.0012271688
-0.0018726047 -0.0006154407 -0.00018105705 0.0034947232 0.0009537944 -0.0013694051 0.00051890675 0.0017030397
