flare/polgrad/lightning_logs/version_44/checkpoints/epoch=8.ckpt (torch_old, 153006 bytes, 36 tensors)

exp_avg f4 [6]
0.0009470907 0.0016358849 -2.380216e-05 0.007109918 0.0028402477 0.0040384303
00000000: 2e46 783a 306b d63a c0aa c7b7 51fa e83b
00000010: 7323 3a3b cf54 843b

exp_avg_sq f4 [6]
8.538829e-05 5.7205503e-05 8.8429486e-05 0.00017627086 0.000115819676 0.00015141633
00000000: 7d12 b338 f1ef 6f38 3873 b938 59d5 3839
00000010: 37e4 f238 83c5 1e39

exp_avg f4 [64, 26]
6.313453e-06 0.0 -6.0814124e-05 0.00013176662 0.0 0.00010480061 0.0 3.730995e-05
0.00014766185 0.00018977116 -0.0005318301 -0.00023471848 0.0002551665 -0.0002538377 -5.86866e-05 -0.00022335134
0.00024337464 -9.066815e-05 4.6985995e-05 8.280433e-05 -0.00015635858 -0.00017287415 7.775566e-05 6.6892964e-05
2.0736481e-05 -0.00015093948 6.523073e-05 0.0 6.796147e-05 -5.5377208e-05 0.0 1.5553893e-05
0.0 5.3424148e-05 9.878895e-06 2.2224354e-05 -9.277706e-05 -0.00018304108 0.00011378818 0.000105436564
-3.9368173e-05 1.4678144e-06 -3.275731e-05 0.00035033928 -0.00018892012 -7.232855e-05 0.00015492876 -0.00026039747
0.00017110066 -0.00019777584 -7.8453086e-05 0.00013730502 9.450919e-05 0.0 -0.00041911207 -8.289563e-05
0.0 7.635127e-05 0.0 9.098009e-06 0.00053014077 1.5006859e-05 -8.1282175e-05 -0.00021517466
-0.0003587282 6.445182e-05 -0.000294287 3.9648654e-05 0.00024188567 0.00054762117 -0.0003888128 0.0006111164
0.0001306373 -0.00024704146 1.069043e-05 -0.00045390482 -0.00017591132 5.1882595e-05 0.0002532279 0.0
-0.00011007557 -0.00019077832 0.0 2.972065e-06 0.0 -0.00022904751 0.00037312516 -0.0003676989
0.00012216569 -9.495532e-05 -0.00025948146 0.000291263 -0.00036901762 0.00059984124 -0.0001343941 -0.00022601959
-0.0002571032 0.0008415131 0.00017919857 -1.5775971e-05 7.766083e-05 -0.00035250233 -0.00018118495 -7.740316e-05
0.0005572901 0.0 -0.0005310595 0.00016086905 0.0 0.00024012427 0.0 -0.00029648416
-0.0011916837 7.4176685e-05 0.0005603264 -0.00018862076 -3.778605e-05 0.00017300528 -0.0006539477 0.00012242004
-0.00073447445 9.606843e-05 0.00071093463 -0.00018839598 -0.00078499917 -3.9740233e-05 -1.2932137e-05 -0.00042496534
3.6050697e-05 -0.00039200395 9.876723e-05 0.0 0.0002695449 0.00015632801 0.0 8.4876865e-06
0.0 0.00013389095 -0.0003339571 0.00014034554 -0.00058400905 0.0004622929 0.00021154966 -0.00047739272
0.00020944758 0.00028836113 0.00029600642 -0.00067328266 0.0001667466 -0.00022838898 0.000107301625 2.917742e-05
-3.5191093e-05 1.1619128e-05 -2.6771922e-05 -0.00012814495 -3.0412716e-06 0.0 8.146782e-05 4.085844e-05
0.0 0.00012556704 0.0 -4.7574802e-05 -9.290235e-05 1.4190347e-05 -6.2077226e-05 9.545214e-05
-3.6085075e-05 -7.170345e-05 0.00018730771 -0.00019243518 7.722689e-05 5.6814082e-05 5.9852464e-05 -0.00025521504
4.6821195e-05 6.3680796e-05 3.2461292e-05 6.2416766e-05 -7.9338635e-05 0.0001045552 0.0001704953 0.0
-0.00011803837 3.371969e-05 0.0 -2.4961872e-05 0.0 -0.00013933181 -0.0008490572 -0.0003479581
0.00022837185 0.00035638956 -8.045902e-05 -0.00053107523 -6.5399734e-05 -2.669754e-05 0.00019572557 -0.00071500207
0.00075256184 0.0007399044 -0.00022678054 -0.00034598107 -7.482069e-05 -7.038945e-05 0.0001866247 -0.00017209767
-0.00037331178 0.0 -0.00029074718 3.6566358e-05 0.0 -0.0002016944 0.0 0.0001874311
0.00050921994 -0.00022010476 0.00023700015 -0.00021324259 7.048501e-05 -7.136888e-05 -6.22779e-05 0.0005084856
0.00066538143 -0.0002336291 -0.00015727567 0.00031749666 0.00022249877 -0.00044326665 -0.0001104768 4.5327914e-05
0.00030977756 -0.00019178788 -0.00012384553 0.0 -0.0007487343 0.0001340163 0.0 -0.00012798172
0.0 0.0001910671 -0.00015500898 0.0001738982 -0.00014533721 -4.0161798e-05 0.000105340616 -7.5283366e-05
-0.00030400357 -0.00021569029 0.0008783859 -0.0004729509 0.00045771437 7.9728736e-05 -0.0004720885 -0.0006505857
00000000: 26d8 d336 0000 0000 ab12 7fb8 d52a 0a39
00000010: 0000 0000 66c8 db38 0000 0000 417d 1c38
00000020: add5 1a39 4ffd 4639 846a 0bba c31e 76b9
00000030: dec7 8539 8515 85b9 4226 76b8 6b33 6ab9
00000040: 6232 7f39 1825 beb8 d412 4538 3ca7 ad38
00000050: 30f4 23b9 8d45 35b9 c110 a338 e348 8c38
00000060: 41f3 ad37 8245 1eb9 7bcc 8838 0000 0000
00000070: 8986 8e38 d344 68b8 0000 0000 bb79 8237
00000080: 0000 0000 be13 6038 88bd 2537 706e ba37
00000090: 4e91 c2b8 b7ee 3fb9 90a1 ee38 d31d dd38
000000a0: 411f 25b8 b801 c535 e564 09b8 bead b739
000000b0: dc18 46b9 18af 97b8 5f74 2239 f585 88b9
000000c0: 7c69 3339 0c62 4fb9 2e87 a4b8 89f9 0f39
000000d0: 3c33 c638 0000 0000 45bc dbb9 41d8 adb8
000000e0: 0000 0000 c71e a038 0000 0000 a7a3 1837
000000f0: 25f9 0a3a f8c5 7b37 0976 aab8 82a0 61b9
00000100: af13 bcb9 4f2a 8738 884a 9ab9 6b4c 2638
00000110: b1a2 7d39 3c8e 0f3a 92d9 cbb9 5433 203a
00000120: affb 0839 5885 81b9 0c5b 3337 13fa edb9
00000130: d674 38b9 839c 5938 acc3 8439 0000 0000
00000140: 5fd8 e6b8 aa0b 48b9 0000 0000 b073 4736
00000150: 0000 0000 792c 70b9 03a0 c339 b6c7 c0b9
00000160: 9a19 0039 c022 c7b8 030b 88b9 a8b4 9839
00000170: b578 c1b9 aa3e 1d3a 24ec 0cb9 acff 6cb9
00000180: cfcb 86b9 fd98 5c3a 40e7 3b39 a456 84b7
00000190: d7dd a238 10d0 b8b9 77fc 3db9 8153 a2b8
000001a0: 1b17 123a 0000 0000 cd36 0bba f5ae 2839
000001b0: 0000 0000 dec9 7b39 0000 0000 6e71 9bb9
000001c0: 4532 9cba 4e8f 9b38 dee2 123a 80c8 45b9
000001d0: 767c 1eb8 c068 3539 b06d 2bba e15d 0039
000001e0: bf89 40ba 5878 c938 045e 3a3a 298c 45b9
000001f0: 67c8 4dba c0ae 26b8 1bf7 58b7 e2cd deb9
00000200: 2435 1738 e185 cdb9 4121 cf38 0000 0000
00000210: b451 8d39 fbeb 2339 0000 0000 5666 0e37
00000220: 0000 0000 1465 0c39 f716 afb9 b829 1339
00000230: 2f18 19ba e75f f239 6ed3 5d39 914a fab9
00000240: 289f 5b39 2d2f 9739 4f31 9b39 3c7f 30ba
00000250: b3d8 2e39 b37b 6fb9 1f07 e138 08c2 f437
00000260: 269a 13b8 c6ef 4237 4494 e0b7 a65e 06b9
00000270: a618 4cb6 0000 0000 b4d9 aa38 6a5f 2b38
00000280: 0000 0000 a5aa 0339 0000 0000 0e8b 47b8
00000290: 92d4 c2b8 1413 6e37 752f 82b8 7a2d c838
000002a0: 0e5a 17b8 7f5f 96b8 0868 4439 6dc8 49b9
000002b0: dff4 a138 a84b 6e38 180a 7b38 62ce 85b9
000002c0: e061 4438 5e8c 8538 0c27 0838 bfe5 8238
000002d0: 9b62 a6b8 a544 db38 fcc6 3239 0000 0000
000002e0: 5e8b f7b8 3e6e 0d38 0000 0000 3665 d1b7
000002f0: 0000 0000 9919 12b9 4493 5eba 256e b6b9
00000300: 1a77 6f39 ccd9 ba39 1cbc a8b8 db37 0bba
00000310: 3727 89b8 88f4 dfb7 af3b 4d39 fa6e 3bba
00000320: 9247 453a 25f6 413a f0cb 6db9 cb64 b5b9
00000330: 0de9 9cb8 0c9e 93b8 b0b0 4339 1e75 34b9
00000340: 0fb9 c3b9 0000 0000 6d6f 98b9 d45e 1938
00000350: 0000 0000 ee7d 53b9 0000 0000 2789 4439
00000360: 2c7d 053a eccb 66b9 3e83 7839 df99 5fb9
00000370: 5ad1 9338 e0ab 95b8 319b 82b8 e44b 053a
00000380: fe6c 2e3a 56fa 74b9 5eea 24b9 ae75 a639
00000390: 8f4e 6939 3e66 e8b9 c8af e7b8 7a1e 3e38
000003a0: a469 a239 ab1a 49b9 88dc 01b9 0000 0000
000003b0: b546 44ba ba86 0c39 0000 0000 d532 06b9
000003c0: 0000 0000 2f59 4839 e889 22b9 7158 3639
000003d0: a965 18b9 6773 28b8 50ea dc38 73e1 9db8
000003e0: ab62 9fb9 ec2a 62b9 7b43 663a 65f6 f7b9
000003f0: 62f9 ef39 0a34 a738 a582 f7b9 118c 2aba

exp_avg_sq f4 [64, 26]
1.9820926e-07 0.0 1.318198e-06 4.5121883e-08 0.0 2.2488615e-08 0.0 4.335648e-08
4.9916525e-07 1.00082744e-07 4.2739921e-07 1.851202e-07 5.812643e-07 1.9336787e-07 7.4488e-07 1.668205e-07
4.0833055e-07 3.424266e-07 7.1934096e-07 4.8000163e-07 4.4779958e-07 6.71974e-07 8.526092e-08 8.642369e-07
5.0865662e-08 2.8903312e-07 3.7254004e-08 0.0 2.6685524e-07 1.09989475e-08 0.0 1.0373326e-08
0.0 1.1777389e-08 9.337059e-08 2.5875702e-08 1.0161658e-07 3.6506947e-08 1.7313297e-07 6.053222e-08
1.6180611e-07 4.0501515e-08 2.2561844e-07 1.2015091e-07 1.5414221e-07 1.6336251e-07 9.943999e-08 2.027887e-07
1.8317685e-08 2.077279e-07 1.862323e-08 7.954457e-08 1.6969105e-07 0.0 1.0980775e-06 1.9837497e-08
0.0 1.8024043e-08 0.0 5.108647e-08 5.824423e-07 5.3203124e-08 3.9608028e-07 9.245997e-08
4.9645126e-07 1.6370485e-07 7.668035e-07 9.120834e-08 2.6384467e-07 2.1283971e-07 5.133642e-07 3.9635498e-07
4.7705896e-07 6.384627e-07 6.122076e-08 7.466987e-07 4.706205e-08 2.8842788e-07 4.828134e-07 0.0
3.105372e-06 5.3080687e-08 0.0 3.7853866e-08 0.0 1.344068e-07 1.3021362e-06 1.1940162e-07
9.739548e-07 1.6516795e-07 1.1985301e-06 2.1034504e-07 1.8838347e-06 2.5737398e-07 7.565196e-07 5.088276e-07
1.4920317e-06 7.5311334e-07 1.2107836e-06 1.8055407e-06 1.4498283e-07 1.9725462e-06 1.7432497e-07 5.503814e-07
2.9052936e-07 0.0 1.8745612e-06 7.189274e-08 0.0 4.8764115e-08 0.0 7.280457e-08
8.097705e-07 1.2052975e-07 5.829452e-07 1.3838772e-07 9.0877955e-07 3.1776332e-07 1.0375351e-06 3.9518858e-07
8.7725175e-07 8.05887e-07 1.072586e-06 5.5496963e-07 6.879463e-07 1.2424721e-06 9.542537e-08 1.226752e-06
1.2156436e-07 3.7464056e-07 6.40152e-07 0.0 4.0384293e-06 5.0434835e-08 0.0 4.161066e-08
0.0 1.170071e-07 1.6659458e-06 1.083846e-07 1.0915501e-06 1.8087171e-07 1.4006807e-06 4.2594593e-07
2.3150594e-06 2.7698957e-07 8.661188e-07 7.2771945e-07 1.5381256e-06 5.906484e-07 1.5292802e-06 1.9258807e-06
1.6166416e-07 1.951529e-06 1.1893625e-07 5.395691e-07 1.7263238e-07 0.0 1.1554356e-06 3.084175e-08
0.0 2.1581684e-08 0.0 3.880418e-08 4.4594688e-07 5.944545e-08 3.7464875e-07 1.1978592e-07
5.750944e-07 1.8014443e-07 5.717686e-07 1.3130193e-07 6.080768e-07 3.998159e-07 6.602327e-07 4.1331668e-07
3.9498047e-07 7.163108e-07 7.226155e-08 6.478727e-07 4.8085454e-08 2.2364026e-07 1.2580371e-07 0.0
8.437644e-07 3.508411e-08 0.0 5.6564147e-08 0.0 4.3408235e-08 4.63239e-07 8.7811145e-08
3.0753336e-07 1.1035622e-07 5.661344e-07 3.34738e-07 5.0413723e-07 1.7998845e-07 3.4092616e-07 3.6484585e-07
6.3254276e-07 5.2579014e-07 3.6381525e-07 7.413964e-07 1.2504037e-07 5.7275685e-07 6.258957e-08 3.6283436e-07
4.0402102e-07 0.0 2.553865e-06 5.239119e-08 0.0 9.174526e-08 0.0 9.651813e-08
1.042401e-06 1.350301e-07 7.5007335e-07 1.9276365e-07 1.0203273e-06 2.9943772e-07 1.5025752e-06 3.0772782e-07
7.098688e-07 8.371785e-07 1.3628094e-06 7.9214493e-07 8.7024637e-07 1.579648e-06 1.9693523e-07 1.4652131e-06
1.1053921e-07 4.9802844e-07 2.6812916e-07 0.0 1.8186175e-06 5.79038e-08 0.0 4.656794e-08
0.0 7.732353e-08 9.292608e-07 1.03039305e-07 6.5363935e-07 2.00903e-07 9.806353e-07 3.555483e-07
1.0027405e-06 3.095526e-07 1.0264563e-06 8.287114e-07 9.358531e-07 6.058779e-07 7.2854544e-07 1.2470596e-06
00000000: 59d3 5434 0000 0000 f0ec b035 09cc 4133
00000010: 0000 0000 fd2c c132 0000 0000 f436 3a33
00000020: 60fe 0535 12ed d633 4d75 e534 74c5 4634
00000030: 2e08 1c35 8ea0 4f34 c4f3 4735 451f 3334
00000040: 8638 db34 c1d6 b734 bc18 4135 76d9 0035
00000050: 1b69 f034 b461 3435 b018 b733 e8fd 6735
00000060: 6377 5a33 692c 9b34 3601 2033 0000 0000
00000070: 4e44 8f34 e2f5 3c32 0000 0000 5f36 3232
00000080: 0000 0000 8155 4a32 0683 c833 4545 de32
00000090: 4e38 da33 d0cb 1c33 6ee6 3934 f1fd 8133
000000a0: edbc 2d34 e3f3 2d33 8641 7234 d502 0134
000000b0: 4a82 2534 bf68 2f34 b68b d533 22be 5934
000000c0: 0459 9d32 cf0b 5f34 eaf8 9f32 17d2 aa33
000000d0: 5234 3634 0000 0000 a861 9335 1e67 aa32
000000e0: 0000 0000 4ad3 9a32 0000 0000 2b6a 5b33
000000f0: 2159 1c35 7481 6433 dca4 d434 688e c633
00000100: df43 0535 d9c6 2f34 56d6 4d35 51de c333
00000110: 89a6 8d34 ef88 6434 1fce 0935 9dca d434
00000120: 3e0f 0035 d362 2b35 7878 8333 be70 4835
00000130: 4521 4a33 3ad9 9a34 af9a 0135 0000 0000
00000140: e265 5036 d5fa 6333 0000 0000 c494 2233
00000150: 0000 0000 7651 1034 0fc5 ae35 de34 0034
00000160: d5b8 8235 0559 3134 2edd a035 34db 6134
00000170: 11d8 fc35 362d 8a34 a213 4b35 5e96 0835
00000180: d241 c835 8e29 4a35 3582 a235 e855 f235
00000190: 94ac 1b34 1660 0436 152e 3b34 ecbd 1335
000001a0: 0dfa 9b34 0000 0000 6f99 fb35 7463 9a33
000001b0: 0000 0000 b670 5133 0000 0000 bc58 9c33
000001c0: 015f 5935 f76a 0134 b07b 1c35 ba97 1434
000001d0: dbf2 7335 0f99 aa34 6f41 8b35 4e2a d434
000001e0: 487c 6b35 2254 5835 c6f5 8f35 39f9 1435
000001f0: 4fab 3835 04c3 a635 a7ec cc33 e1a6 a435
00000200: 5b87 0234 3522 c934 e9d6 2b35 0000 0000
00000210: d881 8736 b09d 5833 0000 0000 68b7 3233
00000220: 0000 0000 5545 fb33 7699 df35 10c1 e833
00000230: 6081 9235 a335 4234 06ff bb35 90ad e434
00000240: 6b5c 1b36 28b5 9434 3b7f 6835 8058 4335
00000250: 9871 ce35 0d8d 1e35 ab41 cd35 613e 0136
00000260: e895 2d34 03f7 0236 e569 ff33 e8d6 1035
00000270: d45c 3934 0000 0000 7714 9b35 dd76 0433
00000280: 0000 0000 a062 b932 0000 0000 a6a9 2633
00000290: 796a ef34 f750 7f33 5523 c934 819e 0034
000002a0: 3060 1a35 b96d 4134 a47b 1935 00fc 0c34
000002b0: b83a 2335 47a6 d634 d83a 3135 d0e5 dd34
000002c0: b40d d434 8148 4035 352e 9b33 79e9 2d35
000002d0: 8486 4e33 c421 7034 a914 0734 0000 0000
000002e0: 0c7f 6235 63af 1633 0000 0000 f0f0 7233
000002f0: 0000 0000 dc6f 3a33 15b3 f834 b092 bc33
00000300: 101b a534 f9fc ec33 76f8 1735 0ab6 b334
00000310: 0c54 0735 d942 4134 8908 b734 08e0 c334
00000320: 02cc 2935 0624 0d35 6352 c334 5f04 4735
00000330: d642 0634 8dbf 1935 fb68 8633 93cb c234
00000340: 3ae8 d834 0000 0000 1163 2b36 b904 6133
00000350: 0000 0000 7d05 c533 0000 0000 6745 cf33
00000360: a0e8 8b35 cbfc 1034 a658 4935 78fa 4e34
00000370: 2ef2 8835 68c2 a034 17ac c935 ca35 a534
00000380: d08d 3e35 78ba 6035 c6e9 b635 c9a3 5435
00000390: e09a 6935 4b04 d435 2575 5334 57a8 c435
000003a0: 9361 ed33 41b0 0535 64f3 8f34 0000 0000
000003b0: 3917 f435 e7b1 7833 0000 0000 fe01 4833
000003c0: 0000 0000 0f0d a633 5172 7935 7546 dd33
000003d0: c175 2f35 ccb7 5734 5f9e 8335 30e2 be34
000003e0: e795 8635 9630 a634 c5c4 8935 9d74 5e35
000003f0: 5637 7b35 9da3 2235 4391 4335 a460 a735

exp_avg f4 [64]
-6.0814138e-05 6.7961475e-05 -0.00041911192 -0.00011007586 -0.00053105934 0.00026954515 8.1467995e-05 -0.0001180381
-0.00029074724 -0.0007487327 0.00014654544 0.00064090954 -0.0005058421 7.8920086e-05 -0.00033295338 -0.00013393148
-0.00033023843 -0.00020815618 -0.00023760967 0.00011773902 -6.5981214e-05 3.869383e-05 -1.1662933e-05 -0.00025974095
-0.00026492224 5.418089e-05 -0.00010135216 3.0677584e-05 3.2290154e-05 -0.00023336244 1.5888836e-06 -6.42315e-05
5.5258188e-05 0.0001815557 -0.00035550463 0.00023045069 -0.00050323183 -0.00010568848 -6.730641e-05 -0.0005864449
0.00017650638 8.840379e-05 -0.00019445569 -0.00031672997 -9.569984e-05 0.00017425808 -2.0854579e-05 5.063947e-05
0.00011510248 -0.0004119011 0.0005075128 -9.593918e-05 0.0001471595 2.4856497e-05 0.00061403203 0.00019154209
5.4521253e-05 0.00022646843 5.9094345e-05 -0.00042765276 -0.00072401424 -1.4390672e-05 -0.00013227767 0.0001867821
00000000: af12 7fb8 8a86 8e38 40bc dbb9 87d8 e6b8
00000010: ca36 0bba bd51 8d39 ccd9 aa38 398b f7b8
00000020: 6f6f 98b9 9a46 44ba fea9 1939 b602 283a
00000030: 7d9a 04ba e681 a538 3f90 aeb9 f56f 0cb9
00000040: da23 adb9 8044 5ab9 dc26 79b9 a8ea f638
00000050: 655f 8ab8 2f4b 2238 eaab 43b7 d72d 88b9
00000060: 43e5 8ab9 4a40 6338 078d d4b8 ceab 0038
00000070: 4a6f 0738 c1b2 74b9 a041 d535 06b4 86b8
00000080: 07c5 6738 fd5f 3e39 0663 bab9 23a5 7139
00000090: 51eb 03ba 12a5 ddb8 db26 8db8 a7bb 19ba
000000a0: 9214 3939 6c65 b938 cde6 4bb9 c70e a6b9
000000b0: 76b2 c8b8 0cb9 3639 def0 aeb7 b865 5438
000000c0: 2c63 f138 6ef4 d7b9 9c0a 053a f432 c9b8
000000d0: d44e 1a39 ec82 d037 fef6 203a b0d8 4839
000000e0: c0ad 6438 2878 6d39 12dc 7738 9536 e0b9
000000f0: c6cb 3dba 776f 71b7 04b4 0ab9 f0da 4339

exp_avg_sq f4 [64]
1.3181982e-06 2.6685515e-07 1.0980775e-06 3.1053723e-06 1.8745608e-06 4.038429e-06 1.1554359e-06 8.437645e-07
2.5538643e-06 1.8186176e-06 2.0074028e-06 1.3418078e-06 3.2133264e-06 6.3438637e-07 9.037884e-07 3.087825e-06
2.015913e-06 1.7560684e-06 2.4732344e-06 2.1634626e-06 2.5259706e-07 2.7498331e-06 8.0730763e-07 1.5693174e-06
1.1436185e-06 3.468953e-06 4.6339065e-07 9.803236e-07 2.2854466e-07 1.0536384e-06 4.346347e-06 2.5005656e-06
7.489808e-07 6.0016276e-07 4.003304e-06 1.3874519e-06 2.538748e-06 7.2960285e-07 1.4081285e-06 3.4275752e-06
8.5644837e-07 9.220438e-07 2.505471e-06 1.5575748e-06 1.8793073e-06 5.7318202e-06 1.194212e-06 4.326563e-06
2.10793e-06 7.504084e-07 7.2662294e-07 1.0194242e-06 8.849898e-07 8.597758e-07 2.6596658e-06 4.886542e-06
3.980892e-06 1.0385082e-06 1.713755e-06 1.0766151e-06 5.6489796e-07 2.9684114e-07 9.197698e-07 7.8518383e-07
00000000: f2ec b035 4b44 8f34 a861 9335 e465 5036
00000010: 6b99 fb35 d781 8736 7a14 9b35 0e7f 6235
00000020: 0e63 2b36 3a17 f435 ebb6 0636 2a18 b435
00000030: 87a4 5736 b34a 2a35 de9b 7235 6e38 4f36
00000040: 1f49 0736 0db2 eb35 d8f9 2536 0130 1136
00000050: ad9c 8734 c689 3836 c2b5 5835 56a1 d235
00000060: 6f7e 9935 29cc 6836 edc7 f834 aa93 8335
00000070: e165 7534 bd6a 8d35 d6d6 9136 64cf 2736
00000080: 920d 4935 df1a 2135 1f54 8636 7c38 ba35
00000090: 5c5f 2a36 edd9 4335 edfe bc35 4b05 6636
000000a0: afe6 6535 5e82 7735 aa23 2836 dd0d d135
000000b0: 823c fc35 f653 c036 d048 a035 e52c 9136
000000c0: f675 0d36 ac6f 4935 260d 4335 26d3 8835
000000d0: 0990 6d35 58cb 6635 b67c 3236 13f7 a336
000000e0: 9a93 8536 df62 8b35 2c04 e635 3780 9035
000000f0: 7ea3 1735 895d 9f34 19e6 7635 6cc5 5235

exp_avg f4 [64, 64]
-2.40202e-05 -0.0003160907 -5.0729424e-05 -6.6422515e-05 0.00028836937 -6.235385e-05 4.048643e-05 0.00016913166
5.5636658e-05 -7.689383e-05 1.661471e-05 4.9645816e-05 7.1772876e-05 -0.00016149852 -1.5892694e-05 9.741339e-05
-3.9067185e-05 -6.1024177e-05 1.18449625e-05 -3.054233e-05 -1.3116345e-05 0.00014878082 4.3478725e-05 -5.2058385e-05
-3.2579755e-06 -2.596801e-06 -0.00016298992 -2.785661e-05 -0.00016454175 -6.0862703e-07 0.00019623818 -4.2680576e-06
-5.6107063e-05 0.00015908622 -0.00011214342 1.1957205e-05 7.4057774e-05 6.3376765e-06 -1.4518864e-06 3.6205056e-05
-9.2811446e-05 -2.6366697e-06 6.996725e-05 0.000121419755 -0.000101862344 5.704287e-06 2.539009e-07 -0.00011939387
-0.00011909171 -1.8817916e-05 -7.980848e-05 5.9896673e-05 -4.5025576e-05 -0.00010619544 -4.7391848e-05 -9.789731e-05
6.8507776e-05 4.927034e-05 0.00013822911 -0.00015607965 -0.00010889072 0.00010726326 -0.000116239295 -0.00038394926
-0.00025916906 -0.00025481905 -0.00021228369 0.00011540571 0.00053053023 -7.2366092e-06 0.00019688779 0.00029988063
4.631206e-05 -0.00022941592 -9.7196695e-05 6.370521e-05 2.3183084e-06 -3.0395217e-05 0.00019483142 0.00020152099
5.951738e-05 -0.00012925053 -0.00025877304 -0.0001438829 0.00021088103 -1.3817551e-05 -0.00026142367 5.3711898e-05
-4.391405e-05 0.00016105713 -0.00019035501 9.0608155e-05 5.8487203e-06 -8.509443e-05 -4.5361076e-06 -0.00011864393
0.00019409666 6.67186e-05 -6.97677e-05 0.00012691611 7.2913936e-05 -2.3870598e-05 -5.2331627e-05 -5.4237073e-05
-1.7090899e-05 2.5586094e-05 0.00010883376 -8.861967e-06 6.651138e-05 8.557725e-06 -6.833523e-05 -0.00016957245
-0.0001655706 1.00447505e-05 3.130295e-05 2.5982348e-05 -7.868036e-05 3.0750198e-06 -1.0549125e-05 -7.5884964e-05
3.4005418e-05 -0.00010525835 -0.00015911339 -0.00028315908 -0.00020018684 1.6434436e-05 0.00012616607 -0.00029225406
-0.00019321675 0.00041163643 -8.251262e-05 7.251871e-05 -1.1039716e-05 -4.39045e-05 -3.7542162e-05 -0.00027864313
3.6714315e-05 -7.3657655e-05 0.00014524857 -0.00031453196 -6.212653e-05 5.1316292e-05 -0.00013994973 0.00015317582
0.000161671 -0.00016197305 -0.00020012721 -8.305791e-05 2.8857648e-05 -0.0001237895 -5.9000864e-05 0.00023596534
0.00025965023 0.00013239511 9.844758e-05 -4.761214e-05 0.000199935 -6.705444e-05 -0.00020152342 -0.00015071487
7.2213355e-05 -8.309189e-05 0.00021479726 7.34742e-05 0.0002348963 3.623318e-05 0.00011304903 -0.00021218398
0.00016051366 -0.00012203808 8.883272e-05 -0.00014717192 0.00042334557 9.181028e-05 6.432083e-05 4.3998632e-05
0.00021144749 6.841241e-05 0.00026015483 -0.00021383006 0.00024692697 0.00017895573 0.00018158171 0.00014125378
0.00015743592 -2.0322768e-06 6.697893e-05 9.263774e-05 -0.0001012062 7.676673e-05 0.0001236011 -4.8970192e-05
0.00019657385 0.00027327123 0.0002045174 0.000120419674 -0.0003320366 0.00018228187 -8.732326e-05 -0.00012327726
-9.626542e-05 8.725302e-05 -0.00011168007 6.7362205e-05 -0.0001249279 7.497508e-05 -2.5786305e-05 -6.184375e-05
5.5344746e-05 0.00013145321 0.00012547529 -8.829502e-06 6.0993843e-05 -7.5997654e-05 3.210589e-05 0.0001999344
-1.0400072e-05 9.843921e-05 9.070196e-05 3.0429372e-05 0.00016158984 8.525381e-05 -0.00012687314 -0.00010060506
5.9085643e-05 -0.00016366321 4.3723558e-05 2.36081e-06 -7.974747e-05 1.5480564e-05 -2.3999746e-07 -6.859485e-05
0.00013119205 6.290422e-05 -8.4107654e-05 -0.00012986813 2.4011993e-05 -7.323988e-05 -4.653414e-05 0.00014479109
0.00011499599 3.5237605e-05 4.29031e-05 -0.00016698198 5.9825346e-05 -2.2577391e-05 0.00012713957 3.2285607e-07
3.2905322e-05 -9.853205e-05 -0.00016534702 0.000113076196 0.000126324 -0.00015376159 0.00012219476 0.00048693278
00000000: fd7e c9b7 fab8 a5b9 4ec6 54b8 514c 8bb8
00000010: 4830 9739 f8c3 82b8 f9cf 2938 ef58 3139
00000020: 685b 6938 1042 a1b8 d15f 8b37 ca3a 5038
00000030: c584 9638 ee57 29b9 4d51 85b7 6a4a cc38
00000040: 12dc 23b8 36f4 7fb8 bab9 4637 941a 00b8
00000050: 460e 5cb7 0c02 1c39 ed5c 3638 4459 5ab8
00000060: 98a3 5ab6 b444 2eb6 46e8 2ab9 9dad e9b7
00000070: d788 2cb9 8860 23b5 49c5 4d39 5636 8fb6
00000080: 8054 6bb8 62d0 2639 8a2e ebb8 ce9b 4837
00000090: 774f 9b38 3aa8 d436 70de c2b5 e2da 1738
000000a0: c4a3 c2b8 a4f1 30b6 62bb 9238 bca2 fe38
000000b0: ee9e d5b8 7467 bf36 e04f 8834 1963 fab8
000000c0: e0c0 f9b8 2bdb 9db7 da5e a7b8 9039 7b38
000000d0: d8d9 3cb8 3eb5 deb8 9cc6 46b8 384e cdb8
000000e0: d5ab 8f38 a0a7 4e38 98f1 1039 50a9 23b9
000000f0: 435c e4b8 86f2 e038 7fc5 f3b8 cc4c c9b9
00000100: 15e1 87b9 3c99 85b9 7898 5eb9 f805 f238
00000110: 4813 0b3a 00d2 f2b6 aa73 4e39 4c39 9d39
00000120: 323f 4238 5e8f 70b9 14d6 cbb8 7999 8538
00000130: 3c94 1b36 3bf9 feb7 a94b 4c39 614f 5339
00000140: 4da2 7938 6d87 07b9 eeab 87b9 46df 16b9
00000150: f21f 5d39 eed1 67b7 b10f 89b9 b648 6138
00000160: 5a30 38b8 72e1 2839 099a 47b9 e204 be38
00000170: 2040 c436 b974 b2b8 de34 98b6 7ad0 f8b8
00000180: 6d86 4b39 47eb 8b38 4050 92b8 c914 0539
00000190: 5fe9 9838 b83d c8b7 a87e 5bb8 9d7c 63b8
000001a0: 6d5e 8fb7 b8a1 d637 ae3d e438 dcad 14b7
000001b0: 067c 8b38 2693 0f37 324f 8fb8 42cf 31b9
000001c0: 059d 2db9 e085 2837 494b 0338 abf4 d937
000001d0: 3201 a5b8 705c 4e36 26fc 30b7 6e24 9fb8
000001e0: 0aa1 0e38 25be dcb8 add7 26b9 f874 94b9
000001f0: 3fe9 51b9 afdc 8937 724b 0439 ad39 99b9
00000200: 3a9a 4ab9 e8d0 d739 a00a adb8 3015 9838
00000210: 3837 39b7 1926 38b8 9776 1db8 d916 92b9
00000220: b2fd 1938 a778 9ab8 de4d 1839 c4e7 a4b9
00000230: ed49 82b8 733c 5738 78bf 12b9 d29d 2039
00000240: 3b86 2939 4fd7 29b9 3dd9 51b9 602f aeb8
00000250: 5413 f237 7ecd 01b9 b277 77b8 776d 7739
00000260: aa21 8839 8bd3 0a39 a475 ce38 25b3 47b8
00000270: a5a5 5139 949f 8cb8 0850 53b9 3709 1eb9
00000280: 4071 9738 9e41 aeb8 333b 6139 2916 9a38
00000290: 7f4e 7639 15f9 1738 bc14 ed38 b47d 5eb9
000002a0: 8f4f 2839 b2ee ffb8 b44b ba38 2952 1ab9
000002b0: 7bf4 dd39 458a c038 fce3 8638 2c8b 3838
000002c0: 01b8 5d39 a278 8f38 6465 8839 9237 60b9
000002d0: fa75 8139 10a6 3b39 f866 3e39 861d 1439
000002e0: 6215 2539 4062 08b6 0a77 8c38 8246 c238
000002f0: aa3e d4b8 d3fd a038 eb9a 0139 5865 4db8
00000300: 641f 4e39 d845 8f39 b973 5639 d289 fc38
00000310: 3315 aeb9 eb22 3f39 5121 b7b8 fd43 01b9
00000320: 1be2 c9b8 9cfb b638 c835 eab8 cf44 8d38
00000330: 14ff 02b9 f13b 9d38 ab4f d8b7 1cb2 81b8
00000340: f821 6838 b4d6 0939 0492 0339 6c22 14b7
00000350: a4d3 7f38 ee60 9fb8 70a9 0638 7ba5 5139
00000360: f87b 2eb7 2671 ce38 3e37 be38 9442 ff37
00000370: 7170 2939 4aca b238 4009 05b9 eefb d2b8
00000380: bad2 7738 029d 2bb9 d063 3738 686e 1e36
00000390: 193e a7b8 42dc 8137 00d9 80b4 94da 8fb8
000003a0: 9990 0939 72eb 8338 f462 b0b8 362d 08b9
000003b0: 5d6d c937 5c98 99b8 a72d 43b8 10d3 1739
000003c0: 012a f138 17cc 1338 daf2 3338 e217 2fb9
000003d0: faec 7a38 9464 bdb7 c550 0539 0055 ad34
000003e0: d203 0a38 fea2 ceb8 0161 2db9 5223 ed38
000003f0: d775 0439 103b 21b9 6821 0039 034b ff39

exp_avg_sq f4 [64, 64]
4.2129196e-07 1.0175563e-06 2.3780612e-07 1.9684074e-07 7.004225e-07 3.8370374e-07 1.7241112e-07 9.728869e-07
5.727743e-08 8.179819e-08 4.5529083e-07 8.1911037e-07 3.6132414e-07 2.0694038e-07 3.6890108e-07 2.4845914e-07
4.914885e-07 3.6318397e-07 4.289912e-07 2.2728501e-07 1.9246954e-07 3.4775115e-07 5.965568e-07 3.652723e-07
2.3667339e-07 1.8727589e-07 3.2388934e-07 2.706253e-07 2.6304085e-07 1.741457e-07 2.6713397e-07 3.3231882e-07
9.052069e-07 9.145068e-08 1.06285114e-07 2.2476992e-07 1.5820753e-07 3.7253776e-07 1.3440183e-07 6.1419236e-08
5.1525484e-07 5.0519986e-07 4.1911528e-07 2.154284e-07 2.776419e-07 9.330848e-08 6.307545e-07 1.260877e-07
8.235209e-08 1.4599398e-07 1.2395473e-06 2.0618003e-07 2.1361923e-07 3.0502974e-07 2.8039858e-07 1.8830966e-07
2.2519339e-07 6.590828e-07 2.9229963e-07 1.7776414e-07 3.1698875e-07 9.2165074e-08 4.0328678e-07 1.0099501e-06
6.7278853e-07 1.2637032e-06 4.7141367e-07 3.272713e-07 1.0870291e-06 4.945571e-07 3.7260222e-07 1.1773351e-06
1.18142786e-07 3.0476664e-07 5.9034267e-07 1.1386077e-06 5.6246984e-07 3.4281476e-07 6.865139e-07 2.870581e-07
6.2324614e-07 6.353192e-07 6.312537e-07 3.6597547e-07 3.5811297e-07 6.618427e-07 7.709647e-07 4.708841e-07
4.211999e-07 3.165584e-07 5.0654535e-07 3.815051e-07 3.5136856e-07 2.2013546e-07 5.6844056e-07 4.983586e-07
1.1340032e-06 1.9685064e-07 1.865837e-07 4.1934746e-07 2.6840752e-07 5.0132945e-07 2.0223558e-07 1.2936604e-07
6.3890474e-07 7.6352984e-07 5.565697e-07 2.987533e-07 4.2433e-07 2.3676246e-07 8.160589e-07 2.8364533e-07
1.2085287e-07 2.024009e-07 1.595802e-06 3.695161e-07 3.3299307e-07 4.95667e-07 3.6814887e-07 2.9472636e-07
3.754932e-07 9.259472e-07 4.555154e-07 3.3309848e-07 6.175668e-07 2.26973e-07 6.099011e-07 1.3477575e-06
9.607982e-07 2.13132e-06 2.8877233e-07 3.0775232e-07 1.2521724e-06 8.105566e-07 5.0718745e-07 2.333068e-06
1.3297723e-07 1.2477115e-07 8.8723124e-07 1.4831758e-06 8.038263e-07 3.014052e-07 6.8144675e-07 6.990299e-07
8.785832e-07 7.3318574e-07 1.0576153e-06 3.9982677e-07 3.248662e-07 6.978224e-07 1.5318798e-06 6.994458e-07
4.5367807e-07 3.0639927e-07 3.0010702e-07 3.5597134e-07 7.44424e-07 1.2589805e-07 5.5041716e-07 5.4660956e-07
2.0757625e-06 1.7927677e-07 1.1422791e-07 2.8237807e-07 2.5217756e-07 8.736402e-07 2.1217525e-07 1.660845e-07
1.1238599e-06 8.593846e-07 9.772101e-07 1.6346448e-07 5.7809893e-07 1.7440162e-07 1.293245e-06 1.53111e-07
1.2826557e-07 1.8997513e-07 2.8823015e-06 5.5513726e-07 4.4695057e-07 5.975561e-07 4.366075e-07 2.3482619e-07
4.652125e-07 1.2600908e-06 4.3623166e-07 3.037499e-07 5.496774e-07 9.9576525e-08 7.9292073e-07 2.0937607e-06
5.9601155e-07 1.5817826e-06 2.9530997e-07 2.660505e-07 1.1100116e-06 5.190257e-07 2.675562e-07 1.4340966e-06
6.955913e-08 1.2758402e-07 7.4751415e-07 1.2322927e-06 5.5522617e-07 2.364053e-07 5.844946e-07 3.138872e-07
7.7832925e-07 6.085743e-07 6.5770445e-07 3.5965573e-07 2.6643542e-07 4.753399e-07 9.0170124e-07 4.5915363e-07
3.3584573e-07 2.2618875e-07 4.6337232e-07 3.7760233e-07 3.1464464e-07 2.5536403e-07 4.1342577e-07 4.6360952e-07
1.3789473e-06 1.115691e-07 1.4122988e-07 3.0105733e-07 1.8464172e-07 5.8473904e-07 1.4704572e-07 6.346708e-08
7.83197e-07 7.5096347e-07 6.411527e-07 3.3551984e-07 4.1682446e-07 1.168753e-07 9.887071e-07 2.1986664e-07
1.159839e-07 2.1305053e-07 1.9426236e-06 2.8473613e-07 3.0807786e-07 4.4710725e-07 3.801774e-07 2.1181378e-07
2.937027e-07 1.0794466e-06 4.5527952e-07 2.586029e-07 4.322257e-07 1.5996206e-07 5.8356693e-07 1.5498897e-06
00000000: ed2d e234 f892 8835 a657 7f34 2c5b 5334
00000010: ab04 3c35 d7ff cd34 0220 3934 2494 8235
00000020: 3301 7633 08a9 af33 b26e f434 d6e0 5b35
00000030: 03fc c134 5733 5e34 610d c634 f763 8534
00000040: d5ee 0335 a0fb c234 1a50 e634 a10b 7434
00000050: a0a9 4e34 8eb2 ba34 1223 2035 a51a c434
00000060: 4920 7e34 0116 4934 03e3 ad34 754a 9134
00000070: 0f38 8d34 cefc 3a34 9d6a 8f34 8d69 b234
00000080: 58fd 7235 8b63 c433 dc3e e433 4958 7134
00000090: c1df 2934 3301 c834 1850 1034 95e5 8333
000000a0: 0b50 0a35 129d 0735 c402 e134 8250 6734
000000b0: d00e 9534 e160 c833 1f51 2935 b962 0734
000000c0: 8ad9 b033 85c2 1c34 855e a635 5662 5d34
000000d0: 355f 6534 f8c2 a334 b089 9634 2a32 4a34
000000e0: b0cc 7134 d3eb 3035 5bed 9c34 6fdf 3e34
000000f0: 9a2e aa34 49ec c533 5083 d834 9f8d 8735
00000100: ad99 3435 839c a935 9a16 fd34 d3b3 af34
00000110: 09e6 9135 b5c1 0435 0f0a c834 ed04 9e35
00000120: afb5 fd33 cf9e a334 0a78 1e35 43d2 9835
00000130: a2fc 1635 1a0c b834 e048 3835 f71c 9a34
00000140: 264d 2735 ce8a 2a35 6d73 2935 497b c434
00000150: ac42 c034 7ca9 3135 4af4 4e35 d1cd fc34
00000160: 4621 e234 75f3 a934 88f9 0735 a9d1 cc34
00000170: baa3 bc34 605e 6c34 f096 1835 f1c6 0535
00000180: 0e34 9835 e45d 5334 bd57 4834 ad22 e134
00000190: a619 9034 1993 0635 1826 5934 dee7 0a34
000001a0: 3381 2b35 5ff5 4c35 2e67 1535 5764 a034
000001b0: 79cf e334 c538 7e34 240f 5b35 eb47 9834
000001c0: c9c3 0134 8953 5934 572f d635 e861 c634
000001d0: 38c6 b234 fa0d 0535 ffa5 c534 e23a 9e34
000001e0: 6497 c934 9b8e 7835 8f8d f434 b5d4 b234
000001f0: dec6 2535 ddb5 7334 16b8 2335 98e4 b435
00000200: c6f4 8035 cc07 0f36 9108 9b34 2839 a534
00000210: 5110 a835 0795 5935 a825 0835 ce91 1c36
00000220: 81c8 0e34 d5f8 0534 112a 6e35 8811 c735
00000230: 86c6 5735 d1d0 a134 aaec 3635 f8a4 3b35
00000240: c7d7 6b35 24d0 4435 63f3 8d35 c6a7 d634
00000250: 4569 ae34 fd51 3b35 fd9a cd35 8dc1 3b35
00000260: 0a91 f334 327f a434 651e a134 541c bf34
00000270: 6ed4 4735 982e 0734 61c0 1335 b9ba 1235
00000280: 544d 0b36 397f 4034 754d f533 bf99 9734
00000290: 0563 8734 1984 6a35 4ad2 6334 f654 3234
000002a0: 88d7 9635 76b0 6635 af28 8335 c684 2f34
000002b0: a82e 1b35 2743 3b34 8f93 ad35 d566 2434
000002c0: 5fb9 0934 f7fb 4b34 906d 4136 be04 1535
000002d0: 6bf4 ef34 be67 2035 e166 ea34 8824 7c34
000002e0: 52c2 f934 6420 a935 3933 ea34 1213 a334
000002f0: 8b8d 1335 c6d6 d533 19d9 5435 8982 0c36
00000300: 9afd 1f35 a34d d435 188b 9e34 b4d5 8e34
00000310: b5fb 9435 2d53 0b35 a5a4 8f34 2f7b c035
00000320: 8960 9533 07fe 0834 c8a8 4835 4165 a535
00000330: da0a 1535 98d6 7d34 2ae6 1c35 5484 a834
00000340: 61ee 5035 e85c 2335 1b8d 3035 b516 c134
00000350: 9b0a 8f34 3832 ff34 700c 7235 9881 f634
00000360: 494e b434 4ade 7234 68c5 f834 45b9 ca34
00000370: 6eec a834 f718 8934 cef4 dd34 02e6 f834
00000380: 4514 b935 c397 ef33 f9a4 1734 01a1 a134
00000390: ee41 4634 f6f6 1c35 9fe3 1d34 654b 8833
000003a0: e33c 5235 d195 4935 ae1b 2c35 7f21 b434
000003b0: ebc7 df34 e0fc fa33 b8b3 8435 7b14 6c34
000003c0: d312 f933 e2c2 6434 055e 0236 d6dd 9834
000003d0: e665 a534 f409 f034 2f1b cc34 ee6e 6334
000003e0: 31ae 9d34 81e1 9035 246d f434 1dd6 8a34
000003f0: a60c e834 09c2 2b34 6aa6 1c35 ce05 d035

exp_avg f4 [64]
-0.00015395344 -0.0001698398 -1.1579359e-05 0.00026952 -0.00010534677 -0.00017427847 2.6100293e-05 -1.538117e-05
-9.3968985e-05 7.920134e-05 -3.3311124e-05 0.0003422108 -0.00020079614 -0.000103570324 0.0001902342 5.466387e-06
0.00018220123 -9.344081e-05 2.5603724e-05 -0.00018195734 -6.675296e-05 0.00019294152 1.7262777e-05 -6.8177775e-05
9.798833e-05 0.00032749423 0.00028555104 0.00015744772 3.7588885e-05 -9.3068964e-05 0.0001617761 1.2163333e-05
-0.0001040629 0.00019933018 6.2993076e-06 0.000119906166 -0.00024303849 -1.5214739e-05 6.421824e-05 2.2435617e-05
-0.00019606798 -0.00033182456 0.00023265148 8.6492786e-05 0.00044061433 -2.4261204e-05 -0.00013112715 -6.3501802e-06
0.00017016221 -0.00013901741 -0.00017486705 -4.614429e-05 0.00013739777 0.00023488145 3.0706215e-05 0.00012664705
0.00013633983 -0.0001186123 -8.734196e-05 -0.00038867572 -0.0002108388 8.903657e-05 -0.00013486565 -6.81456e-06
00000000: 906e 21b9 0617 32b9 f844 42b7 5d4e 8d39
00000010: 9eed dcb8 85be 36b9 f4f1 da37 d006 81b7
00000020: 3711 c5b8 e518 a638 8cb7 0bb8 c26a b339
00000030: ce8c 52b9 e533 d9b8 9b79 4739 e86b b736
00000040: 450d 3f39 a7f5 c3b8 94c7 d637 cdcb 3eb9
00000050: b9fd 8bb8 5850 4a39 88cf 9037 aafa 8eb8
00000060: 167f cd38 88b3 ab39 03b6 9539 8d18 2539
00000070: c2a8 1d38 052e c3b8 71a2 2939 1e11 4c37
00000080: 583c dab8 4a03 5139 a45e d336 2276 fb38
00000090: 26d8 7eb9 ce42 7fb7 e8ac 8638 1f34 bc37
000000a0: 9997 4db9 bdf8 adb9 e8f3 7339 7663 b538
000000b0: 4102 e739 8a84 cbb7 2d7f 09b9 a213 d5b6
000000c0: 926d 3239 34c5 11b9 845c 37b9 0e8b 41b8
000000d0: 6f12 1039 824a 7639 8cca 0038 8fcc 0439
000000e0: 72f6 0e39 7ebf f8b8 5c2b b7b8 2cc7 cbb9
000000f0: 9c14 5db9 25b9 ba38 b96a 0db9 a0a8 e4b6

exp_avg_sq f4 [64]
4.5937245e-06 5.6485437e-06 1.0843832e-05 6.9482353e-06 1.8809972e-06 2.8964305e-06 2.610019e-06 3.7869795e-06
6.4981505e-06 5.3438002e-06 1.7184586e-06 3.3951471e-06 7.0011547e-06 3.148421e-06 5.191014e-06 3.7115367e-06
1.4649171e-06 3.0051447e-06 4.4134526e-06 1.0158384e-05 3.1612985e-06 6.976619e-06 3.0382394e-06 4.1363587e-06
6.5284635e-06 2.761306e-06 4.116587e-06 6.3781963e-06 2.9996804e-06 4.842589e-06 4.0287887e-06 5.226868e-06
4.2561996e-06 4.2598654e-06 2.3230969e-06 2.4532342e-06 3.6684519e-06 3.1053316e-06 3.3399351e-06 3.4450732e-06
1.6264604e-06 4.9729124e-06 4.302055e-06 4.336178e-06 3.6492584e-06 8.21178e-06 3.737014e-06 2.3877692e-06
6.162095e-06 1.8292243e-06 3.7457085e-06 3.892478e-06 6.0592956e-06 3.3700098e-06 1.7768879e-06 7.5760854e-06
4.471324e-06 1.2343274e-05 4.0693462e-06 4.5854076e-06 2.266321e-06 1.027153e-06 3.7430575e-06 1.5683647e-06
00000000: cb23 9a36 9f88 bd36 e7ed 3537 e324 e936
00000010: 9276 fc35 4c60 4236 c927 2f36 d023 7e36
00000020: b00a da36 e54e b336 caa5 e635 2fd8 6336
00000030: 76eb ea36 7649 5336 792e ae36 b713 7936
00000040: 2b9e c435 feab 4936 4517 9436 ed6d 2a37
00000050: b226 5436 b318 ea36 8ee4 4b36 0dcb 8a36
00000060: 130f db36 e04e 3936 3721 8a36 4a04 d636
00000070: 1e4e 4936 867d a236 082f 8736 7462 af36
00000080: 7ad0 8e36 f7ef 8e36 80e6 1b36 3ea2 2436
00000090: 862f 7636 3165 5036 a623 6036 e831 6736
000000a0: c14c da35 fedc a636 5f5a 9036 7c7f 9136
000000b0: c8e5 7436 54c5 0937 69c9 7a36 903d 2036
000000c0: fec3 ce36 ab83 f535 c85e 7b36 229c 8236
000000d0: f450 cb36 5428 6236 677d ee35 1436 fe36
000000e0: 6108 9636 f515 4f37 6b8b 8836 5adc 9936
000000f0: 1917 1836 b5dc 8935 3d31 7b36 9a80 d235

exp_avg f4 [6, 64]
-0.0001939254 -0.00025526062 -8.750999e-05 7.4589316e-06 4.839643e-06 0.0002904731 -0.00038163734 -0.00026655666
-0.00010711901 0.00029472736 -0.00013083829 -0.00028416663 0.000115723946 -0.0003820635 0.00020643133 -0.0004938518
0.0009349605 4.6324814e-05 2.5620975e-05 -0.0005860955 -0.0006515236 5.46414e-05 5.3234213e-05 4.346844e-05
-9.093447e-05 0.00029568525 0.00010268095 -0.00017153061 0.00010913496 0.0006291327 -0.00011457437 -2.7405298e-05
0.00046795132 -0.00023357393 0.00021826278 0.000114835326 -0.00012296802 -0.0002419824 9.131724e-05 0.00012537178
-0.0005736007 -0.00011244936 -0.000348805 -7.35811e-05 -0.00020293053 -0.00013596361 -0.00015944107 -0.00048636046
7.20643e-05 0.00014596616 -0.0005021317 -0.00083839236 -9.21404e-06 0.00019878583 0.00013265143 -0.0001977494
0.00026545965 -0.0001560589 3.9186387e-05 0.0007948144 -4.1015395e-05 -0.0005176423 0.00044877784 -0.00020505834
0.00065033266 0.00043471006 -0.0005797405 0.00078189827 -0.000548145 0.00070794765 -0.00027252772 6.7394314e-05
0.00046118436 -0.00024609387 0.00086028466 5.8056972e-05 0.0004227066 0.0010832795 -0.0009805064 -0.00012157524
0.00065786036 -5.60754e-05 0.00015850642 -0.00046138855 0.00027469514 0.00024641494 -2.5911681e-06 -0.00046066855
0.00043095753 1.5972291e-05 -0.0002693091 -0.0004253657 -0.0005414855 0.00029341874 0.00034540152 -2.6634958e-05
0.00031334005 0.00017639481 0.00023715713 -0.0008177321 -6.5585e-05 -0.0010923092 0.00014454838 -0.0007925409
0.00037770515 8.152631e-05 0.00026983247 -0.0002498944 -0.0003190771 -0.00046839536 0.0005359214 0.00018512848
-0.0007925309 -0.0010259411 -0.000103862105 -0.00048730968 -0.00021494812 0.00010486314 -0.00066103245 0.00024318704
-0.00026069427 0.00035710912 -0.00046700527 0.00010050787 4.2382453e-06 0.00049029966 0.00021231556 -0.00023995788
-0.00017027657 0.00012388772 0.00023426005 0.00012733998 9.7351236e-05 0.00014382959 0.00066218013 5.1222138e-05
0.0003872683 -0.0002949621 4.391098e-05 0.00016770081 -8.794774e-05 0.000511366 -0.00031055853 5.416951e-05
-0.00024242417 9.551006e-05 0.0005521957 0.00014017752 0.0004154595 -0.00015569225 -0.00043381442 -0.00017769684
-4.7812682e-05 -0.00016032817 -0.00023049761 0.00040135163 5.957357e-05 -0.0005709812 -0.00034057043 -0.00023153283
0.00028391564 0.00049497315 -0.000818591 0.00057010906 -0.00062967796 -9.167323e-05 -0.00033443706 -0.0003426267
-0.00042730416 6.612213e-05 0.00015903865 9.208747e-05 0.00030769978 -0.00044323292 0.00078831485 0.00035366273
0.00027974555 -0.0002267293 -0.0002015213 0.00017148323 -9.262639e-05 -1.064525e-05 0.000117168776 -0.00042981585
1.5116464e-05 -4.5332647e-05 -0.00072923745 -0.00078239915 0.00050512754 0.0005357058 -0.00013917516 0.00073024683
-0.00059781136 -0.0002083897 -4.451826e-05 -0.0002461775 -8.5093205e-05 -0.00063748885 1.770446e-05 0.0002481
-0.00034121878 0.00022361669 -0.0001113215 0.000530303 -0.00021105562 -0.00028296057 0.00013798178 0.0004126608
0.00022279641 0.0004252354 0.00087060384 -1.3734229e-05 0.00029040378 -0.00016940657 -2.7646383e-06 -0.00050644425
-0.00042936238 -9.667787e-05 -0.00053849 0.000781348 0.0005390054 -8.1298786e-05 -0.0005111397 0.0006247922
-0.00058489374 0.00044946003 4.53183e-06 0.0006235328 -0.00028424247 1.9749132e-05 -0.00031525156 0.00036509428
-0.00052926346 -0.00055287103 -0.00040328692 -8.059103e-05 0.0002460356 -0.00040438637 0.00081977964 0.00050004415
0.00044915645 -0.00040433838 -5.843619e-05 0.0006243846 -0.00020879766 -0.00034015416 0.00028656705 -0.0008601255
-9.9135155e-05 0.0002322453 -5.8821955e-05 -0.00049607316 0.00024817654 -0.0003099824 -0.0004955318 -0.00018368263
00000000: 7458 4bb9 80d4 85b9 9185 b7b8 bc47 fa36
00000010: 3864 a236 a44a 9839 7f16 c8b9 a1c0 8bb9
00000020: 15a5 e0b8 a385 9a39 a331 09b9 33fc 94b9
00000030: d2b0 f238 b24f c8b9 7d75 5839 d575 01ba
00000040: 2318 753a e44c 4238 a0ec d637 34a4 19ba
00000050: 02cb 2aba c22e 6538 cd47 5f38 e251 3638
00000060: 12b4 beb8 3406 9b39 6a56 d738 e6dc 33b9
00000070: 63df e438 61ec 243a a647 f0b8 6ee4 e5b7
00000080: 5d57 f539 86eb 74b9 78dd 6439 bfd3 f038
00000090: faf0 00b9 a8bc 7db9 9281 bf38 3b76 0339
000000a0: b15d 16ba cad2 ebb8 d1df b6b9 8d4f 9ab8
000000b0: c0c9 54b9 7491 0eb9 a32f 27b9 32fe feb9
000000c0: 3a21 9738 7e0e 1939 7da1 03ba 8fc7 5bba
000000d0: 0096 1ab7 2a71 5039 5918 0b39 f35a 4fb9
000000e0: 642d 8b39 bea3 23b9 105c 2438 175b 503a
000000f0: f207 2cb8 63b2 07ba f149 eb39 ee04 57b9
00000100: 167b 2a3a cce9 e339 baf9 17ba 4ef8 4c3a
00000110: 63b1 0fba 9095 393a 0de2 8eb9 0c56 8d38
00000120: 1ecb f139 2906 81b9 ba84 613a 3382 7338
00000130: b89e dd39 d4fc 8d3a 5684 80ba 36f6 feb8
00000140: 4374 2c3a 8132 6bb8 be34 2639 86e6 f1b9
00000150: f504 9039 4131 8139 eee3 2db6 e385 f1b9
00000160: 24f2 e139 3cfc 8537 0e32 8db9 9e03 dfb9
00000170: 7af2 0dba ffd5 9939 0217 b539 236e dfb7
00000180: ca47 a439 9ff6 3839 62ad 7839 135d 56ba
00000190: ae8a 89b8 d12b 8fba e991 1739 85c2 4fba
000001a0: ba06 c639 1bf9 aa38 4d78 8d39 4204 83b9
000001b0: ce49 a7b9 f692 f5b9 147d 0c3a 0c1f 4239
000001c0: d9c1 4fba df78 86ba 8bd0 d9b8 997d ffb9
000001d0: b263 61b9 f8e9 db38 2349 2dba 0600 7f39
000001e0: cbad 88b9 603a bb39 63d8 f4b9 c0c7 d238
000001f0: 4036 8e36 7487 003a 06a1 5e39 349d 7bb9
00000200: 458c 32b9 dbe7 0139 b4a3 7539 9186 0539
00000210: 0c29 cc38 f6d0 1639 2896 2d3a 5ad7 5638
00000220: 450a cb39 25a5 9ab9 0e2d 3838 d8d8 2f39
00000230: 9570 b8b8 310d 063a 76d2 a2b9 1234 6338
00000240: 3e33 7eb9 934c c838 3ac1 103a 9efc 1239
00000250: 08d2 d939 5241 23b9 9671 e3b9 2254 3ab9
00000260: 7a8a 48b8 c41d 28b9 bbb1 71b9 816c d239
00000270: a2de 7938 e6ad 15ba 978e b2b9 9fc7 72b9
00000280: 83da 9439 16c1 013a b696 56ba 5f73 153a
00000290: f910 25ba b140 c0b8 6257 afb9 94a2 b3b9
000002a0: cb07 e0b9 0cab 8a38 9dc3 2639 161f c138
000002b0: c452 a139 b761 e8b9 eaa6 4e3a cf6b b939
000002c0: d0aa 9239 2fbe 6db9 764f 53b9 2ed0 3339
000002d0: 6a40 c2b8 0099 32b7 82b8 f538 e858 e1b9
000002e0: b89c 7d37 8f23 3eb8 4c2a 3fba eb19 4dba
000002f0: 896a 043a 9c6e 0c3a 8cef 11b9 096e 3f3a
00000300: 71b6 1cba 2f83 5ab9 1eb9 3ab8 6211 81b9
00000310: 1174 b2b8 271d 27ba 0a84 9437 6b13 8239
00000320: 9ce5 b2b9 a67a 6a39 4675 e9b8 0804 0b3a
00000330: d04e 5db9 535a 94b9 34af 1039 655a d839
00000340: 759e 6939 21f2 de39 3c39 643a 106c 66b7
00000350: 5641 9839 bba2 31b9 2088 39b6 e6c2 04ba
00000360: 0b1c e1b9 89bf cab8 7429 0dba 60d3 4c3a
00000370: 0a4c 0d3a f47e aab8 01fe 05ba 18c9 233a
00000380: 8e53 19ba 81a5 eb39 2010 9836 9474 233a
00000390: 6106 95b9 f0aa a537 5948 a5b9 206a bf39
000003a0: 45be 0aba 8cee 10ba 4170 d3b9 fb02 a9b8
000003b0: 57fe 8039 d203 d4b9 7be6 563a 6515 033a
000003c0: c27c eb39 61fd d3b9 6219 75b8 bead 233a
000003d0: b2f0 5ab9 b856 b2b9 613e 9639 0c7a 61ba
000003e0: c8e6 cfb8 df86 7339 98b7 76b8 e80a 02ba
000003f0: b11d 8239 2285 a2b9 94e6 01ba ee9a 40b9

exp_avg_sq f4 [6, 64]
1.7656916e-06 1.2873326e-06 2.347969e-06 1.2735836e-06 1.2808496e-06 9.103983e-06 2.2442885e-06 2.022215e-06
3.4743791e-06 1.6139974e-06 2.1951785e-06 1.7737793e-06 6.6983824e-07 2.468324e-06 3.0279837e-06 1.4748853e-06
3.1610493e-06 1.5426295e-06 1.1150727e-06 1.6558109e-06 6.75109e-06 6.0316033e-06 9.0634916e-07 7.0999563e-06
8.195392e-06 2.1780572e-06 9.719203e-06 1.4916199e-06 4.3096716e-06 1.7055248e-06 8.763588e-07 7.736529e-06
1.1664639e-06 1.526165e-06 4.6532828e-06 1.8675422e-06 1.2905224e-06 2.6615335e-06 6.470578e-06 7.6103265e-07
3.0887882e-06 2.5357504e-06 4.7150256e-06 5.553418e-06 2.9357006e-06 1.1186031e-05 2.7201847e-06 1.4641499e-06
6.210747e-06 3.9732363e-06 3.0655776e-06 8.556685e-06 4.62278e-06 1.0140042e-06 1.4767165e-06 6.8064282e-06
1.2383731e-06 1.5633512e-06 3.7667473e-06 3.544706e-06 8.106273e-06 8.626644e-06 3.5946332e-06 1.2257304e-06
2.790218e-06 1.714484e-06 3.041512e-06 2.4933954e-06 2.2093548e-06 2.5040445e-05 4.4488556e-06 1.8260455e-06
9.608913e-06 2.1632025e-06 3.551564e-06 2.3115683e-06 9.0377495e-07 3.7591037e-06 3.5551518e-06 1.8700075e-06
5.869326e-06 2.1609321e-06 1.8696915e-06 4.2792917e-06 1.5956504e-05 1.4793086e-05 8.35286e-07 1.8598766e-05
2.2433533e-05 4.599892e-06 2.2443151e-05 2.1756252e-06 1.2117941e-05 2.8694305e-06 1.245209e-06 1.963133e-05
1.1783757e-06 2.567858e-06 1.0472155e-05 4.0390496e-06 3.876901e-06 4.8900874e-06 1.35689625e-05 1.6782739e-06
6.7904048e-06 5.2698606e-06 1.0726329e-05 1.4505252e-05 5.550165e-06 3.104169e-05 8.199412e-06 8.7248566e-07
1.3592509e-05 1.1565508e-05 3.665563e-06 1.9458308e-05 9.547385e-06 1.517444e-06 2.5570987e-06 1.6144726e-05
1.2692868e-06 1.450315e-06 9.176556e-06 7.505004e-06 2.184969e-05 2.4259469e-05 8.510249e-06 1.76537e-06
1.7809191e-06 1.1322555e-06 2.4163996e-06 1.1157454e-06 1.1856276e-06 6.5625277e-06 1.2879168e-06 1.0361446e-06
3.0851736e-06 1.6036448e-06 2.007969e-06 2.3785274e-06 8.3667754e-07 2.1052638e-06 2.28779e-06 1.1729934e-06
2.5599966e-06 1.8360846e-06 1.9447323e-06 1.3878574e-06 4.8296433e-06 3.9236115e-06 7.4785606e-07 5.855114e-06
5.277139e-06 1.4569313e-06 7.142756e-06 1.1810866e-06 2.7978494e-06 2.0926539e-06 1.1835718e-06 5.4608477e-06
8.040561e-07 2.5356865e-06 3.2279404e-06 1.2641694e-06 9.104629e-07 2.1880317e-06 5.0605704e-06 8.328251e-07
1.9282986e-06 2.0338193e-06 4.266629e-06 4.8792017e-06 2.2400325e-06 8.270348e-06 2.1432447e-06 1.0368811e-06
3.7774391e-06 2.6692203e-06 2.7868634e-06 7.3018996e-06 3.8181183e-06 1.5605468e-06 1.4979917e-06 5.905228e-06
8.8729035e-07 1.115118e-06 2.5111217e-06 2.4518897e-06 5.5621895e-06 7.582812e-06 2.3361986e-06 8.510315e-07
2.960553e-06 1.487119e-06 3.3909419e-06 2.0471023e-06 1.9600193e-06 2.0584046e-05 3.049419e-06 1.6130939e-06
8.656601e-06 2.0919301e-06 3.828274e-06 1.947717e-06 9.55667e-07 3.861435e-06 4.554786e-06 2.425001e-06
6.4044866e-06 2.3706464e-06 1.8200863e-06 3.4312172e-06 1.2864173e-05 1.2576412e-05 1.1432917e-06 1.5154449e-05
1.7305592e-05 3.7189575e-06 1.7579587e-05 2.1431415e-06 8.934532e-06 2.706846e-06 1.1722318e-06 1.6265309e-05
1.2126438e-06 1.579607e-06 8.643536e-06 3.0944673e-06 2.3593939e-06 4.426692e-06 1.4049465e-05 1.6751694e-06
5.052828e-06 4.966634e-06 1.0725862e-05 1.2522644e-05 5.37765e-06 2.39746e-05 4.839642e-06 1.2691721e-06
1.1982944e-05 7.0373767e-06 3.3081712e-06 1.6986236e-05 1.068152e-05 1.7820814e-06 1.8360639e-06 1.5845098e-05
1.3978224e-06 1.0362526e-06 7.1437867e-06 5.743049e-06 1.6414613e-05 1.995285e-05 6.5126333e-06 1.5410067e-06
00000000: b4fc ec35 69c8 ac35 cd91 1d36 00f0 aa35
00000010: a8e9 ab35 4fbd 1837 959c 1636 64b5 0736
00000020: 6129 6936 87a0 d835 e150 1336 9812 ee35
00000030: efce 3335 7ca5 2536 5d34 4b36 acf4 c535
00000040: 6a22 5436 590c cf35 9ba9 9535 3b3d de35
00000050: 6c87 e236 1463 ca36 d74b 7335 293c ee36
00000060: f17e 0937 bd2a 1236 a90f 2337 ab33 c835
00000070: cc9b 9036 63e9 e435 eb3e 6b35 24cc 0137
00000080: 658f 9c35 a1d6 cc35 6523 9c36 43a8 fa35
00000090: 0336 ad35 cc9c 3236 d71d d936 c449 4c35
000000a0: fa48 4f36 dc2b 2a36 c335 9e36 7f57 ba36
000000b0: f402 4536 a3ab 3b37 6b8c 3636 cf83 c435
000000c0: e965 d036 d751 8536 39ba 4d36 af8e 0f37
000000d0: 611d 9b36 eb18 8835 9833 c635 c662 e436
000000e0: 2d36 a635 57d4 d135 3ac8 7c36 96e1 6d36
000000f0: 2d00 0837 27bb 1037 543b 7136 c783 a435
00000100: 953f 3b36 391d e635 c71c 4c36 3554 2736
00000110: 6d44 1436 f20d d237 6147 9536 7216 f535
00000120: f835 2137 892b 1136 6857 6e36 7120 1b36
00000130: f19a 7235 e944 7c36 0b95 6e36 f8fc fa35
00000140: 20f1 c436 8804 1136 1cf2 fa35 d696 8f36
00000150: 55da 8537 d22f 7837 6b38 6035 8c04 9c37
00000160: a52f bc37 c558 9a36 4d44 bc37 f500 1236
00000170: 294e 4b37 7190 4036 0e21 a735 f6ad a437
00000180: ae28 9e35 7753 2c36 90b1 2f37 2c87 8736
00000190: 5316 8236 8815 a436 40a6 6337 0d41 e135
000001a0: 22d9 e336 c2d3 b036 3bf5 3337 955b 7337
000001b0: 8e3b ba36 c332 0238 3590 0937 c234 6a35
000001c0: 620b 6437 7b09 4237 e5fd 7536 663a a337
000001d0: b52d 2037 fbaa cb35 9f9a 2b36 896e 8737
000001e0: 5d5c aa35 72a8 c235 02f5 1937 7ed3 fb36
000001f0: da49 b737 d080 cb37 3ec7 0e37 a7f1 ec35
00000200: ea07 ef35 01f8 9735 6e29 2236 b8c0 9535
00000210: db21 9f35 af33 dc36 7cdc ac35 a811 8b35
00000220: e10a 4f36 d13c d735 a5c0 0636 ca9e 1f36
00000230: 0b98 6035 2848 0d36 ef87 1936 bf6f 9d35
00000240: 68cc 2b36 636f f635 3f82 0236 6b46 ba35
00000250: 520e a236 91a7 8336 47c0 4835 0c77 c436
00000260: 4712 b136 c78b c335 cfab ef36 d485 9e35
00000270: b0c2 3b36 856f 0c36 38db 9e35 533c b736
00000280: 51d6 5735 c32a 2a36 989f 5836 88ac a935
00000290: 8966 7435 19d6 1236 f8cd a936 4e8f 5f35
000002a0: eb67 0136 c07c 0836 102a 8f36 06b8 a336
000002b0: 7753 1636 e0c0 0a37 aad4 0f36 f72a 8b35
000002c0: e97f 7d36 db20 3336 f305 3b36 d702 f536
000002d0: 631d 8036 fb73 d135 9a0e c935 8625 c636
000002e0: 212e 6e35 2aab 9535 be84 2836 258b 2436
000002f0: d8a2 ba36 dc6f fe36 96c7 1c36 7072 6435
00000300: eaad 4636 0599 c735 f08f 6336 f360 0936
00000310: e088 0336 e7ab ac37 9fa4 4c36 7c81 d835
00000320: d13b 1137 1663 0c36 a074 8036 86b5 0236
00000330: 7844 8035 7991 8136 50d5 9836 33bd 2236
00000340: 1fe6 d636 6517 1f36 b049 f435 dd43 6636
00000350: 34d3 5737 47ff 5237 3473 9935 dd3f 7e37
00000360: 7a2b 9137 3493 7936 e077 9337 e4d2 0f36
00000370: 86e5 1537 43a7 3536 9455 9d35 7c71 8837
00000380: 20c2 a235 e202 d435 b403 1137 8baa 4f36
00000390: 1456 1e36 ff88 9436 feb5 6b37 62d6 e035
000003a0: 768b a936 10a7 a636 3af3 3337 5918 5237
000003b0: a971 b436 101d c937 3564 a236 6c58 aa35
000003c0: 5a0a 4937 9b22 ec36 f301 5e36 aa7d 8e37
000003d0: c734 3337 da2f ef35 ad6e f635 17eb 8437
000003e0: d09c bb35 5e15 8b35 a9b4 ef36 6ab4 c036
000003f0: 1db2 8937 6b60 a737 1887 da36 96d4 ce35

exp_avg f4 [6]
-2.084332e-05 -0.0008847413 0.00065409014 -0.0008478395 0.0013415243 -0.0002807833
00000000: b0d8 aeb7 fced 67ba 3f77 2b3a 8c41 5eba
00000010: 16d6 af3a 1936 93b9

exp_avg_sq f4 [6]
9.7441436e-05 0.0002527335 7.252516e-05 0.00021756896 0.00010872171 0.00014838259
00000000: 7959 cc38 5181 8439 a618 9838 3923 6439
00000010: 8601 e438 2697 1b39
