flare/polgrad/lightning_logs/version_6/checkpoints/epoch=1.ckpt (torch_old, 58352 bytes, 18 tensors)

exp_avg f4 [64, 4]
000000 34 c2 09 b9 b4 84 29 ba 1e 1a 99 39 12 f3 ba 3a
       -0.00013137684 -0.00064666127 0.00029201893 0.0014263114
000010 50 77 e5 b9 1c a8 26 bb f1 3c 8f 3a 1e 49 c1 3b
       -0.00043767178 -0.002542979 0.0010928196 0.005898609
000020 4c 74 61 3a db 50 b9 3b 2c 74 06 bb b4 62 45 bc
       0.00086003984 0.0056553907 -0.0020516021 -0.012047458
000030 85 89 7c 39 8f 92 93 3a c1 8b 0c ba 16 7d 2c bb
       0.00024083823 0.0011258888 -0.0005361401 -0.0026319674
000040 a0 dd 08 ba 22 4d 7b bb cd 21 b1 3a b5 f6 08 3c
       -0.0005221013 -0.0038345535 0.0013514102 0.008359601
000050 b1 05 23 b9 0f 26 50 ba f7 5f c0 39 b5 4d ea 3a
       -0.00015547012 -0.00079402415 0.00036692593 0.0017875942
000060 a7 0a 1d 3a c3 42 70 3b 0d 83 af ba e7 c1 00 bc
       0.0005990662 0.0036660887 -0.0013390497 -0.00785873
000070 f1 ff 12 bb 5e 43 87 bc 78 67 d0 3b 4e b8 16 3d
       -0.0022430385 -0.016511615 0.0063599907 0.03679686
000080 1f 35 09 ba ef b8 56 bb be bc a4 3a c3 41 f3 3b
       -0.0005234051 -0.0032764038 0.0012568457 0.007423611
000090 e2 48 6c 39 bd 28 ee 3a 58 9b 1a ba 12 7e 78 bb
       0.00022533865 0.00181701 -0.0005897782 -0.003791694
0000a0 c5 90 03 3b c7 ed 61 3c 35 d5 aa bb 81 21 f8 bc
       0.0020075303 0.013789601 -0.0052134045 -0.030289413
0000b0 9b ae af b9 26 c1 28 bb ee ab 59 3a a7 b8 b1 3b
       -0.00033508692 -0.002574989 0.00083035126 0.0054236236
0000c0 96 3c dd 3a 0e 4c 38 3c 28 d9 8a bb bf 90 cb bc
       0.0016879018 0.011248602 -0.004237313 -0.024849294
0000d0 80 71 e6 3a 0e 16 4d 3c 03 d8 8f bb 41 39 db bc
       0.0017581433 0.012517465 -0.0043897643 -0.0267607
0000e0 b9 4c 54 ba 65 dd 9f bb 1d f8 05 3b 76 1d 36 3c
       -0.0008098591 -0.004878687 0.0020442076 0.0111154225
0000f0 74 69 bf ba eb 91 31 bc f7 b7 7e 3b 5c 37 c1 3c
       -0.0014603571 -0.010838012 0.0038866976 0.023585968
000100 1c 28 74 b9 5c 79 c4 ba 74 89 17 3a 3a 84 51 3b
       -0.00023284595 -0.0014989781 0.0005780675 0.0031969682
000110 3a be 5e 3a 00 d7 b2 3b 04 5d 00 bb ac 04 3d bc
       0.0008496974 0.005457759 -0.0019586692 -0.011536758
000120 66 54 96 b9 2e 30 17 bb 6d 34 48 3a 6f 4b 9c 3b
       -0.0002867311 -0.0023069489 0.00076372066 0.0047697346
000130 48 5d 05 bb 32 cf 5b bc 5e 64 a2 3b dd 05 ee 3c
       -0.002034979 -0.013416098 0.0049558124 0.02905553
000140 09 69 8c 3a 47 1a e3 3b d6 d6 43 bb ad bb 84 bc
       0.0010712455 0.0069306227 -0.002988269 -0.016202772
000150 ea b5 5a ba 87 5f b3 bb 9d 4f 16 3b 9e b5 4e 3c
       -0.00083431473 -0.005474034 0.0022935637 0.012616543
000160 36 ca 92 39 4e 23 bb 3a 35 28 47 ba 2c dc 6f bb
       0.0002799795 0.0014277489 -0.0007597239 -0.0036599739
000170 d4 9f cb 3a 50 fe 3d 3c 05 29 8a bb 27 f6 cd bc
       0.0015535303 0.011596277 -0.0042163157 -0.025141789
000180 b0 5a 87 ba 98 ed eb bb 3a e5 3a 3b 64 7f 84 3c
       -0.001032671 -0.0071999542 0.0028517977 0.016174026
000190 d6 4c ef 39 7b 01 51 3b 0f 1e 97 ba dd 51 e0 bb
       0.0004564288 0.0031891752 -0.0011529344 -0.0068456964
0001a0 f8 fa 13 bb 6c 4a 77 bc 34 58 b0 3b 2b 4f 04 3d
       -0.002258001 -0.015093427 0.0053816084 0.032302063
0001b0 6b d0 ec 3a 4e 37 4e 3c 25 4a a1 bb 3c 05 e7 bc
       0.0018067484 0.012586428 -0.004922169 -0.028200738
0001c0 4e ab bd 39 22 82 02 3b 91 e2 6d ba d6 42 9c bb
       0.0003617652 0.001991399 -0.00090745935 -0.0047687097
0001d0 2e cb 90 3a bf c1 d1 3b 2b 46 2c bb ad 96 6d bc
       0.001104688 0.00640127 -0.002628694 -0.014501256
0001e0 90 be 0d b9 b7 fa 69 ba 0d fe c0 39 f0 53 fd 3a
       -0.00013517798 -0.0008925604 0.00036810376 0.0019327383
0001f0 ce 9c 0d 3a 9d 40 88 3b e7 dd b9 ba 60 e4 0d bc
       0.0005402089 0.004158093 -0.0014180512 -0.008660406
000200 ee 6e e1 37 db 99 23 3a 3f e2 e1 b8 f3 19 a2 ba
       2.6873746e-05 0.0006240883 -0.00010770978 -0.0012367353
000210 37 ec 5c ba 55 37 bd bb 85 59 09 3b bd 72 4d 3c
       -0.0008427533 -0.0057744184 0.0020957899 0.012539563
000220 27 43 50 3a 52 54 a8 3b 09 7e 03 bb 9d 8c 3f bc
       0.0007944577 0.005137005 -0.0020064136 -0.01169124
000230 78 7a 0f 3a ef cc 7e 3b 85 2c b4 ba fa 40 08 bc
       0.00054732664 0.0038879474 -0.0013746178 -0.008316273
000240 2e 0e 8c 3a 38 3f 02 3c c8 d3 27 bb 1e 0c 87 bc
       0.0010685378 0.007949643 -0.002560841 -0.01648527
000250 f2 17 ad 39 ec 39 41 3b 24 da 46 ba 42 4a bb bb
       0.00033014972 0.0029483987 -0.0007585606 -0.0057156393
000260 9e 56 d2 38 7b 18 5d 3a 8b 7a 36 b9 0d 8d d6 ba
       0.00010029714 0.0008434129 -0.00017402523 -0.0016368941
000270 4c 71 81 39 fd a3 e8 3a a9 b0 23 ba 18 1a 7c bb
       0.0002468921 0.0017749068 -0.0006244281 -0.0038467702
000280 3d cb 1c 3a a6 1b 92 3b 3d 73 d1 ba d2 87 1f bc
       0.00059812126 0.0044588624 -0.0015979778 -0.009736972
000290 94 b0 1b 3b 44 15 77 3c b3 29 b1 bb d8 a4 04 bd
       0.0023756372 0.015080754 -0.0054065823 -0.03238377
0002a0 cf d1 2f 3a 6b 24 8e 3b 3d e2 ce ba 77 79 19 bc
       0.0006706984 0.0043378375 -0.0015783977 -0.009367338
0002b0 97 bf db 3a 78 6f 5a 3c 42 0e 9d bb 63 26 eb bc
       0.0016765472 0.01333224 -0.0047929594 -0.028704828
0002c0 ba 21 e2 39 16 56 44 3b 07 57 92 ba 08 4d d3 bb
       0.00043131207 0.0029958538 -0.0011164852 -0.006448392
0002d0 1f 48 d5 ba 10 2a 44 bc b8 df 91 3b 6e cd d8 3c
       -0.0016272104 -0.011972919 0.004451718 0.026465144
0002e0 02 cc c5 ba 0a 00 2c bc a8 c4 81 3b 7d 00 bd 3c
       -0.0015090706 -0.010498056 0.003960211 0.023071522
0002f0 8a ad eb 39 73 04 26 3b fb e4 85 ba d8 b1 b6 bb
       0.0004495199 0.0025332242 -0.0010215336 -0.0055754
000300 89 0b c8 3a 19 84 30 3c 61 cc 7f bb c8 6d be bc
       0.0015262227 0.010773682 -0.0039031731 -0.023245707
000310 7d a8 44 3a 5a 56 b1 3b 99 d2 04 bb 39 6e 40 bc
       0.00075019134 0.0054119052 -0.0020267128 -0.011745029
000320 99 f4 5a 3a 66 44 a0 3b e0 49 08 bb ea 81 38 bc
       0.0008352488 0.004890966 -0.0020795986 -0.011261443
000330 16 7d a9 ba 63 e8 10 bc 19 80 59 3b c5 48 9e 3c
       -0.0012930955 -0.008844468 0.0033187924 0.019321809
000340 24 af a2 3a 9d 31 11 3c 41 75 4c bb 92 48 9b bc
       0.0012411815 0.008861926 -0.0031197818 -0.018955503
000350 53 1f da b9 f0 29 57 bb f4 a7 94 3a 30 9c de 3b
       -0.0004160354 -0.0032831393 0.0011341558 0.0067935213
000360 75 22 4b ba 8a 78 b0 bb 30 ea 0d 3b 39 25 46 3c
       -0.000774897 -0.005385463 0.002165448 0.0120938355
000370 04 f9 81 3a ef 63 ea 3b 0d 53 27 bb 6f 56 7b bc
       0.0009916131 0.0071530263 -0.002553168 -0.015340432
000380 22 2c 24 3b 2c 55 99 3c c3 d8 d4 bb 06 cc 22 bd
       0.002505072 0.01871737 -0.0064955666 -0.039745353
000390 fc 50 da 39 f9 f2 47 3b d9 f8 88 ba 1b 0e d7 bb
       0.00041640538 0.0030509813 -0.0010450139 -0.006562961
0003a0 b9 67 ba ba bd 6a 31 bc b7 ba 81 3b 96 ce c0 3c
       -0.0014221586 -0.010828671 0.0039590257 0.023536008
0003b0 4f 3c 5c b9 96 d7 d6 ba 4a 34 1e 3a 3f f8 64 3b
       -0.00021003302 -0.0016391154 0.00060350134 0.0034938005
0003c0 27 d6 8f 3a fa ba ff 3b 32 76 2d bb 4d 99 86 bc
       0.0010973857 0.0078042718 -0.0026468155 -0.016430521
0003d0 d2 2f 07 b9 9c 6e 6f ba 4a 08 91 39 f9 42 00 3b
       -0.00012892418 -0.00091336085 0.0002766273 0.0019571169
0003e0 d5 2f e9 b9 0c 2a 54 bb b6 b7 91 3a b4 0f e0 3b
       -0.0004447686 -0.0032373695 0.0011117372 0.0068378095
0003f0 7f c4 0c 3a 39 86 82 3b 2b 88 ab ba f6 29 0a bc
       0.00053698564 0.0039832857 -0.0013086846 -0.008432856

exp_avg_sq f4 [64, 4]
000000 80 b9 9b 30 e8 d5 f6 32 b2 1f 5d 31 b4 80 eb 33
       1.1330457e-09 2.8735442e-08 3.217775e-09 1.0966451e-07
000010 f2 ef 3d 32 0e 1f 76 34 6f eb 11 33 40 26 99 35
       1.1055805e-08 2.2921833e-07 3.397457e-08 1.141052e-06
000020 cf af 28 33 e6 d7 96 35 e2 36 08 34 c2 86 aa 36
       3.9275445e-08 1.1238706e-06 1.2685953e-07 5.0820827e-06
000030 fa ef 3f 31 7a 4a 55 33 b9 e6 17 32 db 54 73 34
       2.793057e-09 4.9660663e-08 8.841817e-09 2.2662009e-07
000040 4c 72 12 33 13 83 82 35 a5 be bb 33 fd e7 8a 36
       3.4097226e-08 9.723902e-07 8.742544e-08 4.1397275e-06
000050 fb a7 d6 30 1e e2 40 33 64 7e c0 31 5b 9e 4b 34
       1.5618292e-09 4.4909136e-08 5.6023044e-09 1.8963458e-07
000060 a5 2f 96 32 70 3c 14 35 25 ee 6f 33 b3 25 1e 36
       1.7483964e-08 5.5222245e-07 5.5863115e-08 2.3565779e-06
000070 1e e7 09 35 ab 19 3e 37 3b 10 bb 35 d1 49 65 38
       5.1372797e-07 1.1330859e-05 1.3937309e-06 5.46666e-05
000080 68 e1 d9 32 16 f1 40 35 2a c0 9a 33 d3 72 56 36
       2.5364628e-08 7.18764e-07 7.206138e-08 3.1955321e-06
000090 75 eb eb 31 f6 3e 65 34 7e 8f 8a 32 9b b5 5b 35
       6.8661685e-09 2.1350192e-07 1.6130567e-08 8.184813e-07
0000a0 f1 04 a1 34 72 ae 01 37 88 1b 6e 35 6f ef 15 38
       2.9992182e-07 7.729615e-06 8.870197e-07 3.574736e-05
0000b0 c9 22 74 32 b8 e9 02 35 62 ed 1b 33 0c 62 01 36
       1.42105785e-08 4.876888e-07 3.6304648e-08 1.9279569e-06
0000c0 9d d1 4a 34 c9 a9 b6 36 0e 96 18 35 3f e4 cd 37
       1.8888973e-07 5.4437883e-06 5.684277e-07 2.454419e-05
0000d0 06 89 7c 34 bc 17 f5 36 cc 21 36 35 c4 61 03 38
       2.3519178e-07 7.304332e-06 6.7849464e-07 3.1323885e-05
0000e0 4c 80 30 33 41 93 58 35 38 e9 06 34 e7 8a 8c 36
       4.109488e-08 8.0680553e-07 1.2564567e-07 4.1884955e-06
0000f0 84 4e 66 34 aa 7a cd 36 2c 1c 19 35 ad 1c dc 37
       2.1448983e-07 6.123756e-06 5.7037937e-07 2.6239397e-05
000100 fd a4 3b 31 28 44 9d 33 b3 05 3e 32 0c 8a be 34
       2.7305866e-09 7.32328e-08 1.1060751e-08 3.54907e-07
000110 d8 d9 1f 33 99 2b 8c 35 0f 89 ff 33 41 74 9f 36
       3.72182e-08 1.0443501e-06 1.18992936e-07 4.752103e-06
000120 6f 50 b5 31 40 5f 4c 34 63 41 9b 32 84 09 60 35
       5.2769376e-09 1.9033632e-07 1.807411e-08 8.346035e-07
000130 f3 25 92 34 cd 82 f5 36 49 ed 5b 35 12 18 0b 38
       2.722223e-07 7.316796e-06 8.1929153e-07 3.31626e-05
000140 e9 16 d3 33 28 4a ef 35 7f de 94 34 04 97 1f 37
       9.8296205e-08 1.782847e-06 2.7729035e-07 9.5123e-06
000150 fa c3 6a 33 a8 18 8e 35 bd 67 2b 34 c6 56 bc 36
       5.466061e-08 1.0587e-06 1.5963356e-07 5.6129384e-06
000160 6c 29 ce 31 c3 95 9d 33 a6 e7 89 32 ad e4 dc 34
       6.000098e-09 7.338124e-08 1.605424e-08 4.1144577e-07
000170 6c 44 66 34 0d b6 bf 36 ed 64 22 35 31 0e d8 37
       2.1445311e-07 5.713437e-06 6.049657e-07 2.5755815e-05
000180 44 f8 bb 33 91 d4 02 36 96 12 8c 34 09 e2 22 37
       8.753025e-08 1.949524e-06 2.6090555e-07 9.70858e-06
000190 37 29 5b 32 8c dd ca 34 bf 15 30 33 7f 88 e7 35
       1.2756849e-08 3.778663e-07 4.099797e-08 1.7250567e-06
0001a0 d9 97 ab 34 4e f1 25 37 bb 35 82 35 4f c7 34 38
       3.1961716e-07 9.8909495e-06 9.701392e-07 4.3100965e-05
0001b0 aa ff 8e 34 cd c4 d1 36 0a a0 50 35 e1 72 fe 37
       2.663558e-07 6.251596e-06 7.7718926e-07 3.0332654e-05
0001c0 89 74 0c 32 83 c5 24 34 b1 c2 d1 32 04 5f 54 35
       8.1755696e-09 1.5345545e-07 2.4419338e-08 7.911442e-07
0001d0 d2 b1 91 33 da 44 cc 35 bf bd 60 34 60 44 fa 36
       6.784434e-08 1.5219223e-06 2.0930655e-07 7.4585405e-06
0001e0 33 ca d7 30 0d 0a 1f 33 c3 23 b4 31 79 46 2c 34
       1.5700777e-09 3.7029213e-08 5.242755e-09 1.6044386e-07
0001f0 4a e8 b5 32 ee 0e 2d 35 47 48 8c 33 d7 d8 3c 36
       2.1176806e-08 6.446925e-07 6.532405e-08 2.81404e-06
000200 34 2c be 31 1c 9b 4c 34 b3 bd 33 32 fe ac 28 35
       5.534753e-09 1.9055409e-07 1.0462304e-08 6.2836614e-07
000210 89 ae 58 33 42 66 d0 35 4c 1f 1f 34 26 1b e1 36
       5.0450158e-08 1.5526969e-06 1.4819415e-07 6.708683e-06
000220 2b d8 66 33 39 87 c8 35 21 8c 24 34 d2 b1 e1 36
       5.374765e-08 1.4940516e-06 1.5324669e-07 6.7262235e-06
000230 26 9c b5 32 14 5f 2e 35 bc 58 89 33 ae 3a 3f 36
       2.1142181e-08 6.495841e-07 6.3957e-08 2.8495374e-06
000240 42 e6 d3 33 9d 50 72 36 a6 57 90 34 9a fd 6d 37
       9.867337e-08 3.6107733e-06 2.6885863e-07 1.4185347e-05
000250 2e 96 88 32 99 3a 4b 35 e7 c1 1e 33 d5 4a 2b 36
       1.5900778e-08 7.5708664e-07 3.6963595e-08 2.5524544e-06
000260 d5 b8 8e 31 92 df 5a 34 aa 91 28 32 7f d8 35 35
       4.153757e-09 2.0384167e-07 9.812007e-09 6.77428e-07
000270 ac 48 ae 31 3e 57 36 34 72 81 74 32 7a fe 3e 35
       5.0723283e-09 1.698181e-07 1.4232102e-08 7.115083e-07
000280 52 13 47 33 e8 2d 9b 35 b8 f7 f2 33 05 95 a8 36
       4.635087e-08 1.156176e-06 1.1314063e-07 5.0241383e-06
000290 1d 67 bd 34 f4 35 36 37 da 7a 8e 35 59 00 46 38
       3.5279018e-07 1.0860607e-05 1.0615579e-06 4.7207202e-05
0002a0 58 9e da 32 79 d9 5a 35 d4 a2 aa 33 9b 52 6b 36
       2.5450547e-08 8.1527793e-07 7.94586e-08 3.5065812e-06
0002b0 82 1a a3 34 b1 c0 f5 36 ca b8 59 35 02 ad 0c 38
       3.0380403e-07 7.324001e-06 8.1107703e-07 3.3539727e-05
0002c0 3b 3b 42 32 f6 2a 9d 34 40 f0 21 33 96 eb bd 35
       1.1305754e-08 2.9274787e-07 3.770424e-08 1.4150162e-06
0002d0 87 09 9e 34 17 61 f0 36 fa bd 4c 35 3d 27 09 38
       2.9436725e-07 7.16386e-06 7.6272374e-07 3.269989e-05
0002e0 00 53 37 34 d5 63 91 36 f4 43 09 35 77 2f ac 37
       1.7073398e-07 4.3329587e-06 5.113536e-07 2.05261e-05
0002f0 b4 86 1f 32 5e f1 56 34 7d f5 00 33 f1 f4 82 35
       9.285646e-09 2.0018112e-07 3.0025593e-08 9.757042e-07
000300 76 70 33 34 5a e4 9e 36 cc a7 06 35 11 a9 b3 37
       1.6711587e-07 4.7353506e-06 5.0163067e-07 2.141719e-05
000310 4d 0f 2f 33 4e 5b 8b 35 30 db 08 34 4b 2f a5 36
       4.075928e-08 1.038288e-06 1.2745727e-07 4.922889e-06
000320 91 3a 31 33 5f be 5a 35 22 7f 0a 34 20 d4 90 36
       4.126429e-08 8.1488355e-07 1.2898502e-07 4.316229e-06
000330 aa 30 f6 33 bd d3 45 36 5f d9 bc 34 7a 42 6a 37
       1.14641196e-07 2.9478535e-06 3.5175887e-07 1.3962965e-05
000340 ac 2a 02 34 a2 fe 78 36 88 ba b9 34 ac fb 84 37
       1.2122717e-07 3.7103096e-06 3.4594655e-07 1.585282e-05
000350 3a 29 54 32 0d ed bf 34 07 38 2d 33 85 1e d6 35
       1.2349398e-08 3.5749e-07 4.0330658e-08 1.5953125e-06
000360 c0 6a 4e 33 8e c7 84 35 25 4d 1b 34 ac 47 ab 36
       4.80602e-08 9.892844e-07 1.4463565e-07 5.104541e-06
000370 52 1f 9f 33 2d ba 0b 36 b4 a4 6a 34 d6 f7 1d 37
       7.4097116e-08 2.0820983e-06 2.1852867e-07 9.415633e-06
000380 31 bc 0d 35 b8 9c 82 37 dd d2 c7 35 54 58 8d 38
       5.280045e-07 1.5570185e-05 1.4888025e-06 6.739856e-05
000390 60 52 ba 32 28 34 2e 35 69 81 6f 33 c0 30 36 36
       2.169071e-08 6.489595e-07 5.576422e-08 2.714849e-06
0003a0 50 74 46 34 74 7b a1 36 f9 04 0d 35 ae 06 b9 37
       1.8482501e-07 4.8125457e-06 5.253383e-07 2.2056829e-05
0003b0 d9 bd 53 31 75 16 b2 33 b4 ef 3e 32 37 03 d8 34
       3.0812457e-09 8.292856e-08 1.1113958e-08 4.0235474e-07
0003c0 b9 47 d0 33 9d bf 51 36 f4 0b 92 34 a4 b6 59 37
       9.698801e-08 3.125496e-06 2.7203316e-07 1.2976732e-05
0003d0 00 6c 02 32 8e 98 2f 34 c7 3e 71 32 5c e0 2b 35
       7.591552e-09 1.6353644e-07 1.404232e-08 6.402895e-07
0003e0 d2 07 64 32 29 8d f2 34 81 6e 30 33 a8 f3 00 36
       1.3273125e-08 4.517872e-07 4.1078696e-08 1.9215313e-06
0003f0 38 b3 0c 33 6f bf 92 35 2f 9d b6 33 df 18 94 36
       3.275929e-08 1.0933562e-06 8.503627e-08 4.413639e-06

exp_avg f4 [64]
000000 04 ae 65 39 80 b4 42 b9 d4 af 20 3b cc a9 d0 b9
       0.00021903968 -0.00018568523 0.0024518864 -0.0003979936
000010 e4 76 3c bb b3 34 6e ba 00 11 4a 39 f0 63 d8 bc
       -0.0028757388 -0.0009086832 0.00019270554 -0.026414841
000020 3f 42 0f 3a ba 92 12 3b ac ca 6f 3c a4 fb f4 ba
       0.00054648885 0.0022365288 0.014635723 -0.0018690717
000030 cc e5 8e 3b 17 47 21 3c e4 ba 39 bb ea de 48 bc
       0.00436089 0.009843609 -0.0028340155 -0.012260178
000040 a0 b8 0f bb 0d 1d a1 3a bb c1 33 bb 15 04 53 bc
       -0.0021930113 0.0012291983 -0.0027428705 -0.012879391
000050 fe 02 c4 3b 75 e9 9e bb 15 9e ed b9 8a 28 85 3c
       0.005981802 -0.0048496076 -0.00045321943 0.016254682
000060 be 56 23 bc 7c 9a 38 3b d0 67 e1 bb da ca 29 3c
       -0.009969411 0.0028168252 -0.0068788305 0.010363305
000070 f1 28 5d 3a a3 d7 45 3b de 20 a4 ba 92 3d c0 3b
       0.00084365817 0.0030188344 -0.0012522002 0.0058667148
000080 2c 80 d3 3a 29 bd 6d bb 96 86 5e 3a 61 bb 44 3b
       0.0016136221 -0.0036276078 0.0008488683 0.0030018913
000090 a6 c0 bb 3b 4f 4b 26 3b 88 15 7c ba 58 91 89 3a
       0.0057297526 0.0025374477 -0.00096162455 0.0010495586
0000a0 02 7b ba 3b a8 05 a2 3a e4 2e f2 3a b2 c6 c1 3c
       0.005690933 0.0012361305 0.0018477109 0.023654316
0000b0 6f 05 91 3b 55 79 6f bc fb 48 38 bc 92 a0 0e 3a
       0.0044256966 -0.01461633 -0.011247869 0.0005440797
0000c0 44 d3 14 3c 7c 32 e4 3b e0 b4 53 3b b3 00 12 bc
       0.009083573 0.006964026 0.0032303855 -0.0089112995
0000d0 34 f1 03 3c bd 1e c9 bb 42 74 f8 bb b2 d6 ef 3b
       0.008053113 -0.0061376975 -0.0075822184 0.007319295
0000e0 b3 84 9f 3c 27 96 09 3b 49 14 81 bc b8 0a 19 bb
       0.019472456 0.0020994039 -0.015756743 -0.0023352336
0000f0 e5 e5 ab 3b aa b4 75 ba 24 88 3b bb d2 a3 01 3b
       0.0052459114 -0.00093729293 -0.0028615082 0.0019781482

exp_avg_sq f4 [64]
000000 c9 59 b7 33 84 da 46 35 f4 ff 5d 36 22 5b 49 34
       8.5379334e-08 7.407873e-07 3.308055e-06 1.8752738e-07
000010 61 61 2d 36 90 4b 3d 34 51 8b a5 35 ad 4b 8d 38
       2.583569e-06 1.7629486e-07 1.2334004e-06 6.7375e-05
000020 4f b2 ea 35 93 2c 30 35 7f e5 03 38 52 d5 8b 35
       1.7486253e-06 6.5629973e-07 3.144657e-05 1.0418391e-06
000030 ed 73 69 37 8f b4 ad 37 90 ec 73 36 98 c2 b0 37
       1.3914873e-05 2.0707286e-05 3.634752e-06 2.107145e-05
000040 3f fe f3 34 fa b5 47 36 e7 0e 51 35 5d 11 e5 37
       4.5447266e-07 2.9759235e-06 7.7880253e-07 2.7307013e-05
000050 4d 85 1c 37 57 9f b3 36 f1 79 cd 34 19 34 e0 37
       9.329361e-06 5.3531653e-06 3.827295e-07 2.672714e-05
000060 5f 66 3a 37 b4 c1 ae 35 91 f3 d0 37 15 a5 d1 37
       1.1110299e-05 1.3020385e-06 2.4908952e-05 2.4991614e-05
000070 f3 72 23 35 bf f4 b8 36 9a 55 96 34 5e 0a 52 36
       6.0889505e-07 5.5121195e-06 2.800196e-07 3.1298473e-06
000080 b9 c6 e2 34 b0 5c 87 36 cf 35 79 36 7b 9a 02 36
       4.224037e-07 4.0341038e-06 3.7135212e-06 1.946143e-06
000090 74 05 04 37 77 dc a2 35 80 22 9f 34 e4 88 ce 34
       7.869083e-06 1.2134104e-06 2.964116e-07 3.847009e-07
0000a0 59 5f 97 36 f8 51 d1 37 da 99 fe 35 28 77 40 38
       4.5112506e-06 2.4952911e-05 1.8969251e-06 4.588734e-05
0000b0 45 a4 ed 35 57 5f f8 37 85 4d 9b 37 6b 67 48 35
       1.7705685e-06 2.96083e-05 1.8513538e-05 7.46563e-07
0000c0 56 81 85 37 93 ae b3 36 82 77 7b 36 05 ad 50 37
       1.5915062e-05 5.354939e-06 3.7471477e-06 1.243805e-05
0000d0 d2 f4 3b 37 63 91 31 36 70 40 d6 36 7d fc 01 37
       1.120307e-05 2.6459682e-06 6.3851985e-06 7.747786e-06
0000e0 d6 1c 63 38 23 b6 d0 35 02 cf c9 37 b3 27 10 35
       5.4147873e-05 1.5550216e-06 2.4057463e-05 5.370195e-07
0000f0 5c 7f 03 37 05 5e 04 35 f2 76 ac 35 6d 42 15 36
       7.837862e-06 4.931065e-07 1.2849616e-06 2.2241395e-06

exp_avg f4 [64, 64]
000000 84 dc 77 ba 8a 01 78 ba b5 ba 5f 3a df da a6 3a
       -0.00094551616 -0.00094606786 0.00085345964 0.0012730024
000010 d1 ad a8 3a 2b c6 e3 b9 d7 ed cb 39 26 23 99 ba
       0.0012869184 -0.0004344446 0.00038896382 -0.0011683449
000020 12 26 f2 3a 68 9a 4b b9 08 b9 6d 3a 8d 20 30 3a
       0.0018474481 -0.0001941711 0.00090684043 0.00067187176
000030 2d 10 4e 3a 28 b7 86 b8 e7 4d b7 ba 90 bf e8 39
       0.0007860687 -6.4237334e-05 -0.0013985009 0.00044393213
000040 ce 1e 0d ba 8d 3b 58 3a 31 e2 80 b9 eb d5 7f ba
       -0.00053833134 0.000824862 -0.00024582588 -0.0009759354
000050 e7 89 df 3a 67 27 bb ba 29 6f f7 3a d6 4a 30 3a
       0.0017054648 -0.0014278711 0.0018877733 0.00067250186
000060 14 73 a4 ba 5d c8 2b 3a 17 08 32 ba 22 f2 a5 3a
       -0.0012546503 0.0006552989 -0.00067913666 0.0012660662
000070 c7 38 53 39 0a 0a ba 3a d1 8f 94 ba 8c 46 24 3a
       0.0002014368 0.0014193666 -0.0011334365 0.0006266616
000080 fd 05 f2 b9 23 7f 69 b9 24 13 b3 ba 8d c0 67 39
       -0.00046162299 -0.00022267974 -0.001366232 0.00022101607
000090 40 2c c8 b9 da 11 fc b9 17 d6 de b9 f0 9d 76 b9
       -0.00038179941 -0.00048078486 -0.0004250265 -0.00023519224
0000a0 1c 1e 17 ba 06 b2 ad ba 98 2e df 39 2c f4 51 3a
       -0.00057646795 -0.0013251908 0.0004256859 0.0008009102
0000b0 49 a3 34 39 95 d1 9b 3a 81 bd 58 ba f3 c9 b0 3a
       0.00017226966 0.0011888022 -0.00082679844 0.001348792
0000c0 f8 da 0f 3a e8 38 93 3a c8 d8 af 3a 6f e4 64 ba
       0.0005487646 0.0011232169 0.0013416046 -0.0008731549
0000d0 c0 d2 9f b5 e8 2b 2d ba 16 ae a5 ba 61 94 bb 38
       -1.190776e-06 -0.0006605969 -0.0012640383 8.9444926e-05
0000e0 0f ac 97 39 45 46 90 ba 97 9a 0a ba 62 1d 65 ba
       0.00028929158 -0.001100727 -0.0005287318 -0.0008740035
0000f0 9f 0e 07 ba 65 e9 cc 3a 27 07 17 b9 67 98 62 ba
       -0.000515202 0.0015633522 -0.00014403147 -0.00086439255
000100 46 2f 42 3c 6f 82 3d 3c 9f 3d 2d bc 53 3d 80 bc
       0.011852091 0.011566742 -0.010573774 -0.015654242
000110 52 6b 82 bc a3 11 ad 3b b3 6a 9e bb a6 ac 6a 3c
       -0.015920315 0.0052816435 -0.004834497 0.014323389
000120 c4 91 b9 bc f2 33 19 3b 91 80 38 bc 28 4a 09 bc
       -0.022652514 0.002337691 -0.011261121 -0.008379497
000130 b7 91 1c bc 1c 35 62 3a aa 28 8d 3c e1 1f b4 bb
       -0.0095562255 0.000862913 0.017231304 -0.0054969643
000140 f8 ac d6 3b be 12 29 bc e4 b4 3e 3b fb f7 43 3c
       0.006551381 -0.01031941 0.0029099518 0.011960979
000150 ea 5f ab bc 90 50 8f 3c 6d 1f be bc a4 36 07 bc
       -0.020919759 0.01749447 -0.023208344 -0.008252773
000160 24 62 7c 3c b5 41 03 bc c1 49 09 3c 3c c8 7f bc
       0.015404258 -0.008011271 0.008379401 -0.015611704
000170 70 3a 1b bb f0 74 8e bc ed 3c 63 3c d3 d7 f8 bb
       -0.0023685955 -0.017389745 0.013869506 -0.0075940876
000180 e0 15 b7 3b a4 7a 2f 3b d4 5e 89 3c f8 6c 36 bb
       0.0055873245 0.002677598 0.01676885 -0.0027835947
000190 28 3c 9d 3b 02 74 c5 3b d9 84 ab 3b 38 04 40 3b
       0.004798431 0.006025792 0.0052343425 0.002929939
0001a0 e2 e3 e3 3b 81 f7 85 3c 69 b6 a9 bb 50 7b 1f bc
       0.006954656 0.01635337 -0.0051792157 -0.00973399
0001b0 d4 d5 05 bb 5b 9f 6e bc 79 ca 25 3c 3b 71 88 bc
       -0.002042164 -0.0145643605 0.010119074 -0.016655555
0001c0 a8 4d dd bb e2 f6 60 bc 96 69 86 bc 68 da 2e 3c
       -0.006753642 -0.013730736 -0.01640777 0.010672189
0001d0 c2 ba 9a b8 ce 8a 02 3c fa ea 7d 3c a6 4e 83 ba
       -7.3780786e-05 0.007967664 0.015497917 -0.0010017946
0001e0 e7 4d 62 bb c2 28 5f 3c 14 ca d3 3b e7 84 2f 3c
       -0.0034531297 0.013620557 0.0064632986 0.010712839
0001f0 7e dc d2 3b bc 7f 9d bc 67 22 e3 3a 69 ff 2b 3c
       0.006434976 -0.019225948 0.0017328978 0.010497906
000200 29 cd 71 3c 5f 89 6e 3c 5f 57 63 bc 74 93 a3 bc
       0.014758387 0.014559119 -0.013875811 -0.019967772
000210 0b 88 ac bc da 44 e5 3b 16 71 ac bb 78 c7 a4 3c
       -0.021060964 0.006996733 -0.0052625043 0.020114645
000220 4d df f4 bc f5 66 8c 3b 88 69 7d bc e9 90 2a bc
       -0.029891634 0.0042847344 -0.015467055 -0.010410526
000230 4b 9a 49 bc f1 9f ae 3a 10 0f ba 3c 91 b2 05 bc
       -0.012304853 0.0013322813 0.02271226 -0.008160249
000240 33 bf 0c 3c 7e 89 53 bc a2 07 a9 3b 65 33 85 3c
       0.008590507 -0.012911199 0.0051583806 0.016259858
000250 d2 c7 e7 bc b6 df c0 3c 0c 97 f9 bc c0 c0 42 bc
       -0.028293524 0.023544174 -0.030467533 -0.0118867755
000260 2e 48 af 3c 61 15 29 bc be d9 28 3c 80 7c ab bc
       0.021396723 -0.010320039 0.01030582 -0.02093339
000270 49 bd 11 bb e1 03 bd bc 9a 58 a2 3c 96 b0 38 bc
       -0.0022238067 -0.023073139 0.01981764 -0.01127257
000280 e0 56 fc 3b be f1 2c 3b f8 5e b1 3c 5b a2 1f bb
       0.007700786 0.0026389207 0.02165173 -0.0024358246
000290 b8 6c ca 3b 77 de 04 3c 5f 2a ef 3b 0f 98 2f 3b
       0.006177511 0.00810968 0.007298752 0.0026793515
0002a0 ef ed 29 3c 5c c5 aa 3c 98 c0 c3 bb 2a 1e 6c bc
       0.010371669 0.020846061 -0.0059738867 -0.014411489
0002b0 bb 1b 3a bb a5 34 a4 bc 65 c0 66 3c 78 3b b0 bc
       -0.0028397876 -0.020044634 0.014083956 -0.021512732
0002c0 d9 45 18 bc 54 81 9d bc 67 88 b3 bc 31 52 73 3c
       -0.009293997 -0.019226708 -0.021915628 0.014851139
0002d0 d5 3c 1c b9 de 36 44 3c a3 0b af 3c e6 43 b5 ba
       -0.00014899981 0.011975972 0.021367854 -0.0013829439
0002e0 56 25 b6 bb 2c 29 8e 3c 29 ce 1f 3c 50 5c 7c 3c
       -0.00555865 0.017353617 0.009753742 0.015402868
0002f0 4a 3e ff 3b 52 a5 d7 bc bd ed d5 3a ee b4 68 3c
       0.007789408 -0.026323948 0.0016321462 0.014203293
000300 e6 c9 81 bb a0 2a 85 bb a9 9c 58 3b dc 5d ad 3b
       -0.0039608357 -0.004063919 0.003305236 0.00529073
000310 c4 af a1 3b c7 c0 e1 ba f0 05 04 3b dd df 84 bb
       0.004934283 -0.001722359 0.002014514 -0.004055007
000320 24 ac ed 3b 10 4d 7f b9 ed ca 50 3b a3 48 3a 3b
       0.007253187 -0.00024347403 0.0031859234 0.0028424643
000330 b7 d7 57 3b 48 a0 d8 b8 c9 65 b2 bb 1e c0 ab 3a
       0.0032934973 -0.00010329537 -0.0054442626 0.001310352
000340 4a 95 0e bb 8a 96 60 3b 0b 09 e2 b9 f1 fa 6e bb
       -0.0021756464 0.0034269416 -0.00043112817 -0.003646549
000350 61 1c d1 3b 60 00 b1 bb df a9 f2 3b 0f ff 0e 3b
       0.006381557 -0.005401656 0.007405504 0.0021819507
000360 25 bc 91 bb b7 d7 2f 3b 81 c3 43 bb 19 88 9b 3b
       -0.0044474774 0.0026831457 -0.0029871168 0.0047464487
000370 74 5c aa 3a d9 31 b5 3b 1c b2 7a bb cd e5 00 3b
       0.0012997524 0.005529624 -0.0038253134 0.0019668222
000380 73 a6 e1 ba 89 9d ac ba 12 78 b6 bb 43 38 b4 3a
       -0.0017215743 -0.0013169508 -0.0055685127 0.0013749677
000390 e7 3b c5 ba 81 62 e2 ba a6 6e c0 ba a2 18 bd ba
       -0.001504776 -0.0017271788 -0.0014681413 -0.0014426897
0003a0 ff e9 ef ba 09 86 b3 bb 43 1a 09 3b 7f 26 25 3b
       -0.0018303989 -0.0054786247 0.0020920194 0.0025199947
0003b0 70 1d 2c 3a b1 13 8d 3b 1f ea 3f bb f7 10 b2 3b
       0.0006565666 0.004305326 -0.0029283834 0.0054341513
0003c0 6a e2 ff 3a 6e 7a 81 3b 2e dd a9 3b 98 01 4c bb
       0.0019522433 0.0039513623 0.0051838374 -0.003112888
0003d0 49 95 a8 b8 87 ec 05 bb 23 89 95 bb cc e7 cc 39
       -8.038671e-05 -0.002043517 -0.004563467 0.00039082614
0003e0 e2 5b 45 3a 58 fb 93 bb e9 42 ca ba bb 06 3d bb
       0.0007528645 -0.0045160465 -0.0015431318 -0.0028843123
0003f0 a3 4b 16 bb 99 4e ba 3b 60 88 68 ba ca 74 59 bb
       -0.0022933267 0.005685639 -0.0008870419 -0.0033181184

exp_avg_sq f4 [64, 64]
000000 d8 dc 8a 33 3f d1 a8 33 41 88 0c 33 37 3a fa 33
       6.466297e-08 7.861171e-08 3.2720212e-08 1.16521214e-07
000010 12 b6 9d 33 e0 0e 2f 32 9b ed 3e 33 41 92 82 33
       7.3440006e-08 1.0189723e-08 4.4453923e-08 6.0802e-08
000020 cd 25 3e 34 e7 b9 d8 32 8b bb 18 33 ab db 13 33
       1.7708881e-07 2.5230248e-08 3.5560827e-08 3.442589e-08
000030 2f ab 49 33 e4 1f 0f 31 be 19 ca 33 48 6c b5 32
       4.695465e-08 2.0827366e-09 9.4110405e-08 2.1120414e-08
000040 94 17 96 32 c9 c1 46 33 32 64 e4 32 51 d6 44 33
       1.747302e-08 4.6276714e-08 2.6588257e-08 4.5829726e-08
000050 8e 72 ff 33 8b 2f b8 33 cb 27 3c 34 c9 64 dd 32
       1.18952e-07 8.576816e-08 1.7523341e-07 2.5773618e-08
000060 af a4 91 33 93 36 e5 32 5a 7e 4b 33 7d 40 88 33
       6.7820444e-08 2.6683926e-08 4.7379537e-08 6.344724e-08
000070 21 3b 19 33 14 48 d6 33 0e ac 92 33 78 c4 fb 32
       3.5676866e-08 9.9782625e-08 6.8299514e-08 2.930959e-08
000080 e2 ea 2d 32 55 85 ff 32 a5 a8 fb 33 8a a6 1d 33
       1.01233315e-08 2.974654e-08 1.17187746e-07 3.6705877e-08
000090 9f 6c 11 32 2a 74 25 32 98 68 03 32 92 d9 24 33
       8.464808e-09 9.630677e-09 7.6489854e-09 3.8382105e-08
0000a0 fb 04 e9 32 da 59 02 34 a2 4e 26 33 7c c8 52 33
       2.7127035e-08 1.2139881e-07 3.8721403e-08 4.9076775e-08
0000b0 e7 a8 eb 30 9e 44 72 33 78 59 f7 32 57 d7 e4 33
       1.7146505e-09 5.6407423e-08 2.879527e-08 1.06562474e-07
0000c0 a8 85 45 32 2a 29 68 33 6d 05 b9 33 43 c0 0e 33
       1.1497299e-08 5.4054148e-08 8.615721e-08 3.3236812e-08
0000d0 4a c4 1e 31 53 a5 20 33 37 f3 8c 33 8c a6 bd 30
       2.3103603e-09 3.7403264e-08 6.5634985e-08 1.3798895e-09
0000e0 bb 49 77 32 d1 2f a3 33 4d d3 f6 32 33 20 3e 33
       1.4394057e-08 7.598977e-08 2.8734258e-08 4.4267107e-08
0000f0 a3 3b 04 33 aa 54 d6 33 cd b2 81 32 af f7 1a 33
       3.0787884e-08 9.980552e-08 1.5098886e-08 3.6081186e-08
000100 40 23 2c 37 47 59 50 37 37 81 a8 36 ca d0 97 37
       1.0260206e-05 1.2418553e-05 5.0218327e-06 1.8097828e-05
000110 35 47 3c 37 e6 9c cc 35 6a c6 f7 36 c8 4f 1f 37
       1.1222252e-05 1.5244848e-06 7.384272e-06 9.495714e-06
000120 52 a7 e0 37 23 5f 93 36 4a 11 bf 36 93 1a b8 36
       2.6780795e-05 4.3920168e-06 5.6942563e-06 5.486721e-06
000130 26 20 f4 36 b1 2b c9 34 c5 9f 6f 37 2c ee 74 36
       7.2755092e-06 3.7470957e-07 1.4282709e-05 3.6497468e-06
000140 ca ce 31 36 6d ee f5 36 8e 1a 9a 36 e2 86 e6 36
       2.6495422e-06 7.3293254e-06 4.592649e-06 6.8702366e-06
000150 27 78 95 37 e2 b6 56 37 a8 e3 df 37 94 71 8d 36
       1.7818134e-05 1.2797975e-05 2.6689682e-05 4.2153497e-06
000160 8f b6 2f 37 eb d6 8a 36 ef 01 fe 36 23 97 21 37
       1.0473318e-05 4.1377402e-06 7.570015e-06 9.631537e-06
000170 0d 41 cc 36 89 22 7b 37 7b 69 36 37 74 3e 9f 36
       6.0872467e-06 1.4968807e-05 1.0872604e-05 4.7458398e-06
000180 24 b2 c5 35 55 0d ab 36 2c 6e 97 37 3e bd d3 36
       1.472949e-06 5.097749e-06 1.8051905e-05 6.3103207e-06
000190 c9 e1 b2 35 bd 48 d1 35 2e 52 a1 35 bb 76 db 36
       1.3327746e-06 1.5592883e-06 1.2019352e-06 6.5405306e-06
0001a0 c3 5c 92 36 54 58 9e 37 d4 60 d8 36 38 d1 06 37
       4.361938e-06 1.8876199e-05 6.448574e-06 8.035735e-06
0001b0 2e ba 82 34 78 75 0e 37 0c 3a 93 36 f8 7e 89 37
       2.434985e-07 8.49121e-06 4.387699e-06 1.6390797e-05
0001c0 27 6d ed 35 c3 5b 0a 37 92 89 57 37 48 e1 a8 36
       1.7689644e-06 8.246806e-06 1.2847029e-05 5.0330164e-06
0001d0 15 12 d2 34 51 b6 ca 36 be e1 26 37 e1 91 61 34
       3.9128705e-07 6.0412935e-06 9.946931e-06 2.1007828e-07
0001e0 6a 76 21 36 93 aa 46 37 0d 9b a3 36 e4 05 f1 36
       2.4059796e-06 1.1841435e-05 4.875829e-06 7.1830455e-06
0001f0 b2 2e a5 36 b4 44 7f 37 53 6c 2e 36 1d c4 b1 36
       4.9228192e-06 1.5215181e-05 2.5991073e-06 5.2978417e-06
000200 40 da 8b 37 dd c8 ac 37 41 63 14 37 b3 fc fe 37
       1.6671722e-05 2.0597532e-05 8.844597e-06 3.0396832e-05
000210 ad de a8 37 4e e7 37 36 69 47 47 37 53 32 9f 37
       2.0130852e-05 2.7403762e-06 1.1877951e-05 1.8977711e-05
000220 a5 73 47 38 26 d0 01 37 1d 40 36 37 0f a4 15 37
       4.7553e-05 7.7374625e-06 1.0862973e-05 8.91929e-06
000230 01 ba 4f 37 56 a6 2a 35 f7 ec d4 37 ae 2c e6 36
       1.2381469e-05 6.3571986e-07 2.5382715e-05 6.8597355e-06
000240 50 25 9c 36 a0 77 48 37 3a 58 0a 37 76 8b 5a 37
       4.653506e-06 1.1948781e-05 8.245983e-06 1.3026283e-05
000250 cd 78 0d 38 79 09 c9 37 1e be 44 38 84 21 0c 37
       3.3729524e-05 2.3965478e-05 4.6907102e-05 8.352454e-06
000260 f2 76 ad 37 48 2a ec 36 5c ea 4e 37 f7 0e 96 37
       2.0678595e-05 7.0382703e-06 1.2333123e-05 1.7888362e-05
000270 19 b0 26 37 29 59 e2 37 58 0b b6 37 f0 aa 1e 37
       9.935372e-06 2.6982818e-05 2.1701373e-05 9.457333e-06
000280 8f b8 42 36 9e 60 0b 37 0a 3f 01 38 8c 7e 2c 37
       2.901568e-06 8.307541e-06 3.0814706e-05 1.0281463e-05
000290 50 14 17 36 37 c0 3f 36 19 bb 1f 36 63 35 32 37
       2.2512577e-06 2.8573102e-06 2.3801751e-06 1.0622057e-05
0002a0 36 46 12 37 cb c0 04 38 55 4b 2f 37 6b a9 84 37
       8.718625e-06 3.1650805e-05 1.0448352e-05 1.5814518e-05
0002b0 ae b3 ff 34 23 96 8c 37 41 46 13 37 5a e2 ea 37
       4.7628185e-07 1.6759213e-05 8.77824e-06 2.8000377e-05
0002c0 2c fb 68 36 1a 66 8b 37 14 58 c5 37 fb 9e 28 37
       3.4716895e-06 1.6617636e-05 2.3525245e-05 1.0050596e-05
0002d0 5a d4 30 35 e0 be 48 37 2e 45 a4 37 fe 06 c7 34
       6.587412e-07 1.19653705e-05 1.9582538e-05 3.7071726e-07
0002e0 18 75 99 36 e7 32 a6 37 5c 76 1c 37 c3 b5 6e 37
       4.573387e-06 1.9812445e-05 9.325882e-06 1.4228225e-05
0002f0 ef 3a 05 37 e0 38 f7 37 b5 70 8e 36 c4 e3 27 37
       7.941139e-06 2.9471179e-05 4.2450506e-06 1.00070065e-05
000300 61 5b 92 35 6e af b8 35 2b d4 0c 35 48 18 05 36
       1.0904442e-06 1.3760125e-06 5.246281e-07 1.9832678e-06
000310 45 27 9c 35 51 9b 37 34 8b fd 4d 35 fa a1 64 35
       1.1634335e-06 1.7099707e-07 7.6737405e-07 8.5172326e-07
000320 37 c8 40 36 5e 67 cf 34 77 fa 05 35 b5 df 1e 35
       2.872677e-06 3.8631964e-07 4.9910835e-07 5.9185123e-07
000330 23 96 5b 35 0b 4a 0f 33 cf 30 cb 35 01 a3 9f 34
       8.1802335e-07 3.3362124e-08 1.5138884e-06 2.973466e-07
000340 a1 31 a0 34 07 e0 50 35 16 66 d5 34 ee ad 38 35
       2.9838432e-07 7.781204e-07 3.974862e-07 6.879844e-07
000350 58 07 f5 35 1d b8 b3 35 94 1e 40 36 1e 29 bd 34
       1.825606e-06 1.3390123e-06 2.8628028e-06 3.523391e-07
000360 f0 70 81 35 33 06 f7 34 63 82 5d 35 31 ca 83 35
       9.644118e-07 4.6011846e-07 8.2518653e-07 9.819106e-07
000370 c2 c4 26 35 73 4c d7 35 ce 50 80 35 fc 5a d6 34
       6.212614e-07 1.6040998e-06 9.56026e-07 3.9926806e-07
000380 d2 b6 29 34 65 d7 0a 35 62 11 05 36 27 c5 27 35
       1.5805861e-07 5.1722446e-07 1.9828663e-06 6.249924e-07
000390 75 71 0f 34 3a 91 15 34 62 80 e8 33 14 a5 30 35
       1.3359188e-07 1.392954e-07 1.08266946e-07 6.580533e-07
0003a0 e8 9d c5 34 98 fe 09 36 ec 17 38 35 07 0f 36 35
       3.6809e-07 2.0562784e-06 6.858015e-07 6.782215e-07
0003b0 f9 db df 32 bf 8b 5e 35 c7 80 da 34 c4 14 ed 35
       2.6060649e-08 8.29048e-07 4.0699362e-07 1.766392e-06
0003c0 e1 d6 31 34 f8 cf 4e 35 ca 49 b8 35 df c2 fd 34
       1.6562582e-07 7.7043615e-07 1.3730544e-06 4.726671e-07
0003d0 e7 67 1d 33 4c be 09 35 21 54 80 35 3f 94 c3 32
       3.664891e-08 5.1313395e-07 9.561228e-07 2.2768402e-08
0003e0 f4 40 58 34 e6 03 ad 35 7a 07 d8 34 fd 4d 23 35
       2.0140197e-07 1.2890639e-06 4.0238575e-07 6.083572e-07
0003f0 4d 1e 0d 35 45 e4 c4 35 6c 0b 8d 34 06 61 1b 35
       5.2570687e-07 1.4669573e-06 2.6271607e-07 5.788319e-07

exp_avg f4 [64]
000000 73 cc 95 ba 2c 54 68 3c 46 5f 85 3c d0 3c b4 bb
       -0.0011428728 0.014180224 0.016280781 -0.0055004135
000010 94 ed b2 bc f4 a6 5c 3c 48 85 a3 ba 21 af c7 bc
       -0.021841802 0.013467539 -0.0012475634 -0.0243755
000020 59 bc 0e 3a 76 61 39 3b 5b 61 f5 38 76 4f 5b 3a
       0.0005444936 0.002828685 0.00011700644 0.00083660276
000030 da 59 5a ba 63 b1 d5 ba 9d 65 16 bc a7 e9 ae ba
       -0.0008329429 -0.0016303476 -0.0091795 -0.001334478
000040 ad ce dd 39 f7 b2 9c 3c 69 ef 53 39 4e 0f f8 3b
       0.0004230639 0.019128306 0.00020211715 0.007570184
000050 cc a2 11 3c 04 d3 84 3c 93 00 26 3c a2 0d b8 3a
       0.008888911 0.016213901 0.010131973 0.0014042149
000060 8e 7a b7 bc 83 2a 91 3c 66 59 64 bc 4f 83 bd 3c
       -0.022397306 0.017720466 -0.01393733 0.023133902
000070 2f 02 95 3c e2 b3 a3 bc 8a ce 7a 3b 22 02 0e bb
       0.018189518 -0.019983236 0.003827008 -0.0021668752
000080 4e 54 cb 3b ef f8 82 3c f5 ce bd bb 42 aa b1 bb
       0.0062051183 0.015987841 -0.0057924935 -0.0054219076
000090 7a b0 55 bc 10 f5 87 bb 5b a1 1e 3b 4e d4 00 bc
       -0.013042564 -0.004149087 0.0024205062 -0.007863117
0000a0 82 f2 c8 ba 5a 43 19 3a bb 67 1a 3c b1 75 99 b9
       -0.0015331062 0.0005846523 0.009424145 -0.0002927012
0000b0 60 31 d7 bb be ba 95 bb 1c 65 e9 3b 71 aa a2 bb
       -0.0065671653 -0.0045693805 0.007122649 -0.004964166
0000c0 7b f5 77 3b 5e 9c 13 bc c3 2a 93 3c bc 40 4c 3c
       0.0037835527 -0.009009449 0.017964726 0.012466606
0000d0 81 28 8a 3c 06 63 c3 3b 74 56 00 3c 9e 34 68 3a
       0.016865017 0.0059627322 0.007833112 0.0008857938
0000e0 70 48 95 3c cd b8 03 3b 2c 82 1d bb f2 4d 44 3b
       0.018223017 0.0020099164 -0.0024033887 0.0029953686
0000f0 c4 47 9b bc 10 d8 86 3c a8 4b 32 3c df 7f a6 ba
       -0.018955119 0.016460449 0.010882296 -0.0012702903

exp_avg_sq f4 [64]
000000 4f ff 80 34 cc 78 26 38 f6 96 85 38 bd ec 8c 36
       2.402762e-07 3.9689985e-05 6.370053e-05 4.199885e-06
000010 0e a3 e4 38 8e f9 14 38 9a 8d f1 34 f3 be c2 38
       0.000109022585 3.5518366e-05 4.4992777e-07 9.286208e-05
000020 fe 1e aa 33 e5 3f fb 35 51 b6 e4 31 e9 63 57 34
       7.921879e-08 1.8719553e-06 6.6564003e-09 2.0059782e-07
000030 b7 f0 6e 34 e7 28 6c 35 4d d8 ec 37 a5 84 1a 35
       2.2253049e-07 8.797637e-07 2.8234115e-05 5.7562494e-07
000040 c9 6a 83 33 45 20 ae 38 1a 0a ab 32 17 47 52 37
       6.119587e-08 8.302977e-05 1.9911614e-08 1.2533527e-05
000050 d7 fd 70 38 96 b8 6d 38 7e 7d d0 37 1a 7f 4f 35
       5.7456866e-05 5.6677112e-05 2.4853969e-05 7.7298466e-07
000060 c5 b8 f5 38 e2 66 6b 38 1d 12 4e 38 5a b4 ba 38
       0.000117169264 5.6124183e-05 4.9131097e-05 8.902764e-05
000070 c6 07 94 38 51 97 c8 38 27 d6 85 36 31 9f 9c 35
       7.058638e-05 9.564928e-05 3.9886395e-06 1.1669237e-06
000080 63 d1 1d 37 a0 5f 80 38 a5 ef f6 36 55 ac cf 36
       9.406681e-06 6.121327e-05 7.3592696e-06 6.189143e-06
000090 0d f6 2a 38 11 76 91 36 b7 46 a2 35 19 4c 70 37
       4.076031e-05 4.3350815e-06 1.2090521e-06 1.4322833e-05
0000a0 40 92 12 35 5f e5 8d 33 c2 90 d6 37 9a 2e 3a 33
       5.460206e-07 6.6075465e-08 2.5578196e-05 4.3348884e-08
0000b0 5f ae 5f 37 51 43 94 36 09 23 cb 37 a6 53 c4 36
       1.3332435e-05 4.4185804e-06 2.42158e-05 5.850993e-06
0000c0 6e ef f0 35 79 43 99 37 6e 9b a6 38 84 0d ef 37
       1.7951077e-06 1.827044e-05 7.944448e-05 2.8497314e-05
0000d0 e0 3f 8a 38 55 d0 4b 37 1a 59 80 37 bf 5f 3a 34
       6.5922504e-05 1.2148249e-05 1.530028e-05 1.7357432e-07
0000e0 5c 68 0d 38 07 d0 69 35 36 14 04 36 69 e4 19 36
       3.3714212e-05 8.7101984e-07 1.9681297e-06 2.2931729e-06
0000f0 2b 4a b9 38 59 3d 5a 38 3b 49 03 38 07 e0 fd 34
       8.835302e-05 5.2032385e-05 3.1301035e-05 4.7287924e-07

exp_avg f4 [2, 64]
000000 85 7c 39 bc b1 96 c2 3d f6 08 8b 3c e8 8d 2f 3d
       -0.011321192 0.09501398 0.016972046 0.04285994
000010 58 57 d2 3d ec be ae 3d 42 a1 b2 bd fa 71 a6 3b
       0.10270566 0.08532509 -0.08722164 0.005079505
000020 bf 5a 55 bc 8e 1e b3 3d 0c 7e 95 3c 4f bf 49 3d
       -0.013022124 0.08746062 0.01824858 0.04925471
000030 07 08 44 bd d2 de 57 3d 30 8b 62 3d 73 94 a6 bd
       -0.047859218 0.052702732 0.05530852 -0.08133783
000040 c7 c8 9a bb 9c 7d b7 3c 7c 71 54 3d 10 7c 42 3c
       -0.0047236416 0.022398762 0.05186604 0.011870399
000050 14 22 f9 3d 20 10 01 3d 86 91 76 3c 3e 6b 98 3d
       0.12164703 0.03150952 0.015049344 0.0744233
000060 a8 e7 c0 3b da e3 82 3d 59 1e ed 3c f1 2b 80 3d
       0.0058869906 0.063911155 0.028945135 0.06258381
000070 e7 d8 9a 3d 53 ca 3f 3c 9c 42 28 bd f3 4b 40 bd
       0.07560902 0.011705953 -0.04107915 -0.04694743
000080 82 b5 c0 bc 1d 65 2f 3d 55 97 9a 3c 11 f8 8f bd
       -0.02352405 0.04282104 0.018870989 -0.07029737
000090 59 b2 87 3c 45 f6 c3 bc bd 48 d6 bc 24 b2 3b 3d
       0.016564535 -0.023921141 -0.026157731 0.045824185
0000a0 f9 e7 3d bd 23 a8 17 3b b4 29 ab bd da c8 c2 3c
       -0.046363804 0.0023140989 -0.083575636 0.023777414
0000b0 17 b4 46 bd ea 4e 3b 3b 74 67 e0 3d 7c 90 22 bd
       -0.04851159 0.0028580972 0.10957232 -0.039688572
0000c0 e6 cb 6e 3d 3e 0f f5 bb 51 e1 6b 3c ca 6a f1 3d
       0.05829992 -0.0074786237 0.014396981 0.117879465
0000d0 ac 17 91 3c a6 96 81 3d 2d 8c 1b 3d 22 09 3e bc
       0.017711483 0.06327562 0.03797548 -0.011598857
0000e0 56 45 b8 3d dd f3 82 3c 9f e0 ca bd 4b 02 87 bc
       0.089976 0.015985424 -0.09906124 -0.016480586
0000f0 b6 ae 2b bc 09 99 a8 3d 7a 0c 00 bd 88 65 10 3d
       -0.010478666 0.08232314 -0.0312619 0.035253078
000100 84 7c 39 3c b1 96 c2 bd f6 08 8b bc e4 8d 2f bd
       0.011321191 -0.09501398 -0.016972046 -0.042859927
000110 59 57 d2 bd ec be ae bd 43 a1 b2 3d 16 72 a6 bb
       -0.102705665 -0.08532509 0.087221645 -0.005079518
000120 ba 5a 55 3c 8e 1e b3 bd 09 7e 95 bc 51 bf 49 bd
       0.013022119 -0.08746062 -0.018248575 -0.04925472
000130 09 08 44 3d ce de 57 bd 30 8b 62 bd 74 94 a6 3d
       0.047859225 -0.052702717 -0.05530852 0.08133784
000140 ca c8 9a 3b 9f 7d b7 bc 7b 71 54 bd 11 7c 42 bc
       0.004723643 -0.022398768 -0.051866036 -0.0118704
000150 15 22 f9 bd 1f 10 01 bd 86 91 76 bc 40 6b 98 bd
       -0.12164704 -0.031509515 -0.015049344 -0.07442331
000160 a7 e7 c0 bb da e3 82 bd 5a 1e ed bc f1 2b 80 bd
       -0.00588699 -0.063911155 -0.028945137 -0.06258381
000170 e8 d8 9a bd 54 ca 3f bc 9c 42 28 3d f5 4b 40 3d
       -0.07560903 -0.011705954 0.04107915 0.04694744
000180 82 b5 c0 3c 1d 65 2f bd 56 97 9a bc 10 f8 8f 3d
       0.02352405 -0.04282104 -0.01887099 0.07029736
000190 59 b2 87 bc 47 f6 c3 3c c0 48 d6 3c 25 b2 3b bd
       -0.016564535 0.023921145 0.026157737 -0.04582419
0001a0 f9 e7 3d 3d 1b a8 17 bb b4 29 ab 3d da c8 c2 bc
       0.046363804 -0.002314097 0.083575636 -0.023777414
0001b0 17 b4 46 3d f0 4e 3b bb 74 67 e0 bd 7c 90 22 3d
       0.04851159 -0.0028580986 -0.10957232 0.039688572
0001c0 e5 cb 6e bd 37 0f f5 3b 56 e1 6b bc ca 6a f1 bd
       -0.058299918 0.0074786204 -0.014396986 -0.117879465
0001d0 ac 17 91 bc a5 96 81 bd 2e 8c 1b bd 2c 09 3e 3c
       -0.017711483 -0.06327561 -0.037975483 0.011598866
0001e0 57 45 b8 bd dc f3 82 bc a0 e0 ca 3d 4b 02 87 3c
       -0.089976005 -0.015985422 0.09906125 0.016480586
0001f0 b8 ae 2b 3c 08 99 a8 bd 7c 0c 00 3d 89 65 10 bd
       0.010478668 -0.082323134 0.031261906 -0.03525308

exp_avg_sq f4 [2, 64]
000000 cc 77 a6 38 88 6f ba 39 bf 35 a8 38 cb 42 73 39
       7.937811e-05 0.00035559782 8.020875e-05 0.00023199168
000010 66 1d 00 3a 3e 4e 95 39 61 5c a3 39 82 2c 8d 39
       0.0004887193 0.0002847779 0.0003115861 0.00026926777
000020 95 d2 b5 38 45 31 a0 39 ec 12 fc 38 85 4b 11 39
       8.6699765e-05 0.00030554287 0.00012019821 0.00013856411
000030 b1 d9 54 39 2a 17 8d 39 5e 30 a3 39 d9 fa 9a 39
       0.00020298992 0.00026910874 0.0003112582 0.00029560065
000040 9e f6 1a 37 5d c1 bf 37 d4 69 2a 39 65 15 d0 37
       9.236535e-06 2.2859016e-05 0.00016251887 2.4805495e-05
000050 b0 f6 35 3a 10 96 31 38 b3 5f 2d 37 b0 d3 b4 39
       0.00069413614 4.2339845e-05 1.0333885e-05 0.00034489995
000060 da 78 9f 37 40 08 2f 39 98 ca 59 38 51 8e 32 39
       1.9010553e-05 0.00016692374 5.192551e-05 0.0001702842
000070 de 01 65 39 e5 b8 40 38 a3 98 d9 38 00 20 c1 38
       0.00021839837 4.5948564e-05 0.00010375797 9.2089176e-05
000080 35 0d 0f 38 2b 1b 87 38 16 c3 57 38 56 57 43 39
       3.4106157e-05 6.442362e-05 5.1441682e-05 0.00018629184
000090 e1 3c a3 37 cb 72 30 38 a0 6e 98 39 8b fe e5 38
       1.9459463e-05 4.206858e-05 0.0002907412 0.00010966983
0000a0 f3 d6 ac 38 ab 96 8f 38 a2 a4 b6 39 b0 ad 24 38
       8.2416365e-05 6.8468355e-05 0.00034836406 3.9262406e-05
0000b0 04 d8 65 39 f7 2c b1 38 6e 6a 11 3a e4 b9 76 38
       0.00021919614 8.448393e-05 0.00055471703 5.8824095e-05
0000c0 86 e5 75 39 f1 f3 88 37 d4 db 72 37 b2 95 10 3a
       0.00023450525 1.6326057e-05 1.4475507e-05 0.00055154704
0000d0 a2 9b 57 37 e4 c4 86 39 33 61 76 38 ba 16 cc 38
       1.2851235e-05 0.00025705167 5.8741494e-05 9.731711e-05
0000e0 62 66 ec 39 47 14 80 37 dc a5 e9 39 b7 88 23 38
       0.0004508971 1.5268231e-05 0.00044564798 3.8989554e-05
0000f0 9d a2 d2 36 4d c6 87 39 a8 a6 ac 38 fa a4 a2 38
       6.2774184e-06 0.00025896952 8.232641e-05 7.755491e-05
000100 cd 77 a6 38 87 6f ba 39 bd 35 a8 38 ca 42 73 39
       7.9378115e-05 0.0003555978 8.020874e-05 0.00023199167
000110 65 1d 00 3a 3f 4e 95 39 61 5c a3 39 84 2c 8d 39
       0.00048871926 0.00028477793 0.0003115861 0.00026926782
000120 98 d2 b5 38 45 31 a0 39 e8 12 fc 38 86 4b 11 39
       8.669979e-05 0.00030554287 0.00012019818 0.00013856412
000130 b3 d9 54 39 2a 17 8d 39 5f 30 a3 39 d9 fa 9a 39
       0.00020298995 0.00026910874 0.00031125822 0.00029560065
000140 9c f6 1a 37 5d c1 bf 37 d3 69 2a 39 67 15 d0 37
       9.2365335e-06 2.2859016e-05 0.00016251886 2.4805498e-05
000150 b0 f6 35 3a 11 96 31 38 b3 5f 2d 37 b2 d3 b4 39
       0.00069413614 4.233985e-05 1.0333885e-05 0.0003449
000160 d9 78 9f 37 41 08 2f 39 96 ca 59 38 50 8e 32 39
       1.9010551e-05 0.00016692375 5.1925505e-05 0.00017028418
000170 df 01 65 39 e4 b8 40 38 a4 98 d9 38 02 20 c1 38
       0.00021839839 4.594856e-05 0.00010375798 9.208919e-05
000180 34 0d 0f 38 2a 1b 87 38 18 c3 57 38 55 57 43 39
       3.4106153e-05 6.442361e-05 5.144169e-05 0.00018629183
000190 e1 3c a3 37 cd 72 30 38 a0 6e 98 39 8a fe e5 38
       1.9459463e-05 4.2068586e-05 0.0002907412 0.000109669825
0001a0 f4 d6 ac 38 ac 96 8f 38 a2 a4 b6 39 af ad 24 38
       8.241637e-05 6.846836e-05 0.00034836406 3.9262402e-05
0001b0 07 d8 65 39 fa 2c b1 38 6d 6a 11 3a e5 b9 76 38
       0.00021919618 8.448395e-05 0.000554717 5.88241e-05
0001c0 85 e5 75 39 f1 f3 88 37 d5 db 72 37 b2 95 10 3a
       0.00023450523 1.6326057e-05 1.4475508e-05 0.00055154704
0001d0 a1 9b 57 37 e3 c4 86 39 2f 61 76 38 bc 16 cc 38
       1.2851234e-05 0.00025705164 5.874148e-05 9.7317126e-05
0001e0 61 66 ec 39 48 14 80 37 db a5 e9 39 b8 88 23 38
       0.00045089706 1.5268233e-05 0.00044564795 3.8989558e-05
0001f0 a1 a2 d2 36 4f c6 87 39 a8 a6 ac 38 f8 a4 a2 38
       6.27742e-06 0.00025896958 8.232641e-05 7.75549e-05

exp_avg f4 [2]
000000 32 91 c0 bd 38 91 c0 3d
       -0.09402694 0.09402698

exp_avg_sq f4 [2]
000000 81 a2 0b 3b 82 a2 0b 3b
       0.0021306577 0.002130658
