flare/polgrad/lightning_logs/version_10/checkpoints/epoch=88_v0.ckpt (torch_old, 122228 bytes, 36 tensors)

exp_avg f4 [2]
0	0x3c0bb1b5	0.008526255
1	0x3c17fce3	0.0092766015

exp_avg_sq f4 [2]
0	0x3b38beab	0.002818982
1	0x3b349b05	0.002755822

exp_avg f4 [64, 8]
0	0x3988c502	0.00026086724
1	0x3ad0c274	0.0015927092
2	0x37daece3	2.6097934e-05
3	0xb9d4e0e3	-0.00040603345
4	0x392c4858	0.00016430148
5	0xba010ecf	-0.0004923166
6	0x35f38540	1.8143692e-06
7	0xb7a03c14	-1.9101462e-05
8	0xb9cb3274	-0.00038756768
9	0xbb0c1271	-0.0021373297
10	0x37373f3f	1.0922376e-05
11	0x3a0725fb	0.0005155501
12	0xb98fabc1	-0.00027403052
13	0x3a0e1752	0.0005420345
14	0xb8a222ad	-7.731221e-05
15	0xb7acca7c	-2.0598287e-05
16	0xb77d1b30	-1.5086305e-05
17	0x3abfff07	0.0014648148
18	0xb936b528	-0.00017424359
19	0x38fbae9a	0.00012001135
20	0x39bf1d98	0.00036452408
21	0xba217782	-0.00061594706
22	0xb8f94934	-0.000118868804
23	0x397d531f	0.00024158925
24	0x38ac49a0	8.215313e-05
25	0x3ade7354	0.0016971626
26	0xb978e890	-0.0002373776
27	0x38a5c5a9	7.90463e-05
28	0x39e0519c	0.00042785413
29	0xba1c62a7	-0.0005965628
30	0xb796a510	-1.7958257e-05
31	0x39ec5273	0.00045074857
32	0xb8c8303a	-9.545726e-05
33	0xb87d2b3a	-6.036016e-05
34	0xb7d678a5	-2.5566967e-05
35	0x390d243f	0.0001346031
36	0x37b834db	2.1959122e-05
37	0xb77291e2	-1.445829e-05
38	0xb88bb9de	-6.662657e-05
39	0x380dcea6	3.3809476e-05
40	0x39811a23	0.0002462427
41	0xb9d8c282	-0.0004134365
42	0x387be923	6.006019e-05
43	0xb9da1657	-0.00041596845
44	0xb958c302	-0.00020672011
45	0x39b573a9	0.00034609184
46	0x39b15743	0.00033825086
47	0xb90cbcce	-0.00013421776
48	0xba3e6f9c	-0.0007264556
49	0xba2218ac	-0.0006183486
50	0xb9e8dc3d	-0.0004441458
51	0x3ab4fd72	0.0013808443
52	0x39b81573	0.00035111196
53	0x35cc62e7	1.5227969e-06
54	0xb979f8a2	-0.00023839113
55	0x3a23675f	0.000623336
56	0x38d4b852	0.0001014328
57	0x3a38bd5d	0.00070472603
58	0xb8088e18	-3.2557262e-05
59	0xb9010086	-0.00012302594
60	0x38cc279b	9.734855e-05
61	0xb97b2d1b	-0.00023954028
62	0x376bc930	1.4053934e-05
63	0x3831d166	4.2395106e-05
64	0xba064b6d	-0.00051229337
65	0xbb114630	-0.002216708
66	0xb8a0d6e6	-7.6694225e-05
67	0x3a482ac2	0.0007635766
68	0xb936de7e	-0.00017439757
69	0x3a2b14b2	0.0006526216
70	0xb8cf1f7a	-9.876392e-05
71	0x390f352c	0.00013657351
72	0xb8839d57	-6.2758736e-05
73	0xb661846c	-3.3604692e-06
74	0xb8164a06	-3.5831727e-05
75	0x38c26bb4	9.270702e-05
76	0x387af2aa	5.9830643e-05
77	0x37cb09f5	2.4204122e-05
78	0xb7c3de3a	-2.3349294e-05
79	0x38d9b4d8	0.00010381051
80	0xb98883a2	-0.00026038015
81	0x3adccc67	0.0016845585
82	0xb9dfcf4e	-0.00042688329
83	0x3a32d248	0.00068214955
84	0x3a21936f	0.0006163632
85	0xba11d085	-0.0005562383
86	0xb90e227e	-0.00013555025
87	0x3a45450e	0.00075252436
88	0x392fddf0	0.00016771979
89	0x3ae47f7a	0.001743301
90	0xb87a19c3	-5.9628637e-05
91	0xb9510eca	-0.00019937303
92	0x3988c0cb	0.00026083583
93	0xb9e7e4a6	-0.0004423011
94	0xb92e821a	-0.000166424
95	0xb8aa2069	-8.1122686e-05
96	0x39c697ba	0.00037878548
97	0x3ae8e62d	0.0017768793
98	0xb7e48862	-2.7243226e-05
99	0xb9e7d738	-0.00044220104
100	0x39915316	0.0002771846
101	0xba147f8d	-0.00056647585
102	0x38e27932	0.00010799094
103	0x392d72d0	0.00016541337
104	0xb9599c76	-0.00020753019
105	0xbac76762	-0.0015213306
106	0xb75f9ad9	-1.3327889e-05
107	0x39b08979	0.0003367176
108	0xb93ec6a3	-0.0001819381
109	0x3a0c6133	0.000535506
110	0x383cecf2	4.5043365e-05
111	0x3854b766	5.0715542e-05
112	0x3a458341	0.0007534512
113	0x3b2507dc	0.0025181687
114	0x3923d203	0.00015623127
115	0xba9cd141	-0.0011964218
116	0x392201be	0.00015450173
117	0xba6761d2	-0.0008826527
118	0x38f0b242	0.00011477295
119	0xb9aa1eec	-0.00032447965
120	0x38c1f2b5	9.248165e-05
121	0x3a95936e	0.0011411735
122	0xb834e66d	-4.3129945e-05
123	0xb8e16a8a	-0.000107486805
124	0x3984d232	0.0002533361
125	0xba16fc5d	-0.0005759651
126	0xb85994a4	-5.1875264e-05
127	0x3919bfb6	0.00014662635
128	0x39025972	0.00012431087
129	0xb9f61240	-0.00046934374
130	0x38e97714	0.00011132486
131	0xb97ddc47	-0.0002421002
132	0xb940e182	-0.00018394555
133	0x3976948b	0.00023515725
134	0x3905a286	0.00012744413
135	0xb94bb464	-0.0001942679
136	0x3a15bb61	0.00057118206
137	0x38f37bcc	0.00011610202
138	0x39773e93	0.00023579066
139	0xba681826	-0.0008853696
140	0xb9b9727d	-0.0003537125
141	0x3921ca29	0.00015429467
142	0x39e22423	0.00043133003
143	0xb9dc5a8c	-0.00042029133
144	0x39c8a57b	0.00038270265
145	0x390991fa	0.00013119719
146	0x396f9110	0.00022846856
147	0xba3f6be6	-0.000730215
148	0xb98d1ce2	-0.00026915135
149	0x3905ab16	0.00012747603
150	0x3943ae1f	0.00018661514
151	0xb9daaf0a	-0.00041710614
152	0xb8ab332c	-8.163447e-05
153	0x3aa5aad6	0.0012639414
154	0xb9612fa1	-0.00021475415
155	0x39a01d6a	0.00030539493
156	0x39c18d42	0.00036917074
157	0xb9d62ce7	-0.00040850716
158	0xb9236c62	-0.00015585267
159	0x39ce759c	0.00039379008
160	0x392167c0	0.00015392806
161	0xba9fc739	-0.001219011
162	0x39890b09	0.00026138898
163	0xb9b5d1c4	-0.00034679298
164	0xb9d22f87	-0.00040089732
165	0x3a1f7a86	0.0006083626
166	0x392e51e9	0.00016624447
167	0xb9cbc41c	-0.0003886529
168	0x3a18c23c	0.0005827283
169	0x3b1b3f6f	0.0023688932
170	0x37f77412	2.9498744e-05
171	0xba595c43	-0.0008291641
172	0x396598d1	0.0002189607
173	0xba0e8d6e	-0.0005437945
174	0x397d5f17	0.00024163384
175	0x3859d490	5.1934796e-05
176	0xba50b15a	-0.0007960998
177	0xbb6c957e	-0.0036099846
178	0xb8869421	-6.417209e-05
179	0x3a999c79	0.0011719606
180	0xb9afa8b1	-0.00033504286
181	0x3a89098a	0.0010455113
182	0xb969bf2c	-0.00022291829
183	0x38ad0520	8.2502374e-05
184	0xba0002da	-0.00048832374
185	0x3996aa40	0.00028737076
186	0xb96847ae	-0.00022151947
187	0x3a4b648c	0.0007758818
188	0x3995ac5b	0.0002854791
189	0xb98a6d03	-0.0002640263
190	0xb9e3d0de	-0.00043452432
191	0x399f06e4	0.00030331977
192	0x39355e5b	0.00017296655
193	0xb9670999	-0.00022033452
194	0x38ad60f9	8.2673454e-05
195	0xb98e084c	-0.00027090532
196	0xb8ffd087	-0.00012198189
197	0x38ee5cba	0.00011365996
198	0x393e36a8	0.00018140173
199	0xb8b3b8ee	-8.569831e-05
200	0x3a348209	0.0006885832
201	0xba348fbe	-0.00068878743
202	0x39ada367	0.00033118876
203	0xba92209e	-0.0011148637
204	0xb9eafda3	-0.00044820932
205	0x3a1e3a81	0.00060359394
206	0x3a3aa45d	0.0007119829
207	0xb9d6cd8b	-0.00040970402
208	0x393f1db6	0.00018226248
209	0x3ad86008	0.0016508112
210	0xb85dfb15	-5.2924344e-05
211	0xb96b9251	-0.00022465854
212	0x399d895b	0.0003004771
213	0xba2ba1b9	-0.0006547231
214	0xb83383cc	-4.279967e-05
215	0x391bacdf	0.00014846351
216	0xb801f68e	-3.098562e-05
217	0xba88ed2b	-0.0010446658
218	0x38b6153e	8.682393e-05
219	0x3797f2bc	1.8113635e-05
220	0xb96cb26b	-0.0002257318
221	0x39bb3ecf	0.00035714215
222	0x38b6b03f	8.711265e-05
223	0xb88e81ec	-6.7952875e-05
224	0xb8ee1346	-0.00011352314
225	0xbaa3c50d	-0.0012494639
226	0x388af9dd	6.6268934e-05
227	0x3937c806	0.00017526755
228	0xb964ef2c	-0.00021832873
229	0x3a15079b	0.0005685032
230	0x38428c10	4.6383648e-05
231	0xb878da65	-5.9331203e-05
232	0xb789094c	-1.6336002e-05
233	0xba0b9dbe	-0.00053259346
234	0x380f7bb8	3.420908e-05
235	0xb6f6a039	-7.3500237e-06
236	0xb9067b54	-0.00012825179
237	0x397ef62e	0.00024315037
238	0x388154c5	6.166989e-05
239	0xb86b97e4	-5.6169825e-05
240	0x39e0fee0	0.00042914506
241	0x3a763a66	0.00093928573
242	0x391a2be8	0.00014702941
243	0xba328e20	-0.00068113394
244	0xb8ae417c	-8.309164e-05
245	0xb93a67a0	-0.00017776946
246	0x39492fe2	0.00019186691
247	0xb9912ca0	-0.00027689803
248	0xb78d7144	-1.6861253e-05
249	0x3ad8cd80	0.0016540736
250	0xb95a6442	-0.00020827449
251	0x38cce374	9.7698445e-05
252	0x39cda1f6	0.00039221317
253	0xba3f169c	-0.0007289441
254	0xb92aa121	-0.00016272489
255	0x3998686f	0.00029069508

exp_avg_sq f4 [64, 8]
0	0x372a8611	1.0164004e-05
1	0x3826da0a	3.978055e-05
2	0x3698bd4b	4.5519896e-06
3	0x36a6e541	4.973874e-06
4	0x369af4de	4.618064e-06
5	0x36edd029	7.0873834e-06
6	0x37a1fd17	1.931055e-05
7	0x379f9e50	1.9027997e-05
8	0x37723bf4	1.4438283e-05
9	0x386499eb	5.4502783e-05
10	0x36d6ec27	6.4051887e-06
11	0x36fe2b50	7.574832e-06
12	0x36d8137c	6.43957e-06
13	0x37181abc	9.066131e-06
14	0x37bd554e	2.2570279e-05
15	0x37bc3b07	2.2438833e-05
16	0x3711834f	8.673246e-06
17	0x37c38b88	2.3310786e-05
18	0x36a31f2a	4.8614065e-06
19	0x36cdf736	6.1382552e-06
20	0x36c88485	5.975892e-06
21	0x36fba79a	7.4998943e-06
22	0x37926c14	1.7454884e-05
23	0x3790de2c	1.7269595e-05
24	0x378983b1	1.6392996e-05
25	0x384854a9	4.776256e-05
26	0x36d93334	6.473065e-06
27	0x37045e96	7.889836e-06
28	0x36ecc1af	7.055896e-06
29	0x370c2a75	8.354536e-06
30	0x37f26fa2	2.8900631e-05
31	0x3804db5b	3.1675543e-05
32	0x3517daa1	5.657003e-07
33	0x36376762	2.7329302e-06
34	0x356339c4	8.464815e-07
35	0x35861add	9.991596e-07
36	0x357a03b3	9.313764e-07
37	0x354bc823	7.591463e-07
38	0x34af8164	3.2690434e-07
39	0x346b51e3	2.1915871e-07
40	0x36a108bb	4.7991903e-06
41	0x371d015f	9.3582485e-06
42	0x35beb88a	1.4209811e-06
43	0x3602f847	1.9516026e-06
44	0x35be74e4	1.4190123e-06
45	0x365f044e	3.3232095e-06
46	0x372a4ab7	1.01501855e-05
47	0x37168467	8.971524e-06
48	0x380b63be	3.3233075e-05
49	0x388f0878	6.820349e-05
50	0x37360ff0	1.0851756e-05
51	0x37956f20	1.781393e-05
52	0x374027dd	1.1453373e-05
53	0x379aea9d	1.8467481e-05
54	0x3879c721	5.955168e-05
55	0x3868c5eb	5.5497436e-05
56	0x35f34afa	1.8126732e-06
57	0x36fcf124	7.5382577e-06
58	0x35a8f151	1.2587208e-06
59	0x35b32181	1.334629e-06
60	0x35ba44ac	1.3878066e-06
61	0x35b372f0	1.336999e-06
62	0x363796ca	2.7356896e-06
63	0x3648f38c	2.9944085e-06
64	0x376fac0e	1.428557e-05
65	0x38542765	5.0581428e-05
66	0x36b2d7da	5.329942e-06
67	0x36d597eb	6.3655802e-06
68	0x36b2ba4f	5.3265026e-06
69	0x3708cc03	8.153732e-06
70	0x380fb0e9	3.4258617e-05
71	0x380638f0	3.2001117e-05
72	0x35353cf0	6.751643e-07
73	0x359b6510	1.1577813e-06
74	0x34afbfe1	3.27359e-07
75	0x3502ede6	4.877496e-07
76	0x34dab413	4.0736685e-07
77	0x35066deb	5.007884e-07
78	0x35c19e06	1.4425611e-06
79	0x35a86fc4	1.2549503e-06
80	0x382f474f	4.1789663e-05
81	0x38e889f1	0.00011088316
82	0x378f1e72	1.7061106e-05
83	0x37b9bae2	2.2140743e-05
84	0x379d31a6	1.8738978e-05
85	0x37c39e8e	2.3319644e-05
86	0x388ff288	6.863946e-05
87	0x3895cae1	7.142663e-05
88	0x370a3a34	8.238992e-06
89	0x37f3afaf	2.9049666e-05
90	0x3662d7da	3.3802266e-06
91	0x367fe1c0	3.8129365e-06
92	0x36631834	3.3839724e-06
93	0x36abaee7	5.1165584e-06
94	0x373a7c35	1.1115383e-05
95	0x37353102	1.0799851e-05
96	0x37861e72	1.5988222e-05
97	0x385bf7b9	5.244438e-05
98	0x37049f3f	7.9048905e-06
99	0x37248c4f	9.80783e-06
100	0x370c0a35	8.347027e-06
101	0x372df980	1.0369695e-05
102	0x37d07c1e	2.4853329e-05
103	0x37d15de9	2.4958472e-05
104	0x377a1b45	1.490751e-05
105	0x389a27fa	7.3507385e-05
106	0x3746440a	1.1817561e-05
107	0x376b8640	1.4038349e-05
108	0x375a82b1	1.30242415e-05
109	0x3746ca05	1.1848756e-05
110	0x37ab002a	2.0384865e-05
111	0x37b0c54d	2.107271e-05
112	0x37e27cd4	2.6999427e-05
113	0x388f711c	6.8398396e-05
114	0x370ffe11	8.582619e-06
115	0x37704d2b	1.4323082e-05
116	0x372cc8bc	1.0298736e-05
117	0x3795a695	1.7839755e-05
118	0x388c6711	6.694918e-05
119	0x387607af	5.8658126e-05
120	0x37037f57	7.837857e-06
121	0x379b2867	1.8496254e-05
122	0x36341fea	2.6840667e-06
123	0x3654de32	3.1719796e-06
124	0x3654ff16	3.1738941e-06
125	0x36a5d565	4.9422256e-06
126	0x37932885	1.7542634e-05
127	0x379c3eab	1.8625831e-05
128	0x364b04c5	3.0252133e-06
129	0x36fc0164	7.510347e-06
130	0x35ef5961	1.78329e-06
131	0x361048c8	2.1500036e-06
132	0x35f29c0f	1.8075824e-06
133	0x361945ee	2.283948e-06
134	0x36c96ba5	6.0027983e-06
135	0x36ba5fb7	5.5543746e-06
136	0x3784f892	1.5851376e-05
137	0x37f7eff5	2.9556433e-05
138	0x36b6bb8b	5.4458555e-06
139	0x3706b5f7	8.029389e-06
140	0x36cc35bb	6.085929e-06
141	0x3745800c	1.1771928e-05
142	0x38156f6f	3.562815e-05
143	0x3802ade2	3.1156356e-05
144	0x3723e1d8	9.76814e-06
145	0x37b9eef5	2.2164992e-05
146	0x3683b2c2	3.9249144e-06
147	0x36c53c54	5.8780806e-06
148	0x368dad64	4.222313e-06
149	0x36cde6dc	6.1363517e-06
150	0x37986895	1.8168512e-05
151	0x378e6a48	1.697721e-05
152	0x37228155	9.686065e-06
153	0x380e7200	3.396161e-05
154	0x369acf5d	4.613698e-06
155	0x36a22e21	4.8333463e-06
156	0x368c2cb3	4.177529e-06
157	0x36caf0aa	6.048086e-06
158	0x378e871b	1.6990633e-05
159	0x378c0542	1.6691749e-05
160	0x379f2e8c	1.8975952e-05
161	0x38277cfd	3.9932307e-05
162	0x3701cd79	7.7368395e-06
163	0x3735defc	1.0840358e-05
164	0x371e3bd0	9.43146e-06
165	0x375ae968	1.3048157e-05
166	0x38108fd1	3.4466215e-05
167	0x3813d9a2	3.5250217e-05
168	0x37a7d014	2.0004845e-05
169	0x389f4d0d	7.596063e-05
170	0x370eef09	8.519514e-06
171	0x371e89d5	9.449625e-06
172	0x37087f83	8.13592e-06
173	0x373a03ef	1.108738e-05
174	0x382536b7	3.9390023e-05
175	0x3813578b	3.5129062e-05
176	0x382d7967	4.135948e-05
177	0x3920a42c	0.00015319948
178	0x3793f592	1.7638118e-05
179	0x37aecfbf	2.0839156e-05
180	0x3795bf49	1.7851258e-05
181	0x37c7ecf4	2.3832989e-05
182	0x38aec21b	8.3331215e-05
183	0x38aa2a38	8.1140955e-05
184	0x373e9267	1.13589695e-05
185	0x37e99c04	2.7848415e-05
186	0x36892243	4.0869068e-06
187	0x36d4ef85	6.345976e-06
188	0x367294a4	3.614733e-06
189	0x36d2fb14	6.287717e-06
190	0x378a82c2	1.651177e-05
191	0x37559d76	1.2732451e-05
192	0x365ba36a	3.2728663e-06
193	0x3727a3fa	9.992154e-06
194	0x35e19a1b	1.6808657e-06
195	0x36175d44	2.2555041e-06
196	0x36030bab	1.9527313e-06
197	0x3623b74b	2.4395583e-06
198	0x36771482	3.6817805e-06
199	0x366d884a	3.5395083e-06
200	0x37f60149	2.9326084e-05
201	0x3888ff74	6.532567e-05
202	0x37259fdf	9.871989e-06
203	0x3778b0eb	1.4823144e-05
204	0x3721a9d1	9.635886e-06
205	0x379b4113	1.8507742e-05
206	0x38548a0d	5.067331e-05
207	0x383354e2	4.275598e-05
208	0x372da082	1.0348975e-05
209	0x37e79420	2.7606322e-05
210	0x366e089b	3.5469773e-06
211	0x36872a47	4.0282353e-06
212	0x3684d57a	3.9587585e-06
213	0x36d9988a	6.484862e-06
214	0x37cdf8b0	2.4553708e-05
215	0x37cc8dba	2.4384692e-05
216	0x365f07a8	3.3234046e-06
217	0x37082868	8.1156395e-06
218	0x35a64fe5	1.2391216e-06
219	0x35be48be	1.4177274e-06
220	0x35c1f6ec	1.4451484e-06
221	0x3609e90c	2.0550242e-06
222	0x36f803c4	7.3914143e-06
223	0x36fe97cb	7.587461e-06
224	0x371ee5c1	9.471028e-06
225	0x3813c14e	3.522756e-05
226	0x36d81f74	6.4409633e-06
227	0x36f7591f	7.3715487e-06
228	0x36eb8622	7.019161e-06
229	0x370253f2	7.768149e-06
230	0x378696c5	1.6044252e-05
231	0x3790f7dd	1.7281558e-05
232	0x35c383c0	1.4566976e-06
233	0x369f4078	4.7460744e-06
234	0x35ff2a15	1.9011228e-06
235	0x361e449c	2.358377e-06
236	0x36119831	2.169527e-06
237	0x3612f193	2.189631e-06
238	0x361f2e8a	2.3719936e-06
239	0x36191b71	2.281475e-06
240	0x36b41249	5.3665467e-06
241	0x377bfa23	1.5019005e-05
242	0x3630207d	2.6244954e-06
243	0x36816da6	3.8572643e-06
244	0x3640c39b	2.8724087e-06
245	0x3685a0a0	3.982408e-06
246	0x376d0cd5	1.41292885e-05
247	0x374444be	1.1698516e-05
248	0x3781978b	1.5448566e-05
249	0x3885024b	6.342361e-05
250	0x372a2d70	1.0143369e-05
251	0x37287210	1.0040138e-05
252	0x372eabd7	1.0411218e-05
253	0x3765c9e3	1.3696469e-05
254	0x37f901b3	2.9683904e-05
255	0x37ffb676	3.0483334e-05

exp_avg f4 [64]
0	0x3ab6243a	0.0013896294
1	0xbafe761e	-0.0019413864
2	0xb915bb80	-0.00014279597
3	0x38940840	7.0587266e-05
4	0xb9fc2420	-0.000480921
5	0x3abce6ce	0.0014412047
6	0xbb875c0a	-0.004130845
7	0x39f25a7d	0.00046225256
8	0xbb245355	-0.0025074084
9	0xb987bfce	-0.00025892112
10	0xbadffc98	-0.0017088829
11	0x3a7302d7	0.00092701375
12	0x3abda6d5	0.0014469275
13	0xba9a08db	-0.0011751907
14	0x3b749e01	0.0037325623
15	0x398bef10	0.0002669026
16	0x3a332bc5	0.000683483
17	0x3b37d9ed	0.0028053478
18	0x3b135818	0.0022482928
19	0xba3aa22e	-0.00071195036
20	0x3a469874	0.0007575818
21	0x3b3c7151	0.0028754065
22	0xbb83fe05	-0.004028084
23	0xbb2126d4	-0.0024589794
24	0x3a618f0e	0.00086043857
25	0x3b62c253	0.003460069
26	0x3a518592	0.0007992621
27	0xb9654d92	-0.00021868039
28	0xba1d6b99	-0.0006005108
29	0xb78d27f0	-1.6827107e-05
30	0x3b102ebb	0.002200051
31	0xb634d2c0	-2.6944763e-06
32	0xb92d0440	-0.00016500149
33	0x390ae333	0.00013245344
34	0x38061e60	3.197638e-05
35	0x3941722f	0.00018448451
36	0xbae3b86e	-0.001737369
37	0xb7befeb8	-2.2768378e-05
38	0xb96b449b	-0.00022436904
39	0x3b2004ad	0.002441685
40	0xbbbcefed	-0.005765906
41	0xba8a7e37	-0.0010566179
42	0xbb35f4f6	-0.0027764416
43	0x3b290c0e	0.0025794539
44	0x3b055109	0.002034249
45	0xbadb5fcb	-0.0016736923
46	0xbb2358d5	-0.0024924774
47	0x3b23cd0d	0.0024994046
48	0xb9774643	-0.0002358193
49	0xbb1b5ad6	-0.0023705265
50	0x3b92c4f3	0.0044790446
51	0xb95eddb2	-0.00021254158
52	0xba8531b2	-0.0010161905
53	0xb9faf725	-0.00047867853
54	0x3ab7016a	0.0013962213
55	0x3b37630f	0.0027982628
56	0xbb7b5fbb	-0.003835662
57	0xbad17242	-0.0015979486
58	0x3a7c3e4c	0.000962232
59	0xbad2ae50	-0.0016073678
60	0x389667aa	7.171866e-05
61	0xbaedbde9	-0.0018138263
62	0xba075e92	-0.00051639334
63	0x3b527268	0.0032111648

exp_avg_sq f4 [64]
0	0x38b32f73	8.544223e-05
1	0x38ff89a4	0.00012184985
2	0x388a3de9	6.5918844e-05
3	0x390d6b3d	0.00013486757
4	0x368f3803	4.2682527e-06
5	0x3834a027	4.3064498e-05
6	0x39a1b128	0.00030840305
7	0x3773c102	1.4528867e-05
8	0x390ae23e	0.00013244987
9	0x36bed0d2	5.686751e-06
10	0x39af91f2	0.0003348734
11	0x38906be2	6.88655e-05
12	0x390a5142	0.00013190976
13	0x38e7ffdb	0.00011062595
14	0x398acc0e	0.00026473444
15	0x38875768	6.453582e-05
16	0x37e0627e	2.6748745e-05
17	0x391d3840	0.00014993642
18	0x38c04890	9.168789e-05
19	0x38a6edf1	7.959817e-05
20	0x3915a396	0.00014270688
21	0x393bd9fc	0.00017914915
22	0x39c25558	0.0003706615
23	0x38dd583e	0.000105545376
24	0x37da760c	2.6042595e-05
25	0x398b8e4e	0.0002661817
26	0x38b7bfe4	8.7618624e-05
27	0x37ec8dbb	2.819939e-05
28	0x389745b0	7.2132214e-05
29	0x373e0085	1.13250035e-05
30	0x3873b7fe	5.810707e-05
31	0x38ffdb6d	0.00012200219
32	0x3915ad00	0.00014274195
33	0x39127b75	0.00013969636
34	0x387aaf8d	5.976814e-05
35	0x36a991ba	5.0535573e-06
36	0x393acde5	0.00017815044
37	0x380a2a61	3.2941232e-05
38	0x38a2836a	7.74924e-05
39	0x3909b555	0.0001313289
40	0x39d5997b	0.00040740878
41	0x3849c552	4.8105903e-05
42	0x39034c96	0.00012521664
43	0x39354cec	0.00017290161
44	0x3983f4de	0.00025168707
45	0x381da3f1	3.75844e-05
46	0x38edb32e	0.000113344155
47	0x3907d5e2	0.00012954281
48	0x3645411d	2.9393188e-06
49	0x391bd36d	0.00014860714
50	0x39e797a1	0.00044172726
51	0x3873c7f3	5.8121932e-05
52	0x3824c15f	3.9280738e-05
53	0x3930d05d	0.0001686229
54	0x38353717	4.320507e-05
55	0x392e5688	0.00016626169
56	0x399717e3	0.0002881876
57	0x3962a462	0.00021614277
58	0x37b2bafe	2.1306329e-05
59	0x38d8cc91	0.00010337786
60	0x38a5fbc2	7.914707e-05
61	0x38bbc978	8.954381e-05
62	0x38c58d36	9.4199946e-05
63	0x3922de87	0.00015532422

exp_avg f4 [64, 64]
0	0x396adde6	0.00022398643
1	0xb96b748b	-0.00022454762
2	0x3903b1ef	0.00012559419
3	0x37444840	1.1699332e-05
4	0x393a1ca3	0.0001774901
5	0xb9de4848	-0.00042396993
6	0x3833a4cb	4.28304e-05
7	0xb8b3848e	-8.5600754e-05
8	0x39c5ad0e	0.00037703704
9	0xb9eb0426	-0.00044825784
10	0xb907c9c2	-0.00012949764
11	0x38bb360f	8.926924e-05
12	0x39ad935e	0.00033106928
13	0xb95858fa	-0.00020632512
14	0xb9859d7f	-0.0002548508
15	0x399232c5	0.00027885116
16	0xb96d896d	-0.00022653276
17	0x38436015	4.6581106e-05
18	0xb923c35b	-0.00015617667
19	0xb914f439	-0.0001420536
20	0x38b6de10	8.719799e-05
21	0x35fb4e60	1.8723767e-06
22	0x38df4806	0.00010646884
23	0x38e0267a	0.00010688319
24	0x3912f436	0.0001401462
25	0xb98e28a3	-0.00027114627
26	0x39a25363	0.00030961176
27	0xb9207548	-0.0001530248
28	0xb7f37d2d	-2.9026147e-05
29	0xb9930ca2	-0.00028047437
30	0xb94a1ada	-0.00019274224
31	0x39723610	0.00023099058
32	0x3746325c	1.1813445e-05
33	0x39189642	0.00014551825
34	0xb9d312ce	-0.00040259067
35	0x3925b209	0.0001580195
36	0xb9e9d098	-0.00044596638
37	0xba113554	-0.00055392575
38	0xb932a0f6	-0.00017035365
39	0x3941cbb7	0.00018481804
40	0x38a1c44e	7.713643e-05
41	0x3949c99c	0.00019243959
42	0x39a3ebb4	0.00031265395
43	0xb95db2c5	-0.00021142799
44	0xb98e843f	-0.00027182882
45	0xb86007b0	-5.341292e-05
46	0xb9578836	-0.0002055474
47	0xb8af3fda	-8.3565435e-05
48	0x3955b5ea	0.00020381031
49	0x38e289d8	0.00010802195
50	0xb95e3ed1	-0.00021194971
51	0xb9b61768	-0.00034731184
52	0x380d811a	3.3737255e-05
53	0x3908287a	0.0001298505
54	0x39b7fb07	0.0003509151
55	0x39eb6008	0.00044894242
56	0x3881cee6	6.189737e-05
57	0x38f9d324	0.00011912573
58	0xb90a0dac	-0.00013165799
59	0xb92f9c40	-0.00016747508
60	0x3957a6d9	0.00020566153
61	0x397446dd	0.00023296052
62	0xb976c3d6	-0.00023533343
63	0xb95859b4	-0.00020632782
64	0xb8bf0d2f	-9.110045e-05
65	0x387a3402	5.965308e-05
66	0xb91396c8	-0.00014075183
67	0x38e325ce	0.00010831245
68	0xb9c0a28b	-0.00036742198
69	0x39a3985c	0.000312033
70	0xb7665899	-1.3729697e-05
71	0xb86396e0	-5.426153e-05
72	0x38054060	3.1769625e-05
73	0x39c748ad	0.00038010385
74	0x38d80322	0.00010300266
75	0x38bfc3f6	9.14409e-05
76	0xb9274236	-0.00015951027
77	0x396c72d1	0.00022549486
78	0x39556480	0.00020350702
79	0xb9808109	-0.000245102
80	0xb745f44f	-1.1798998e-05
81	0xb992f027	-0.00028026217
82	0xb7302180	-1.0498217e-05
83	0xb83fa580	-4.5692082e-05
84	0xb9cb4389	-0.00038769495
85	0xb8df1b4b	-0.00010638552
86	0x36829d00	3.892579e-06
87	0xb8d191ff	-9.9930905e-05
88	0xb8ccab3b	-9.759372e-05
89	0x382a21fa	4.05628e-05
90	0xb93d0925	-0.00018027851
91	0xb864281d	-5.4396794e-05
92	0xb90d909e	-0.00013500682
93	0x39a03c95	0.00030562715
94	0xb90a1632	-0.00013168974
95	0x393479d0	0.00017211516
96	0xb95588ee	-0.00020364273
97	0xb99f0c4d	-0.00030336008
98	0xb83c0590	-4.4827873e-05
99	0xb98f5fba	-0.00027346407
100	0x39564162	0.00020432987
101	0x39d54b63	0.00040682693
102	0x39b41dbc	0.0003435443
103	0xb9118d6f	-0.00013880966
104	0x35fc0168	1.8775872e-06
105	0x39799ae5	0.00023804193
106	0xb988d16c	-0.00026095973
107	0x38693d46	5.5608594e-05
108	0x395fc7ee	0.00021341417
109	0x393b95cd	0.00017889515
110	0x39642b4c	0.00021759904
111	0xb8c1d462	-9.2425165e-05
112	0xb9c45f25	-0.0003745492
113	0xb9119d2c	-0.00013886829
114	0x38224ebf	3.8697148e-05
115	0xb7a9b097	-2.0228601e-05
116	0x393c616f	0.00017965374
117	0xb917ef62	-0.00014489659
118	0xb9c88638	-0.00038246973
119	0x373bc728	1.1192438e-05
120	0x389d273b	7.4936506e-05
121	0xb9802edb	-0.00024448973
122	0x39512705	0.00019946329
123	0x397a7585	0.00023885637
124	0xb90fd12c	-0.00013715465
125	0x36e09e12	6.694122e-06
126	0x39dae5ac	0.0004175132
127	0xb91df494	-0.00015063799
128	0x39609f6d	0.00021421695
129	0xb9b0ab00	-0.0003369674
130	0xb7a1a8e7	-1.9271347e-05
131	0x392d18fe	0.00016507876
132	0xb9c9fbad	-0.0003852522
133	0xb94195ff	-0.00018461792
134	0x37b43f78	2.1487227e-05
135	0xb9a0c861	-0.00030666872
136	0x3a53bbf9	0.00080770213
137	0xb90febd0	-0.0001372539
138	0xb8c6b583	-9.475185e-05
139	0x39b8e158	0.0003526311
140	0x39838ff2	0.00025093515
141	0x37a5e9b5	1.9778361e-05
142	0xb8f04a9b	-0.00011457988
143	0x378dffa0	1.6927544e-05
144	0xb9f7bd90	-0.00047252746
145	0xb9dfdb3b	-0.00042697214
146	0xb98fa3b2	-0.00027397048
147	0xb9cf5418	-0.0003954477
148	0xba115de2	-0.00055453007
149	0xb9861031	-0.00025570535
150	0x3986424e	0.00025607873
151	0xb7cf72a8	-2.4729714e-05
152	0x38c7d543	9.5287825e-05
153	0xb9dd98b0	-0.00042266166
154	0x3958ee88	0.00020688225
155	0xb9c4ac58	-0.0003751244
156	0xb9b2b88b	-0.000340883
157	0x38731c3e	5.7962017e-05
158	0xba1d20c9	-0.000599396
159	0x3a457bfc	0.0007533429
160	0xb9aefddc	-0.00033377006
161	0xb9915a5c	-0.00027723878
162	0xba5f35a4	-0.0008514768
163	0xb9760832	-0.00023463441
164	0xb9d15229	-0.000399248
165	0xb994efe1	-0.00028407483
166	0x39a71335	0.00031867033
167	0x38b7dabc	8.7668624e-05
168	0x390e5035	0.00013572055
169	0x3a50bbc0	0.0007962547
170	0x38fc8ba4	0.000120423065
171	0xb9adf511	-0.0003317972
172	0xb91bb342	-0.0001484873
173	0x39873fdd	0.00025796788
174	0xb7cc7020	-2.4370907e-05
175	0xb99b1284	-0.000295777
176	0xb9b5a07c	-0.0003464258
177	0xb889a260	-6.562914e-05
178	0xb99ebbc8	-0.00030276016
179	0xba413d45	-0.00073714956
180	0x39dbbaee	0.00041910209
181	0x3825c3c6	3.9521394e-05
182	0xb89a1046	-7.3463234e-05
183	0x3a6b79df	0.0008982699
184	0x3988a3e8	0.0002606206
185	0xb953deee	-0.00020205576
186	0x39226f0c	0.00015490892
187	0x390b76fb	0.00013300397
188	0x38faa9a0	0.00011952524
189	0x3a00b6f7	0.00049100764
190	0x39a23066	0.00030935107
191	0xba3774c9	-0.00069982983
192	0x365abdc0	3.259498e-06
193	0x38a0629e	7.6477634e-05
194	0x394fe29a	0.00019825474
195	0xb9852593	-0.00025395732
196	0x3a32b2d5	0.0006816809
197	0xb9a44e25	-0.0003133874
198	0xb69a39c4	-4.5962825e-06
199	0x397311e4	0.0002318095
200	0xb9f46616	-0.00046615367
201	0xb9ee4e54	-0.00045453256
202	0xb8e63574	-0.00010977211
203	0xb99283e7	-0.00027945565
204	0x388e996c	6.799665e-05
205	0xb9a76ce7	-0.0003193386
206	0xb97e5256	-0.00024254
207	0x39b2585b	0.00034016636
208	0x3998cd58	0.00029144692
209	0x3a2a64a1	0.000649998
210	0x3933939f	0.00017125763
211	0x398246c2	0.0002484825
212	0x3a5d56eb	0.0008443433
213	0x398d31e2	0.0002693078
214	0xb905f711	-0.00012775908
215	0x38e580d8	0.0001094357
216	0x3901ac8f	0.00012366682
217	0x395844ac	0.00020624948
218	0x3914686e	0.00014153283
219	0x39889440	0.00026050396
220	0x39cae2cc	0.0003869742
221	0xb9fa8771	-0.00047784628
222	0x3a07a276	0.000517405
223	0xba261830	-0.00063360017
224	0x3a009916	0.0004905624
225	0x3a1407f0	0.0005646935
226	0x3a0146f7	0.0004931534
227	0x3a0466c3	0.0005050713
228	0xb8822d38	-6.207306e-05
229	0xb9dafe41	-0.00041769634
230	0xba3106dd	-0.0006753037
231	0x393df148	0.00018114329
232	0xb8c2931c	-9.278042e-05
233	0xba422a4f	-0.0007406817
234	0x399b371d	0.00029604966
235	0x38928abd	6.9876645e-05
236	0xb9792598	-0.00023760495
237	0xb9c9be49	-0.0003847948
238	0xb9a7ed8b	-0.00032029705
239	0x399f787f	0.0003041662
240	0x3a34c054	0.0006895114
241	0x395cda10	0.0002106207
242	0x39019c6e	0.00012360673
243	0x39cc5a42	0.0003897716
244	0xba074eac	-0.00051615643
245	0x39661d22	0.00021945362
246	0x3a15b11b	0.00057102897
247	0xb9f39450	-0.00046459073
248	0xb97d5d8b	-0.00024162808
249	0x39ed36a3	0.0004524487
250	0xb9badf5e	-0.00035643106
251	0xb9e5d7bf	-0.00043839027
252	0x391a7fb4	0.00014734158
253	0xb99448c6	-0.0002828298
254	0xba461b8d	-0.0007557206
255	0x3a1c5629	0.00059637666

exp_avg_sq f4 [64, 64]
0	0x3641ade5	2.886046e-06
1	0x36874044	4.030795e-06
2	0x35c12862	1.4391373e-06
3	0x363be0d5	2.799604e-06
4	0x3796a087	1.7956145e-05
5	0x3726258b	9.903112e-06
6	0x36404b02	2.865389e-06
7	0x36242c49	2.4463682e-06
8	0x36aaa75c	5.085878e-06
9	0x3735c941	1.0835299e-05
10	0x360ced76	2.0999846e-06
11	0x370a5f5e	8.247645e-06
12	0x37120868	8.704235e-06
13	0x36317b96	2.6446992e-06
14	0x3697cf63	4.5242937e-06
15	0x36d5f1e9	6.3760567e-06
16	0x362e21e6	2.5947752e-06
17	0x3705cdc3	7.975325e-06
18	0x363c9fe8	2.810726e-06
19	0x36beb819	5.683873e-06
20	0x37042839	7.877178e-06
21	0x36b47207	5.3776926e-06
22	0x361cb856	2.335311e-06
23	0x370f002c	8.523504e-06
24	0x36d723c1	6.4116616e-06
25	0x368cea49	4.1995995e-06
26	0x3686b063	4.0140453e-06
27	0x363a8436	2.7793117e-06
28	0x3696bdb1	4.4924313e-06
29	0x36c62ee0	5.906317e-06
30	0x36b54b97	5.40302e-06
31	0x36cd3ae7	6.116333e-06
32	0x3679e866	3.7239165e-06
33	0x36b901ee	5.5136543e-06
34	0x36d0884e	6.214751e-06
35	0x36acde3c	5.151871e-06
36	0x36e89be4	6.932287e-06
37	0x36f9fc6b	7.4501636e-06
38	0x36e10fbd	6.7073547e-06
39	0x36790b89	3.7110606e-06
40	0x366a4c61	3.4913176e-06
41	0x37132360	8.770119e-06
42	0x36c0cf20	5.7461584e-06
43	0x36a4ca80	4.911155e-06
44	0x364fe0f9	3.0976355e-06
45	0x36b92be4	5.518539e-06
46	0x3684a8ba	3.953549e-06
47	0x360749b6	2.0159473e-06
48	0x374b1369	1.2104262e-05
49	0x36a8e5bd	5.033535e-06
50	0x36916b93	4.33386e-06
51	0x370e950a	8.49856e-06
52	0x36f8b1a3	7.4116556e-06
53	0x36c4b440	5.862239e-06
54	0x371cbbae	9.342022e-06
55	0x3724a4ae	9.813504e-06
56	0x35baf1e1	1.3928476e-06
57	0x3694dcc5	4.4364447e-06
58	0x3689f3c6	4.111297e-06
59	0x36ad78ce	5.1698653e-06
60	0x368538d1	3.970323e-06
61	0x360a45ac	2.0604157e-06
62	0x37127a8c	8.730811e-06
63	0x36d38630	6.3039115e-06
64	0x35ea9fa7	1.7480824e-06
65	0x3609b95c	2.0522484e-06
66	0x353e00f5	7.078191e-07
67	0x35bb1505	1.3938703e-06
68	0x3723e9a4	9.769956e-06
69	0x36b1527b	5.284613e-06
70	0x35b37c95	1.3372797e-06
71	0x35ac5514	1.283976e-06
72	0x36364ec2	2.7165956e-06
73	0x36ed2901	7.067924e-06
74	0x35ad91ed	1.2931974e-06
75	0x3683088b	3.9050988e-06
76	0x36ab7172	5.109404e-06
77	0x35b936a2	1.3799474e-06
78	0x3685178d	3.9664505e-06
79	0x3691b6eb	4.342631e-06
80	0x35faf090	1.8696464e-06
81	0x369dd3e3	4.7036315e-06
82	0x35c91d38	1.4984171e-06
83	0x362bb3be	2.558561e-06
84	0x36adc861	5.179129e-06
85	0x3655af55	3.184153e-06
86	0x35b9b811	1.3837144e-06
87	0x3675cd9d	3.6627528e-06
88	0x365a3094	3.2512808e-06
89	0x35e64588	1.7156572e-06
90	0x3643632e	2.9114995e-06
91	0x35cd54c9	1.5298366e-06
92	0x364dd337	3.0670324e-06
93	0x36879d8c	4.0416544e-06
94	0x3643b6e3	2.9163718e-06
95	0x366a3d4e	3.4904401e-06
96	0x3618efa0	2.2789245e-06
97	0x366bf46e	3.5160006e-06
98	0x36586a27	3.2248297e-06
99	0x364db058	3.0650026e-06
100	0x36998741	4.575501e-06
101	0x36a6f78e	4.9760047e-06
102	0x36afa664	5.234777e-06
103	0x36205ba3	2.3895198e-06
104	0x3607d809	2.0242317e-06
105	0x36b0145f	5.2475802e-06
106	0x3689616a	4.0942587e-06
107	0x3659fb93	3.2481955e-06
108	0x363caf13	2.811609e-06
109	0x365c86b3	3.286096e-06
110	0x36231959	2.4303647e-06
111	0x358b172a	1.0363049e-06
112	0x36e5cff2	6.84894e-06
113	0x36333111	2.670164e-06
114	0x3625aa86	2.4686174e-06
115	0x368861c2	4.0644964e-06
116	0x3685f410	3.9921215e-06
117	0x3649f161	3.0091835e-06
118	0x36bdb496	5.653662e-06
119	0x369bc33a	4.6420873e-06
120	0x357836e9	9.2467104e-07
121	0x366d8149	3.5391006e-06
122	0x3618c332	2.2763384e-06
123	0x3664b61f	3.4080656e-06
124	0x361528c3	2.2226457e-06
125	0x35ac0c33	1.2818549e-06
126	0x36c34761	5.8197625e-06
127	0x36826b3f	3.886787e-06
128	0x36bc4092	5.6103536e-06
129	0x370e0fbb	8.467522e-06
130	0x365523f3	3.1760399e-06
131	0x36cfab02	6.1889887e-06
132	0x38213989	3.8438975e-05
133	0x37a7e219	2.0013236e-05
134	0x36cb6c5c	6.062486e-06
135	0x36b6f227	5.452213e-06
136	0x373de54f	1.1318668e-05
137	0x37b400d4	2.1458058e-05
138	0x369088f6	4.307479e-06
139	0x37957715	1.7817636e-05
140	0x37907010	1.721832e-05
141	0x36be1120	5.664435e-06
142	0x370431ab	7.879377e-06
143	0x3743ecf3	1.1678075e-05
144	0x36a78c5e	4.9933287e-06
145	0x377d7b57	1.5108692e-05
146	0x36c0d51b	5.7468546e-06
147	0x374bcf2d	1.214798e-05
148	0x377d1b1a	1.5086285e-05
149	0x373c5133	1.1224579e-05
150	0x36b84d73	5.4926436e-06
151	0x379d850b	1.8777811e-05
152	0x3745e767	1.1795993e-05
153	0x370f2a52	8.533318e-06
154	0x36f3a36a	7.2609882e-06
155	0x36c097f5	5.739736e-06
156	0x37170b33	9.002909e-06
157	0x3729c9c2	1.012016e-05
158	0x37352101	1.0796125e-05
159	0x3767e59e	1.3822135e-05
160	0x36d38682	6.303949e-06
161	0x37419207	1.1537696e-05
162	0x3769ef35	1.3943577e-05
163	0x3727e6fd	1.0007757e-05
164	0x37502949	1.2407379e-05
165	0x376318c8	1.3536024e-05
166	0x374225d7	1.1572111e-05
167	0x36e3a38c	6.7841665e-06
168	0x36dd9655	6.603814e-06
169	0x37ac0289	2.0505178e-05
170	0x37310144	1.0550317e-05
171	0x3723c4b7	9.761358e-06
172	0x36b8e439	5.510196e-06
173	0x3751ff60	1.251683e-05
174	0x370a4b4e	8.242974e-06
175	0x368b17b9	4.1452845e-06
176	0x37d38517	2.5215135e-05
177	0x3728e996	1.0067966e-05
178	0x3708f1d0	8.162533e-06
179	0x379fad7a	1.9035058e-05
180	0x3758edb6	1.292995e-05
181	0x374b9a86	1.2135721e-05
182	0x379c6211	1.8642315e-05
183	0x37b1fa8c	2.1216714e-05
184	0x364a9b10	3.0190604e-06
185	0x370bea6c	8.339626e-06
186	0x36ff6abb	7.6120173e-06
187	0x37149b00	8.857576e-06
188	0x36f3b05d	7.2624957e-06
189	0x368fd129	4.2860815e-06
190	0x378fc5b6	1.7138995e-05
191	0x37648d66	1.3622781e-05
192	0x366465bb	3.4033862e-06
193	0x36cafacf	6.049267e-06
194	0x3605c652	1.9933982e-06
195	0x368f98be	4.2795136e-06
196	0x37e14068	2.6852082e-05
197	0x375232f5	1.252884e-05
198	0x36880bd3	4.0544924e-06
199	0x3680dd75	3.8404783e-06
200	0x36f14784	7.190685e-06
201	0x3769e826	1.39419335e-05
202	0x36412ea6	2.8786394e-06
203	0x374fefc6	1.2393988e-05
204	0x373a916f	1.1120325e-05
205	0x366d68f0	3.5376834e-06
206	0x36c6ccfc	5.924723e-06
207	0x36e1fe97	6.7351607e-06
208	0x3651807b	3.1218212e-06
209	0x37268936	9.926318e-06
210	0x36777b57	3.6877661e-06
211	0x3701b0d1	7.730167e-06
212	0x3732e219	1.0662269e-05
213	0x36f7db8a	7.3867313e-06
214	0x36818aba	3.8606495e-06
215	0x375ce8cf	1.3167227e-05
216	0x36f9a671	7.4401546e-06
217	0x36c055d5	5.732038e-06
218	0x368b9d09	4.160804e-06
219	0x3684ce3b	3.957915e-06
220	0x36c9b1e0	6.010974e-06
221	0x36c4de4a	5.867133e-06
222	0x36f6502f	7.340706e-06
223	0x372690c0	9.928073e-06
224	0x3687a2d9	4.0422715e-06
225	0x370803dd	8.107131e-06
226	0x372595b0	9.869618e-06
227	0x36d240c4	6.2660274e-06
228	0x36fc6495	7.5218945e-06
229	0x3708a29f	8.144095e-06
230	0x37090bb3	8.16856e-06
231	0x36960d22	4.471877e-06
232	0x3698fc17	4.5593e-06
233	0x37828439	1.5558779e-05
234	0x36fe9513	7.5871444e-06
235	0x36dda843	6.6059015e-06
236	0x368775df	4.0370355e-06
237	0x370928eb	8.175363e-06
238	0x36c6264b	5.9053177e-06
239	0x363f3303	2.849091e-06
240	0x379324e1	1.7540939e-05
241	0x36e94d7c	6.9529615e-06
242	0x36bf6ec3	5.705138e-06
243	0x37635f33	1.355242e-05
244	0x36fd3e18	7.5472162e-06
245	0x37118253	8.673017e-06
246	0x37410a8d	1.1506153e-05
247	0x376efaf4	1.4244335e-05
248	0x360ce182	2.0992888e-06
249	0x36ca8687	6.03573e-06
250	0x36a2b158	4.8486218e-06
251	0x36b56f85	5.407203e-06
252	0x368b6585	4.1543412e-06
253	0x3631f378	2.6516773e-06
254	0x374a3f92	1.2054939e-05
255	0x371cb38b	9.340128e-06

exp_avg f4 [64]
0	0xb933b1dc	-0.00017137028
1	0x3a64feed	0.00087354967
2	0x3ab66dde	0.0013918241
3	0xbafcb9f3	-0.0019281491
4	0x3b2f62f4	0.0026761862
5	0x3b1128f7	0.002214966
6	0x37679330	1.3802943e-05
7	0x398298af	0.0002490929
8	0x3ac5bc38	0.0015086001
9	0x39d95a74	0.00041456858
10	0xba03c7db	-0.0005027034
11	0x39a40153	0.00031281504
12	0x3b275b0f	0.0025536453
13	0xbb1812bb	-0.0023204524
14	0x39be224e	0.00036265183
15	0x3aa1dd4f	0.001234928
16	0x3ab6999b	0.0013931276
17	0xba3d75fb	-0.00072273583
18	0x3b2d06f1	0.0026401842
19	0xbaf9c032	-0.0019054471
20	0xba809f38	-0.0009813076
21	0xba9b77b7	-0.0011861239
22	0x3b0056b4	0.001958293
23	0x3a96a042	0.0011491852
24	0xbac618bd	-0.0015113574
25	0xba108892	-0.00055135146
26	0x3af8a464	0.0018969891
27	0x3a33d2de	0.000685973
28	0x3ae0e0f1	0.0017156882
29	0x3b00fb6e	0.0019681114
30	0xba6ba51d	-0.00089891424
31	0x398f201a	0.00027299003
32	0xbb13ed26	-0.0022571771
33	0xbab60872	-0.0013888015
34	0xb9580edf	-0.00020604905
35	0xba2922a8	-0.00064520026
36	0xba0ec21e	-0.0005445796
37	0xba47a08c	-0.0007615171
38	0x3b08c16d	0.0020867244
39	0x3956cfac	0.00020485994
40	0xba82892a	-0.0009959091
41	0x3b06463c	0.002048864
42	0x3ae43947	0.001741209
43	0xb9c3eb5e	-0.0003736866
44	0x3a5595f8	0.0008147652
45	0xba58e199	-0.0008273363
46	0x39d1955a	0.00039974862
47	0xba8e4722	-0.001085494
48	0xbaa6a4d2	-0.0012713915
49	0x3aad85f6	0.0013238776
50	0xbabca3c9	-0.0014392073
51	0x3b0060ed	0.0019589022
52	0x3a5410e3	0.00080896745
53	0xba3a5dea	-0.0007109331
54	0x3b626186	0.0034542992
55	0x37cf1cb0	2.4689682e-05
56	0x3a6b13e2	0.00089675013
57	0xb9003583	-0.00012226966
58	0x3a2dfbb4	0.0006636933
59	0xba30271f	-0.00067196967
60	0xb7843dc0	-1.576438e-05
61	0xbb20f031	-0.0024557228
62	0xba555088	-0.0008137305
63	0x3a7d7d09	0.0009669816

exp_avg_sq f4 [64]
0	0x38986956	7.267545e-05
1	0x3825f964	3.957133e-05
2	0x392094de	0.00015314246
3	0x38dc9c98	0.00010519585
4	0x39111065	0.00013834385
5	0x38efb5bb	0.00011430258
6	0x3835f1e3	4.3379037e-05
7	0x3773892e	1.4515868e-05
8	0x390ea950	0.00013605249
9	0x38e5edcb	0.00010963863
10	0x3818e09b	3.6448804e-05
11	0x3742ebf5	1.1618239e-05
12	0x3947d716	0.00019058245
13	0x390f9bd5	0.00013695595
14	0x37f177a8	2.8785158e-05
15	0x389d24ed	7.493221e-05
16	0x391abcf8	0.00014756981
17	0x382e0d9d	4.149751e-05
18	0x39330eb3	0.00017076246
19	0x38c8abf8	9.568775e-05
20	0x38568143	5.114196e-05
21	0x38239c7c	3.9007966e-05
22	0x38b8ea60	8.8174595e-05
23	0x37f3f4e7	2.9081899e-05
24	0x39145c53	0.00014148773
25	0x37e9f4fe	2.7889848e-05
26	0x38b6e6f4	8.721455e-05
27	0x38290276	4.029503e-05
28	0x3882e0bb	6.2407424e-05
29	0x38bd8f7f	9.0389505e-05
30	0x37dce102	2.6330821e-05
31	0x392616e8	0.00015839527
32	0x3915bc45	0.00014279883
33	0x386d3f84	5.6564357e-05
34	0x38da9c39	0.00010424149
35	0x37be5138	2.2687585e-05
36	0x370dc16a	8.449288e-06
37	0x3888a00b	6.514796e-05
38	0x38cd1048	9.778194e-05
39	0x383f5285	4.56148e-05
40	0x390296eb	0.00012453987
41	0x38ad0aee	8.251319e-05
42	0x38f67008	0.000117510615
43	0x38dcce56	0.000105288505
44	0x383368f3	4.2774667e-05
45	0x38870a86	6.439262e-05
46	0x38e23c17	0.000107877124
47	0x3874b336	5.8341036e-05
48	0x3830905e	4.2096122e-05
49	0x381ca0cc	3.7343052e-05
50	0x385c817c	5.257268e-05
51	0x38d6a762	0.00010235493
52	0x38ab13d2	8.157607e-05
53	0x392219c1	0.00015459118
54	0x399e41a8	0.00030185026
55	0x3841fc1f	4.6249592e-05
56	0x38d176b5	9.9880075e-05
57	0x3895291a	7.1125294e-05
58	0x392739ba	0.00015947866
59	0x37b1dcce	2.1202864e-05
60	0x3754ce4d	1.2684218e-05
61	0x390cc4a7	0.00013424699
62	0x391764cb	0.0001443803
63	0x37fb6492	2.9968363e-05

exp_avg f4 [2, 64]
0	0x3adfae81	0.0017065556
1	0xba7875d6	-0.0009478008
2	0x3b960f8a	0.004579489
3	0xbb8cbc62	-0.004294918
4	0x3b00e0e8	0.0019665305
5	0x3b1704aa	0.0023043551
6	0x391f4d03	0.00015192111
7	0xb67a8700	-3.7331483e-06
8	0x39ad0536	0.00033001014
9	0x3a7d27e0	0.0009657126
10	0xbb725141	-0.00369747
11	0x3ab452b9	0.0013757563
12	0xbaaf1fc7	-0.0013360911
13	0x3a7624bb	0.00093896285
14	0x3b2d5ee5	0.0026454267
15	0xbaab53ae	-0.0013071203
16	0xbad67082	-0.0016360434
17	0xba222b31	-0.00061862456
18	0x3a881134	0.0010381103
19	0xba3a7920	-0.0007113386
20	0x3af8c138	0.0018978482
21	0xbb365a2d	-0.0027824745
22	0x3b665aad	0.0035149262
23	0xbacf180f	-0.0015800017
24	0x3a6bbc08	0.00089925574
25	0x35e4bc00	1.7042039e-06
26	0x3b1c8e98	0.0023888703
27	0xb954525a	-0.00020248574
28	0x3b166961	0.0022950994
29	0x3a8fe87d	0.0010979321
30	0xbb50b28d	-0.0031844706
31	0x3a1cebc2	0.00059860584
32	0xbadca955	-0.0016835133
33	0xbb51d698	-0.0032018777
34	0x3b5c6456	0.003362914
35	0xbbb5d4a5	-0.005549031
36	0xbb9ba7da	-0.004750234
37	0x3b06c552	0.002056439
38	0x3aef302e	0.0018248612
39	0x3a0346c1	0.00050077966
40	0xbacafb57	-0.0015486282
41	0x3b62ab5c	0.0034587001
42	0x3b26e59b	0.0025466445
43	0xbb207cbf	-0.0024488417
44	0x3b38fdda	0.002822748
45	0x39e8b547	0.0004438555
46	0xbb47fc09	-0.0030515215
47	0xbb2a936a	-0.0026027807
48	0xbba41046	-0.0050068228
49	0xb99d7299	-0.00030030755
50	0xbab72312	-0.0013972244
51	0x3a9dfbe9	0.0012053224
52	0x3a7084c2	0.0009175056
53	0xbb653974	-0.0034976872
54	0x3ad87eba	0.001651726
55	0xb90e4ab8	-0.0001357001
56	0xba89923f	-0.0010495855
57	0x3b6ac966	0.003582561
58	0x3b3fcdca	0.0029266947
59	0xbb2a260a	-0.0025962614
60	0x3b01a1cf	0.0019780283
61	0x39fea7c7	0.0004857166
62	0x39e5340e	0.00043717067
63	0x3ab113f4	0.0013509975
64	0x3a88c043	0.0010433275
65	0x36fd8cc0	7.556373e-06
66	0x393860e9	0.00017583709
67	0xbab8c8f6	-0.0014097977
68	0xba0f00e7	-0.00054551515
69	0xba191334	-0.00058393483
70	0x399472bc	0.00028314244
71	0xb98c170e	-0.00026720058
72	0x3ad0f573	0.001594229
73	0xbaa90c2a	-0.0012897302
74	0xbb153967	-0.002276981
75	0x39f9449f	0.00047544108
76	0x3a8b2ddc	0.0010618526
77	0x3b1a0245	0.0023499888
78	0x39b49ee6	0.00034450664
79	0xba9d96f7	-0.001202314
80	0x3ad7cee8	0.0016464861
81	0xba94b789	-0.0011346202
82	0xb9950fba	-0.00028431212
83	0x3a81633b	0.0009871492
84	0xb9a8c39e	-0.00032189203
85	0xbb0ee624	-0.0021804655
86	0x39f33e7a	0.0004639512
87	0xbac5aa62	-0.0015080685
88	0x3990acca	0.00027594558
89	0x39ab86b2	0.00032716017
90	0xb9abc364	-0.0003276124
91	0xbadd7c81	-0.0016898067
92	0xbaa1b2af	-0.0012336577
93	0x3a6b890c	0.000898496
94	0xba2c145f	-0.0006564315
95	0xba139aef	-0.0005630692
96	0xbae1150e	-0.0017172412
97	0xbadf2aa1	-0.0017026254
98	0x3b13e06e	0.002256419
99	0xbabbb36a	-0.0014320437
100	0xb91cc80d	-0.00014951844
101	0x3ab4652c	0.0013763062
102	0x3a4fbff8	0.0007925029
103	0xb9b423cb	-0.00034358943
104	0xbad1c584	-0.0016004299
105	0xba964482	-0.0011464509
106	0xba8c2c80	-0.0010694414
107	0xbb101734	-0.0021986486
108	0xb9ee87e4	-0.00045496144
109	0xbaf097c7	-0.001835578
110	0xb99aa1ed	-0.00029493813
111	0xbb08d49c	-0.0020878678
112	0xbab01df7	-0.0013436665
113	0xba4ce02c	-0.00078153866
114	0xba615fab	-0.00085973245
115	0x3a798bd5	0.0009519433
116	0xba9cc952	-0.0011961854
117	0xba0da914	-0.0005403918
118	0xb9f9b912	-0.0004763087
119	0x3b0595b4	0.002038342
120	0xbab52c28	-0.0013822364
121	0x3a4beb92	0.0007778938
122	0x3aea5785	0.0017878866
123	0xba55ba19	-0.0008153036
124	0xba98cef4	-0.0011658357
125	0x38dc7938	0.00010512996
126	0x399807dc	0.00028997555
127	0xb92e9bd6	-0.00016651987

exp_avg_sq f4 [2, 64]
0	0x38c2d21a	9.289775e-05
1	0x390f600f	0.00013673327
2	0x395fbd19	0.00021337382
3	0x39d96d73	0.0004147101
4	0x39951cc2	0.0002844092
5	0x38d5e8d3	0.00010199998
6	0x395e146c	0.00021179178
7	0x392a0a7c	0.00016216369
8	0x39523ca5	0.00020049752
9	0x397c736b	0.0002407559
10	0x396bbfbf	0.00022482777
11	0x389c2bc5	7.4468124e-05
12	0x389b4e25	7.4055315e-05
13	0x39b8d920	0.00035256986
14	0x392465cb	0.0001567818
15	0x38f5e972	0.00011725993
16	0x3917bc0e	0.00014470538
17	0x3996594b	0.00028676758
18	0x3938ce5d	0.00017624484
19	0x38cb5acc	9.6967065e-05
20	0x398e0852	0.0002709055
21	0x39936695	0.00028114454
22	0x3942ca7c	0.00018576713
23	0x39720b2e	0.00023083083
24	0x38426555	4.6347577e-05
25	0x399b69e7	0.00029642807
26	0x391ac8fb	0.00014761456
27	0x39516088	0.00019967754
28	0x38aecddb	8.33531e-05
29	0x39996b05	0.0002926217
30	0x39e65eb9	0.00043939592
31	0x38fb27b8	0.00011976011
32	0x392390da	0.00015598853
33	0x39a51550	0.00031487131
34	0x39a5879a	0.00031572283
35	0x39b5d770	0.00034683524
36	0x39aa4faa	0.0003248428
37	0x3956204c	0.00020420662
38	0x38908778	6.891688e-05
39	0x39e420a1	0.0004351186
40	0x39392474	0.00017656555
41	0x398986bc	0.0002623106
42	0x390fabed	0.0001370159
43	0x39137986	0.00014064283
44	0x38c17b50	9.225926e-05
45	0x38c77c77	9.512243e-05
46	0x392851ab	0.00016052152
47	0x395500cb	0.00020313558
48	0x39c4ba21	0.0003752271
49	0x3919a855	0.00014653926
50	0x39188964	0.00014547032
51	0x39759158	0.00023419166
52	0x38a2f058	7.7695295e-05
53	0x393fe9e0	0.00018302305
54	0x3927bb53	0.00015996145
55	0x391fb690	0.00015231431
56	0x38e0eb55	0.00010724986
57	0x39624a2d	0.00021580672
58	0x398186d1	0.00024705243
59	0x397b921d	0.00023991657
60	0x394c0106	0.00019455337
61	0x39b927ad	0.0003531551
62	0x38fde425	0.00012106475
63	0x38a26a4c	7.744561e-05
64	0x38f1bac2	0.00011526562
65	0x39189049	0.000145496
66	0x39511aa7	0.00019941722
67	0x3a0cbca3	0.0005368685
68	0x399b0882	0.00029570243
69	0x38f00e3e	0.000114467446
70	0x394bc999	0.0001943469
71	0x3922b03c	0.00015515176
72	0x398b48e5	0.00026566457
73	0x398826bd	0.00025968804
74	0x39a3e98c	0.0003126379
75	0x3890e282	6.9086454e-05
76	0x389f1b4d	7.586796e-05
77	0x39d38df2	0.00040350814
78	0x3951d69d	0.00020011743
79	0x3929eb76	0.00016204812
80	0x393723e6	0.00017465613
81	0x39a97b5f	0.0003232611
82	0x391dc8cd	0.00015047491
83	0x38e30971	0.00010825962
84	0x399ac140	0.0002951715
85	0x39c74a7b	0.0003801173
86	0x395f5bac	0.00021301088
87	0x398a4783	0.00026374692
88	0x386fe0b5	5.7191315e-05
89	0x39a2ae57	0.0003102894
90	0x3901ffad	0.00012397645
91	0x397790e0	0.00023609726
92	0x38dab3f6	0.000104285704
93	0x39996f48	0.00029265345
94	0x39c1172b	0.0003682909
95	0x38dba11a	0.00010472741
96	0x39451d0d	0.00018798206
97	0x39c77647	0.0003804436
98	0x39c80cab	0.0003815641
99	0x39c0548a	0.0003668408
100	0x3997d91d	0.00028962726
101	0x3962117d	0.00021559554
102	0x38a042ce	7.641838e-05
103	0x39cf7fdb	0.00039577376
104	0x3948edf1	0.00019162126
105	0x399844d7	0.0002904299
106	0x391a06bb	0.00014689092
107	0x3945402d	0.00018811291
108	0x38ba3ef0	8.880894e-05
109	0x391338ab	0.00014040123
110	0x393f3635	0.00018235373
111	0x398b16d0	0.00026529143
112	0x3a07281d	0.00051558187
113	0x39210cad	0.00015358879
114	0x39247c87	0.00015686649
115	0x3987a859	0.00025874635
116	0x3899b0a3	7.32851e-05
117	0x391c165d	0.0001488565
118	0x392506ba	0.00015738132
119	0x394e4f02	0.00019675124
120	0x39141ef1	0.00014125906
121	0x3990d513	0.00027624573
122	0x398f3a9f	0.00027318762
123	0x39801495	0.00024429397
124	0x3975572e	0.00023397498
125	0x39d76b57	0.0004108797
126	0x39142d61	0.00014131285
127	0x38a05451	7.6451e-05

exp_avg f4 [2]
0	0xbc5d9d86	-0.013526326
1	0xbbe06161	-0.006847546

exp_avg_sq f4 [2]
0	0x3bccbbd6	0.0062479777
1	0x3bc1dad5	0.0059159794
