flare/polgrad/lightning_logs/version_4/checkpoints/epoch=21.ckpt (torch_old, 63026 bytes, 18 tensors)

exp_avg f4 [64, 8]
00000000: 6e9a f73c ab02 523e 4262 de3d 9843 6cbd
00000010: 20b5 86bd db33 38bd f077 423c 185b 81bb
00000020: a1e8 f0bc 8693 aabc 2010 3bbd 1b7e e13c
00000030: aa2c be3c f712 723c 5971 fbbb b4c0 4dbb
00000040: 032b c7bc 8fb9 71be 7894 debd b549 693d
00000050: f78d 973d 6ce7 5e3d 168f bebb 9d56 b43b
00000060: 34e6 bbbc 9530 66be 7c0d d8bd c06e 5a3d
00000070: 296c 8a3d 1115 4c3d 61c3 ccbb 4e1c 7a3b
00000080: fa62 73bc b83f 13be f841 69bd 53fb 8b3d
00000090: c0dd 4b3d b298 103d eb0c e9ba 6e16 12ba
000000a0: fae3 0dbd 91d6 90be 7e6c 04be d5f2 cb3d
000000b0: 70db cd3d 4963 993d 4c79 6dbb 60d9 343b
000000c0: 05b1 dcbb e4c4 9c3c 2cf0 dcbc 0263 3ebd
000000d0: 434f 223c a89a 023c 0ed0 9cbb 2198 943b
000000e0: ba5e e0bc fc2f 91be b353 01be be19 af3d
000000f0: d0b7 b43d e351 793d c3f4 c6bb ec77 e03b
00000100: 965d 0dbd f675 ecbe c809 2fbe 7c72 293e
00000110: 6c2e 033e a76a b43d 786a 09ba 5c4d bc3a
00000120: 1a4d 993c 8cbf bc3e 3cee 003e e1b4 0ebe
00000130: 4cbd e9bd eaa7 bdbd a25b fa3a cdc4 25bb
00000140: d1b7 303b 5f22 06be 6e76 28bd 8152 cd3c
00000150: ff2c 1c3d e00b ea3c caa0 46bb b00c 943b
00000160: 1e83 0c3d d4d9 8f3e f446 073e 5a4e b5bd
00000170: 507d c3bd 1e66 9bbd 2b31 593b e461 3dbb
00000180: 4807 cf39 3ffc 0e3d dc37 ad3c 3afc b83c
00000190: e26d 1abc 00af 97b8 1c79 903a bb24 d8bb
000001a0: 0203 fabc 1ab9 a6be 3466 0fbe 9cea be3d
000001b0: 6e38 be3d ae12 8a3d b13a 21bc 04c3 663b
000001c0: f808 e93b e91e b33d 479a f83c 3a68 3fbd
000001d0: 9803 f5bc 0266 a7bc 929d eeba a6f1 fa3a
000001e0: 28f0 843c 3809 3d3e 46b3 993d 3a86 82bd
000001f0: 872e 63bd 4ff2 24bd fa74 333b 96a8 32bb
00000200: b363 ee3c 7987 323e 9863 c03d 1ee8 66bd
00000210: a926 7dbd 61b3 24bd a66f f33b d32a 25bb
00000220: d0e3 97bc 7e6b 4bbe f95f aebd 998a 983d
00000230: 1733 8f3d 3802 503d 476f 89bb 3cd6 193b
00000240: 9440 25bc 55ce 84bd 85b3 43bd 675e 8dbc
00000250: 21f4 b73c 2e59 683c a074 dabb 0645 dd3b
00000260: 400c f13c 02cb 31bd 808b f13c 8c00 b2bb
00000270: de8b 4cbc d015 77ba b1f4 d43b 07db 483a
00000280: a80a 3fbc 281d 34be bcb9 90bd fdbc 503d
00000290: 465c 633d 48f4 273d 7a09 c3ba d03c 583b
000002a0: 7a0a c73b dac7 d7bd 9cb7 6fbc 1786 093d
000002b0: 759b 883c cc83 7e3c 31de a13b 8064 3c3a
000002c0: b28c 283d c6b1 a23e 64c1 213e 8172 dabd
000002d0: d0e9 eabd a825 acbd 7084 cd3b ad6a bdbb
000002e0: 9294 e4bc d97b 88be 114b f1bd 4c16 bb3d
000002f0: 7ca9 bb3d 8365 8b3d dc6d f2bb d5ed 923b
00000300: e1c7 2e3d 54e1 3f3e 86cf 053e a92e 47bd
00000310: 2ca1 aabd d683 74bd a0af da3b fc79 b8bb
00000320: 1105 1dbc 4e5d 933d a475 5b3b c349 87bc
00000330: d620 dabb f02e ecbb a045 f5b8 9d85 90ba
00000340: a15e cd3c 64ce a93e 70ad ff3d fa11 f9bd
00000350: 3f7a c4bd f6d5 8cbd 34be 213b 164c caba
00000360: 858a 99bc 8495 9abd cd73 59bd 2c3b e13c
00000370: 7031 233d 9a25 f83c bb89 59bb 06c4 203a
00000380: 02e9 4bbc c567 82be e063 9fbd 4260 c03d
00000390: ea89 433d eb7a f93c f695 593b 1c66 81ba
000003a0: dfa9 a2bc eab2 85be 6c15 c0bd 311c bf3d
000003b0: 358f 843d e592 2e3d 6085 8db9 b902 943a
000003c0: 1046 c53a 7f58 3a3d 6378 a63c de26 7fbb
000003d0: 3235 4dbc 1921 13bc 9500 003b 8696 24bb
000003e0: 1ba0 1e3d f8d9 8f3b 7451 a73d b068 e33c
000003f0: c00b 46bd 1be5 e4bc aa02 873c 4040 b6bb
0.030225005 0.2050883 0.10858585 -0.05768165 -0.065775156 -0.04497133 0.011869416 -0.003947627
-0.029407801 -0.020822298 -0.045669675 0.027525952 0.023214657 0.014775029 -0.007673424 -0.0031395378
-0.024312502 -0.23605941 -0.10868162 0.056955058 0.074001245 0.05441992 -0.005815397 0.005503489
-0.022936918 -0.2247947 -0.10549447 0.053328276 0.06758911 0.049824778 -0.006248877 0.0038163844
-0.014855141 -0.14379776 -0.05694768 0.06835046 0.049772024 0.03530187 -0.0017780339 -0.00055728003
-0.034641244 -0.282887 -0.12932011 0.09958426 0.1005162 0.0748964 -0.0036235629 0.0027595386
-0.0067349696 0.019136854 -0.026969992 -0.04648114 0.009906593 0.007971443 -0.0047855442 0.0045347367
-0.02738892 -0.28356922 -0.12629585 0.08549832 0.08824122 0.06086911 -0.0060716583 0.0068502333
-0.03451308 -0.46183747 -0.17093575 0.16547579 0.12810677 0.08809405 -0.00052420003 0.0014366317
0.018713523 0.3686489 0.12590879 -0.13936187 -0.11413059 -0.09260543 0.0019100795 -0.0025294304
0.0026965032 -0.13099049 -0.04112857 0.025063755 0.03812885 0.028570116 -0.003030824 0.004518114
0.03430473 0.28095877 0.1321066 -0.08852835 -0.09545386 -0.07587837 0.0033140879 -0.0028897459
0.00039487542 0.03490853 0.0211448 0.022581208 -0.009425612 -7.2328374e-05 0.0011022422 -0.0065961755
-0.030519012 -0.32563096 -0.14003831 0.09322092 0.09288107 0.06741844 -0.009840653 0.0035211453
0.007111665 0.0874613 0.030347003 -0.046730258 -0.02990894 -0.020434383 -0.0018204919 0.0019145503
0.016227797 0.18460548 0.07504897 -0.06373258 -0.055464294 -0.040270146 0.0027382956 -0.002726113
0.029100275 0.17434491 0.09393996 -0.056373708 -0.061804447 -0.04021013 0.007429081 -0.0025202527
-0.018541247 -0.19865224 -0.08514399 0.074483104 0.069921665 0.050783366 -0.0041941735 0.002347364
-0.010086197 -0.06484667 -0.047778625 -0.017256929 0.022455277 0.014181418 -0.006666735 0.006752613
0.029424787 -0.043406494 0.029485464 -0.005432194 -0.012484519 -0.00094255526 0.006498896 0.0007662032
-0.0116602555 -0.17589247 -0.07066676 0.050961483 0.05550792 0.04100445 -0.0014880144 0.0032995231
0.006074247 -0.105361655 -0.014631178 0.033575144 0.01667569 0.0155343525 0.0049398174 0.00071866065
0.041149803 0.31776255 0.15796429 -0.10666371 -0.114703774 -0.0840562 0.0062718913 -0.005780539
-0.027902875 -0.26656988 -0.11781896 0.09135112 0.09163186 0.06806471 -0.00739835 0.004483918
0.042671088 0.187383 0.13067445 -0.048628483 -0.08331522 -0.05969604 0.006673768 -0.005629776
-0.009583727 0.07195531 0.0033486867 -0.016514665 -0.0066567464 -0.007207744 -0.00011695479 -0.0011026148
0.025069537 0.33165276 0.124842525 -0.12161632 -0.09593629 -0.06876747 0.002468002 -0.0015434052
-0.01874281 -0.07548049 -0.05308895 0.027494036 0.03984207 0.030291367 -0.0033193666 0.00061327254
-0.01244569 -0.25469795 -0.077827215 0.0939336 0.047738947 0.03045412 0.0033200956 -0.000987235
-0.019856391 -0.26113063 -0.09379086 0.09331549 0.06472627 0.04262056 -0.00026992988 0.0011292315
0.0015050787 0.045494553 0.020321077 -0.0038933079 -0.01252489 -0.008980059 0.0019531597 -0.0025114133
0.038726907 0.0043899976 0.08169833 0.02775988 -0.04835105 -0.027941277 0.016480763 -0.0055618584

exp_avg_sq f4 [64, 8]
00000000: 804c 7e39 ada9 df3b 9294 af3a bbe9 243b
00000010: 20df 593a 2c5e 013a 1acb 3538 5a18 dd37
00000020: 1066 c23a 1a8b 433c 0ad8 b53b e7b8 1b3c
00000030: 29af 853b 092a 323b f215 1c39 e495 8a39
00000040: ec89 0b3a 5d8d 3b3c c7f3 273b 7a19 903b
00000050: 2a2a 073b 1912 e63a 9b5c 9c38 34ad 8c38
00000060: 247c 1e3a edee 763c 6e51 623b f957 a63b
00000070: cc14 eb3a 8aef 6e3a f206 9038 073f 7338
00000080: 58b7 9139 18d9 bd3b ecd5 c63a 80a9 043b
00000090: 9c12 963a 16e5 4d3a 6e56 8638 188e bd37
000000a0: 98c0 443a 60da 983c 254a 963b 8239 cd3b
000000b0: dae1 623b 990f 5d3b 97c8 1739 4aa8 1b39
000000c0: 2bb7 ea39 7446 d43b 3db5 be3a 70d0 623b
000000d0: 8282 b73a 4a6c 9f3a 2e3a bf38 7052 2838
000000e0: 5afb 0f3a de34 6d3c eb9b 2c3b a51f af3b
000000f0: c777 133b 8893 013b 8292 b638 1f54 a738
00000100: cc6b 543a f21e de3c e3f0 9b3b c73a f33b
00000110: d3f6 303b 9a78 f03a 6e17 3239 5899 7a38
00000120: 6bf7 993a 32dd c93c f71a bc3b b9d4 143c
00000130: 0bdf 8d3b be90 533b 10a8 5739 adae 2b39
00000140: 07e1 db39 ba71 c13b 2378 ca3a 9e9f 403b
00000150: 9664 933a 0898 123a 8122 b138 c6da d737
00000160: 40e1 973a 8487 0a3d 926b f33b 107f 123c
00000170: ba18 933b 28c8 9f3b 41a6 4d39 421d 8539
00000180: 8a76 3b3a 1913 9f3b 172a 003b d448 a13b
00000190: 8911 0d3b e2a4 053b 0c55 0c39 674d 0a39
000001a0: 8589 f939 e034 6f3c 86f8 283b 822c 923b
000001b0: c64b a73a 441c 563a 3847 7a38 d4cf 3c38
000001c0: 34cf 0339 fa23 2b3b bfa5 2d3a a71c 7c3a
000001d0: 179d eb39 20f3 9e39 479a c737 2179 8837
000001e0: 61d6 5339 631c 8c3b ab90 803a ee89 d53a
000001f0: 340a 793a ca54 5a3a 7e07 8c38 a1ff ce37
00000200: 40c4 2139 7f64 873b 4dc2 683a 5190 b43a
00000210: 65e0 263a d6c0 ea39 0b30 d837 bb75 9237
00000220: de1a 1839 ac46 a73b d936 5d3a 2172 c93a
00000230: 8cdf 503a 4230 2d3a 635f f637 fe46 8837
00000240: 0597 043a 7a23 c03b 475c dd3a 8c1b 763b
00000250: fdc2 c93a 7e47 ad3a 5240 c738 0f04 9838
00000260: 5819 573a f113 183c 7e60 4d3b dcb7 983b
00000270: 84c9 0b3b c8ff cf3a 40f0 6038 1ca8 8738
00000280: 8c17 c639 a1ab dd3b c459 dd3a 8144 313b
00000290: 27b1 c63a a738 983a b7c5 a538 d7f5 0d38
000002a0: 5b40 6f39 3b21 513b cc74 693a f03f d23a
000002b0: 1c25 4b3a 938f 503a 123b b438 4630 4438
000002c0: a457 df3a 81d8 133d 046e 1a3c e312 653c
000002d0: cd48 bd3b 173e 8f3b 1aac 5439 e861 9339
000002e0: caad 033a 5d19 313c c820 283b cd8e 8c3b
000002f0: f144 173b bba9 003b acee f738 8c77 8838
00000300: f0aa 1c3a 30cb 4b3c 6f0d 413b a66b ac3b
00000310: 822b 153b 278f 033b 9704 ab38 b2a3 d638
00000320: 03d0 bb39 3912 8d3b ba6a bb3a bfca 173b
00000330: 69a3 7d3a 7862 e539 3e52 8a37 f93f 6238
00000340: 2d06 043a 5862 553c 1422 303b 3046 893b
00000350: 0c4d 1a3b 9306 e03a 07f8 1939 a8d3 ec37
00000360: d447 ba39 29e2 083c 9a08 103b b5a8 223b
00000370: 0a0e a73a 799a 8e3a 92f6 5e38 6a25 1638
00000380: 4557 8639 28f7 fb3b ecb9 b43a 40b4 133b
00000390: 3684 cf3a 3917 983a 48ad c038 7cde 9137
000003a0: 6041 8639 0ef6 ef3b b0ab ac3a 7068 0b3b
000003b0: 9e36 ad3a c5e6 843a 10ed b738 d12c b337
000003c0: bba3 2939 059a 0a3b 3cb8 283a fe1f 8e3a
000003d0: 8859 0f3a dd17 e439 0f08 ea37 35d2 8d37
000003e0: c63a 2f3a 8b23 453c 4991 4e3b db27 e73b
000003f0: 6fff 273b 5ccb 2c3b 93c7 3a39 884e 3b39
0.00024251826 0.006825647 0.0013395718 0.0025163728 0.0008311141 0.0004934992 4.3342916e-05 2.6356593e-05
0.0014831442 0.01193502 0.0055494355 0.009504533 0.0040797186 0.00271857 0.00014885495 0.00026433088
0.0005322981 0.011447278 0.002562748 0.0043975683 0.0020624497 0.0017553001 7.455909e-05 6.707982e-05
0.000604572 0.015071613 0.00345334 0.005076405 0.0017935275 0.00091146736 6.867749e-05 5.7994414e-05
0.00027793157 0.005793702 0.0015169955 0.0020242631 0.0011449638 0.0007854266 6.405717e-05 2.2596723e-05
0.00075055053 0.018658817 0.0045864754 0.006262959 0.0034619481 0.003373122 0.00014475208 0.00014844644
0.0004476843 0.006478125 0.0014549863 0.0034609102 0.0014000686 0.001216301 9.1184265e-05 4.0131097e-05
0.00054924714 0.014477937 0.0026338052 0.0053443485 0.0022501813 0.0019771773 8.7057255e-05 7.978849e-05
0.0008103221 0.027114365 0.0047589405 0.0074227783 0.0027002587 0.0018346489 0.00016984131 5.9747457e-05
0.001174671 0.024641607 0.005740519 0.00908392 0.0043295673 0.0032282318 0.00020566606 0.00016372903
0.00041938593 0.00590345 0.001544718 0.0029392014 0.0011245187 0.00055921124 8.4464446e-05 2.5731872e-05
0.0011587515 0.033820644 0.007428595 0.008941427 0.0044890316 0.0048761554 0.00019612258 0.00025389536
0.00071511476 0.0048545715 0.0019556338 0.004922012 0.0021525344 0.0020392467 0.00013383123 0.0001318954
0.0004759544 0.014600009 0.0025782897 0.004460872 0.0012763671 0.0008167664 5.9670972e-05 4.5016248e-05
0.00012570323 0.0026113973 0.00066241244 0.00096173066 0.00044939734 0.0003031725 2.379449e-05 1.6268868e-05
0.0002020239 0.004275845 0.0009808739 0.0016291717 0.00095001166 0.00083286746 6.677116e-05 2.467615e-05
0.00015427265 0.004131853 0.0008879051 0.001377592 0.0006365835 0.00044775632 2.5771578e-05 1.7459379e-05
0.00014505858 0.0051048603 0.0008438654 0.0015369096 0.00079678814 0.0006606617 2.9369903e-05 1.6245522e-05
0.0005057904 0.005863604 0.0016888463 0.003755304 0.0015393194 0.0013220159 9.50104e-05 7.248681e-05
0.00082053756 0.009282098 0.0031338031 0.0046605896 0.002132983 0.0015869075 5.3629512e-05 6.4686144e-05
0.00037783047 0.0067648445 0.0016887714 0.0027048888 0.0015158997 0.0011613563 7.9046404e-05 3.3845976e-05
0.0002281679 0.0031910676 0.0008905649 0.0016040783 0.0007749365 0.00079559645 8.5940716e-05 4.6775e-05
0.0017039669 0.036095146 0.009425644 0.013981554 0.005776501 0.0043714154 0.00020282008 0.0002811097
0.000502315 0.01080927 0.0025654305 0.004289484 0.0023081864 0.0019632417 0.00011822334 6.507253e-05
0.00059763994 0.01243858 0.002945747 0.005261856 0.0022761528 0.002007434 8.15477e-05 0.00010234806
0.000358224 0.004305151 0.0014298775 0.0023161618 0.0009675534 0.0004375165 1.6489179e-05 5.3942178e-05
0.00050363207 0.013023935 0.002687578 0.004189275 0.0023544459 0.0017091803 0.00014683614 2.8231952e-05
0.000355302 0.008354702 0.0021977783 0.0024819796 0.0012745273 0.0010879777 5.315856e-05 3.579763e-05
0.00025623493 0.0076893754 0.0013788319 0.0022537857 0.0015832249 0.00116036 9.1875496e-05 1.738895e-05
0.0002560718 0.007323033 0.0013173725 0.0021271966 0.001321513 0.0010139575 8.770276e-05 2.1359332e-05
0.0001617809 0.0021148932 0.00064361445 0.0010843275 0.0005468358 0.00043505328 2.7898726e-05 1.6906395e-05
0.0006684478 0.0120324 0.0031519702 0.0070543117 0.0025634428 0.0026366329 0.0001781269 0.00017862965

exp_avg f4 [64]
00000000: 8c5a 2c3e 664c dfbc ac99 3ebe 343c 38be
00000010: ad90 fabd 0864 6ebe 7077 983c 5853 69be
00000020: 9da3 c3be f6e1 9b3e f62e d6bd e4bb 6c3e
00000030: 40f6 873c de43 89be bee6 9b3d 142a 1a3e
00000040: 57f5 133e 62ea 2abe 3aa7 2ebd d84c bebc
00000050: c73d 10be 96c3 a3bd 2d62 863e 48d6 60be
00000060: cae1 203e fdc0 583d d8a4 8a3e cef6 88bd
00000070: 1a6a 4cbe 1839 53be 96ea 053d 5051 253c
00000080: 5aac 86bc 1e56 1d3e 6a8a 97bd a866 2c3e
00000090: 8e59 eebc 2143 edbd 4ced df3e f5b7 13be
000000a0: fb06 31bd 79d4 11be 6c6e 56be 8a6e 813d
000000b0: 3645 3bbe cb5b 27be c877 173e 8e13 1bbd
000000c0: 4cb1 02bd aea2 2b3c 0f3b 8fbe 623a 3f3e
000000d0: 7972 1d3e 7ebd 6e3c fea8 bdbe a069 3cbe
000000e0: d406 3abd 3825 a03d cdc4 0abd 7526 01be
000000f0: c694 ad3d bec3 5abc b18f a83d e4e0 463d
0.16831416 -0.02725811 -0.18613309 -0.17991716 -0.12234626 -0.23280346 0.01861164 -0.227857
-0.38210765 0.30445832 -0.10458176 0.2311855 0.016596913 -0.2680959 0.0761237 0.15055114
0.14449058 -0.16690972 -0.04263995 -0.023230001 -0.14086066 -0.079962894 0.26246777 -0.21956742
0.15711132 0.052918423 0.2707889 -0.06687699 -0.1996235 -0.20627248 0.03269442 0.010090187
-0.016439606 0.15364882 -0.07399447 0.16836035 -0.029095437 -0.115850694 0.4373573 -0.14425643
-0.043219548 -0.14241208 -0.2094056 0.06319912 -0.1828812 -0.1634361 0.14791787 -0.037860446
-0.031907365 0.010475798 -0.27974746 0.18674615 0.15375699 0.014571546 -0.37042993 -0.18399668
-0.045416668 0.07819599 -0.03387909 -0.12612326 0.08475642 -0.013352333 0.08230532 0.048554316

exp_avg_sq f4 [64]
00000000: b21d b03b b744 483c 364b 133c 7aad 353c
00000010: d959 923b 8695 6e3c 0a50 bb3b ec6d 393c
00000020: 787c 9c3c 2d03 9a3c 5c93 9e3b d13e c83c
00000030: dd74 bf3b b621 2e3c 7510 053b 2426 5e3b
00000040: 0ae8 533b c6bf 7e3b 4699 b33b a2bd f93b
00000050: baa0 ad3b 8377 273b 600e eb3c 1986 0f3c
00000060: 5da6 2a3c 1e2e 603b fc30 1d3c 3933 c93b
00000070: 64b2 b23b 02e1 a93b 1ef5 eb3a 5c64 2e3c
00000080: 6874 0c3c beba 8a3b 5c30 5c3b c503 353c
00000090: b1af 073b 505e 273b 2af3 793d b6a8 073c
000000a0: 3439 203c 2890 093c c698 1a3c 2c2a 913b
000000b0: 0342 633c e4fa e43b b699 3c3c 0ebf 0e3b
000000c0: 1692 913b bee4 343a 87f4 693c d2fb 703b
000000d0: 6a9b c63b 030b cc3a 730b ce3c 1ef3 e53c
000000e0: a73b 8d3b 3be8 e73a 2166 e93a 8a81 f03b
000000f0: 2bcf 8e3a 8a34 eb3b b20a 983c 522c 8b3a
0.0053746337 0.012223414 0.0089901 0.011088723 0.004466277 0.014562016 0.0057163285 0.011317711
0.01910232 0.018800342 0.004839344 0.024444016 0.0058427886 0.0106281545 0.0020303999 0.0033897245
0.003233435 0.003887163 0.005480918 0.007621483 0.005298701 0.0025553412 0.028693378 0.008759999
0.010415641 0.0034207175 0.009594198 0.0061401394 0.0054533947 0.0051842937 0.0018002128 0.010644045
0.008572675 0.004233687 0.003359816 0.011048262 0.0020704085 0.0025538392 0.061022915 0.00827997
0.009779263 0.008396186 0.009435838 0.004430076 0.013870719 0.0069879163 0.011511257 0.0021781358
0.0044424636 0.00069005403 0.014279491 0.003677119 0.0060610073 0.0015567247 0.025151944 0.028070029
0.0043100896 0.0017693111 0.0017806926 0.007339661 0.0010895481 0.007177894 0.018559787 0.0010618067

exp_avg f4 [64, 64]
00000000: 1262 24bd ee5a ac3d ac56 ecbb 3e46 c83c
00000010: 3dbc 233d 8a8b bfbc d640 4cbd 7a8b 853d
00000020: ac16 513c 0a26 143d 12b6 6dbd c607 6bbd
00000030: 1048 cd3d df42 083d c03c 5dbc 9aba 8e3d
00000040: 3e9b b3bb a449 393d 2ec7 70bb 2cc3 d6bc
00000050: f652 bfbc 94a7 e1bd fe63 a9bc a5bf 3bbd
00000060: 6b54 85bc 4847 dcbd 6086 2f3d 3c2b 9b3c
00000070: ac68 72bd eaee fbbc 68de 813b 8440 93bd
00000080: b2fe b53b 24d4 a23d 2466 82bd 40a5 8c39
00000090: 07e0 dc3d 625b 7abc 2443 8ebb 64c2 3f3c
000000a0: fcbb 173d 032e bcbb 34b2 fe3c cbd7 01bd
000000b0: 104b 0a3c 4f31 43bc 2846 31bd cc81 31bb
000000c0: 289d 7cbc 88d4 743d 030a 773c 606a f53c
000000d0: c4af 603d f38a 05bd be71 873d 0267 423d
000000e0: 6a4d b63d 58fd 1c3c aadf 92bc ecfd b9bc
000000f0: 1a96 3bbd 6cfa d6bc f57c 05bc fe19 ae3d
00000100: 1ce3 013d f61e 8abd 6386 573c 7606 41bd
00000110: cde9 02bd 23b5 ff3c de36 683d 20e3 17bd
00000120: 58a4 c8ba aa07 fdbc 16f9 853d 6d88 5d3d
00000130: ecbd bdbd f741 e5bc 3c65 043a 5c25 a0bd
00000140: 12b1 bdbb 910c aabc a2ea 413b e423 d639
00000150: d2b3 eb3c ee43 de3d 4a99 203c 77e0 373d
00000160: 7ef0 83bb 9b16 ce3d 52a4 55bd c2d6 f1bc
00000170: 7f7a a53d 022f 653d 8813 cbba 6472 793d
00000180: 9e45 c2bc bd15 c1bd ebac a73d e38a 503c
00000190: bc20 cbbd 184e f43c 5ee1 e4bb e2ee 79bc
000001a0: 6d48 37bd a65c 023c 7ed1 0cbd 775d 183d
000001b0: a032 33bc 56ca 673c 78f8 753d a029 5e3a
000001c0: 262d e33c e347 90bd 0622 b5bb c266 5dbd
000001d0: 6d01 93bd 14ea 183d 7b5b 79bd a973 dfbc
000001e0: 85e7 a5bd 859b a0bc 6657 823c b243 0a3d
000001f0: e8a6 fc3c af95 1e3d 1cd8 d83b 48a1 d7bd
00000200: a013 863d 3c54 0bbe 1110 193c 0a08 2dbd
00000210: 89ee 85bd 464b 0e3d 0352 a93d 43f6 dcbd
00000220: e4c6 c9bc 01fe 65bd 021a c23d 2c12 c73d
00000230: 3d21 27be 9cc6 67bd 3c13 a33c 42ac e6bd
00000240: 1d0b 113c 49f6 95bd 5b15 db3b ed61 213d
00000250: b715 1c3d a3d3 393e d340 fa3c 92cd 933d
00000260: ef2f cc3c 137a 363e 8cc9 8abd ea3f 0bbd
00000270: e6f8 c83d f2cd 463d 7a43 3cbb 622f f83d
00000280: 66ae 31bc 95c8 04be 32b0 d03d 185e 843b
00000290: 9a0f 36be 0b70 ed3c 4ae4 2b3c 0252 a6bc
000002a0: c0e7 81bd ebb1 2a3c bcfa 51bd 58e3 5e3d
000002b0: 6e4f 14bc b33a 883c 7004 983d 84c3 753b
000002c0: dc57 e13c 7e13 c8bd 4975 c8bc 94d5 46bd
000002d0: c3cb b9bd 5eb5 613d c4ba debd 9ad4 9ebd
000002e0: e799 14be 7c95 a2bc fcfb ca3c 9aa6 203d
000002f0: 84c9 993d d00d 293d e10b 793c a6cf 0cbe
00000300: 9f94 3e3c 7177 e2bc e2ba cd3b b84a d8bc
00000310: 7cee 71bc 347b 5e3c 71db ee3c 79c6 67bc
00000320: 281a 92ba 5118 41bc 6c97 133d eaf3 e13c
00000330: fa9b 2abd 2cc6 5cbc e2e7 34bb 5dcd 1ebd
00000340: 70a3 b0bb 6a83 b3bb 6888 5d3a a843 a1bb
00000350: 63bd 7d3c 8664 583d 941a 093b f8df 9b3c
00000360: 338f 9ebb 34ad 4d3d 6bf3 cfbc 5187 91bc
00000370: 189c 363d ee17 ff3c 68ab 4d3b ef37 f93c
00000380: d957 84bc 13dd 44bd aa06 2e3d b0f6 3c3c
00000390: 0843 46bd f052 a53c 64e9 0abb 7293 febb
000003a0: 3511 d4bc be2e 963b a77b 87bc 6a6e a33c
000003b0: ef19 f4ba 3641 a83b b967 093d e01b e4ba
000003c0: 0b82 843c f92b 0bbd 000c 8039 e3c2 fcbc
000003d0: 0277 1fbd d3e1 ae3c f75c e5bc 8cb1 54bc
000003e0: c6cf 19bd bab3 6ebc 1a59 363b 26af 9c3c
000003f0: 4ad8 683c 0ab4 ac3c 4cad be3b 8256 5ebd
-0.04013259 0.08415781 -0.0072124805 0.024447557 0.03997444 -0.023381967 -0.04986652 0.06520744
0.012761753 0.03616909 -0.058034964 -0.05738046 0.100235105 0.0332669 -0.013503253 0.06969185
-0.005481153 0.045236245 -0.0036739814 -0.026216112 -0.023354989 -0.11018291 -0.020677563 -0.045837063
-0.016275605 -0.10755783 0.04285276 0.018941514 -0.059181854 -0.030753572 0.0039632805 -0.0719004
0.0055540437 0.07950619 -0.06367138 0.00026826002 0.10784917 -0.015280576 -0.0043415 0.011704061
0.03704451 -0.0057427897 0.031090833 -0.031699937 0.008440748 -0.011913612 -0.043279797 -0.0027085422
-0.015418328 0.059772998 0.015078071 0.02995795 0.054855123 -0.032603215 0.066134915 0.047461517
0.08901484 0.009581886 -0.017928917 -0.022704087 -0.045797445 -0.026242457 -0.008147468 0.08501051
0.03171073 -0.067441866 0.013154599 -0.047125302 -0.03196125 0.031214302 0.05669295 -0.037081838
-0.0015307767 -0.030887444 0.0654165 0.054085184 -0.0926474 -0.027985556 0.00050504855 -0.07819626
-0.0057889307 -0.020757945 0.0029589315 0.00040844 0.028772268 0.108528 0.009802172 0.0448918
-0.0040264716 0.100629054 -0.05215866 -0.02952135 0.08080005 0.055953033 -0.0015493492 0.060900107
-0.023714837 -0.094279744 0.08187278 0.012728426 -0.09918353 0.029822394 -0.0069848737 -0.015254708
-0.044746805 0.007956659 -0.034379475 0.03719851 -0.010937363 0.014147362 0.06005141 0.00084748305
0.02773149 -0.07044961 -0.0055277376 -0.054053076 -0.07178006 0.03733261 -0.06087826 -0.02727683
-0.081007995 -0.019605407 0.015910815 0.033755966 0.030841306 0.03871697 0.006617559 -0.10528809
0.06546712 -0.13606352 0.009342209 -0.042243995 -0.065396376 0.034739755 0.082675956 -0.10789158
-0.024630971 -0.05615044 0.09477617 0.09720263 -0.16321273 -0.056585893 0.019906633 -0.11263324
0.008852747 -0.07322366 0.0066858954 0.03940003 0.038106646 0.18147139 0.030548489 0.07216944
0.0249252 0.17820005 -0.06776723 -0.0339965 0.098130986 0.04853625 -0.0028726743 0.121184126
-0.0108448025 -0.12967141 0.101898566 0.004039537 -0.17779389 0.02898409 0.01049144 -0.020302776
-0.06343031 0.0104183955 -0.05126451 0.05441603 -0.009052141 0.016629552 0.074227214 0.003750057
0.027507715 -0.09769343 -0.024469988 -0.048543528 -0.090720676 0.055104606 -0.108754665 -0.07755394
-0.14511834 -0.01984667 0.024778359 0.039221384 0.07509139 0.04127294 0.015200586 -0.13751087
0.011632114 -0.027644845 0.0062783817 -0.026402816 -0.014766332 0.013579179 0.029157372 -0.014146441
-0.0011146711 -0.011785583 0.03603308 0.027582128 -0.041652657 -0.013474982 -0.0027604033 -0.03877007
-0.005390577 -0.0054783123 0.0008450807 -0.0049213953 0.015487048 0.05283024 0.0020920383 0.019027695
-0.004838848 0.050214007 -0.025384625 -0.01776472 0.044582456 0.03113934 0.0031382684 0.030422179
-0.01615517 -0.048062395 0.042486824 0.011533424 -0.04840377 0.02018115 -0.002119624 -0.0077690417
-0.025887111 0.004583209 -0.016538454 0.01995011 -0.0018623451 0.005134727 0.033546183 -0.0017403327
0.01617529 -0.033977482 0.00024423003 -0.030854648 -0.038931854 0.021347916 -0.02799843 -0.012981784
-0.037551664 -0.014569217 0.0027824105 0.019126486 0.014211724 0.021081943 0.0058189984 -0.05428172

exp_avg_sq f4 [64, 64]
00000000: 0282 2d3a c64b fe3a c6a6 bc39 c52a 6b3a
00000010: 46b5 2e3a fd62 343a f802 a13a 57a2 603a
00000020: ec50 523a e580 453a adee 423b 3393 873a
00000030: f77c 2e3b c26a 543a ea06 d439 ef94 2c3b
00000040: b3a5 8839 4c68 353a c953 0339 d72e 5b3a
00000050: 6a1f c139 740b 4d3b 671f 2a3a e47e 873a
00000060: b217 193a 33f1 353b 01f7 d33a 0cc4 323a
00000070: 79e8 613b 38fb 213b 3013 153a 505b a53a
00000080: f0a2 de39 b3d0 6b3b 4da3 2d3b 8ef8 f039
00000090: 53d3 193b 16c2 a63a d7d8 453a 85b7 8d39
000000a0: 5153 443a 1743 7839 d654 a239 6b07 093a
000000b0: 5563 2d3a 0938 193a e043 ef3a 1a51 9039
000000c0: fde9 9f39 a3d9 d83a 16b4 9e39 5b85 083b
000000d0: c9ae 2b3b c90f 873a af84 943a 8a49 973a
000000e0: 11ba c63a 4ed2 083a c3e4 6e3a fd95 643a
000000f0: 1282 153a 2ead 463a 9e17 213a 0433 a03b
00000100: bfa5 fe39 9498 b73a 6512 8539 fc74 463a
00000110: 1002 d839 ab34 da39 1891 763a 9e50 363a
00000120: d9f4 ed39 8879 ea39 28da f13a a5de 733a
00000130: 0f20 073b 0a73 0f3a 4ed2 8d39 92c4 db3a
00000140: f664 4339 8597 073a a54a ef38 43bf 313a
00000150: edb0 7039 2c99 263b 12e3 d539 b819 283a
00000160: 203b e339 cb1d 193b edee 753a 2607 0f3a
00000170: 721e 143b 7fde ba3a 0d04 be39 8ced 893a
00000180: e4ca ab39 de25 203b 2c41 dc3a 512f dc39
00000190: 06db 053b 54b6 693a ee98 f139 aea1 8739
000001a0: 84f8 2f3a f0e5 2739 507c 8239 f3c7 083a
000001b0: e6f5 c939 9096 c739 a8a1 ba3a 87ef 5a39
000001c0: 13b9 9f39 a3d7 a13a 7620 7c39 9ea0 a83a
000001d0: dec2 e13a 7743 393a 151b 723a 9b4f 493a
000001e0: 7b15 9f3a f941 d139 e5a5 0d3a 02a4 2b3a
000001f0: e29b d139 02a9 fc39 ae44 c539 3c1c 4c3b
00000200: 4837 c23a 4462 963b 32e1 483a fb1f 003b
00000210: 3723 ba3a 8d4a b23a ddbf 1f3b 0f0e 103b
00000220: 7e46 dc3a 14a1 d83a c6c5 bd3b b084 173b
00000230: e0b5 c93b 8f3e ef3a be60 5e3a a287 ae3b
00000240: 5659 0a3a 0304 cb3a db3d 8d39 8699 e63a
00000250: 6b9f 483a b759 ee3b d663 b43a d710 113b
00000260: 031e 9a3a 13e8 d93b 89c4 503b 4cab a53a
00000270: 93f9 db3b d36e 993b d39b 7d3a af67 403b
00000280: e796 6a3a adf0 f13b 1994 ac3b 8a63 8a3a
00000290: d55b c03b 2779 133b ac0f ce3a 20c6 3f3a
000002a0: f32e d93a a7f4 ea39 12ff 3b3a 174a a63a
000002b0: 0402 ab3a 4de6 993a 084b 703b 7458 123a
000002c0: fc14 333a 44c7 6d3b 0a9f 163a 5bf6 7a3b
000002d0: 4032 a53b 734e fd3a 4611 393b a30f 1f3b
000002e0: 4849 773b aee1 793a cdbe ee3a e835 db3a
000002f0: 19da ad3a 50f2 cb3a d5d7 943a dcbd 1e3c
00000300: ed77 5e39 fa57 1d3a 5b13 0639 a0d9 a139
00000310: 3f71 6339 df4a 4839 ec88 fc39 13ca a239
00000320: 8b91 8b39 88c0 5939 c84d 843a 66a0 fc39
00000330: 1a8d 683a db9a 9439 c239 0739 c602 543a
00000340: eba5 c738 634f 5f39 82a1 7138 b1af a539
00000350: 10a8 cd38 dba5 973a d954 5c39 a920 9739
00000360: e970 5139 66d3 913a 1c59 f439 7819 9d39
00000370: b8e7 923a ce48 2f3a 36c6 5739 62a8 0e3a
00000380: de37 1639 280a 953a 0cf9 4b3a 902b 6c39
00000390: f2b2 743a 1a0c 033a 77a8 7739 bafe 1339
000003a0: c4d6 ba39 24f8 be38 72f7 cd38 476f 8139
000003b0: 3b58 6939 6f9c 4b39 80fa 343a 9762 e238
000003c0: d0df 1039 1baf 053a 5faf dd38 d33b 2a3a
000003d0: c1dd 633a e8ca e139 26e1 cf39 0c3a d839
000003e0: 13e1 023a 1070 7239 3a8a 9a39 d794 a939
000003f0: 9e76 4f39 ffd0 7539 d75e 7939 efb9 be3a
0.0006618799 0.0019401244 0.0003598241 0.0008970912 0.0006664585 0.00068812055 0.001228421 0.00085691124
0.00080229226 0.00075341604 0.0029744313 0.0010343551 0.0026624778 0.00081030664 0.00040440942 0.0026333889
0.00026063397 0.00069201435 0.00012524346 0.00083611667 0.00036835234 0.0031287344 0.00064896647 0.0010337499
0.00058400177 0.0027762174 0.0016171635 0.00068193744 0.003447084 0.0024716388 0.0005686758 0.0012615714
0.00042464538 0.0035982549 0.002649504 0.00045961555 0.0023471906 0.0012722637 0.0007547265 0.00027030348
0.0007489222 0.00023676116 0.00030962256 0.00052272406 0.0006614228 0.00058448367 0.0018254481 0.00027526246
0.00030501178 0.0016544353 0.00030270283 0.002083144 0.002619671 0.0010304387 0.0011331047 0.0011542302
0.0015161653 0.0005219326 0.00091130676 0.000871986 0.0005703281 0.00075789064 0.0006145182 0.004888894
0.00048570146 0.0014007264 0.00025381442 0.00075705326 0.00041200267 0.0004161944 0.0009405776 0.0006954762
0.00045386588 0.00044722506 0.0018451856 0.0009302891 0.0020618474 0.0005472159 0.00027050305 0.0016766957
0.0001863426 0.00051724195 0.00011410312 0.00067805144 0.00022954094 0.0025420887 0.00040795706 0.0006412524
0.00043340866 0.0023363705 0.0009381611 0.0005456082 0.0022601155 0.0014256983 0.00036242642 0.0010523065
0.00032766827 0.0024436633 0.0016804091 0.00041996923 0.0020424738 0.00089154136 0.00046081044 0.00025869667
0.0006712752 0.0001601202 0.00024888152 0.0005217783 0.00038520916 0.00038068416 0.0014238851 0.00020879331
0.00030464734 0.001234759 0.00024044685 0.001286525 0.0017224213 0.0007067243 0.0009235603 0.00076794036
0.0012137139 0.0003991274 0.00054034434 0.00065475714 0.00039979728 0.00048191106 0.00037625938 0.0031144759
0.00148175 0.004589351 0.0007662951 0.0019550312 0.0014201169 0.001360254 0.0024375834 0.0021981036
0.0016805676 0.0016527497 0.0057913987 0.002311986 0.0061557144 0.0018252897 0.00084830436 0.0053262273
0.00052775943 0.0015488866 0.00026939702 0.0017593361 0.00076531497 0.0072738784 0.0013762664 0.0022135281
0.0011758212 0.00664998 0.0031855425 0.0012639551 0.006713101 0.0046824007 0.00096744037 0.0029358675
0.0008948878 0.007383427 0.005266678 0.0010558229 0.005870322 0.0022502632 0.0015721223 0.00073155947
0.0016569778 0.00044814238 0.00071714923 0.0012686875 0.0013046865 0.0011741609 0.0036665816 0.00055826386
0.0006831435 0.0036282102 0.00057457446 0.0038293812 0.0050413907 0.0019325748 0.0028239056 0.0024270795
0.0037732888 0.0009532225 0.0018214822 0.0016724439 0.0013263851 0.0015559886 0.0011355827 0.009688821
0.00021216246 0.0006002184 0.00012786446 0.00030870456 0.00021690594 0.00019101378 0.000481672 0.00031049605
0.00026620584 0.00020766456 0.0010093981 0.00048184692 0.00088711234 0.00028344136 0.0001289612 0.00080875715
9.519964e-05 0.00021296511 5.7609293e-05 0.00031602153 9.806466e-05 0.0011569815 0.00021012443 0.00028825298
0.00019973856 0.0011125624 0.00046605698 0.0002996435 0.0011207974 0.0006686569 0.00020577837 0.0005441961
0.00014325927 0.0011370825 0.00077809463 0.00022522942 0.0009334526 0.00049990567 0.00023618514 0.00014113905
0.00035636697 9.106126e-05 9.821252e-05 0.00024687705 0.0002225348 0.00019417865 0.00069037825 0.000107948836
0.00013816287 0.000509964 0.000105707666 0.00064939 0.00086924067 0.0004306652 0.00039649865 0.0004124198
0.0004992645 0.00023120665 0.00029476156 0.00032345086 0.00019785247 0.00023442878 0.00023781821 0.0014551262

exp_avg f4 [64]
00000000: 4aac 2f3e c772 30be 671e 90be 614c abbd
00000010: 4a6c cb3c b753 3fbe 606c b5bd 3a08 2f3e
00000020: 3d17 0bbe 92af c3be d0a9 713e b1db a3bd
00000030: c626 d63c 8422 6d3e 66e7 f5bb 0650 643d
00000040: 04ea babe a850 8fbe 18af 16be 707e cbbd
00000050: aead 533d eec2 e7be 64b7 933e 4e63 dd3c
00000060: 1f11 89bd f3ff 923e e30c bdbe 7d60 bfbe
00000070: 30bf 283e 1615 abbe aa98 06be f9db 9c3e
00000080: 069d 643d 037f f4bc b2f7 bb3d f13b 4e3e
00000090: b79f 4dbe db09 3b3e 3857 a1bd 66b6 ab3e
000000a0: a006 b4bd 7dd6 243e 3cc4 a53d da51 bcbe
000000b0: dad2 98be 6870 acbe 22d0 edbd 026b 863c
000000c0: 9edb 8b3d 75bf 81bd ce83 4c3e bfcc 2abf
000000d0: ca6c 4a3d ce81 7ebe 5292 dfbe d4b6 d33e
000000e0: e638 23bd c3d9 e53d 1202 af3e 7a62 aa3e
000000f0: 7c7d 433e 02c7 053f a286 98be b656 8cbe
0.17155567 -0.17231284 -0.28148195 -0.083641775 0.02483191 -0.18684278 -0.088585615 0.17092982
-0.13583083 -0.38219887 0.23599935 -0.08000887 0.026141535 0.23157698 -0.0075043915 0.05574038
-0.36506665 -0.27991223 -0.1471523 -0.099362254 0.051679306 -0.45265907 0.28850853 0.027024891
-0.06692719 0.287109 -0.36923894 -0.37378302 0.16479182 -0.33414525 -0.13144174 0.30636576
0.05581381 -0.02984572 0.091781035 0.20140053 -0.20080458 0.18265478 -0.07877964 0.33537596
-0.08790326 0.16097446 0.08094069 -0.36781198 -0.29848367 -0.3367951 -0.11611964 0.016408447
0.06828998 -0.06335346 0.19972154 -0.6671867 0.049420156 -0.24854204 -0.4366632 0.41350424
-0.039849184 0.112231754 0.34181267 0.33278257 0.19090837 0.52256787 -0.29790217 -0.27409905

exp_avg_sq f4 [64]
00000000: 2c01 3e3c c47e 043c 1983 cb3c a2ca 7e3b
00000010: ef88 043d b215 2c3c 9661 e53c b293 863c
00000020: d023 903c 0b6f 943d 3bda cc3c c692 333c
00000030: 9f25 693c 975b 813c 05de 6f3c b702 5e3c
00000040: 6bc7 1e3d 5a20 b93c ac7c d83c 3956 ed3b
00000050: cf2f 993c 1550 b53d 9be6 7c3d 1a84 3f3c
00000060: 06fe e73c 18dc a93c 2787 cd3c 8b97 1a3d
00000070: 8490 453c fb4f 843d 9ffc a33c c811 cf3c
00000080: ccb4 1c3b c79f 7e3b 2245 913c 7ace 143c
00000090: 3134 a03c 05fe 883c c9cd c83b 7c5d 443d
000000a0: 3a1b 2f3b 6389 e63c 9830 8f3b 2e39 da3c
000000b0: 1fca e73c 2629 333d 31b0 213c a188 c53c
000000c0: 5657 d93b 5c10 ab3c 7e1a 2f3d d2af c53d
000000d0: 8a1a 833a 1cce a43c df70 863d 758a 543d
000000e0: 7a51 3b3b 8c86 363c 525a d13c 8003 653d
000000f0: 9dff 0c3d bede 743d b5d0 d53c c05e b93c
0.011596959 0.008086864 0.024842786 0.0038878103 0.032357153 0.010503219 0.028000634 0.016427848
0.017595202 0.07247742 0.025006404 0.0109602865 0.014230161 0.015790744 0.014640336 0.013550452
0.0387644 0.022598434 0.026426636 0.0072429446 0.018699555 0.08853165 0.06174336 0.01168921
0.02831937 0.020734832 0.02508886 0.03774218 0.012058381 0.064605676 0.02001792 0.025277033
0.0023911474 0.003885256 0.01773316 0.009082431 0.019556137 0.016722688 0.006128047 0.047940716
0.002671911 0.028141683 0.0043698065 0.026638594 0.028294621 0.043740414 0.009868667 0.024113001
0.0066327257 0.020881824 0.042749874 0.09652676 0.0010002416 0.020117812 0.06564497 0.051889855
0.00285825 0.011140477 0.025555763 0.05591154 0.03442346 0.059782736 0.026100496 0.022628188

exp_avg f4 [4, 64]
00000000: 836a d9be e0b5 cbbd 383b 2bbe 9365 b1be
00000010: aedf a4be 6811 87bd 4613 b0ba f217 e0bc
00000020: 09d9 1abe 87f9 42bd 7090 5a3c 26dc d93d
00000030: 2d14 083e 4d04 fdbd f2a3 7ebe c8d5 7fbc
00000040: 4b88 b53e e8f1 a8bd ac79 3b3e 6134 94be
00000050: 9caa e0bd cb74 d53d a5ac 263d 1175 9cbe
00000060: 1551 abbe 4f4d 9bbe f3f7 373e dadb 843e
00000070: 36e0 4e3e 4405 383e c6b6 b73d b8bf 963d
00000080: ed53 ee3e 78f8 d73b 7763 fc3d 98cc 8ebb
00000090: 6cf2 4b3e 3759 8ebe 446a ef3c c1a4 b0be
000000a0: 1c08 123e a2e6 693d c17c 943d 2002 a73d
000000b0: 6d35 b13e dda5 b8bd b110 ad3c f279 8e3e
000000c0: 953e 64bd 0447 aabe 0013 00b9 9698 443e
000000d0: 7d86 46be 4c14 12bd 336b 4fbe 7a73 8c3d
000000e0: 208c 8ebe 05fa e43e f7bc 423e a737 60bd
000000f0: e34d 7cbe f01f 9bbe 864b 9f3d d4e4 9a3e
00000100: ae38 37bf 64f1 8cbe 10e1 95be c268 bebe
00000110: 4395 cabe 67b4 11be 6d3f 46bc 2a67 44be
00000120: a9d0 2ebe f02f 953d 8b42 2e3e 3008 e83d
00000130: 2241 b43d 7a12 f83d 78f7 fdbd c8f6 df3c
00000140: e2c9 bb3e 83e1 a9bd a6eb b03c ae7d b3be
00000150: 2c25 55be fc6a e2bd 416c 2f3e 4411 8ebe
00000160: d65f e4be c0e3 b9be d7d6 a43c f073 6b3e
00000170: 0d09 84bd b3d7 98bd 2d96 df3c ba15 c03c
00000180: f220 2f3f 700e 863e 2cd6 5c3e 7bb5 9c3c
00000190: 8a42 b63e 7adb 3fbe dc6f 88bd ec10 07be
000001a0: 2826 71bc 123a 75be f7eb 603e 7459 b9be
000001b0: 8f70 063f c861 16be fae8 aabd 98de 9d3e
000001c0: 189a 47bb eee6 f4be 06bb 573d 57c5 12bd
000001d0: 4ca5 57be 9401 f7be 49c3 b0be c24a 0a3f
000001e0: 15ad d3be 106c 163f 256e 153f cc3b 133e
000001f0: c690 a5be 326a 30be 4709 4bbe 4629 723e
00000200: 6acf f93d bcde 943d 7322 c13d 147a 023e
00000210: 89a0 ec3d 14e9 b33c b18c 57bd 44d7 033c
00000220: 260a f5bc 9def 09bd 2ea7 3f3c 8baf 8e3d
00000230: dc28 debc 25f1 ae3c 9ce2 1f3e 283e 9f3d
00000240: e4c5 30be 50b0 843c a05c 48bd 28d0 d83d
00000250: f011 ad3d d283 27bd 6849 03bb 0ff4 423d
00000260: ae5a 0b3e 67f6 0f3e f6ff 8fbd 480e c6bd
00000270: 5633 48bd 40f5 f339 3936 873c d4c7 69bd
00000280: 48ed 1abe d0fe 96bd 0c90 22bd 0abd 0c3c
00000290: 3e1b 54bd 0408 1a3e 9233 10bc 7892 f23d
000002a0: f860 57bd 2825 3fbd 04bd 603d d2b7 19bd
000002b0: 8634 a7bd 1164 903c 5ce5 d7bc 742d 38bd
000002c0: fe71 d73d f436 4d3d 7227 e03b fb24 f73c
000002d0: 1e80 ce3d ec08 26bd ae0a e03d e091 6fbc
000002e0: 3dbf ec3d ee13 f3bd 3de6 7dbd 28b3 eebb
000002f0: ee81 2d3e 26cc c93d e02e 98bd 2613 b2bd
00000300: ff59 823f 2ca7 9a3e 0c36 bb3e a648 173f
00000310: 6626 1a3f f2bf 3e3e 974e 873d ae2c 583e
00000320: 7d25 b43e 3025 0a3c 03e6 47be f624 94be
00000330: a36f 46be ac29 9bbc 0fbd 5d3e 1841 b7bd
00000340: 9b77 0cbf a2d3 183e fd7f 1fbe 02bf 083f
00000350: 84f1 6e3e 4270 413d 440a 57be e813 093f
00000360: ca01 253f ec9a 063f d192 04be 3e12 c9be
00000370: b79d b5bd c826 d8bd f2b4 08be 77c2 23bd
00000380: 968f 7fbf 3d5d 47be f231 99be cc60 bfbc
00000390: 2edc 00bf f742 a13e 7c37 3d3d 9588 b73e
000003a0: 013b 9abd af89 6a3e ccac b1be e8cf a23e
000003b0: b324 4abf 37a8 603e 249e b53d 6ba9 0abf
000003c0: c62b 3ebd 8ac3 423f de3f 73bd e4cb 3ebe
000003d0: de75 9b3e 9c02 0f3f 3a76 e03e e91a 18bf
000003e0: b184 133f 9486 6abf 023f 36bf 9a70 a7bd
000003f0: bdf6 cc3e fee1 c03e f47a 473e ae74 e7be
-0.42464074 -0.09946799 -0.16721809 -0.34647807 -0.32201904 -0.06595117 -0.0013433478 -0.027355168
-0.15121855 -0.04760125 0.013340101 0.10637693 0.13288946 -0.12354336 -0.24867228 -0.015614934
0.35455546 -0.08249265 0.18308133 -0.28946212 -0.10970041 0.10422667 0.04069199 -0.30558065
-0.33460298 -0.3033242 0.17965679 0.25948983 0.20202717 0.17970759 0.08970408 0.07360786
0.46548405 0.006590899 0.12323659 -0.0043578856 0.19916695 -0.2780244 0.029225476 -0.34500697
0.14260906 0.057104714 0.072503574 0.08154702 0.34611073 -0.09016011 0.021126123 0.27827412
-0.055723745 -0.33257306 -0.0001221411 0.19198832 -0.1938724 -0.035663888 -0.20255737 0.06857963
-0.27841282 0.44722 0.19017397 -0.054740574 -0.24639086 -0.30297804 0.07778077 0.30252707
-0.7157086 -0.27527916 -0.29273272 -0.371893 -0.39567003 -0.14228974 -0.012100083 -0.19179979
-0.17071785 0.07284534 0.17017572 0.11329687 0.088014856 0.12112899 -0.124007165 0.027339354
0.36677462 -0.08294966 0.02159674 -0.35056823 -0.20814961 -0.11055562 0.1713114 -0.27747548
-0.44604367 -0.36306572 0.020121975 0.22993445 -0.06447039 -0.07463016 0.02729329 0.02344786
0.68409646 0.2618289 0.21566075 0.019129505 0.3559764 -0.18736067 -0.066619605 -0.13190049
-0.01471857 -0.23947933 0.21965013 -0.3620106 0.525155 -0.14685738 -0.08345218 0.30833888
-0.0030456837 -0.47832435 0.052668594 -0.03583273 -0.2105915 -0.48243392 -0.3452399 0.5402032
-0.4134299 0.5875864 0.5837119 0.1437828 -0.32337016 -0.1722801 -0.19827758 0.23648557
0.12197764 0.07269046 0.09430399 0.12741882 0.11554057 0.021961726 -0.05262441 0.008046929
-0.029912066 -0.03367578 0.011697574 0.06967076 -0.027119093 0.021355221 0.15613788 0.07775527
-0.1726299 0.016197354 -0.04891646 0.10586578 0.08450687 -0.040897198 -0.0020032767 0.047596034
0.1360881 0.14058839 -0.070312425 -0.09670693 -0.048877083 0.00046531297 0.016505348 -0.057075337
-0.15129578 -0.073728204 -0.039688155 0.008589992 -0.051783793 0.1504212 -0.008801358 0.11844343
-0.05258271 -0.046666294 0.05486776 -0.03752882 -0.08164315 0.01762584 -0.026354484 -0.044965222
0.10519789 0.050101236 0.0068406397 0.030169 0.1008303 -0.040535852 0.10939537 -0.014622182
0.11559913 -0.11869036 -0.06198715 -0.0072845407 0.16944095 0.09853391 -0.07430816 -0.086950585
1.0183715 0.30205667 0.36564672 0.5909523 0.6021484 0.18627909 0.06606787 0.21110794
0.3518485 0.008431718 -0.19521336 -0.2893445 -0.19378524 -0.01894077 0.21654151 -0.089479625
-0.54870003 0.14924482 -0.15576167 0.53416455 0.23334318 0.047226198 -0.2100001 0.53546
0.64455855 0.5258014 -0.12946631 -0.3927173 -0.08867972 -0.10554272 -0.13350275 -0.039980378
-0.9982847 -0.19469161 -0.29920918 -0.023361586 -0.5033597 0.31496403 0.046195492 0.3584639
-0.07530785 0.22904085 -0.34702146 0.31799245 -0.7896225 0.21939169 0.088680536 -0.5416476
-0.046428464 0.7607962 -0.05938708 -0.18632466 0.30363363 0.55863357 0.438402 -0.5941606
0.57624346 -0.916116 -0.7118989 -0.08175774 0.40031996 0.37672418 0.19480497 -0.45206207

exp_avg_sq f4 [4, 64]
00000000: 6eb4 bb3d 6e50 023d 9618 363d da49 953d
00000010: 4644 993d 217c 613c 814c 153c deef f73b
00000020: b633 ad3c 0b9b b33c 1d0d 0e3c a3c3 103d
00000030: e481 c23c be32 cb3c 079d 4a3d ccf3 7d3c
00000040: dba6 203d fbf6 393c 8e32 343d a945 123d
00000050: 5e99 0d3d f32b 663c 2f14 b73b 24eb 2e3d
00000060: 5f80 a63d 1eed 5a3d 6217 0e3d 69da f93c
00000070: 324c 053d 6939 483d e926 1d3c 1fec 213c
00000080: 5b3e f63d 8220 013d 67c6 a73c 4762 833c
00000090: 108f b53c d3cc 273d 01d5 503b def5 373d
000000a0: 3138 bb3c 59f7 573c c7f3 853c 6f07 da3c
000000b0: 7463 813d 00c7 3d3c 290c 253c c000 fb3c
000000c0: f8a4 c83c 90e8 823d 428d 803b 7ceb 123d
000000d0: 3268 8a3c f33f 1c3d e680 4d3d c855 373d
000000e0: a23a 373d 73ac fb3d e1fc 783d 1d8c f13b
000000f0: ac86 3e3d d101 d33c b4f4 813c 2b04 433d
00000100: 82c1 2c3e 89f7 483d 7037 913d 2b53 ea3d
00000110: 7eb2 163e 9c99 eb3c 8aba 7e3c 8fbf 893c
00000120: b592 293d 41a4 433d 851c 7c3c 16b1 3b3d
00000130: 92e6 283d d092 7e3d 6f50 8f3d d4ba ab3c
00000140: 195b 7f3d b6e5 923c 559c d53d 8f97 6a3d
00000150: 0e9d 5f3d 8059 f63c 4c6f 4f3c 6233 ab3d
00000160: 0d55 253e 7188 d63d 5b23 9b3d f420 3c3d
00000170: ce01 903d 15b3 e03d ca9a 773c 6317 233c
00000180: a7f5 5e3e 0b21 573d afd4 2e3d b49b d93c
00000190: ed5d 303d 3b71 853d dda6 c13b 4c3a a63d
000001a0: b2f7 463d 1b26 d83c df3e e63c a2cc 673d
000001b0: 7c9f fc3d 2c44 713c 474f 813c 5299 593d
000001c0: ef87 023d 39a4 053e 1693 c43b 8ec9 953d
000001d0: 20a0 c03c b485 913d 9888 933d e544 b13d
000001e0: cac9 a33d d2fc 733e 1b23 e13d a0c8 553c
000001f0: a7c3 933d 596d 403d aa17 0a3d 932d d33d
00000200: 02f4 a93d ab74 fc3c 1e12 333d 1775 763d
00000210: 9903 933d 085f 813c c7b2 203c ca1b 063c
00000220: 2bbb a03c 76c6 d03c 6b67 f73b a1dc 163d
00000230: 096f b83c 6a7f de3c 1121 403d 683e 6b3c
00000240: 348d 203d 7dbe 573c cfb5 4e3d 299a eb3c
00000250: 7d44 183d 9c5d 883c ee6c ab3b 55d0 293d
00000260: 0a69 a43d 9275 573d 6025 283d 2f35 f43c
00000270: 82bc eb3c 1fa1 6c3d e528 373c 9b14 0c3c
00000280: 29a1 cd3d 62e0 123d 1040 943c 4d90 a43c
00000290: f834 a23c c1c5 163d 5923 543b 2840 1e3d
000002a0: 41f3 b83c 5df5 613c 36b7 5c3c 2696 e83c
000002b0: 5bb2 5a3d f9a7 3a3c 0c51 333c ed47 cf3c
000002c0: 3e59 f43c 1026 5e3d bc52 4f3b e923 2f3d
000002d0: 6a9d 723c 4b5d ff3c 6f63 333d 7620 353d
000002e0: b3ae 273d 52f6 d43d fdc7 5f3d eb73 1c3c
000002f0: 2406 433d 5657 bf3c db30 953c 29a4 403d
00000300: 0a2e 323e 6ac9 2a3d 756c 7e3d 5858 cd3d
00000310: 5316 003e a0d4 c63c 9daa 5d3c c88b 7b3c
00000320: 4de1 303d 2659 1c3d b136 6d3c 34d8 623d
00000330: dba3 1a3d b989 3b3d 3f59 803d f3a7 ad3c
00000340: c2f3 883d 5891 a43c 4b55 aa3d 2a81 693d
00000350: c64f 333d 8a7c e33c 40de 343c 9a4f b73d
00000360: 3bc7 0e3e 8ae5 bc3d 9dc5 8c3d 2c9a 443d
00000370: 44b8 5f3d 90f2 b93d a3f2 813c 5514 233c
00000380: 860d 5b3e 183b 3e3d cab5 113d 1479 e93c
00000390: cc3e 2d3d d92f 6e3d 2beb b63b 6eea 9e3d
000003a0: 531f 173d 672c cc3c ef83 003d 0214 443d
000003b0: c648 ed3d f181 903c 22fe 8e3c f075 723d
000003c0: 7c45 053d 5071 013e 8322 ad3b 8895 8b3d
000003d0: 26c3 b63c 51c1 843d 82ba 7c3d d29a 9a3d
000003e0: aefc 883d 5047 5c3e e04c c53d bdd3 4f3c
000003f0: b903 7e3d 58d8 463d b9fa f23c 731f b73d
0.091652736 0.031814985 0.04445704 0.07289477 0.07483725 0.013762505 0.009112478 0.007566436
0.021142822 0.021924516 0.008670119 0.035342824 0.023743577 0.02480447 0.04946616 0.01550002
0.039221626 0.011350389 0.043993525 0.035710964 0.03457009 0.014048564 0.005587123 0.042704716
0.081299536 0.05344879 0.03469027 0.030499654 0.03254337 0.048882876 0.009591796 0.009882956
0.12023612 0.031525142 0.020480348 0.016038073 0.022162944 0.04096682 0.0031865241 0.04491221
0.022853943 0.013181531 0.016351594 0.026614873 0.06317797 0.01158309 0.0100737 0.030640006
0.024492726 0.06392014 0.0039230892 0.035869107 0.016895387 0.038146924 0.050171755 0.04475954
0.04473365 0.122887515 0.06078804 0.007371439 0.04651515 0.025757702 0.015863754 0.047611397
0.16870692 0.049064193 0.07090652 0.11441644 0.14716527 0.02875977 0.015547404 0.016814975
0.041399676 0.047764067 0.015387659 0.04582318 0.041235514 0.06215173 0.06997763 0.02096311
0.062342737 0.0179318 0.104302086 0.057273444 0.05459314 0.030071974 0.012660813 0.0835941
0.16145726 0.10475243 0.07575103 0.045929864 0.07031594 0.10971657 0.015112588 0.009954306
0.21773396 0.052521747 0.0426833 0.026563503 0.043058325 0.065157376 0.005909784 0.08116588
0.048576064 0.026385358 0.028106151 0.056591637 0.12335107 0.014725726 0.015784873 0.053124733
0.031867918 0.13050927 0.0059989793 0.07313834 0.023513854 0.0710558 0.072037876 0.08655719
0.079974726 0.23826912 0.10993024 0.013048321 0.07215052 0.046979282 0.033713974 0.10311427
0.08298494 0.03081735 0.04371845 0.06017026 0.071784206 0.015792385 0.009808249 0.008185336
0.019620499 0.025485259 0.00755017 0.036831502 0.022513883 0.027160365 0.046906535 0.0143581405
0.03919716 0.013167975 0.050466355 0.028760033 0.03717469 0.016646199 0.0052314913 0.041458447
0.08027847 0.05260236 0.04105127 0.029810516 0.028776411 0.057770845 0.011179184 0.008549835
0.100405045 0.03585852 0.018096954 0.02008834 0.019800648 0.036809687 0.0032369702 0.038635403
0.02257693 0.013791409 0.013471415 0.028391909 0.05339275 0.011392587 0.010944616 0.025302852
0.02982771 0.054235518 0.0031635007 0.042758856 0.014808038 0.031172415 0.043796 0.04422041
0.04093809 0.10398544 0.054634083 0.009549121 0.047613278 0.023357075 0.018211773 0.047031555
0.17400375 0.04169599 0.06211515 0.10026616 0.12508516 0.02427131 0.013529447 0.015353151
0.043183614 0.038170956 0.0144783715 0.05538197 0.03775392 0.04578564 0.06267022 0.021198248
0.06687118 0.020088837 0.083170496 0.057007946 0.04377725 0.027769346 0.011039317 0.0895073
0.13943188 0.092234686 0.06873629 0.047998592 0.05461909 0.09079468 0.015862769 0.009953578
0.21391878 0.046443075 0.03557376 0.028500117 0.042296216 0.0581511 0.0055822334 0.07759558
0.036895107 0.024923516 0.03137582 0.047870643 0.11586146 0.017640086 0.017455164 0.059194505
0.03253697 0.12640882 0.005283655 0.0681563 0.02230985 0.06482185 0.061701305 0.07549061
0.0668882 0.21511579 0.09633803 0.01268476 0.06201527 0.048546165 0.02966057 0.08941545

exp_avg f4 [4]
00000000: 5384 9dbf dca7 cfbf c8b6 cc3e 38ff 1c40
-1.2306007 -1.6223102 0.399832 2.4530773

exp_avg_sq f4 [4]
00000000: 1a3d 6b3f 6156 da3f 80d6 593f 92f7 ca3f
0.9189011 1.7057611 0.85092926 1.5856802
