flare-benchmarking/1j7lkmyf/checkpoints/epoch=70.ckpt (torch_old, 101068 bytes, 36 tensors)

exp_avg f4 [6]
00000000: 3c34 093c daf3 433c 8e1b 093a d0cb a83b
00000010: f2f7 303c e1ff a93c
0.00837427 0.011959994 0.0005230241 0.0051512495 0.010801302 0.020751895

exp_avg_sq f4 [6]
00000000: 007e 3639 1698 6339 890f 0239 f280 1d39
00000010: d12f f439 3958 7f39
0.00017403811 0.00021705063 0.00012403553 0.00015020723 0.00046574933 0.0002435156

exp_avg f4 [64, 26]
00000000: 1300 803a 0000 0000 9682 0bbb 2f64 1239
00000010: 0000 0000 b8c5 b538 0000 0000 09db a6ba
00000020: 5e9b bdba a7ef b738 ac31 483b c46b d5b9
00000030: db18 4a3b a2c8 1ab8 5acd 3cbb 7399 2b3a
00000040: 02bd a3b9 0622 8aba ad79 103b 9774 10ba
00000050: 40e2 38bb b4fa 69b9 bb7c 4eb8 9f60 3fbb
00000060: 7228 a186 ece3 3507 c606 c43a 0000 0000
00000070: ac7d 76bb 235f c4b8 0000 0000 9baf d4b9
00000080: 0000 0000 05d0 eeba 6036 abba f00f 9839
00000090: 88b2 413b f824 11ba 6021 933b 704e baba
000000a0: bfec 83bb ecee 363a 4bf7 a9ba 5d3a acba
000000b0: 959f 413b eff9 c739 0fbb 9abb 7460 d437
000000c0: ca84 61b8 58ff 37bb bc76 b305 1e36 9606
000000d0: 23a6 15bb 0000 0000 c16b e33b 7e52 08b9
000000e0: 0000 0000 543f 34ba 0000 0000 e623 343b
000000f0: e93d 343b acc2 45b9 2b87 d8bb fe47 8b3a
00000100: 137a c7bb e92b 06bb fb78 f23b c16b 6fba
00000110: 0ebf f938 f030 623a 25f5 10bb ce5e f0b8
00000120: dd22 a73b e71d 6eb8 0452 9439 8f78 f63b
00000130: f504 8287 6f46 2387 9e43 0c3a 0000 0000
00000140: 5cbc 0cbb ade7 feb6 0000 0000 1488 f138
00000150: 0000 0000 cadc 13ba 0ef7 81ba b7a0 7eb8
00000160: f6d1 f53a c518 33ba 371f 173b 902b 86ba
00000170: 9e7b 07bb 44d6 00ba 902e 073a d4da d139
00000180: a5bf 5b3a b61b 95b8 c360 b9ba eb70 0aba
00000190: fad9 a038 eba2 bdba eeae 9307 71a3 b107
000001a0: b05b f6ba 0000 0000 8a7b 633b c954 2cb9
000001b0: 0000 0000 cd3f e939 0000 0000 fdb1 2e3b
000001c0: 66f6 da3a d7ae d4b9 05dc 93bb 0d8b 5b39
000001d0: fc0d a7bb b67b e839 ca3f 9d3b 0c6c f4ba
000001e0: fdf5 023b 8572 443b 19fb 97bb c0e5 9037
000001f0: dcf4 ba3b a3c8 8fba bcd0 1239 367c 883b
00000200: f25e 1d08 fdad 7786 343e a4b9 0000 0000
00000210: bb3e c139 af41 80b8 0000 0000 730c 3839
00000220: 0000 0000 a27d 0d3a 4ebc 133a b607 9138
00000230: 4d4b ccba 2b9e abb9 ac46 8aba bf5e e639
00000240: 458e 473a d7fe 12ba 9687 c0b8 28ef 223a
00000250: 45ac 5bba 8c96 b73a fad5 ca3a 5d8f 0b39
00000260: d439 b7b8 4a60 a43a 4ab6 7986 ad2d 3c87
00000270: dbc5 cc3a 0000 0000 d1d0 9dbb 8976 a5b8
00000280: 0000 0000 9cb0 3fb7 0000 0000 93a2 e6ba
00000290: 5920 edba ae0c 5ab8 a4e7 713b 7915 4aba
000002a0: 4ba1 bc3b f8f9 80ba 42ef a0bb b341 a239
000002b0: 630a 24ba 2c1a 86ba 4801 373b ccc6 2f3a
000002c0: 559e a2bb e2d8 cfb9 ca88 62b9 c7fd 68bb
000002d0: c25f 8b87 bb49 c185 87d1 1bba 0000 0000
000002e0: 5c5e 333b 9ed5 31b7 0000 0000 eba1 c0b9
000002f0: 0000 0000 476c e839 682f 883a 215c 79b8
00000300: d3b7 c8ba cf79 8d3a c11a 08bb 9f25 8e39
00000310: 5b48 1c3b 2de4 303a b798 ebb9 02db 7eba
00000320: 0706 abb9 6f36 cbb9 729b 873a 561d 193a
00000330: 7dd0 f037 a5fa d93a 0e00 9687 7469 4e87
00000340: 9ebf 04ba 0000 0000 efbf 023b 4b91 2338
00000350: 0000 0000 d5e8 09b9 0000 0000 59cb c839
00000360: 8fbe 263a 33b4 48b9 cb0e 32ba 6bed 573a
00000370: 30fb b3ba ca0b 04b8 f240 e13a 1e42 9339
00000380: 459b 5338 5bb3 eab9 b741 9fb9 3a81 07ba
00000390: 73d8 443a cda7 1639 2e1a fe36 5dff 693a
000003a0: 547d c587 9609 4687 4b9f 99b9 0000 0000
000003b0: 0f43 0a3a ea39 0e36 0000 0000 b1d4 8d39
000003c0: 0000 0000 f9e2 c739 2dc9 6439 f213 8ab9
000003d0: f863 07ba 4174 4639 f64b 8c39 7534 5839
000003e0: 2a91 cc39 c5b6 5f38 dac4 6439 5c21 5aba
000003f0: 3b08 94b9 387f ac3a 61ac d739 d05e 93b9
0.0009765647 0.0 -0.0021287552 0.00013960966 0.0 8.6675806e-05 0.0 -0.0012730072
-0.0014465859 8.770759e-05 0.0030547185 -0.00040706818 0.003083757 -3.6903315e-05 -0.0028808923 0.0006545998
-0.00031230605 -0.0010538704 0.002204518 -0.00055105373 -0.0028211027 -0.00022314006 -4.923039e-05 -0.0029201878
-6.06209e-35 1.3683907e-34 0.0014955632 0.0 -0.0037611527 -9.363729e-05 0.0 -0.00040566627
0.0 -0.0018219954 -0.001306247 0.00029003574 0.0029555876 -0.000553682 0.0044900626 -0.001421405
-0.004026025 0.0006978351 -0.0012967376 -0.0013139952 0.0029544581 0.00038142453 -0.004722006 2.5317284e-05
-5.376785e-05 -0.002807578 1.6876695e-35 5.6503247e-35 -0.002283462 0.0 0.0069403355 -0.00013000701
0.0 -0.00068758917 0.0 0.0027487217 0.0027502722 -0.00018859905 -0.00660791 0.0010626314
-0.0060875504 -0.002047295 0.007399676 -0.0009133183 0.00011908832 0.0008628508 -0.0022118774 -0.000114617505
0.0051005916 -5.677147e-05 0.00028289866 0.007521696 -1.956314e-34 -1.2283456e-34 0.0005350652 0.0
-0.0021474576 -7.5967605e-06 0.0 0.00011517122 0.0 -0.0005640505 -0.0009915547 -6.0707996e-05
0.001875459 -0.0006831999 0.0023059377 -0.0010236371 -0.0020673047 -0.00049147406 0.00051567797 0.00040026626
0.0008382744 -7.110035e-05 -0.0014143217 -0.00052811083 7.669996e-05 -0.0014468109 2.2220916e-34 2.6728062e-34
-0.0018795636 0.0 0.0034711086 -0.00016434783 0.0 0.00044488758 0.0 0.0026656382
0.0016705513 -0.00040566057 -0.0045123124 0.00020937268 -0.0050981026 0.0004434266 0.004798864 -0.0018647923
0.0019983046 0.0029975486 -0.0046380875 1.7273123e-05 0.005705459 -0.0010969829 0.00014001405 0.0041651977
4.7357077e-34 -4.6583363e-35 -0.00031326863 0.0 0.00036858566 -6.11575e-05 0.0 0.00017552245
0.0 0.0005397444 0.00056356646 6.915575e-05 -0.0015586406 -0.00032733506 -0.0010549626 0.0004393961
0.00076124474 -0.0005607432 -9.180528e-05 0.00062154466 -0.0008379857 0.0014006658 0.0015475147 0.0001330948
-8.736891e-05 0.0012540903 -4.696562e-35 -1.4156971e-34 0.001562293 0.0 -0.0048161526 -7.889892e-05
0.0 -1.1425607e-05 0.0 -0.0017596058 -0.0018091305 -5.198706e-05 0.003691175 -0.0007708888
0.0057565323 -0.0009840121 -0.0049113343 0.00030947998 -0.0006257651 -0.0010231188 0.0027924348 0.0006705343
-0.0049627223 -0.00039643707 -0.00021603997 -0.0035551654 -2.0970677e-34 -1.8176717e-35 -0.0005944003 0.0
0.0027369475 -1.0599759e-05 0.0 -0.00036741732 0.0 0.0004433116 0.0010390105 -5.9452028e-05
-0.0015313573 0.0010793748 -0.00207679 0.0002711238 0.0023846838 0.0006747868 -0.00044936474 -0.0009721966
-0.00032620152 -0.00038759733 0.0010346009 0.0005840858 2.8707314e-05 0.0016630484 -2.2569524e-34 -1.5528707e-34
-0.00050639536 0.0 0.0019950827 3.8997543e-05 0.0 -0.00013152075 0.0 0.00038298478
0.0006360793 -0.00019140616 -0.00067923655 0.0008236977 -0.0013731476 -3.1482232e-05 0.0017185493 0.00028087286
5.0450926e-05 -0.00044765588 -0.00030375805 -0.00051690976 0.000750906 0.00014367625 7.5728376e-06 0.0008926297
-2.9714927e-34 -1.4898681e-34 -0.00029301117 0.0 0.0005274275 2.119336e-06 0.0 0.00027052083
0.0 0.00038125346 0.00021818718 -0.00026336272 -0.0005164738 0.0001892606 0.00026759476 0.00020618907
0.00039018068 5.333756e-05 0.00021817107 -0.0008321011 -0.00028234892 0.0013160473 0.00041136428 -0.00028108666

exp_avg_sq f4 [64, 26]
00000000: fda1 aa35 0000 0000 43a5 3537 acdc cb33
00000010: 0000 0000 cf64 0334 0000 0000 dc1b d535
00000020: 88a7 3f36 7c2f 7234 297e 1437 471e f334
00000030: b2fd 6637 16d8 1835 8463 2937 11c6 0f35
00000040: 76bb 2736 5e7d b535 9362 8e36 1f4e b235
00000050: 5344 2837 4990 0c35 e34d 5e35 3f6d 2937
00000060: cb18 eb33 135a b233 21be 5736 0000 0000
00000070: 49a4 f737 cb48 3134 0000 0000 4deb 6b34
00000080: 0000 0000 47aa 8436 def4 e136 f0a5 cb34
00000090: 54af bd37 7627 8e35 10cf 0d38 75e2 8235
000000a0: 43f5 e437 3ff6 8035 7bef 8d36 4412 4636
000000b0: 2d29 0f37 3673 1236 c0b4 d737 c0a5 9235
000000c0: e601 cc35 a869 dd37 3685 1734 a15d 4334
000000d0: de98 db36 0000 0000 566c 7138 f9d0 c234
000000e0: 0000 0000 ce0a 3135 0000 0000 d452 e536
000000f0: 1f83 9b37 4b00 9035 70f4 4038 6db9 4536
00000100: 7ad8 a838 45de fd35 e17a 5c38 d293 1736
00000110: e292 4c37 b1fc e136 d594 9f37 5922 ae36
00000120: a2ea 5338 f9c8 3136 db9e 7a36 41a6 5d38
00000130: e5f0 fe34 394a a734 2013 df35 0000 0000
00000140: 84ce 8437 b600 d333 0000 0000 15f9 3e34
00000150: 0000 0000 6e2c e535 31be a736 62ad 3f34
00000160: 606d 5037 c6ad 1335 f6db b937 6d39 e334
00000170: bd22 6d37 8765 1535 77db 3e36 7625 be35
00000180: 7b2a b536 9d52 c535 bc2b 6b37 176b 4a35
00000190: 6a6d 9635 5f05 6637 26a9 5034 2573 0b34
000001a0: d4a9 1937 0000 0000 2b59 ad38 66f8 da34
000001b0: 0000 0000 f57b f134 0000 0000 7e14 4a37
000001c0: d5e0 9137 9c53 8935 febc 8838 2c43 1936
000001d0: 7101 cd38 4b40 4236 be27 a138 e9f5 0f36
000001e0: 40e2 7237 87c7 dc36 efbe c437 a5cf e036
000001f0: 51e5 9838 c2d1 5536 bcbd 9936 669e 9e38
00000200: 4b55 2735 75ee 8934 c52f 8935 0000 0000
00000210: 898e 1437 55d8 8833 0000 0000 ce62 c033
00000220: 0000 0000 c641 8835 f398 5436 70dc 2b34
00000230: cce6 de36 b451 e034 9ad7 3437 43ba f034
00000240: 0216 0237 2089 f734 e243 1136 dc03 bd35
00000250: 74c5 4d36 55bd a035 ddb5 0637 e561 2e35
00000260: b6c0 3135 6a56 0a37 cf20 9633 bedc f333
00000270: 15a1 2336 0000 0000 51d6 bb37 87e9 ec33
00000280: 0000 0000 3c8b 2134 0000 0000 d134 4636
00000290: 719b b936 b6b4 8c34 2a4a 9237 c973 2c35
000002a0: a661 c937 ad38 4d35 6547 b037 cd49 6835
000002b0: 45f6 4036 32b4 1536 d1ad af36 6527 0236
000002c0: de9a a737 6217 5835 192a 8835 e929 a137
000002d0: 1e95 cb33 ad12 fb33 46aa de35 0000 0000
000002e0: 6d23 8537 e410 a933 0000 0000 fadb 0e34
000002f0: 0000 0000 9dc9 0236 e754 8936 92dc 3434
00000300: 8230 4b37 a61c 1635 6e30 b237 d40e 9534
00000310: 21a8 7037 71e4 ef34 fea7 4b36 9565 ae35
00000320: b963 9736 f699 ae35 e3fc 6437 61d1 5c35
00000330: caf7 1035 ecc4 6a37 93fc 0d34 1d6f 8233
00000340: 4295 d835 0000 0000 ee72 7a37 dc91 d533
00000350: 0000 0000 db0d 0334 0000 0000 2731 d935
00000360: 9f74 9036 906a 5d34 e72b 4337 0bf3 1735
00000370: 593f bd37 f54d fd34 5ec7 5d37 a88d 3a35
00000380: a749 6b36 3553 fc35 4375 af36 587a c235
00000390: 6275 5f37 a6c2 6335 5ba7 9735 f52f 6237
000003a0: 1f13 3a34 ee00 1234 771c e435 0000 0000
000003b0: 162b 8337 3b69 2234 0000 0000 9ae8 4534
000003c0: 0000 0000 a59f f535 e070 9436 7fdf 9634
000003d0: 2952 4237 2bc8 4e35 76c9 b637 c9cc 7935
000003e0: 66e6 5f37 d4b6 3e35 c744 8836 8eef 0f36
000003f0: 9ed9 b636 5e87 f435 f393 5737 a188 9535
1.2713132e-06 0.0 1.0826919e-05 9.493064e-08 0.0 1.2237e-07 0.0 1.5877845e-06
2.8558734e-06 2.2555281e-07 8.850861e-06 4.5284307e-07 1.3768136e-05 5.693886e-07 1.0096355e-05 5.3559876e-07
2.4994056e-06 1.3522038e-06 4.2434053e-06 1.328477e-06 1.0029488e-05 5.2364027e-07 8.2814785e-07 1.0098621e-05
1.094755e-07 8.305155e-08 3.2148166e-06 0.0 2.9521196e-05 1.6510891e-07 0.0 2.1971682e-07
0.0 3.9537294e-06 6.734029e-06 3.7932432e-07 2.26122e-05 1.0591309e-06 3.380986e-05 9.751662e-07
2.7293927e-05 9.60841e-07 4.2300067e-06 2.9514931e-06 8.533051e-06 2.1822757e-06 2.5714166e-05 1.0926087e-06
1.5199737e-06 2.6394453e-05 1.4111433e-07 1.8194852e-07 6.5445047e-06 0.0 5.7559773e-05 3.6287364e-07
0.0 6.595336e-07 0.0 6.8343743e-06 1.8538498e-05 1.0728921e-06 4.6004017e-05 2.946322e-06
8.051186e-05 1.8914658e-06 5.2566527e-05 2.2586796e-06 1.2193546e-05 6.7349397e-06 1.9023582e-05 5.1896027e-06
5.052484e-05 2.6492037e-06 3.734537e-06 5.2845342e-05 4.748646e-07 3.1160178e-07 1.6620361e-06 0.0
1.5831793e-05 9.8255825e-08 0.0 1.7785744e-07 0.0 1.707476e-06 4.999129e-06 1.7851337e-07
1.2423232e-05 5.501464e-07 2.2156146e-05 4.2323828e-07 1.4134389e-05 5.565457e-07 2.8439952e-06 1.4167006e-06
5.3991657e-06 1.4701687e-06 1.4017274e-05 7.54067e-07 1.1207715e-06 1.3710319e-05 1.9433045e-07 1.2987273e-07
9.159052e-06 0.0 8.265892e-05 4.0786398e-07 0.0 4.497994e-07 0.0 1.2044909e-05
1.7390043e-05 1.0231629e-06 6.520188e-05 2.2837876e-06 9.77543e-05 2.8945676e-06 7.684481e-05 2.14518e-06
1.4477002e-05 6.579739e-06 2.3453931e-05 6.699893e-06 7.290638e-05 3.1861568e-06 4.5818433e-06 7.563531e-05
6.2336466e-07 2.569174e-07 1.0221198e-06 0.0 8.854674e-06 6.372344e-08 0.0 8.958669e-08
0.0 1.0151932e-06 3.167949e-06 1.6005811e-07 6.642984e-06 4.1782698e-07 1.0779035e-05 4.4839007e-07
7.753728e-06 4.6107107e-07 2.1646197e-06 1.408272e-06 3.0662313e-06 1.1976032e-06 8.029366e-06 6.4962506e-07
6.621807e-07 8.245561e-06 6.990887e-08 1.1355722e-07 2.4382655e-06 0.0 2.2391936e-05 1.1032085e-07
0.0 1.5044947e-07 0.0 2.9535042e-06 5.5315254e-06 2.6208517e-07 1.7439092e-05 6.424348e-07
2.4006538e-05 7.6450925e-07 2.101408e-05 8.653413e-07 2.8753577e-06 2.2307618e-06 5.2356413e-06 1.939444e-06
1.9980067e-05 8.0500297e-07 1.0145042e-06 1.9212212e-05 9.4800484e-08 1.16914954e-07 1.6589845e-06 0.0
1.5871332e-05 7.872748e-08 0.0 1.3304808e-07 0.0 1.9488864e-06 4.092802e-06 1.684405e-07
1.2111037e-05 5.5921043e-07 2.1241805e-05 2.7764202e-07 1.434426e-05 4.4683432e-07 3.0347142e-06 1.2993575e-06
4.51176e-06 1.3008819e-06 1.3648739e-05 8.2261073e-07 5.400476e-07 1.3993336e-05 1.3223534e-07 6.073808e-08
1.6136694e-06 0.0 1.492792e-05 9.945117e-08 0.0 1.2205366e-07 0.0 1.6182065e-06
4.305111e-06 2.0620996e-07 1.16331275e-05 5.660556e-07 2.2560054e-05 4.7181643e-07 1.3219045e-05 6.9496537e-07
3.50606e-06 1.879968e-06 5.2290575e-06 1.4489733e-06 1.3319166e-05 8.484734e-07 1.1299084e-06 1.3481816e-05
1.7329556e-07 1.3597648e-07 1.6995608e-06 0.0 1.563648e-05 1.5125708e-07 0.0 1.8431675e-07
0.0 1.8300385e-06 4.423884e-06 2.8102292e-07 1.15824305e-05 7.7032263e-07 2.1789903e-05 9.305773e-07
1.334548e-05 7.1046566e-07 4.0611226e-06 2.14481e-06 5.4493566e-06 1.8218814e-06 1.2849446e-05 1.1141129e-06

exp_avg f4 [64]
00000000: 9f82 0bbb b27d 76bb b66b e33b 59bc 0cbb
00000010: 887b 633b 9e3e c139 d5d0 9dbb 575e 333b
00000020: f7bf 023b 0043 0a3a ac54 81ba 6440 adba
00000030: 3ad7 acbb c188 5fbb 22c2 45ba 1e81 783b
00000040: 537e 4d3b c17b 1f3c 4afa 543b d6c1 b7bb
00000050: 1091 383a f176 7139 a868 26bb 20b6 cfba
00000060: 458a 9f3a 3a96 943b d260 0fbb 2c60 ddbb
00000070: 2760 37bb ecab afbb 035b 813a 4fa2 de3b
00000080: d691 62ba a1b9 59bb a01d 0cbc 0c4e 3d3b
00000090: 7186 06bb 810a 1e3b 9fb9 2ebb 90d4 84ba
000000a0: 0088 b039 8acc 8f3b 2244 7ab9 33a9 21bc
000000b0: 2c2c 2cbb a5cf 303b bfe1 71bb 50c0 753b
000000c0: af30 bd3b 5d87 0e3c 4986 a7bb b6d1 e7bb
000000d0: 27e1 5c3b 7b40 1cbb 3053 663a f531 3a3a
000000e0: f145 f83b 5171 503c b951 13bc 3fa2 34bc
000000f0: e969 b7bb bdb4 cfbb 070e 6c3b aefb c33b
-0.0021287573 -0.0037611541 0.0069403304 -0.0021474569 0.0034711082 0.00036858482 -0.0048161545 0.0027369463
0.0019950846 0.0005274266 -0.0009867153 -0.0013218042 -0.0052746804 -0.0034108611 -0.00075438817 0.0037918757
0.0031355813 0.009734095 0.0032497817 -0.005607824 0.0007040659 0.0002302786 -0.002539197 -0.0015847124
0.0012171945 0.00453451 -0.0021877778 -0.0067558493 -0.0027980895 -0.005361071 0.0009869043 0.006794251
-0.0008642947 -0.0033222216 -0.008551985 0.002888563 -0.002052691 0.0024115148 -0.0026660932 -0.0010134149
0.00033670664 0.0043883966 -0.0002386724 -0.009867 -0.0026271446 0.0026979235 -0.0036908237 0.003749866
0.005773626 0.008699265 -0.0051124436 -0.00707456 0.0033703537 -0.0023842144 0.00087861996 0.0007102781
0.007576697 0.012722329 -0.008991652 -0.011025011 -0.0055973423 -0.0063386844 0.0036019103 0.0059809303

exp_avg_sq f4 [64]
00000000: 3fa5 3537 4aa4 f737 586c 7138 83ce 8437
00000010: 2759 ad38 848e 1437 4dd6 bb37 6c23 8537
00000020: f172 7a37 152b 8337 81c1 c837 ec64 5538
00000030: 12f1 d938 8304 3638 0673 6c37 ba3e 1a38
00000040: 8c03 ee37 0694 6438 663b 1d37 326c a038
00000050: dad4 5237 6025 8637 b40b 2137 dcf6 0238
00000060: ef40 6738 6215 b638 3086 8a38 8f70 a737
00000070: c690 9b37 43c8 0638 bb48 af37 e94e 7338
00000080: a60b 4138 7051 e636 9084 5e38 6ca1 8937
00000090: b90f 6b38 281a 6537 b4df 8e37 9cbf 9838
000000a0: 6c35 d536 4343 b138 bd6a 1337 e1a8 9938
000000b0: bd26 3537 4311 fc36 31ff 2138 10de cd37
000000c0: 63b4 0838 6178 cd38 92f5 1b38 19c2 4638
000000d0: 96d5 5637 57ec 1c38 d13c aa37 b664 ca38
000000e0: fd5d d738 2c72 bc38 2dc3 2c39 ffd0 5a38
000000f0: 721f a238 b7f1 2438 0a36 1c37 ed75 8a38
1.0826915e-05 2.9521198e-05 5.755978e-05 1.583179e-05 8.265889e-05 8.854669e-06 2.2391929e-05 1.587133e-05
1.4927923e-05 1.5636479e-05 2.3931965e-05 5.0877148e-05 0.00010392269 4.3396383e-05 1.4093477e-05 3.677488e-05
2.8373463e-05 5.4497294e-05 9.371759e-06 7.6495475e-05 1.2566534e-05 1.5991449e-05 9.599073e-06 3.122432e-05
5.5135166e-05 8.682419e-05 6.605347e-05 1.9960366e-05 1.8544855e-05 3.2134598e-05 2.0895493e-05 5.8009206e-05
4.6025634e-05 6.8640147e-06 5.3052383e-05 1.640684e-05 5.604301e-05 1.3655554e-05 1.7031889e-05 7.283615e-05
6.354114e-06 8.452546e-05 8.786735e-06 7.327065e-05 1.079746e-05 7.5121948e-06 3.8623057e-05 2.454131e-05
3.2592925e-05 9.797584e-05 3.7183585e-05 4.7387646e-05 1.2805123e-05 3.7413407e-05 2.0293899e-05 9.6508695e-05
0.000102695056 8.985805e-05 0.00016475907 5.2169893e-05 7.730619e-05 3.932576e-05 9.3109065e-06 6.602318e-05

exp_avg f4 [32, 64]
00000000: 7885 4bbb 9d01 deba 7be3 bd3a 1186 51bb
00000010: b8da 56ba 2c32 383b 60d2 7e3a 0684 7db5
00000020: d390 773a b4a4 91b9 64f9 d5ba d1e5 dd39
00000030: 716b 0f3a 9e29 81ba 5333 30bb 31c9 3fba
00000040: 0243 da3a 3dcb 98ba f28a 42bb 2657 8f3a
00000050: 1536 8dba 3761 38bb 6ad7 973a d88c c039
00000060: ba8b 6d3a 2792 373b 7cb4 0c3b 11bc a0ba
00000070: 70ea 9338 957c f839 9452 dd3a fa4d f1b9
00000080: 4e67 c83a 5aff 113a 3d68 c33a 3263 813b
00000090: 3dce 923b 198b 693b 3ba9 393b ea04 b8ba
000000a0: c8ea 87ba 86b9 f93a 66fd 943b 722f 74ba
000000b0: 3c53 c3ba 5e10 633b 4ff8 d83a e444 c2ba
000000c0: 1753 c1ba 0a30 6aba 51fd 193a 7d91 bdb9
000000d0: 96ce 683b c5f5 75ba e304 953a ec64 2dba
000000e0: 358d da3a f4f8 733a 8add 8eb9 f55c 373a
000000f0: 5635 4ebb e318 9bb8 9ac3 003b 5160 903a
00000100: b2ca 5939 7cf3 f937 2f49 d2b9 5fae 1d3a
00000110: cd2c 3fb8 7684 09b7 b989 e3b7 ec15 4d39
00000120: ff71 1bba 77b9 3738 4875 07b9 d5fb 103a
00000130: 8872 0b39 93e7 75b8 8dda 3639 1f1a a739
00000140: 421a 9cb9 c165 cfb9 7832 3339 d1bf 68b8
00000150: 9c8a 9838 8e6f e537 b2e9 a839 ff4d 17b9
00000160: efb9 9739 0f17 8538 514e 8eb8 2e96 30b9
00000170: 8d94 5939 2dde a2b8 384b 0a39 1c44 bbb8
00000180: c8e9 2e3a 8cf5 99b9 d190 e7b9 ab1c 47b9
00000190: 0941 4bba 1aa5 9d38 b488 1d3a a370 5639
000001a0: 8226 7d39 9e3d cb38 4b05 ecb9 26f1 8e39
000001b0: fe5e 373a 7978 c1b8 22de 9f37 4cd8 22b9
000001c0: 84e4 1639 fd04 2a38 c7ad 8137 1181 40b6
000001d0: f8ed c438 e7aa 93b9 725d 4b39 88b6 af37
000001e0: 1590 85b9 cc41 2a39 3252 7bb9 a8a4 273a
000001f0: 3765 9739 8ec8 f2b8 8997 9db9 4183 86b9
00000200: 167f 2739 838c 0939 23e2 25b8 1aae 0639
00000210: d38d fd38 99c4 9fb7 9f09 1039 2ccd b437
00000220: d1dc 9239 84ee e1b6 dd43 3738 c49b adb9
00000230: 60cc 8d39 4473 3539 73ae 34b8 ac57 a4b7
00000240: 0762 f1b8 cd14 e038 dc17 8439 4fd1 5439
00000250: 78b2 3439 e702 6037 d825 e3b8 0466 b938
00000260: 1ac6 2739 2eca bfb9 cb39 6ab9 3cce b439
00000270: 6264 5739 3b41 0939 1948 8fb9 c50f 36b9
00000280: 9760 c9b9 b4c2 2fb8 75db f337 a49d a7b7
00000290: 235e f2b8 b337 bdb5 0e32 b6b9 ec72 ea38
000002a0: 4931 8039 2bf4 9cb9 838e 67b9 b78e 8f39
000002b0: f36f 40b9 bed5 9bb7 a451 0c39 1852 9838
000002c0: e96c 5d39 c4f7 0838 74cb 4bb9 2763 38b9
000002d0: f93f 60b9 1302 c9b8 466e 0839 19e7 2fb8
000002e0: 36ba 2cb9 d578 29b9 87c1 8939 da9e adb9
000002f0: ed2c b639 c5f7 3638 a91a eab8 f235 7bb9
00000300: a40b b1bb b05c 4ebb fe68 023b cf55 6bbb
00000310: a806 c4ba e849 ab3b 1b6a e53a e941 b939
00000320: d13e fd3a ff22 c738 6620 28bb 86a8 3e3a
00000330: 3820 b93a ad46 17bb 3d3f 8fbb 6bcc e3b9
00000340: 1952 4d3a 2c9a 62bb 3dcd 9abb 33c1 003b
00000350: 884d 07bb 57a0 afbb 4077 2f3b 352c 683a
00000360: f3fa 053b 2b24 823b 9294 fc3a a591 ceba
00000370: ad2c b63a fbc4 cc3a 35ee 463b 1663 58ba
00000380: b82d 5e3b 4f9e 2a3a 240d ff3a 072e d43b
00000390: 94c0 bf3b 0cfc db3b 1c74 a03b b143 2fbb
000003a0: ec34 20ba 7add 263b 4cb1 fc3b 01e2 143a
000003b0: 80ba 34bb 83f0 d73b 3375 623b 0b9d 59bb
000003c0: 3f78 16bb db12 b5ba 305c 9b39 837a 7cba
000003d0: 181a e73b 2864 3abb 1748 2b3b 5a2d 82ba
000003e0: 4e35 9c3a 8cd9 dc3a 616e ffb9 7b3b cb3a
000003f0: 4a4a 6bbb 0ec7 99ba 3715 373b f01c 513a
-0.0031054895 -0.0016937737 0.001448735 -0.003197078 -0.0008196044 0.0028106077 0.00097206794 -9.4441964e-07
0.0009443883 -0.0002777927 -0.0016324935 0.0004232363 0.0005471027 -0.0009854322 -0.002688606 -0.00073160516
0.001665205 -0.0011657249 -0.0029684869 0.0010936006 -0.0010773564 -0.0028134116 0.0011584584 0.0003672603
0.00090616534 0.0028010698 0.0021469882 -0.0012263079 7.0531736e-05 0.00047395067 0.0016885572 -0.000460252
0.0015289576 0.00055693614 0.0014908385 0.0039485926 0.004480152 0.0035635887 0.002832963 -0.001403955
-0.0010369653 0.0019052483 0.004546809 -0.0009314931 -0.0014902125 0.0034647207 0.0016553494 -0.0014821556
-0.0014749494 -0.000893355 0.0005874234 -0.00036157286 0.0035523525 -0.0009382631 0.0011369254 -0.0006614465
0.0016674163 0.0009306811 -0.0002724941 0.00069947477 -0.0031464896 -7.3956115e-05 0.0019647838 0.0011015033
0.00020770243 2.9796494e-05 -0.00040108847 0.0006015058 -4.5579673e-05 -8.196677e-06 -2.712464e-05 0.0001955849
-0.00059297675 4.3803328e-05 -0.00012918294 0.000553069 0.00013298739 -5.8628222e-05 0.00017438289 0.00031872184
-0.00029774202 -0.0003955793 0.00017089571 -5.5491753e-05 7.273743e-05 2.7350874e-05 0.00032217574 -0.00014429538
0.00028939496 6.346229e-05 -6.785675e-05 -0.00016840614 0.00020750072 -7.7661454e-05 0.00013188727 -8.929541e-05
0.00066724094 -0.0002936538 -0.0004416765 -0.00018988799 -0.00077535264 7.517096e-05 0.0006009445 0.00020450591
0.00024142305 9.6912714e-05 -0.0004501737 0.0002726402 0.0006995051 -9.225397e-05 1.9057716e-05 -0.00015530101
0.00014390243 4.0535804e-05 1.545892e-05 -2.8685356e-06 9.3903334e-05 -0.00028165357 0.000193944 2.0946623e-05
-0.00025475086 0.00016236975 -0.00023967845 0.000639508 0.00028876375 -0.000115768155 -0.00030058276 -0.00025656263
0.00015973704 0.00013117683 -3.954967e-05 0.00012844094 0.00012090397 -1.9045825e-05 0.00013736494 2.1553213e-05
0.0002801181 -6.7332894e-06 4.3693803e-05 -0.00033113186 0.00027045887 0.00017304445 -4.3077813e-05 -1.9591149e-05
-0.000115100345 0.00010685027 0.0002519478 0.00020295869 0.00017232622 1.3352116e-05 -0.000108312524 8.840489e-05
0.0001600016 -0.00036580994 -0.00022337509 0.00034485932 0.00020541393 0.00013089638 -0.00027328802 -0.00017362747
-0.00038409673 -4.1904583e-05 2.907005e-05 -1.9981358e-05 -0.000115569936 -1.4097808e-06 -0.0003475104 0.000111793954
0.00024450783 -0.00029936558 -0.00022082966 0.00027381416 -0.00018352251 -1.8576971e-05 0.00013381854 7.263216e-05
0.00021116775 3.2655676e-05 -0.00019435381 -0.00017584545 -0.00021386136 -9.584813e-05 0.00013011051 -4.1938478e-05
-0.00016472567 -0.0001616211 0.00026274865 -0.00033115485 0.00034747217 4.3622935e-05 -0.00011162955 -0.00023957322
-0.005402999 -0.0031488352 0.0019899006 -0.00359093 -0.0014955597 0.005227316 0.0017502935 0.00035335057
0.0019321089 9.495578e-05 -0.0025654077 0.0007273037 0.0014123982 -0.0023082898 -0.0043715523 -0.00043449117
0.0007832363 -0.0034576757 -0.0047241733 0.0019646406 -0.0020645577 -0.00535969 0.002677396 0.0008856685
0.0020443767 0.0039715967 0.0019270352 -0.0015759958 0.0013898812 0.001562267 0.0030354385 -0.0008254511
0.0033901762 0.0006508575 0.0019458872 0.0064752134 0.0058518145 0.006713396 0.004896654 -0.0026743228
-0.00061114016 0.00254616 0.007711565 0.0005679429 -0.0027576983 0.0065899505 0.003455472 -0.0033205177
-0.0022959856 -0.0013814823 0.0002963259 -0.0009631293 0.007052671 -0.0028441045 0.0026135498 -0.0009931729
0.0011917742 0.0016849502 -0.0004871963 0.0015505397 -0.0035902434 -0.0011732297 0.002793623 0.00079770293

exp_avg_sq f4 [32, 64]
00000000: 0c23 da36 5371 f036 861b 3c36 c380 6336
00000010: cdf3 b635 6201 1637 10c8 5736 df81 0236
00000020: 80fa 5c36 8a70 d935 83fc 0f36 7bc9 f934
00000030: 92c3 0f36 e5df d735 7759 7636 78ad 8c35
00000040: a9fa 3836 b1bf 4d36 c94a ba36 9e43 0636
00000050: 719d 9e36 e851 cd36 8aca 0436 e90e 9535
00000060: 8f6d 3936 5aba 3c36 2f5d d235 444a d635
00000070: 0c4c d436 f712 b735 82a8 0237 fb9b e035
00000080: eb1a bf35 6059 9635 a0ec 2536 5bfa 3737
00000090: 4abd c336 dc07 4d37 dac2 cb36 ec75 1b36
000000a0: 49a5 fb35 dd4a 0536 2307 6a37 d9d2 fb35
000000b0: 1e6b b636 c18b 3037 4efd df36 4c88 6e36
000000c0: c408 a935 bdce 3135 dbad 7735 64e4 1c36
000000d0: 62eb 1037 fb39 8b36 3969 4136 4eb3 4d35
000000e0: e4be 9e35 b28b 0935 dc7d 5a35 959b c135
000000f0: bbfb 5636 d484 ac35 7743 3c36 4784 8c35
00000100: ef8e d236 404c ea36 6cd4 2d36 f845 2e36
00000110: b16b 9f35 52cc 0537 d6a9 5736 0c8b e435
00000120: ddbc 8436 f1e6 c735 fe91 0736 2a22 fb34
00000130: ebb7 0536 06e3 d135 0cb9 6136 5d17 7035
00000140: 610b 0f36 826c 4536 c949 9d36 ceb2 f835
00000150: 93f6 9a36 2b67 bd36 2e9d 0636 05b8 9735
00000160: 4ad6 2436 d194 1536 bccd ae35 065b af35
00000170: d96d c036 526e a235 1fab f536 c762 d735
00000180: 2793 9935 f509 6d35 5f7f 1e36 a7a9 2237
00000190: d93e a536 6100 4637 fc8e a936 f804 0f36
000001a0: 63b8 ca35 37c3 aa35 4e68 5137 5813 eb35
000001b0: 09e7 b536 0832 2937 f328 d936 7c35 7036
000001c0: f1f2 b035 a292 1f35 871a 3635 07e4 1336
000001d0: cc79 ed36 2b87 8336 c3aa 2f36 9aa1 3035
000001e0: 88fc 5335 c832 e234 7af8 4535 a86d ab35
000001f0: c7cf 1d36 6874 a735 c5e0 2b36 036b 4c35
00000200: eb97 1736 4129 2b36 ad84 8535 901b 7c35
00000210: 3daa 0235 127a 4336 82e4 9d35 613c 1e35
00000220: b617 bb35 3dcd 1135 6a8f 6235 a658 2234
00000230: d962 5635 c030 0f35 dc92 a635 c24e a834
00000240: 4352 5035 b379 8735 b877 da35 7690 3335
00000250: d798 dd35 643d 0736 8b2e 4235 caf1 d434
00000260: 1f4c 7535 f4ad 7135 30c6 e434 ae65 ff34
00000270: d3dc 0836 ee43 f634 48ae 2f36 740b 1735
00000280: 0243 e334 928d 9834 6b0a 6335 2cd3 6a36
00000290: 3d0b ed35 7ccc 8d36 6054 0136 881d 4a35
000002a0: 5c9e 2a35 bfc4 1935 d0cd 9436 0e90 3635
000002b0: 0abd 0036 344b 7a36 6028 2136 8a7a ab35
000002c0: 9b9f 0535 17d8 6534 0a55 7c34 8dc2 4c35
000002d0: e6b7 3136 9103 b935 68c6 8335 de8f 8e34
000002e0: 7e98 b734 68a7 3434 5fa1 7f34 c5c7 f534
000002f0: 180c 5d35 6ab7 dd34 db2a 7a35 1118 8f34
00000300: 8a8a a237 dd11 b737 588a 0c37 61b9 0f37
00000310: f3ae 5136 c1e9 d137 0128 2737 7b5d a136
00000320: ec16 3937 b315 8e36 cef6 c236 e848 ae35
00000330: a06f bc36 222c 9e36 d869 2a37 f8b9 4436
00000340: 2a61 d136 fcf4 1937 10fb 8437 e981 b036
00000350: 34e0 7337 53f3 9237 6d41 d036 6bed 5d36
00000360: c2a9 fd36 e03b f236 69db 8336 1ec8 8336
00000370: db11 9b37 e87c 5836 b9fc b337 6779 9736
00000380: bf53 7136 f311 3836 6676 0137 fd2b 0638
00000390: 3344 8c37 cc2e 1838 1205 8b37 efc9 d436
000003a0: 253e 8b36 c6f5 9236 c777 2838 7142 af36
000003b0: ac3c 8b37 e741 0638 00f9 a937 f85a 3237
000003c0: 5d03 6f36 3388 e535 bd5b f335 5dfc e136
000003d0: 9325 c037 0aa3 4137 2943 0637 dc83 0336
000003e0: c15c 1336 6d70 9135 4a6b 0936 3dbf 8736
000003f0: dbdf fc36 0c67 5136 dcef 0937 b614 0c36
6.5009863e-06 7.16575e-06 2.8030204e-06 3.3900585e-06 1.3631012e-06 8.941019e-06 3.2153948e-06 1.9447104e-06
3.2928365e-06 1.6200513e-06 2.1455642e-06 4.652646e-07 2.1422497e-06 1.608391e-06 3.6708932e-06 1.0481299e-06
2.756404e-06 3.065896e-06 5.551938e-06 2.0006914e-06 4.7270955e-06 6.1190112e-06 1.9787426e-06 1.1105705e-06
2.763092e-06 2.8122654e-06 1.5673339e-06 1.5965857e-06 6.3269454e-06 1.3640082e-06 7.787838e-06 1.6734697e-06
1.4238443e-06 1.1201882e-06 2.472465e-06 1.096594e-05 5.833489e-06 1.2220782e-05 6.072555e-06 2.316544e-06
1.8749062e-06 1.986212e-06 1.39491485e-05 1.8762322e-06 5.4364928e-06 1.05229565e-05 6.6754064e-06 3.55441e-06
1.2594032e-06 6.623848e-07 9.2267663e-07 2.3378752e-06 8.637873e-06 4.1492726e-06 2.8820489e-06 7.6629374e-07
1.1827474e-06 5.123976e-07 8.139448e-07 1.4424901e-06 3.2035011e-06 1.2853657e-06 2.8053453e-06 1.0469311e-06
6.2751274e-06 6.98262e-06 2.5902655e-06 2.5968748e-06 1.1877765e-06 7.97499e-06 3.2136354e-06 1.7027792e-06
3.955893e-06 1.4893868e-06 2.0201546e-06 4.677725e-07 1.9925599e-06 1.5637786e-06 3.3635324e-06 8.9440965e-07
2.1315284e-06 2.9418447e-06 4.6875543e-06 1.8529479e-06 4.6182627e-06 5.6446493e-06 2.0059047e-06 1.1303933e-06
2.4562637e-06 2.2289353e-06 1.3023887e-06 1.3065007e-06 5.734834e-06 1.2102048e-06 7.32149e-06 1.6047496e-06
1.1442215e-06 8.830387e-07 2.3617974e-06 9.695453e-06 4.9246996e-06 1.1801808e-05 5.053238e-06 2.1311553e-06
1.5103836e-06 1.2722802e-06 1.2481656e-05 1.7514494e-06 5.4211164e-06 1.0084834e-05 6.471871e-06 3.579392e-06
1.3183727e-06 5.9445495e-07 6.7838886e-07 2.2037436e-06 7.0773294e-06 3.91984e-06 2.6176428e-06 6.580027e-07
7.8971107e-07 4.213273e-07 7.37498e-07 1.2772407e-06 2.3515765e-06 1.2476348e-06 2.5611819e-06 7.6151645e-07
2.2589181e-06 2.5504999e-06 9.947886e-07 9.3917424e-07 4.8676503e-07 2.9128319e-06 1.1763916e-06 5.894745e-07
1.3939487e-06 5.431537e-07 8.4400256e-07 1.5119676e-07 7.9865055e-07 5.334259e-07 1.2410705e-06 3.1349742e-07
7.7605745e-07 1.0093703e-06 1.6277108e-06 6.6892915e-07 1.6510265e-06 2.0152302e-06 7.233836e-07 3.9664002e-07
9.1380383e-07 9.003263e-07 4.261251e-07 4.7571433e-07 2.0394116e-06 4.5870496e-07 2.6178477e-06 5.626855e-07
4.23308e-07 2.8415212e-07 8.457925e-07 3.4991635e-06 1.7661147e-06 4.2259326e-06 1.927161e-06 7.529384e-07
6.356038e-07 5.7283245e-07 4.4347034e-06 6.800991e-07 1.9183522e-06 3.7296677e-06 2.401437e-06 1.2776156e-06
4.977862e-07 2.14059e-07 2.3500266e-07 7.627903e-07 2.6482098e-06 1.3784612e-06 9.818004e-07 2.6554238e-07
3.419736e-07 1.6824708e-07 2.3807432e-07 4.5780158e-07 8.2346514e-07 4.129791e-07 9.319462e-07 2.6653336e-07
1.9376417e-05 2.1823618e-05 8.376861e-06 8.566626e-06 3.124526e-06 2.5023592e-05 9.96329e-06 4.8090565e-06
1.1032196e-05 4.234456e-06 5.8103824e-06 1.2985229e-06 5.6158315e-06 4.7139047e-06 1.0157433e-05 2.9314524e-06
6.2399968e-06 9.1765505e-06 1.5852536e-05 5.2603323e-06 1.453613e-05 1.7517863e-05 6.2064996e-06 3.3069762e-06
7.55975e-06 7.2191324e-06 3.929647e-06 3.927401e-06 1.8485754e-05 3.2259213e-06 2.1456146e-05 4.514284e-06
3.5960545e-06 2.7428584e-06 7.716566e-06 3.1989057e-05 1.6721058e-05 3.6283207e-05 1.6572452e-05 6.3416005e-06
4.1497574e-06 4.379751e-06 4.0165873e-05 5.223141e-06 1.6598344e-05 3.2009466e-05 2.026232e-05 1.0630807e-05
3.5615733e-06 1.7101469e-06 1.813161e-06 6.7349015e-06 2.290568e-05 1.1541657e-05 8.002659e-06 1.9597273e-06
2.1958697e-06 1.0836062e-06 2.0477041e-06 4.0455766e-06 7.5362454e-06 3.1203408e-06 8.221683e-06 2.087368e-06

exp_avg f4 [32]
00000000: 02e2 c73b c5c4 d8b9 e250 dd37 415a 393c
00000010: 3894 0738 5436 bf3b 9587 763b a087 51bb
00000020: ec86 09bc 22cb 223b f102 7b3a 7c9b 213c
00000030: 7ce8 debb 6438 373b a3dc db3b dce7 49bb
00000040: 244b 4f3c 6e39 183b eb08 45bb db64 db3a
00000050: 3713 e7bb 8099 2b3b f947 013b c404 d33b
00000060: 66a0 3a3b f5cd d83b 1c98 3fbc d11d a4bb
00000070: da54 58bb 96a0 d0b6 4f7c 073a e506 d1b9
0.0060999403 -0.00041345335 2.6382917e-05 0.011313022 3.2324548e-05 0.005835334 0.0037617434 -0.0031971708
-0.008393984 0.0024840315 0.00095753284 0.0098637305 -0.0068026166 0.0027957195 0.0067096516 -0.0030808365
0.012652192 0.002322759 -0.003006513 0.0016738431 -0.007051851 0.0026184022 0.0019726737 0.006439777
0.0028476953 0.006616349 -0.011693981 -0.005008437 -0.003300956 -6.2175777e-06 0.0005168365 -0.00039868723

exp_avg_sq f4 [32]
00000000: 4a7f 2338 e241 1238 e8cf 5537 0a59 e438
00000010: 1493 4c38 615c 8938 8253 b537 509c a238
00000020: e525 b338 4967 6e38 11b8 6e38 d1fe 8e38
00000030: 5751 1838 9389 4a38 349b ed37 6102 9238
00000040: 69a6 cd38 19d5 8d38 df2d 6838 5315 8b38
00000050: 1f41 3439 a677 0838 4552 1138 31ea cb38
00000060: 4f33 2738 693c de38 aaad f538 a0b6 3d38
00000070: 517d 2738 7826 3a38 3ce7 e137 2405 eb38
3.8980776e-05 3.487047e-05 1.2744196e-05 0.00010888472 4.8774367e-05 6.549876e-05 2.1615768e-05 7.7538774e-05
8.5424435e-05 5.6839814e-05 5.6915047e-05 6.818551e-05 3.6315378e-05 4.828868e-05 2.8324874e-05 6.9622656e-05
9.806158e-05 6.7630965e-05 5.535583e-05 6.6320084e-05 0.00017190397 3.2536358e-05 3.4647313e-05 9.723416e-05
3.9863688e-05 0.00010597037 0.00011714858 4.5231194e-05 3.9932613e-05 4.4381683e-05 2.6929767e-05 0.00011206631

exp_avg f4 [6, 32]
00000000: 03e0 a1b9 6e9e c538 732b cb39 b60a 54bb
00000010: 6924 853a 9a33 df3a 960a 11bb 97d0 163b
00000020: c431 0f3a 4d7c c539 cbf4 e838 cafd 61ba
00000030: 66e1 2c3b 7657 41ba 71c3 adba f5e5 063a
00000040: 6f2d 18bb a464 c8b7 2c1c 983a 0f20 0f3a
00000050: 3b4f 47b9 2ef6 26ba db95 58bb 8263 5eba
00000060: 8d90 9b37 bd67 e739 09c0 d83a 2544 8e3a
00000070: b4aa b938 1c20 7039 eb00 2dba 114a 8eba
00000080: 20e1 b13a 4da5 17bc f11d 1a3c 6e6e ef3a
00000090: 1758 8c3c c8c5 833c c172 56bc 4e80 35bc
000000a0: dc5d 843b 521f 89bb 3aba 173c d933 80bb
000000b0: ad3d 083c 75dc c33b 1fba a0bc f546 6b3c
000000c0: edfe 6ebc 9ef9 d53a 917e a63a 419c e63b
000000d0: a0af 523a 92a4 2fbb d015 8a3b 9ef2 8b3a
000000e0: 2930 883c be68 ae3a bba0 813b 7724 11bb
000000f0: ce3a 3fbc 7162 01ba 42e7 083a 6b4b 16bb
00000100: 7b42 483a d959 c2bb 9198 b83b 57a7 893b
00000110: 732c 263c a4a6 1a3c 1973 0dbc d17e e9bb
00000120: fced 3b3b 6916 1eba c437 883b 1d1e 48ba
00000130: 6de6 ad3b 4876 b43b 53e7 60bc 1803 ff3b
00000140: 52a4 15bc 24cf 6c3a 0e89 a53a 9e60 723b
00000150: f661 a6ba 1a42 61bb 81c4 873b 1b0b 193b
00000160: 42f5 3b3c 6764 9fba a080 cc3a a411 2ebb
00000170: 2ba8 00bc 8bb8 91ba a2fd f139 ffe5 0539
00000180: 1d15 6ab9 9a70 283b 9cd8 d2ba 336d 08b9
00000190: c9fd 11bb 8246 5dbb b818 cf3a ac4e a83a
000001a0: a49b 24ba e136 89ba ddab adba 7955 aeba
000001b0: 51af 373a 5219 19ba 5624 243b ab7f 47b9
000001c0: 5333 793a aefc 12bb 340a 62b9 5617 00bb
000001d0: 3c5f 023b 781f b7ba 9201 84ba 87ab 5cbb
000001e0: 2c6c 11ba cf93 693a 029e a439 541f ad3a
000001f0: c7f1 783a 20d5 0d39 a5fb 8cba 419e 3c39
00000200: 53c7 043a be1f 47bb c3d9 ab3b f17d 463b
00000210: 63e5 663b 5586 273b 2840 30bb f8f7 b0bb
00000220: a05d be3a e396 f639 4623 4c3b 62a8 df3a
00000230: 3f7a ef39 f07a 063b 4ae3 cebb 979b 503b
00000240: 66de 05bb b700 b53b d459 e7ba f05d 8f3b
00000250: 963a eaba 5ba3 50bb c4a0 a13b 75c8 873b
00000260: 3a87 d63b 0055 c0ba 1624 5abb 23f8 82bb
00000270: f290 aabb 49a6 4b38 af39 1abb 628b 223b
00000280: 2013 4eba 92db 3c3b 2eb9 59bb 9b0e c7bb
00000290: ae16 a5bb eb10 30bb 7919 073b 8979 a53b
000002a0: 5824 773a d764 3339 5959 e8b9 4a6f 43bb
000002b0: 66b0 0539 2a09 29bb 8469 803b 7aa8 4cbb
000002c0: 28bf 873a be76 d0ba ae46 063a 23e5 ceb9
000002d0: 6b42 b53a 0891 4b3b 801c 7fbb 64a1 08bb
000002e0: c6ab e3bb e663 4db9 5acf 0f3b 3aab 133b
000002f0: 5b81 873b 5d4d 113b a00d da38 0060 e4b9
-0.00030875215 9.423202e-05 0.0003875155 -0.0032355017 0.0010157946 0.0017028928 -0.0022131554 0.0023012513
0.0005462433 0.0003766738 0.00011108218 -0.00086208864 0.0026379465 -0.00073753984 -0.0013257099 0.00051459606
-0.002322044 -2.3888722e-05 0.0011605076 0.0005459794 -0.00019007635 -0.0006369081 -0.0033048305 -0.0008483456
1.8544752e-05 0.00044137044 0.0016536723 0.0010854049 8.853283e-05 0.00022900145 -0.0006599563 -0.0010855814
0.0013571121 -0.009255719 0.009406553 0.0018267164 0.017131848 0.01608552 -0.013088883 -0.0110779535
0.004039509 -0.004184642 0.0092607085 -0.0039124307 0.008315486 0.0059772083 -0.01962 0.014360179
-0.014587146 0.0016325002 0.0012702515 0.00703767 0.00080370344 -0.0026800972 0.004214026 0.0010677164
0.016624527 0.0013306362 0.003955928 -0.002214698 -0.011671735 -0.00049356284 0.00052224484 -0.0022933136
0.0007639301 -0.005931121 0.0056334217 0.0042008567 0.010142433 0.009439144 -0.008633398 -0.0071257134
0.0028675785 -0.0006030561 0.0041570384 -0.0007633882 0.00530701 0.0055072643 -0.013727027 0.007782351
-0.009133415 0.0009033552 0.0012629346 0.0036983858 -0.001269399 -0.0034371675 0.004143298 0.0023352567
0.011472048 -0.001216066 0.0015602298 -0.0026560808 -0.007852594 -0.001111762 0.00046156073 0.00012769549
-0.00022323844 0.0025701881 -0.0016086283 -0.0001301065 -0.0022276512 -0.003376395 0.0015800213 0.0012840829
-0.0006279296 -0.0010468626 -0.0013250072 -0.0013300619 0.000700702 -0.000584026 0.0025046072 -0.00019025679
0.0009506244 -0.002242844 -0.0002155684 -0.001954516 0.001989319 -0.001397117 -0.0010071269 -0.0033671574
-0.000554743 0.000891027 0.00031398243 0.0013208189 0.0009496477 0.00013526203 -0.0010756148 0.00017988031
0.0005065102 -0.003038391 0.005244465 0.003028747 0.003523194 0.0025562246 -0.002689371 -0.005400654
0.0014523752 0.00047033196 0.0031148954 0.0017063732 0.00045676713 0.0020520054 -0.006313716 0.003183102
-0.002042675 0.005523767 -0.0017650672 0.004375212 -0.0017870243 -0.0031835649 0.004932495 0.0041437694
0.006546882 -0.001467377 -0.003328567 -0.0039968654 -0.005205267 4.8553837e-05 -0.0023532917 0.0024802317
-0.0007861126 0.0028817398 -0.0033221948 -0.006074739 -0.005038104 -0.0026865553 0.0020614548 0.0050498885
0.0009427718 0.00017108336 -0.00044317057 -0.0029820972 0.00012749582 -0.0025792816 0.0039188284 -0.003122835
0.0010356652 -0.0015904529 0.00051222264 -0.00039462102 0.0013828998 0.0031061787 -0.00389269 -0.002084815
-0.006947967 -0.00019587539 0.002194366 0.002253248 0.0041352934 0.0022171356 0.00010397588 -0.00043559074

exp_avg_sq f4 [6, 32]
00000000: 7cfd d137 a1ae bd37 3789 8838 53d1 be37
00000010: 359b 6838 8230 6f38 3053 9838 f2b3 0d38
00000020: 9103 4c37 08b5 2e37 9e5a ab37 a534 7937
00000030: b252 9838 2450 6638 861f 0839 0246 8938
00000040: 61aa a938 24fb 4038 7a10 9736 6448 0c38
00000050: 5250 8d36 8a59 9138 5876 0138 a3cc 3637
00000060: 88e7 1b39 4ef5 4a37 24f5 0038 2bf1 b737
00000070: 0ad7 e138 7280 2637 6fdb 6237 6ad3 e437
00000080: 7136 ba37 0e1b ce37 2858 8438 07e6 b837
00000090: 1e1c a638 9a59 a438 2745 ae38 1bdb 1c38
000000a0: 7218 5237 10f6 3e37 e570 bf37 f2fa 6337
000000b0: f35d 9038 f3b4 5b38 999c 1239 4b2b 9b38
000000c0: dee3 ba38 0a5a 4538 c15d 8f36 64f9 f237
000000d0: 6893 c236 ede7 8738 b6b3 e737 dc0d 2f37
000000e0: d738 2639 c0c8 3e37 11da e637 ad94 b137
000000f0: 88c8 cf38 59f3 3037 77f4 5d37 dcc9 d437
00000100: c38d cc37 43ae c837 4443 7938 a3d4 a237
00000110: c50c 6638 61b1 6638 4b33 9238 8e55 0b38
00000120: 1572 3137 6bca 4937 5112 bf37 1ff2 2937
00000130: 0ff8 7038 baba 4838 4625 f538 b10d 7538
00000140: 1fcf 9038 85ab 4738 7ceb 9336 49ce d637
00000150: 1b5a a236 4f3f 6d38 32f9 cc37 d5a6 5b37
00000160: 2102 0c39 414d 3437 164a e037 03d1 e037
00000170: dd56 c638 47f3 f436 08cc 4b37 3496 b537
00000180: 741a 6737 c153 2737 d8ff 0838 dbfe 5537
00000190: 453f e237 5b27 fc37 3b4f 1e38 dca7 7f37
000001a0: 6542 e536 953e d836 cb0e 1d37 3259 f936
000001b0: 9727 1b38 e09a c937 1474 7638 189f 0238
000001c0: eace 2738 4a68 d337 9c0e 3d36 691c 7437
000001d0: 4207 4636 c236 1738 b040 9237 8b9b fc36
000001e0: 04d4 9638 2842 ed36 ce02 9237 f39e 6b37
000001f0: 888c 5338 6380 ba36 6647 f036 bf0d 9037
00000200: 9cef f837 f33e 0538 2081 b038 7be7 d437
00000210: 1e1f c038 2deb a338 6165 f838 c1c4 3838
00000220: 3fc0 ac37 f344 6137 ca1d 0c38 d397 db37
00000230: 3121 ea38 b850 b138 ac09 4d39 5d98 e838
00000240: af60 0c39 e062 8938 a578 ac36 5df3 2f38
00000250: aa14 ee36 1ab4 b038 33c9 0a38 60b2 a937
00000260: 41e2 6d39 c1ca 8d37 87de 3838 a337 f337
00000270: 44b1 1639 1f84 3237 cee6 7437 26e4 1d38
00000280: 7cae e037 b29a a137 8b68 8938 8ef4 c137
00000290: d6f6 6f38 15b3 8438 e9e6 9b38 0791 f637
000002a0: 2dd6 7d37 a16e 7337 75de 9f37 c9dd 9737
000002b0: 1405 a638 2159 6938 db53 0639 4e75 8c38
000002c0: 5dd3 b038 48f5 4f38 4c1f 8f36 b7bf fe37
000002d0: 1b3d a336 04d1 9b38 9214 0638 0bf9 4e37
000002e0: 96ac 1d39 27f8 6d37 afdd 1638 b0e7 ed37
000002f0: 65c3 d438 5b53 3b37 6a22 9037 813c fb37
2.503278e-05 2.2611874e-05 6.5105436e-05 2.274724e-05 5.5457658e-05 5.7027217e-05 7.26342e-05 3.3784607e-05
1.2160178e-05 1.0413358e-05 2.0426985e-05 1.4853814e-05 7.263328e-05 5.491091e-05 0.00012981714 6.545709e-05
8.0902835e-05 4.601026e-05 4.502069e-06 3.344602e-05 4.211478e-06 6.930817e-05 3.0866213e-05 1.0895691e-05
0.00014868204 1.2097253e-05 3.0745883e-05 2.1927603e-05 0.0001076889 9.924277e-06 1.3521741e-05 2.7278165e-05
2.219828e-05 2.4569712e-05 6.310671e-05 2.2041624e-05 7.920734e-05 7.836819e-05 8.309847e-05 3.7397356e-05
1.2522667e-05 1.1382173e-05 2.2821545e-05 1.3588682e-05 6.8839545e-05 5.238219e-05 0.00013981982 7.39904e-05
8.911615e-05 4.7052315e-05 4.2726465e-06 2.896478e-05 5.798811e-06 6.480501e-05 2.762103e-05 1.043404e-05
0.00015852168 1.1371623e-05 2.7519682e-05 2.1169277e-05 9.907881e-05 1.0547076e-05 1.3229545e-05 2.5366367e-05
2.4384708e-05 2.3923005e-05 5.9428872e-05 1.9410922e-05 5.4848166e-05 5.500147e-05 6.9713766e-05 3.321986e-05
1.0576584e-05 1.2027663e-05 2.2777504e-05 1.0129558e-05 5.745148e-05 4.785762e-05 0.00011689453 5.8425303e-05
6.9050344e-05 4.7605037e-05 4.4083554e-06 2.5606847e-05 4.838466e-06 5.6564164e-05 2.4434736e-05 1.3092261e-05
0.00013352234 1.0746823e-05 2.673738e-05 2.680021e-05 9.457555e-05 7.300088e-06 1.2147248e-05 2.1646825e-05
1.3774832e-05 9.973476e-06 3.26632e-05 1.27551275e-05 2.6970762e-05 3.0059067e-05 3.7743925e-05 1.5238267e-05
6.832461e-06 6.444587e-06 9.3613735e-06 7.431162e-06 3.699175e-05 2.4033186e-05 5.8759077e-05 3.1142583e-05
4.0008606e-05 2.5201723e-05 2.8171698e-06 1.4550148e-05 2.9508524e-06 3.6052203e-05 1.7434679e-05 7.528293e-06
7.192048e-05 7.070852e-06 1.7405862e-05 1.40441e-05 5.04372e-05 5.558178e-06 7.1608692e-06 1.7172539e-05
2.967548e-05 3.1768297e-05 8.4163854e-05 2.538016e-05 9.1610695e-05 7.8162506e-05 0.00011844445 4.405226e-05
2.059352e-05 1.3427099e-05 3.3406344e-05 2.6177533e-05 0.00011164172 8.455053e-05 0.00019553927 0.00011091002
0.00013387458 6.551086e-05 5.1400443e-06 4.19499e-05 7.0953583e-06 8.4258805e-05 3.3089145e-05 2.0229432e-05
0.00022686367 1.6902924e-05 4.4076263e-05 2.8993765e-05 0.00014371151 1.0640389e-05 1.4597272e-05 3.7644197e-05
2.6784131e-05 1.9264731e-05 6.552142e-05 2.3121273e-05 5.7211924e-05 6.327607e-05 7.433986e-05 2.9393019e-05
1.5129842e-05 1.45096865e-05 1.9057867e-05 1.810388e-05 7.916443e-05 5.5634537e-05 0.00012810474 6.69757e-05
8.4317035e-05 4.9581082e-05 4.2653755e-06 3.0368434e-05 4.864892e-06 7.429908e-05 3.1967247e-05 1.2336542e-05
0.0001503698 1.4184078e-05 3.5969246e-05 2.836049e-05 0.00010145343 1.1165476e-05 1.7182163e-05 2.9949706e-05

exp_avg f4 [6]
00000000: 590b aabb 7f60 0abd 08cf acbc e5de 213a
00000010: 8365 48bc 4dc2 053c
-0.005189341 -0.033783432 -0.021094814 0.00061748765 -0.0122312335 0.008164001

exp_avg_sq f4 [6]
00000000: bbe9 1e3a eef7 233a b226 103a 46ea 9d39
00000010: 3799 6a3a 07bc 233a
0.000606205 0.0006254901 0.000549893 0.0003011992 0.00089492224 0.0006245975

exp_avg f4 [64, 26]
00000000: 0a46 673b 0000 0000 e0b6 cebc 28a0 68ba
00000010: 0000 0000 680b 52ba 0000 0000 98fb b33b
00000020: c1d6 7cbc fc14 ba3b 45b7 09bc aa74 4bbb
00000030: ce9a f83c b498 0cbb f192 5fbc bd8e 603b
00000040: 1fc8 fabb 2498 c53a ceb5 8fbc 3e5c b9bb
00000050: d35b 24bc 3d9b f5bb 1d74 c4bb af3c 60bc
00000060: 0400 0080 0400 0080 9a9c 2dbb 0000 0000
00000070: 2714 a13c 74de 183a 0000 0000 4b7d bf3a
00000080: 0000 0000 b703 23bb 65eb fe3b 0e0d 78bb
00000090: ba24 3c3b 90a9 3c3b 9f1f c4bc 3fef adba
000000a0: ca17 223c 575a a8bb 8cb9 ee3b bcf6 443b
000000b0: def9 5d3c 5a05 ef3b 0922 a43b 1d12 a83b
000000c0: a976 ac3b eda7 253c 0400 0000 0400 0000
000000d0: 624f ac3b 0000 0000 fce3 213d 644e 6d3c
000000e0: 0000 0000 4ecb 0fbc 0000 0000 fa9e 39bd
000000f0: 4ee3 643d 4035 e4bb d359 853d 65fb 803a
00000100: 037d 0ebd b3eb 893b b47e 583c 482e aa38
00000110: f3de 0dbd 1963 0f3a c6da ee3d 57da f23b
00000120: d8e9 c8bb d047 233d 91b6 303c 4983 8c3c
00000130: 0400 0080 0400 0000 86fa 593c 0000 0000
00000140: fee1 a6bd 18f7 80bc 0000 0000 bfcc 373c
00000150: 0000 0000 3be0 cb3c 41a3 a7bd 8d77 2d3c
00000160: 4aee c4bc e1e4 48bb 639a ac3d 02c8 22bc
00000170: d269 87bd 41ec ddbb a7dc 053d 9d4d 4b3c
00000180: 1b0d a5bd a930 7dbc 1655 61bd 7bf0 2abd
00000190: 86c6 85bb 5e79 9ebd 0400 0080 0400 0080
000001a0: 1d4c 9dbb 0000 0000 e60a eebc c65d aebb
000001b0: 0000 0000 2ad4 a63b 0000 0000 8663 4a3c
000001c0: f8f1 9e3b c2ee 49bb e1cc 88bc 8583 963b
000001d0: 7a5a 3c3c 28e8 dc3b 50aa a9bb 8bd5 6db8
000001e0: 496e 3e3c eb1e 73bb 9e55 8dbd 95ee c83b
000001f0: 4f42 c13c 40a3 15bb b46b 85bb aa67 203c
00000200: 0400 0080 0400 0080 e429 363c 0000 0000
00000210: 4c83 b5bd 01c7 0cbc 0000 0000 67e1 4e3c
00000220: 0000 0000 6a38 87bc a428 2c3c 7f1f 08bc
00000230: 3fc4 3b3d 4ab3 d23b 3ad7 ab3d c4c7 433c
00000240: 0fbf 84bd c28b 6d3b 617f 1f3c ec95 60bc
00000250: 39c6 73bd c1dc 8f3c 1030 3bbc 871b 023c
00000260: f840 1fbb f751 27bd 0400 0080 0400 0080
00000270: 98bb e0bb 0000 0000 8af2 163d d568 333b
00000280: 0000 0000 0eb6 77bb 0000 0000 2206 b13c
00000290: 33da c0bc 9a8d 363c 68e0 2abd 0653 d4bb
000002a0: 0a3b c2bc e48f dbbb 2817 ed3c b452 e73a
000002b0: 127b 4db9 c5e3 253c 3839 923b 258a 94bc
000002c0: d21a 1c3c adb9 5dbc 417d 80bb cf49 4e3c
000002d0: 0400 0080 0400 0080 7114 85b9 0000 0000
000002e0: e902 5a3d 6b62 333c 0000 0000 caae 4cbc
000002f0: 0000 0000 1a35 31bb 3d81 b8bb f658 443c
00000300: cffe 38bc 5c30 68bc 4c99 28bd 5760 3cbc
00000310: e3f8 033d 4962 0f3b b9e5 ccbc 19e1 ef3b
00000320: fc8d 9f3d e0e2 5ebc 0789 80bc 9ccd 9e3a
00000330: e7eb bf39 d6dc 6a3c 0400 0080 0400 0080
00000340: b5cb 353c 0000 0000 0866 9fbd 7fb6 22bc
00000350: 0000 0000 a4b0 353c 0000 0000 a72e b7bb
00000360: 3140 53bc 5b9f 80bb 12cd c83c a7ac 983b
00000370: d2cf 9b3d 6044 d83b f80d 72bd dd8b 2a39
00000380: c847 4d3c 2c10 f9bb b288 61bd ba62 543c
00000390: 5327 bfbc be51 4bbb 6f93 ecba 0d54 3bbd
000003a0: 0400 0080 0400 0080 edf3 e8bb 0000 0000
000003b0: 908c cabc d22f 4abc 0000 0000 a89a d63b
000003c0: 0000 0000 bd4f 603d c29e 8ebd 7abb 773c
000003d0: 93c6 aabd 2503 0dbc 441f fb3c 66cd f1bb
000003e0: 09a4 78bb 1cb3 4a3a b12b 083d edf5 9f3b
000003f0: a423 e1bd 0ee7 8abc 2f38 923b 9d3d 52bd
0.003528955 0.0 -0.025233686 -0.0008873963 0.0 -0.0008012564 0.0 0.005492639
-0.015432061 0.005678771 -0.008405511 -0.003104488 0.030347254 -0.0021453323 -0.013645873 0.0034264766
-0.007653251 0.0015075249 -0.017542746 -0.005656748 -0.010031658 -0.0074953125 -0.005995287 -0.013686343
-6e-45 -6e-45 -0.0026491047 0.0 0.01966293 0.0005831488 0.0 0.0014609484
0.0 -0.002487404 0.007779526 -0.0037849578 0.0028708414 0.002878759 -0.02394086 -0.0013270153
0.009893367 -0.0051377225 0.0072853025 0.0030054292 0.0135483425 0.007294339 0.00500894 0.0051291124
0.005263169 0.010110837 6e-45 6e-45 0.0052584866 0.0 0.039524063 0.014484022
0.0 -0.008776499 0.0 -0.045317627 0.055880837 -0.0069643557 0.06511273 0.0009840546
-0.03478719 0.0042090057 0.013213802 8.114852e-05 -0.03463645 0.0005469784 0.116628215 0.007411282
-0.006131392 0.039863408 0.010785715 0.017152445 -6e-45 6e-45 0.013304358 0.0
-0.08148573 -0.015742823 0.0 0.011218249 0.0 0.024887195 -0.08185435 0.010587585
-0.024039406 -0.0030654 0.084278844 -0.009935381 -0.066119805 -0.0067725484 0.032681134 0.012408641
-0.0805914 -0.015453496 -0.055012785 -0.041733246 -0.0040825037 -0.07737993 -6e-45 -6e-45
-0.004800333 0.0 -0.029057931 -0.0053212373 0.0 0.00509121 0.0 0.01235283
0.0048506223 -0.0030812477 -0.016699256 0.004593315 0.011496181 0.0067415424 -0.0051777735 -5.670408e-05
0.011622974 -0.0037097286 -0.06901096 0.006131957 0.023591189 -0.00228329 -0.004071677 0.00979034
-6e-45 -6e-45 0.011118386 0.0 -0.088629335 -0.008592368 0.0 0.012626982
0.0 -0.016506393 0.010507736 -0.0083082905 0.04584145 0.0064300643 0.083906606 0.011949483
-0.06481754 0.0036246632 0.009734959 -0.013707619 -0.05951521 0.017561318 -0.011425033 0.007941133
-0.00243002 -0.040849652 -6e-45 -6e-45 -0.0068583004 0.0 0.036852397 0.0027375717
0.0 -0.0037797722 0.0 0.02160937 -0.023541545 0.011142159 -0.041717917 -0.0064796237
-0.023709793 -0.0067005027 0.028941706 0.0017648549 -0.00019596171 0.010125105 0.0044623874 -0.018132279
0.009527879 -0.013533038 -0.0039211814 0.0125908395 -6e-45 -6e-45 -0.00025382967 0.0
0.05322543 0.010948758 0.0 -0.012492845 0.0 -0.0027039708 -0.005630641 0.011984101
-0.01129122 -0.014171686 -0.04116182 -0.011497579 0.03221978 0.002187865 -0.025011884 0.007320535
0.07790753 -0.013603896 -0.01569034 0.001211572 0.0003660612 0.014334878 -6e-45 -6e-45
0.011095931 0.0 -0.07783133 -0.009931206 0.0 0.011089478 0.0 -0.005590278
-0.012893722 -0.0039252467 0.024511848 0.0046592536 0.07607998 0.006599948 -0.059095353 0.00016264567
0.012529321 -0.007600805 -0.055062003 0.012962991 -0.023334181 -0.0031024064 -0.001804931 -0.045734454
-6e-45 -6e-45 -0.0071091563 0.0 -0.024725229 -0.012340503 0.0 0.006549198
0.0 0.054763544 -0.069638744 0.0151203815 -0.08338656 -0.008606707 0.030654557 -0.0073792217
-0.003793957 0.0007732378 0.033244792 0.0048816116 -0.10993126 -0.016955879 0.004462264 -0.05132829
