flare/polgrad/lightning_logs/version_16/checkpoints/epoch=24.ckpt (torch_old, 115515 bytes, 33 tensors)

exp_avg f4 [64, 4]
00000000: b4fe 663b 8617 223b c148 403a 5284 503a
00000010: e83d b83a cc21 7b3a d574 7739 5bba 8839
00000020: 2a97 0dba 1bb8 c5b9 adb9 f7b8 e414 feb8
00000030: dab4 94bb 8cc5 3fbb b4e6 82ba 6004 9dba
00000040: 1c20 f5ba b1a4 b9ba 303b f4b9 8e54 02ba
00000050: 9603 383b cbdd 063b b5bd 103a 4d9c 123a
00000060: e63d 593b dc86 193b b62b 843a fb85 8a3a
00000070: 9640 d339 d64c b739 fd03 1b39 15f4 0b39
00000080: 6a20 3a3b c204 f63a 76ef 0f3a f857 333a
00000090: e944 9fbb 84a8 66bb eea3 92ba 1ca2 94ba
000000a0: 0094 8fbb 4010 47bb 7704 5eba c4ec 70ba
000000b0: c727 0cbb 1450 b9ba 887b b7b9 df35 deb9
000000c0: 9a4c b3bb 7287 6cbb 7a94 83ba e6fe 95ba
000000d0: d68c 12bb d52f d4ba 091f 0eba cd15 14ba
000000e0: 460c 5ebb e971 1cbb d7ad 27ba 4817 39ba
000000f0: e7e7 5a3a 9184 153a 7c10 8539 58d4 9339
00000100: ac8b 4c3a 1d63 0a3a be4b ed38 3be2 0439
00000110: c433 703b 55a3 413b a83a 433a c8bc 343a
00000120: 79bd e339 75f8 a839 a518 7538 e1d9 2e38
00000130: 0d37 a1ba 2d34 6bba 0a01 92b9 43c3 a9b9
00000140: 3dee 6fba ad4e 39ba 5ba1 81b9 e7fe 8db9
00000150: c6d2 0f3c de00 d43b 156a e43a a8f7 f43a
00000160: 7ab9 993b 66de 503b c24c 6d3a b514 833a
00000170: 05a3 2dbb 9ee0 f4ba c87a 12ba 8157 1dba
00000180: 1ed4 da3a 2fcd 9f3a e690 ce39 f977 d639
00000190: 0920 3439 e08a 2339 560c bc38 636c af38
000001a0: a0fc fdb9 3fed b8b9 da6d 6cb8 4482 72b8
000001b0: 8d14 b8ba 4a1c 7dba 748d 8db9 31ff 95b9
000001c0: b78d 9dba d4e3 51ba 3140 5bb9 54de 81b9
000001d0: 2332 a2ba b777 67ba 2288 a4b9 bd71 a9b9
000001e0: 05c1 7cbb b796 3cbb 1313 73ba 6289 7bba
000001f0: 78f6 26ba 981e e0b9 d3ca 0bb9 5430 2eb9
00000200: a6d1 6cba 386a 22ba a96d 31b9 8545 54b9
00000210: 8ecf c33a bd88 833a e1ff 8039 bdca 8f39
00000220: d31a fd3b ab14 b33b eaf4 cb3a d32a df3a
00000230: c5d9 823b 6056 293b e655 5f3a 2130 853a
00000240: 5e4f d23a e8b4 ab3a 1c01 073a b82c f839
00000250: 2995 523b 2191 1c3b b52e 373a 9a74 3d3a
00000260: 2fae 053b 5f58 c73a f95a 0e3a 89ac 123a
00000270: 2605 22bb c2ed caba fea2 1cba 93f8 47ba
00000280: cc87 45b9 8158 18b9 c554 3eb8 2a0b 4cb8
00000290: 86c5 14bc 80cc cdbb 020e f4ba 37fd 03bb
000002a0: ce52 e2ba 39e5 aeba 8183 ddb9 f2e1 fbb9
000002b0: 8450 613b b265 1e3b c649 353a 1771 453a
000002c0: e8cf 8abb 2510 3dbb 4918 64ba d640 86ba
000002d0: 6c64 7b3b 76e5 3e3b 5f35 9c3a 3ad0 9c3a
000002e0: f6d0 4a3b c25d 0d3b daf1 323a ec21 3d3a
000002f0: 2ffa deba 7a15 9bba 10db a2b9 8c5f b8b9
00000300: 6756 cb3b f84e 8e3b 86e6 9a3a 7a1b a63a
00000310: 49ad afbb 493c 81bb e143 8dba 745f 9bba
00000320: 94ae a63a 987a 723a a2a3 9439 9572 9539
00000330: 0830 c5bb 1e51 94bb e7b4 afba ca7c acba
00000340: cd9b a33b c2f2 613b 2517 783a ea25 8a3a
00000350: ae8c 2fba 2a38 e3b9 cede 0ab9 d29d 2db9
00000360: 8112 123a 85f2 cd39 58bd d038 e677 e738
00000370: 8698 703a 385a 113a b56d 5139 1498 8639
00000380: 8c29 0e3c 04ee c53b 07a9 d23a 1b10 e33a
00000390: 78e4 65bb 587e 1abb feb8 19ba a4ce 2bba
000003a0: 69d6 953b 780a 563b 7db4 813a 5cc8 883a
000003b0: 9b88 933a ffae 473a e06e 5539 c745 7639
000003c0: 3bf2 683a f584 1c3a 0254 3c39 6e5b 6e39
000003d0: 9405 0a3b 2e50 d13a 30f2 283a 0622 283a
000003e0: d885 8dbb d619 56bb 4bbe 8eba 5c49 92ba
000003f0: 151e d13b 0eb1 923b 538c a73a 29eb af3a
0.003524703 0.002473326 0.000733506 0.00079542876 0.0014056535 0.0009579926 0.00023599279 0.00026078787
-0.00054012483 -0.00037711937 -0.000118124626 -0.00012115555 -0.0045381607 -0.0029262034 -0.0009986968 -0.0011979453
-0.0018701586 -0.0014163462 -0.00046583405 -0.0004971706 0.002807831 0.0020578976 0.00055214326 0.00055927486
0.0033148467 0.002342633 0.0010083828 0.0010568494 0.00040293176 0.00034961727 0.00014783438 0.00013347
0.0028400668 0.0018769728 0.00054906996 0.00068414165 -0.0048605097 -0.0035195658 -0.0011187771 -0.0011339816
-0.0043816566 -0.0030374676 -0.0008469293 -0.0009190554 -0.0021386014 -0.0014138245 -0.00034996518 -0.00042383277
-0.005471778 -0.0036091474 -0.0010038756 -0.0011443764 -0.0022361777 -0.0016188571 -0.0005421495 -0.00056490005
-0.0033881827 -0.0023871607 -0.00063964486 -0.0007060659 0.0008350596 0.0005703653 0.0002538002 0.00028196233
0.0007802795 0.0005279051 0.00011315149 0.00012672778 0.0036651948 0.0029546816 0.00074474 0.00068945857
0.00043437982 0.00032228572 5.8435504e-05 4.168775e-05 -0.0012299732 -0.00089723134 -0.00027848064 -0.00032379673
-0.0009152627 -0.00070689135 -0.00024725017 -0.00027083533 0.00877828 0.00646983 0.0017426634 0.001868953
0.0046913 0.003187084 0.00090522703 0.0010000678 -0.0026494872 -0.0018682664 -0.0005587754 -0.0006002114
0.0016695296 0.0012191887 0.0003939934 0.00040906647 0.00017178072 0.00015596626 8.966836e-05 8.364839e-05
-0.0004844414 -0.00035271977 -5.6369092e-05 -5.7818615e-05 -0.001404421 -0.00096553995 -0.00026999007 -0.00028609627
-0.0012020384 -0.00080066663 -0.0002090938 -0.00024770445 -0.0012374561 -0.00088297896 -0.00031381944 -0.00032318934
-0.0038567197 -0.0028776356 -0.00092725566 -0.0009595362 -0.0006369124 -0.00042747403 -0.00013331631 -0.00016611937
-0.00090339256 -0.00061956374 -0.00016920887 -0.00020243794 0.0014939175 0.0010035258 0.00024604707 0.00027426137
0.007724145 0.0054651103 0.0015560661 0.0017026312 0.0039932453 0.0025838837 0.0008519575 0.0010161438
0.0016045382 0.0013100179 0.00051500066 0.00047335564 0.0032132363 0.0023890215 0.0006987856 0.0007227153
0.002039801 0.0015208832 0.0005430426 0.0005595168 -0.0024722307 -0.0015482234 -0.00059752155 -0.0007628288
-0.00018837972 -0.0001452882 -4.5378478e-05 -4.8647787e-05 -0.009080296 -0.006280482 -0.0018619897 -0.0020139941
-0.0017267109 -0.001334346 -0.00042250383 -0.00048042793 0.0034380266 0.0024169502 0.0006915595 0.00075318053
-0.00423621 -0.0028848734 -0.00087011285 -0.0010242711 0.0038359417 0.0029128469 0.0011917761 0.0011963912
0.0030947304 0.0021570777 0.00068262 0.00072148326 -0.0017011816 -0.0011831962 -0.00031062262 -0.00035166403
0.0062053683 0.00434291 0.0011817969 0.0012672984 -0.0053612334 -0.003943954 -0.0010777676 -0.0011854009
0.0012716823 0.0009249835 0.00028350676 0.00028504865 -0.0060176887 -0.0045262715 -0.0013405354 -0.0013159749
0.004992938 0.003447697 0.0009463898 0.0010539864 -0.0006696683 -0.0004333866 -0.00013243707 -0.00016557358
0.00055722153 0.00039281338 9.953481e-05 0.00011037271 0.0009178001 0.00055447547 0.00019972662 0.0002567178
0.008676898 0.0060403366 0.0016072103 0.0017323525 -0.0035078805 -0.0023573842 -0.0005864053 -0.0006553924
0.004572679 0.0032660048 0.0009895709 0.0010435688 0.0011255922 0.0007617324 0.00020354567 0.00023486382
0.0008886193 0.000597074 0.00017960372 0.00022731509 0.0021060454 0.001596933 0.000644478 0.00064137613
-0.004318934 -0.0032669208 -0.0010890452 -0.0011160779 0.00638176 0.004476673 0.0012782909 0.0013421524

exp_avg_sq f4 [64, 4]
00000000: 1c29 5336 e009 ef35 6ca4 3134 6b79 2e35
00000010: 22aa d334 4e2e ad34 9121 f932 a398 1235
00000020: 7157 1334 5a53 0034 d88f b732 ed06 6c34
00000030: cf8d d936 dbd1 9a36 8b5b df34 616b f235
00000040: ab59 a135 a105 5635 ca22 0d34 07b2 7435
00000050: 58c6 7536 8625 4136 1e1d ab34 e611 2f36
00000060: 9267 0837 71ad 8636 fcc2 1635 fdea 3636
00000070: 7763 6834 dad3 a434 334e 0f33 8aed 3835
00000080: 8926 6736 f897 3d36 367f b834 0d0e 1d36
00000090: cf75 2637 66aa b036 0cca 1535 7c97 1736
000000a0: 99e0 ae36 c066 3b36 bb03 7334 e431 9135
000000b0: 5738 a935 581b 8235 0a8f c733 e1d9 5535
000000c0: 24b9 0237 9660 9f36 aa4b c334 9e88 ad35
000000d0: 5443 1d36 8943 c335 1f2d 1734 7610 4a35
000000e0: ba5a 3c36 d718 e335 9e1e 0f34 f86c 8d35
000000f0: 6010 3c35 382d dd34 e0a5 7b33 df38 ab34
00000100: bf26 9234 f497 d734 a0c7 a733 afe1 8735
00000110: f52e 4936 08d8 1036 ef50 2934 c7fd 1d35
00000120: 543a d532 2459 4034 dad4 dc32 916c 5135
00000130: 0488 8935 7ad8 2935 6a84 e533 88d5 4c35
00000140: ef1b d934 4235 9835 12d1 4d34 026d 8736
00000150: 748b c337 a7a7 8837 59a9 c335 4437 1237
00000160: 55bc f236 8d00 8c36 2cf1 d734 6cec f835
00000170: 175a 0d36 2478 8035 1444 0a34 fee9 0d35
00000180: 8612 7135 0e72 1835 6a95 a733 ae51 0135
00000190: 4846 1b34 6f6f 5734 91cd e832 4189 0c35
000001a0: 8db5 9634 5563 ec34 fbf2 ac33 a054 5335
000001b0: 6de6 1f35 5c28 e234 987c 0333 88eb c234
000001c0: 7430 0835 21d2 1935 3467 9733 c489 9335
000001d0: cc9a 5c35 af44 0e35 f0dd ac33 2536 2f35
000001e0: be80 8536 1fe4 2336 957e a534 5f5b 9f35
000001f0: 62ee 2f34 7f5e cf33 54bb 3632 caa8 ff33
00000200: ac20 9534 74f4 a134 58be 6933 73e9 0935
00000210: d199 0835 d6a1 bb34 09dc b932 c7fe 6034
00000220: 7a95 c137 9ba1 8437 930c dd35 2840 1537
00000230: 5a87 cf36 2068 8c36 ea2f de34 6357 2b36
00000240: 94b0 df35 5af7 9d35 fe77 1434 b212 dd35
00000250: 2a31 9d36 39f6 2236 5466 a534 1d9e d635
00000260: cf9c ec35 81cd 9f35 870e 6434 64b5 db35
00000270: 9ec0 7c36 4360 2b36 2005 a134 b2ee 0136
00000280: e1be 2733 0566 3133 8704 d831 b9bc 6c33
00000290: 3851 0038 d37e 9437 016e e435 77fa 0f37
000002a0: c399 ad35 9e88 8935 9eb7 1134 398b 9035
000002b0: 4e61 4336 d035 db35 8216 3534 25fe 3435
000002c0: ddaa f536 e856 b436 85e6 0f35 17a3 2e36
000002d0: 37e9 2b37 3d06 e036 f681 7d35 beb4 b736
000002e0: 4416 4836 6955 de35 6c0e 5234 fe43 4335
000002f0: f575 8935 4efd 4f35 7697 8a33 bf78 0635
00000300: b8d8 5437 dba3 e236 11ae 4035 2f50 4336
00000310: 2425 0f37 66bc d936 a8c3 3c35 8341 a036
00000320: b1f0 a134 91f4 ae34 88c1 1e33 6260 5a35
00000330: 1d2c 8037 5610 2a37 fd6c 8f35 b556 d336
00000340: 20fc f336 a2a3 9436 39c9 d634 0288 f635
00000350: 8c14 9a34 b4d5 9c34 88ca 1f33 f6de e834
00000360: 7ef4 ba33 c7ff de33 2e23 1832 4baf 6a34
00000370: 9e01 f934 354f db34 0002 1c33 78fe d134
00000380: 8c56 a837 6f31 5437 da99 8f35 5072 9e36
00000390: 647d 6236 8ee9 1136 ead0 2b34 d5c1 3c35
000003a0: 2d36 2a37 dd53 e136 48de 3f35 dae8 8436
000003b0: b093 ad34 33e2 7b34 eb49 b032 6488 4634
000003c0: 3dd1 7d35 6981 8835 5c95 2f34 8e6c c535
000003d0: 731f 5a36 b028 f735 09ff 9c34 5814 cf35
000003e0: df2d 1d37 2df9 d736 f3c0 3135 8bd5 5336
000003f0: 5c0c 5c37 c29f f736 6094 2535 4bf1 1c36
3.146538e-06 1.7809762e-06 1.6544226e-07 6.499674e-07 3.94256e-07 3.2257452e-07 2.900268e-08 5.4611354e-07
1.3722253e-07 1.1951252e-07 2.1369416e-08 2.1981732e-07 6.4836127e-06 4.613988e-06 4.1603593e-07 1.8061656e-06
1.2021532e-06 7.9729404e-07 1.3144304e-07 9.115615e-07 3.6623296e-06 2.8781083e-06 3.1872418e-07 2.608745e-06
8.130346e-06 4.0137024e-06 5.6163094e-07 2.7256895e-06 2.1642869e-07 3.0701523e-07 3.3365904e-08 6.8891006e-07
3.4444113e-06 2.8251652e-06 3.436523e-07 2.3403002e-06 9.9218005e-06 5.2650457e-06 5.580084e-07 2.258893e-06
5.2117507e-06 2.792498e-06 2.2632496e-07 1.0817862e-06 1.2607878e-06 9.693713e-07 9.292678e-08 7.966574e-07
7.79171e-06 4.7498133e-06 3.6376633e-07 1.2929265e-06 2.3434013e-06 1.4548287e-06 1.4079386e-07 7.527482e-07
2.8066993e-06 1.6920047e-06 1.3329051e-07 1.0537033e-06 7.0059286e-07 4.119736e-07 5.8591354e-08 3.189261e-07
2.722281e-07 4.015743e-07 7.812855e-08 1.0123966e-06 2.9978667e-06 2.1583419e-06 1.5768795e-07 5.885635e-07
2.4822988e-08 1.7913823e-07 2.5708164e-08 7.801655e-07 1.0246881e-06 6.327242e-07 1.06877295e-07 7.630665e-07
4.0439724e-07 1.1340383e-06 1.9168172e-07 4.0360037e-06 2.331075e-05 1.6290533e-05 1.4577919e-06 8.715146e-06
7.2340868e-06 4.1723893e-06 4.0222346e-07 1.8546248e-06 2.1063076e-06 9.571709e-07 1.2877018e-07 5.2867097e-07
8.980645e-07 5.6790384e-07 7.803722e-08 4.8175104e-07 1.4461068e-07 2.0063975e-07 2.7101835e-08 5.2353795e-07
2.8071773e-07 4.40307e-07 8.053572e-08 7.872677e-07 5.956743e-07 4.2125146e-07 3.061413e-08 3.6306687e-07
5.0734457e-07 5.730272e-07 7.050258e-08 1.0992449e-06 8.2181646e-07 5.299907e-07 8.049744e-08 6.527137e-07
3.9786964e-06 2.4421677e-06 3.0825746e-07 1.1873016e-06 1.6384868e-07 9.6563774e-08 1.0636388e-08 1.19050654e-07
2.7777185e-07 3.016645e-07 5.4422657e-08 5.137619e-07 5.088778e-07 3.4949215e-07 2.1636895e-08 2.0954313e-07
2.3076998e-05 1.581088e-05 1.6469443e-06 8.89603e-06 6.1848377e-06 4.184447e-06 4.1385584e-07 2.5531851e-06
1.6666186e-06 1.17694e-06 1.3827227e-07 1.6471224e-06 4.684688e-06 2.4283202e-06 3.0808098e-07 1.599026e-06
1.7629008e-06 1.1906233e-06 2.123944e-07 1.6369563e-06 3.7663044e-06 2.5537017e-06 2.9992316e-07 1.9361437e-06
3.905632e-08 4.130381e-08 6.286942e-09 5.5119674e-08 3.059322e-05 1.7702032e-05 1.7019339e-06 8.58178e-06
1.2934255e-06 1.0247056e-06 1.3570977e-07 1.0769355e-06 2.9113903e-06 1.6332433e-06 1.6865127e-07 6.7425054e-07
7.32146e-06 5.3745352e-06 5.36071e-07 2.6022951e-06 1.0246694e-05 6.6764464e-06 9.443896e-07 5.474866e-06
2.9815283e-06 1.6565147e-06 1.9563021e-07 7.27421e-07 1.0241625e-06 7.7482116e-07 6.453676e-08 5.00946e-07
1.26866435e-05 6.7544e-06 7.1778874e-07 2.9103937e-06 8.532112e-06 6.4890364e-06 7.0320175e-07 4.775998e-06
3.0163713e-07 3.258797e-07 3.6963257e-08 8.1351584e-07 1.5279331e-05 1.0136593e-05 1.068605e-06 6.298384e-06
7.2713156e-06 4.429793e-06 4.0007015e-07 1.8368012e-06 2.8699685e-07 2.9212754e-07 3.7204273e-08 4.3375593e-07
8.705773e-08 1.0384206e-07 8.855563e-09 2.185672e-07 4.638104e-07 4.084956e-07 3.63234e-08 3.9114434e-07
2.0067462e-05 1.2647694e-05 1.0699107e-06 4.7220747e-06 3.3749611e-06 2.174263e-06 1.6001619e-07 7.031752e-07
1.0145403e-05 6.7152855e-06 7.1476506e-07 3.961014e-06 3.2331218e-07 2.3458487e-07 2.052271e-08 1.8489806e-07
9.4554326e-07 1.0170453e-06 1.6352482e-07 1.4709237e-06 3.2502837e-06 1.8414776e-06 2.9242827e-07 1.5428623e-06
9.368609e-06 6.436507e-06 6.6218416e-07 3.1565748e-06 1.31158995e-05 7.379772e-06 6.1683204e-07 2.3386262e-06

exp_avg f4 [64]
00000000: 7c2b 063b 0783 0c3a 4819 a7b9 568b 3abb
00000010: e88f aeba 0972 673a 2f1d a93b 453b c539
00000020: e169 b33a 5557 3cbb fe08 0bbb 110d 66ba
00000030: cb24 fdba 7272 cdba 3146 afba 57b9 933a
00000040: 1028 a439 7362 c43a ec94 2139 5e2a 21ba
00000050: 886b 60ba d062 663b 3ec1 f83a 61e7 e4ba
00000060: 806c a63a 552f 8239 4c01 79b9 24af ecb9
00000070: c4d7 10ba 36a8 a7ba b43b 45bb 4ce0 fdb9
00000080: 945a 38b9 1c77 3f39 2095 733b 3ebf 0e3b
00000090: ca36 c63a e690 ac3a ad53 043b 6b3e 10bb
000000a0: c797 f2b8 0592 9dbb 2294 37ba 821f f53a
000000b0: 6010 1bbb ec6d 903b e021 103b 693d 66b9
000000c0: 6644 193b d88b 09bb 6d8e 7d3a f5c3 2bbb
000000d0: bcf9 0d3b f728 75b9 f75b 5039 1f7a f739
000000e0: 5b2e 803b 8884 f5b9 8603 113b 8379 0f3a
000000f0: 02d1 173a a171 223b ba68 4bbb 7d3a 453b
0.0020472696 0.0005360101 -0.00031871558 -0.0028464398 -0.0013318034 0.0008828943 0.0051609497 0.00037618927
0.0013688171 -0.0028738577 -0.0021215077 -0.0008775751 -0.0019313333 -0.0015674366 -0.0013372359 0.0011270446
0.00031310366 0.0014982953 0.00015409634 -0.0006147976 -0.0008560945 0.0035154112 0.0018978489 -0.0017463976
0.001269713 0.00024830797 -0.00023746974 -0.00045143918 -0.00055253156 -0.001279122 -0.00300954 -0.00048423035
-0.0001758135 0.00018259551 0.0037167743 0.002178147 0.001512253 0.0013165742 0.0020191476 -0.002200986
-0.0001156773 -0.0048086667 -0.00070029695 0.0018701407 -0.0023660883 0.004407635 0.0021992847 -0.00021957386
0.0023386716 -0.0020987894 0.0009672407 -0.0026209329 0.0021663746 -0.00023380281 0.00019870685 0.00047202499
0.003911776 -0.00046828785 0.0022127344 0.0005473124 0.00057913375 0.0024786966 -0.0031037764 0.0030094676

exp_avg_sq f4 [64]
00000000: f674 1037 3c64 9335 15bc 6a35 71cb b137
00000010: 6980 d736 c9ba 7537 8c3c d437 5da5 a235
00000020: 2647 8037 3c79 ec37 7444 3a37 b61b 8836
00000030: f5b8 a037 469e de36 a14a cc36 2c98 2436
00000040: 6ffe 3236 2eaa 1f37 abb6 0235 8aa9 9e36
00000050: 94b9 b736 9e41 9738 0288 a537 40b1 d836
00000060: c009 7d36 4d05 8535 dd2b 5536 0627 be35
00000070: 767b 2236 544a 6836 b790 8c37 4261 c634
00000080: c26e 1136 4897 9935 288c 9b38 fdd7 a137
00000090: 2231 cc36 139d 7437 4877 2237 4e49 5637
000000a0: 3357 9034 fd5c ab38 f4ea e636 9723 1037
000000b0: 0490 cf37 866f 3a38 fc51 2337 8f16 6236
000000c0: 73dd 0f38 74de 1938 898b 9f35 43be 5f38
000000d0: fdf7 a237 9217 cb35 d8e8 a134 c873 d035
000000e0: 6514 6638 9c41 1137 6dc4 0f38 0c23 7735
000000f0: 1fda e236 1b46 6737 ec48 0538 1734 0138
8.610301e-06 1.0981526e-06 8.744549e-07 2.1194779e-05 6.422448e-06 1.4646627e-05 2.5300564e-05 1.2118068e-06
1.529192e-05 2.8189846e-05 1.1102402e-05 4.056342e-06 1.9159614e-05 6.634541e-06 6.0883617e-06 2.452648e-06
2.6672167e-06 9.516762e-06 4.869459e-07 4.728504e-06 5.475429e-06 7.212463e-05 1.9732866e-05 6.4579363e-06
3.7705613e-06 9.910815e-07 3.1765005e-06 1.416746e-06 2.4211745e-06 3.4613959e-06 1.6756689e-05 3.6951138e-07
2.1671153e-06 1.1443417e-06 7.417082e-05 1.9293273e-05 6.0853936e-06 1.4580105e-05 9.683725e-06 1.2772462e-05
2.6885536e-07 8.171236e-05 6.8818863e-06 8.591355e-06 2.4743385e-05 4.444972e-05 9.734646e-06 3.3689755e-06
3.4300097e-05 3.668522e-05 1.1887033e-06 5.3344538e-05 1.9427383e-05 1.5131538e-06 3.0158003e-07 1.5530904e-06
5.4855267e-05 8.657949e-06 3.4276793e-05 9.206567e-07 6.7607175e-06 1.3784996e-05 3.1777585e-05 3.080451e-05

exp_avg f4 [64, 64]
00000000: 1a7d e838 c8f4 e5b8 2d20 bab7 0b1a 4538
00000010: 1d46 d3b9 7156 75b9 f308 8eb9 f8ef e2b9
00000020: f34d 1fb8 eca5 b539 e028 c038 e9a4 f9b8
00000030: a949 4a39 4310 8c39 612c deb8 04f1 00b9
00000040: 09d3 1939 36de 9339 4e87 eab8 52e1 8c38
00000050: 0cd3 c3b9 6174 e738 8979 aab8 4023 81b8
00000060: 4f22 6c39 b7fa f0b9 8925 0b39 f85d 4639
00000070: 8c7e 1eb9 5209 21b9 9ded 92b9 1444 4bb8
00000080: 8318 b6b8 068f 9bb9 0a09 5db9 7e53 47b8
00000090: 317e 00ba 1140 52b9 672e 9f39 14f6 9538
000000a0: e9df acb9 4cb5 6939 1d39 12ba 0a22 1439
000000b0: 0a88 1c39 126f b6b9 0036 8438 d433 ee39
000000c0: 8e3c 2db9 b134 c8b9 8189 2b39 9319 d539
000000d0: ab47 9538 d3ac 2b39 9ced 43b9 7373 06b8
000000e0: 0b42 f1b7 1280 c339 7f76 43b9 ab47 2a39
000000f0: 008a 45b8 1a42 9eb9 d62d a839 14ec 81b9
00000100: a4f1 d039 a089 98b9 a044 56b9 c0af db35
00000110: af07 a0ba 83e2 20ba 4b84 71ba c540 a8ba
00000120: 2329 35b9 1e9d 863a 88a8 9f39 d453 82b9
00000130: 7676 fa39 3a2f 583a 7571 98b9 a4a0 04ba
00000140: bda0 e139 d21e 523a 2595 b8b9 ac2e b538
00000150: 83ac 97ba 9fad a739 0484 21b9 6317 95b9
00000160: ef98 433a fc10 b7ba d32a ce39 af93 e439
00000170: 1d6c aab9 e541 1aba 3d4b 67ba 2eb6 c3b7
00000180: ce99 8db9 a5b2 4bba 8617 26ba 384e 9db7
00000190: a52e c0ba e89b e9b9 3228 813a 38c6 ae39
000001a0: 6338 63ba 9fc9 313a 37ff d1ba 9836 f339
000001b0: 45e7 013a 06af 8fba 0144 9c39 3c41 a33a
000001c0: af1b dcb9 ae45 8eba 3c3c 1a3a c5dc 993a
000001d0: ba9c 5839 1e59 c339 954a f2b9 7085 5c38
000001e0: 8b76 e6b8 f424 813a f6c5 12ba 8eaf be39
000001f0: 8bd4 32b9 54f4 7eba 4993 803a ee52 40ba
00000200: ae4d 463a 9ad2 16ba fa4d b7b9 6020 1738
00000210: a411 1bbb 072c a0ba e0b0 e4ba b46b 23bb
00000220: 714e a3b9 f469 023b 2b7e 153a 737e 09ba
00000230: 046d 773a ae4c d03a f5e3 16ba a2ce 75ba
00000240: 6841 5b3a ed7d cf3a 6056 30ba c498 6139
00000250: d035 12bb 99ac 253a 2170 a9b9 2097 08ba
00000260: f8af ba3a 7a2d 31bb 9fc8 473a f9f0 673a
00000270: b784 31ba 0461 8fba 32ac dfba a58e b5b8
00000280: 262b 09ba 50a2 c9ba 536f 9fba 04bb 94b8
00000290: 5545 3abb f8c8 6fba 3c49 f73a 5c6e 1e3a
000002a0: a6fb e1ba 504b aa3a 3d44 4dbb 857d 693a
000002b0: b2cc 753a 0e3f 0abb 1a31 0f3a 8dca 203b
000002c0: 97cc 59ba cae8 0bbb 30cc 913a 34c4 153b
000002d0: 3819 d439 9f60 483a babc 72ba 2236 5438
000002e0: aeef 47b9 f128 ff3a 6860 8eba 8394 443a
000002f0: 587e a9b9 56ad f4ba ecb4 f73a 3e5a b9ba
00000300: 242a 00ba a4d3 bf39 a35c 7239 2082 c4b6
00000310: 45b5 c53a 8e4b 4a3a 0bc7 913a a3f6 cf3a
00000320: 3bab 5f39 8d51 a5ba b16e bdb9 af2c a839
00000330: 1fb0 19ba 30ad 84ba f962 c039 9e74 1e3a
00000340: c3f4 0aba 3858 84ba 2fd1 e439 de2f 0ab9
00000350: 0199 ba3a 43ad d5b9 aa12 4f39 eb7a b139
00000360: 7843 6fba c5cf e13a e5a8 00ba aa4d 10ba
00000370: 304a db39 4200 393a 6f1b 8f3a 1f28 4a38
00000380: bf61 b339 7292 7d3a ff0d 4c3a faf4 0538
00000390: 42b1 ec3a 21a9 153a 0240 9eba 6ed5 ceb9
000003a0: 72dc 8d3a 8f1e 58ba 7076 023b 4988 15ba
000003b0: 4847 1fba 7307 b03a 18d3 bbb9 e649 cbba
000003c0: 1f95 093a 9eca b13a 6d43 3cba 4e0c beba
000003d0: 2bb3 86b9 cba5 f9b9 ce1c 193a da5f 4cb8
000003e0: 8cb4 fa38 c690 a0ba 8106 353a fce1 f4b9
000003f0: 3416 6239 7af8 9b3a c7e8 9dba 473b 6b3a
0.00011085924 -0.00010965165 -2.218791e-05 4.6992714e-05 -0.00040297295 -0.00023397223 -0.00027091018 -0.0004328487
-3.798115e-05 0.00034646632 9.162887e-05 -0.00011903962 0.00019291662 0.00026714997 -0.00010594051 -0.00012296817
0.00014669834 0.00028203585 -0.00011183192 6.7176894e-05 -0.0003735054 0.000110366156 -8.1288694e-05 -6.157765e-05
0.00022519495 -0.00045963164 0.00013270056 0.00018917758 -0.00015115197 -0.00015357629 -0.00028024326 -4.8462374e-05
-8.683002e-05 -0.00029670465 -0.0002107957 -4.7523055e-05 -0.00049016165 -0.00020051027 0.00030361416 7.150709e-05
-0.00032973223 0.0002228815 -0.00055779685 0.0001412706 0.00014927998 -0.000347965 6.304309e-05 0.00045433512
-0.00016521124 -0.0003818623 0.00016359055 0.0004064558 7.118223e-05 0.00016372213 -0.00018685166 -3.205561e-05
-2.8760192e-05 0.00037288718 -0.00018640792 0.00016239162 -4.7096983e-05 -0.00030185358 0.00032077607 -0.0002478069
0.00039852888 -0.00029094238 -0.00020434195 1.6367921e-06 -0.0012209321 -0.00061372685 -0.00092131336 -0.0012836686
-0.0001727683 0.0010270213 0.0003045241 -0.0002485799 0.00047771976 0.00082467834 -0.0002907623 -0.0005059338
0.00043035104 0.0008015457 -0.00035206336 8.639446e-05 -0.0011571798 0.0003198208 -0.00015403336 -0.0002843692
0.00074614485 -0.0013966854 0.00039323288 0.00043597582 -0.00032505477 -0.0005884453 -0.0008823162 -2.3330645e-05
-0.0002700821 -0.00077704556 -0.0006335903 -1.8752282e-05 -0.0014662339 -0.00044557382 0.0009853898 0.0003333555
-0.0008667765 0.0006782058 -0.0016021495 0.00046389247 0.00049554213 -0.0010962195 0.00029805306 0.0012455354
-0.00041982296 -0.0010854506 0.00058836094 0.0011738768 0.0002065775 0.00037259696 -0.00046213405 5.257636e-05
-0.00010989335 0.0009852932 -0.00055989565 0.00036370422 -0.00017054581 -0.0009725739 0.0009809519 -0.0007336576
0.0007564676 -0.0005753428 -0.00034962577 3.6031357e-05 -0.0023661638 -0.0012220152 -0.0017447732 -0.0024936022
-0.00031148226 0.0019899579 0.00057026994 -0.00052449777 0.0009438547 0.0015891993 -0.0005756014 -0.0009376799
0.00083639333 0.0015830375 -0.0006726738 0.00021514582 -0.0022309907 0.00063199695 -0.00032317734 -0.00052105077
0.0014243117 -0.0027035163 0.00076211424 0.00088478584 -0.000677179 -0.0010938947 -0.0017064868 -8.657322e-05
-0.0005232565 -0.0015383456 -0.0012163915 -7.092024e-05 -0.0028422673 -0.0009147073 0.001886643 0.00060436665
-0.0017241135 0.0012992416 -0.003132119 0.00089069485 0.000937651 -0.0021094712 0.0005462334 0.0024534792
-0.00083083793 -0.002134847 0.0011123475 0.0022852542 0.0004045458 0.0007643792 -0.000925969 5.0595154e-05
-0.00019067407 0.0019467158 -0.0010862472 0.00074989366 -0.00032328325 -0.0018667381 0.0018898523 -0.0014141274
-0.0004889092 0.00036588043 0.00023113428 -5.8564037e-06 0.001508393 0.0007716947 0.0011121941 0.001586635
0.00021330726 -0.0012612805 -0.0003613136 0.0003207675 -0.0005862731 -0.0010122415 0.00036694834 0.0006044599
-0.00053007546 -0.0010097092 0.00043643403 -0.00013178537 0.0014236273 -0.00040755616 0.00019748011 0.00033851652
-0.000912718 0.0017228058 -0.000490798 -0.0005504737 0.0004182621 0.00070572284 0.001091821 4.819792e-05
0.00034214367 0.0009673006 0.0007784068 3.1937823e-05 0.0018058198 0.0005709101 -0.0012073519 -0.000394504
0.0010823144 -0.00082442997 0.001990702 -0.0005704207 -0.00060759904 0.0013429954 -0.00035824697 -0.0015509694
0.0005248356 0.0013564413 -0.0007181678 -0.0014499517 -0.00025691962 -0.00047616506 0.0005840779 -4.872666e-05
0.000119545584 -0.0012250177 0.0006905571 -0.00046707678 0.00021561311 0.0011899613 -0.0012047522 0.00089733716

exp_avg_sq f4 [64, 64]
00000000: 94d1 5b33 79c4 d832 8c1e 0d34 f4cb 3134
00000010: 06ef 7433 1894 9f33 06f8 4234 7240 4033
00000020: d279 d033 72d1 3b33 da9e 1c33 cfac 0334
00000030: 3852 fb33 aab1 4c33 477a a932 c771 3c34
00000040: 7cbf 1532 adc5 cd33 916e 7c33 0c1c f933
00000050: 488d 5233 56e7 0c33 f138 7d33 9e6f c233
00000060: b8f6 7e33 866a 8a33 a9bd 8632 245d 0a34
00000070: 3684 1834 5876 1934 5f8d a033 c94c f233
00000080: 2f4f ed32 36ad e733 8107 b133 0b3c e533
00000090: be66 8933 a4f9 4134 9da7 c533 5a5e 1e34
000000a0: d874 2634 69bb 2e33 c4b4 0134 bb7b e632
000000b0: 8f43 c633 2317 b333 06a5 0134 7ec3 2534
000000c0: f6af b633 fa58 f133 467d fb33 d934 5433
000000d0: f90f e331 02b7 f433 e731 9333 a978 4334
000000e0: 0005 9433 d09e 2434 baa3 4f32 4387 1934
000000f0: cd0e 1f33 4c37 aa33 4bfd 5433 0da0 f632
00000100: e4e9 cb34 34b6 2434 f3ac 9e35 2b5d a935
00000110: 29c5 f534 1292 1f35 706d e435 64f4 c334
00000120: fcc2 3835 d137 b434 0e0e ad34 068b 8735
00000130: 2f3b 5b35 4feb be34 b70a 2d34 6997 d635
00000140: bfea 9233 fee8 5a35 e43f c434 4a52 6e35
00000150: 5a83 f034 9241 9a34 dc61 e934 704f 3a35
00000160: 154a 0b35 e447 1435 40ad 0334 c6a7 8535
00000170: 37cf 9e35 c3ee aa35 627f 1635 c19d 8935
00000180: cfc7 6234 f8a3 6135 4c82 0b35 19e6 6a35
00000190: 7352 0f35 bf56 af35 02fd 5235 3c0e ae35
000001a0: e11d a435 cbda b134 b285 7e35 445d 5f34
000001b0: ccbe 3235 16ec 4835 66d5 6935 d386 a235
000001c0: 4539 0835 f521 6e35 5977 6b35 3bb6 be34
000001d0: 351a 5333 b819 8135 b259 1435 ca2a d035
000001e0: 6c8b 1435 11a9 9c35 6628 ca33 14dd a235
000001f0: 1995 8d34 1141 4935 e0b6 cd34 de55 6334
00000200: b475 0136 7a3c 8735 ff58 c236 cc8d d636
00000210: 8923 0a36 e2eb 4e36 0604 0e37 dd00 df35
00000220: 5a10 7b36 7dd6 0136 91a3 ee35 5c22 a736
00000230: fcb4 9a36 e5ba 0836 fff5 6235 bbc7 0037
00000240: 6f4a af34 d9bf 8536 e56e 1736 74af a736
00000250: 0316 0136 3dc8 bc35 3d10 1f36 de83 7636
00000260: bdbf 2036 e60c 2136 79ef 1b35 a85a af36
00000270: d9e7 c436 07ae cf36 6abb 3436 7445 aa36
00000280: 81bf 8835 13ab 8f36 fce1 6236 6f35 8f36
00000290: b213 3236 2a32 fa36 389f 7736 239d d736
000002a0: e905 cc36 e65c 0336 c098 9a36 e707 8535
000002b0: 7925 7936 de0f 7736 4903 9f36 5063 cb36
000002c0: 63f9 6336 6556 9436 5ada 9836 9215 0336
000002d0: bce0 8634 1674 a036 7ff5 4336 1398 fd36
000002e0: 1e81 5136 ab82 ca36 b86a 0035 02e3 cb36
000002f0: 011d b635 2cfb 6636 115a 0d36 b594 ae35
00000300: a402 1435 4c2e 6934 87aa e935 e105 fa35
00000310: 4b8d 3535 720d 6d35 0700 2736 449a 1335
00000320: 2528 8435 5de1 0535 782b f834 4bcd c735
00000330: bb03 a135 99a7 0935 9dfe 7834 fcc3 1d36
00000340: b4c0 dd33 9f12 a035 c8fb 0835 15bb ac35
00000350: 7752 3235 9940 de34 bc98 2b35 70a0 8735
00000360: bfe4 4c35 59f8 5b35 3afe 3c34 7d09 c635
00000370: f2dd ea35 a723 fb35 f321 5b35 ce1c ca35
00000380: 1ce4 a234 b08c a835 bb99 4335 39da ad35
00000390: 9c96 5635 964d 0036 6cd0 9a35 5c20 fe35
000003a0: 62a8 f335 6d19 0035 e9a6 bd35 db27 a334
000003b0: 6c96 7e35 1e87 9335 d3d6 a935 2493 f235
000003c0: cc42 4235 1406 af35 9232 ab35 7030 1035
000003d0: 1967 9933 d2ee be35 58d7 5a35 1057 1936
000003e0: a405 5435 9b68 ea35 28f4 1734 8f3b ef35
000003f0: 43ef ca34 71ac 9435 fd18 1535 36df a434
5.118052e-08 2.5235055e-08 1.3142761e-07 1.6558607e-07 5.7028068e-08 7.4309526e-08 1.8157888e-07 4.4762096e-08
9.707914e-08 4.372982e-08 3.6466055e-08 1.2263193e-07 1.1703054e-07 4.7659036e-08 1.9729795e-08 1.7550256e-07
8.71648e-09 9.5820134e-08 5.877388e-08 1.1600068e-07 4.902293e-08 3.280669e-08 5.895794e-08 9.054132e-08
5.9363373e-08 6.445502e-08 1.56859e-08 1.2886136e-07 1.4204201e-07 1.4292289e-07 7.476296e-08 1.128297e-07
2.762644e-08 1.07882826e-07 8.24357e-08 1.0674565e-07 6.398248e-08 1.8065344e-07 9.204016e-08 1.4749222e-07
1.5502462e-07 4.068298e-08 1.2079823e-07 2.683179e-08 9.232382e-08 8.3395456e-08 1.2074096e-07 1.5437942e-07
8.5070425e-08 1.1238622e-07 1.17108854e-07 4.940816e-08 6.6083854e-09 1.1395424e-07 6.854298e-08 1.8204686e-07
6.8926965e-08 1.5331466e-07 1.2086213e-08 1.4298443e-07 3.7033534e-08 7.9263e-08 4.9590465e-08 2.8710952e-08
3.7981874e-07 1.5339975e-07 1.1822252e-06 1.2618597e-06 4.577826e-07 5.9444676e-07 1.7019174e-06 3.6499398e-07
6.882908e-07 3.3568224e-07 3.2233987e-07 1.0098745e-06 8.166998e-07 3.5561467e-07 1.6115779e-07 1.5988309e-06
6.841355e-08 8.1550377e-07 3.6554331e-07 8.8781655e-07 4.4799054e-07 2.8732444e-07 4.3470834e-07 6.9405996e-07
5.188934e-07 5.523891e-07 1.2263354e-07 9.958101e-07 1.1832225e-06 1.2735476e-06 5.606472e-07 1.0253208e-06
2.112058e-07 8.405764e-07 5.197114e-07 8.750663e-07 5.339163e-07 1.3063762e-06 7.859927e-07 1.2968153e-06
1.2227648e-06 3.3128012e-07 9.4816926e-07 2.0802423e-07 6.6587813e-07 7.4849356e-07 8.71098e-07 1.210918e-06
5.0747286e-07 8.8711323e-07 8.7717996e-07 3.5522848e-07 4.91511e-08 9.618734e-07 5.526482e-07 1.5509661e-06
5.533718e-07 1.167211e-06 9.4137064e-08 1.2134283e-06 2.637178e-07 7.497302e-07 3.8317285e-07 2.1172261e-07
1.929101e-06 1.0075885e-06 5.792011e-06 6.3942043e-06 2.0584287e-06 3.0833694e-06 8.464796e-06 1.6615046e-06
3.7411432e-06 1.9347347e-06 1.7779986e-06 4.980988e-06 4.610627e-06 2.0374366e-06 8.454953e-07 7.675898e-06
3.2650448e-07 3.986043e-06 2.2565303e-06 4.9974133e-06 1.923531e-06 1.4065369e-06 2.3702298e-06 3.6733613e-06
2.3953464e-06 2.3998377e-06 5.809048e-07 5.22596e-06 5.868246e-06 6.18934e-06 2.693118e-06 5.07448e-06
1.0188525e-06 4.2816478e-06 3.3808165e-06 4.2679526e-06 2.653553e-06 7.4564205e-06 3.6898546e-06 6.4257924e-06
6.080362e-06 1.9574595e-06 4.60734e-06 9.911572e-07 3.7125703e-06 3.6815104e-06 4.7389517e-06 6.061433e-06
3.3970798e-06 4.4208014e-06 4.5553725e-06 1.9533077e-06 2.512296e-07 4.7818858e-06 2.9200162e-06 7.5576913e-06
3.1218583e-06 6.035281e-06 4.783901e-07 6.0762986e-06 1.3568498e-06 3.4418872e-06 2.1063063e-06 1.300729e-06
5.513814e-07 2.1716659e-07 1.7409483e-06 1.8628162e-06 6.763336e-07 8.8308946e-07 2.4884955e-06 5.4986253e-07
9.84645e-07 4.987431e-07 4.6225227e-07 1.4886404e-06 1.199652e-06 5.1280364e-07 2.3189428e-07 2.35089e-06
1.0326167e-07 1.1926348e-06 5.103034e-07 1.2869447e-06 6.643017e-07 4.1397723e-07 6.392472e-07 1.0104977e-06
7.632879e-07 8.194525e-07 1.7601351e-07 1.4754911e-06 1.7498953e-06 1.8711333e-06 8.163326e-07 1.5058556e-06
3.0340823e-07 1.2557921e-06 7.286687e-07 1.2953016e-06 7.994038e-07 1.9118647e-06 1.1534553e-06 1.8933893e-06
1.8153917e-06 4.7720715e-07 1.4130175e-06 3.0390115e-07 9.4841266e-07 1.0991678e-06 1.2654003e-06 1.8073229e-06
7.2367834e-07 1.3040285e-06 1.2755211e-06 5.3714666e-07 7.143371e-08 1.4225609e-06 8.1524695e-07 2.2849454e-06
7.898436e-07 1.7464803e-06 1.4151794e-07 1.7824221e-06 3.7799518e-07 1.1077046e-06 5.554319e-07 3.0709788e-07

exp_avg f4 [64]
00000000: 450b d039 bcaa 623a 4740 ea3a f28b 91ba
00000010: 0dc6 1bba 8d9a 44ba 5e94 223a 643d 92ba
00000020: 46f6 8438 88eb 043a d405 b4b9 aa5a cf3a
00000030: 0f66 423a 5a79 56ba 1683 9e3a 74b0 293a
00000040: 97b3 5d3a b86b 88ba 3729 adba fd7c 3f39
00000050: 71c4 3f3a 7dab d6b9 c428 dd39 29df a73a
00000060: ca6d db3a f149 633a d003 f139 453b 1138
00000070: ad3d 583a 86d0 273a 24aa 273a 2630 51ba
00000080: 693f 303a 9e29 433a 5fd6 2aba 9e20 48ba
00000090: 4571 3f3a b86e 2e3a 7aa2 40ba 2111 a23a
000000a0: de02 84ba d275 013a 291d 263a 8d44 ffb9
000000b0: beed b9ba ec3a cb3a 6a7f 07ba 59dd 713a
000000c0: 630d 8d3a 986a a239 109a 853a 2973 ed39
000000d0: 69c9 ab3a fc1f c8ba 1af1 45ba 5833 d4ba
000000e0: 44ab 01ba 500e bcb9 2585 dcb9 475d d83a
000000f0: 324a ad3a e8b7 533a 5caa f03a d058 733a
0.00039681248 0.0008646657 0.0017871939 -0.0011104329 -0.00059422926 -0.00074998365 0.0006201918 -0.0011157212
6.3401225e-05 0.0005070497 -0.00034336618 0.0015819867 0.00074157206 -0.0008181535 0.001209351 0.0006473132
0.0008457242 -0.0010408079 -0.0013211136 0.00018261741 0.0007315344 -0.0004094503 0.00042182778 0.0012807596
0.0016741094 0.0008670381 0.00045969943 3.4625893e-05 0.00082489365 0.0006401617 0.00063958974 -0.0007979892
0.0006723316 0.0007444861 -0.0006516929 -0.0007634255 0.000730295 0.00066540716 -0.00073484296 0.0012364724
-0.0010071655 0.0004938516 0.00063367427 -0.00048688464 -0.0014185233 0.0015505231 -0.00051688275 0.0009226404
0.0010761436 0.00030978466 0.0010193009 0.00045289964 0.001310629 -0.0015268321 -0.00075508805 -0.0016189618
-0.000494648 -0.00035868818 -0.0004206087 0.0016507291 0.0013220964 0.00080764154 0.0018361318 0.00092829484

exp_avg_sq f4 [64]
00000000: 6b38 5335 e390 df36 3c18 0b38 2560 2537
00000010: f3f1 3736 b929 f836 c4b7 8b36 a538 3b37
00000020: 49b2 9733 08d1 bd36 e1e6 e434 4024 9a37
00000030: 6cc8 5d36 0898 5f36 41b1 4e37 a6cb 1836
00000040: f009 ad36 9e04 1f37 5742 6a37 ff4b 1935
00000050: 0ad6 8537 5001 6035 1893 dd35 480d 6637
00000060: d790 ab37 e1c4 b436 4f61 7235 dc47 0a34
00000070: a62f bb36 cebd a336 ac7d f235 ee79 fa36
00000080: e3aa 5036 de2e be36 ddd0 b836 396d 2b36
00000090: 27ed 3236 ecd4 7636 c819 9336 ce29 8b37
000000a0: d22d f036 49f6 1c36 a2b6 1836 24b8 a035
000000b0: a382 aa37 c7d1 e837 9ceb 5036 77d4 a736
000000c0: 07fd 4c37 6a0c 0436 995f 5137 5529 6235
000000d0: cae6 9e37 54f8 b637 6e9f 9836 7506 e437
000000e0: abde 0836 cb00 f934 1bc7 1836 2100 e037
000000f0: 5d8f 6037 b532 0737 e1f1 0c38 2f03 f736
7.8685724e-07 6.662785e-06 3.3162753e-05 9.857152e-06 2.7409958e-06 7.395833e-06 4.163916e-06 1.1159257e-05
7.063915e-08 5.6569734e-06 4.2636296e-07 1.837511e-05 3.3048227e-06 3.3318083e-06 1.2319827e-05 2.2768304e-06
5.1569587e-06 9.4782135e-06 1.3962933e-05 5.710753e-07 1.5954505e-05 8.344841e-07 1.6508593e-06 1.3712161e-05
2.0452235e-05 5.3873378e-06 9.029363e-07 1.2878394e-07 5.5785813e-06 4.8798747e-06 1.806698e-06 7.464775e-06
3.1093884e-06 5.6678973e-06 5.507942e-06 2.5544562e-06 2.6662108e-06 3.6780793e-06 4.3839427e-06 1.6589558e-05
7.1578916e-06 2.3389168e-06 2.2756071e-06 1.1974521e-06 2.0326412e-05 2.775424e-05 3.1131558e-06 5.001722e-06
1.221826e-05 1.9676759e-06 1.2479629e-05 8.4251707e-07 1.8942537e-05 2.1811727e-05 4.548513e-06 2.7182725e-05
2.039519e-06 4.638044e-07 2.276566e-06 2.670294e-05 1.338482e-05 8.058433e-06 3.360387e-05 7.3615442e-06

exp_avg f4 [2, 64]
00000000: 03cd aeba db15 6abb 0d63 6dbb 20ee 393b
00000010: 155c 7f3b bb73 543b a066 53ba e7ce 1a3a
00000020: 0bfc 6eba aca4 acbb d8aa adb8 5506 3fbb
00000030: 62e9 35ba b003 b9b9 a518 e5ba de56 783a
00000040: 23b5 6bbb b0d6 c63a 4e65 c8ba c1bd 673a
00000050: fe80 cabb 90c6 6a3a 162c 26bb 38f8 a4ba
00000060: 54ae b5bb 8128 aabb 5acf 9ebb 4957 db3a
00000070: 6485 f73a a186 53ba f08d d5bb 9a30 233b
00000080: 1484 93ba 4168 60bb b43b a63b 5a73 cd39
00000090: f0a3 4d38 f20d c3bb 7a11 123b b860 bbba
000000a0: 83bd 1a3b c217 78bb d631 c3bb e4f7 a039
000000b0: 988f 2c3b 0691 11bb 264b 7a3b 27d5 8cbb
000000c0: c7e0 2fbb 2c56 193a a9e9 3fbb cfd2 b8bb
000000d0: ea50 94ba 5698 0f3b 0ef5 be3b ed13 903b
000000e0: 706d 8a37 97ec 013b dd0f a13b 29f7 c6b9
000000f0: 7c77 c939 921d 70ba 241e a93a c150 8b39
00000100: 04cd ae3a d915 6a3b 0d63 6d3b 1eee 39bb
00000110: 155c 7fbb bf73 54bb 9c66 533a e7ce 1aba
00000120: 0bfc 6e3a aca4 ac3b 02ab ad38 5206 3f3b
00000130: 62e9 353a a703 b939 a618 e53a d856 78ba
00000140: 23b5 6b3b b0d6 c6ba 4f65 c83a c1bd 67ba
00000150: 0281 ca3b 90c6 6aba 162c 263b 3bf8 a43a
00000160: 53ae b53b 8028 aa3b 5acf 9e3b 4957 dbba
00000170: 6285 f7ba a186 533a ee8d d53b 9a30 23bb
00000180: 1484 933a 4268 603b b43b a6bb 4e73 cdb9
00000190: 90a4 4db8 f40d c33b 7811 12bb b660 bb3a
000001a0: 81bd 1abb c217 783b d531 c33b e8f7 a0b9
000001b0: 998f 2cbb 0491 113b 274b 7abb 27d5 8c3b
000001c0: c8e0 2f3b 2b56 19ba a9e9 3f3b d2d2 b83b
000001d0: ea50 943a 5798 0fbb 0ff5 bebb ed13 90bb
000001e0: 306e 8ab7 97ec 01bb de0f a1bb 2bf7 c639
000001f0: 7477 c9b9 911d 703a 201e a9ba bc50 8bb9
-0.0013336245 -0.0035718593 -0.003622237 0.0028370693 0.0038964797 0.0032417614 -0.00080643035 0.00059054646
-0.0009116537 -0.005268654 -8.281105e-05 -0.0029148061 -0.0006939379 -0.00035288697 -0.0017478658 0.00094733934
-0.003596612 0.0015170183 -0.001528898 0.0008840226 -0.006179928 0.000895598 -0.0025355867 -0.0012586182
-0.005544463 -0.0051928167 -0.0048464956 0.0016734387 0.0018884358 -0.00080690725 -0.0065171644 0.0024900795
-0.0011254572 -0.0034241828 0.005073035 0.0003918659 4.9028487e-05 -0.00595259 0.002228825 -0.0014295792
0.0023611493 -0.0037855958 -0.0059568686 0.0003070227 0.0026330706 -0.0022211685 0.0038191765 -0.0042978707
-0.0026836859 0.00058493274 -0.002928356 -0.0056403647 -0.0011315618 0.0021910868 0.0058275526 0.0043969066
1.6501843e-05 0.0019824856 0.004915221 -0.00037949652 0.0003842673 -0.000915968 0.0012902659 0.00026572312
0.0013336246 0.0035718589 0.003622237 -0.0028370689 -0.0038964797 -0.0032417623 0.0008064301 -0.00059054646
0.0009116537 0.005268654 8.2811355e-05 0.0029148054 0.0006939379 0.0003528867 0.0017478659 -0.000947339
0.003596612 -0.0015170183 0.0015288981 -0.0008840226 0.0061799297 -0.000895598 0.0025355867 0.0012586185
0.0055444627 0.0051928163 0.0048464956 -0.0016734387 -0.0018884356 0.00080690725 0.0065171635 -0.0024900795
0.0011254572 0.003424183 -0.005073035 -0.00039186556 -4.902907e-05 0.005952591 -0.0022288244 0.001429579
-0.0023611488 0.0037855958 0.005956868 -0.00030702283 -0.0026330708 0.002221168 -0.0038191767 0.0042978707
0.002683686 -0.0005849327 0.002928356 0.005640366 0.0011315618 -0.002191087 -0.005827553 -0.0043969066
-1.6502192e-05 -0.0019824856 -0.0049152216 0.00037949657 -0.00038426707 0.0009159679 -0.0012902655 -0.00026572298

exp_avg_sq f4 [2, 64]
00000000: 1c63 0738 2cbb ed36 4744 8237 44cd 6a37
00000010: 01e9 2f37 5a6e d237 04d3 9d36 cc2a 7c37
00000020: 8c05 5137 aa81 d937 1e9d 3c37 a9b8 0c38
00000030: 4e88 3f37 c475 be36 edec 8337 0252 2b37
00000040: dbb5 2737 37df 8537 c177 f137 6eb9 6437
00000050: 31e5 0d38 e89d 1a38 0934 8938 ee03 8337
00000060: 64b1 1338 16ce cb37 1c99 0f37 f266 db36
00000070: 2af3 1237 71c2 df37 ce93 ae37 59be 4438
00000080: 7008 e636 474c 6337 2035 2c37 7348 1c37
00000090: b745 9337 fdf9 df37 ab7c 3c38 25b3 3d36
000000a0: 258e c736 06c0 aa37 f4a8 2138 80ac a437
000000b0: 32b5 2e38 e1fa 2838 90ed 9037 79d1 ff37
000000c0: 3f58 a937 8c28 0e37 eb0e f937 7ac1 1e38
000000d0: a930 8937 0839 b036 0670 eb37 c42e 3737
000000e0: bb84 3f37 5a90 8f36 3e6d a937 0499 8b37
000000f0: 5d62 1a37 6e78 ed36 7b6a aa37 44f3 3f37
00000100: 1d63 0738 2dbb ed36 4844 8237 44cd 6a37
00000110: fee8 2f37 586e d237 04d3 9d36 cb2a 7c37
00000120: 8d05 5137 a981 d937 1f9d 3c37 a9b8 0c38
00000130: 5188 3f37 c575 be36 eeec 8337 0252 2b37
00000140: dbb5 2737 37df 8537 c377 f137 6fb9 6437
00000150: 31e5 0d38 e89d 1a38 0a34 8938 f003 8337
00000160: 64b1 1338 14ce cb37 1d99 0f37 f166 db36
00000170: 2af3 1237 73c2 df37 ce93 ae37 59be 4438
00000180: 6f08 e636 474c 6337 2035 2c37 7248 1c37
00000190: b845 9337 fef9 df37 ac7c 3c38 24b3 3d36
000001a0: 258e c736 04c0 aa37 f4a8 2138 80ac a437
000001b0: 31b5 2e38 e1fa 2838 90ed 9037 79d1 ff37
000001c0: 4058 a937 8c28 0e37 e90e f937 78c1 1e38
000001d0: ab30 8937 0839 b036 0870 eb37 c42e 3737
000001e0: bc84 3f37 5b90 8f36 3e6d a937 0599 8b37
000001f0: 5e62 1a37 6f78 ed36 7a6a aa37 44f3 3f37
3.227881e-05 7.08494e-06 1.5529002e-05 1.3995279e-05 1.0485063e-05 2.5085337e-05 4.70353e-06 1.5030335e-05
1.2458662e-05 2.5928795e-05 1.1242255e-05 3.355058e-05 1.1416223e-05 5.676151e-06 1.5726744e-05 1.0211488e-05
9.996317e-06 1.5958778e-05 2.8785204e-05 1.3633033e-05 3.383047e-05 3.6863523e-05 6.5423614e-05 1.5618247e-05
3.521274e-05 2.4295452e-05 8.559113e-06 6.538693e-06 8.758894e-06 2.6674215e-05 2.0811243e-05 4.6907317e-05
6.8555164e-06 1.3548014e-05 1.0264368e-05 9.315193e-06 1.7556229e-05 2.6700081e-05 4.49388e-05 2.826747e-06
5.94721e-06 2.0354997e-05 3.854274e-05 1.963065e-05 4.1653584e-05 4.028797e-05 1.7276761e-05 3.0495912e-05
2.0187463e-05 8.4733e-06 2.969006e-05 3.7850325e-05 1.6354332e-05 5.251848e-06 2.8066348e-05 1.09185385e-05
1.1415391e-05 4.278537e-06 2.019724e-05 1.6641345e-05 9.202017e-06 7.0771703e-06 2.0315163e-05 1.1441127e-05
3.2278815e-05 7.0849405e-06 1.5529004e-05 1.3995279e-05 1.0485061e-05 2.5085334e-05 4.70353e-06 1.5030334e-05
1.2458663e-05 2.5928794e-05 1.1242256e-05 3.355058e-05 1.1416226e-05 5.6761514e-06 1.5726746e-05 1.0211488e-05
9.996317e-06 1.5958778e-05 2.8785207e-05 1.3633034e-05 3.383047e-05 3.6863523e-05 6.542362e-05 1.561825e-05
3.521274e-05 2.4295448e-05 8.559114e-06 6.5386926e-06 8.758894e-06 2.6674219e-05 2.0811243e-05 4.6907317e-05
6.855516e-06 1.3548014e-05 1.0264368e-05 9.315192e-06 1.755623e-05 2.6700083e-05 4.4938803e-05 2.8267468e-06
5.94721e-06 2.0354993e-05 3.854274e-05 1.963065e-05 4.165358e-05 4.028797e-05 1.7276761e-05 3.0495912e-05
2.0187465e-05 8.4733e-06 2.9690056e-05 3.7850317e-05 1.6354335e-05 5.251848e-06 2.8066352e-05 1.09185385e-05
1.1415392e-05 4.2785373e-06 2.019724e-05 1.6641347e-05 9.202018e-06 7.0771707e-06 2.0315161e-05 1.1441127e-05

exp_avg f4 [2]
00000000: 352c bf3b 322c bfbb
0.0058341273 -0.005834126

exp_avg_sq f4 [2]
00000000: 6bdb 033a 6bdb 033a
0.0005029949 0.0005029949

exp_avg f4 [64, 4]
00000000: e140 1cbf fc0b 143c 4420 01bc c8dd d3bd
00000010: 1788 973d a24f 623e 401d fb3c d214 b83d
00000020: f797 e53e d705 1abc daea 4b3d f6f1 bbbd
00000030: 821b cd3d 3c35 d33c d743 0d3d 4f37 90bd
00000040: 7b7c 463e e943 023d 734a 333c 6826 713d
00000050: 489f a7be 3006 613e 9d6a 323d 65e3 0dbd
00000060: 125d d6be 4aa5 fb3e fc9f 853d dfe0 fd3d
00000070: 10fa e5bc cca2 0c3e 6ec1 d43c b424 d23d
00000080: 98cd 203f 070d f5be e0da 5fbd a8a7 00bc
00000090: e656 6c3f 13d2 9dbf 0434 6fbd 6435 80be
000000a0: 3f56 2b3f bb43 a3bd 825c 653d 2903 32be
000000b0: 6456 43bf 4e40 7e3f ba02 e1bc 091d 673e
000000c0: 1cfd 3e3f dfe8 a3bf ca28 683d fea6 67be
000000d0: 8a09 67be f2be 87be 7ef1 a4bd d3e2 71bd
000000e0: 9607 f43d 501f 80be 2ec9 3dbd 5cee 53be
000000f0: 7478 6b3e 7dec f13b 6d7a 373d 68ed 713d
00000100: a639 0abf 221a 8f3e 05bb 0c3d 2a69 0ebd
00000110: d9f8 1b3f 3f35 56be c040 d93b 522a afbd
00000120: c0c3 80bf 0064 a23e 80b3 a2bc 4330 7cbd
00000130: 8b1b 593e 3e29 f73c 2599 1c3d 83a8 37bd
00000140: caf7 3a3d be74 373f df80 dabc 5bd3 323e
00000150: 377d a73e 48be 14be 56fa 28bd d2c8 083d
00000160: bdfa 05bf ffeb 613e c294 a6bd 8330 283e
00000170: 49ea 38be 75e0 1cbe 9507 8dbc 2558 94bc
00000180: ac10 e1be 0440 9b3f 05db 333d a65a 093e
00000190: bf84 4abf 7f47 f83e 12ae d1bd fb19 513e
000001a0: 517b 79be 4ab5 38be 44d8 32bd 3df6 c4bc
000001b0: b6e5 103e 4fc0 a5be e5cd f2bc 0880 0f3d
000001c0: 143e 163f 46c2 c9bd efd1 0bbd a8d8 9b3d
000001d0: a949 153c ec2c 07be d2d8 18bb 9f11 ebbd
000001e0: eefb 02bf 342c 903f 3574 533c 92cf 793e
000001f0: c94d 013f fcfe 97bf 30dc 4fbd 833f 46be
00000200: 9271 043f 502b b7be 8b1b 7dbd 1c72 b83c
00000210: 9401 2fbf 5d03 01bf d7e7 ffbd f9fb b7bd
00000220: d079 083f 418e 31bf e70c 513c fc1e 37be
00000230: 341f 19be 0bef 333d 7f4b 703b 6840 69bd
00000240: 3652 7cbd 5e71 4a3e 0761 363d 8e4a a43e
00000250: 18aa 4d3e 8768 e73d 03fa 3b3c d496 59be
00000260: ce5c 0e3f cbd2 e2bd a4cb 023c 7e73 043e
00000270: 7042 e5be 0364 b13e 2835 51be 6ec8 603e
00000280: fa8d a5bc e751 963c d8c9 953b dd83 fcbd
00000290: 4308 19be 89a1 083e c2c6 cb3c 8e0b 8c3d
000002a0: fc5b 743c 4612 c23e 4bc0 fd3c e52a 213e
000002b0: 3205 483e 78be 653e 0778 843d 9b26 0d3d
000002c0: 34ba 89be 8db8 0dbe cb0a 8cbd eba1 383c
000002d0: f784 8ebf 0726 493f db50 513d 2854 ec3c
000002e0: 2af7 7abe e7d0 d8be 77b8 ecbc e56c 73be
000002f0: 3c6b e13d 92db 49bd 57e4 1d3c 39fc b73d
00000300: e762 1fbe ff22 ccbe 1ec9 91bd 1238 e1bc
00000310: 0c37 1abf 72f2 9c3f 399c 183d ad19 803e
00000320: c865 e1be 6052 663e 20db eabc 116f 803d
00000330: dc47 43bd eb1d a53e f012 903b 5238 1b3e
00000340: 9a23 d93e 5d13 72be 3f8f 4c3d 348c 19be
00000350: dd59 15bf e703 e7bd b68e 9bbd 55ea 123d
00000360: 4647 5cbd b7de bb3c 995f 49bc 1aeb 5a3e
00000370: 473b b5bb 67ac 6dbe 1cdf 53bd f8c8 cfbd
00000380: 1217 ed3e d2f8 903c 85d2 8d3d 7293 303e
00000390: 6c69 57be 012f 09bf c4ee b8bd 8437 fcbd
000003a0: 52a3 3cbf ecd8 a93f 402e a63d f58f 8a3e
000003b0: f589 843d 4dde 04bf 24a8 36bd 694d 72be
000003c0: 75db 033f 0c29 bdbe 4c7f 793d 7a03 0d3b
000003d0: 3c2f 1cbe 0a40 1e3f 3fdd 553d 55a7 af3e
000003e0: 8caa fa3e 829e 6bbd 83c0 1dbc ae2b 1d3e
000003f0: 6ef9 b83e 5d05 a13d 4c1d 233d 2c6d 2d3e
-0.610365 0.00903606 -0.007881228 -0.10345036 0.07399004 0.2210069 0.030653596 0.08988346
0.44842502 -0.009400806 0.04978452 -0.0917701 0.10015012 0.02578222 0.034488525 -0.07041799
0.19383423 0.031803045 0.010943043 0.058874518 -0.3273871 0.21975017 0.043558706 -0.03464069
-0.41867882 0.49149543 0.06524655 0.123964064 -0.02807334 0.13733977 0.02597114 0.10260907
0.6281371 -0.47861502 -0.054652095 -0.007852472 0.92320096 -1.2329735 -0.058399215 -0.25040734
0.66928476 -0.07971903 0.055996425 -0.17384018 -0.76303697 0.9931687 -0.02746712 0.2256967
0.74604964 -1.2805442 0.056679524 -0.22622296 -0.22562233 -0.26512867 -0.080538735 -0.059054207
0.119155094 -0.2502389 -0.046334438 -0.20696396 0.22995168 0.007382928 0.04479449 0.0590643
-0.53994215 0.27949625 0.034358043 -0.03476826 0.60926586 -0.2091875 0.0066300333 -0.08552994
-1.0059738 0.3171692 -0.019860983 -0.061569463 0.21201913 0.030171033 0.038231988 -0.04483844
0.045646466 0.7166251 -0.026672779 0.17463438 0.3271272 -0.14525712 -0.041254364 0.033394642
-0.5233572 0.22062682 -0.08133842 0.16424756 -0.18058123 -0.15319999 -0.01721553 -0.018108437
-0.43958032 1.2128911 0.043910045 0.13413486 -0.79108804 0.48492047 -0.102382794 0.20420067
-0.24363448 -0.18037906 -0.04366328 -0.024043197 0.14150128 -0.32373282 -0.029639194 0.03503421
0.58688474 -0.09851508 -0.034135755 0.07609683 0.0091118 -0.1320073 -0.0023322594 -0.1147797
-0.51165664 1.126349 0.012906124 0.24395588 0.50509316 -1.187469 -0.050747097 -0.19360165
0.51735795 -0.35775232 -0.061793845 0.02251535 -0.68361783 -0.50395757 -0.12495392 -0.08983607
0.5331087 -0.6935769 0.012759424 -0.17882913 -0.1495331 0.04392914 0.0036666093 -0.05694619
-0.06160184 0.19769809 0.044526126 0.3208813 0.20084417 0.11299234 0.011473182 -0.21248943
0.5561036 -0.11075362 0.007983122 0.12934682 -0.4477725 0.34646615 -0.20430434 0.21951458
-0.020209301 0.018349601 0.004571181 -0.123298384 -0.14944558 0.13342871 0.024875049 0.068381414
0.014914509 0.37904567 0.030975481 0.15739019 0.19533232 0.2243594 0.06468206 0.034460645
-0.26899874 -0.13839932 -0.06837996 0.011269073 -1.1134328 0.7857365 0.0511025 0.028848723
-0.24508348 -0.4234688 -0.028896553 -0.23772009 0.110067815 -0.049281664 0.00963696 0.089836545
-0.15565072 -0.3987045 -0.07118438 -0.027492557 -0.60240245 1.2261488 0.03725836 0.2501959
-0.44022965 0.22492361 -0.02866894 0.06271184 -0.047675952 0.32249388 0.004396789 0.15158203
0.42409974 -0.23640199 0.049941298 -0.1499489 -0.58340245 -0.11280041 -0.07595579 0.035868008
-0.05377891 0.022933347 -0.012290859 0.21378747 -0.005530748 -0.23210298 -0.051726446 -0.101457536
0.46306664 0.017696772 0.06924919 0.17243746 -0.21036309 -0.5358735 -0.09029916 -0.12315276
-0.7368671 1.3269324 0.0811429 0.27062955 0.06471626 -0.51901704 -0.044593945 -0.23662342
0.5150674 -0.3694538 0.060912415 0.0021516965 -0.15252393 0.61816466 0.05221295 0.34307352
0.48958242 -0.05752421 -0.009628418 0.15348694 0.361278 0.07862351 0.03982286 0.16936177
