flare-benchmarking/2g2sazec/checkpoints/epoch=26.ckpt (torch_old, 101068 bytes, 36 tensors)

exp_avg f4 [6]
0.00048753625 -0.0023060134 -0.0026800516 -0.0012932578 0.0015083863 -0.0012219433
00000000: 029c ff39 7c20 17bb cea3 2fbb 8882 a9ba
00000010: 0cb5 c53a 9d29 a0ba

exp_avg_sq f4 [6]
7.3568146e-05 0.00022376007 0.000141924 6.534822e-05 0.00014470625 0.00010991689
00000000: 9948 9a38 23a1 6a39 6fd1 1439 8f0b 8938
00000010: 4abc 1739 2e83 e638

exp_avg f4 [64, 26]
-7.336094e-05 0.0 0.0001767769 -2.2983091e-05 0.0 -1.8712037e-06 0.0 0.00013794491
-0.00024012354 0.00010144151 1.852548e-05 -2.0229336e-05 -4.4787354e-05 4.4038574e-05 0.00010577078 0.00011788976
-7.889003e-05 -0.00010210794 -0.00021663429 -0.00019568921 0.00027251983 0.0002755433 -2.953385e-05 3.382238e-05
1.1849044e-08 0.000223788 5.3311447e-05 0.0 -3.20972e-05 0.00014946521 0.0 -1.125809e-05
0.0 4.195609e-05 0.00030178524 -0.00019013233 -0.00035969014 -5.3891185e-05 -0.00032546188 5.5265897e-05
-0.000117238196 -4.2841802e-05 0.00043690356 3.1369254e-05 0.0001201836 -0.00038657695 0.000118771815 -0.00028206583
-2.0375926e-05 0.00032128007 1.8332958e-08 -0.00025259957 0.00013939849 0.0 5.1541298e-05 -0.00014380008
0.0 3.1972337e-05 0.0 -0.00014732173 0.00013804236 -0.0001319955 -0.00046122912 -0.00022076993
-0.00040727388 0.00010408318 -0.0002711202 -0.00015334244 9.546599e-05 -0.00040475267 -0.00014540578 0.0003927415
-0.00029598482 0.00019859547 0.00017626991 0.00040312615 -1.494435e-08 -0.00032077677 -4.958415e-06 0.0
0.00016169541 -0.00018443991 0.0 0.00016553926 0.0 0.00020176129 -0.00018760184 -0.00028881003
-0.00035010054 -0.0001061879 0.00034506223 -2.361946e-05 -7.796221e-05 -0.00041125965 0.00014638137 0.00035139057
-0.00020888672 -0.00082148495 0.00020319363 7.504282e-05 -0.00020296554 0.00047502908 4.122009e-08 -0.00022309071
5.018018e-06 0.0 2.9377106e-05 -0.00011946045 0.0 -5.119547e-05 0.0 8.569014e-05
-7.374356e-05 -0.00062055833 0.00014312843 -0.00029937268 0.00041023444 0.0002494209 0.00015944766 0.0003081283
0.00018695359 -7.321191e-05 -0.00022235657 6.7388675e-05 0.00028826442 0.00012169053 -0.00021685753 -6.762365e-05
6.881131e-08 -0.00010642342 -5.2935666e-05 0.0 -5.3150943e-05 6.991199e-05 0.0 9.724695e-05
0.0 8.544786e-05 0.00027760555 -5.4393033e-05 8.237138e-06 -0.0002433827 -0.00028332116 0.00047981963
0.00011416997 8.844746e-05 -1.20940995e-05 0.0002933905 1.5253076e-05 0.00011115163 -0.0001682221 -0.00021931749
-0.00021200777 -0.00026339758 -6.122977e-08 -8.694103e-05 0.00024551473 0.0 -0.0009077775 -0.0002709487
0.0 2.5138805e-05 0.0 -0.00031760603 -5.078711e-05 -0.00021936542 0.0007288035 -0.00021969179
0.00030728398 -0.00046290577 -0.0008250168 -6.347413e-05 -0.00038045563 3.4704888e-06 0.00037914538 -0.0007422289
-0.000717973 -0.0006809812 5.180297e-05 -3.111249e-05 -1.25244e-08 -0.00017152836 9.467094e-05 0.0
-0.00024464092 -5.551759e-05 0.0 -3.0437e-06 0.0 -8.7752946e-05 -0.00032298936 -4.874219e-05
0.00013343198 -1.25174365e-05 0.00013692467 0.00015894939 -0.00027596214 -0.0003875318 8.6273154e-05 0.0001229266
2.2691647e-05 4.8769457e-06 6.621738e-05 -0.00018951441 0.00018181723 -0.000106837644 -7.077332e-09 -4.2635e-06
0.00013928315 0.0 -0.00020494763 1.1750225e-05 0.0 -7.054867e-05 0.0 -0.0001880993
0.00013722322 1.9505185e-05 -8.6375476e-05 0.00013112935 -0.00031582313 -0.00039939018 -0.00018392153 7.1236005e-05
-0.0005018766 0.00026642624 0.00016695431 -4.26447e-05 -0.00036679753 2.6343618e-05 -0.00032057794 -0.00018133194
-5.1644623e-08 -0.00018667014 0.00031442117 0.0 -0.0013934028 -0.0002404423 0.0 8.3495695e-05
0.0 -0.00040526548 -0.00070637354 0.00011757445 0.0014720765 0.00013923453 0.0006178207 -0.00013245558
-0.0010943427 5.9045797e-05 -0.0011266436 -3.287237e-05 0.00040696858 -0.00060175353 -0.0011395578 -0.00033525334
00000000: 5bd9 99b8 0000 0000 305d 3939 d0cb c0b7
00000010: 0000 0000 1226 fbb5 0000 0000 4ea5 1039
00000020: acc9 7bb9 ffbc d438 2a67 9b37 2bb2 a9b7
00000030: 0eda 3bb8 0fb6 3838 41d1 dd38 953b f738
00000040: c371 a5b8 c822 d6b8 5328 63b9 ec31 4db9
00000050: fee0 8e39 cc76 9039 76bf f7b7 81dc 0d38
00000060: a690 4b32 a2a8 6a39 bb9a 5f38 0000 0000
00000070: 1ba0 06b8 c3b9 1c39 0000 0000 21e1 3cb7
00000080: 0000 0000 02fa 2f38 ee38 9e39 425e 47b9
00000090: cb94 bcb9 3809 62b8 c1a2 aab9 4ecd 6738
000000a0: c7dd f5b8 09b1 33b8 3410 e539 7b92 0338
000000b0: 140b fc38 7bad cab9 2215 f938 3ce2 93b9
000000c0: f8ec aab7 7b71 a839 9a7a 9d32 576f 84b9
000000d0: 7f2b 1239 0000 0000 0c2e 5838 0ac9 16b9
000000e0: 0000 0000 091a 0638 0000 0000 607a 1ab9
000000f0: 77bf 1039 4668 0ab9 20d1 f1b9 7a7e 67b9
00000100: 6087 d5b9 3b47 da38 2325 8eb9 8cca 20b9
00000110: ea34 c838 fc34 d4b9 1178 18b9 dfe8 cd39
00000120: 692e 9bb9 113e 5039 18d5 3839 ad5a d339
00000130: f95e 80b2 ee2d a8b9 7660 a6b6 0000 0000
00000140: c88c 2939 3666 41b9 0000 0000 9b94 2d39
00000150: 0000 0000 e28f 5339 fcb6 44b9 6d6b 97b9
00000160: b38d b7b9 32b1 deb8 78e9 b439 6722 c6b7
00000170: a57f a3b8 569e d7b9 f37d 1939 d83a b839
00000180: 9a08 5bb9 ec58 57ba 6010 5539 4f60 9d38
00000190: 26d3 54b9 530d f939 f809 3133 75ed 69b9
000001a0: 7260 a836 0000 0000 db6e f637 d786 fab8
000001b0: 0000 0000 b8ba 56b8 0000 0000 8bb4 b338
000001c0: c6a6 9ab8 f7ac 22ba bf14 1639 1ff5 9cb9
000001d0: bc14 d739 b5c4 8239 6831 2739 488c a139
000001e0: f908 4439 5889 99b8 6328 69b9 0553 8d38
000001f0: 3222 9739 1b34 ff38 4064 63b9 2cd1 8db8
00000200: 6bc5 9333 a32f dfb8 3d07 5eb8 0000 0000
00000210: 64ee 5eb8 b79d 9238 0000 0000 0ff1 cb38
00000220: 0000 0000 7832 b338 968b 9139 1324 64b8
00000230: 3d32 0a37 8c34 7fb9 b98a 94b9 4d90 fb39
00000240: 896e ef38 de7c b938 c3e7 4ab7 35d2 9939
00000250: 76e7 7f37 141a e938 c764 30b9 97f8 65b9
00000260: 674e 5eb9 a018 8ab9 6c7d 83b3 1c54 b6b8
00000270: 6eb8 8039 0000 0000 ebf7 6dba 1e0e 8eb9
00000280: 0000 0000 2ce1 d237 0000 0000 5c84 a6b9
00000290: 3e04 55b8 7505 66b9 2d0d 3f3a 115d 66b9
000002a0: f51a a139 29b2 f2b9 f145 58ba 6a1d 85b8
000002b0: e477 c7b9 8be6 6836 08c8 c639 2392 42ba
000002c0: 5a36 3cba e083 32ba 0447 5938 c87e 02b8
000002d0: e52a 57b2 4bdc 33b9 138a c638 0000 0000
000002e0: 2643 80b9 8fdb 68b8 0000 0000 5e42 4cb6
000002f0: 0000 0000 0108 b8b8 e656 a9b9 8770 4cb8
00000300: e0e9 0b39 fb01 52b7 7093 0f39 a7ab 2639
00000310: 03af 90b9 a32d cbb9 8ced b438 dce5 0039
00000320: f159 be37 a5a4 a336 2fde 8a38 63b8 46b9
00000330: 31a6 3e39 060e e0b8 df2c f3b1 300f 8fb6
00000340: 890c 1239 0000 0000 36e7 56b9 d522 4537
00000350: 0000 0000 87f3 93b8 0000 0000 853c 45b9
00000360: 94e3 0f39 119f a337 7b24 b5b8 c47f 0939
00000370: 1095 a5b9 3e65 d1b9 0fdb 40b9 8a64 9538
00000380: 5e90 03ba 20af 8b39 7510 2f39 66dd 32b8
00000390: bb4e c0b9 7dfc dc37 3e13 a8b9 ec23 3eb9
000003a0: ddcf 5db3 e2bc 43b9 e5d8 a439 0000 0000
000003b0: d7a2 b6ba 3d1f 7cb9 0000 0000 691a af38
000003c0: 0000 0000 d079 d4b9 ed2b 39ba 4d92 f638
000003d0: b1f2 c03a 7cff 1139 3ff5 213a c6e3 0ab9
000003e0: 0c70 8fba f1a7 7738 e3ab 93ba 70e0 09b8
000003f0: 665e d539 ffbe 1dba 375d 95ba f1c4 afb9

exp_avg_sq f4 [64, 26]
1.6129621e-07 0.0 8.0706576e-07 1.3020788e-08 0.0 1.684645e-08 0.0 9.658353e-08
4.8147194e-07 3.7379756e-08 5.3523837e-07 9.635345e-08 3.8756167e-07 8.3141146e-08 7.0155795e-07 7.4814366e-08
6.7004135e-07 2.7039962e-07 5.457087e-07 2.422652e-07 6.949406e-07 1.837549e-07 2.0330393e-07 6.112204e-07
1.3943817e-08 6.436819e-08 5.265628e-07 0.0 2.6424154e-06 4.0440845e-08 0.0 5.537923e-08
0.0 3.267847e-07 1.4655124e-06 1.0468211e-07 1.6475032e-06 1.4521912e-07 1.4863116e-06 3.1269767e-07
2.2675663e-06 2.5908426e-07 2.1455685e-06 1.0532783e-06 1.8398857e-06 7.970833e-07 2.24494e-06 7.737735e-07
6.2794896e-07 2.1114922e-06 8.15108e-08 3.0115658e-07 1.056381e-06 0.0 5.4211714e-06 7.33122e-08
0.0 5.360939e-08 0.0 6.1927756e-07 2.7844007e-06 1.7533034e-07 3.5095368e-06 3.3285943e-07
2.5337636e-06 3.5241484e-07 4.6247656e-06 2.6019455e-07 4.5181323e-06 1.0838495e-06 2.8187744e-06 1.0348746e-06
4.504331e-06 1.0671235e-06 1.1206167e-06 4.5237753e-06 4.3631488e-08 3.004181e-07 9.4890805e-07 0.0
4.9001883e-06 5.8764723e-08 0.0 8.616601e-08 0.0 5.5058285e-07 2.357445e-06 1.8110347e-07
3.1338477e-06 1.9177946e-07 2.1897376e-06 4.3066575e-07 4.215157e-06 3.2828763e-07 3.96125e-06 1.1068929e-06
2.5433017e-06 8.4401813e-07 3.9431266e-06 8.8182554e-07 1.274715e-06 3.8761705e-06 4.313386e-08 2.844053e-07
2.7047765e-06 0.0 1.3046825e-05 8.225027e-08 0.0 1.3824226e-07 0.0 1.4032515e-06
7.322854e-06 3.5442704e-07 8.50764e-06 5.036515e-07 3.4095542e-06 7.391491e-07 1.1640155e-05 6.276708e-07
1.1121359e-05 2.533555e-06 5.980462e-06 1.5857809e-06 1.1276843e-05 2.3603066e-06 3.2098087e-06 1.028335e-05
1.14745426e-07 4.1810333e-07 1.1796066e-06 0.0 5.781291e-06 2.9498635e-08 0.0 4.819139e-08
0.0 5.942781e-07 3.529375e-06 1.2901818e-07 4.2863358e-06 2.5175405e-07 1.8944044e-06 3.0477761e-07
5.0400035e-06 3.3749296e-07 4.9205746e-06 1.196337e-06 4.297013e-06 7.338022e-07 5.072656e-06 1.0313911e-06
1.0497134e-06 4.6343666e-06 5.1452503e-08 2.3065444e-07 2.1269116e-06 0.0 1.0375842e-05 7.502057e-08
0.0 1.0076251e-07 0.0 1.1103543e-06 5.407284e-06 2.0824906e-07 6.7368437e-06 3.142659e-07
2.7640513e-06 4.6362095e-07 9.198538e-06 3.4170188e-07 8.768003e-06 1.2886454e-06 4.9062087e-06 7.831904e-07
8.800965e-06 1.8877125e-06 2.4770159e-06 8.36838e-06 5.7944277e-08 2.9408486e-07 5.2719145e-07 0.0
2.821852e-06 2.2557833e-08 0.0 3.4823923e-08 0.0 3.275195e-07 1.3860961e-06 7.398094e-08
1.8785754e-06 1.231401e-07 1.0642616e-06 2.1192862e-07 2.4118776e-06 2.4527102e-07 2.2280224e-06 9.507592e-07
1.889187e-06 6.399762e-07 2.3159946e-06 6.640892e-07 6.01595e-07 2.2515005e-06 3.5100104e-08 9.28317e-08
5.827736e-07 0.0 2.967535e-06 2.4968775e-08 0.0 3.6521996e-08 0.0 3.3903035e-07
1.5629931e-06 7.311529e-08 2.112311e-06 1.439061e-07 1.0853129e-06 2.1475134e-07 2.5318618e-06 1.8784085e-07
2.3949615e-06 6.804876e-07 1.696695e-06 4.6391162e-07 2.5431648e-06 5.5559514e-07 7.062636e-07 2.3586704e-06
4.165815e-08 2.5331934e-07 8.2563866e-07 0.0 4.0149844e-06 3.3178203e-08 0.0 6.4963345e-08
0.0 4.5770688e-07 1.9512504e-06 9.002553e-08 2.371258e-06 1.7650504e-07 1.2093394e-06 2.5341365e-07
3.4912175e-06 1.4907333e-07 3.5054293e-06 5.460185e-07 1.9639597e-06 5.6741357e-07 3.4312968e-06 7.1310706e-07
00000000: c430 2d34 0000 0000 23a5 5835 08b2 5f32
00000010: 0000 0000 bcb5 9032 0000 0000 5b69 cf33
00000020: 803e 0135 7a8b 2033 4dad 0f35 dfea ce33
00000030: 1212 d034 548b b233 b252 3c35 a2a9 a033
00000040: e4dc 3335 712b 9134 d17c 1235 ad10 8234
00000050: f48b 3a35 2a4e 4534 c24b 5a34 bf12 2435
00000060: 8e8d 6f32 c93a 8a33 1f59 0d35 0000 0000
00000070: 5a54 3136 2eb1 2d33 0000 0000 1bda 6d33
00000080: 0000 0000 f270 af34 9fb2 c435 99cd e033
00000090: c71f dd35 87ed 1b34 477d c735 d7e0 a734
000000a0: 7e2c 1836 4518 8b34 96fc 0f36 5e5e 8d35
000000b0: fef1 f635 26f7 5535 c7a7 1636 4fb5 4f35
000000c0: 5390 2835 29b3 0d36 090b af33 a5ae a134
000000d0: fac8 8d35 0000 0000 82e7 b536 cf6f 9d33
000000e0: 0000 0000 2640 6633 0000 0000 6e3c 2635
000000f0: a4db 3a36 7042 3c34 6285 6b36 dab3 b234
00000100: ba09 2a36 8733 bd34 6f2e 9b36 deb0 8b34
00000110: 769a 9736 c978 9135 2d2a 3d36 05e6 8a35
00000120: e923 9736 163a 8f35 1968 9635 efca 9736
00000130: 5465 3b33 2649 a134 77b8 7e35 0000 0000
00000140: 4c6c a436 7f64 7c33 0000 0000 440a b933
00000150: 0000 0000 c4cb 1335 9934 1e36 5875 4234
00000160: 184f 5236 f0eb 4d34 68f3 1236 4036 e734
00000170: ec6f 8d36 823f b034 e1ea 8436 8d90 9435
00000180: 97ad 2a36 7c90 6235 334f 8436 97b6 6c35
00000190: e016 ab35 0d10 8236 2e42 3933 5eb0 9834
000001a0: b583 3536 0000 0000 b0e3 5a37 90a1 b033
000001b0: 0000 0000 be6f 1434 0000 0000 5b57 bc35
000001c0: d6b6 f536 1548 be34 09bc 0e37 ab32 0735
000001d0: b2cf 6436 f069 4635 164a 4337 357d 2835
000001e0: e095 3a37 2506 2a36 c7ab c836 04d7 d435
000001f0: ac31 3d37 c265 1e36 1868 5736 a786 2c37
00000200: f769 f633 af77 e034 f952 9e35 0000 0000
00000210: e9fc c136 2f64 fd32 0000 0000 fefa 4e33
00000220: 0000 0000 7b86 1f35 33da 6c36 3f88 0a34
00000230: 58d3 8f36 d028 8734 3d43 fe35 51a0 a334
00000240: 4d1d a936 ae30 b534 6a1b a536 d491 a035
00000250: 102f 9036 81fa 4435 c935 aa36 546e 8a35
00000260: e1e3 8c35 e880 9b36 a0fc 5c33 cfa9 7734
00000270: 10bc 0e36 0000 0000 e713 2e37 ff1a a133
00000280: 0000 0000 c762 d833 0000 0000 7c07 9535
00000290: 3770 b536 119b 5f34 0c0d e236 60b8 a834
000002a0: 0a7e 3936 94e7 f834 6b53 1a37 2673 b734
000002b0: 491a 1337 85f5 ac35 03a0 a436 6f3c 5235
000002c0: dba7 1337 4f5d fd35 cf3a 2636 eb65 0c37
000002d0: 68de 7833 b7e2 9d34 5284 0d35 0000 0000
000002e0: 0c5f 3d36 33c5 c132 0000 0000 4f91 1533
000002f0: 0000 0000 f0d5 af34 e609 ba35 74df 9e33
00000300: 5c23 fc35 7e38 0434 c0d7 8e35 7f8e 6334
00000310: bedb 2136 cbad 8334 2285 1536 ad37 7f35
00000320: f98f fd35 d4ca 2b35 7c6c 1b36 dd43 3235
00000330: 4b7d 2135 7c18 1736 f9c0 1633 c45a c733
00000340: e66f 1c35 0000 0000 dd25 4736 eb7a d632
00000350: 0000 0000 5cdc 1c33 0000 0000 fa03 b634
00000360: 09c8 d135 8e03 9d33 3ac1 0d36 9c84 1a34
00000370: 11ab 9135 6696 6634 0ee9 2936 4db1 4934
00000380: 20b9 2036 c0aa 3635 ffb9 e335 870f f934
00000390: 3dab 2a36 3524 1535 1196 3d35 a649 1e36
000003a0: 9feb 3233 f2ff 8734 75a1 5d35 0000 0000
000003b0: 74b8 8636 d27f 0e33 0000 0000 fa81 8b33
000003c0: 0000 0000 c1ba f534 3af2 0236 0f54 c133
000003d0: e721 1f36 5685 3d34 9650 a235 e80c 8834
000003e0: a94a 6a36 f710 2034 d13e 6b36 1b92 1235
000003f0: 92cc 0336 5d50 1835 3b45 6636 586c 3f35

exp_avg f4 [64]
0.00017677665 -3.2096796e-05 5.1541123e-05 0.0001616954 2.937593e-05 -5.3150427e-05 -0.0009077763 -0.00024464095
-0.00020494865 -0.0013934023 0.00024700412 -0.0001890684 -0.00018425002 -0.00061672064 -4.6700356e-05 6.433031e-05
-3.6640486e-05 -0.00020934956 -2.026823e-05 -6.377057e-05 0.000120105055 6.5612825e-05 -2.8621065e-05 -6.745008e-05
-0.00038913492 0.0003055083 -0.0005165383 0.00020158912 0.0008138358 0.00021012149 0.00014373365 0.000107613756
5.5517417e-06 -5.7112182e-05 0.00024612914 7.226903e-05 0.00010347896 0.00026972123 -0.00044057795 -0.00021158818
-0.00014143005 0.0003177814 0.00017765112 -1.3644754e-05 9.3009454e-05 -0.00010304559 -5.364949e-05 8.6888715e-05
-2.5052092e-05 2.452861e-05 -3.846015e-05 -0.00028548387 -5.8487105e-05 -6.695125e-05 2.6963497e-05 -0.0002759501
-0.00017832995 0.00013657853 0.0004718703 0.0002890673 0.00025774952 0.00029141028 6.525622e-05 -0.00031361604
00000000: 1f5d 3939 ac9f 06b8 dc2d 5838 c78c 2939
00000010: 546c f637 d6ed 5eb8 d6f7 6dba 2743 80b9
00000020: 7ce7 56b9 d3a2 b6ba 5580 8139 aa40 46b9
00000030: 3d33 41b9 6cab 21ba 20e0 43b8 12e9 8638
00000040: 6cae 19b8 d884 5bb9 b105 aab7 90bc 85b8
00000050: e9e0 fb38 9e99 8938 4517 f0b7 fc73 8db8
00000060: ce04 ccb9 a12c a039 4c68 07ba ab61 5339
00000070: 9957 553a 0f54 5c39 35b7 1639 b2ae e138
00000080: 1949 ba36 bd8b 6fb8 e50a 8139 248f 9738
00000090: d802 d938 5f69 8d39 5ffd e6b9 c5dd 5db9
000000a0: d74c 14b9 e69b a639 dc47 3a39 c6eb 64b7
000000b0: 120e c338 2e1a d8b8 b405 61b8 0638 b638
000000c0: f526 d2b7 cac2 cd37 4650 21b8 ffac 95b9
000000d0: 0d50 75b8 2e68 8cb8 ab2f e237 65ad 90b9
000000e0: 15fe 3ab9 8536 0f39 5c65 f739 f58d 9739
000000f0: 8e22 8739 6dc8 9839 2bda 8838 d56c a4b9

exp_avg_sq f4 [64]
8.070656e-07 2.642416e-06 5.421169e-06 4.900189e-06 1.3046824e-05 5.7812886e-06 1.0375838e-05 2.8218506e-06
2.9675346e-06 4.0149844e-06 1.9774272e-06 1.4592538e-05 1.0509332e-05 1.0073059e-05 5.2659607e-06 3.6512326e-06
2.2254878e-06 9.200209e-06 2.4481628e-06 3.4744728e-06 4.2110873e-06 1.7106281e-06 1.5912129e-06 1.2350156e-05
7.7277045e-06 4.3225045e-06 5.2052615e-06 5.4030625e-06 7.318679e-06 4.0329255e-06 1.9721692e-06 3.537053e-06
2.362838e-06 2.6379703e-06 1.9693787e-05 3.4056882e-06 8.365844e-06 2.6267942e-06 7.5737553e-06 5.8357964e-06
7.242916e-06 9.0358235e-06 6.836036e-07 8.288179e-06 2.2977322e-06 1.4431857e-06 1.70122e-05 5.580084e-06
4.697424e-06 1.4244893e-05 3.9746947e-06 1.1455571e-06 5.1127387e-07 6.2195463e-06 1.525545e-06 8.097966e-06
1.6898837e-05 1.0650121e-05 2.1945698e-05 5.083724e-06 2.9512134e-06 5.17797e-06 6.109384e-06 7.4286013e-06
00000000: 20a5 5835 5c54 3136 7de7 b536 4e6c a436
00000010: afe3 5a37 e4fc c136 e313 2e37 065f 3d36
00000020: db25 4736 74b8 8636 f1b3 0436 79d2 7437
00000030: 3d51 3037 75ff 2837 42b2 b036 b307 7536
00000040: 9759 1536 995a 1a37 1e4b 2436 fd2a 6936
00000050: f74c 8d36 bc98 e535 a991 d535 8433 4f37
00000060: 3da6 0137 080a 9136 dba8 ae36 f44b b536
00000070: f992 f536 9152 8736 9c59 0436 1c5e 6d36
00000080: 3f91 1e36 fc07 3136 1634 a537 478d 6436
00000090: 075b 0c37 fb47 3036 1022 fe36 1cd1 c336
000000a0: 2d08 f336 9198 1737 e280 3735 750d 0b37
000000b0: bd32 1a36 7cb3 c135 6cb5 8e37 8e3c bb36
000000c0: 919e 9d36 59fd 6e37 5e5e 8536 0bc1 9935
000000d0: 793e 0935 7fb1 d036 54c1 cc35 80dc 0737
000000e0: fac1 8d37 ecad 3237 0718 b837 db94 aa36
000000f0: 760d 4636 6cbe ad36 35ff cc36 3343 f936

exp_avg f4 [32, 64]
3.5199304e-05 0.0003559074 0.00030302905 0.0001434632 -0.00018288827 -5.5176493e-05 0.00023804451 7.281466e-05
-0.0003908693 7.040629e-05 -2.1086144e-05 -0.00017254025 -1.6111237e-05 9.879469e-05 -7.75808e-05 -4.3160308e-05
-5.5896184e-05 -4.177856e-05 9.665079e-06 5.5747314e-05 0.0001762887 7.591927e-05 -7.817861e-05 -6.391458e-05
-0.00027171694 -0.00013039437 -0.00031516433 9.589358e-05 1.6880522e-05 -0.00010651143 -0.00035814478 0.00029749083
-7.967758e-05 0.0001559694 -6.386176e-06 0.00015186219 -0.0001322851 4.5748868e-05 -0.00029454954 -1.2702609e-05
-0.0001443857 -0.00013562187 -0.00022958036 -0.000187514 0.00031985962 0.00019578637 4.382814e-05 0.00022488323
0.00014306743 8.227211e-05 -0.00012387118 0.0001961029 4.3453045e-05 0.000111383 -9.746359e-05 -9.028985e-05
-7.6523436e-05 9.7265845e-05 -0.00013304374 -0.00023401613 0.0002124473 0.00027863588 3.991809e-05 -0.00011959304
0.00030653368 2.927808e-05 -0.00025706596 -0.00045847826 0.00021121424 1.29582195e-05 -0.0002451529 0.00015110464
4.502756e-05 9.150719e-05 0.00044020824 0.00015982434 -5.771734e-05 0.00016665868 4.2183725e-05 6.443598e-05
-0.000103862476 -4.3200045e-05 -0.0004273321 -0.00013804591 -5.2919615e-05 0.000276466 0.00010202588 4.6385694e-06
0.0001432181 9.995412e-06 8.6339816e-05 -0.00015013627 2.7804157e-05 0.00019968793 -1.178202e-05 -0.000116521165
0.0003258119 -3.5124e-05 -7.839268e-05 4.7084908e-05 -0.00014365968 -8.969719e-05 0.00020835672 0.00016357568
-0.00021132521 0.00019537468 -0.00019956051 5.477028e-05 -1.3044725e-05 -0.00044855458 0.00019544105 -6.7200235e-05
-0.00012418393 6.8497284e-05 -1.402133e-05 0.000162483 -0.00020329865 -9.45506e-05 -0.00018461427 3.0249277e-05
-5.4397096e-05 -2.7184898e-05 7.709428e-05 0.00014542018 0.00011104433 -0.00011551702 -5.2534826e-05 2.5031071e-05
-0.00014482114 -0.00013839976 -2.1084103e-05 6.383031e-05 0.000111519716 -1.0193848e-05 -0.00022561685 -4.932851e-05
5.2604108e-05 -0.00031758618 -7.4252086e-05 -5.7949313e-05 6.290978e-05 -7.1250266e-05 3.4662912e-06 1.2179534e-05
0.000108319124 0.00024712016 2.0805825e-05 -2.8569388e-05 -4.152508e-05 -6.703407e-05 -7.702962e-05 -3.3677006e-05
-1.2196853e-05 2.416019e-05 0.00017697898 5.2775646e-05 -0.00025666208 -8.163989e-05 0.00013101175 -0.00013287857
-7.3403964e-05 -0.00013381733 7.513713e-05 2.6689826e-05 3.708815e-05 -0.00012662898 9.4795705e-06 -4.964164e-05
0.00013618052 -0.000117218515 0.0001313031 5.1442086e-05 0.00014296001 -2.7660906e-05 -0.00025334206 0.000112286914
-6.8819354e-05 4.584262e-05 9.684332e-05 1.0037211e-05 0.00016789009 0.00010368148 8.0791055e-05 0.0001339308
2.1485976e-05 -1.0981031e-05 4.2159834e-05 -9.028414e-05 -0.00023541469 9.25223e-05 -3.1512078e-05 3.3649547e-05
5.5865174e-05 0.00010658774 8.4798085e-05 -0.0001154475 -0.00012704288 -0.00011151968 -0.00014618122 -0.00019065556
-0.00041760982 -0.00014865302 0.00034183537 7.0824215e-05 -0.00027879624 -0.000194091 0.00014105534 -1.3078772e-05
-0.00010353986 4.4896233e-06 -0.0002721721 -7.1592774e-05 -8.096275e-05 0.0001906231 -5.1968385e-07 9.9094046e-05
5.2340834e-05 -0.00015326276 0.00018965376 -0.00035406518 -0.00022705371 9.977297e-05 -0.00023985427 9.8889e-05
0.00021056479 -5.85843e-05 -0.00018872185 -1.324461e-05 -0.00012742075 0.00017115616 2.8848184e-05 8.321654e-05
-0.00039509145 0.00015519616 4.330736e-05 4.014387e-05 0.00010357811 -3.9952207e-05 -0.00012438318 -0.00012215297
-8.638432e-05 2.771907e-05 -2.8383965e-05 0.0006538179 -0.00016468078 0.0002357963 -0.0002889812 3.4586636e-05
-0.00021391752 7.912548e-05 0.0001383837 0.0004513843 -0.00023343721 -6.3566615e-05 0.00016605078 0.00021726813
00000000: f7a2 1338 1599 ba39 dfdf 9e39 9c6e 1639
00000010: b2c5 3fb9 4f6d 67b8 969b 7939 13b4 9838
00000020: 97ed ccb9 17a7 9338 26e2 b0b7 eceb 34b9
00000030: 9e26 87b7 ff2f cf38 e0b2 a2b8 0707 35b8
00000040: 1272 6ab8 633b 2fb8 3327 2237 39d2 6938
00000050: 23da 3839 d936 9f38 d2f3 a3b8 e109 86b8
00000060: 3b75 8eb9 79ba 08b9 a43c a5b9 791a c938
00000070: a59a 8d37 e35e dfb8 61c5 bbb9 8bf8 9b39
00000080: 9318 a7b8 b88b 2339 d648 d6b6 323d 1f39
00000090: 03b6 0ab9 79e2 3f38 c56d 9ab9 4a1d 55b7
000000a0: 3e66 17b9 b835 0eb9 82bb 70b9 689f 44b9
000000b0: d5b2 a739 014c 4d39 1bd4 3738 a2ce 6b39
000000c0: 5f04 1639 8189 ac38 6be3 01b9 f9a0 4d39
000000d0: 5a41 3638 4b96 e938 5e65 ccb8 fe59 bdb8
000000e0: 357b a0b8 34fb cb38 a881 0bb9 3a62 75b9
000000f0: 63c4 5e39 e015 9239 b96d 2738 06ce fab8
00000100: 41b6 a039 339a f537 cfc6 86b9 e95f f0b9
00000110: 6479 5d39 2167 5937 de87 80b9 d871 1e39
00000120: f9db 3c38 8ce7 bf38 c0cb e639 8596 2739
00000130: 8615 72b8 19c1 2e39 6eee 3038 ce21 8738
00000140: bed0 d9b8 b231 35b8 8b0b e0b9 6bc0 10b9
00000150: 01f6 5db8 a3f2 9039 baf6 d538 02a5 9b36
00000160: d12c 1639 f8b1 2737 5611 b538 e66d 1db9
00000170: f93c e937 5263 5139 64ab 45b7 d35c f4b8
00000180: bcd1 aa39 1c52 13b8 c066 a4b8 097d 4538
00000190: 5aa3 16b9 d01b bcb8 557a 5a39 8385 2b39
000001a0: 2e97 5db9 7edd 4c39 1e41 51b9 24b9 6538
000001b0: abda 5ab7 fa2b ebb9 4fef 4c39 daed 8cb8
000001c0: 5f37 02b9 33a6 8f38 273d 6bb7 3360 2a39
000001d0: 912c 55b9 7849 c6b8 0495 41b9 d4bf fd37
000001e0: 7028 64b8 200b e4b7 adad a138 ef7b 1839
000001f0: 79e0 e838 ba41 f2b8 d758 5cb8 d1f9 d137
00000200: 21db 17b9 671f 11b9 c4dd b0b7 a3dc 8538
00000210: b1df e938 3e06 2bb7 9093 6cb9 16e6 4eb8
00000220: 3ba3 5c38 b281 a6b9 c9b7 9bb8 9a0e 73b8
00000230: 6eee 8338 326c 95b8 6e9e 6836 b356 4c37
00000240: 6329 e338 e88f 8139 2b88 ae37 4ba8 efb7
00000250: 372b 2eb8 a494 8cb8 f68a a1b8 6940 0db8
00000260: 16a1 4cb7 9dab ca37 6f93 3939 6b5b 5d38
00000270: 9a90 86b9 1536 abb8 3360 0939 5255 0bb9
00000280: 74f0 99b8 5151 0cb9 f192 9d38 f7e3 df37
00000290: 198f 1b38 b5c7 04b9 720a 1f37 4e36 50b8
000002a0: aecb 0e39 36d3 f5b8 68ae 0939 85c3 5738
000002b0: 89e7 1539 5809 e8b7 ffd2 84b9 947b eb38
000002c0: 1c53 90b8 2347 4038 5d18 cb38 7e65 2837
000002d0: a70b 3039 926f d938 5e6e a938 c66f 0c39
000002e0: c83c b437 2b3b 38b7 c7d4 3038 ee56 bdb8
000002f0: a6d9 76b9 8808 c238 d62b 04b8 ed22 0d38
00000300: c650 6a38 db87 df38 a0d5 b138 681c f2b8
00000310: d036 05b9 acdf e9b8 3948 19b9 b6ea 47b9
00000320: a4f2 dab9 bedf 1bb9 5e38 b339 7687 9438
00000330: 662b 92b9 e884 4bb9 41e8 1339 e66c 5bb7
00000340: 8a23 d9b8 92a5 9636 52b2 8eb9 1424 96b8
00000350: 8cca a9b8 00e2 4739 6780 0bb5 b6d0 cf38
00000360: 8b88 5b38 29b5 20b9 cbdd 4639 d3a1 b9b9
00000370: 4415 6eb9 353d d138 6481 7bb9 a162 cf38
00000380: 0ecb 5c39 6ab8 75b8 a3e3 45b9 2b35 5eb7
00000390: 3f9c 05b9 6278 3339 01ff f137 8a84 ae38
000003a0: 4724 cfb9 27bc 2239 eca4 3538 2760 2838
000003b0: 1338 d938 5b92 27b8 db6c 02b9 3016 00b9
000003c0: 3b29 b5b8 4086 e837 1a1a eeb7 fa64 2b3a
000003d0: 29ae 2cb9 1640 7739 6682 97b9 1e11 1138
000003e0: 0c4f 60b9 2bf0 a538 171b 1139 c6a7 ec39
000003f0: d3c6 74b9 114f 85b8 eb1d 2e39 78d2 6339

exp_avg_sq f4 [32, 64]
9.553102e-07 1.2789486e-06 7.6221795e-07 1.208508e-06 6.1442444e-07 2.5367856e-06 9.583491e-07 1.5454632e-06
7.591135e-07 1.0044629e-06 1.1460102e-06 3.7643204e-07 2.2925825e-07 5.257365e-07 1.3787014e-06 3.57941e-07
8.0962883e-07 6.357763e-07 5.859488e-07 4.5578366e-07 4.840636e-07 2.34692e-06 6.8261033e-07 3.5058042e-07
5.230959e-07 1.2479911e-06 9.609646e-07 1.0943916e-06 2.0393431e-06 4.7239715e-07 4.3486198e-06 1.9574727e-06
7.09259e-07 9.0992e-07 4.5598298e-07 2.925052e-06 2.1595104e-06 3.6350702e-06 1.0631584e-06 1.2166953e-06
1.7405164e-06 4.9390667e-07 7.729953e-06 7.756573e-07 3.435303e-06 3.161189e-06 5.159835e-07 6.730644e-07
7.7906026e-07 3.94108e-07 5.1244723e-07 2.9276166e-06 6.3128414e-06 2.476277e-06 2.6168423e-06 3.2721212e-07
5.4568096e-07 1.538184e-07 2.445568e-07 1.6270493e-06 8.711495e-07 5.856835e-07 4.5777185e-07 7.8184775e-07
5.8486097e-07 5.9218206e-07 4.623416e-07 7.579739e-07 2.8985815e-07 1.2502743e-06 5.9904784e-07 7.3073954e-07
3.938149e-07 5.3900857e-07 6.494778e-07 2.0199262e-07 1.5302403e-07 2.7704044e-07 8.609003e-07 2.7604472e-07
4.4439875e-07 2.9413314e-07 3.479299e-07 2.729454e-07 2.0158508e-07 1.2220637e-06 3.4575697e-07 2.0604652e-07
2.4194745e-07 8.201112e-07 5.409751e-07 6.6523484e-07 8.418474e-07 2.0678061e-07 2.088866e-06 9.952959e-07
4.6471177e-07 4.2569943e-07 2.5767594e-07 1.3862619e-06 1.2653901e-06 1.8558783e-06 5.614901e-07 6.730025e-07
8.4373727e-07 2.75094e-07 3.9060965e-06 4.517115e-07 1.7066596e-06 1.7440804e-06 2.9137e-07 3.764133e-07
3.9541388e-07 2.0070244e-07 2.818262e-07 1.3981509e-06 3.2119608e-06 1.1195725e-06 1.5048612e-06 2.2421625e-07
3.3251925e-07 8.6862045e-08 1.3995442e-07 7.649605e-07 5.4145386e-07 3.0099636e-07 2.539907e-07 4.0613034e-07
2.189128e-07 2.8503212e-07 2.1678731e-07 3.0738224e-07 1.00971036e-07 5.1792983e-07 2.8063644e-07 3.037694e-07
1.8501636e-07 2.4703598e-07 2.7871857e-07 8.982182e-08 7.293986e-08 1.4551634e-07 3.2122924e-07 1.2009717e-07
1.9236671e-07 1.16084465e-07 1.704565e-07 1.0918615e-07 1.4473495e-07 4.4114518e-07 1.5580632e-07 8.288292e-08
9.8186916e-08 3.3526845e-07 2.0100222e-07 3.0759946e-07 4.608916e-07 1.0168291e-07 7.8766334e-07 3.8931597e-07
2.0814397e-07 1.5159432e-07 1.2869988e-07 6.1459394e-07 4.6101775e-07 7.239463e-07 2.6746687e-07 2.412573e-07
3.543156e-07 1.191249e-07 1.5321368e-06 1.8868893e-07 6.91817e-07 6.7154906e-07 1.1004266e-07 1.4050143e-07
2.211358e-07 8.571573e-08 1.5551362e-07 6.002815e-07 1.2660646e-06 4.758617e-07 6.288857e-07 8.0600735e-08
1.10571e-07 3.9387785e-08 6.8866605e-08 3.168238e-07 2.500639e-07 1.0838986e-07 1.1120554e-07 1.7122528e-07
3.6790466e-06 3.825632e-06 2.0771038e-06 4.8153065e-06 1.2273075e-06 7.652902e-06 2.2898741e-06 3.8155254e-06
1.9448298e-06 2.3526582e-06 3.7523766e-06 1.1163272e-06 4.1938387e-07 1.2103862e-06 4.373514e-06 1.1899498e-06
2.463103e-06 1.4419169e-06 1.600895e-06 1.0394257e-06 1.0456072e-06 7.4014856e-06 1.8018184e-06 9.275455e-07
1.1634295e-06 4.81171e-06 2.8727018e-06 2.4981975e-06 4.964748e-06 1.4961452e-06 1.3479081e-05 6.6036773e-06
1.8968091e-06 2.254842e-06 1.0847731e-06 9.019376e-06 7.3904616e-06 1.105995e-05 3.181786e-06 3.9533056e-06
5.4791685e-06 1.5191252e-06 2.6255993e-05 2.3728758e-06 1.1344302e-05 1.0005104e-05 9.612673e-07 2.3287655e-06
2.002727e-06 1.0817871e-06 1.3901131e-06 7.91814e-06 2.0499152e-05 6.2083186e-06 9.358364e-06 9.4331443e-07
1.410612e-06 3.573159e-07 5.328737e-07 4.344008e-06 1.977076e-06 1.748331e-06 1.1386924e-06 1.9716979e-06
00000000: 3538 8035 57a8 ab35 389b 4c35 0534 a235
00000010: edee 2435 a53d 2a36 a0a0 8035 b66d cf35
00000020: e2c5 4b35 15d1 8635 9cd0 9935 6d18 ca34
00000030: 072a 7634 5620 0d35 d20b b935 092b c034
00000040: 4555 5935 37aa 2a35 184a 1d35 6eb2 f434
00000050: 99f0 0135 c77f 1d36 a03c 3735 6837 bc34
00000060: e06a 0c35 a680 a735 7efa 8035 02e3 9235
00000070: a6db 0836 c59d fd34 5cea 9136 205d 0336
00000080: e863 3e35 3a41 7435 d3cd f434 034c 4436
00000090: 1bec 1036 08f2 7336 d8b1 8e35 554d a335
000000a0: b09b e935 0295 0435 e5af 0137 c436 5035
000000b0: 0e8a 6636 d024 5436 1e82 0a35 a2ac 3435
000000c0: 9d20 5135 cb95 d334 1b8f 0935 1278 4436
000000d0: e5d2 d336 1d2e 2636 029d 2f36 b1ab af34
000000e0: e97a 1235 4829 2534 a14b 8334 fd60 da35
000000f0: f0d8 6935 dd37 1d35 afc3 f534 2be0 5135
00000100: 57ff 1c35 71f6 1e35 bf37 f834 9277 4b35
00000110: cd9d 9b34 19cf a735 41ce 2035 0a28 4435
00000120: 826d d334 63b0 1035 c657 2e35 4fe3 5834
00000130: ed4e 2434 26bc 9434 9e18 6735 4c33 9434
00000140: b395 ee34 5ae9 9d34 1fcb ba34 5589 9234
00000150: 4973 5834 ca05 a435 7aa0 b934 a33d 5d34
00000160: 01e5 8134 9d25 5c35 8737 1135 9792 3235
00000170: 50fb 6135 6c07 5e34 722e 0c36 1b96 8535
00000180: 807d f934 af8b e434 b656 8a34 990f ba35
00000190: 79d6 a935 7e17 f935 4eb9 1635 61a8 3435
000001a0: 2f7d 6235 a2b0 9334 1d11 8336 c182 f234
000001b0: 6110 e535 2516 ea35 966d 9c34 da15 ca34
000001c0: 4549 d434 ab80 5734 e64d 9734 19a8 bb35
000001d0: 118d 5736 3844 9635 a3fa c935 18c0 7034
000001e0: 1985 b234 ea88 ba33 6146 1634 af57 4d35
000001f0: 6d58 1135 a098 a134 375c 8834 210a da34
00000200: 4b0e 6b34 8406 9934 0bc6 6834 4b06 a534
00000210: 6ad5 d833 de07 0b35 61aa 9634 c015 a334
00000220: e9a8 4634 5ea0 8434 caa2 9534 11e4 c033
00000230: 1da3 9c33 3a3f 1c34 6975 ac34 0ff4 0034
00000240: 5c8d 4e34 1c4a f933 ba06 3734 b979 ea33
00000250: 7168 1b34 88d6 ec34 b74b 2734 5efd b133
00000260: d4da d233 f2fe b334 12d3 5734 2624 a534
00000270: 7670 f734 c55c da33 d06f 5335 2e03 d134
00000280: 2e7e 5f34 eec5 2234 c130 0a34 93fa 2435
00000290: cc81 f734 3655 4235 5e98 8f34 2786 8134
000002a0: c438 be34 9bd1 ff33 d2a3 cd35 6b9a 4a34
000002b0: 4db5 3935 8044 3435 9850 ec33 bddc 1634
000002c0: 5971 6d34 b912 b833 42fb 2634 0823 2135
000002d0: a6ed a935 ef79 ff34 b2d0 2835 b916 ad33
000002e0: 0d73 ed33 542b 2933 d1e3 9333 ee17 aa34
000002f0: 8540 8634 f5c3 e833 e4cf ee33 0cda 3734
00000300: 8ae5 7636 ee5d 8036 5f64 0b36 2b93 a136
00000310: f7b9 a435 f764 0037 bdab 1936 1d07 8036
00000320: ec83 0236 5ce2 1d36 57d1 7b36 b6d4 9535
00000330: ae27 e134 8e74 a235 33c0 9236 5db6 9f35
00000340: ca4b 2536 e387 c135 55de d635 6582 8b35
00000350: ca56 8c35 475a f836 02d6 f135 71fc 7835
00000360: 2227 9c35 4674 a136 a4c8 4036 b5a6 2736
00000370: dc96 a636 28cf c835 3624 6237 2895 dd36
00000380: dd95 fe35 e451 1736 8598 9135 ed51 1737
00000390: 95fb f736 208e 3937 ab86 5536 a3a6 8436
000003a0: b3d9 b736 bfe4 cb35 5140 dc37 b23d 1f36
000003b0: 6853 3e37 98db 2737 e504 8135 e347 1c36
000003c0: 9666 0636 ec31 9135 ec93 ba35 27d8 0437
000003d0: 98f5 ab37 0d51 d036 de01 1d37 1338 7d35
000003e0: 4254 bd35 20d5 bf34 cd0a 0f35 bfc2 9136
000003f0: e8ad 0436 32a8 ea35 2cd5 9835 8351 0436

exp_avg f4 [32]
-3.2837317e-05 -0.0005050464 0.0002787538 -0.00022813451 -0.00051553606 0.00092571054 -0.00036460656 -2.4551055e-05
0.000107772 3.407184e-05 0.00016955151 2.3718714e-05 -8.109265e-05 0.0005241253 -0.00011894421 -4.2262265e-05
6.0242848e-05 0.00023368206 7.139034e-05 0.00049426133 -0.0005590217 0.000534198 0.00010527567 0.00017517801
-3.355062e-05 -0.00040883324 -6.37021e-05 0.000111849855 0.00033205168 0.00029271544 -9.768954e-05 0.00022807489
00000000: cdba 09b8 1765 04ba b425 9239 6437 6fb9
00000010: 0a25 07ba 62ab 723a aa28 bfb9 fdf2 cdb7
00000020: a703 e238 5ce8 0e38 a3c9 3139 8df7 c637
00000030: 4910 aab8 7465 093a b071 f9b8 c342 31b8
00000040: 44ad 7c38 8d08 7539 66b7 9538 5191 013a
00000050: 508b 12ba 6c09 0c3a 72c7 dc38 fdaf 3739
00000060: b4b8 0cb8 ab58 d6b9 ce97 85b8 ef90 ea38
00000070: 3917 ae39 9a77 9939 acde ccb8 6327 6f39

exp_avg_sq f4 [32]
1.3495168e-05 6.7688156e-06 2.868496e-06 4.401053e-05 2.2692957e-05 1.9204956e-05 1.5844202e-05 2.3081735e-05
1.6188449e-05 1.1144882e-05 1.18472935e-05 2.2726083e-05 1.650103e-05 2.1385278e-05 8.3986515e-06 2.3358187e-05
3.2230444e-05 1.1816173e-05 2.0070302e-05 1.3965907e-05 3.8968938e-05 3.1920987e-05 1.5341777e-05 1.6433187e-05
3.317221e-05 2.3583934e-05 2.965892e-05 2.1751233e-05 2.522444e-05 1.7736887e-05 4.761228e-06 1.639846e-05
00000000: 4e69 6237 af1f e336 6380 4036 f297 3838
00000010: c15c be37 541a a137 2ae9 8437 a69f c137
00000020: 6ecc 8737 e7fa 3a37 bdc3 4637 e4a3 be37
00000030: b16b 8a37 8964 b337 efe7 0c37 53f1 c337
00000040: 2d2f 0738 143e 4637 a55c a837 1d4f 6a37
00000050: 9472 2338 e6e2 0538 37b2 8037 00da 8937
00000060: 6422 0b38 1dd6 c537 0ccc f837 6b76 b637
00000070: 1399 d337 adc9 9437 a3c2 9f36 6d8f 8937

exp_avg f4 [6, 32]
-0.0006197747 -0.00038339983 0.00047171785 -0.00034228098 -0.0010239701 -0.0015280296 0.00076811283 0.0003169
2.9693234e-05 0.00026663512 0.00016564068 0.00021463406 0.00037981058 0.0006540443 -0.00037808178 0.0006959118
-0.00092716515 -0.00053299917 -0.00023847287 5.986712e-05 0.0001141235 0.0002162234 -0.0001866534 0.0001607628
-0.00023752064 -7.8609446e-05 -0.00026143758 -0.00015422539 8.741131e-05 0.00020652568 -0.00023220642 0.0005509648
-0.00016466195 -0.00027401757 -0.00032894887 -0.00075129437 -0.00021266966 -0.00017613485 3.3559147e-05 -0.00036145258
-0.00022705608 6.991525e-05 0.00017524832 -0.00018257728 -0.0008282143 -7.227847e-05 0.00034727048 -0.00044307005
-6.445857e-05 -0.00023814623 0.00052730786 -3.4013698e-05 0.00060529745 0.00018142616 0.00011414222 0.00025177616
-0.000728967 -0.00039499707 0.000171895 0.00031188974 5.608402e-05 1.673782e-05 -0.00040080587 0.00032030878
-0.0014784065 0.0005899129 0.00054184604 0.0004640691 0.0005589385 -0.0015617617 0.00015572822 -0.00026759374
1.7113474e-05 -0.0010288546 -0.0008503558 0.00051114085 -0.00017337421 -0.0007098958 -0.00044321944 0.00032991797
-0.00033910538 -0.0003386957 -0.00045537113 0.00028023537 -2.1791515e-05 -0.0003424768 -0.00016734899 -0.0001611693
-0.00036641696 5.1385585e-05 -0.000683909 -0.00019301033 0.00027317042 -0.0006582175 -0.00034788495 -0.00030783366
-0.00046883425 0.0004613147 0.0004050872 9.7068805e-05 -0.00023146177 -2.9916471e-05 -0.00022276571 -0.00031646484
0.00025429114 2.1920734e-05 0.000111384965 -0.00010723058 -0.00054864225 0.00024388486 0.0002043336 -1.0271575e-05
-0.00024209544 -0.0002250662 -0.00082126976 0.00045798183 0.0004895776 1.1697518e-05 3.633557e-05 6.6019643e-06
-0.0001013465 -0.00055512815 -6.55029e-05 -0.0002670488 0.00034047876 -0.00024774598 -8.110541e-05 0.0005490647
-0.0002773015 0.00043910873 -0.00043901775 -0.00043604977 -0.00054323644 0.0016193727 -0.0009688881 9.1053866e-05
0.0003946904 0.0010585091 0.00084769714 0.00014229321 -0.000676501 -0.00024731518 0.00079129415 -0.0010841727
-0.00028181638 0.0021735383 1.5069789e-05 -0.0007859119 -0.00034065553 0.000865208 -0.00048928306 0.0009976518
-0.0010943218 -0.0010346753 -3.9983363e-05 -0.00077061064 0.0012590556 0.0007687553 -8.800778e-05 9.3797025e-05
0.0005802983 -0.00032360948 0.00013392132 0.00039914975 -0.00013486782 -0.0007838982 -0.00020899539 2.1167632e-05
-0.00041801593 -0.00022235264 0.00020992798 -0.0007852675 0.0005200297 0.00086530595 0.0006533722 0.00015457292
0.00054615847 0.0003909792 0.0006324703 0.0006113311 0.00023132791 4.9540668e-05 0.00012367104 -0.00023210347
0.0008316913 0.00014398518 -0.0004674376 0.00023423492 -0.00040443998 0.0005480257 -0.00045381192 0.00046645815
00000000: 6078 22ba 0e03 c9b9 e650 f739 2d74 b3b9
00000010: bc36 86ba 2a48 c8ba 2e5b 493a 9925 a639
00000020: bc15 f937 29cb 8b39 d5af 2d39 640f 6139
00000030: 5021 c739 2c74 2b3a 4739 c6b9 da6d 363a
00000040: 000d 73ba f8b8 0bba 930e 7ab9 d519 7b38
00000050: 9655 ef38 07ba 6239 64b8 43b9 6f92 2839
00000060: f60e 79b9 20db a4b8 8f11 89b9 90b7 21b9
00000070: 9750 b738 d18e 5839 707c 73b9 9f6e 103a
00000080: 1ba9 2cb9 04aa 8fb9 c576 acb9 83f2 44ba
00000090: 1400 5fb9 d7b0 38b9 dcc1 0c38 5881 bdb9
000000a0: e715 6eb9 779f 9238 ddc2 3739 3772 3fb9
000000b0: 851c 59ba 3594 97b8 db11 b639 db4b e8b9
000000c0: ee2d 87b8 e4b6 79b9 083b 0a3a eea9 0eb8
000000d0: d3ac 1e3a 373d 3e39 a35f ef38 d300 8439
000000e0: 2618 3fba 9c17 cfb9 b63e 3439 2285 a339
000000f0: c23b 6b38 3268 8c37 4123 d2b9 1eef a739
00000100: 17c7 c1ba 62a4 1a3a ac0a 0e3a 4d4e f339
00000110: ba85 123a 07b4 ccba fa4a 2339 d34b 8cb9
00000120: e88e 8f37 a2da 86ba 69ea 5eba 15fe 053a
00000130: c9cb 35b9 4d18 3aba e85f e8b9 d7f8 ac39
00000140: f4c9 b1b9 f892 b1b9 e1be eeb9 8eec 9239
00000150: eccc b6b7 758e b3b9 677a 2fb9 8eff 28b9
00000160: a71b c0b9 da86 5738 5b48 33ba d162 4ab9
00000170: 5038 8f39 3b8c 2cba 5464 b6b9 bc64 a1b9
00000180: decd f5b9 9cdc f139 e261 d439 6b91 cb38
00000190: 8cb4 72b9 22f5 fab7 3796 69b9 31eb a5b9
000001a0: 6152 8539 6be2 b737 5997 e938 fbe0 e0b8
000001b0: c2d2 0fba 58bb 7f39 6242 5639 1454 2cb7
000001c0: 00db 7db9 bfff 6bb9 7b4a 57ba 481d f039
000001d0: ff56 003a 7540 4437 0567 1838 7186 dd36
000001e0: fd89 d4b8 0586 11ba 9a5e 89b8 af02 8cb9
000001f0: 4982 b239 e7e3 81b9 2317 aab8 1cef 0f3a
00000200: c762 91b9 2d38 e639 f72b e6b9 9c9d e4b9
00000210: fb67 0eba 2241 d43a fbfc 7dba 2cf4 be38
00000220: 73ee ce39 acbd 8a3a fe37 5e3a 8b34 1539
00000230: 3757 31ba 15aa 81b9 da6e 4f3a cd1a 8eba
00000240: c1c0 93b9 ec71 0e3b 40d4 7c37 a805 4eba
00000250: 039a b2b9 20cf 623a 3b43 00ba a4c3 823a
00000260: 596f 8fba f19d 87ba cfb3 27b8 ce02 4aba
00000270: e506 a53a 4b86 493a d190 b8b8 e5b4 c438
00000280: 291f 183a 21aa a9b9 3b6d 0c39 f944 d139
00000290: 4e6b 0db9 857e 4dba c625 5bb9 2591 b137
000002a0: 2629 dbb9 5527 69b9 1d20 5c39 69da 4dba
000002b0: 9a52 083a b3d5 623a 1147 2b3a da14 2239
000002c0: 132c 0f3a 57fc cc39 5dcc 253a bc41 203a
000002d0: 9d90 7239 e3c9 4f38 b1ad 0139 cd60 73b9
000002e0: dc05 5a3a bafa 1639 6a12 f5b9 f59c 7539
000002f0: 040b d4b9 62a9 0f3a 9bed edb9 f48e f439

exp_avg_sq f4 [6, 32]
3.2032403e-06 6.3170555e-06 5.1598297e-05 7.2678595e-06 2.5801494e-06 1.5423633e-05 5.147282e-06 2.5062263e-06
3.7893044e-06 4.7325207e-06 4.908837e-06 2.5143138e-06 2.794812e-06 9.106835e-06 2.2836162e-05 4.2799647e-06
1.0685014e-05 2.0014415e-05 3.3902638e-06 3.1158115e-06 4.317391e-06 1.1941986e-05 9.983754e-06 3.2190762e-06
8.161167e-06 6.173202e-06 5.0409044e-06 6.8558415e-06 6.3051743e-06 9.91637e-06 4.097233e-06 6.6101984e-06
3.4408004e-06 8.210952e-06 6.598007e-05 1.0394419e-05 2.9912783e-06 1.4921147e-05 6.2152485e-06 2.2643362e-06
6.4343476e-06 5.102584e-06 5.164058e-06 3.3429912e-06 3.4268144e-06 1.1443283e-05 3.0743315e-05 4.701435e-06
1.4970325e-05 2.5055639e-05 3.795558e-06 4.2333263e-06 4.1943536e-06 1.3240191e-05 1.3013291e-05 5.326809e-06
1.0249723e-05 5.746233e-06 5.3645367e-06 7.1137647e-06 8.557723e-06 1.0724642e-05 4.746252e-06 7.3278584e-06
2.844704e-06 5.394415e-06 3.0836993e-05 6.7286514e-06 1.8356476e-06 1.0298442e-05 3.886872e-06 2.429151e-06
2.6483362e-06 3.1526802e-06 3.5044168e-06 2.7226674e-06 3.1922493e-06 6.4871233e-06 1.6977936e-05 3.5736239e-06
6.8379622e-06 1.2654897e-05 3.532956e-06 2.9224786e-06 3.2532566e-06 7.730454e-06 7.928447e-06 2.978959e-06
4.948317e-06 3.9001525e-06 4.0691657e-06 5.4514708e-06 5.398691e-06 6.2625622e-06 3.2600528e-06 4.394896e-06
2.849774e-06 8.366239e-06 9.587616e-05 1.0254742e-05 2.2476238e-06 1.2109313e-05 4.6011505e-06 3.1286736e-06
6.184417e-06 3.938881e-06 7.9771335e-06 2.7525e-06 3.5794455e-06 1.1184425e-05 4.1168856e-05 7.420797e-06
1.661271e-05 3.1378702e-05 3.4818004e-06 5.5731566e-06 3.3470837e-06 1.8806653e-05 1.5525326e-05 5.0102153e-06
9.879058e-06 7.553497e-06 7.134191e-06 1.0251895e-05 1.0943913e-05 1.5426816e-05 4.58309e-06 1.0865217e-05
2.6005962e-06 6.5006993e-06 5.9818132e-05 7.420909e-06 2.5853592e-06 1.2922714e-05 4.552887e-06 2.8646803e-06
4.9670925e-06 3.8512676e-06 4.5467823e-06 2.8672273e-06 3.026767e-06 9.314497e-06 2.5873655e-05 3.8006085e-06
1.236567e-05 2.2653918e-05 3.9655824e-06 4.4904928e-06 4.202587e-06 1.28331885e-05 1.1270958e-05 4.670203e-06
8.090251e-06 7.755495e-06 4.8168517e-06 7.455384e-06 8.553728e-06 1.0059874e-05 3.4326633e-06 8.753952e-06
3.2447194e-06 9.93772e-06 0.00010337025 9.287694e-06 2.6870898e-06 1.4594278e-05 5.359802e-06 3.1816658e-06
4.948901e-06 5.5164855e-06 1.0307542e-05 4.0112573e-06 4.261636e-06 9.424911e-06 4.831668e-05 1.0885867e-05
1.7032751e-05 3.8777715e-05 4.173584e-06 7.3473907e-06 6.797294e-06 2.3457116e-05 2.1721931e-05 4.7513267e-06
1.2146678e-05 9.243382e-06 8.148367e-06 1.1055268e-05 1.4000208e-05 1.6186847e-05 4.58817e-06 1.3627035e-05
00000000: 40f7 5636 18f7 d336 406b 5838 70de f336
00000010: a126 2d36 0062 8137 d1b6 ac36 a430 2836
00000020: c14b 7e36 0bcc 9e36 97b6 a436 95bb 2836
00000030: 818e 3b36 8fc9 1837 4990 bf37 9e9c 8f36
00000040: c943 3337 a1e4 a737 4a84 6336 3c19 5136
00000050: 1bde 9036 705a 4837 e67f 2737 4f07 5836
00000060: f2eb 0837 6723 cf36 0a25 a936 3b0b e636
00000070: 0991 d336 7c5e 2637 f77a 8936 2ccd dd36
00000080: 80e8 6636 c5c1 0937 c85e 8a38 b163 2e37
00000090: c5bd 4836 d755 7a37 948c d036 00f5 1736
000000a0: a0e6 d736 dd36 ab36 ec46 ad36 2758 6036
000000b0: 39f8 6536 87fc 3f37 62f2 0038 05c1 9d36
000000c0: 0e29 7b37 932e d237 31b7 7e36 ff0b 8e36
000000d0: 39bd 8c36 3022 5e37 a953 5a37 f1bc b236
000000e0: 3af6 2b37 c4cf c036 0501 b436 c6b2 ee36
000000f0: 2493 0f37 fded 3337 ff41 9f36 d3e1 f536
00000100: a5e7 3e36 ac01 b536 f856 0138 adc6 e136
00000110: 5f60 f635 79c7 2c37 fa6b 8236 7f04 2336
00000120: 12ba 3136 a292 5336 6c2d 6b36 12b7 3636
00000130: 6d3a 5636 f7ab d936 d76b 8e37 64d2 6f36
00000140: a671 e536 5e50 5437 b917 6d36 cd1f 4436
00000150: 8652 5a36 0cb2 0137 6c04 0537 20ea 4736
00000160: b809 a636 0ede 8236 de89 8836 c7eb b636
00000170: 6726 b536 0023 d236 48c7 5a36 df77 9336
00000180: bf3e 3f36 b95c 0c37 1f11 c938 c80b 2c37
00000190: e2d5 1636 1a29 4b37 9563 9a36 34f6 5136
000001a0: bd83 cf36 bb2a 8436 87d5 0537 97b7 3836
000001b0: 6836 7036 bda4 3b37 b9ac 2c38 2900 f936
000001c0: 865b 8b37 a09c 0338 e0a8 6936 0d01 bb36
000001d0: 769e 6036 fbc2 9d37 623c 8237 6c1d a836
000001e0: 3bbe 2537 0c74 fd36 3c62 ef36 8eff 2b37
000001f0: c09b 3737 d668 8137 71c8 9936 c049 3637
00000200: e785 2e36 9520 da36 3be5 7a38 1f01 f936
00000210: 2280 2d36 a2ce 5837 00c5 9836 d53e 4036
00000220: 00ab a636 233a 8136 9090 9836 976a 4036
00000230: 761f 4b36 7645 1c37 400b d937 f50d 7f36
00000240: 2676 4f37 eb08 be37 1810 8536 0aad 9636
00000250: f303 8d36 204e 5737 6518 3d37 bdb4 9c36
00000260: 5dbb 0737 991d 0237 71a0 a136 4329 fa36
00000270: fb81 0f37 d4c6 2837 b55c 6636 f0dd 1237
00000280: dbbf 5936 2fba 2637 7bc8 d838 58d2 1b37
00000290: da53 3436 f2d9 7437 59d8 b336 9a84 5536
000002a0: bc0e a636 401a b936 8eee 2c37 7098 8636
000002b0: 2dff 8e36 af1f 1e37 a4a7 4a38 71a2 3637
000002c0: 8ee1 8e37 41a5 2238 d00a 8c36 9b89 f636
000002d0: 5014 e436 c6c5 c437 7e37 b637 966d 9f36
000002e0: 96c9 4b37 0614 1b37 f8b4 0837 047a 3937
000002f0: 6fe2 6a37 fdc8 8737 15f4 9936 ab9f 6437

exp_avg f4 [6]
-0.0020634453 0.00045091845 -0.0014911704 -0.0005217457 9.032563e-05 -0.00016724333
00000000: de3a 07bb 4069 ec39 6073 c3ba c3c5 08ba
00000010: 346d bd38 0a5e 2fb9

exp_avg_sq f4 [6]
0.00020061833 0.0002668742 0.00012027437 0.0003411862 0.00022530457 0.0003746516
00000000: 135d 5239 40eb 8b39 d03b fc38 3de1 b239
00000010: bc3f 6c39 e36c c439

exp_avg f4 [64, 26]
0.0015320032 0.0 -0.09417605 -0.011343153 0.0 0.007675386 0.0 -0.0009690793
0.027616663 -0.021103447 0.017248766 0.02897854 0.024083242 -0.03731603 -0.028018579 -0.02539045
-0.0053382968 0.0324917 -0.11278853 -0.021938855 -0.0002990842 -0.0003055449 2.5635656e-05 -0.0030945935
2.8440379e-08 8.856025e-06 -0.002220244 0.0 0.12725933 0.017913984 0.0 -0.012375909
0.0 0.001418482 -0.03489235 0.03150017 -0.022027398 -0.03587477 -0.04394623 0.0120586
0.041646723 0.036853552 0.0057616443 -0.035764158 0.14675507 0.004699988 0.00033636938 0.00033895494
-5.5217457e-05 0.0046723974 -2.5257261e-08 -1.3485705e-05 -0.0009234663 0.0 0.08174418 0.007542891
0.0 -0.0026704008 0.0 0.00070386357 -0.026555313 0.017913187 -0.015513002 -0.030039016
-0.011185916 0.051797766 0.02041456 0.013681873 0.00704297 -0.021567132 0.101752415 0.03410676
0.000117872856 0.00021966064 -4.694841e-05 0.0022142844 -2.0602085e-08 -9.892267e-06 0.00068032806 0.0
-0.0807198 -0.0068486007 0.0 0.0014694409 0.0 -0.00055952463 0.027190084 -0.017290251
0.014107654 0.02794441 0.009169525 -0.044955477 -0.019030554 -0.010938031 -0.008435481 0.017844107
-0.100618355 -0.033823647 -2.6401627e-05 -0.0001354775 5.470538e-05 -0.0021671003 2.4114085e-08 1.0694307e-05
-0.0013211631 0.0 0.08343396 0.009843477 0.0 -0.00613005 0.0 0.0008157801
-0.024775999 0.019222666 -0.015234336 -0.02662627 -0.019934097 0.03533885 0.024321923 0.020863088
0.0050941 -0.026315257 0.10037972 0.020749612 0.000219215 0.00021651533 -3.69334e-05 0.0027671237
-2.3272907e-08 -5.6377294e-06 0.0016024392 0.0 -0.093323335 -0.010752946 0.0 0.006542621
0.0 -0.0012025445 0.027744211 -0.021036949 0.017728468 0.030840263 0.022064114 -0.04100038
-0.02759134 -0.022679102 -0.0051078177 0.029228887 -0.11146968 -0.023543933 -0.00034987173 -0.00035470654
3.8813323e-05 -0.0038753788 1.7184703e-08 1.0283216e-05 0.0025926617 0.0 -0.14613447 -0.019655885
0.0 0.013850704 0.0 -0.0015627238 0.040856116 -0.035126995 0.025988622 0.04267485
0.046000794 -0.03533756 -0.046464942 -0.042216808 -0.006688052 0.046158794 -0.17131095 -0.017163306
-0.00051930733 -0.0004942779 7.379887e-05 -0.0052755205 8.556782e-08 1.7519958e-05 0.0018435338 0.0
-0.109594755 -0.013649247 0.0 0.008365955 0.0 -0.0011100477 0.03187945 -0.026457913
0.019479457 0.034580722 0.029238375 -0.041068338 -0.032976568 -0.027227368 -0.006361919 0.030664787
-0.12950143 -0.019463059 -0.00022647457 -0.00033469297 7.2277195e-05 -0.0041890256 4.1517737e-08 1.1200077e-05
0.0014041236 0.0 -0.086253636 -0.009701944 0.0 0.005595854 0.0 -0.0010246577
0.025819339 -0.019389478 0.016254436 0.028225522 0.019623248 -0.03691159 -0.024917686 -0.019832063
-0.005487025 0.025629723 -0.103277415 -0.022897655 -0.0003227494 -0.000310065 3.0965013e-05 -0.0034110672
2.228618e-08 6.2757554e-06 0.0012226272 0.0 -0.091697484 -0.009054822 0.0 0.0038164975
0.0 -0.0009658096 0.029052138 -0.020111438 0.016790211 0.03100436 0.015968606 -0.04570134
-0.02432972 -0.016505118 -0.007502687 0.02339485 -0.111211285 -0.030347683 -0.00019438428 -0.00028696615
00000000: 7fcd c83a 0000 0000 5fdf c0bd a2d8 39bc
00000010: 0000 0000 ce81 fb3b 0000 0000 d009 7eba
00000020: 573c e23c 23e1 acbc 494d 8d3c 6764 ed3c
00000030: 384a c53c b2d8 18bd 3887 e5bc a2ff cfbc
00000040: e1ec aebb 0416 053d acfd e6bd 1db9 b3bc
00000050: 67ce 9cb9 8b31 a0b9 270c d737 aace 4abb
00000060: 0e4d f432 5694 1437 8381 11bb 0000 0000
00000070: 4550 023e 59c0 923c 0000 0000 53c4 4abc
00000080: 0000 0000 5cec b93a 48eb 0ebd 5206 013d
00000090: cd72 b4bc 6cf1 12bd f600 34bd 6f91 453c
000000a0: c195 2a3d c0f3 163d 2dcc bc3b 707d 12bd
000000b0: f646 163e 5b02 9a3b bc5a b039 c3b5 b139
000000c0: 4b99 67b8 e91a 993b 4ef5 d8b2 a940 62b7
000000d0: c614 72ba 0000 0000 7e69 a73d 5b2a f73b
000000e0: 0000 0000 e401 2fbb 0000 0000 7c83 383a
000000f0: 878a d9bc adbe 923c 3f2a 7ebc 6214 f6bc
00000100: 2245 37bc e529 543d 6f3c a73c ef29 603c
00000110: b7c8 e63b 8ead b0bc 9263 d03d 88b3 0b3d
00000120: 8232 f738 b454 6639 79ea 44b8 871d 113b
00000130: 77f8 b0b2 f7f6 25b7 0b58 323a 0000 0000
00000140: 6c50 a5bd 3a6a e0bb 0000 0000 419a c03a
00000150: 0000 0000 10ad 12ba bdbd de3c 49a4 8dbc
00000160: ca23 673c adeb e43c c63b 163c 3c23 38bd
00000170: f7e5 9bbc 6d35 33bc f934 0abc ce2d 923c
00000180: ff10 cebd aa8a 0abd 1079 ddb7 f70e 0eb9
00000190: 7473 6538 e905 0ebb 6f23 cf32 b36b 3337
000001a0: e12a adba 0000 0000 6ddf aa3d 8946 213c
000001b0: 0000 0000 96de c8bb 0000 0000 13da 553a
000001c0: 09f7 cabc da78 9d3c 7099 79bc 561f dabc
000001d0: d54c a3bc 78bf 103d c53e c73c 11e9 aa3c
000001e0: 68ec a63b 1893 d7bc e293 cd3d 17fb a93c
000001f0: 14dd 6539 6408 6339 f0e8 1ab8 a258 353b
00000200: aae9 c7b2 ba2b bdb6 f008 d23a 0000 0000
00000210: 4e20 bfbd 202d 30bc 0000 0000 7c63 d63b
00000220: 0000 0000 b39e 9dba d447 e33c ae55 acbc
00000230: 4b3b 913c b8a4 fc3c cdbf b43c 04f0 27bd
00000240: 3c07 e2bc 86c9 b9bc 7b5f a7bb 6b71 ef3c
00000250: 374a e4bd 35df c0bc fd6e b7b9 e8f7 b9b9
00000260: 7dcb 2238 11fa 7dbb 909d 9332 1486 2c37
00000270: a5e9 293b 0000 0000 46a4 15be 6105 a1bc
00000280: 0000 0000 10ee 623c 0000 0000 4fd4 ccba
00000290: be58 273d 53e1 0fbd 17e6 d43c d3cb 2e3d
000002a0: 546b 3c3d 1ebe 10bd 0652 3ebd 88eb 2cbd
000002b0: 7227 dbbb 0111 3d3d 236c 2fbe 109a 8cbc
000002c0: 2022 08ba 6e92 01ba 77c4 9a38 46de acbb
000002d0: 68c1 b733 d3f7 9237 bba2 f13a 0000 0000
000002e0: 3773 e0bd 17a1 5fbc 0000 0000 5c11 093c
000002f0: 0000 0000 057f 91ba 0794 023d 44be d8bc
00000300: 6293 9f3c 84a4 0d3d 5185 ef3c 4637 28bd
00000310: 7012 07bd ee0b dfbc a577 d0bb b834 fb3c
00000320: 069c 04be fe70 9fbc ce79 6db9 bb79 afb9
00000330: 8693 9738 1844 89bb 3c51 3233 f7e7 3b37
00000340: 920a b83a 0000 0000 bfa5 b0bd e7f4 1ebc
00000350: 0000 0000 6d5d b73b 0000 0000 cf4d 86ba
00000360: 1483 d33c afd6 9ebc 0628 853c 3639 e73c
00000370: efc0 a03c 9b30 17bd 2d20 ccbc da76 a2bc
00000380: 80cc b3bb 6df5 d13c 1c83 d3bd dd93 bbbc
00000390: b136 a9b9 3890 a2b9 6ee0 0138 368c 5fbb
000003a0: d46f bf32 5494 d236 9040 a03a 0000 0000
000003b0: e4cb bbbd ad5a 14bc 0000 0000 341e 7a3b
000003c0: 0000 0000 632e 7dba c0fe ed3c bec0 a4bc
000003d0: a08b 893c dbfc fd3c 98d0 823c 5431 3bbd
000003e0: 1f4f c7bc be35 87bc 1ad9 f5bb 8ea6 bf3c
000003f0: bec2 e3bd b49b f8bc a2d3 4bb9 f273 96b9
