flare-benchmarking/jojk8qnb/checkpoints/epoch=91.ckpt (torch_old, 101026 bytes, 36 tensors)

exp_avg f4 [6]
00000000: 2a3a 313c 19e5 873c ddea 5cbb 2c2c f13c
00000010: 98da 6f3c 169e 5e3c
0.01081709 0.016588734 -0.0033709325 0.029440008 0.014639519 0.013587495

exp_avg_sq f4 [6]
00000000: a225 6d39 34dd 7939 3e70 2339 f4e1 c339
00000010: 18aa 3b39 7366 9739
0.000226161 0.00023828895 0.00015586705 0.00037361647 0.00017897075 0.00028877295

exp_avg f4 [64, 26]
00000000: f584 583a 0000 0000 7e28 24bb 572b 90b9
00000010: 0000 0000 027e bdba 0000 0000 9ba6 e837
00000020: a3fb 10bb 2d60 96ba 0488 783a 9415 2b3b
00000030: 848f 6abc f5f3 f239 8dd8 67ba f444 e33a
00000040: f0dd 10bb 6d7e 69bb c465 0a3c 1f9b f339
00000050: b1cc a8bb fc6d e239 639b b03a 69df 53b9
00000060: d2a8 b4b5 7370 b438 7e74 c63a 0000 0000
00000070: ab16 88bb 494b de39 0000 0000 b4c2 cfba
00000080: 0000 0000 f350 69b9 e8a1 1cbb a4c5 2eb9
00000090: ebce e139 d748 233a 10f3 5bbc e3ec 2db9
000000a0: 02da 09bb 138f 1c3b 58cf 89bb 9785 8abb
000000b0: 6bbc 043c 6c95 963a d388 00bc a677 893a
000000c0: 9180 b13a e259 47bb 4fb6 9ab5 cdce 43b9
000000d0: 41c9 8c39 0000 0000 0339 193a c403 9539
000000e0: 0000 0000 9099 1bba 0000 0000 b311 14ba
000000f0: e93c 34ba 0782 423a 0287 8e3a ab09 53ba
00000100: 5d18 40bb ad84 96b7 1fdb 05b9 5f69 c939
00000110: ffbb 313a 84f3 29ba b60c 343a 9dea da39
00000120: e6fe f1ba 50bd ddb6 bc1a 46b8 2855 4aba
00000130: f599 1bb5 3ced a839 9671 03ba 0000 0000
00000140: 5737 393b c793 5e3a 0000 0000 0187 06ba
00000150: 0000 0000 4adf 9c39 719b 143b 21c5 143a
00000160: 261e 81bb 0231 adba 20fb 883b 13b9 c6b9
00000170: 7ae3 893a c3d3 8e3a e562 3b3b 2911 c1ba
00000180: c24c 28bb b810 bf37 021f 6c3a 650c af3a
00000190: 414c 42ba 2c94 013b 5adc e934 d4d4 3938
000001a0: 7690 e2b8 0000 0000 812b 483b 515c 2b3a
000001b0: 0000 0000 23f7 5cba 0000 0000 56c5 87b8
000001c0: 7809 ad3a 67f6 2a3a 1a29 3cbb 2d7b 3aba
000001d0: 4080 5dbb 5be1 f237 78a1 6f3a 4186 a63a
000001e0: 673d 4f3b 09a6 09bb 6e0c 4e3a a12c 7739
000001f0: d0db f337 446f bcb8 82a3 87ba 9c02 c93a
00000200: fe51 6bb5 1450 af39 1e57 77ba 0000 0000
00000210: f8ab ff38 58ca 17ba 0000 0000 fef4 2f3a
00000220: 0000 0000 7b13 3e38 6ddb 9a39 9772 8db9
00000230: e4c3 103b 1020 0b3a 48ed fe3b e67d c3b9
00000240: d686 a43a e8c1 11bb d158 1e3a e831 8b3b
00000250: 4b18 22bb bf7c 61b5 7e60 f83a 8cb0 853a
00000260: d2e6 df3a a321 fb39 3be3 cb35 54f8 7d37
00000270: 2dfe d4ba 0000 0000 e985 033c 8c1f 8a3a
00000280: 0000 0000 b0ca 793a 0000 0000 1b08 ac3a
00000290: 6421 f73b eede dd3a 0fd2 31bc 81a3 73bb
000002a0: 1a25 0b3c 17da 95b9 b06b 573b 5682 0db9
000002b0: 48c1 003c 9d78 9c3a 4ed7 c8bb fb84 06ba
000002c0: 1f36 213c e9cd 42ba 05d7 f2ba 2ddf dc3b
000002d0: c927 0135 e781 b0b8 9467 083a 0000 0000
000002e0: 7f93 f1ba ef2c a639 0000 0000 43bc 8cba
000002f0: 0000 0000 0f62 78ba 65ce 05bb a2c8 343a
00000300: fb5e 633b 452d 1cba 0e05 51bb caaf 0037
00000310: 48c1 05ba 6b4a 9939 7839 adba 9c18 d6b9
00000320: d546 353b f789 ad3a d7c5 c6bb b89e ac3a
00000330: 2b52 d33a 7fdb 30bb 138d 2bb5 a1ba 9539
00000340: 8b67 0339 0000 0000 5c28 ff3a ca0d b139
00000350: 0000 0000 2c6d 8eba 0000 0000 1a9e 2a37
00000360: 873a 443a 82f7 84b7 9e04 1cbb ad96 e139
00000370: 02e1 0bbc f5ad 8339 a013 0e3a a06d b13a
00000380: 861b 113b 7dc9 26bb 8cfe 823b 8c30 be39
00000390: b54d b1ba 7df9 c3b8 1fd4 6638 5716 cf3a
000003a0: 5efd dbb5 cd54 2f39 8192 8239 0000 0000
000003b0: 6873 45b8 c45f bf39 0000 0000 9056 28ba
000003c0: 0000 0000 a54b 4bb9 2b1f e5b9 69d0 5639
000003d0: edf3 bab8 bdb2 39b9 de95 d1ba 1bed 2cb8
000003e0: 5339 84b9 625d 823a a256 30b7 492d e1ba
000003f0: 8bea 2e3a 795f 9f39 8086 04bb 05d5 1f3a
0.0008259558 0.0 -0.002504855 -0.0002749811 0.0 -0.0014457109 0.0 2.7734137e-05
-0.0022122643 -0.0011472754 0.0009480717 0.002610539 -0.014316443 0.000463396 -0.0008844219 0.0017339275
-0.0022104941 -0.0035628334 0.008447114 0.00046464146 -0.0051513542 0.00043188024 0.0013474043 -0.00020205755
-1.3460178e-06 8.604014e-05 0.0015140919 0.0 -0.004153093 0.00042399231 0.0 -0.0015850873
0.0 -0.00022250768 -0.0023900215 -0.0001666756 0.0004306951 0.00062288105 -0.01342465 -0.00016586813
-0.0021034484 0.002388899 -0.0042056255 -0.004227351 0.008101563 0.0011488623 -0.007845121 0.0010487929
0.0013542344 -0.0030418565 -1.1526953e-06 -0.00018673688 0.00026852827 0.0 0.0005844982 0.000284223
0.0 -0.00059356634 0.0 -0.00056483893 -0.00068755314 0.0007419888 0.0010873976 -0.0008050452
-0.0029311397 -1.7943175e-05 -0.00012765497 0.00038416215 0.0006780028 -0.0006483125 0.0006868349 0.00041755
-0.0018462806 -6.608352e-06 -4.7231777e-05 -0.0007718378 -5.7966037e-07 0.0003222021 -0.0005014179 0.0
0.0028261745 0.00084906485 0.0 -0.00051318115 0.0 0.00029921002 0.0022675658 0.00056751264
-0.0039403616 -0.0013213458 0.004180327 -0.00037903394 0.0010520064 0.001089685 0.0028592881 -0.0014729846
-0.0025680517 2.277676e-05 0.0009007306 0.0013355134 -0.00074118754 0.0019772155 4.355996e-07 4.430565e-05
-0.00010803428 0.0 0.0030543508 0.00065368885 0.0 -0.000842916 0.0 -6.474058e-05
0.0013201674 0.0006521702 -0.0028711022 -0.00071136915 -0.0033798367 2.8953587e-05 0.0009141187 0.0012704806
0.0031622292 -0.0021003506 0.00078601285 0.00023572381 2.9070216e-05 -8.9852634e-05 -0.0010348412 0.0015335861
-8.7663636e-07 0.00033438264 -0.0009435284 0.0 0.00012191379 -0.00057903444 0.0 0.0006712227
0.0 4.5317673e-05 0.00029536654 -0.00026978992 0.0022089416 0.0005307207 0.007779751 -0.000372871
0.0012552391 -0.0022240821 0.00060404564 0.0042478926 -0.0024733718 -8.400056e-07 0.0018949655 0.001019971
0.001708234 0.00047899512 1.5190811e-06 1.51377935e-05 -0.0016250067 0.0 0.008027532 0.0010537966
0.0 0.0009528799 0.0 0.0013124974 0.0075418223 0.00169274 -0.0108533045 -0.0037176313
0.008492732 -0.00028581984 0.0032870583 -0.00013495362 0.007858582 0.0011937801 -0.006129182 -0.000513151
0.009839564 -0.00074311957 -0.0018527216 0.006740472 4.811414e-07 -8.41653e-05 0.00052034226 0.0
-0.0018430798 0.00031695465 0.0 -0.0010737259 0.0 -0.0009475061 -0.002041721 0.00068963517
0.0034694064 -0.00059576734 -0.0031893882 7.670324e-06 -0.00051023485 0.0002923788 -0.001321598 -0.00040835596
0.0027660627 0.0013239969 -0.006066065 0.001316986 0.001612251 -0.0026986299 -6.3907754e-07 0.00028558544
0.00012531706 0.0 0.0019466984 0.00033770344 0.0 -0.0010866276 0.0 1.01696005e-05
0.0007485528 -1.5850881e-05 -0.0023806463 0.00043027606 -0.008537533 0.00025115875 0.00054197945 0.0013536699
0.002214165 -0.0025449686 0.0039976295 0.00036275794 -0.0013527187 -9.3447954e-05 5.5033826e-05 0.0015799504
-1.6390511e-06 0.00016720891 0.00024904686 0.0 -4.707594e-05 0.0003650171 0.0 -0.000642159
0.0 -0.00019387768 -0.00043701506 0.00020486269 -8.914606e-05 -0.0001770956 -0.0015990098 -4.1228817e-05
-0.00025219712 0.0009946043 -1.0510588e-05 -0.0017179634 0.0006672523 0.00030397976 -0.002022177 0.0006097111

exp_avg_sq f4 [64, 26]
00000000: bfcd ce36 0000 0000 7d62 a438 f455 cf34
00000010: 0000 0000 32c1 c034 0000 0000 e3d5 0b36
00000020: 2e09 3138 7d7c ab35 4c9a 8038 b7bc 2b36
00000030: 9ffb 9538 47a8 d635 bd65 c937 da33 8f35
00000040: 9034 c438 e080 9436 bef9 4338 211c 3136
00000050: 0e6b a538 f8a4 f236 0863 ee36 e759 8d38
00000060: dd07 5e35 fc25 8635 daee 1437 0000 0000
00000070: 5f19 fb38 4351 2235 0000 0000 d877 3c35
00000080: 0000 0000 44ac 4f36 f963 8538 e35d bc35
00000090: 421f d038 ceca 4936 688d dc38 e585 4236
000000a0: 2895 1338 efd2 2236 342f 1c39 e14b 2e37
000000b0: bb2e a838 b31a a936 6bc6 fe38 38c2 5137
000000c0: df26 3f37 da24 d738 0c30 5d35 e835 aa35
000000d0: e771 7f36 0000 0000 c010 6938 75ec 8534
000000e0: 0000 0000 2d89 8734 0000 0000 c434 a135
000000f0: b51a f337 5700 3635 da05 3038 17ca a935
00000100: 7efa 4a38 ef0c a635 e79f 8237 cbd5 3f35
00000110: 0a04 8438 c207 1e36 5cee ef37 86c9 e635
00000120: 944e 5b38 5ca5 7c36 81ab 8536 168b 4838
00000130: f22c 6635 d9c9 4f35 5364 6c36 0000 0000
00000140: 1a0e 2e38 5d25 8c34 0000 0000 3bea 8534
00000150: 0000 0000 0b4a 9135 664e cf37 3310 4c35
00000160: 7830 0438 b380 f735 4a5c 0938 84a8 9735
00000170: a9e4 6837 9c05 5535 985a 3f38 54ed 6b36
00000180: 8fa5 a137 a3cd 1536 321e 2138 4ca3 ae36
00000190: f7ff 8f36 0e48 1d38 12e6 0d35 451d 5d35
000001a0: 0847 a136 0000 0000 e2e6 7638 a5d4 4e34
000001b0: 0000 0000 4fbe 7d34 0000 0000 0038 bf35
000001c0: a0b1 0738 5c79 0735 38a5 3438 4936 9135
000001d0: 8781 6738 4202 a035 942d 9a37 3b0d 2835
000001e0: 99a7 8c38 addc 3e36 89c3 e237 8139 e335
000001f0: 80f1 6d38 d9bd 8c36 a280 7c36 7d5b 5138
00000200: ebdb 8c35 87f5 0a35 63d4 0337 0000 0000
00000210: 0315 c438 6e4a 2735 0000 0000 96ac 0e35
00000220: 0000 0000 3e67 2436 e59d 5c38 4ce7 bd35
00000230: ef9c 9238 73c1 3736 04ce 9138 67bc 1336
00000240: b148 0138 d68e 0336 a5a6 ea38 d698 2137
00000250: 518c 3a38 20b3 dd36 a412 bc38 7d6e 1b37
00000260: 31c3 fa36 691c a938 7b07 2435 65d0 9735
00000270: 4662 3737 0000 0000 9717 0839 5baf 0435
00000280: 0000 0000 7fb6 e534 0000 0000 4655 4a36
00000290: 3d1f 9038 8c9c d135 137a bf38 42f1 8936
000002a0: 9c1e de38 2afd 1536 1524 2f38 197a ff35
000002b0: 802f 1a39 092d 1337 fd9b 6c38 bc3a ae36
000002c0: 4761 0639 443c ee36 23c9 d236 72f4 ef38
000002d0: ca38 7735 c888 0736 4489 b237 0000 0000
000002e0: 1f36 7939 cdcf 0235 0000 0000 8b5f 1535
000002f0: 0000 0000 46f2 d136 e7b3 0039 cc06 b735
00000300: 2f53 2a39 c525 2e36 65b0 4339 9050 db35
00000310: b853 ad38 9d89 e435 d77c 8b39 6702 e736
00000320: 7bf9 d238 4ba1 9c36 8e7c 7139 93d3 7037
00000330: 4652 6a37 e5ce 5339 728a 1c36 aa89 b635
00000340: 38a2 7936 0000 0000 6356 5538 f51a 4634
00000350: 0000 0000 3fcf 3a34 0000 0000 5101 9035
00000360: 768a d937 0da9 0135 73ee 1438 296b 8d35
00000370: 58d9 6b38 5887 3635 897a 7437 576d 3735
00000380: 92b4 6438 3bdd 6f36 c54f c237 06d0 1936
00000390: ef0d 5138 bda5 d135 d957 9335 3922 3a38
000003a0: 5ced ae35 2065 5935 0bb9 1336 0000 0000
000003b0: 0112 e437 5aeb b033 0000 0000 8ae9 8d33
000003c0: 0000 0000 a988 3835 bcd4 7337 1a17 5d34
000003d0: 3bad ad37 d5e1 0035 a9ea b937 b9ce cc34
000003e0: de5c 0b37 9a0c 8e34 0454 0b38 a640 9835
000003f0: 34f4 7737 b234 3335 5c94 de37 b4a2 2d36
6.1632304e-06 0.0 7.838474e-05 3.8619294e-07 0.0 3.5903355e-07 0.0 2.0837113e-06
4.2208638e-05 1.2776724e-06 6.132256e-05 2.5590832e-06 7.151742e-05 1.5993218e-06 2.4008443e-05 1.0669421e-06
9.355799e-05 4.4257467e-06 4.6724213e-05 2.6391428e-06 7.8877536e-05 7.231367e-06 7.1044815e-06 6.7401495e-05
8.271289e-07 9.994833e-07 8.877099e-06 0.0 0.000119733384 6.0467954e-07 0.0 7.0209853e-07
0.0 3.0945675e-06 6.3605556e-05 1.4034416e-06 9.924035e-05 3.0069382e-06 0.000105167564 2.898619e-06
3.5186444e-05 2.426266e-06 0.00014894904 1.0388875e-05 8.0195685e-05 5.0397007e-06 0.00012148622 1.2502591e-05
1.13935375e-05 0.00010258863 8.2398833e-07 1.2681676e-06 3.806426e-06 0.0 5.556713e-05 2.4945226e-07
0.0 2.5245518e-07 0.0 1.2010792e-06 2.8980294e-05 6.780078e-07 4.196712e-05 1.2650297e-06
4.8393842e-05 1.2371728e-06 1.5571668e-05 7.1464154e-07 6.295003e-05 2.354835e-06 2.8602015e-05 1.7194986e-06
5.228685e-05 3.7647178e-06 3.9836746e-06 4.781325e-05 8.574708e-07 7.7407236e-07 3.5225137e-06 0.0
4.1497966e-05 2.6104217e-07 0.0 2.4943606e-07 0.0 1.0824891e-06 2.471283e-05 7.6019495e-07
3.1516392e-05 1.844039e-06 3.2749296e-05 1.1299421e-06 1.3881517e-05 7.9356846e-07 4.562232e-05 3.5155872e-06
1.926979e-05 2.2322427e-06 3.8413513e-05 5.2046144e-06 4.2915303e-06 3.7498823e-05 5.286139e-07 8.237151e-07
4.806443e-06 0.0 5.8865997e-05 1.9262605e-07 0.0 2.3631695e-07 0.0 1.4246907e-06
3.2351934e-05 5.046802e-07 4.3069216e-05 1.0819141e-06 5.5195324e-05 1.1921586e-06 1.8379455e-05 6.260413e-07
6.706938e-05 2.8440656e-06 2.7032353e-05 1.6929554e-06 5.6730118e-05 4.1944263e-06 3.76258e-06 4.9914688e-05
1.0494817e-06 5.1766295e-07 7.857659e-06 0.0 9.349922e-05 6.232066e-07 0.0 5.315027e-07
0.0 2.4498e-06 5.2599138e-05 1.4148914e-06 6.991054e-05 2.7381727e-06 6.952512e-05 2.2014372e-06
3.0823696e-05 1.9603663e-06 0.000111890295 9.631933e-06 4.4476536e-05 6.607166e-06 8.968011e-05 9.264445e-06
7.473304e-06 8.06384e-05 6.1105646e-07 1.1311027e-06 1.0930531e-05 0.0 0.00012978759 4.942901e-07
0.0 4.2787357e-07 0.0 3.0149981e-06 6.872274e-05 1.5617275e-06 9.130328e-05 4.1110043e-06
0.00010591486 2.235009e-06 4.1756855e-05 1.9034516e-06 0.0001470428 8.772368e-06 5.641206e-05 5.1924417e-06
0.00012815474 7.0999686e-06 6.281903e-06 0.000114419396 9.209731e-07 2.0196185e-06 2.1283173e-05 0.0
0.00023766652 4.8731164e-07 0.0 5.564586e-07 0.0 6.2568897e-06 0.0001227405 1.3636541e-06
0.00016243452 2.5950005e-06 0.00018662361 1.6340218e-06 8.264877e-05 1.7027374e-06 0.0002660516 6.884616e-06
0.0001006005 4.6679393e-06 0.00023029951 1.4354376e-05 1.3966643e-05 0.00020199602 2.3326397e-06 1.3600122e-06
3.7198315e-06 0.0 5.086361e-05 1.8449994e-07 0.0 1.7397996e-07 0.0 1.0729219e-06
2.5932892e-05 4.8302246e-07 3.5508023e-05 1.0536506e-06 5.6230783e-05 6.7997235e-07 1.4572063e-05 6.8331923e-07
5.4527605e-05 3.5742548e-06 2.3163748e-05 2.2919862e-06 4.984246e-05 1.561995e-06 1.097792e-06 4.4377728e-05
1.3033091e-06 8.0985956e-07 2.2012416e-06 0.0 2.7188102e-05 8.238449e-08 0.0 6.608305e-08
0.0 6.874421e-07 1.453346e-05 2.0590633e-07 2.0703874e-05 4.8012345e-07 2.216299e-05 3.8148372e-07
8.306668e-06 2.645873e-07 3.3218428e-05 1.1343698e-06 1.4779205e-05 6.675938e-07 2.6533547e-05 2.5873715e-06

exp_avg f4 [64]
00000000: ab28 24bb a416 88bb db38 193a 5837 393b
00000010: 672b 483b dea7 ff38 ee85 033c 0293 f1ba
00000020: 8a28 ff3a 6f73 45b8 a77e 053b c48e 59ba
00000030: a879 313a 0292 8fbb 1c88 593a a852 87bb
00000040: 45db 0b3b d22a 2bbb f1fc a3ba 4c61 b9bb
00000050: 9a0c 49ba b057 a33b 7a76 0b3b bd93 ac3a
00000060: ac34 babb 27b8 973b 1df2 aebb d63f c63a
00000070: a213 4839 35dc 363b 57a1 62bb d1ac 2b3b
00000080: 163f 743a 76d8 343a 9902 d3b9 45ca ecb9
00000090: 4276 aaba 8b15 05ba 978e 1e3a 64cc 92bb
000000a0: 6df5 63bb eeaf 45bb 56d2 0bb9 5473 c03b
000000b0: 229a 37bb e10e 4c3b 1460 8c3b 7da3 ec3a
000000c0: 2972 3cba 97b7 06bb 4c63 cbb6 786a ce3b
000000d0: fbf6 97bb eb98 8f3a cc67 503b 0078 0abb
000000e0: 364d b23b a035 f9ba a380 3d3b cb96 99bb
000000f0: af37 463b 9ba9 883a 7a96 223a 1c4b 62bb
-0.0025048654 -0.0041530896 0.0005844959 0.0028261747 0.0030543448 0.00012190615 0.008027537 -0.0018430653
0.0019467038 -4.7075966e-05 0.002036968 -0.0008299167 0.00067701424 -0.004381419 0.0008298175 -0.0041297264
0.0021340412 -0.0026118052 -0.0012511295 -0.0056573506 -0.0007669419 0.0049848184 0.0021280334 0.0013166588
-0.0056825485 0.004630107 -0.0053389207 0.0015125226 0.000190808 0.002790225 -0.003458103 0.0026195536
0.0009317262 0.000689871 -0.00040246992 -0.0004516413 -0.0013005214 -0.00050767575 0.0006048469 -0.0044799317
-0.0034783736 -0.0030164677 -0.00013334429 0.005873123 -0.0028015454 0.0031136798 0.0042839143 0.0018054094
-0.0007188642 -0.0020556205 -6.061431e-06 0.006299313 -0.0046375967 0.0010955607 0.003180015 -0.0021128654
0.005441333 -0.0019013174 0.0028915785 -0.0046871654 0.0030245592 0.0010426523 0.00062022323 -0.0034529632

exp_avg_sq f4 [64]
00000000: 7862 a438 6519 fb38 c510 6938 170e 2e38
00000010: dfe6 7638 ff14 c438 9517 0839 2136 7939
00000020: 6356 5538 0212 e437 cc56 ae37 81ee 0039
00000030: 1f19 3538 4b5c b737 d500 0738 2af8 4939
00000040: fd16 3d39 7bef 9138 e462 cd38 e70a 1b38
00000050: 0df3 b638 a0a4 7138 35a6 2538 5e96 9938
00000060: 70bc 2039 6d2e c038 c959 5d38 9135 4139
00000070: 414d 9639 418a 2238 c443 f539 c963 2938
00000080: fee1 8838 1da3 7038 25fa fe37 357a 3f38
00000090: 8b6e 193a f000 fa36 6a14 5439 7ff6 a139
000000a0: af07 af38 813a 2539 682e a638 d8bc 0138
000000b0: e07f f138 112a 0338 e0c9 9038 9085 0d38
000000c0: 9df1 3438 18e3 4339 d907 b838 2fbb 9938
000000d0: f00a 3338 93c2 3f37 97c2 743a 34be 0538
000000e0: d576 cb38 996a 1d38 c4e5 f137 ae24 6138
000000f0: 1e71 de38 cdd8 3e38 27c4 8d39 045f 4038
7.8384706e-05 0.00011973343 5.5567147e-05 4.1497955e-05 5.8865986e-05 9.349919e-05 0.00012978756 0.00023766655
5.086361e-05 2.7188104e-05 2.0782834e-05 0.00012295881 4.317716e-05 2.1858277e-05 3.2187283e-05 0.00019261302
0.00018033008 6.9587455e-05 9.7935816e-05 3.6965033e-05 8.723708e-05 5.7612197e-05 3.9493858e-05 7.3236166e-05
0.00015328988 9.163921e-05 5.2774125e-05 0.0001842587 0.00028667788 3.875257e-05 0.0004678053 4.0385672e-05
6.52708e-05 5.737237e-05 3.0395642e-05 4.5651763e-05 0.0005852959 7.4506897e-06 0.000202255 0.00030891967
8.3460814e-05 0.0001575742 7.924141e-05 3.093187e-05 0.00011515594 3.127201e-05 6.904057e-05 3.374141e-05
4.3140364e-05 0.00018681248 8.7752655e-05 7.330474e-05 4.2687112e-05 1.142979e-05 0.00093368575 3.188681e-05
9.7019285e-05 3.7530994e-05 2.8836432e-05 5.367834e-05 0.000106068546 4.550144e-05 0.0002703976 4.5864857e-05

exp_avg f4 [32, 64]
00000000: 3fdf 573a ec8d 21ba 865a b43b 9177 85bb
00000010: abfc 1aba da8e 2639 4901 26b9 8633 043a
00000020: 91cb 3abb fb1c 57ba 86fc 6b3b 627d 4ebb
00000030: dfa8 de3b 26c6 6ebb 7278 583b 0853 17bb
00000040: d86f 2539 0751 b53a cdf0 9cba 942f a4ba
00000050: ba76 89bb c07e 6439 bc75 d6ba d024 8e3b
00000060: c3c9 06ba 9151 d33a 4980 963b 2d93 933b
00000070: 016b d3ba 20d8 a7bb b51a 5039 260c 3a3b
00000080: 02c7 b8ba d4d8 68ba 81c9 c93a 76dc c03a
00000090: 1a75 96b9 44b5 bebb 57ac 033b 3542 a039
000000a0: e120 5a39 908d 463b a2e6 91bb 398d 9bb8
000000b0: 97b2 37bb 2b2a 643a cf3e 673b eb6e 623b
000000c0: 36bc c0b8 300a 04ba 82d4 79bb d277 d43a
000000d0: a6f2 a039 63fa e93a b888 ccb9 2ea1 c139
000000e0: 055c 6f3a 317c afb9 2ea4 0d3b 3989 8cbb
000000f0: 732a c638 7513 ce3b 76bb 2c3b 4ad7 f53a
00000100: 003e a23a 8f82 07bb 0e84 773b 9586 58bb
00000110: a08d 3038 19db 00bb afdf 4e3a fe21 003b
00000120: dca5 32bb 17b0 53ba b3b2 943b c015 46bb
00000130: 1592 a63b 9654 11bb 4265 303b 7b24 bdba
00000140: 2ec6 aa39 1092 9a3a 0623 c539 77c1 b6ba
00000150: b63b 69bb 65ae 30ba 278f d3ba d345 5e3b
00000160: 6ee9 52ba ee59 0a3a e436 263b 7443 663b
00000170: 0f0a 04ba e38c 4abb 58d4 06ba b93b 193b
00000180: ee95 97ba 9a98 e6b9 4128 423b 5087 2e3b
00000190: 19c0 ea39 bf71 8cbb e73a e03a dc78 823a
000001a0: 5edb 54ba e477 113b b4c6 5fbb 8286 c439
000001b0: 6279 00bb 264a a8b9 e0a8 ab3a 28ca 1c3b
000001c0: 1722 273a 9f7f 2e39 fc7d 4abb e437 6039
000001d0: 464c 343a 628f d83a 0037 8eba 3ce6 7a39
000001e0: b921 c7ba 1a3b 633a a4fa 7d3a 57ff 4fbb
000001f0: f1fc 8bb9 3457 a33b 4cef 413a bc7c be3a
00000200: 67db 0cba 5f5c b9ba a09a 08bb f1bb 303b
00000210: 6fbc a93a 4bdb 12ba 470f a739 99a8 8cb7
00000220: 2cac a73a fbc5 483a 997c efba 4582 d03a
00000230: 7f70 3fbb 2417 133b 8962 68ba f981 f33a
00000240: 25d1 8438 47a6 8cba 0093 f739 3f42 fb39
00000250: f7b4 893a 9b5e 6f3a 44e2 943a c341 24bb
00000260: dce7 153a b096 78b9 5f25 1fbb 3474 c8ba
00000270: d664 0cba d135 0f3b 565b c5b9 3e56 a5ba
00000280: 0d68 9a3a 3d00 083a 29df 1dba 539b d4ba
00000290: 5d72 1a3a 8bb1 0d3b 41ae 40ba 8cdb 89b9
000002a0: cbfb a73a 5d78 1aba edd6 aa3a ccf7 b0ba
000002b0: 2b4f 6e3a 8fa5 89b9 0add 4ebb 9a0b 9fba
000002c0: a7a1 4aba efcc 7939 ec9f da3a 05ff d3ba
000002d0: 7d75 913a fc88 edba d95a 773a c3a2 0939
000002e0: dabc f6b9 d09b 10b8 5c2a 3bb9 173f 003b
000002f0: 6041 ca39 0754 46bb d413 06bb 58f4 bbba
00000300: 11a7 67b9 1b65 473b bbc2 d83a bc4c 85b8
00000310: de36 baba 706c 3d3b acd7 b9ba 6360 0fbb
00000320: 34c2 5a3a bce9 2437 6e79 1dbb 6c45 ac3a
00000330: b48f d539 66d9 d0ba 8995 b5b9 b6c8 b5b8
00000340: dbdf b9b9 be4a 0e3a 5b30 06bb 8afb 593a
00000350: abe7 253a b4a7 863a 2382 123a 07c7 8b3a
00000360: 5d25 7738 679c fe38 5ac0 e53a 5ef9 0dba
00000370: aa15 62ba e4e4 e8ba 7ba2 bb3a a855 dfb9
00000380: eb2b 97b9 7d16 71ba 28f3 eaba f868 b6ba
00000390: 97bf 88ba d455 08ba 3d81 e038 9bb7 09bb
000003a0: 0474 1f3a 9883 0c38 3c29 04ba c422 5139
000003b0: a814 c5b8 7e84 163b 75c1 bf3a e54e b6b9
000003c0: 6a53 a139 ce86 d1b9 78e8 82ba 2d6e 223b
000003d0: 7b1a aaba 9e5d acb8 99c9 5b3a e467 1937
000003e0: d37d 383b 6df8 81ba 3b13 493a ac37 7fba
000003f0: 2c7b fdb8 8ce8 203a 0db5 d13a 227b 4539
0.00082348654 -0.00061628106 0.0055039553 -0.0040730913 -0.0005912284 0.0001588421 -0.00015831472 0.0005043078
-0.0028502683 -0.00082059175 0.003600867 -0.003150784 0.0067950333 -0.0036434024 0.0033030775 -0.0023090262
0.00015777291 0.0013833352 -0.001197362 -0.0012526386 -0.0041950615 0.00021790992 -0.0016361992 0.0043378845
-0.0005141759 0.0016122331 0.0045929295 0.0045036287 -0.0016129912 -0.0051221997 0.00019846375 0.0028388589
-0.0014097395 -0.00088824076 0.0015395136 0.001471414 -0.00028697477 -0.0058199484 0.0020091736 0.00030566906
0.00020802348 0.003029678 -0.0044525424 -7.417281e-05 -0.0028030032 0.0008703793 0.003528524 0.0034550976
-9.1903305e-05 -0.00050369184 -0.003812105 0.0016210026 0.00030698365 0.001785111 -0.00039011776 0.00036931917
0.00091308384 -0.0003347113 0.0021612751 -0.004288819 9.4492825e-05 0.0062889406 0.0026356853 0.0018756178
0.0012378097 -0.0020677184 0.003776792 -0.0033039202 4.209357e-05 -0.0019661842 0.0007891608 0.001955151
-0.0027259504 -0.00080752507 0.004537904 -0.0030225366 0.0050833323 -0.0022175661 0.0026915823 -0.0014430428
0.00032572582 0.0011792798 0.00037600863 -0.0013943155 -0.003558857 -0.0006739854 -0.0016140685 0.003391613
-0.0008045648 0.0005277683 0.0025362307 0.003513542 -0.0005036899 -0.003090673 -0.0005143336 0.0023381545
-0.0011565068 -0.00043982716 0.0029626044 0.0026630946 0.00044775082 -0.0042860205 0.0017107398 0.0009954232
-0.00081198465 0.0022196705 -0.0034145536 0.0003748425 -0.00196036 -0.00032098702 0.0013096593 0.0023924205
0.0006375624 0.00016641476 -0.0030897846 0.00021383126 0.00068778207 0.0016522224 -0.0010850132 0.00023927627
-0.0015192545 0.00086681696 0.00096885324 -0.0031737888 -0.00026700602 0.0049847607 0.0007398024 0.0014533023
-0.00053732697 -0.0014141909 -0.0020844117 0.002696749 0.0012949834 -0.0005602135 0.00031864105 -1.676781e-05
0.00127924 0.0007658896 -0.0018271386 0.0015907964 -0.002921134 0.0022444213 -0.00088647805 0.0018578164
6.333207e-05 -0.0010730707 0.00047221035 0.00047923808 0.0010506202 0.0009131224 0.0011358936 -0.002506361
0.00057184487 -0.00023707259 -0.002428375 -0.001529342 -0.0005355602 0.0021852145 -0.0003764282 -0.0012614203
0.0011780277 0.0005188024 -0.0006022328 -0.0016220607 0.0005891675 0.0021620716 -0.00073501846 -0.0002629425
0.0012816129 -0.00058925693 0.0013034024 -0.0013501584 0.00090907764 -0.00026254027 -0.0031564855 -0.0012134195
-0.00077297766 0.00023822834 0.001667974 -0.0016174024 0.0011097636 -0.001812249 0.00094358396 0.00013125972
-0.00047061482 -3.4477387e-05 -0.0001784949 0.0019568854 0.0003857715 -0.0030262487 -0.0020458596 -0.0014339788
-0.00022092114 0.0030425254 0.0016537526 -6.356227e-05 -0.0014207026 0.0028903745 -0.0014178655 -0.002187752
0.00083449786 9.829582e-06 -0.0024028677 0.0013143248 0.00040733593 -0.001593393 -0.00034634423 -8.668138e-05
-0.00035452735 0.00054280076 -0.00204756 0.00083153753 0.00063287717 0.0010273368 0.000558885 0.0010664173
5.8924186e-05 0.00012140796 0.0017528639 -0.0005415882 -0.0008624444 -0.001776841 0.0014315391 -0.00042597693
-0.00028833686 -0.00091967714 -0.0017925249 -0.0013916781 -0.0010433075 -0.00052007777 0.00010705225 -0.0021013978
0.00060826563 3.3501157e-05 -0.0005041545 0.00019944744 -9.3975395e-05 0.0022967155 0.0014629798 -0.00034772526
0.0003077046 -0.00039964024 -0.0009987494 0.0024784908 -0.0012977862 -8.219037e-05 0.00083842274 9.1437e-06
0.002815117 -0.0009915956 0.0007670407 -0.0009735774 -0.00012086923 0.0006138168 0.0015999392 0.00018833255

exp_avg_sq f4 [32, 64]
00000000: 11e4 2136 9dcb 2b36 4e0e 8a37 30e2 cc36
00000010: 4e6a 9936 616b 0137 7cd7 2c36 f08c a836
00000020: 8263 aa37 734b 9e35 6af3 9d37 fbb0 c836
00000030: 842f df37 cff7 ac37 e3d5 af37 ed03 b136
00000040: 0502 4a35 c4b1 1936 b199 8336 02ae 4037
00000050: 9d99 0237 d805 0537 9ab9 0336 8724 8b37
00000060: 5aae 8a35 08bf ce35 fff0 1337 8232 2237
00000070: 4996 7f36 90ec 8a37 2e7e 0b36 c3e5 2037
00000080: d430 b336 61f2 1f36 f1eb 5f37 709c 3f37
00000090: 67ea a035 2417 3c38 c992 e935 8a54 0736
000000a0: ec57 4736 ebd0 d936 4d8e a137 d10b 0e36
000000b0: 8c50 3437 9f49 5b36 efd2 ad36 97ca c036
000000c0: d15e 1837 e144 2936 173b 0b37 8b40 0636
000000d0: d4db f536 d840 6137 b04e 8835 3be9 e235
000000e0: 0e56 4736 065e a336 e356 7636 a5f9 6837
000000f0: 7bf7 1435 eb19 0838 b76b 7936 181d 8835
00000100: aa96 0236 c80c f235 7e86 6337 611e a736
00000110: 9873 3c36 543c a536 493f 0e36 6659 4d36
00000120: 138d 5c37 0af2 ae35 ab2a 5837 d157 9e36
00000130: ea40 b437 37f4 7f37 6b03 6a37 0ce2 9236
00000140: 87b8 2135 ed5f 0836 eb80 6136 a447 e836
00000150: e53e db36 41dc 8636 90be b135 e75d 4a37
00000160: 0d7d 4935 c8c6 ae35 0fc7 f636 8518 0537
00000170: 52a9 5c36 aa7c 6937 5018 c635 1978 f636
00000180: f61d 6f36 2e41 c335 b273 0137 dde1 e736
00000190: 3ae8 a735 469a 0538 8504 c435 86b9 cd35
000001a0: 9f1d 2b36 7213 c836 e3e5 7737 bf4d d935
000001b0: d443 0d37 cf8a 4136 5035 9536 2ddc 9736
000001c0: 4b0a c036 f8fc 0636 6ce5 e836 fc36 0136
000001d0: 4f06 8636 be3f 1437 f701 6a35 0b1d ac35
000001e0: e842 1a36 4ed2 3336 e24d 0636 39e4 3e37
000001f0: 0e7e f134 2a86 cc37 4d29 6a36 a6ce 5035
00000200: 2352 a636 6bb5 d536 feb5 6f38 3dc6 aa37
00000210: 54f6 3037 e5ba a637 801b dc36 353c 2c37
00000220: 2cac 7138 f7a4 5a36 8a1a 7138 9259 a737
00000230: 215d c638 886f 8f38 dbb9 8638 12eb 8737
00000240: 787a e835 6cda be36 33f6 2e37 f02b 0438
00000250: ff8d dd37 a313 9c37 5735 6d36 c7cc 5f38
00000260: 317b 0e36 46b2 b236 ebc7 e037 ba1f 0e38
00000270: ee30 2c37 05d8 7438 a28b 9136 bdfd 0538
00000280: 885c 6337 5253 a236 88a7 1238 cadd ee37
00000290: a2f1 5e36 2eb8 1539 00d4 a836 95da 9836
000002a0: 3f3a d936 10d0 b037 e196 8638 a1a6 8336
000002b0: c72a 1438 6a1b 0537 19af 9537 f8bc 8737
000002c0: aadd b537 dd89 da36 f5ce e937 70c3 d436
000002d0: 59b4 9137 f0e8 2338 4d9c 2636 770a 5d36
000002e0: 9e55 ff36 df95 3f37 04ae 1137 a456 5438
000002f0: 519f 9b35 4408 de38 921d 4137 4d10 1736
00000300: acae f336 9fee 0c37 35a6 9b38 47f8 d137
00000310: d8c6 8c37 47e7 f837 a1c0 1537 56a9 6f37
00000320: ea5e b438 1061 7d36 4e03 a738 d0b2 d437
00000330: 2112 0039 eaf3 c738 4d92 be38 e5a0 ba37
00000340: fe21 ee35 835a fa36 8b01 7037 755a 4038
00000350: ab7f 1338 255f f537 2355 9636 fd8c 9a38
00000360: 165f 2836 8b11 d536 8ece 0e38 d4e0 4038
00000370: 6767 6337 6ecc a438 3028 d736 69cf 3838
00000380: 41d4 a537 6d46 e536 1061 5d38 451c 2e38
00000390: 1b7e 8836 6dd9 5139 be80 c136 4447 f136
000003a0: 94d6 1137 8a84 fd37 7655 b938 aafe ab36
000003b0: eed9 5538 41c1 5537 934d ab37 f6a5 af37
000003c0: 50a7 0138 f847 0737 a252 1738 760f fb36
000003d0: b3eb eb37 b746 7638 90b4 3e36 e7a9 9536
000003e0: 64ef 3437 253f 9537 a24b 4537 4649 8738
000003f0: 5240 a035 e383 1939 53d5 7c37 3d87 2b36
2.4123622e-06 2.5599504e-06 1.6457543e-05 6.1060055e-06 4.572131e-06 7.714e-06 2.5755426e-06 5.0231974e-06
2.0311916e-05 1.1793876e-06 1.8829207e-05 5.9810677e-06 2.6605798e-05 2.0619393e-05 2.0961224e-05 5.275468e-06
7.52538e-07 2.290225e-06 3.9219963e-06 1.1484606e-05 7.78437e-06 7.928778e-06 1.9628555e-06 1.65871e-05
1.0332544e-06 1.5403793e-06 8.817994e-06 9.667712e-06 3.8085439e-06 1.656104e-05 2.078606e-06 9.590239e-06
5.3403e-06 2.383393e-06 1.334677e-05 1.1420911e-05 1.1989149e-06 4.4844244e-05 1.7402573e-06 2.0165776e-06
2.9704488e-06 6.491425e-06 1.925896e-05 2.1166527e-06 1.074759e-05 3.2676396e-06 5.1803577e-06 5.7456305e-06
9.081982e-06 2.5223055e-06 8.298804e-06 2.0005125e-06 7.3271603e-06 1.3426143e-05 1.0155691e-06 1.6906191e-06
2.9703401e-06 4.8687243e-06 3.6707431e-06 1.38864025e-05 5.549443e-07 3.2449065e-05 3.716659e-06 1.0141257e-06
1.9459208e-06 1.8034125e-06 1.3561568e-05 4.9805244e-06 2.8081467e-06 4.9244063e-06 2.1196486e-06 3.0599417e-06
1.3145868e-05 1.3034453e-06 1.2884538e-05 4.71899e-06 2.14879e-05 1.5256045e-05 1.3948283e-05 4.3774544e-06
6.0245696e-07 2.0321415e-06 3.3602653e-06 6.922479e-06 6.5340305e-06 4.019152e-06 1.3242989e-06 1.2062002e-05
7.506031e-07 1.3021863e-06 7.354545e-06 7.933127e-06 3.2881112e-06 1.3916908e-05 1.4759225e-06 7.3453525e-06
3.5631215e-06 1.4547602e-06 7.715937e-06 6.9106304e-06 1.2510056e-06 3.185335e-05 1.4604453e-06 1.5327685e-06
2.5498227e-06 5.962728e-06 1.4775872e-05 1.6190387e-06 8.420047e-06 2.8840038e-06 4.4467524e-06 4.5257825e-06
5.723244e-06 2.0114803e-06 6.940847e-06 1.9254503e-06 3.9942456e-06 8.836329e-06 8.717465e-07 1.2823451e-06
2.2986733e-06 2.6795492e-06 2.001289e-06 1.137802e-05 4.4981465e-07 2.438117e-05 3.4892757e-06 7.778675e-07
4.9567475e-06 6.3690145e-06 5.7151534e-05 2.0357891e-05 1.054777e-05 1.9875772e-05 6.5597123e-06 1.0266017e-05
5.7619225e-05 3.2580554e-06 5.7483594e-05 1.994966e-05 9.458722e-05 6.839546e-05 6.424236e-05 1.6202717e-05
1.732099e-06 5.687869e-06 1.0428531e-05 3.1512172e-05 2.6411375e-05 1.8605793e-05 3.53468e-06 5.3358057e-05
2.1231356e-06 5.325567e-06 2.6795975e-05 3.3884986e-05 1.0263391e-05 5.8375317e-05 4.337592e-06 3.1945983e-05
1.35517985e-05 4.837676e-06 3.496514e-05 2.847509e-05 3.3221227e-06 0.0001427836 5.03147e-06 4.5553993e-06
6.4738847e-06 2.1077722e-05 6.417721e-05 3.9235024e-06 3.532579e-05 7.933801e-06 1.784372e-05 1.618125e-05
2.1680102e-05 6.5129557e-06 2.7872136e-05 6.3408443e-06 1.7369328e-05 3.907917e-05 2.4826907e-06 3.2937658e-06
7.6095594e-06 1.1419382e-05 8.68319e-06 5.062543e-05 1.1594767e-06 0.000105873245 1.1510581e-05 2.2510242e-06
7.262299e-06 8.400209e-06 7.4219344e-05 2.5030355e-05 1.6781894e-05 2.96716e-05 8.925942e-06 1.4284937e-05
8.600748e-05 3.7756436e-06 7.963796e-05 2.5355635e-05 0.00012213785 9.534492e-05 9.087157e-05 2.224785e-05
1.7742275e-06 7.4611175e-06 1.4305474e-05 4.5860612e-05 3.516643e-05 2.9250581e-05 4.4802596e-06 7.369553e-05
2.5089298e-06 6.349937e-06 3.4047807e-05 4.5985755e-05 1.355433e-05 7.8582074e-05 6.4121778e-06 4.4062184e-05
1.9768371e-05 6.8329305e-06 5.2780902e-05 4.151116e-05 4.0677965e-06 0.0002001279 5.766836e-06 7.190656e-06
8.692634e-06 3.0221669e-05 8.837406e-05 5.125844e-06 5.098612e-05 1.2740785e-05 2.0420912e-05 2.0938907e-05
3.091182e-05 8.063384e-06 3.6078163e-05 7.482183e-06 2.8123939e-05 5.871683e-05 2.8417307e-06 4.4603253e-06
1.07845735e-05 1.7791588e-05 1.1759725e-05 6.45095e-05 1.1939649e-06 0.00014640349 1.5070039e-05 2.5559705e-06

exp_avg f4 [32]
00000000: 30f5 f73b 0da1 d13b c4b9 7abb 0a98 71ba
00000010: ff0c 9b3a 2d2f 9bbb 2565 613a dd9d 0cbc
00000020: a2e0 16bb 582c 17bb 2bb8 8d3b b7f8 a5bb
00000030: 8b19 a8bb 6ee8 c03a ad27 40bb 98d8 9839
00000040: 052f 1b3b 242a 733b 31e1 44bb 48f4 1d3a
00000050: f933 3dbb 2a66 1f3a 13ab 943a 32c4 ccba
00000060: 0b80 e8bb 0469 443b f70e c4bb 0c35 9fbb
00000070: 2718 703b 8d47 3f3b af1d 2cbb e473 e23a
0.0075670704 0.0063973726 -0.0038257698 -0.0009216076 0.0011829435 -0.0047358484 0.00085981406 -0.008582559
-0.0023022075 -0.0023067202 0.004324933 -0.0050650495 -0.005129998 0.0014717707 -0.0029320524 0.00029153074
0.002367915 0.0037103975 -0.003004145 0.00060254754 -0.002887009 0.0006080592 0.0011342488 -0.0015622436
-0.007095342 0.002996982 -0.0059832293 -0.0048586186 0.003663549 0.0029186935 -0.002626281 0.001727697

exp_avg_sq f4 [32]
00000000: 4699 8a38 9c72 4938 37bd 6039 7513 9939
00000010: dc0f 3a38 7b77 6938 dd14 1c39 6d77 da38
00000020: a24b aa38 9629 d438 c526 3238 baed 4f39
00000030: 1430 0838 1dac ba38 bb8a 1839 d8e2 5839
00000040: 0a30 1739 6339 e138 4879 c837 ee12 9d38
00000050: ef8b c439 3ce9 4838 ed69 8238 97a7 1838
00000060: bbc8 2039 5045 c839 6ae6 c438 72d9 9039
00000070: 7f25 4b39 9978 1938 9259 ee37 e771 3139
6.608902e-05 4.8028873e-05 0.00021432793 0.0002919693 4.4360626e-05 5.5662804e-05 0.00014885092 0.00010417295
8.1203194e-05 0.00010116694 4.2474614e-05 0.00019829618 3.2469703e-05 8.90123e-05 0.00014547531 0.00020683871
0.00014418378 0.00010739525 2.3898334e-05 7.489869e-05 0.00037488292 4.7900932e-05 6.218613e-05 3.6395704e-05
0.00015333567 0.00038198614 9.388926e-05 0.0002762783 0.00019373557 3.6590358e-05 2.841352e-05 0.00016922467

exp_avg f4 [6, 32]
00000000: 38d7 b8ba cff6 28bc 6b98 0ebb 7417 ca3a
00000010: 9e08 37bc 19cf 97bb d4cf 553b 7185 81bb
00000020: 6186 f8ba e309 543b dcf5 123a 19d7 e4bb
00000030: 7c42 48bb e234 a33b ce57 0f3b bef5 47bb
00000040: 7330 c83b 7472 e03b 7955 02bc dac8 06ba
00000050: 4f83 7dbb 7f19 983b 2271 09bc fc61 b9bb
00000060: dd76 92bb 2cb8 633a 6e2b 1fbb 0a13 263b
00000070: 2841 e0ba ac17 9f3b 051a cebb cc42 dcb9
00000080: b5ab 59bb af6e 143b 2fc0 a73b 48a1 7dbb
00000090: 0cdf c33b 43d1 a439 c146 363b 8e0c b43a
000000a0: 1bb0 8fbb ce9b 1ebc 0709 063b e71d d9ba
000000b0: ce2c 063c 9409 0bbc 7d81 f5bb 7ddf da3a
000000c0: 108b cdbb 4549 88bb c653 2d3c 6b13 d33b
000000d0: 526a 12bc 63e6 953b f22e 213c 2cd6 203c
000000e0: 7c1c 17bb f9a5 cebb 7370 5fbb 83bd 89bb
000000f0: b299 8eba 2521 063b b7e7 a1ba 80d4 b9bb
00000100: 780b 403a b12e f5bb d020 24b9 00ad 93b9
00000110: ff81 84bc 09c3 843a 44df bb3a 5858 2abc
00000120: 7321 be3a 9aaa 973b 4b6b 0139 2585 85bb
00000130: 5b1c 2cbc 4bf4 6f3b 78d7 2c3b 6a30 03bb
00000140: da55 0b3c 0f97 163c 6c01 8fbc 564b cabb
00000150: b3e9 303b 6dbc ebba 2131 f6bb 7c8b 48bc
00000160: a823 7abb 70de 613a 80a8 7fba 8522 a53b
00000170: 1b8d 16bb 5dbf ba3b 8d8a 40bc 356d 2e3b
00000180: b6c2 3d39 ca83 94bb 8c9d e139 830e 97b6
00000190: 67f1 b33a 8f3b d939 b197 6338 4183 f33a
000001a0: 9db1 f8ba e061 b2ba f8ff 52b8 8059 393a
000001b0: 3f6b 843b 30c8 bcbb af93 02bb 81a7 acb9
000001c0: 7ea5 81bb adc6 deba ca1f ac3b d32f 783b
000001d0: a1a4 79bb 2c77 c43a e4fb 663b a5e6 b13b
000001e0: c2b9 9bbb 25be 02bb d689 f7ba e940 c0bb
000001f0: f4f5 9fbb b7ca d13a 7e15 8eba ce12 85bb
00000200: c1fe c33a 8750 e63a eebe d636 da83 943a
00000210: 5435 393a cf1c 913a a0a4 2fbb e337 2e3a
00000220: b40e 2e3b 3d5a 123b 6a4d 1cba e645 423b
00000230: 7e8e 17ba 20f0 5bb9 de50 bf39 adf8 e6b9
00000240: 6d37 e1ba d073 3cba bc2c 9a3a be90 1dbb
00000250: 2050 ce3a 7924 00bb c49c 0bba 87e6 143a
00000260: 6d17 403b ffd8 cd39 b961 673b 71d0 6eb9
00000270: afbc 98ba 9cf9 92ba 0495 2e3b d9b0 f63a
00000280: fb8b 2bbb ef0a 01bc 53e3 0dba e4ee 72ba
00000290: aaa9 cdbb 17eb a9b8 2cd6 8338 1a2c 79bb
000002a0: 09ad 933a 391d b93a 20e8 24ba 7c2c ca3a
000002b0: 49e4 93ba 51bd 70b9 b773 993b 4b00 9d39
000002c0: c4d9 a538 3957 783b 56eb 0dbb 5e41 72ba
000002d0: 13f4 403b 7d4c 363a d17b b1bb 76a4 1dbb
000002e0: 3b63 38bb 9506 883a 6562 813b 8749 f43a
000002f0: 7e67 1dbb a931 593b babf fcba 61e8 a7b9
-0.0014102226 -0.01031275 -0.0021758329 0.0015418367 -0.011171488 -0.0046328423 0.0032625096 -0.003952675
-0.0018960946 0.0032354526 0.0005606094 -0.0069836495 -0.0030557206 0.0049806694 0.0021872404 -0.0030511464
0.006109291 0.0068495814 -0.007954949 -0.00051416236 -0.0038683002 0.0046417112 -0.008388789 -0.0056574326
-0.004469736 0.00086868065 -0.002428736 0.0025340938 -0.0017109262 0.004855117 -0.006289723 -0.00042011437
-0.0033213918 0.002264898 0.0051193456 -0.0038700867 0.005977517 0.0003143643 0.0027813169 0.0013736652
-0.004385007 -0.009680701 0.0020452158 -0.0016564698 0.008189393 -0.00848617 -0.007492243 0.0016698685
-0.006272681 -0.004159125 0.010579055 0.006441524 -0.008936482 0.0045745834 0.009837853 0.009816688
-0.002305775 -0.0063064066 -0.0034094125 -0.0042034998 -0.0010879545 0.0020466533 -0.0012352382 -0.005671084
0.0007325928 -0.0074823727 -0.00015652482 -0.0002816692 -0.016175268 0.0010128926 0.0014333506 -0.010397039
0.0014505818 0.0046284916 0.00012342368 -0.00407471 -0.010504807 0.0036614116 0.0026373547 -0.002001787
0.008504355 0.009191289 -0.017456733 -0.0061735315 0.0026994764 -0.0017985232 -0.007513181 -0.012240287
-0.0038168225 0.00086162146 -0.00097525865 0.0050395154 -0.002297229 0.005699082 -0.011751783 0.0026615385
0.0001809698 -0.004532312 0.00043032726 -4.50184e-06 0.001372856 0.0004143384 5.426229e-05 0.0018578545
-0.0018973831 -0.0013609491 -5.030629e-05 0.00070705265 0.004041105 -0.005761169 -0.0019924452 -0.00032931197
-0.003956496 -0.0016996466 0.005252813 0.0037870302 -0.0038092511 0.0014989129 0.0035245353 0.0054291063
-0.0047523687 -0.001994976 -0.0018885683 -0.005867113 -0.004881615 0.0016005848 -0.0010840145 -0.0040610796
0.0014953242 0.0017571606 6.399924e-06 0.0011330799 0.00070651365 0.0011071208 -0.0026801005 0.0006645901
0.0026559057 0.0022331618 -0.00059624633 0.0029643713 -0.0005781426 -0.00020974921 0.0003649061 -0.00044054296
-0.0017182656 -0.0007188888 0.00117626 -0.0024042572 0.0015740432 -0.001955299 -0.0005325789 0.0005680103
0.0029310838 0.00039262322 0.003530605 -0.00022775099 -0.0011652912 -0.0011213305 0.0026639113 0.0018821015
-0.0026175964 -0.007876142 -0.0005412597 -0.0009267165 -0.006276329 -8.102337e-05 6.2864594e-05 -0.0038020671
0.0011266778 0.0014123089 -0.0006290693 0.0015424634 -0.0011283244 -0.0002295871 0.0046829837 0.00029945592
7.908375e-05 0.0037893786 -0.0021655164 -0.0009241308 0.0029442355 0.00069541467 -0.0054163714 -0.0024054325
-0.0028135318 0.0010377938 0.003948497 0.0018637636 -0.0024017985 0.0033141172 -0.0019283213 -0.00032025858

exp_avg_sq f4 [6, 32]
00000000: a869 1c38 747b dd38 2bc0 9037 1115 d537
00000010: 743a b539 294b 6037 b080 0138 1c13 eb38
00000020: 2ed3 1337 3191 5938 9b7f d637 c859 6338
00000030: ce66 0f39 bbb6 0b38 d2a1 5137 cde9 d937
00000040: fc22 ed38 f50b a838 e7ae 0a3a 263f a038
00000050: 45b4 d037 9c07 f637 e38d 5038 bde0 5c39
00000060: 979a ba37 cefe 9f37 c18e 1538 c386 3d38
00000070: c940 eb37 8154 3b38 22b8 9e39 696a 8037
00000080: d306 d637 1e1a 2638 f923 4737 de7c 5f37
00000090: ba31 2b39 b279 2337 9ffa 7437 d64d 8838
000000a0: 60f2 f436 4d9b 1438 41d7 4137 223d da37
000000b0: 22b1 b538 187f df37 b88c 3037 58e6 4737
000000c0: 109f 9038 7202 4438 6b1a 9339 0ed1 5438
000000d0: 6fee a737 ea15 af37 4326 1f38 3337 0239
000000e0: fcde 6437 23b5 7837 0b52 af37 4a99 dd37
000000f0: 26a7 5937 87c8 ae37 94ec 0839 bd88 5637
00000100: da9f e737 bdb9 8738 3e73 8437 f38f 9c37
00000110: 6100 5e39 5855 5137 39fe 9c37 dfbc 9938
00000120: 8036 1537 ed86 0738 ffb0 9437 464e 1638
00000130: 78ae aa38 3c45 9b37 db84 3937 3702 9937
00000140: 7c69 8d38 987c 4a38 5ba6 a739 0bb6 4538
00000150: 8e6f ad37 68c6 d137 a723 ff37 f501 0339
00000160: e52e aa37 d7a1 8137 5d42 0c38 2cb7 0838
00000170: f18e 9037 a9ef f837 acf1 4339 0b89 6637
00000180: 59dd b338 744b 5039 1c00 2938 1349 4738
00000190: 1f1e 573a d611 cb37 b69e 6238 63de 9539
000001a0: 097a b937 aedb 2039 d64e 2b38 f210 e638
000001b0: 58ea d639 8098 e138 9d08 af37 2014 4b38
000001c0: 546a ab39 e3b0 5739 ec03 b53a fe80 6539
000001d0: 9d36 8338 cfee 8538 3993 1639 fb16 1b3a
000001e0: af80 2238 7b7b 2538 00a2 7538 8bdb c038
000001f0: 75dc 4e38 6a01 aa38 ed5c 283a f594 2c38
00000200: 930f 1138 75f9 8b38 e459 9837 46fd c337
00000210: 7f28 8239 e0d7 5a37 50fd a637 b19f b738
00000220: df41 1937 2fff 2038 0565 a837 21aa 2438
00000230: 5c9f d738 009a db37 4e89 4c37 7685 a337
00000240: dd54 ab38 196a 7d38 e09d c539 4e4e 8438
00000250: b0a9 c137 9de4 e037 fe99 2f38 a2d0 2239
00000260: 3454 b937 fbb5 9937 9406 0238 868b 1538
00000270: d6da a337 594b 1038 98ad 5d39 2400 9c37
00000280: 1676 f737 d500 5c38 e7de 5c37 aee8 7e37
00000290: cbd3 6139 c3f5 3837 a559 8037 5bbb b038
000002a0: 4882 0237 4d1d 3538 5e74 7037 1f40 2038
000002b0: 3ddf f138 191c 1838 f1e1 1937 9f30 7737
000002c0: 946e d538 36a1 7538 8679 ce39 d10c 8738
000002d0: 17e1 a137 fcc8 ce37 045f 4838 8b4e 3239
000002e0: 2dac 8937 3efe 4237 2c7a dd37 276f eb37
000002f0: 7a78 8137 5017 c937 5b52 3b39 21f4 6f37
3.72917e-05 0.00010561096 1.7255623e-05 2.5401388e-05 0.0003456656 1.336894e-05 3.0875846e-05 0.000112092326
8.811052e-06 5.187205e-05 2.5570209e-05 5.4204633e-05 0.0001367584 3.3310364e-05 1.24950475e-05 2.5977288e-05
0.00011307557 8.0130914e-05 0.00052903447 7.641157e-05 2.4879477e-05 2.9329029e-05 4.9723207e-05 0.00021064556
2.2244914e-05 1.907293e-05 3.565732e-05 4.5186618e-05 2.8044351e-05 4.4662975e-05 0.00030273298 1.530834e-05
2.5513966e-05 3.9601808e-05 1.18697e-05 1.3320909e-05 0.00016326355 9.7438915e-06 1.4601886e-05 6.4994834e-05
7.299983e-06 3.5430585e-05 1.1553814e-05 2.6016092e-05 8.663746e-05 2.6642854e-05 1.0523181e-05 1.1914955e-05
6.896083e-05 4.673232e-05 0.00028057708 5.0739436e-05 2.001898e-05 2.087183e-05 3.7944188e-05 0.0001241833
1.3641777e-05 1.4824126e-05 2.089983e-05 2.6416634e-05 1.2973125e-05 2.0835794e-05 0.00013058103 1.2787231e-05
2.7611783e-05 6.471898e-05 1.578929e-05 1.866368e-05 0.00021171711 1.2477241e-05 1.871503e-05 7.3307885e-05
8.893781e-06 3.2312168e-05 1.7725395e-05 3.5835685e-05 8.138729e-05 1.850968e-05 1.1057792e-05 1.8240053e-05
6.743052e-05 4.827659e-05 0.00031976667 4.7138e-05 2.0675154e-05 2.5007132e-05 3.041497e-05 0.00012493863
2.0287416e-05 1.545336e-05 3.3440407e-05 3.259552e-05 1.72327e-05 2.9675504e-05 0.00018686679 1.3740976e-05
8.576614e-05 0.00019864534 4.029284e-05 4.7513353e-05 0.00082060875 2.4207791e-05 5.403041e-05 0.00028585186
2.2110546e-05 0.00015340626 4.0843e-05 0.00010970411 0.0004099186 0.000107572414 2.0865637e-05 4.8417714e-05
0.00032694882 0.00020569893 0.0013810373 0.00021887195 6.256739e-05 6.386416e-05 0.0001435996 0.0005916205
3.8743656e-05 3.9454066e-05 5.8563426e-05 9.1961665e-05 4.9319544e-05 8.106495e-05 0.00064225384 4.1146723e-05
3.45852e-05 6.6745015e-05 1.816167e-05 2.3363751e-05 0.00024825704 1.3044075e-05 1.99067e-05 8.755865e-05
9.1348475e-06 3.838463e-05 2.0074202e-05 3.9259092e-05 0.00010281682 2.6178546e-05 1.2191316e-05 1.9493262e-05
8.1697224e-05 6.041871e-05 0.00037692394 6.308836e-05 2.308641e-05 2.6809337e-05 4.1866668e-05 0.00015527246
2.2092929e-05 1.8323763e-05 3.100054e-05 3.565431e-05 1.9533018e-05 3.440245e-05 0.00021140871 1.8596715e-05
2.9499683e-05 5.2452862e-05 1.316492e-05 1.5193755e-05 0.00021536571 1.10244755e-05 1.5300533e-05 8.427232e-05
7.778937e-06 4.318105e-05 1.4332209e-05 3.820669e-05 0.00011533357 3.6265792e-05 9.172117e-06 1.4733668e-05
0.00010177228 5.856269e-05 0.00039381924 6.439689e-05 1.9297511e-05 2.4650704e-05 4.7772206e-05 0.00017004662
1.6411848e-05 1.16224965e-05 2.6402144e-05 2.8065942e-05 1.54341e-05 2.3971923e-05 0.0001786439 1.4302351e-05

exp_avg f4 [6]
00000000: 66e6 3e3c e6e7 6bbc 86b2 c13c 4481 a9bb
00000010: a0ef 4d3a 7e68 953b
0.011651611 -0.014398551 0.023644697 -0.0051728804 0.00078558363 0.0045595756

exp_avg_sq f4 [6]
00000000: 34b5 6b3a 8d0f fe39 5d9d 173a 0de0 173b
00000010: 884e 323a 40da 2e3a
0.000899154 0.00048458242 0.0005783642 0.0023174316 0.0006801863 0.0006670095

exp_avg f4 [64, 26]
00000000: a9c8 48ba 0000 0000 7c9a b8ba 45d9 8cbb
00000010: 0000 0000 a377 c13b 0000 0000 c857 163b
00000020: 32dc 1bbc d1c1 0bbb bd67 0a3c b417 cc3b
00000030: db4d df3c 3971 5f3b 2bb5 9fba c54d e138
00000040: cb8f 96bb b41a d7b9 8907 ccb7 1fcb 743b
00000050: a68d c33c 0235 84ba dbd3 96b6 6de8 c93a
00000060: 2f93 f429 5ef1 0bb6 3186 8bba 0000 0000
00000070: 54b3 e03c 8666 4e3c 0000 0000 1fcf 95bc
00000080: 0000 0000 53a0 85bb e41f 933c a228 5b3b
00000090: e6cf 99bc 7c0e 04bc 0111 b0bc 6c14 a33b
000000a0: f439 343c 0ce3 093b 3a85 a23c 4ca2 3d3a
000000b0: d5a1 163c e5b1 7f3a 3ffb 2bbd 10ee de38
000000c0: a5a9 91b6 36a9 5c3c 6eaf 292a de7b 0db6
000000d0: e01c 4fba 0000 0000 cb17 3c3d f34b 8b3c
000000e0: 0000 0000 b616 febc 0000 0000 8f17 b9bb
000000f0: 2383 103d 3bc5 50bb 7ec5 35bd dcd3 9fba
00000100: 074b 9dbd 049a 1f3b ee4b 3a3c 7ddb 8c3b
00000110: 413d 3f3d f0c9 8bbb 1551 d63b d1c7 bfbb
00000120: 0e8c 7fbd fc40 e0ba 6119 4e35 5548 153d
00000130: 0c00 9e29 ef4a 85b5 2f66 f43a 0000 0000
00000140: eba2 adbb 6342 203b 0000 0000 3862 26bb
00000150: 0000 0000 7d71 d1ba bb99 e0ba a23f 923a
00000160: 2650 3a3b 9c82 aebb 1037 593b bf7b b03b
00000170: 75b2 88bb 73d9 11ba 4df0 4ebb 3da5 93b8
00000180: 15d1 9839 bf36 653b 2133 95bc 00e6 17bb
00000190: 3093 1035 d3db bcbb 1c17 5aa9 9f3d dfb3
000001a0: b3cb 3dbb 0000 0000 1305 183b b53b 17bc
000001b0: 0000 0000 eb1a 5a3c 0000 0000 4310 9b3b
000001c0: 6c74 fabb 1713 4dbb 1679 8e3b ed5e 123c
000001d0: 44a0 da3c d5a6 24bb 96cf 123b 1100 89ba
000001e0: 25bf 113a 66c0 633a 88e5 a2bb bbc9 523a
000001f0: 052e 603d c103 9f3a bfd7 5bb6 027c a83b
00000200: 21e1 0b28 e632 7db5 c4fc f23a 0000 0000
00000210: 89c2 61bc ad5e d1bb 0000 0000 83ae 5e3c
00000220: 0000 0000 870a b83a 0484 f0bc 6fed 123b
00000230: bf33 023d 63da 553b 9cef 4c3d fb9f 41bb
00000240: e2be 3fbb e35b 02bb ca13 f3bc a1a6 d43b
00000250: 2828 8d3c 51a6 2ab9 4a9a a23c 2511 6d39
00000260: 920c 6bb6 1a06 abbc 322e 052a 33a6 4cb6
00000270: 4442 feba 0000 0000 f762 a3bc 615b 1fbc
00000280: 0000 0000 6d2d 7c3c 0000 0000 cd14 d53b
00000290: 2851 e9bb 20cb 08bb 4491 bd3b 0329 a83b
000002a0: bce8 3d3c eeef 74bb 7f71 e5bb fb9f 87bb
000002b0: ec7a 3ebc 69ae ce3a f02a 86bc 0606 013a
000002c0: 3930 203d 8fa4 36ba f17b e236 21b7 81bb
000002d0: a687 16aa cb73 4c36 4c5c 87bb 0000 0000
000002e0: 2cb8 afbc eac0 96bc 0000 0000 6a71 ed3c
000002f0: 0000 0000 028f 403c 3305 e2bc 4789 9ebb
00000300: 1f89 ce3c fc56 a33c 2dea 643d ebac b0bb
00000310: 49fe eabb 06ee b2ba 7c19 cfbc ec9b 833a
00000320: e1f1 31bc f193 edba 359a bf3d e2bb 25ba
00000330: 0526 67b5 3334 d8bb 87df 3429 0133 a2b4
00000340: 3488 8bbb 0000 0000 84ff 533d 8c29 8e3c
00000350: 0000 0000 51ad 0bbd 0000 0000 fd6d a2bb
00000360: cfd7 523d 1985 89bb c52c 69bd 1ec9 2d3a
00000370: 1336 9dbd b75b 103b 37e2 4c3c ad83 70ba
00000380: 4bf4 853d 8814 423b c07b 96bc a4d5 fa3b
00000390: d926 78bd 6d0a 253a 9304 be34 7b5e 523d
000003a0: c5c3 a4a6 5b9d 8bb3 fa87 d638 0000 0000
000003b0: 5e75 47bc 806e 3bbc 0000 0000 c5d2 963c
000003c0: 0000 0000 1a85 983b 88df 9ebc 402d 05bb
000003d0: 9978 743c 562c da3b dd2b 0f3d a2e4 ce38
000003e0: 8cc1 71bb 78c0 e4ba ab03 87bc 2f27 113b
000003f0: 71b2 c83b 4f64 2ebb 046e 623d 2902 96ba
-0.0007659295 0.0 -0.0014084126 -0.0042983615 0.0 0.0059041544 0.0 0.0022940505
-0.009512948 -0.002132524 0.008447585 0.0062284116 0.027258804 0.0034094586 -0.001218473 0.00010743322
-0.004594778 -0.0004102789 -2.4322204e-05 0.0037352515 0.023871254 -0.0010086598 -4.4950116e-06 0.0015404351
1.0861309e-13 -2.0853108e-06 -0.001064485 0.0 0.02742926 0.012597686 0.0 -0.01828724
0.0 -0.00407795 0.017959543 0.0033440967 -0.018775892 -0.008060094 -0.021492483 0.0049767997
0.011000145 0.0021039871 0.019838918 0.0007233962 0.009193857 0.00097539864 -0.041987654 0.000106301275
-4.341086e-06 0.013468077 1.507108e-13 -2.1082737e-06 -0.0007900726 0.0 0.04592113 0.017003989
0.0 -0.031016689 0.0 -0.0056485604 0.03528131 -0.003185584 -0.044377796 -0.0012193876
-0.07680326 0.0024353275 0.011370642 0.004298626 0.046689276 -0.004266016 0.0065404275 -0.0058526774
-0.062389426 -0.0017109211 7.677791e-07 0.036445934 7.0166176e-14 -9.931081e-07 0.0018646176 0.0
-0.0052989624 0.0024453632 0.0 -0.0025388133 0.0 -0.0015979257 -0.0017135659 0.001115788
0.002842912 -0.0053256284 0.0033144392 0.0053858454 -0.0041716644 -0.00055637135 -0.0031576336 -7.040284e-05
0.00029147477 0.0034975258 -0.018212857 -0.0023177862 5.3858366e-07 -0.00576351 -4.8425768e-14 -1.03954555e-07
-0.0028960526 0.0 0.0023196384 -0.009230544 0.0 0.013312082 0.0 0.004732163
-0.007643273 -0.0031291896 0.0043479307 0.008933765 0.026687749 -0.0025123854 0.0022401563 -0.001045229
0.0005559794 0.00086880324 -0.00497121 0.00080409244 0.054731388 0.0012131856 -3.2759124e-06 0.005141736
7.764867e-15 -9.432391e-07 0.0018538465 0.0 -0.013779291 -0.00638946 0.0 0.0135914115
0.0 0.0014041223 -0.029359825 0.0022419353 0.03178763 0.003263139 0.050033197 -0.0029544819
-0.0029258062 -0.0019891195 -0.029672522 0.0064895903 0.017231062 -0.00016274421 0.019848961 0.00022608468
-3.5025046e-06 -0.020876933 1.18288e-13 -3.049511e-06 -0.0019398411 0.0 -0.019944651 -0.009726376
0.0 0.01539169 0.0 0.006502724 -0.0071202703 -0.0020873025 0.0057851393 0.005131842
0.011591133 -0.0037374455 -0.007002055 -0.004138944 -0.011625987 0.0015768531 -0.016377896 0.0004921857
0.03910849 -0.000696727 6.7497535e-06 -0.0039585982 -1.3369739e-13 3.046577e-06 -0.0041308757 0.0
-0.021450125 -0.018402535 0.0 0.028984744 0.0 0.011752846 -0.02759037 -0.004838142
0.025211869 0.019938938 0.05588739 -0.005391707 -0.0071714264 -0.0013651259 -0.025280707 0.0010040975
-0.010860891 -0.0018125755 0.093555845 -0.0006322247 -8.610953e-07 -0.0065980195 4.0161908e-14 -3.0211962e-07
-0.00425818 0.0 0.05175735 0.017353795 0.0 -0.034100834 0.0 -0.0049569593
0.051475342 -0.0041967747 -0.05692746 0.0006629395 -0.076763295 0.0022027323 0.012505106 -0.00091748947
0.06540736 0.0029614288 -0.018369555 0.0076548625 -0.060583923 0.0006295804 3.5393586e-07 0.051359635
-1.1432849e-15 -6.501315e-08 0.00010229643 0.0 -0.012173979 -0.0114399195 0.0 0.01841105
0.0 0.004654539 -0.019393697 -0.002032116 0.014921331 0.0066581173 0.03495394 9.865432e-05
-0.0036889045 -0.001745238 -0.016481241 0.00221486 0.0061247875 -0.0026610082 0.0552807 -0.0011444736
