flare/polgrad/lightning_logs/version_43/checkpoints/epoch=29.ckpt (torch_old, 153444 bytes, 36 tensors)

exp_avg f4 [6]
0.005080029 0.01597478 -0.005189277 -0.0027562822 0.0064248936 0.013411002
00000000: 5f76 a63b 8bdd 823c d00a aabb bea2 34bb
00000010: ea87 d23b d2b9 5b3c

exp_avg_sq f4 [6]
9.924796e-05 8.6484215e-05 0.00012483487 0.00013672761 9.5665724e-05 0.00010952099
00000000: 5823 d038 dc5e b538 1be6 0239 8a5e 0f39
00000010: 25a0 c838 a2ae e538

exp_avg f4 [64, 26]
0.00031473045 0.0 0.00021242391 -0.0001343904 0.0 0.0007055899 0.0 -3.3456425e-05
0.0005339924 -0.0003388805 -0.0017007412 0.00044543957 -0.0012999043 0.0014572873 -2.9721297e-05 0.00058771524
0.0002618535 -0.0011782469 0.00047871593 -0.001321302 0.00087530096 -0.0008084839 0.0005767601 -0.00035984785
-2.4651397e-08 -0.00064944604 -0.000656472 0.0 0.0005752577 0.00023386061 0.0 -0.0009239736
0.0 0.00020203477 0.0005724014 0.00020839523 0.00064827316 -0.00048909214 0.00077845686 -0.0007037994
0.00072475756 0.0009912732 0.0016058733 -0.0014300966 -0.0016653095 0.0017718076 0.0003281053 0.00036968937
-0.0004974707 0.0006822258 3.3688384e-08 0.00064157083 0.00033322192 0.0 -0.0009166512 0.00028739843
0.0 -0.000506823 0.0 -0.000122004145 -0.0011257718 -0.00019600497 0.0010070866 0.0011532046
-0.0010659861 -0.00026351205 -0.00063883216 0.002455749 0.0014627364 -0.0030346285 0.00047010454 -0.0005958473
-0.00082676404 -0.0006130746 0.00050277624 -0.0011365057 -4.4012893e-08 -0.00026181366 -0.00051049906 0.0
0.0007398485 0.00018111014 0.0 -0.0006255855 0.0 0.0004179594 0.00016589253 0.00038686953
-0.00018626824 -0.0010794721 0.00044110883 0.00014559271 0.0006247929 0.00082645327 0.0013399475 -0.0011145807
-0.00068980333 0.0013912219 0.00030628033 8.71612e-05 0.000209333 0.0007046398 -1.10692016e-08 0.00025369023
0.0001569502 0.0 0.0010680149 -0.00045707152 0.0 0.0007567232 0.0 0.00028976277
-0.0009363148 -2.4540816e-05 -0.0007515538 0.00036556984 -0.0015640958 0.0014097891 0.00037691835 -4.2147476e-05
-0.0018791871 0.00042903674 0.003201069 -0.001602701 0.002089089 2.6526897e-05 0.0009615436 -6.963441e-05
-1.6939557e-08 -0.00023384047 -0.00015084834 0.0 0.0002043157 0.0001346576 0.0 -0.00031564504
0.0 9.244555e-05 -0.00011660918 -7.741015e-05 0.00024359243 0.00047700098 -0.00014425145 0.00025853782
0.00011710008 0.001366331 0.0014825066 -0.0019166853 -0.0006723286 4.609213e-05 0.0006082471 -0.00030499703
0.00013853636 -0.00030361983 1.8947935e-08 6.5831555e-06 9.8154625e-05 0.0 0.0005348562 -0.0004883049
0.0 0.000586041 0.0 0.00016215655 -0.0007807518 -0.00035995996 -0.000104034465 0.00030909624
-0.00052788225 0.00052891154 8.0733254e-05 -0.0008520757 -0.0021626109 0.0009630007 0.0022124145 2.6856665e-05
0.0009331297 0.0006197914 0.0005665052 0.0008234837 -2.5846674e-08 -7.428668e-05 2.8029433e-05 0.0
0.00193167 -0.0007651085 0.0 0.0013043543 0.0 0.00031173715 0.00039959938 -0.000891809
-0.002322646 0.0014304462 -0.002376127 0.0013401393 0.0011210915 -0.0019045548 -0.0022873569 0.0024926495
0.0020241374 -0.0024453248 0.003387488 -0.00022298383 0.0001973273 0.0011837999 3.4526106e-08 -0.00045516697
-0.00034512536 0.0 0.0007775794 0.0001999726 0.0 -0.00043479103 0.0 0.00040225062
0.00068140955 0.00030822813 -0.0013080855 -0.0012374198 -0.0002125394 0.0004127417 0.00077365374 0.00040304736
0.00092092395 -0.00037139654 -0.00038111425 0.0011138795 5.1195268e-05 5.0634844e-06 0.00022140681 0.000679219
-3.85046e-08 5.7011515e-05 0.00020853637 0.0 -0.00049099326 0.000378968 0.0 -0.00028010935
0.0 -1.9223458e-05 0.000981231 0.00031999295 -0.0016843411 -0.0010830453 -0.00036824952 5.827604e-05
-5.02466e-05 -4.0716895e-05 0.0005944172 0.0005384394 -0.0005891156 0.00058341504 -0.0014290572 -0.0006472677
00000000: 6802 a539 0000 0000 1cbe 5e39 26eb 0cb9
00000010: 0000 0000 56f7 383a 0000 0000 9053 0cb8
00000020: a0fb 0b3a c5ab b1b9 68eb deba e389 e939
00000030: 8d61 aaba 7302 bf3a 0052 f9b7 e710 1a3a
00000040: 6249 8939 686f 9aba 2afc fa39 8a2f adba
00000050: 7474 653a 70f0 53ba b731 173a f6a9 bcb9
00000060: ffc0 d3b2 963f 2aba 1717 2cba 0000 0000
00000070: e4cc 163a 7b38 7539 0000 0000 d236 72ba
00000080: 0000 0000 4cd9 5339 350d 163a ab84 5a39
00000090: e0f0 293a 6b36 00ba 5b11 4c3a 2e7f 38ba
000000a0: a8fd 3d3a 9ced 813a 2b7c d23a 1472 bbba
000000b0: 8446 daba ff3b e83a 8c05 ac39 ded2 c139
000000c0: b268 02ba 66d7 323a c5b0 1033 172f 283a
000000d0: 4ab4 ae39 0000 0000 6c4b 70ba f7ad 9639
000000e0: 0000 0000 51dc 04ba 0000 0000 7adc ffb8
000000f0: a28e 93ba af86 4db9 3800 843a 2027 973a
00000100: 8fb8 8bba fd27 8ab9 4d77 27ba a2f0 203b
00000110: 4ab9 bf3a 9ee0 46bb 5d78 f639 a332 1cba
00000120: 32bb 58ba bdb6 20ba becc 033a cef6 94ba
00000130: b008 3db3 0944 89b9 03d3 05ba 0000 0000
00000140: 64f2 413a 62e8 3d39 0000 0000 55fe 23ba
00000150: 0000 0000 9021 db39 70f3 2d39 c0d4 ca39
00000160: 0051 43b9 137d 8dba a044 e739 3faa 1839
00000170: 24c9 233a 57a6 583a 2da1 af3a 1f17 92ba
00000180: ebd3 34ba a959 b63a 4094 a039 50ca b638
00000190: 6680 5b39 94b7 383a dd2a 3eb2 ba01 8539
000001a0: 0093 2439 0000 0000 a2fc 8b3a 1aa3 efb9
000001b0: 0000 0000 d65e 463a 0000 0000 4deb 9739
000001c0: 0673 75ba 00dd cdb7 ec03 45ba f4a9 bf39
000001d0: 5902 cdba acc8 b83a 209d c539 82c7 30b8
000001e0: 0e4f f6ba 56f0 e039 07c9 513b b911 d2ba
000001f0: 19e9 083b 1486 de37 1910 7c3a b008 92b8
00000200: 7b82 91b2 1333 75b9 0b2d 1eb9 0000 0000
00000210: 943d 5639 e032 0d39 0000 0000 297d a5b9
00000220: 0000 0000 54df c138 148c f4b8 4257 a2b8
00000230: d86c 7f39 fd15 fa39 3442 17b9 5c8c 8739
00000240: a093 f538 7616 b33a ab50 c23a 4939 fbba
00000250: 353f 30ba 0c53 4138 c672 1f3a 02e8 9fb9
00000260: 1244 1139 2a2f 9fb9 f3c2 a232 e0e4 dc36
00000270: 5dd8 cd38 0000 0000 9835 0c3a 9601 00ba
00000280: 0000 0000 8ca0 193a 0000 0000 9108 2a39
00000290: 5eab 4cba 02b9 bcb9 142d dab8 320e a239
000002a0: 9461 0aba a7a6 0a3a 564f a938 d55d 5fba
000002b0: 97ba 0dbb e271 7c3a 28fe 103b 404a e137
000002c0: 469d 743a 7f79 223a 8581 143a 0edf 573a
000002d0: 7005 deb2 5cca 9bb8 c020 eb37 0000 0000
000002e0: 1730 fd3a 9091 48ba 0000 0000 def6 aa3a
000002f0: 0000 0000 a770 a339 5281 d139 4ac8 69ba
00000300: 8937 18bb cf7d bb3a ccb8 1bbb 9da7 af3a
00000310: 97f1 923a 41a2 f9ba 7be7 15bb b85b 233b
00000320: 64a7 043b be41 20bb 9e00 5e3b c4d0 69b9
00000330: a5e9 4e39 bc29 9b3a db49 1433 7aa3 eeb9
00000340: f1f1 b4b9 0000 0000 78d6 4b3a bcaf 5139
00000350: 0000 0000 aaf4 e3b9 0000 0000 2ae5 d239
00000360: 9fa0 323a ae99 a139 1174 abba eb30 a2ba
00000370: 1cdd 5eb9 4165 d839 06cf 4a3a 1a50 d339
00000380: 296a 713a 00b8 c2b9 4ad0 c7b9 98ff 913a
00000390: 80ba 5638 00e7 a936 7029 6839 9e0d 323a
000003a0: 4160 25b3 a61f 6f38 8eaa 5a39 0000 0000
000003b0: 00b6 00ba 39b0 c639 0000 0000 a4db 92b9
000003c0: 0000 0000 1042 a1b7 a69c 803a bac4 a739
000003d0: 1cc5 dcba f8f4 8dba 9d11 c1b9 6c6d 7438
000003e0: e0bf 52b8 6fc7 2ab8 aad2 1b3a 0e26 0d3a
000003f0: e16e 1aba 52f0 183a 344f bbba 66ad 29ba

exp_avg_sq f4 [64, 26]
1.1529535e-06 0.0 6.829477e-06 1.068562e-07 0.0 1.3510584e-07 0.0 7.732992e-07
3.0668853e-06 3.4879034e-07 4.451389e-06 6.3079904e-07 3.502374e-06 7.071596e-07 5.6936037e-06 7.4304967e-07
3.765584e-06 3.1505922e-06 2.677197e-06 1.791102e-06 5.4818183e-06 1.633259e-06 1.4597188e-06 5.3754743e-06
6.719034e-08 6.1711705e-07 6.254691e-07 0.0 4.593318e-06 6.351295e-08 0.0 1.2083403e-07
0.0 5.354178e-07 1.5250241e-06 1.7412813e-07 2.9308687e-06 3.421742e-07 2.2418844e-06 3.9974915e-07
3.7046343e-06 4.1348187e-07 1.8207007e-06 1.5250744e-06 1.7050345e-06 1.3132429e-06 3.075592e-06 8.524724e-07
5.3652843e-07 3.5437945e-06 7.098249e-08 2.790331e-07 1.3810101e-06 0.0 8.584443e-06 8.59011e-08
0.0 7.4070215e-08 0.0 9.682018e-07 3.621367e-06 2.9132335e-07 5.8326764e-06 6.7115997e-07
3.6991196e-06 5.808686e-07 7.2064267e-06 7.496346e-07 4.109454e-06 2.397277e-06 2.7485141e-06 9.275087e-07
6.6319412e-06 1.0955853e-06 1.7337835e-06 7.0744054e-06 4.5953257e-08 4.0876046e-07 1.1341791e-06 0.0
7.696637e-06 6.814294e-08 0.0 1.0183734e-07 0.0 9.049902e-07 2.8556333e-06 1.8834012e-07
5.500888e-06 4.943719e-07 3.596584e-06 2.6711035e-07 6.408574e-06 3.1407163e-07 2.891461e-06 1.1685747e-06
2.4979013e-06 7.739136e-07 5.959574e-06 1.1745338e-06 1.0933852e-06 6.0723914e-06 8.002149e-08 2.391113e-07
1.3819135e-06 0.0 8.44216e-06 1.0923613e-07 0.0 9.713316e-08 0.0 9.4911866e-07
3.5384014e-06 3.12829e-07 4.847123e-06 6.001706e-07 4.3731457e-06 7.63374e-07 6.7108476e-06 6.1626e-07
4.7669355e-06 2.9755026e-06 3.8262556e-06 1.9222252e-06 6.2241743e-06 1.9067074e-06 1.7396303e-06 6.3120788e-06
1.326302e-07 5.93428e-07 1.5516003e-06 0.0 9.643048e-06 1.4908449e-07 0.0 9.6683564e-08
0.0 1.0683577e-06 4.1214034e-06 3.6608344e-07 6.1952283e-06 5.377379e-07 5.691722e-06 5.9474723e-07
7.887083e-06 6.146521e-07 4.8075185e-06 2.1512362e-06 2.971479e-06 1.0301213e-06 7.310925e-06 1.7996333e-06
1.50549e-06 7.400796e-06 1.3005972e-07 4.6246623e-07 1.1101567e-06 0.0 6.8750664e-06 1.02433894e-07
0.0 8.12697e-08 0.0 7.1811e-07 3.0459048e-06 2.7221995e-07 4.171574e-06 4.500921e-07
3.4459022e-06 6.7019846e-07 5.422129e-06 4.482311e-07 3.828628e-06 1.5994948e-06 2.2753725e-06 9.4044015e-07
4.887856e-06 1.508258e-06 1.3897808e-06 5.257193e-06 7.7482376e-08 5.450448e-07 1.047423e-06 0.0
6.976543e-06 1.2088896e-07 0.0 1.3188696e-07 0.0 9.015186e-07 2.4329008e-06 2.600372e-07
4.867831e-06 7.044326e-07 3.0466392e-06 7.869226e-07 5.7305606e-06 8.218889e-07 3.9002366e-06 3.1397967e-06
2.3963485e-06 1.8371306e-06 5.631856e-06 9.480144e-07 1.567947e-06 5.374047e-06 6.650937e-08 5.3430034e-07
1.7788873e-06 0.0 1.10438195e-05 7.182176e-08 0.0 1.0547818e-07 0.0 1.1778394e-06
4.669353e-06 2.1938497e-07 7.2036196e-06 4.829217e-07 3.776893e-06 4.3041052e-07 9.190061e-06 4.134677e-07
4.673887e-06 1.5631869e-06 3.8334397e-06 1.1119286e-06 8.297234e-06 1.8480222e-06 1.8108333e-06 8.625491e-06
8.199336e-08 4.6333463e-07 1.6729956e-06 0.0 1.0016997e-05 1.0651475e-07 0.0 1.2057285e-07
0.0 1.1018705e-06 4.502092e-06 2.947514e-07 6.6986727e-06 4.324939e-07 4.55144e-06 3.4457645e-07
8.36156e-06 5.1463076e-07 4.930433e-06 2.1619094e-06 3.106622e-06 1.2863125e-06 7.711206e-06 1.8535671e-06
00000000: 2ebf 9a35 0000 0000 c328 e536 d178 e533
00000010: 0000 0000 9c11 1134 0000 0000 b794 4f35
00000020: b0d0 4d36 6141 bb34 245d 9536 2e54 2935
00000030: 540a 6b36 a3d3 3d35 af0b bf36 fc75 4735
00000040: 3eb4 7c36 c36e 5336 e5a9 3336 cc65 f035
00000050: 76f0 b736 5a36 db35 8eeb c335 f95e b436
00000060: 484a 9033 f6a7 2535 e9e5 2735 0000 0000
00000070: 4d20 9a36 9d64 8833 0000 0000 9bbe 0134
00000080: 0000 0000 a2b9 0f35 6eaf cc35 faf7 3a34
00000090: f1af 4436 10b4 b734 4873 1636 1b9d d634
000000a0: 229d 7836 84fc dd34 cd5e f435 28b1 cc35
000000b0: 8ad8 e435 af42 b035 4566 4e36 75d5 6435
000000c0: f405 1035 edd1 6d36 096f 9833 04ce 9534
000000d0: 255b b935 0000 0000 e705 1037 a178 b833
000000e0: 0000 0000 8810 9f33 0000 0000 29f3 8135
000000f0: 9c06 7336 2d67 9c34 4fb6 c336 c329 3435
00000100: 643e 7836 fcec 1b35 bcce f136 7f3a 4935
00000110: f1e3 8936 e8e0 2036 1d73 3836 eaf9 7835
00000120: f187 de36 060c 9335 59b4 e835 ae60 ed36
00000130: 245e 4533 9c73 db34 193a 9835 0000 0000
00000140: ce20 0137 fa55 9233 0000 0000 abb1 da33
00000150: 0000 0000 74ee 7235 68a3 3f36 8a3a 4a34
00000160: 4594 b836 fab4 0435 d85c 7136 5e67 8f34
00000170: 3b09 d736 ad9d a834 ec0a 4236 ecd7 9c35
00000180: 9ea1 2736 f0be 4f35 5af8 c736 ada4 9d35
00000190: 6ec0 9235 72c1 cb36 48d8 ab33 355f 8034
000001a0: 307a b935 0000 0000 cda2 0d37 3395 ea33
000001b0: 0000 0000 8597 d033 0000 0000 f0c6 7e35
000001c0: 4675 6d36 e4f2 a734 78a4 a236 691b 2135
000001d0: 09bd 9236 a9ea 4c35 be2d e136 116d 2535
000001e0: aaf3 9f36 bfae 4736 4963 8036 94ff 0036
000001f0: 40d9 d036 f8e9 ff35 3e7d e935 58cc d336
00000200: 1d69 0e34 104c 1f35 9540 d035 0000 0000
00000210: 93c8 2137 0814 2034 0000 0000 5aa0 cf33
00000220: 0000 0000 7e64 8f35 964a 8a36 208a c434
00000230: 9be0 cf36 1159 1035 85fb be36 b8a6 1f35
00000240: c352 0437 92fe 2435 4550 a136 f55d 1036
00000250: 9f69 4736 b342 8a35 5e50 f536 ee8a f135
00000260: 3e10 ca35 5b54 f836 8ba6 0b34 e048 f834
00000270: b200 9535 0000 0000 5fb0 e636 a1f9 db33
00000280: 0000 0000 7d86 ae33 0000 0000 25c4 4035
00000290: 3f68 4c36 a025 9234 8cf9 8b36 30a4 f134
000002a0: 2640 6736 b0e7 3335 bcef b536 6aa4 f034
000002b0: aa77 8036 39ae d635 9ab2 1836 8e72 7c35
000002c0: 5d02 a436 5a6f ca35 8188 ba35 f266 b036
000002d0: 6364 a633 324f 1235 2e95 8c35 0000 0000
000002e0: 0c18 ea36 b4cd 0134 0000 0000 d09c 0d34
000002f0: 0000 0000 e3ff 7135 eb44 2336 3e9b 8b34
00000300: 5a56 a336 3d18 3d35 dd74 4c36 e93c 5335
00000310: 2449 c036 c69f 5c35 c7de 8236 4cb5 5236
00000320: f4d0 2036 5493 f635 46f9 bc36 0e7b 7e35
00000330: 4072 d235 b652 b436 ead3 8e33 d76c 0f35
00000340: 1ac2 ee35 0000 0000 d848 3937 6e3c 9a33
00000350: 0000 0000 3e83 e233 0000 0000 4116 9e35
00000360: 70ad 9c36 1590 6b34 9fb6 f136 20a2 0135
00000370: 8776 7d36 2c13 e734 032f 1a37 91fa dd34
00000380: 62d4 9c36 b1ce d135 ffa0 8036 933d 9535
00000390: 5934 0b37 8f09 f835 c20b f335 34b6 1037
000003a0: 5414 b033 3ac0 f834 b18b e035 0000 0000
000003b0: ad0e 2837 1abd e433 0000 0000 d076 0134
000003c0: 0000 0000 fbe3 9335 ad10 9736 533e 9e34
000003d0: 29c5 e036 8231 e834 92b8 9836 3afe b834
000003e0: a048 0c37 2825 0a35 1970 a536 5215 1136
000003f0: 5c7b 5036 5ca5 ac35 615f 0137 15c8 f835

exp_avg f4 [64]
0.00021242525 0.0005752555 -0.0009166514 0.00073985173 0.0010680159 0.00020431669 0.0005348568 0.0019316718
0.0007775796 -0.0004909935 -0.0006855143 -0.00035480317 -0.0005288962 -0.0024643634 0.00036446785 -0.00095560425
-0.0009763085 0.0010959004 0.0006435906 0.0018545735 0.0006419821 0.002164134 -0.00017503579 -7.678581e-05
0.00056138774 0.0011866833 -0.0009862455 -0.00012322485 -0.00016505696 -6.7786314e-06 0.0001273271 -0.0016685871
0.0009937175 -0.00018180301 0.0017011126 -0.0022930952 -0.001714832 -0.00064788334 -0.0010110326 0.0021453034
-0.00059973175 -0.0007716451 -8.08069e-05 0.0006283165 -0.0014022081 -0.0030421794 -0.000739621 -0.0003045898
0.001667078 -0.00084528036 0.00096413854 -0.00041973195 -0.0025359485 -0.00079549686 -0.001057988 0.0007653175
0.0005449558 0.00082897115 0.0006533165 -0.0019568733 -0.0019165246 -0.0033558507 0.0011211019 0.0008267447
00000000: 78be 5e39 becc 163a 6f4b 70ba 9cf2 413a
00000010: abfc 8b3a d83d 5639 a235 0c3a 2630 fd3a
00000020: 7cd6 4b3a 04b6 00ba 16b4 33ba e004 bab9
00000030: a0a5 0aba 2881 21bb 0c16 bf39 8481 7aba
00000040: f4ee 7fba 51a4 8f3a a2b6 283a 2915 f33a
00000050: b04a 283a 25d4 0d3b d089 37b9 1108 a1b8
00000060: 182a 133a 7c8a 9b3a e844 81ba eb35 01b9
00000070: 2413 2db9 0074 e3b6 1c83 0539 7eb4 daba
00000080: a03f 823a 60a2 3eb9 def7 de3a c147 16bb
00000090: 37c4 e0ba b7d6 29ba a084 84ba 3898 0c3b
000000a0: 5137 1dba 3a48 4aba e076 a9b8 9bb5 243a
000000b0: 4cca b7ba 4d5f 47bb 20e3 41ba 5ab1 9fb9
000000c0: db81 da3a ce95 5dba 3ebe 7c3a 780f dcb9
000000d0: 2832 26bb e488 50ba 30ac 8aba 979f 483a
000000e0: 5ddb 0e3a 504f 593a 5443 2b3a e33e 00bb
000000f0: e533 fbba d5ed 5bbb f0f1 923a e6b9 583a

exp_avg_sq f4 [64]
6.8294767e-06 4.593318e-06 8.584448e-06 7.696637e-06 8.442162e-06 9.643049e-06 6.875064e-06 6.9765424e-06
1.1043822e-05 1.0017003e-05 6.494778e-06 5.501404e-06 6.954072e-06 1.5274887e-05 7.675079e-07 8.73296e-06
1.7393559e-05 3.266736e-06 7.3999577e-06 7.700857e-06 5.4709967e-06 1.6456455e-05 6.5215077e-06 6.9110356e-06
1.5166911e-05 8.754561e-06 3.958683e-06 2.5816737e-06 6.387131e-06 3.1052845e-05 1.3227362e-05 2.9664936e-06
4.3798427e-06 1.1258994e-05 2.7777643e-05 5.4414477e-06 1.3927489e-05 4.204191e-06 3.4627014e-06 2.9421217e-05
7.005358e-06 4.62332e-06 8.887385e-06 4.372055e-06 7.757042e-06 2.0100973e-05 5.9664517e-06 5.146546e-06
1.2099032e-05 6.1349674e-06 2.7146716e-06 6.846959e-06 1.0590164e-05 1.0192997e-05 1.317003e-05 4.6497835e-06
1.6050732e-05 4.995958e-06 2.3065832e-05 1.3037432e-05 7.004159e-06 1.00374245e-05 1.4948452e-05 2.030904e-06
00000000: c228 e536 4d20 9a36 ec05 1037 ce20 0137
00000010: cfa2 0d37 95c8 2137 5ab0 e636 0b18 ea36
00000020: db48 3937 b30e 2837 b8ed d936 b398 b836
00000030: 0657 e936 9222 8037 be06 4e35 c783 1237
00000040: 62e8 9137 193a 5b36 274d f836 ee32 0137
00000050: 8193 b736 f80b 8a37 53d3 da36 58e5 e736
00000060: 6375 7e37 8ee0 1237 d4d4 8436 d140 2d36
00000070: 0a51 d636 bd3e 0238 16eb 5d37 f913 4736
00000080: 90f6 9236 03e5 3c37 0904 e937 ae95 b636
00000090: 1caa 6937 ba11 8d36 c260 6836 95cd f637
000000a0: 910f eb36 0422 9b36 071b 1537 abb3 9236
000000b0: 3e24 0237 839e a837 6e33 c836 7eb0 ac36
000000c0: f2fc 4a37 f8da cd36 b42d 3636 eebe e536
000000d0: 68ac 3137 9702 2b37 d9f4 5c37 5605 9c36
000000e0: afa4 8637 f4a2 a736 7f7d c137 58bb 5a37
000000f0: 4505 eb36 6966 2837 1dcb 7a37 aa4a 0836

exp_avg f4 [64, 64]
4.298569e-05 -0.000113135786 6.6202483e-06 -0.00044366406 0.00046506792 0.0004547954 0.00016817263 -1.8298946e-05
0.000315294 -0.00030565404 -0.00017974764 -0.00017843813 -0.00019439554 -0.00047468243 0.00033704325 -0.00046658004
-0.0009037409 0.00056264474 0.00077070575 0.00076575275 -0.00016422638 0.00063318637 -0.00036431133 -0.00036095246
0.00062999106 -9.385724e-05 -0.0002855766 0.00020517161 -0.00014863361 8.3871695e-05 -1.573001e-05 -0.00034004755
-6.2765015e-05 1.9295097e-05 0.000228646 -0.0004882015 -3.2589727e-05 -0.00016761063 0.0004064188 -0.00020524676
3.9048376e-05 0.00017768545 -0.00020847532 0.00032912887 0.00045177323 0.00045255278 -0.00016455876 0.00045658933
-0.00034787343 0.00034811674 -0.00026290363 -0.0005368969 0.00024789697 0.00027269172 -0.00030521775 -0.0009748745
-3.9889477e-05 -0.00035896353 -4.667345e-05 -0.0004867958 -0.0002713376 -7.862627e-05 -0.0004884525 -0.0005682906
-0.00036174 0.00086194 -0.00053071836 -0.0009769246 -0.0008821341 0.00029252877 -2.0085456e-05 -0.00085277786
0.00020120887 -0.00020536676 9.2494534e-05 0.00072346954 0.0009532316 -0.00021080128 -0.00064425496 -0.00023404026
0.00069333566 0.000594686 -6.841333e-05 -0.00057392323 -3.9265724e-05 0.0011101712 -0.00055120455 0.000112004345
0.0004839045 -0.00087646226 0.00022684044 -0.00043674093 0.0002514739 -0.00010297295 -7.060863e-05 -0.0008980872
0.0009782242 0.00046152947 -1.4839752e-06 -0.0009917527 -0.00012658251 -0.00032611866 0.00054306025 -0.00051404303
-0.0008027372 -0.0010848751 7.070898e-05 0.0006176458 0.00055606285 -0.00022635915 -0.00059693365 0.0004474764
-0.0006468623 0.0005590688 0.0007143798 -0.00025293697 0.00015601501 -0.0005601443 0.00019584282 -0.0008114348
1.8717721e-05 0.00048317655 -0.0005498332 0.0002647566 -0.00062920235 -0.00012503925 -0.00064083346 -0.0013380068
-0.0012345724 0.00054697786 -0.00041124976 -0.00076559914 -0.0006802741 4.2393774e-05 0.00073179905 0.0003280683
-0.00093432906 0.00094681757 0.00068505574 -0.00026107798 0.0009780359 0.00026308134 -0.00040051088 0.00019696075
-0.00023174414 -0.00057552254 -0.000896303 0.00013774453 0.0012777195 -0.00045021047 -0.0004911971 -0.000264371
-0.00027319483 -0.00012246793 -0.0001379771 -0.0010209802 -0.0006299024 0.00040932765 0.0008052776 0.0004467596
0.0003271604 -0.0010123878 0.00030187913 -0.00012110657 -0.00021150915 -0.00079573836 0.000120800134 -3.8006423e-05
-0.0012993596 0.000641404 0.00027903312 -0.0005544314 -0.00040350523 0.00044602263 -0.0007028225 -0.0006416534
-0.00072396675 -0.0003147705 0.0010885469 0.00030610635 -0.0007918283 -0.00011874089 -0.0006463061 0.00010197895
-0.00068337383 -0.00014429743 -0.0006995508 -0.0008120465 0.0003220773 -0.0010407844 -0.0008923495 -0.0001246738
0.0013407186 -0.0007649755 0.0005041178 0.001024305 0.00038346217 -0.00061159243 -0.00063103833 -0.00070680445
0.0007662346 -0.0004886 -0.00062700076 0.0008594026 -0.00015703186 0.0004779969 -0.00023897774 0.000262992
0.0011832584 5.2010684e-05 -0.0004620959 -0.0010814039 -0.0010599515 -0.00031375588 0.0008435887 0.00018650884
-0.0012169363 -0.0007274671 0.00047480277 0.0009551315 0.0011343402 -0.00068214646 -0.00071176 -3.1716387e-05
0.0006625294 0.0012198682 -0.00010127998 0.00032681428 -0.00039625922 0.0007414822 3.081776e-05 4.6568195e-05
0.0008564631 -0.0009987978 7.2367024e-05 0.00043430095 -0.00018331237 -0.0009175443 0.00069411733 0.0006343826
0.00092188996 0.00023051926 -0.00015351242 0.00090384507 8.3068466e-05 -0.00024982038 0.00017404857 0.00044006648
0.0007060561 0.0006490157 0.00060734985 0.0018690518 0.00018549523 0.0008669079 0.0013565595 0.0005244708
00000000: 884b 3438 5043 edb8 8023 de36 959b e8b9
00000010: 5cd4 f339 9b71 ee39 7f57 3039 b080 99b7
00000020: 0b4e a539 3140 a0b9 a47a 3cb9 1f1b 3bb9
00000030: a8d6 4bb9 ccde f8b9 2eb5 b039 509f f4b9
00000040: 06e9 6cba 737e 133a 3009 4a3a ccbc 483a
00000050: 2f34 2cb9 6bfc 253a 0a01 bfb9 383e bdb9
00000060: fc25 253a 39d5 c4b8 71b9 95b9 5623 5739
00000070: 88da 1bb9 46e4 af38 f0f3 83b7 6948 b2b9
00000080: b6a0 83b8 e8db a137 b1c0 6f39 4cf5 ffb9
00000090: f4b0 08b8 a3c0 2fb9 9c14 d539 8237 57b9
000000a0: e0c7 2338 1351 3a39 2b9a 5ab9 ee8e ac39
000000b0: fadb ec39 9b44 ed39 688d 2cb9 6262 ef39
000000c0: c862 b6b9 7083 b639 54d6 89b9 8bbe 0cba
000000d0: 2bf8 8139 10f8 8e39 a205 a0b9 b88e 7fba
000000e0: 004f 27b8 4533 bcb9 3cc3 43b8 a038 ffb9
000000f0: 5142 8eb9 28e4 a4b8 7e0b 00ba 56f9 14ba
00000100: eca7 bdb9 d0f3 613a e81f 0bba 260c 80ba
00000110: 043f 67ba 8c5e 9939 307d a8b7 f48c 5fba
00000120: 98fb 5239 b857 57b9 a0f9 c138 38a7 3d3a
00000130: 4ae2 793a 8a0a 5db9 38e3 28ba b468 75b9
00000140: f8c0 353a b4e4 1b3a 2079 8fb8 5673 16ba
00000150: 40b1 24b8 2a83 913a b67e 10ba e0e3 ea38
00000160: 90b4 fd39 63c2 65ba 04dc 6d39 60fa e4b9
00000170: 41d8 8339 2ef3 d7b8 b813 94b8 9d6d 6bba
00000180: c237 803a 70f9 f139 002d c7b5 b3fd 81ba
00000190: 3cbb 04b9 e8fa aab9 285c 0e3a d8c0 06ba
000001a0: c86e 52ba 5e32 8eba 9849 9438 82e9 213a
000001b0: bfc4 113a d25a 6db9 8a7b 1cba 449b ea39
000001c0: 3292 29ba 798e 123a 3845 3b3a a09c 84b9
000001d0: f697 2339 a6d6 12ba 285b 4d39 78b6 54ba
000001e0: 0004 9d37 dc52 fd39 ae22 10ba 08cf 8a39
000001f0: 0ef1 24ba f81c 03b9 9bfd 27ba 0f60 afba
00000200: 60d1 a1ba 1063 0f3a 029d d7b9 7db2 48ba
00000210: 6c54 32ba f8cf 3138 34d6 3f3a 9500 ac39
00000220: c3ed 74ba da33 783a 5095 333a 4be1 88b9
00000230: 7031 803a 2eee 8939 a9fb d1b9 4087 4e39
00000240: 5800 73b9 aade 16ba e0f5 6aba 846f 1039
00000250: 2779 a73a 3a0a ecb9 aec3 00ba 469b 8ab9
00000260: 973b 8fb9 bc6a 00b9 f2ad 10b9 69d2 85ba
00000270: 0920 25ba 079b d639 4419 533a 0f3b ea39
00000280: ba86 ab39 19b2 84ba 8845 9e39 98fa fdb8
00000290: 8ec8 5db9 1999 50ba 1456 fd38 1669 1fb8
000002a0: 464f aaba e523 283a 314b 9239 4357 11ba
000002b0: 8e8d d3b9 25d8 e939 9f3d 38ba a134 28ba
000002c0: 96c8 3dba c807 a5b9 93ad 8e3a e67c a039
000002d0: b392 4fba 8804 f9b8 de6c 29ba 88dd d538
000002e0: 7124 33ba 8c4e 17b9 0f62 37ba 85df 54ba
000002f0: 7cdc a839 ee6a 88ba 90ec 69ba deba 02b9
00000300: 0dbb af3a a388 48ba c626 043a f941 863a
00000310: 6c0b c939 4653 20ba 446c 25ba d848 39ba
00000320: 22dd 483a 6415 00ba 4f5d 24ba 8849 613a
00000330: eba8 24b9 a89b fa39 1996 7ab9 30e2 8939
00000340: 9017 9b3a 0c26 5a38 7645 f2b9 e5bd 8dba
00000350: 12ee 8aba 9a7f a4b9 4824 5d3a 9691 4339
00000360: 9b81 9fba 7eb3 3eba f3ee f839 ca61 7a3a
00000370: 24ae 943a 13d2 32ba 6895 3aba 3607 05b8
00000380: 98ad 2d3a fce3 9f3a 4666 d4b8 4558 ab39
00000390: 03c1 cfb9 0760 423a 5142 0138 3852 4338
000003a0: 4484 603a 18ea 82ba c0c3 9738 e3b2 e339
000003b0: 8a37 40b9 5b87 70ba 6df5 353a b24c 263a
000003c0: fdaa 713a 8bb7 7139 2df8 20b9 04f0 6c3a
000003d0: 0b35 ae38 53fa 82b9 cf80 3639 b9b8 e639
000003e0: 9f16 393a b522 2a3a 8f36 1f3a f9fa f43a
000003f0: 7f81 4239 3441 633a 95ce b13a a47c 093a

exp_avg_sq f4 [64, 64]
2.312831e-06 6.2906015e-06 7.341103e-07 3.219846e-07 4.5809907e-06 1.0217278e-06 3.7178972e-07 2.495945e-06
5.1133185e-07 8.311204e-07 3.08537e-06 2.1424878e-06 2.892141e-06 4.859233e-07 1.1264519e-06 3.4411724e-07
2.5706613e-06 2.0002442e-06 2.1661388e-06 1.688043e-06 9.170404e-07 9.279521e-07 6.139041e-07 3.0791372e-07
2.729706e-07 3.1658354e-07 1.07959e-06 2.4317264e-06 5.098205e-07 2.3569893e-07 1.026341e-06 6.519145e-07
1.7467031e-06 3.6286903e-07 2.674732e-07 1.4104289e-06 6.846636e-07 4.6267715e-07 4.9370067e-07 9.43445e-08
4.0948134e-06 1.5546809e-06 1.2316285e-06 5.470655e-07 3.6966802e-07 3.2270228e-07 2.7805927e-06 4.4996355e-07
2.4268974e-07 3.6278794e-07 3.1615323e-06 3.082473e-07 2.584069e-07 1.2123289e-06 1.298229e-06 6.9088344e-07
3.4436925e-07 2.87307e-06 5.965097e-07 1.3649714e-06 6.581086e-07 4.2383652e-07 1.8799169e-06 2.7484384e-06
6.0185234e-06 1.2809894e-05 1.947185e-06 8.1628707e-07 1.0561602e-05 2.0880755e-06 7.142083e-07 4.44075e-06
1.5023749e-06 2.3946645e-06 6.6616963e-06 3.761401e-06 6.2427007e-06 9.72625e-07 1.86968e-06 8.0613773e-07
4.898243e-06 4.2200145e-06 5.067055e-06 3.3513516e-06 2.238499e-06 1.3057495e-06 8.861125e-07 8.626789e-07
7.6848136e-07 7.1532327e-07 2.382963e-06 5.9940844e-06 9.557003e-07 5.3357667e-07 2.2557215e-06 9.315076e-07
2.9194598e-06 9.620315e-07 6.8508774e-07 2.7104718e-06 1.7982385e-06 8.327031e-07 9.615198e-07 1.923129e-07
8.84944e-06 2.3597227e-06 2.207254e-06 1.4355774e-06 7.546667e-07 7.0214486e-07 5.2430773e-06 1.5832943e-06
5.2354875e-07 1.4546074e-06 6.346236e-06 6.551831e-07 6.261467e-07 2.4226633e-06 3.0439817e-06 1.9570034e-06
9.833803e-07 5.7091634e-06 1.4667647e-06 3.410508e-06 1.3488539e-06 1.1024673e-06 3.9694614e-06 4.7210156e-06
3.1827572e-06 6.9305606e-06 1.1639761e-06 5.4721164e-07 5.0831595e-06 1.1045478e-06 5.4628754e-07 2.3915868e-06
7.3874895e-07 1.2182333e-06 3.5361297e-06 2.2134827e-06 3.3890703e-06 6.6951515e-07 1.0203195e-06 6.5818574e-07
2.587967e-06 2.2102386e-06 2.6566852e-06 1.8762094e-06 1.3792336e-06 8.3395895e-07 7.4610966e-07 5.2467817e-07
4.2773019e-07 4.253381e-07 1.3409286e-06 3.2534151e-06 8.30334e-07 3.9683337e-07 1.2890739e-06 5.5386334e-07
2.0259495e-06 6.959741e-07 4.2929196e-07 1.768494e-06 8.267364e-07 6.282396e-07 6.0745384e-07 1.4279784e-07
5.0068347e-06 1.3645875e-06 1.307444e-06 7.9979293e-07 5.424916e-07 4.9635776e-07 3.0884503e-06 9.193416e-07
3.3245024e-07 7.553671e-07 3.6881538e-06 4.079041e-07 5.933577e-07 1.1948533e-06 1.5238887e-06 9.633906e-07
6.351259e-07 2.888225e-06 7.6767344e-07 2.0657028e-06 8.547625e-07 7.5711324e-07 2.459046e-06 2.9028477e-06
2.5280642e-06 7.650777e-06 9.465628e-07 5.153574e-07 5.222432e-06 1.2378165e-06 5.6428274e-07 3.334384e-06
5.8595657e-07 9.0126844e-07 3.410088e-06 2.9660312e-06 3.2370447e-06 7.7609076e-07 1.7603642e-06 3.8356768e-07
3.3998415e-06 2.2554905e-06 2.2736644e-06 2.2072247e-06 1.0239738e-06 1.5266166e-06 9.193878e-07 4.2135014e-07
4.285471e-07 4.9903366e-07 1.4527136e-06 2.3717703e-06 7.192874e-07 4.7230864e-07 1.2058558e-06 1.091581e-06
2.4961457e-06 5.7322603e-07 3.7152975e-07 1.8792675e-06 8.105047e-07 7.1233615e-07 6.817408e-07 1.4524022e-07
4.690491e-06 2.3896544e-06 1.6729341e-06 6.4969913e-07 4.861694e-07 4.0121114e-07 3.4969241e-06 7.3365715e-07
3.760949e-07 5.351755e-07 4.1205294e-06 3.9103628e-07 3.8353866e-07 1.569599e-06 1.4542597e-06 7.380583e-07
5.7687805e-07 3.687622e-06 7.48621e-07 1.6771818e-06 1.0640551e-06 6.6705576e-07 2.2119805e-06 3.7789757e-06
00000000: 2236 1b36 db13 d336 ad0f 4535 3add ac34
00000010: 69b6 9936 4d22 8935 649a c734 0280 2736
00000020: 7542 0935 291a 5f35 410e 4f36 a9c7 0f36
00000030: 9b16 4236 6570 0235 9830 9735 1dbf b834
00000040: a083 2c36 ef3b 0636 fb5d 1136 b790 e235
00000050: 892a 7635 6218 7935 2bcb 2435 574f a534
00000060: cb8c 9234 e9f6 a934 6ee6 9035 be30 2336
00000070: 99da 0835 6e14 7d34 cfc0 8935 39ff 2e35
00000080: 4370 ea35 57d0 c234 3d99 8f34 f84d bd35
00000090: b9c9 3735 dd65 f834 da86 0435 709a ca33
000000a0: 2e66 8936 6eaa d035 6f4e a535 0eda 1235
000000b0: c976 c634 dd3f ad34 389a 3a36 8592 f134
000000c0: 064b 8234 32c5 c234 b62a 5436 307d a534
000000d0: 2dbb 8a34 4eb7 a235 cf3e ae35 2675 3935
000000e0: c0e1 b834 f7ce 4036 d61f 2035 0f34 b735
000000f0: e1a8 3035 a68b e334 7451 fc35 d071 3836
00000100: b9f2 c936 13ea 5637 62ac 0236 d21e 5b35
00000110: bc31 3137 dd20 0c36 05b8 3f35 c101 9536
00000120: 35a5 c935 06b4 2036 8987 df36 616c 7c36
00000130: 6478 d136 248b 8235 b7f1 fa35 5d65 5835
00000140: 965b a436 a699 8d36 ac05 aa36 c8e7 6036
00000150: 1f39 1636 3641 af35 30dd 6d35 d892 6735
00000160: a349 4e35 a404 4035 feea 1f36 cb20 c936
00000170: 9d45 8035 1c3b 0f35 0061 1736 b70c 7a35
00000180: f0eb 4336 271f 8135 dfe6 3735 8de5 3536
00000190: 015b f135 ec86 5f35 920d 8135 917e 4e34
000001a0: 0e78 1437 ba5b 1e36 5620 1436 10ae c035
000001b0: 4d94 4a35 077b 3c35 b1ed af36 9481 d435
000001c0: ff89 0c35 ee3b c335 c1f1 d436 d7df 2f35
000001d0: 7914 2835 0a95 2236 3547 4c36 1055 0336
000001e0: b1fc 8335 5791 bf36 a7dd c435 15e0 6436
000001f0: 440a b535 7df8 9335 6a31 8536 3769 9e36
00000200: 5a97 5536 108d e836 ea39 9c35 19e4 1235
00000210: 0290 aa36 f93f 9435 98a4 1235 267f 2036
00000220: 714e 4635 2d82 a335 3f4e 6d36 588b 1436
00000230: c96f 6336 bbb8 3335 e9f1 8835 2eae 3035
00000240: efac 2d36 9c53 1436 8149 3236 10d2 fb35
00000250: 1b1e b935 39dd 5f35 4448 4835 9cd7 0c35
00000260: caa2 e534 065a e434 f5f9 b335 3f55 5a36
00000270: 1ee4 5e35 5d0c d534 3e04 ad35 33ad 1435
00000280: 8cf5 0736 fad2 3a35 7079 e634 fe5c ed35
00000290: e5ec 5d35 4ca4 2835 e90f 2335 f953 1934
000002a0: 6200 a836 df26 b735 6f7b af35 5ab1 5635
000002b0: bd9f 1135 723d 0535 2c43 4f36 acc8 7635
000002c0: 9d7b b234 6fc4 4a35 0082 7736 eafd da34
000002d0: 3b47 1f35 d95e a035 6b88 cc35 d94d 8135
000002e0: 857d 2a35 54d3 4136 1e12 4e35 81a0 0a36
000002f0: d572 6535 6d3c 4b35 1706 2536 8bce 4236
00000300: d0a7 2936 d65b 0037 4d17 7e35 1757 0a35
00000310: 593c af36 0d23 a635 3779 1735 48c4 5f36
00000320: a14a 1d35 b2ee 7135 ded8 6436 070c 4736
00000330: 013c 5936 8d54 5035 a745 ec35 24ed cd34
00000340: d528 6436 085d 1736 4295 1836 d51f 1436
00000350: 796f 8935 26e6 cc35 d9cb 7635 ec35 e234
00000360: 1113 e634 55f5 0535 dcfa c235 b42a 1f36
00000370: 0e15 4135 9b91 fd34 e4d8 a135 7082 9235
00000380: 7583 2736 cbdf 1935 a976 c734 243b fc35
00000390: 7591 5935 5e37 3f35 df00 3735 54f3 1b34
000003a0: 0363 9d36 f35d 2036 9489 e035 fc66 2e35
000003b0: 4f81 0235 0a66 d734 b3ac 6a36 89f0 4435
000003c0: 17ea c934 fba8 0f35 1443 8a36 9eef d134
000003d0: 27e9 cd34 03ab d235 fc2f c335 fb1e 4635
000003e0: c2da 1a35 dd78 7736 d8f4 4835 871b e135
000003f0: a8d0 8e35 b90f 3335 8971 1436 4f9a 7d36

exp_avg f4 [64]
6.346975e-05 -0.0019580098 -0.0020263148 0.0012856047 0.0013785482 0.0019037628 0.0018323064 0.00069536397
0.0025560271 -0.00026510053 0.00037334795 -0.0009992246 0.00120225 0.0011650377 -0.0004826395 -0.0001208756
-0.0018336674 -0.0017093475 0.0015725575 -0.000372548 0.0008918036 0.00045068283 9.0544505e-05 0.00042117957
0.00018013548 -0.0007810993 -0.0015384976 -0.0004948415 -0.0012516336 0.0014439072 0.0011325974 0.0017018733
-0.0011711244 0.0004559861 0.00068241893 0.0012573074 -0.0007938384 -0.002928685 -0.00042605615 -0.0019739298
0.00062511076 0.00056833617 0.00020191433 -0.0003732241 -0.0009822386 0.0013194156 -0.002220608 -0.0004494239
-0.00052793825 0.00032247527 -0.0018252914 0.00027124077 0.0016364625 0.0012167224 -6.403006e-05 -0.0014189025
-8.292124e-05 0.001648582 -0.0002293709 0.0020571263 0.0014411133 0.0005840722 0.0014928768 0.00026655177
00000000: 101b 8538 f451 00bb eccb 04bb bc81 a83a
00000010: 67b0 b43a ae87 f93a 002a f03a 1649 363a
00000020: 0583 273b 31fd 8ab9 eabd c339 6af8 82ba
00000030: d194 9d3a 2eb4 983a c70a fdb9 987e fdb8
00000040: ab57 f0ba 2f0c e0ba 461e ce3a 8c52 c3b9
00000050: edc7 693a a049 ec39 b6e2 bd38 c4d1 dc39
00000060: c0e2 3c39 b0c2 4cba 6aa7 c9ba 40b8 01ba
00000070: db0d a4ba 7c41 bd3a aa73 943a 6411 df3a
00000080: 6a80 99ba 6b11 ef39 5ce4 323a 3ccc a43a
00000090: 9819 50ba 2eef 3fbb 4a60 dfb9 0c5d 01bb
000000a0: 79de 233a 65fc 143a f7b8 5339 4aad c3b9
000000b0: 75be 80ba 3ef0 ac3a 9f87 11bb a8a0 ebb9
000000c0: 5665 0aba e611 a939 9e3e efba 5235 8e39
000000d0: 927e d63a 6e7a 9f3a e047 86b8 78fa b9ba
000000e0: 00e6 adb8 3c15 d83a 4883 70b9 dad0 063b
000000f0: bde3 bc3a 6c1c 193a a2ac c33a f9bf 8b39

exp_avg_sq f4 [64]
1.697172e-05 3.5529996e-05 1.962889e-05 2.019473e-05 6.357798e-06 5.609246e-06 1.5878566e-05 7.5298276e-06
1.2058234e-05 1.1609343e-05 7.0835317e-06 1.4308428e-05 2.8339973e-05 1.597864e-05 4.5268234e-06 9.0029525e-06
5.1635852e-06 6.003383e-06 2.0110747e-05 1.7903794e-05 1.3935373e-05 1.0714356e-05 1.0748907e-05 7.1137356e-06
1.0085673e-05 1.2375118e-05 1.4651488e-05 7.986238e-06 3.3176868e-06 8.870495e-06 1.3279023e-05 7.080723e-06
1.7569799e-05 1.7251916e-05 4.0857913e-06 1.070696e-05 1.5376614e-05 1.0959402e-05 4.4718035e-06 2.38657e-05
6.040171e-06 1.7414604e-05 9.089206e-06 8.638386e-06 1.8666726e-05 1.4500403e-05 1.8040717e-05 9.977765e-06
7.3391475e-06 1.1563191e-05 2.2990354e-05 7.757617e-06 1.3467411e-05 2.2895036e-05 2.6413593e-06 1.2087398e-05
2.0901723e-05 2.1445641e-05 1.395069e-05 1.635344e-05 7.228576e-06 3.4992884e-06 1.2757638e-05 2.8564816e-06
00000000: 7e5e 8e37 0b06 1538 b8a8 a437 da67 a937
00000010: 1255 d536 0e37 bc36 f632 8537 baa8 fc36
00000020: b84d 4a37 c0c5 4237 13af ed36 3b0e 7037
00000030: a1bb ed37 de09 8637 1ee5 9736 630b 1737
00000040: dc42 ad36 ab70 c936 80b3 a837 1b30 9637
00000050: f9cb 6937 cfc1 3337 3456 3437 86b2 ee36
00000060: a335 2937 ba9e 4f37 a9cf 7537 a2fc 0537
00000070: 6da5 5e36 7cd2 1437 f8c8 5e37 f396 ed36
00000080: db62 9337 35b8 9037 ae18 8936 0ba2 3337
00000090: 07fd 8037 46de 3737 800c 9636 3333 c837
000000a0: acac ca36 9415 9237 d87d 1837 96ed 1037
000000b0: 7d96 9c37 c246 7337 2556 9737 2d66 2737
000000c0: cc42 f636 87ff 4137 69db c037 b626 0237
000000d0: 17f2 6137 b70e c037 3542 3136 fbca 4a37
000000e0: 1c56 af37 2ae6 b337 c20d 6a37 bf2e 8937
000000f0: ff8c f236 51d5 6a36 a309 5637 fbb1 3f36

exp_avg f4 [6, 64]
-0.0026627015 -0.0020799 -0.0017867746 0.001737657 -0.0014502777 0.0011677421 0.0015533748 0.0011175699
0.0016142449 0.0027603852 0.0009004157 0.0012873397 0.000279847 -0.000893595 -0.00046899065 -0.003794838
-0.00011140603 -0.0005348013 -0.00097204465 -6.0252147e-05 0.0037661835 0.0033498488 -0.00038545154 -0.00029987097
0.002337404 -0.0001218961 -0.0035126805 0.0022697118 0.00061678095 -0.00020460144 0.00031586134 0.0010652838
0.00014143751 0.0019896228 0.0013501367 -0.0014789794 0.001879843 -0.0006710446 0.0035238077 -0.0005220065
-0.0014931611 -0.00054212054 -0.0020723548 5.167199e-05 -0.0008789764 -0.0024862722 -0.0026035667 0.00010131323
-0.0018730749 -0.0008961243 0.0019927295 0.0035070793 -0.0006246644 0.00280355 -0.0008614683 -0.0013132249
0.0038100244 0.0008383627 -0.001439854 0.0027582168 0.0007313648 -0.0028460473 -0.000624934 -0.0021898444
-0.0032834867 -0.0018312342 -0.00060049084 0.0014473936 -0.00092626305 0.000264953 -0.0009900195 -0.0011487462
0.00018364174 0.00021231308 0.00078094506 0.0010380561 -0.0015726665 -0.0021762466 -0.0014110373 -0.0013435242
0.002263461 -0.0019428519 -0.00053467724 -0.0034540736 0.0011182734 -0.00041725318 0.0010646078 0.0015092453
-0.0011449455 0.0012472987 0.00083641993 0.0028030172 0.0010819958 0.0020879696 0.0024333482 0.00025984691
-0.00032614003 0.0014157562 0.00096766884 -0.0021704957 0.000991629 0.00039255744 0.0008089661 0.0012923739
-0.002517371 5.743542e-05 -0.00034779558 -0.0011510283 -0.0008651115 0.0008955988 -0.00076363224 -0.0027269074
0.00046634005 -0.0019498278 -0.002441652 0.0015034295 -0.0011694725 0.0024874322 0.001654812 0.0010397371
-2.6885304e-05 -0.0005229134 -0.00094040675 0.00044779884 0.0009194813 0.00066195993 -0.0013562427 -0.001431727
-0.0017579091 -0.0026156572 0.00088141894 -0.002964753 0.0021685744 -0.0028290297 0.002138686 0.0020978444
-0.0021241345 0.0009801681 -0.0014770518 -0.0010051082 -0.0011671825 0.0002803037 0.0054643517 0.0029873403
0.0019508852 -1.7462207e-05 0.0037422082 0.0014592602 0.0028624507 0.0023036283 -0.0007379531 0.00013696388
0.002812141 0.0004635116 0.0012980727 0.002052398 -0.0008414651 0.00498695 -0.00073432515 0.002958465
-0.0029067043 0.0015724506 -0.00048954744 -0.00012511076 -0.0035007785 -0.0031593333 0.0025558672 0.00035862625
0.0016934025 3.7782564e-05 -0.002209682 0.001979182 -0.0046274937 -0.0054849684 -0.0016544121 0.0031130556
0.0044084475 -0.0010459028 -0.0048296596 0.004244175 0.00021401868 0.0006958308 0.00063711056 -0.0066417577
-0.0015545972 0.0032185744 -0.0056038955 0.0014498867 -0.0019577923 0.00035529071 -0.003702769 0.0039119595
4.616499e-05 0.00047150842 0.0011408231 0.0010519365 0.001276056 -0.00054599566 0.002784365 0.00241212
-0.0011163957 0.00083093497 -0.0040226486 -0.0029387858 0.00086280005 0.0017072421 0.0034486935 0.00053734955
-0.00020586373 0.00033108442 0.0005421501 0.0016261225 9.045744e-05 0.00027506222 0.0013727847 0.0011742263
-3.5525183e-05 0.00084098266 0.0015931393 -0.0011164871 -6.706662e-05 0.0027527162 -0.0005134237 -0.001157141
-0.00029629836 -0.0018861686 -0.0010017764 0.0014212463 -0.002138928 -0.0027012196 0.0016425153 -0.0013730873
-0.00042714347 0.002058961 -0.0013854695 0.0025728652 -0.000751424 -0.00052678795 0.0012327234 0.00013081077
-6.8650465e-05 -0.0016515089 -0.001478898 -0.0010217694 -0.0016992455 0.0013356071 0.00022088371 -0.0022089542
0.00031494035 0.00057736656 0.0009801078 -0.0019876822 0.0015332102 -0.00041744037 0.00097270415 0.001104055
00000000: b880 2ebb ee4e 08bb 3532 eaba 18c2 e33a
00000010: 3f17 beba ec0e 993a 9c9a cb3a 6c7b 923a
00000020: 1295 d33a 94e7 343b e009 6c3a f4bb a83a
00000030: 6eb8 9239 2540 6aba dce2 f5b9 d1b2 78bb
00000040: a8a2 e9b8 e831 0cba d0d0 7eba 40b7 7cb8
00000050: 13d2 763b 2389 5b3b 6e16 cab9 0038 9db9
00000060: 222f 193b 78a2 ffb8 0035 66bb 72bf 143b
00000070: 78af 213a 488a 56b9 319a a539 fea0 8b3a
00000080: d84e 1439 5564 023b 12f7 b03a 50da c1ba
00000090: 1065 f63a 0ae9 2fba afef 663b 43d7 08ba
000000a0: 2cb6 c3ba 181d 0eba 58d0 07bb 60ba 5838
000000b0: 1c6b 66ba baf0 22bb 9aa0 2abb 2078 d438
000000c0: f781 f5ba e2e9 6aba 7498 023b 07d7 653b
000000d0: 85c0 23ba c4bb 373b 29d4 61ba 8420 acba
000000e0: 9ab1 793b 92c5 5b3a 7cb9 bcba 33c3 343b
000000f0: 10b9 3f3a c084 3abb 9cd2 23ba 7e83 0fbb
00000100: c42f 57bb 0606 f0ba 426a 1dba 78b6 bd3a
00000110: 76d0 72ba 64e9 8a39 8bc3 81ba 8791 96ba
00000120: f48f 4039 5ca0 5e39 56b8 4c3a 620f 883a
00000130: ee21 ceba 5c9f 0ebb 8ef2 b8ba 3119 b0ba
00000140: 9356 143b 4ba7 feba 9529 0cba bd5d 62bb
00000150: 0793 923a c6c2 dab9 4f8a 8b3a ded1 c53a
00000160: ff11 96ba 667c a33a 3143 5b3a d3b2 373b
00000170: c1d1 8d3a 51d6 083b cf78 1f3b 103c 8839
00000180: c6fd aab9 e590 b93a 28ab 7d3a e03e 0ebb
00000190: 8cf9 813a 2bd0 cd39 cc10 543a df64 a93a
000001a0: 7afa 24bb d0e6 7038 5558 b6b9 1ade 96ba
000001b0: a6c8 62ba 9ec6 6a3a 7e2e 48ba eab5 32bb
000001c0: 1a7f f439 5d91 ffba 1f04 20bb b90e c53a
000001d0: fc48 99ba 3004 233b 47e6 d83a ca47 883a
000001e0: c087 e1b7 2014 09ba a185 76ba 8bc6 ea39
000001f0: 5809 713a 6187 2d3a f4c3 b1ba c9a8 bbba
00000200: a469 e6ba 726b 2bbb 060f 673a 4d4c 42bb
00000210: a41e 0e3b 3e67 39bb 3229 0c3b fd7b 093b
00000220: 1035 0bbb fc78 803a a299 c1ba d6bd 83ba
00000230: 25fc 98ba baf5 9239 4e0e b33b 41c7 433b
00000240: d8b4 ff3a ce7b 92b7 d63f 753b a644 bf3a
00000250: f497 3b3b 78f8 163b 3273 41ba f69d 0f39
00000260: e64b 383b 7903 f339 1824 aa3a 8681 063b
00000270: c495 5cba 9269 a33b ba7f 40ba cee2 413b
00000280: 687e 3ebb b01a ce3a f954 00ba 2a30 03b9
00000290: 516d 65bb d10c 4fbb 5680 273b 0006 bc39
000002a0: 29f5 dd3a b878 1e38 50d0 10bb 2ab5 013b
000002b0: 3ba2 97bb 40bb b3bb dcd8 d8ba 6804 4c3b
000002c0: bd74 903b ad16 89ba 1f42 9ebb b812 8b3b
000002d0: 346a 6039 6a68 363a c403 273a 1aa3 d9bb
000002e0: a0c3 cbba b8ee 523b e2a0 b7bb 200a be3a
000002f0: 4e4e 00bb 5046 ba39 28aa 72bb e52f 803b
00000300: 48a1 4138 ca34 f739 ac87 953a 22e1 893a
00000310: 5641 a73a 2621 0fba e579 363b a914 1e3b
00000320: 0654 92ba 1ad3 593a 6cd0 83bb a598 40bb
00000330: 882d 623a 8ac5 df3a 7a03 623b ebdc 0c3a
00000340: 20dd 57b9 6695 ad39 141f 0e3a 9e23 d53a
00000350: f8b3 bd38 3a36 9039 03ef b33a 7fe8 993a
00000360: e000 15b8 6475 5c3a e2d0 d03a 1757 92ba
00000370: 1ea6 8cb8 ea66 343b 4897 06ba 36ab 97ba
00000380: 7e58 9bb9 5139 f7ba 0a4e 83ba 1d49 ba3a
00000390: 422d 0cbb f206 31bb ab49 d73a 2af9 b3ba
000003a0: 3af2 dfb9 a2ef 063b a498 b5ba 849d 283b
000003b0: 36fb 44ba 2418 0aba 5593 a13a 402a 0939
000003c0: 70f8 8fb8 7177 d8ba 95d7 c1ba e4ec 85ba
000003d0: 38b9 deba 8a0f af3a 059d 6739 1ac4 10bb
000003e0: 941e a539 6a5a 173a f676 803a c643 02bb
000003f0: fff5 c83a e6db dab9 12fd 7e3a f0b5 903a

exp_avg_sq f4 [6, 64]
4.17863e-06 8.321036e-06 2.5413638e-06 1.159798e-05 1.2413512e-06 3.0125799e-05 2.7534315e-06 3.9749675e-06
7.1220556e-06 2.541921e-06 4.6848113e-06 3.0599188e-06 1.5263158e-06 1.4521012e-06 6.6403136e-06 4.397691e-06
4.7446024e-06 6.24407e-06 8.671321e-06 2.5865497e-06 1.9553363e-05 1.6894308e-05 1.6300828e-06 1.7551196e-05
4.4439257e-05 3.4453362e-06 1.2570498e-05 7.0585024e-06 8.152715e-06 9.441074e-06 2.8759284e-06 2.8641682e-05
6.4104365e-06 4.4273474e-06 9.0722115e-06 4.741034e-06 2.8112645e-06 7.2086336e-06 1.5884769e-05 5.6135564e-06
1.7594433e-05 6.1502456e-06 9.480011e-06 8.954111e-06 1.0708635e-05 5.1669576e-05 2.2754924e-05 1.16635465e-05
1.7741284e-05 7.30314e-06 6.9380353e-06 2.7540771e-05 3.0087915e-06 6.7101155e-06 2.8543752e-06 3.6402867e-05
7.0945357e-06 2.6714335e-06 2.8982799e-05 1.7154898e-05 2.9657022e-05 2.9111023e-05 1.9342307e-05 2.0335817e-06
5.408764e-06 9.647162e-06 3.1519803e-06 1.2805728e-05 1.6839497e-06 3.851974e-05 3.11243e-06 4.55902e-06
1.0188886e-05 5.066899e-06 5.459365e-06 2.7716267e-06 1.5810408e-06 3.5538872e-06 1.1010735e-05 4.15494e-06
5.6099816e-06 7.191933e-06 9.544979e-06 3.7435673e-06 2.145877e-05 1.9073274e-05 1.8582928e-06 2.3959243e-05
5.2876716e-05 4.657007e-06 2.1411724e-05 6.759796e-06 1.3078992e-05 1.0845794e-05 3.714206e-06 3.4308214e-05
6.9806288e-06 3.535872e-06 9.011512e-06 6.2704175e-06 3.2078754e-06 1.0300062e-05 1.8080826e-05 4.891782e-06
2.197606e-05 7.3395277e-06 1.5209634e-05 1.3586789e-05 1.0808194e-05 6.258929e-05 2.450564e-05 1.304463e-05
2.0787978e-05 1.234525e-05 7.256808e-06 3.349173e-05 4.321754e-06 7.3054734e-06 2.7720455e-06 4.4125507e-05
4.024912e-06 2.974468e-06 3.2992728e-05 1.905901e-05 3.500833e-05 4.0754832e-05 1.9600044e-05 2.6343314e-06
3.4423858e-06 8.054769e-06 2.2571182e-06 1.1056679e-05 1.4673512e-06 2.8823457e-05 2.8957527e-06 4.273457e-06
7.535324e-06 2.3010025e-06 4.228948e-06 3.297489e-06 1.4614432e-06 2.4927515e-06 9.057463e-06 2.919436e-06
4.476865e-06 5.770605e-06 9.468628e-06 1.5648781e-06 1.723258e-05 1.5067314e-05 1.7682025e-06 1.4758075e-05
3.9307135e-05 3.2926648e-06 1.1230317e-05 6.075963e-06 6.547625e-06 9.1503725e-06 3.5184485e-06 2.5406383e-05
6.134058e-06 4.13377e-06 7.777616e-06 5.231657e-06 2.9610567e-06 6.767962e-06 1.1833307e-05 3.9676042e-06
1.4566518e-05 5.809907e-06 1.071343e-05 8.518305e-06 9.9814515e-06 4.7620248e-05 2.025966e-05 1.0532269e-05
1.7233613e-05 5.8043747e-06 5.95769e-06 2.6279517e-05 3.0109545e-06 6.0234647e-06 2.362456e-06 3.3526696e-05
3.5755938e-06 2.8478225e-06 2.7089756e-05 1.4008394e-05 2.5554538e-05 2.7085383e-05 1.6007703e-05 2.9817932e-06
3.7890495e-06 6.66207e-06 2.2584363e-06 8.591683e-06 1.2090062e-06 2.4144145e-05 3.1733264e-06 3.956398e-06
7.309529e-06 2.8299457e-06 5.881194e-06 3.1471557e-06 1.2784305e-06 2.5398951e-06 8.210259e-06 3.1050763e-06
3.9766337e-06 4.899623e-06 6.326466e-06 2.1647995e-06 1.4044084e-05 1.3032919e-05 1.5789657e-06 1.4760042e-05
3.3189554e-05 2.649928e-06 1.3396407e-05 5.075188e-06 6.5301856e-06 6.725526e-06 2.5074469e-06 2.1670074e-05
4.68824e-06 3.0945703e-06 6.308879e-06 4.323347e-06 2.590521e-06 6.229373e-06 1.2928219e-05 3.7362142e-06
1.298992e-05 5.9040485e-06 1.0423668e-05 8.70355e-06 7.2542443e-06 3.9224575e-05 1.570649e-05 8.173007e-06
1.4230645e-05 6.9698012e-06 7.412778e-06 2.2171198e-05 4.241337e-06 4.901195e-06 2.1502942e-06 2.7998718e-05
3.8247176e-06 3.166941e-06 2.1315986e-05 1.2690217e-05 2.2593676e-05 2.5019684e-05 1.2972286e-05 2.0320556e-06
00000000: 2936 8c36 949a 0b37 4c8c 2a36 f294 4237
00000010: 819c a635 a9b6 fc37 98c7 3836 b660 8536
00000020: fef9 ee36 df95 2a36 3932 9d36 0159 4d36
00000030: d0db cc35 d1e5 c235 dccf de36 e18f 9336
00000040: d333 9f36 2784 d136 0a7b 1137 9694 2d36
00000050: 8706 a437 40b8 8d37 38c9 da35 e83a 9337
00000060: 4a64 3a38 6d36 6736 e1e5 5237 13d8 ec36
00000070: a5c7 0837 1b65 1e37 1300 4136 8b43 f037
00000080: 3b19 d736 a08e 9436 da34 1837 2c15 9f36
00000090: 28a9 3c36 b1e1 f136 4840 8537 155c bc36
000000a0: c297 9337 355e ce36 560c 1f37 9d39 1637
000000b0: 3da9 3337 c9b7 5838 d4e1 be37 8dae 4337
000000c0: 1ed3 9437 7f0d f536 45cd e836 5b07 e737
000000d0: a5ea 4936 7427 e136 cb8d 3f36 48af 1838
000000e0: 990d ee36 e146 3336 1620 f337 dde7 8f37
000000f0: f8c7 f837 7233 f437 4a41 a237 ab78 0836
00000100: ee7c b536 3fda 2137 9c86 5336 2fd8 5637
00000110: 1204 e235 4290 2138 24df 5036 aff9 9836
00000120: eff0 2a37 5504 aa36 972f b736 2f00 3a36
00000130: 2634 d435 517f 6e36 bfba 3837 aa6a 8b36
00000140: 603d bc36 3c52 f136 5f23 2037 ff39 7b36
00000150: 5c02 b437 8bff 9f37 746a f935 15fc c837
00000160: f1c7 5d38 6343 9c36 549d b337 35d2 e236
00000170: d86d 5b37 55f6 3537 9341 7936 2ae6 0f38
00000180: 253b ea36 d249 6d36 2630 1737 7a66 d236
00000190: e146 5736 6ece 2c37 47ac 9737 1624 a436
000001a0: 3b59 b837 1046 f636 e12c 7f37 d0f2 6337
000001b0: d754 3537 5f42 8338 7691 cd37 42da 5a37
000001c0: d861 ae37 721e 4f37 827f f336 7979 0c38
000001d0: 9603 9136 8a21 f536 6107 3a36 6713 3938
000001e0: bb0d 8736 f99c 4736 ac61 0a38 eae0 9f37
000001f0: e8d5 1238 2bf0 2a38 c66a a437 78c9 3036
00000200: bd03 6736 f822 0737 ff78 1736 1380 3937
00000210: cef1 c435 e7c9 f137 a754 4236 b764 8f36
00000220: f1d7 fc36 ec6a 1a36 63e6 8d36 6e4a 5d36
00000230: ce26 c435 2549 2736 82f5 1737 87eb 4336
00000240: fa37 9636 1fa1 c136 73db 1e37 cd08 d235
00000250: af8e 9037 9fc9 7c37 fa52 ed35 7399 7737
00000260: b7dd 2438 8df7 5c36 d869 3c37 20e0 cb36
00000270: acb3 db36 8d84 1937 7c1e 6c36 cb1f d537
00000280: 28d3 cd36 d0b4 8a36 9b7c 0237 978b af36
00000290: 91b6 4636 5a18 e336 ab87 4637 7621 8536
000002a0: b862 7437 b9f2 c236 d5bd 3337 d7e9 0e37
000002b0: 0276 2737 dabb 4738 4af3 a937 c0b3 3037
000002c0: e790 9037 33c3 c236 2be8 c736 d572 dc37
000002d0: ce0f 4a36 2b1d ca36 af8a 1e36 049f 0c38
000002e0: 3cf4 6f36 381d 3f36 cf3e e337 9805 6b37
000002f0: f45d d637 6b35 e337 4848 8637 d11a 4836
00000300: 6047 7e36 bf8a df36 a48f 1736 ff24 1037
00000310: 2345 a235 2889 ca37 55f5 5436 33c1 8436
00000320: 6044 f536 19ea 3d36 1257 c536 b933 5336
00000330: 8a96 ab35 1173 2a36 cbbe 0937 ce60 5036
00000340: 066f 8536 7167 a436 ee47 d436 f946 1136
00000350: e29e 6b37 f6a7 5a37 d9ec d335 e6a1 7737
00000360: 0335 0b38 6bd5 3136 21c1 6037 884b aa36
00000370: de1d db36 d4ab e136 9c45 2836 21c8 b537
00000380: ad4f 9d36 50ac 4f36 dcb0 d336 4511 9136
00000390: d0d8 2d36 e805 d136 47e6 5837 acbb 7a36
000003a0: 48ef 5937 641b c636 50e1 2e37 7605 1237
000003b0: 7c69 f336 1185 2438 6ec1 8337 cc1e 0937
000003c0: 28c0 6e37 23de e936 47bb f836 49fc b937
000003d0: cf50 8e36 f274 a436 c64d 1036 cade ea37
000003e0: 1356 8036 a287 5436 bbcf b237 11e8 5437
000003f0: 8d87 bd37 5de1 d137 8ba3 5937 735e 0836

exp_avg f4 [6]
-0.0074489973 -0.0014900973 -0.009067756 -0.001717817 -0.00802394 -0.008736609
00000000: b816 f4bb 5e4f c3ba ed90 14bc 6028 e1ba
00000010: d876 03bc fe23 0fbc

exp_avg_sq f4 [6]
0.00024584215 0.0003319095 0.0002208735 0.0002051874 0.0004585862 0.0005598827
00000000: 60e4 8039 2404 ae39 479a 6739 9327 5739
00000010: 666e f039 18c5 123a
