flare/polgrad/lightning_logs/version_18/checkpoints/epoch=16_v0.ckpt (torch_old, 115521 bytes, 33 tensors)

exp_avg f4 [64, 4]
00000000: 2374 023b 7c75 823a 82ec ab38 482e 223a
00000010: 3829 1d3a a078 9e39 82a0 de37 a968 2639
00000020: 8c9d d5bb ab25 5dbb e8ec 90b9 ae30 e2ba
00000030: 7c87 ed3a e6f6 803a a006 ad38 0231 be39
00000040: 0aa4 48bb d8d5 eaba 2e8b 1cb9 8d01 38ba
00000050: cedb 7b3a 58a8 f139 ef4d 1d38 3d29 9f39
00000060: 56fb 00bc 37cd 8ebb 1ccd c0b9 bc0c fdba
00000070: 0a8e e73a 3f26 0d3a ac49 3d38 c0ca 5f3a
00000080: c563 8e3a 4975 1e3a 7db0 5538 6dae 8139
00000090: b886 4c3b 6901 ed3a d1d5 1a39 2145 2b3a
000000a0: 96a6 023b e028 9a3a 12de cd38 b56a ee39
000000b0: 70d4 3f3b 358e dd3a dbcb 1539 9ac3 2c3a
000000c0: 749d f83a ed84 783a ac4f a938 08cd 0c3a
000000d0: b569 573b 1c1c f43a 2ff2 2139 a622 3c3a
000000e0: c9c7 61ba 2cea b2b9 6839 ebb7 2471 b8b9
000000f0: d27e f43a 166b 943a bcd4 c738 ba22 ad39
00000100: b0cd 8d39 3a02 5239 d66c 8c37 2840 8637
00000110: 6d97 f63b d593 453b 2320 8539 8d2e 363b
00000120: 9f9d 87bb 2dc3 18bb 0013 4eb9 b852 87ba
00000130: 1ff7 31bc 922f a9bb b71e e7b9 cb30 5dbb
00000140: 7c73 3eb9 f509 9c38 e632 e236 c23d 7fb9
00000150: 5cb5 7b3a b7d9 193a f7d4 5138 a872 4139
00000160: 85cf 9fbb 4bfa 3ebb d857 79b9 1043 79ba
00000170: d1b2 553b 295f e83a 5c02 1c39 8ec6 613a
00000180: bfcb aa3b 68bc 2b3b c614 6c39 24d5 bc3a
00000190: bf8e 7db9 ba37 02b7 2d9a a8b5 8dea 4eb9
000001a0: e603 713b 51a3 fd3a 06be 2939 0bce 863a
000001b0: 372c 173b 3e98 763a 93b9 a638 1f53 633a
000001c0: 8f55 97bb 4aff 1ebb b145 55b9 60ed 9bba
000001d0: beb3 b0ba 7830 30ba 1202 67b8 081a cab9
000001e0: a3d6 013c 9605 8c3b 1979 b739 3f58 073b
000001f0: 7b01 ad3b aa95 263b d77e 6539 fe95 d63a
00000200: 0488 4d3b d416 bd3a d7ad fc38 c227 763a
00000210: 702f a93b b160 423b 40e9 8039 eeb4 953a
00000220: b97b 4f3b 1929 033b 18c9 3139 9407 013a
00000230: c0f1 d7bb 8d3a 4abb c3e5 80b9 73e9 0abb
00000240: c0aa 953b 973f 103b 8750 4639 2595 b83a
00000250: a2fe c73a 5141 043a 9af2 3f38 9ef0 303a
00000260: aa2a 03bc 3e27 87bb 1aff aeb9 b663 11bb
00000270: 1d6d 2e3b cab5 d03a 4592 0a39 13ee 073a
00000280: 72f4 0a3c 5c50 a43b 34a4 d939 f33a db3a
00000290: 8adb a2bb 221d 26bb 7976 5db9 646c bbba
000002a0: e8e2 aa3b aa51 0c3b 1d21 3939 4787 fb3a
000002b0: e802 ab3a 4459 1e3a d4a9 5538 19e0 e239
000002c0: 49f6 62ba 99ac 9fb9 1c24 d1b7 3873 c7b9
000002d0: 6b29 9ebb 80be 08bb d8a2 41b9 3c0a d3ba
000002e0: 6153 2fbc ad4d c4bb e2b2 03ba 140b 28bb
000002f0: f51e b1bb 7f73 25bb 468b 59b9 443f e7ba
00000300: 7b2d 88ba 7fbf bfb9 1a96 02b8 52d8 e5b9
00000310: abb1 efbb 80d4 3ebb cf08 79b9 d6d9 33bb
00000320: 8075 0d3c c214 793b 0bc0 9e39 824e 363b
00000330: 4d4c 45bb 6b0f b7ba 29c6 fab8 6fd9 7cba
00000340: 015d 9abb c269 3ebb 7048 7bb9 7fce 45ba
00000350: 00ee e03b b22b 763b 0d3e a639 f540 e53a
00000360: 315e 3bba c586 89b9 3f75 9fb7 3cad a4b9
00000370: 02ef 1e3b e2d4 a83a f64c e938 065a 213a
00000380: 694d fabb f788 85bb a8b8 b3b9 1159 05bb
00000390: b4fb cf3b 2702 563b 92fe 8e39 60a4 df3a
000003a0: b496 f8bb db24 89bb f78d b4b9 d608 f3ba
000003b0: b590 953b 44e9 263b 4135 6039 8ce6 953a
000003c0: be0f 8cbb 6735 01bb e8cc 2cb9 e8f6 aaba
000003d0: 3fa5 2bbb 372e bdba 661e f9b8 e8ea 08ba
000003e0: d182 a23b d6ba 213b 01db 5b39 d7ca a43a
000003f0: a84a 2d3b 6a5f ae3a 5a87 ee38 13ad 2f3a
0.0019905649 0.0009953226 8.1979684e-05 0.0006186706 0.0005995217 0.0003022598 2.6539205e-05 0.00015869983
-0.006519025 -0.0033744376 -0.0002764233 -0.0017256939 0.0018122043 0.0009839206 8.250517e-05 0.00036276138
-0.0030615353 -0.0017916514 -0.00014929168 -0.0007019274 0.00096076436 0.00046092528 3.75043e-05 0.00030357568
-0.007872423 -0.0043579596 -0.00036773912 -0.0019306163 0.0017666232 0.0005384422 4.5129724e-05 0.0008536987
0.0010863474 0.00060446985 5.0947525e-05 0.00024734755 0.0031208228 0.0018082085 0.00014766237 0.00065334333
0.0019935719 0.0011761449 9.8165256e-05 0.000454744 0.002927091 0.0016903343 0.0001428569 0.0006590426
0.0018967823 0.00094802567 8.073388e-05 0.0005371128 0.0032869403 0.00186241 0.00015444377 0.0007176794
-0.0008612839 -0.00034125277 -2.8040915e-05 -0.0003517951 0.0018653518 0.0011323418 9.528684e-05 0.00033023005
0.00027046865 0.0002002799 1.6739981e-05 1.600392e-05 0.0075253756 0.003014793 0.0002539168 0.0027798743
-0.004138663 -0.0023309693 -0.00019652769 -0.0010324335 -0.010862141 -0.0051631415 -0.00044082638 -0.0033751007
-0.00018162833 7.440514e-05 6.74125e-06 -0.00024341702 0.0009601915 0.0005868929 5.0027822e-05 0.00018448627
-0.004877033 -0.0029140885 -0.00023779215 -0.0009508589 0.0032607804 0.0017728555 0.00014878198 0.0008612656
0.0052122767 0.0026204828 0.00022514453 0.0014406783 -0.00024181137 -7.761579e-06 -1.2561846e-06 -0.00019733068
0.0036776005 0.001935104 0.00016187885 0.0010284794 0.0023067126 0.0009406841 7.950063e-05 0.0008671749
-0.0046183537 -0.002426105 -0.00020339225 -0.0011896305 -0.0013481302 -0.00067210896 -5.507662e-05 -0.00038547837
0.007924709 0.004273127 0.00034994705 0.0020651964 0.0052797175 0.0025418797 0.00021886393 0.0016371605
0.003136159 0.0014426359 0.000120486766 0.00093900796 0.0051631257 0.0029659683 0.00024587847 0.0011421719
0.0031659438 0.002001351 0.00016954949 0.00049220887 -0.006590098 -0.0030857653 -0.00024585248 -0.0021196275
0.004567474 0.0022010559 0.0001891275 0.0014082534 0.0015258382 0.00050451333 4.576389e-05 0.0006749722
-0.008005777 -0.004124551 -0.00033377932 -0.0022184676 0.002661533 0.0015923318 0.00013215195 0.0005185317
0.008481132 0.0050144624 0.00041511806 0.0016725942 -0.0049700188 -0.0025346954 -0.00021120337 -0.0014299271
0.0052150376 0.002141098 0.0001765531 0.0019190096 0.0013047131 0.00060405233 5.0941322e-05 0.00043273045
-0.0008657915 -0.00030455439 -2.4931556e-05 -0.00038042082 -0.0048267148 -0.00208655 -0.00018466578 -0.0016101073
-0.010701031 -0.005990705 -0.0005023909 -0.0025641369 -0.0054053017 -0.0025245843 -0.00020746616 -0.0017642756
-0.0010389531 -0.00036573035 -3.113421e-05 -0.00043839455 -0.007314881 -0.002911836 -0.00023749772 -0.0027443073
0.008633971 0.0038006757 0.00030279192 0.002781779 -0.0030105293 -0.0013966387 -0.00011957839 -0.0009645437
-0.004710794 -0.0029054736 -0.0002396421 -0.0007545724 0.0068643093 0.0037562666 0.0003170822 0.0017490672
-0.00071475195 -0.00026231087 -1.9008874e-05 -0.00031409587 0.0024251346 0.0012880827 0.00011124641 0.0006155077
-0.0076386225 -0.0040751654 -0.0003427912 -0.0020347277 0.006347144 0.0032655091 0.0002727402 0.0017062537
-0.0075863246 -0.0041853017 -0.00034438047 -0.0018542062 0.0045643696 0.0025468627 0.00021382143 0.0011436506
-0.0042743376 -0.0019715668 -0.00016479532 -0.0013043554 -0.0026191024 -0.0014433329 -0.000118789074 -0.0005222992
0.004959442 0.0024678013 0.00020967053 0.0012572658 0.0026442204 0.0013303582 0.000113739356 0.000670151

exp_avg_sq f4 [64, 4]
00000000: d93b b336 9522 bc36 6e76 b133 b56f 4836
00000010: dec1 cf35 1833 dd35 3c26 df32 181c 1f35
00000020: 5a41 6638 b777 6838 e19b 6b35 1e7c 0338
00000030: fe8d d736 e01c bd36 68c9 0534 ce6d 7636
00000040: 0794 8037 5daa 6337 6d24 4f34 06aa a936
00000050: a09a 1635 4352 f734 9254 0e32 4d07 6534
00000060: 42e1 ba38 7853 ac38 a4bf 9e35 9f6f ff37
00000070: 6cab e535 484e 0e36 fd2d 4533 7875 3936
00000080: e58b e835 fc37 e635 b532 ca32 25bc 4135
00000090: 4b57 8737 330a 8537 08d2 7b34 a85c f536
000000a0: 87e8 c736 1a6b b236 2982 9e33 0dc1 0c36
000000b0: 2826 7b37 21cd 6b37 6caa 4f34 0b21 a736
000000c0: 3253 d936 e536 e936 8dfe c133 09f7 5736
000000d0: 8a1b 3d37 1d87 3237 b623 3a34 41e7 8536
000000e0: b196 6935 c391 8435 b10d 8d32 a3aa 4035
000000f0: 884f dc36 920b c236 ac3c b033 bd2a e135
00000100: ff7d a634 53b0 8934 c756 8e31 2cba 8233
00000110: e173 2338 7076 4c38 4d11 6f35 6120 4138
00000120: 868c c737 1901 bc37 41c6 aa34 f270 1c37
00000130: 8bb8 f238 3049 0439 bdb7 0136 904f 9d38
00000140: bded 5c34 cf40 4634 c4a5 6a31 469e 2834
00000150: c586 0736 9065 fc35 cb65 e332 1cee 2935
00000160: 37fd 2f38 7e27 2538 e2cc 2035 315b 8637
00000170: bbe1 3a37 67c2 2837 0e64 2234 fd40 9436
00000180: 6c2a 2738 4b48 1f38 940a 1e35 bb72 8337
00000190: a94f fb33 296e f233 b66e 3331 9169 8633
000001a0: 6d82 8037 e1bd 7437 cfa3 6534 8506 e336
000001b0: bd7b b436 4f47 c836 a5c4 dc33 19eb 8b36
000001c0: 0837 2938 909f 2338 5e4f 1535 1572 7637
000001d0: 5bed 4835 c778 2d35 376a 7432 e335 cd34
000001e0: 8626 c938 e890 cc38 f8a2 ae35 3551 2b38
000001f0: 37d9 0438 f275 1138 5df8 0135 d053 9537
00000200: 0227 6537 ca0c 8f37 3da2 7734 6413 1d37
00000210: c6b8 3a38 f15f 3738 f2f7 2c35 612f 9f37
00000220: a960 aa37 8820 9e37 5c55 9434 17e1 c136
00000230: 9f9b 7438 ed43 4638 99fb 7835 206b d937
00000240: 43cc e037 0003 e937 0852 de34 49d9 6937
00000250: 081b 2c35 d901 2035 56a1 9c32 33f6 8335
00000260: 5ffe cf38 2837 e638 04ba be35 32fb 4d38
00000270: 18aa 5337 a7e1 4037 8552 3134 0375 6836
00000280: 7f5c da38 046c c938 8eb2 be35 cc75 df37
00000290: dc10 2538 4e5d 3038 9caf 1a35 227d aa37
000002a0: d319 9a37 27cc bb37 a669 d534 67b0 a737
000002b0: 2a2e de35 42a3 e235 a7d1 ee32 02cd 7c35
000002c0: 0d12 1e35 14b5 3435 982e 5332 2ac6 f134
000002d0: b09e ed37 6c81 0038 6544 0d35 686c 9f37
000002e0: bc7f 3139 71b5 2439 1e1f 1836 843d 8438
000002f0: 60f4 eb37 ab73 f337 99e8 f534 8be4 a337
00000300: 178e ee35 c0d1 1536 f493 1933 101c cd35
00000310: 3a80 da37 6b77 0a38 16ed 2c35 78f3 1b38
00000320: accd 3038 dde6 6838 caf2 7a35 e054 4c38
00000330: f2b9 4337 be0c 5037 fad5 4e34 8856 de36
00000340: a8ef 2538 9a10 1638 a30d 0f35 816a 2537
00000350: bb0b 6b38 d84f 5738 9f0a 4635 0cf6 a637
00000360: 4693 3c35 2d62 4a35 31ab 9c32 e6b9 0b35
00000370: 097b 2a37 e5b0 2637 8de1 1d34 0395 8236
00000380: 77f5 af38 689e a738 b93a 9a35 ba25 0938
00000390: d9c2 6b38 3add 6938 71fb 5c35 c97d dc37
000003a0: f90e b438 8487 b538 0c75 9e35 f99e 0f38
000003b0: 69d9 f537 9209 e237 dc54 d134 3fb2 3037
000003c0: 8956 bb37 da64 9b37 6dd1 f434 e56d 6537
000003d0: ba4e 3137 b453 3237 b266 3a34 b490 ce36
000003e0: 671e 2238 05a3 0e38 db3e 3f35 db80 9137
000003f0: 5b55 4a37 f60a 4337 ec48 4534 ed26 ab36
5.341583e-06 5.6068625e-06 8.263747e-08 2.9867344e-06 1.5479125e-06 1.6480653e-06 2.5978004e-08 5.9273e-07
5.4897137e-05 5.5424603e-05 8.7771156e-07 3.1348427e-05 6.4240294e-06 5.6360004e-06 1.2459861e-07 3.6720771e-06
1.532772e-05 1.356992e-05 1.9291629e-07 5.056386e-06 5.6104363e-07 4.6067188e-07 8.284717e-09 2.1329943e-07
8.911129e-05 8.2171464e-05 1.1827692e-06 3.0450346e-05 1.711172e-06 2.1205215e-06 4.5909463e-08 2.7635524e-06
1.7326062e-06 1.7152629e-06 2.3538954e-08 7.217189e-07 1.6133903e-05 1.5859585e-05 2.3452606e-07 7.3123556e-06
5.957732e-06 5.3172816e-06 7.381124e-08 2.0973996e-06 1.496965e-05 1.4054852e-05 1.9340376e-07 4.9808345e-06
6.476789e-06 6.9503317e-06 9.0335654e-08 3.218129e-06 1.127169e-05 1.0641085e-05 1.7335591e-07 3.9906304e-06
8.701855e-07 9.877189e-07 1.6420787e-08 7.177388e-07 6.5657696e-06 5.7829975e-06 8.206675e-08 1.6776245e-06
3.1011584e-07 2.564653e-07 4.1426094e-09 6.087461e-08 3.897015e-05 4.8747694e-05 8.9059614e-07 4.604494e-05
2.3788085e-05 2.2411858e-05 3.1809216e-07 9.324622e-06 0.00011573833 0.00012615765 1.9329448e-06 7.501163e-05
2.0575585e-07 1.8463764e-07 3.4145708e-09 1.5703799e-07 2.0195014e-06 1.8805022e-06 2.6472568e-08 6.33039e-07
4.1959076e-05 3.9375846e-05 5.990279e-07 1.601651e-05 1.1139021e-05 1.0058843e-05 1.5123825e-07 4.4183093e-06
3.985541e-05 3.7975882e-05 5.887498e-07 1.5669842e-05 1.17025884e-07 1.1289041e-07 2.611086e-09 6.259064e-08
1.5319523e-05 1.4587743e-05 2.138688e-07 6.765886e-06 5.378823e-06 5.968766e-06 1.0280318e-07 4.169892e-06
4.034399e-05 3.9010833e-05 5.562232e-07 1.4689304e-05 7.4851204e-07 6.4623276e-07 1.422682e-08 3.8223433e-07
9.5916024e-05 9.754469e-05 1.301144e-06 4.0845207e-05 3.167355e-05 3.468054e-05 4.841766e-07 1.7801212e-05
1.3658546e-05 1.7052884e-05 2.306269e-07 9.362444e-06 4.451794e-05 4.3719952e-05 6.44358e-07 1.897634e-05
2.031059e-05 1.8850216e-05 2.7629255e-07 5.778052e-06 5.8319067e-05 4.727014e-05 9.275332e-07 2.59183e-05
2.6797998e-05 2.7777161e-05 4.1410408e-07 1.3938473e-05 6.411433e-07 5.9607333e-07 1.8234157e-08 9.831914e-07
9.9179095e-05 0.00010977528 1.4210241e-06 4.9109753e-05 1.2616183e-05 1.1496631e-05 1.651443e-07 3.4638804e-06
0.00010412279 9.604546e-05 1.4208069e-06 2.6638525e-05 3.9354767e-05 4.2048567e-05 5.7625016e-07 2.0323849e-05
1.8370256e-05 2.2387203e-05 3.975121e-07 1.9990095e-05 1.6553724e-06 1.6885826e-06 2.7802185e-08 9.417564e-07
5.8885854e-07 6.731873e-07 1.2292411e-08 4.5033931e-07 2.8326496e-05 3.063811e-05 5.262612e-07 1.9004758e-05
0.0001692762 0.00015707851 2.2667878e-06 6.305709e-05 2.8127979e-05 2.902172e-05 4.5804043e-07 1.9537538e-05
1.7773735e-06 2.232482e-06 3.575765e-08 1.5281857e-06 2.6047335e-05 3.301298e-05 6.442e-07 3.7181628e-05
4.2153217e-05 5.552812e-05 9.348556e-07 4.8716436e-05 1.16661995e-05 1.2400733e-05 1.9263089e-07 6.626189e-06
3.9562263e-05 3.577825e-05 5.3291495e-07 9.859564e-06 5.603929e-05 5.1334355e-05 7.3776204e-07 1.9903317e-05
7.024977e-07 7.539373e-07 1.8238639e-08 5.2052053e-07 1.0161436e-05 9.9355575e-06 1.470382e-07 3.891649e-06
8.390372e-05 7.992686e-05 1.1490985e-06 3.269848e-05 5.6209832e-05 5.5757562e-05 8.232228e-07 2.6284617e-05
8.585858e-05 8.655994e-05 1.1805982e-06 3.424191e-05 2.9307515e-05 2.6945756e-05 3.8991027e-07 1.0531919e-05
2.2332433e-05 1.8524403e-05 4.560092e-07 1.36750505e-05 1.0568352e-05 1.0629115e-05 1.735996e-07 6.156124e-06
3.8652124e-05 3.4007262e-05 7.124451e-07 1.734535e-05 1.2060012e-05 1.1625458e-05 1.8373584e-07 5.1007287e-06

exp_avg f4 [64]
00000000: 8275 e73a e22d 2d3a ac9e 99bb 7993 7e3a
00000010: 9384 ceba 7422 693a ff84 bebb 2a56 4c3b
00000020: 9cce 593a 5cd3 b13a 5d02 793a ed1f f73a
00000030: 58da 003b 7408 113b 8386 83ba 2000 883a
00000040: da73 33b8 5104 213c bcf1 1cbb 850e 30bc
00000050: 7fc7 52ba 4fe9 033a 2836 e1ba 6e84 1a3b
00000060: 1a0b a23b 36b6 38ba 59b8 403b 6a40 3d3b
00000070: fd6b 86bb 218f a5ba 361b de3b 6261 b43b
00000080: e1c1 8f3b 2748 3d3b 6045 bf3a 0ed7 a3bb
00000090: 146e 973b 543c 413b 16c0 05bc 7f60 d73a
000000a0: fc77 c83b 3d40 a1bb 8ae7 b73b 35fa c53a
000000b0: bb1a bbba 7666 d0bb 1274 eabb f51c 88bb
000000c0: bbc5 eeba 9920 00bc 85c7 023c 44a6 58bb
000000d0: 8450 39bb 3ebb a73b 8b87 82ba 584f 083b
000000e0: f93f c6bb 8800 bb3b 84e4 c6bb 78b0 443b
000000f0: 29ce 5bbb 15ad d4ba d10b a83b 55e9 383b
0.0017658921 0.00066062633 -0.0046881046 0.0009711306 -0.0015756063 0.00088933785 -0.005814194 0.0031179287
0.000830868 0.0013567018 0.00094989483 0.0018854119 0.0019661393 0.0022130283 -0.0010034594 0.0010376014
-4.278482e-05 0.009827689 -0.0023947796 -0.010745649 -0.00080405915 0.0005032019 -0.0017182278 0.002357747
0.004945171 -0.00070461945 0.0029406755 0.0028877505 -0.0041022287 -0.0012631157 0.006778146 0.005504773
0.004387126 0.0028882117 0.0014592819 -0.0050000018 0.0046212766 0.0029485421 -0.008163473 0.0016431956
0.006117819 -0.004920988 0.0056123184 0.0015104475 -0.0014274934 -0.0063598705 -0.00715495 -0.0041538426
-0.0018216887 -0.007820272 0.0079821395 -0.0033058086 -0.002827675 0.0051187566 -0.0009958608 0.0020799246
-0.0060501066 0.0057068504 -0.0060697217 0.003001241 -0.003353963 -0.0016225899 0.0051283618 0.0028215249

exp_avg_sq f4 [64]
00000000: e708 8437 6b28 5636 1818 2e39 9a00 c637
00000010: e1b4 d937 2b86 da35 443b 3d39 a0c2 6d37
00000020: 6207 8136 ba7b 2438 b62f 2537 3fe9 e137
00000030: a4cc 7e37 116e f337 2e55 9036 508c 4237
00000040: f212 a634 ffab 8139 d71a 4738 fa48 db39
00000050: f5b6 5e35 f156 6636 5bcc bc38 3be1 d037
00000060: 8148 e138 2fe8 cd34 95c0 1b38 b51a c537
00000070: b689 b238 9ee1 3d36 5bfc 6339 956c ca38
00000080: eda6 4838 e72d d138 9db6 1438 7994 3539
00000090: 5981 a838 1540 e136 3b62 8839 1dea c337
000000a0: 726b 6b39 eabb d138 c3c3 dc38 4fe9 ba36
000000b0: a5c4 4236 6c4e f838 5cf6 b439 c8b9 cc38
000000c0: eb2b 0c37 bba2 4839 8388 9339 78ff 2238
000000d0: e7eb 9b38 8ece f238 bc62 6c36 165a c637
000000e0: c25e 4839 32a6 1639 5121 4e39 a576 7438
000000f0: 4ae2 c938 cc55 0c38 993f 0c39 cf9a 0538
1.5739772e-05 3.1912011e-06 0.00016602909 2.360372e-05 2.5952644e-05 1.6281314e-06 0.00018046523 1.41716155e-05
3.845359e-06 3.9215876e-05 9.845875e-06 2.6930704e-05 1.5187226e-05 2.9019111e-05 4.3014506e-06 1.159597e-05
3.0933694e-07 0.00024732944 4.7470294e-05 0.00041825307 8.296768e-07 3.4323277e-06 9.002603e-05 2.4900413e-05
0.00010742341 3.835316e-07 3.7134236e-05 2.3496666e-05 8.513352e-05 2.8294521e-06 0.00021742417 9.6523356e-05
4.7839178e-05 9.9744466e-05 3.545602e-05 0.00017316816 8.034957e-05 6.7129827e-06 0.0002601313 2.3354829e-05
0.00022451373 0.00010000898 0.00010526881 5.5703927e-06 2.9022715e-06 0.00011840169 0.00034515827 9.7620825e-05
8.354876e-06 0.00019134108 0.00028139734 3.8861734e-05 7.434916e-05 0.00011577933 3.5224211e-06 2.3645389e-05
0.00019108786 0.00014367027 0.00019658102 5.828463e-05 9.6265765e-05 3.3458506e-05 0.00013375132 3.1853848e-05

exp_avg f4 [64, 64]
00000000: 79ff acb9 0a18 a439 3962 8bba 8d85 8d3a
00000010: 165b 5cba 05c7 3cba 3f07 fd37 e611 60ba
00000020: 4a51 2138 acbf b63a 0fce 673a 91c0 b139
00000030: edef 2bb9 ec81 89ba 39fa 003a 115d 1ab9
00000040: a4b0 c8b9 9c4a 83ba 9843 5cba a1e1 143a
00000050: 7cad 273a 4993 463a 156a cbba f292 043a
00000060: 2626 b339 3701 343a b48f a8b9 19f0 04ba
00000070: fc96 6139 0c16 853a b8ab 9a38 4860 80b7
00000080: 4993 0e3a 7412 853a 60ef 853a 7cf9 74ba
00000090: b803 e836 6f3b 42ba ac0f 76b9 b390 333a
000000a0: 0268 b9b9 424f f738 71ba a7ba 7d5a 0cb8
000000b0: cdb0 bf39 542b 1539 0478 c0b9 82a4 a83a
000000c0: 40cb 3f39 bf53 db3a 24db e2ba e65f 1c39
000000d0: 949a 7a3a a697 2ab9 948b 6e39 8516 f339
000000e0: 4693 bdb8 1b90 9939 71a6 abb9 5da9 083a
000000f0: 9871 95ba 0c89 85ba d2b1 db39 2eb4 1c39
00000100: 64cd 5a39 601f 39b9 8113 3c3a faab 41ba
00000110: 5254 103a dd88 f839 eedf 39b7 e4b8 1b3a
00000120: f4e7 50b8 aed7 72ba e44f 17ba ad6c 60b9
00000130: c97c a438 33ef 343a 9684 aeb9 3277 ae38
00000140: 3d29 7a39 db51 343a 1214 0e3a b936 cdb9
00000150: 1468 ebb9 cdd2 fdb9 846c 863a 6a06 acb9
00000160: 66c6 55b9 e4be 00ba 6b5e 5839 b394 ba39
00000170: a4b7 f7b8 4115 31ba 1ee4 89b8 f7f8 0338
00000180: 0298 cdb9 cbd1 30ba 94d7 2cba 7a69 253a
00000190: 4c6c 8037 adcd 093a 53ff 3a39 76d6 e9b9
000001a0: ff40 7539 c289 64b8 8a81 623a e7ad 2e38
000001b0: efe4 89b9 1413 01b9 adc9 8139 872b 61ba
000001c0: a3c9 1fb9 5c42 94ba 2e7b 983a f682 fbb8
000001d0: 6d7d 21ba 67f7 d938 f904 21b9 185f 94b9
000001e0: 481c 6038 ce80 60b9 56ee 6f39 e072 b2b9
000001f0: f1da 4b3a 5e68 363a c88d 9fb9 6683 06b9
00000200: 236c abb8 51a6 8a38 7b45 95b9 b33d 9b39
00000210: 4667 63b9 b77d 43b9 f47e 3636 b1c4 79b9
00000220: a6fb b637 1ba0 bf39 6a4c 6e39 08ed ae38
00000230: 1c21 ebb7 fd13 8eb9 3d67 0b39 d82d feb7
00000240: 45a0 c1b8 24e7 8fb9 bb2c 5fb9 bb31 2339
00000250: eaff 3c39 9126 4639 d8ce d3b9 0858 0739
00000260: f7f0 a238 4fa6 5139 b637 a9b8 6add 15b9
00000270: 1c56 3738 3976 8b39 ee0d e337 bed8 67b7
00000280: b937 2539 a178 8b39 c01d 8739 c322 84b9
00000290: 44ec 09b7 f9dc 5fb9 758f 96b8 120d 3739
000002a0: 113c beb8 e15e a137 02ad b3b9 ed56 99b7
000002b0: ac84 dd38 e93a 5b38 a7c7 cdb8 bdf7 b139
000002c0: 7b2f 8538 09cc eb39 c48e f1b9 3ff7 5038
000002d0: 0b19 7c39 ecb6 27b8 0452 8338 e5dc e338
000002e0: 90a3 a8b7 c909 b638 3877 beb8 e6e9 0c39
000002f0: 4059 a3b9 d075 91b9 b7e4 0239 334d 6438
00000300: 9aea 1b38 621e 1db8 6a76 f538 4b23 f9b8
00000310: b647 c438 5518 a838 85b2 86b6 52e5 c238
00000320: ce98 0ab6 75f7 21b9 e624 cfb8 53fe 21b8
00000330: 003f af37 f4ca f438 f97e 61b8 8afd 9337
00000340: cf74 3838 841d e538 c6af c638 349f 80b8
00000350: 3796 90b8 ce9d b3b8 23cd 3439 7f31 6db8
00000360: 9693 28b8 2e33 9cb8 db6a 1738 7f95 6438
00000370: 2672 dab7 647e ebb8 ed98 e6b6 c85f 19b5
00000380: ad5c 72b8 98c9 ebb8 f660 f1b8 a068 d738
00000390: 35d1 35b6 e515 a938 76e3 ca37 648b a1b8
000003a0: 3837 2538 8ce4 7bb7 ea68 1339 6a0b 0536
000003b0: a006 22b8 e4f0 5eb7 f0d4 2838 34bd 14b9
000003c0: ac1d 93b7 c597 41b9 d6e3 4739 62fc 74b7
000003d0: a2f4 e1b8 24c0 9837 cc58 cdb7 982b 61b8
000003e0: 8de2 3537 9242 01b8 c798 1438 4ed4 74b8
000003f0: 9fc7 0339 2c28 ea38 3242 3cb8 a4ea 6fb7
-0.00032996738 0.00031298428 -0.0010634131 0.0010797248 -0.0008405907 -0.0007201287 3.0163324e-05 -0.0008547589
3.8461098e-05 0.0013942621 0.0008842656 0.00033903544 -0.0001639721 -0.001049099 0.00049200986 -0.00014721254
-0.0003827858 -0.0010016742 -0.0008402406 0.0005679373 0.00063963956 0.0007575048 -0.0015519286 0.0005057297
0.00034169963 0.0006866636 -0.00032150524 -0.0005071178 0.00021513918 0.0010153665 7.375277e-05 -1.5303624e-05
0.00054388173 0.0010152594 0.0010218434 -0.00093450374 6.9145717e-06 -0.0007409369 -0.00023466226 0.000684987
-0.00035363442 0.00011792641 -0.0012796653 -3.3462875e-05 0.00036562086 0.00014225888 -0.00036710512 0.001286641
0.00018290896 0.0016733332 -0.0017307741 0.00014913044 0.0009559777 -0.00016268957 0.00022749446 0.0004636535
-9.039654e-05 0.000292898 -0.0003273967 0.00052132254 -0.0011401651 -0.0010187938 0.00041903422 0.00014944442
0.00020866614 -0.00017654663 0.0007174537 -0.0007387992 0.0005505729 0.00047404217 -1.1078997e-05 0.00059403316
-4.9807088e-05 -0.0009263706 -0.00057720975 -0.0002140279 7.8433724e-05 0.00069020985 -0.0003328665 8.3191684e-05
0.0002385722 0.00068786525 0.0005419861 -0.00039141419 -0.00044900237 -0.0004841298 0.0010255729 -0.00032811175
-0.00020387172 -0.00049112574 0.00020634539 0.00035587474 -0.000118120835 -0.0006755181 -6.575159e-05 3.14647e-05
-0.00039213902 -0.0006745129 -0.0006593403 0.0006309968 1.5309219e-05 0.00052567833 0.00017833458 -0.0004460101
0.00023389234 -5.4487733e-05 0.00086405186 4.1646792e-05 -0.00026301245 -0.00012309506 0.00024755058 -0.0008589555
-0.00015238537 -0.001131128 0.001163339 -0.00011993006 -0.00061603525 0.000103934486 -0.00015356009 -0.0002829961
5.34321e-05 -0.00021410288 0.00022881603 -0.00034036394 0.000777646 0.0006958301 -0.00030432479 -0.00012828186
-8.1740574e-05 6.6113316e-05 -0.00028471262 0.00029609873 -0.0002168688 -0.00018643482 2.719401e-06 -0.00023819764
2.1813274e-05 0.00036549647 0.00022725915 8.341117e-05 -2.80296e-05 -0.00027099243 0.00013294532 -3.0300507e-05
-9.23281e-05 -0.000274473 -0.000212836 0.00015563417 0.00018024413 0.00018897119 -0.00040399167 0.00012907397
7.769645e-05 0.00019993748 -8.068925e-05 -0.0001429223 4.3710796e-05 0.0002660023 2.7066995e-05 -1.3819137e-05
0.00015756385 0.00026602022 0.00025771372 -0.000252029 -8.220846e-06 -0.00021349256 -7.179278e-05 0.00017457109
-9.071094e-05 1.9236877e-05 -0.0003427044 -1.82795e-05 0.00010562813 5.2268533e-05 -9.81235e-05 0.0003394465
6.350778e-05 0.0004497471 -0.0004607347 4.982133e-05 0.00024041922 -3.9986262e-05 6.2618434e-05 0.00010865348
-2.0103325e-05 8.680259e-05 -9.082112e-05 0.00013438574 -0.0003115628 -0.00027744332 0.00012482969 5.4431333e-05
3.717337e-05 -3.7460013e-05 0.00011704567 -0.00011879819 9.3593655e-05 8.0153965e-05 -4.0142936e-06 9.293355e-05
-2.0652546e-06 -0.00015446341 -9.877402e-05 -3.862225e-05 2.0890962e-05 0.000116726296 -5.3762433e-05 1.7641829e-05
4.3977805e-05 0.00010925069 9.474116e-05 -6.1331695e-05 -6.894435e-05 -8.5647785e-05 0.00017242557 -5.65513e-05
-4.019177e-05 -7.4481926e-05 3.6100722e-05 5.4498665e-05 -2.604078e-05 -0.00011229215 -6.872337e-06 -5.713632e-07
-5.7783607e-05 -0.00011243223 -0.00011509836 0.00010271487 -2.7092876e-06 8.062626e-05 2.4186196e-05 -7.703042e-05
3.9390492e-05 -1.5013979e-05 0.00014058096 1.9825188e-06 -3.862998e-05 -1.3288318e-05 4.0252635e-05 -0.00014184864
-1.7537583e-05 -0.00018462453 0.00019062994 -1.4602296e-05 -0.000107744025 1.8209284e-05 -2.4479254e-05 -5.368478e-05
1.0841189e-05 -3.0817995e-05 3.5428235e-05 -5.8371857e-05 0.00012567498 0.00011165472 -4.4884342e-05 -1.4300142e-05

exp_avg_sq f4 [64, 64]
00000000: 37cd e935 8f83 9336 7a51 eb35 4058 9036
00000010: 9b98 2136 6cb8 b135 9d73 0c35 5c76 5736
00000020: d61f 1b36 2309 5036 bfdc 3736 f70f 6235
00000030: 2fad 8536 67fc 3036 2103 b735 b090 bc35
00000040: 46c7 d735 1789 4336 212c 4036 c518 a035
00000050: f32e 0736 2874 5536 3d78 8e36 7022 bb35
00000060: a575 2136 5c40 d536 ffba 5c35 37f1 d535
00000070: dc7b 3936 573b e635 77fa d435 d143 0136
00000080: dbc1 7b36 8fd9 ea35 9ad4 7f36 7ebe 6f36
00000090: 32b2 c335 986a be36 314f 1e36 c126 b735
000000a0: 8ef2 d835 4709 3936 0de4 3036 09f3 c635
000000b0: 5682 b235 bc77 6636 ad7c 8f34 139c 5e36
000000c0: 2b53 8336 e76d 8836 669b 8736 5ea4 d235
000000d0: 51be 8936 737c b734 de45 1b36 d563 5036
000000e0: 5c77 bd34 8d16 b335 f64d 5835 8bde 7f35
000000f0: 6f12 9e36 314a 2836 b937 8436 2be7 6836
00000100: 0d9e 1035 2c2b cc35 63ea 2135 dddd c635
00000110: 4832 4a35 c393 e434 d96c 3e34 eb4f a035
00000120: 33cc 5635 0221 8735 aff3 6635 ce2d 9634
00000130: 2a7a b735 4b6a 6a35 2a61 eb34 fa47 0035
00000140: 6116 0d35 6fd5 8e35 a59a 7735 85e8 e534
00000150: 88dc 4f35 a56f 8b35 8a25 b835 ec26 e634
00000160: 78c5 6135 8137 1736 f74e 8a34 4021 1d35
00000170: 388a 8035 deae 1d35 ebba 0c35 740e 3335
00000180: f1ee b435 e8b7 1835 1a94 a835 978e 9b35
00000190: b01b 0c35 5862 0936 7be8 5735 ebf2 f234
000001a0: 77bf 0b35 5de7 7635 d7ec 7935 48fc 0735
000001b0: 1b81 0335 b0a2 a435 2689 c333 d446 9135
000001c0: f46d ba35 0271 c235 d69b bc35 3bb1 1835
000001d0: 8946 b735 8786 ec33 a4c8 4235 7941 8e35
000001e0: 697f ff33 271b 0435 ebd0 9334 4a51 a134
000001f0: bada d535 ea84 7135 8f9a b935 4d7f a735
00000200: c5af 1834 92e3 b034 b88b 1c34 40c5 bc34
00000210: 57ee 5234 041c de33 5f6f 2f33 72e0 8534
00000220: 0cd7 3e34 faab 8434 4b1a 6e34 731c 8a33
00000230: f56a a334 e1ff 5a34 ba7d f433 2f1e e433
00000240: a97a 0234 e9dd 7634 a104 7334 ea69 cc33
00000250: a93f 2434 5784 8334 3efe b234 ad29 f833
00000260: 801b 3d34 fabc 0335 bc4e 8e33 4490 0534
00000270: ccf8 5e34 5f63 1034 9801 0734 8959 2134
00000280: 768d 9c34 ceaa 1634 9991 9b34 9a7a a234
00000290: c2b9 e733 952e e934 6289 4634 0f3b db33
000002a0: 48f1 0b34 e0d2 6634 b670 6434 3ab5 f433
000002b0: c16a db33 3643 8a34 c5ca c332 b8d6 9034
000002c0: f47d 9f34 9da4 ae34 276d ad34 d4ff fb33
000002d0: 9384 a734 741f f132 1f72 4934 1f8b 7734
000002e0: 28c8 de32 b522 dd33 d159 8833 f93b a933
000002f0: 7582 d134 d92f 5b34 d055 a734 fa42 8d34
00000300: 7642 1032 de0b d932 b122 1b32 5889 bb32
00000310: 7de1 4832 b3b1 eb31 75d7 3c31 b4d2 a932
00000320: 6558 6b32 1e09 8932 129f 6732 3a7a a131
00000330: d5fb c632 f4d7 7e32 e486 e431 642e fd31
00000340: 6220 0932 3793 9432 4a5c 8132 c221 f831
00000350: afd6 7132 1f6f 9132 75cc bd32 6a9d de31
00000360: c9a0 6a32 d434 1733 86ce 8931 6472 1f32
00000370: c5c4 8632 a49a 3b32 0266 1932 ea80 4832
00000380: 4bc7 c632 c74d 1832 8e67 af32 a744 8c32
00000390: 081c 1432 ea76 0d33 05e8 7232 c557 0132
000003a0: 166d 1332 7cc7 8332 e8c3 8532 43da 1332
000003b0: 56d9 1732 a21b a832 30c5 b630 4d7d 9732
000003c0: 0d70 c432 dc75 ce32 8f96 ce32 21e6 1e32
000003d0: 2da3 bf32 ee59 f630 2b6f 4032 4419 9532
000003e0: e884 f730 b46d 0b32 23eb ab31 abe8 a431
000003f0: 2289 c532 2cc8 6d32 4c9d b132 5452 ae32
1.7419578e-06 4.396257e-06 1.7532577e-06 4.301808e-06 2.4079698e-06 1.3241201e-06 5.2322304e-07 3.210639e-06
2.311533e-06 3.0999734e-06 2.7397616e-06 8.421479e-07 3.98387e-06 2.6372961e-06 1.3635473e-06 1.4049201e-06
1.6076744e-06 2.913706e-06 2.8635916e-06 1.1928138e-06 2.0143896e-06 3.1807085e-06 4.2459274e-06 1.3942608e-06
2.4059348e-06 6.355387e-06 8.22285e-07 1.5939939e-06 2.7639244e-06 1.7153606e-06 1.5868126e-06 1.9261972e-06
3.7514753e-06 1.7497676e-06 3.8121711e-06 3.5724656e-06 1.4580494e-06 5.6748504e-06 2.358993e-06 1.3645841e-06
1.6163847e-06 2.7572548e-06 2.6358787e-06 1.4822882e-06 1.3299966e-06 3.4342365e-06 2.672654e-07 3.3171425e-06
3.9137863e-06 4.06591e-06 4.0414043e-06 1.5694056e-06 4.105074e-06 3.4176955e-07 2.3137468e-06 3.1052525e-06
3.529084e-07 1.3343102e-06 8.057972e-07 9.5318745e-07 4.710913e-06 2.5077136e-06 3.9403935e-06 3.4705251e-06
5.3874174e-07 1.5211749e-06 6.031825e-07 1.481672e-06 7.5324033e-07 4.257582e-07 1.7734727e-07 1.1944188e-06
8.001836e-07 1.006789e-06 8.6036283e-07 2.7973005e-07 1.3670117e-06 8.732647e-07 4.3842857e-07 4.7788456e-07
5.255916e-07 1.0641942e-06 9.223971e-07 4.2823754e-07 7.7434424e-07 1.03888e-06 1.3719994e-06 4.2869158e-07
8.4106387e-07 2.253306e-06 2.5761958e-07 5.853544e-07 9.57697e-07 5.8741523e-07 5.2426066e-07 6.670373e-07
1.3480586e-06 5.689203e-07 1.2560079e-06 1.1589899e-06 5.2194355e-07 2.0471834e-06 8.0432045e-07 4.525276e-07
5.2060153e-07 9.197882e-07 9.3104376e-07 5.0658537e-07 4.8989176e-07 1.22663e-06 9.105342e-08 1.0823956e-06
1.389008e-06 1.4487016e-06 1.4052446e-06 5.6882317e-07 1.3655091e-06 1.1014077e-07 7.25626e-07 1.059888e-06
1.18975386e-07 4.9213344e-07 2.7532892e-07 3.0047732e-07 1.5933394e-06 8.997291e-07 1.3828557e-06 1.2479519e-06
1.4220048e-07 3.2948134e-07 1.4579462e-07 3.5161247e-07 1.9644482e-07 1.03427766e-07 4.0846654e-08 2.4936486e-07
1.7773363e-07 2.4712045e-07 2.2175043e-07 6.431301e-08 3.0438937e-07 2.039592e-07 1.1385005e-07 1.0622568e-07
1.2151817e-07 2.2991266e-07 2.2632823e-07 9.518756e-08 1.529685e-07 2.449694e-07 3.334007e-07 1.1555981e-07
1.7612001e-07 4.90763e-07 6.626712e-08 1.2439074e-07 2.0765873e-07 1.3447196e-07 1.2573435e-07 1.5026866e-07
2.916019e-07 1.4031977e-07 2.8976936e-07 3.0264056e-07 1.0790565e-07 4.3433525e-07 1.8490167e-07 1.0208725e-07
1.3033161e-07 2.1497135e-07 2.1275159e-07 1.13951e-07 1.02174006e-07 2.5753405e-07 2.2793197e-08 2.697832e-07
2.97077e-07 3.2529798e-07 3.230318e-07 1.1734633e-07 3.1202634e-07 2.8070396e-08 1.8761101e-07 2.305428e-07
2.5935222e-08 1.02974276e-07 6.349331e-08 7.880585e-08 3.9024204e-07 2.0413371e-07 3.116861e-07 2.6312028e-07
8.397015e-09 2.5267521e-08 9.030075e-09 2.1832122e-08 1.1692802e-08 6.859602e-09 2.7480074e-09 1.9770006e-08
1.3698899e-08 1.5953045e-08 1.3482138e-08 4.6996123e-09 2.3164754e-08 1.4833848e-08 6.6510086e-09 7.368543e-09
7.9818125e-09 1.7296413e-08 1.5059545e-08 7.2215878e-09 1.407686e-08 1.6930754e-08 2.2095472e-08 6.4789463e-09
1.3657151e-08 3.5205474e-08 4.0107038e-09 9.2810275e-09 1.5689134e-08 1.0919994e-08 8.928966e-09 1.1670844e-08
2.3140862e-08 8.865249e-09 2.0419773e-08 1.6329365e-08 8.621107e-09 3.2937272e-08 1.4139009e-08 7.528745e-09
8.581329e-09 1.5341122e-08 1.5572326e-08 8.606153e-09 8.838773e-09 1.957034e-08 1.3298287e-09 1.7635694e-08
2.2868358e-08 2.4035153e-08 2.4050022e-08 9.249136e-09 2.230953e-08 1.7924415e-09 1.1201148e-08 1.7357372e-08
1.800939e-09 8.1158085e-09 5.003487e-09 4.7994795e-09 2.299618e-08 1.38407295e-08 2.0677042e-08 2.0293704e-08

exp_avg f4 [64]
00000000: 5650 c73a dfcf 7aba ec2a c339 53d3 35b9
00000010: d177 26ba 2c69 cfba 30eb 6e3a 1437 96ba
00000020: e5e2 bab9 df80 7aba 79e6 5c3a 8dc5 90ba
00000030: a42c 0a3b bf37 003b f8f2 87ba fe92 5b3a
00000040: 865f ac3a 62c4 373a 54cb 66ba 60ab 7b3a
00000050: cced 2c38 511f 00ba a61d edba 472b 9a3a
00000060: af3d e6ba beb1 9339 71ee af3a 509b 04ba
00000070: 36c3 c7ba fda0 4fba e0bf 41ba 41a5 a8ba
00000080: d72d 393a 3105 a2ba e066 133a 7266 2f3a
00000090: 90d0 18ba 64dd aaba 8ddf 84ba fb56 a8ba
000000a0: a00c b2ba 1734 71ba b7f2 c73a a2ab 5a3a
000000b0: 8b70 38ba 38a8 6d3a fc73 613a f9d9 5d3a
000000c0: 41aa 90ba 55a1 523a e7ef 503a 5cb3 353a
000000d0: f275 953a cebc b1ba a7d8 09bb 7252 b1b9
000000e0: 1add b83a 701c 403b 5b98 e839 0465 893a
000000f0: f7e7 05bb d4a3 953a a56d c63a a6fe 27ba
0.0015206437 -0.00095677184 0.00037225278 -0.0001734023 -0.00063502515 -0.001582419 0.0009114025 -0.0011460506
-0.00035645734 -0.00095559465 0.0008426677 -0.0011045203 0.0021083737 0.0019564477 -0.0010372093 0.00083760906
0.0013151027 0.00070101593 -0.0008804102 0.0009600427 4.122946e-05 -0.0004887479 -0.0018090501 0.0011762165
-0.001756599 0.00028170453 0.0013422502 -0.0005058544 -0.0015240673 -0.00079204125 -0.00073909573 -0.0012866632
0.00070640206 -0.0012361166 0.00056229346 0.0006690986 -0.0005829418 -0.001303595 -0.0010137424 -0.0012843305
-0.0013584085 -0.00092011824 0.001525483 0.00083416153 -0.0007035813 0.0009065899 0.0008600352 0.00084629614
-0.0011037068 0.00080349046 0.00079703185 0.00069313287 0.0011402948 -0.0013560297 -0.0021033676 -0.00033821497
0.0014103979 0.0029313825 0.00044364002 0.0010482376 -0.0020432451 0.0011416622 0.0015138878 -0.000640849

exp_avg_sq f4 [64]
00000000: 103e a237 b307 d636 2ab0 c735 5dd5 e033
00000010: 0e54 0636 73c9 bb37 a74f fb36 f074 3037
00000020: f2b2 7835 063d f836 09d4 d236 2a50 3637
00000030: 07e8 2238 a676 9836 5727 4737 1f33 9436
00000040: 6ea7 6437 7df0 8c36 a745 d636 b17d 1137
00000050: 7629 2634 158e ce35 e64b 0138 41a6 7d37
00000060: 7592 db36 20c6 c534 9b24 7137 2e13 0d36
00000070: 20eb 9437 3185 d536 99a1 3f36 90b7 6537
00000080: 6115 a936 f288 8137 1329 5836 7c23 4836
00000090: f983 c835 0ac4 7d37 0e15 2b37 56a8 4237
000000a0: 6645 9a37 7aea 3537 a10e a237 f705 eb36
000000b0: 12ce 6436 72b5 1737 dced e036 51f4 8836
000000c0: 0c35 3c37 bc11 d836 805e b136 a19d 9636
000000d0: a7b3 2b37 8fe6 9537 5355 2038 842e 8935
000000e0: 3744 8737 e0e0 7b37 d70d 0936 3bd4 3037
000000f0: 671e 2f38 0ba1 5937 0571 c137 4e48 a136
1.9340805e-05 6.3785933e-06 1.4877926e-06 1.04696234e-07 2.0016482e-06 2.2385944e-05 7.4896557e-06 1.0517644e-05
9.26476e-07 7.39808e-06 6.283172e-06 1.086671e-05 3.8839902e-05 4.5437655e-06 1.1870484e-05 4.416695e-06
1.3628842e-05 4.2003217e-06 6.3858056e-06 8.671938e-06 1.5475038e-07 1.5389547e-06 3.0826683e-05 1.5118684e-05
6.5437584e-06 3.6838264e-07 1.4373242e-05 2.1021801e-06 1.7752463e-05 6.3634e-06 2.855528e-06 1.3692203e-05
5.0390813e-06 1.5441768e-05 3.2210417e-06 2.9822977e-06 1.493957e-06 1.5125619e-05 1.0197296e-05 1.1602495e-05
1.8390547e-05 1.0843034e-05 1.9318717e-05 7.00424e-06 3.4094596e-06 9.042547e-06 6.7034107e-06 4.081558e-06
1.1218024e-05 6.439366e-06 5.2860123e-06 4.488699e-06 1.0234223e-05 1.7869546e-05 3.8226437e-05 1.0220833e-06
1.612502e-05 1.5013124e-05 2.0422647e-06 1.0539831e-05 4.1751566e-05 1.2971704e-05 2.3060022e-05 4.8065913e-06

exp_avg f4 [2, 64]
00000000: 5bce 9c3a 76d2 98b9 8d19 263a fced 24ba
00000010: f42e fdb9 805c 40ba e06f 85ba c0a9 4d3b
00000020: 845c 16ba cb73 8dba 4d49 eb37 71b6 b8ba
00000030: bbf1 6c3a 5f8c 25bc a35d b5ba cd09 7e3a
00000040: a23c b33a 963d c938 4604 3ab9 02b9 163a
00000050: 522f f838 0f0b 51b9 403d 2bba 745d a43a
00000060: 404a fa3b 17ed 013a 3d60 1b3a 2b1f 81ba
00000070: d98c 98ba 90d8 8a39 e209 69ba 8c2e 51ba
00000080: fec4 86b9 2a5e 673a e8ae 8939 6708 863a
00000090: 5722 50ba 4e60 5bba 0be9 68ba 3f15 5cba
000000a0: 2a04 9fba e8d9 90ba 8533 d139 aa9d 723a
000000b0: 846f aa39 90c6 0a3a 4031 a439 5443 ae3a
000000c0: ddef a9ba 94dc 2f3a 701a 1f3a e56b ad3a
000000d0: 4e5e de39 746d d139 3c81 8eba 9b03 633a
000000e0: b6a8 963a 9b1d 23bc 4a87 3239 454e 08ba
000000f0: 5681 33ba fd45 5b3a 349d 08bb b3fb b63a
00000100: 5cce 9cba 76d2 9839 8c19 26ba f9ed 243a
00000110: ef2e fd39 7c5c 403a df6f 853a c0a9 4dbb
00000120: 835c 163a ca73 8d3a 4d49 ebb7 71b6 b83a
00000130: bbf1 6cba 5f8c 253c a05d b53a cb09 7eba
00000140: a13c b3ba 7f3d c9b8 4204 3a39 fdb8 16ba
00000150: 522f f8b8 140b 5139 3d3d 2b3a 745d a4ba
00000160: 404a fabb 13ed 01ba 3d60 1bba 2a1f 813a
00000170: d88c 983a 91d8 8ab9 e009 693a 8d2e 513a
00000180: 06c5 8639 2a5e 67ba eaae 89b9 6708 86ba
00000190: 5722 503a 4d60 5b3a 04e9 683a 3f15 5c3a
000001a0: 2904 9f3a e8d9 903a 8633 d1b9 aa9d 72ba
000001b0: 7c6f aab9 8cc6 0aba 3c31 a4b9 5243 aeba
000001c0: ddef a93a 93dc 2fba 701a 1fba e26b adba
000001d0: 505e deb9 6f6d d1b9 3d81 8e3a 9803 63ba
000001e0: b7a8 96ba 9b1d 233c 4c87 32b9 454e 083a
000001f0: 5681 333a fe45 5bba 329d 083b b1fb b6ba
0.0011963354 -0.00029148505 0.0006336205 -0.0006291566 -0.00048290903 -0.00073380023 -0.0010180436 0.0031381696
-0.0005735832 -0.0010791955 2.8048316e-05 -0.0014092458 0.0009038706 -0.010104268 -0.001383711 0.00096907915
0.0013674686 9.595898e-05 -0.00017739934 0.0005749614 0.000118343756 -0.00019935913 -0.0006532259 0.0012540058
0.007638246 0.00049562886 0.00059271214 -0.0009851208 -0.0011638656 0.00026482763 -0.0008889717 -0.00079796533
-0.00025705242 0.0008825982 0.00026260992 0.0010225893 -0.00079396873 -0.00083685375 -0.0008884824 -0.00083955
-0.0012131978 -0.0011051269 0.00039901971 0.0009255061 0.00032508012 0.00052938703 0.00031317212 0.0013295212
-0.0012965162 0.0006708589 0.0006069308 0.0013231008 0.00042413402 0.00039945135 -0.0010872255 0.00086599
0.0011494372 -0.009955789 0.00017025802 -0.00051996514 -0.00068475807 0.0008364616 -0.0020845653 0.001396051
-0.0011963355 0.00029148505 -0.0006336204 0.0006291564 0.0004829089 0.0007338 0.0010180435 -0.0031381696
0.0005735831 0.0010791954 -2.8048316e-05 0.0014092458 -0.0009038706 0.010104268 0.0013837107 -0.00096907903
-0.0013674685 -9.5958814e-05 0.00017739928 -0.00057496113 -0.000118343756 0.0001993592 0.00065322575 -0.0012540058
-0.007638246 -0.0004956286 -0.00059271214 0.0009851207 0.0011638654 -0.00026482766 0.0008889716 0.0007979654
0.00025705266 -0.0008825982 -0.00026260997 -0.0010225893 0.00079396873 0.0008368537 0.00088848197 0.00083955
0.0012131977 0.0011051269 -0.00039901974 -0.0009255061 -0.0003250799 -0.0005293868 -0.000313172 -0.001329521
0.0012965162 -0.00067085883 -0.0006069308 -0.0013231004 -0.00042413408 -0.0003994512 0.0010872256 -0.00086598983
-0.0011494373 0.009955789 -0.00017025805 0.00051996514 0.00068475807 -0.00083646167 0.0020845649 -0.0013960508

exp_avg_sq f4 [2, 64]
00000000: d23f a536 914b c735 13d8 1037 2bd7 0b36
00000010: 4fb0 8635 9e59 7436 32bb 2237 66ff 9737
00000020: 5ae1 b135 45e8 9d36 4bc7 9536 72dd b736
00000030: 4436 4736 1804 9838 237d 5a36 dd98 1436
00000040: 4825 c836 bfb8 0438 0824 e735 7a19 ed36
00000050: 21a1 3135 7194 5236 420d 3d36 439c a136
00000060: 9dc2 4f38 87db 6236 8f9f ec35 6dcd cf36
00000070: cfd2 3c37 ead0 dd36 bce8 1936 2c45 0236
00000080: df25 ff36 7dc1 d336 6e50 5736 5458 3536
00000090: 17c7 2336 2e96 3737 7c58 4637 d449 dd35
000000a0: e191 7a36 1c36 e636 5e0a 0436 09d7 5436
000000b0: 35eb 4836 ccd9 9936 b4c0 0f36 8afe 5336
000000c0: d45f ca36 50f5 da35 770e bf37 5f0e 8436
000000d0: 2046 db35 4104 b336 dee0 8736 076b 2937
000000e0: 81d1 2e37 7378 9938 ff67 1a36 397a 9136
000000f0: cb81 6b36 739c 8236 12ba 4437 462c 0c37
00000100: d13f a536 904b c735 12d8 1037 28d7 0b36
00000110: 4fb0 8635 9d59 7436 32bb 2237 69ff 9737
00000120: 5be1 b135 46e8 9d36 49c7 9536 72dd b736
00000130: 4436 4736 1804 9838 237d 5a36 da98 1436
00000140: 4825 c836 c0b8 0438 0824 e735 7619 ed36
00000150: 1da1 3135 7394 5236 430d 3d36 409c a136
00000160: 9cc2 4f38 88db 6236 8f9f ec35 6dcd cf36
00000170: d1d2 3c37 ecd0 dd36 bfe8 1936 2a45 0236
00000180: e125 ff36 80c1 d336 6e50 5736 5358 3536
00000190: 16c7 2336 3096 3737 7a58 4637 d549 dd35
000001a0: df91 7a36 1c36 e636 600a 0436 08d7 5436
000001b0: 32eb 4836 ccd9 9936 b6c0 0f36 8afe 5336
000001c0: d45f ca36 4ef5 da35 770e bf37 5f0e 8436
000001d0: 2346 db35 4304 b336 dfe0 8736 066b 2937
000001e0: 80d1 2e37 7278 9938 ff67 1a36 387a 9136
000001f0: cd81 6b36 749c 8236 11ba 4437 472c 0c37
4.924813e-06 1.4848648e-06 8.633378e-06 2.0837858e-06 1.003509e-06 3.6410997e-06 9.699537e-06 1.8119532e-05
1.3253114e-06 4.7060043e-06 4.463747e-06 5.4796046e-06 2.9684898e-06 7.248687e-05 3.255737e-06 2.2142697e-06
5.9648046e-06 3.164331e-05 1.7221328e-06 7.0661163e-06 6.617211e-07 3.1378843e-06 2.8170912e-06 4.816365e-06
4.9533894e-05 3.3804406e-06 1.7629808e-06 6.1929954e-06 1.1254756e-05 6.610634e-06 2.2934246e-06 1.9411773e-06
7.604001e-06 6.310815e-06 3.2084313e-06 2.7022515e-06 2.4404778e-06 1.0942616e-05 1.18223215e-05 1.648727e-06
3.7337816e-06 6.8608333e-06 1.9675567e-06 3.1715629e-06 2.993923e-06 4.58511e-06 2.1420828e-06 3.1589611e-06
6.031225e-06 1.6313661e-06 2.277571e-05 3.9355796e-06 1.633718e-06 5.335111e-06 4.0494915e-06 1.0098104e-05
1.0419987e-05 7.318044e-05 2.3008322e-06 4.3355653e-06 3.5093278e-06 3.892515e-06 1.1725833e-05 8.3549585e-06
4.9248124e-06 1.4848647e-06 8.633377e-06 2.0837851e-06 1.003509e-06 3.6410995e-06 9.699537e-06 1.8119537e-05
1.3253115e-06 4.706005e-06 4.463746e-06 5.4796046e-06 2.9684898e-06 7.248687e-05 3.255737e-06 2.214269e-06
5.9648046e-06 3.1643314e-05 1.7221328e-06 7.0661144e-06 6.617209e-07 3.1378847e-06 2.8170914e-06 4.816364e-06
4.953389e-05 3.3804408e-06 1.7629808e-06 6.1929954e-06 1.1254758e-05 6.610635e-06 2.2934253e-06 1.9411768e-06
7.604002e-06 6.3108164e-06 3.2084313e-06 2.7022513e-06 2.4404776e-06 1.0942618e-05 1.182232e-05 1.6487271e-06
3.733781e-06 6.8608333e-06 1.9675572e-06 3.1715626e-06 2.9939224e-06 4.58511e-06 2.1420833e-06 3.1589611e-06
6.031225e-06 1.6313659e-06 2.277571e-05 3.9355796e-06 1.6337184e-06 5.335112e-06 4.049492e-06 1.0098103e-05
1.0419986e-05 7.318043e-05 2.3008322e-06 4.335565e-06 3.5093283e-06 3.8925155e-06 1.1725832e-05 8.354959e-06

exp_avg f4 [2]
00000000: f508 4e3b f408 4ebb
0.0031438444 -0.0031438442

exp_avg_sq f4 [2]
00000000: a81b 1339 a91b 1339
0.00014029315 0.00014029317

exp_avg f4 [64, 4]
00000000: 8c2a a1bd d19d 6dbd 2c6f aebb ea6e 8abb
00000010: c4fe 073e 248c 843d 7ac4 c03b 2c47 303d
00000020: 1ac8 08bd b64e f83c b2b0 ce3a 3922 a0bd
00000030: 3d54 39bd 2b9e cbbc b25b 11bb 067a 46bc
00000040: 2f06 34bd fc92 92bc 62f8 76bb e02f c5bc
00000050: eb7c a4bd c440 63bd 08e6 7fbb aa04 e2bb
00000060: eaec 013d 8f31 413b d64f 0a3b f7b9 ad3c
00000070: eb8a fcbd fcea c7bc 6a65 8abb 2006 b2bd
00000080: 8be0 f1bc 0562 d63b 806d fbba 3059 0cbd
00000090: 104a 2dbd 421a 2ebc 51c3 afbb 51f1 09bd
000000a0: 2dd0 873d 8839 07bd 8924 e9ba f8ea e63d
000000b0: f54b 3abd b221 993a d6c6 ccba 352a 41bd
000000c0: 7a4d e13b d0db 0c3d 0e36 a0b8 ef8d 27bd
000000d0: 7688 e23c 8b77 15bc 4737 053b 7fcd 343d
000000e0: 61da 5d3b 60b7 cebc 5e0a feba 515f 273d
000000f0: b0ed e8bc 9abe 99bb 8c0e 6dbb c7d7 babc
00000100: 4f3a d9bd 44c0 20bd ffd5 5fbb db46 52bd
00000110: 4c54 30ba bc14 bcbc 7bfd 0abb 4073 043d
00000120: 0cbb 003d 371d 1b3d 0921 743b 6e96 9fbc
00000130: ea28 893d 28c2 0a3c 8808 b93b 5e13 883d
00000140: 56f1 593d c98f 1a3d cb16 8db9 10a3 1bbb
00000150: 8468 70bc 25da b13c 2844 b6ba fe35 37bd
00000160: e342 77bd 9dc4 02bc 4c12 19bb 6f74 4abd
00000170: 72b8 a93c 1c31 673b f005 4a3b 69d4 303c
00000180: 29e3 b73d 5cc4 ed3c ac95 463b 1eee 4c3d
00000190: a4e5 81bc f3ff c73a 8cd5 dfba d85d b3bc
000001a0: c2dd b0bc a0d9 87bc 8866 5fbb d2d5 fa3b
000001b0: 3b0b 623c 2332 73bb 5f27 603b d9f5 133c
000001c0: 28fe 013b 21a3 bfbc 791b 1a3b 3be5 213d
000001d0: 03ee c0bd 2080 9fbc 5888 73bb d4fe 89bd
000001e0: aeae 84bd acf6 ff3a 5195 dabb 247b a6bd
000001f0: 98e9 75bd 9a17 d4ba acd7 1dbb 8d37 6cbd
00000200: 0647 32bd a9ce 01bc 75a3 99ba 318d 05bd
00000210: 525d 313d d1e3 a83c f0b3 763b 70d7 683c
00000220: 7307 a13d ab87 2b3d 982a 293b 5e82 ba3c
00000230: 2376 66bc 5c27 353c 390f bdba 1429 cdbc
00000240: 5031 cc3d fdaf a53c a8da 613b 230d 913d
00000250: 76dc 103c f428 90bc 532e 493b 03d9 5d3c
00000260: df3b 12bd 0c4e 70bc d629 84bb 0e47 abbc
00000270: 31b6 63bd d847 65bc ec52 8cbb 5bba 29bd
00000280: dae0 22be fa09 8dbc 93d5 93bb 5269 08be
00000290: b82e 7dbd b786 c63b 4fa8 cfbb aae2 abbd
000002a0: b8fc ddbb 2ad2 4ebc 02f0 313b 4075 febb
000002b0: 9b0e 833d efdc 093c 1cc1 cc3b 179b 863d
000002c0: c021 cd3d 6921 a33c 8def 823b bb62 933d
000002d0: 9b9a d13d f652 3cbd bcf7 963a 6605 283e
000002e0: df63 b8bc 88a9 35bc 0c7b 37bb cec5 3ebb
000002f0: 1ff0 523c 2022 163b dd68 593b 6ce4 473a
00000300: f0b2 c6bd 202d 10bb 591d 4dbb e958 c3bd
00000310: 1e8b b73d 5ffe 3c3d 32f0 913b 8718 e73c
00000320: 0db9 bcbc fcd3 80bc 6373 c0ba 026c 093c
00000330: 747f 61bd fc55 bbba 7713 bfbb c333 86bd
00000340: 9507 493d 35e6 1f3d 46f9 413b dc2a 0fbb
00000350: 1215 bfbd 4cda 71bd 6bcb 8fbb 5e0e 4abc
00000360: 4e25 a33b 3a8d 1abc c41d 233a 9415 9a3c
00000370: 0695 d7bd a471 82bd a6ba 9abb a73e 87bc
00000380: 7dfa cebc 693c 343c 7625 15bb dc4e 1abd
00000390: b594 073d 0a82 08bd c27b 11bb 5250 a73d
000003a0: 848d 85bd 3f29 b4bb 5244 0ebb 3411 6abd
000003b0: 9c44 92bc 44f3 8cbb 3dc8 15bb eebc a8bb
000003c0: 26fd 2bbd a363 133d cc98 003a 1690 bcbd
000003d0: 558c 68bd 6a00 dc3c fc3a 093a f760 d7bd
000003e0: 7b87 9abb 223a b3bb cf59 573b 92e9 59bc
000003f0: 3bae ee3d a1c6 193d a937 903b b823 843d
-0.07869443 -0.058011834 -0.0053233113 -0.004224648 0.13280779 0.06472042 0.005882797 0.043036625
-0.033393957 0.03031097 0.0015769212 -0.078190275 -0.04524635 -0.024855694 -0.0022179899 -0.012114054
-0.04395121 -0.017892353 -0.0037684669 -0.02407068 -0.08031639 -0.055481687 -0.0039047021 -0.0068975287
0.03172008 0.0029479002 0.0021104715 0.021206839 -0.12331184 -0.024404041 -0.0042235153 -0.086925745
-0.029526016 0.0065424466 -0.0019182414 -0.034264743 -0.04230696 -0.010626378 -0.0053638597 -0.033677403
0.06631503 -0.03301385 -0.0017787378 0.112752855 -0.045482595 0.0011683016 -0.0015623223 -0.047159392
0.006875691 0.034389317 -7.639463e-05 -0.040906843 0.02765296 -0.00912274 0.0020327137 0.04414129
0.0033852088 -0.025233924 -0.0019381752 0.040862385 -0.02843365 -0.004691911 -0.0036172 -0.022807969
-0.106068246 -0.03924586 -0.0034154651 -0.051337104 -0.00067264284 -0.022959106 -0.0021208215 0.032336473
0.03142838 0.03786966 0.0037251136 -0.01948091 0.06697257 0.008469142 0.005646769 0.06644319
0.05320867 0.03773478 -0.00026910598 -0.0023748316 -0.014673356 0.021710465 -0.001390581 -0.044729225
-0.060366523 -0.007981447 -0.0023356853 -0.049427446 0.020717833 0.0035277074 0.0030826293 0.01079283
0.08978874 0.029024296 0.0030301614 0.050031774 -0.015856571 0.0015258774 -0.0017077192 -0.021895334
-0.021590117 -0.016583264 -0.0034088213 0.007654884 0.013796623 -0.0037108741 0.0034203155 0.009030783
0.0019835327 -0.023393216 0.002351491 0.03952525 -0.09420397 -0.019470274 -0.0037160125 -0.06738058
-0.0647863 0.001952847 -0.006670632 -0.08128956 -0.060037225 -0.001618135 -0.002408485 -0.057670165
-0.043524764 -0.007922807 -0.0011721688 -0.032605354 0.043301888 0.020616444 0.0037643872 0.014211521
0.07862749 0.04187743 0.0025812741 0.022767242 -0.014066252 0.011056747 -0.0014424092 -0.025044002
0.09970343 0.02022552 0.0034462605 0.07082584 0.0088416245 -0.017597653 0.0030697777 0.013540509
-0.03570163 -0.014667045 -0.0040333075 -0.020907905 -0.055593673 -0.01399418 -0.004282346 -0.041437488
-0.15906087 -0.017216671 -0.004511544 -0.13321427 -0.061812133 0.0060585397 -0.0063372026 -0.08392842
-0.006774511 -0.012623349 0.0027151112 -0.007765442 0.0639927 0.008414491 0.0062486064 0.0657255
0.10016203 0.019913392 0.003995842 0.07196566 0.10234567 -0.045977555 0.0011517922 0.1640831
-0.02250856 -0.011087783 -0.0027996926 -0.00291096 0.012874632 0.0022908524 0.0033174076 0.0007625285
-0.09702098 -0.0021999553 -0.003129801 -0.09538443 0.089620814 0.046141025 0.0044536823 0.028209938
-0.023037458 -0.015726082 -0.0014682825 0.0083875675 -0.05505319 -0.0014292593 -0.005831178 -0.065528415
0.049079496 0.039037902 0.0029598041 -0.0021845615 -0.09330191 -0.059046075 -0.004388263 -0.012332527
0.0049788123 -0.009433085 0.0006222392 0.018809117 -0.10526471 -0.063693315 -0.0047219573 -0.016509367
-0.025265926 0.011000731 -0.0022757924 -0.037672862 0.033100802 -0.03332714 -0.002219901 0.08169617
-0.065211326 -0.005498081 -0.0021708203 -0.057145312 -0.017854981 -0.0043014605 -0.0022854947 -0.0051494753
-0.041989468 0.035983693 0.0004905581 -0.0920717 -0.056774456 0.026855666 0.00052349246 -0.105165415
-0.0047158576 -0.0054695765 0.0032859927 -0.013300316 0.116543256 0.037542943 0.0044011665 0.06452125
