flare/polgrad/lightning_logs/version_40/checkpoints/epoch=0.ckpt (torch_old, 146753 bytes, 36 tensors)

exp_avg f4 [6]
0	0x3b8b647b	0.0042539216
1	0xbbf1f227	-0.007383603
2	0x3b13594d	0.0022483647
3	0x3b853605	0.0040652775
4	0xba191346	-0.0005839359
5	0x3baef799	0.0053395745

exp_avg_sq f4 [6]
0	0x372023e8	9.545103e-06
1	0x369f7489	4.7521357e-06
2	0x36d4e56c	6.3448006e-06
3	0x364a2cb7	3.0126373e-06
4	0x37177fc3	9.030048e-06
5	0x37bb873c	2.235511e-05

exp_avg f4 [64, 22]
0	0xb40a1a34	-1.2861784e-07
1	0x00000000	0.0
2	0xb6a5e7a0	-4.944348e-06
3	0xb94e99bd	-0.00019702963
4	0x00000000	0.0
5	0x39921c6c	0.00027868466
6	0x00000000	0.0
7	0xb832b212	-4.2604348e-05
8	0xb8d96b2a	-0.00010367327
9	0xb75bf2df	-1.3109965e-05
10	0x38e98bf9	0.00011136378
11	0xb8062a96	-3.198775e-05
12	0x39ae9add	0.00033303248
13	0xb89079a2	-6.889111e-05
14	0xb963b946	-0.00021717427
15	0xb84008b2	-4.5784465e-05
16	0x396bbe68	0.00022482278
17	0xb8a02bb9	-7.6375385e-05
18	0x39f03edc	0.000458232
19	0xb9cda710	-0.00039225118
20	0xb9758385	-0.00023414016
21	0xb788b817	-1.6298187e-05
22	0x38932da4	7.0180075e-05
23	0x00000000	0.0
24	0xb90affc4	-0.00013255986
25	0x393857ea	0.00017580358
26	0x00000000	0.0
27	0xb94fdc7e	-0.00019823198
28	0x00000000	0.0
29	0x39e69ebb	0.00043987282
30	0x38761bcc	5.867686e-05
31	0x38a2f0ca	7.7696124e-05
32	0x38b24770	8.501008e-05
33	0xb9123af4	-0.00013945607
34	0x388171b2	6.172377e-05
35	0xb86defa7	-5.6728397e-05
36	0x38c432ac	9.355447e-05
37	0xb8b1bec5	-8.475551e-05
38	0xb83b91ad	-4.4719945e-05
39	0x3640d0a4	2.8731674e-06
40	0x390ad355	0.00013239433
41	0x398bfde9	0.00026701324
42	0x395e497d	0.00021198946
43	0x3909b604	0.00013133144
44	0xb6e555fc	-6.8347417e-06
45	0x00000000	0.0
46	0x39088998	0.00013021228
47	0xb837622b	-4.3722026e-05
48	0x00000000	0.0
49	0xb9c83f86	-0.000381943
50	0x00000000	0.0
51	0x38d800d1	0.00010299835
52	0xb8177b28	-3.6115904e-05
53	0xb97831b5	-0.0002366964
54	0x39a0c292	0.00030662544
55	0xb9fd3e11	-0.00048302163
56	0x391e5c62	0.0001510247
57	0xb99a0817	-0.00029379196
58	0x378909af	1.6336182e-05
59	0xba00a8ad	-0.0004907947
60	0x3949c599	0.00019242465
61	0xb99f66ad	-0.00030403343
62	0x3a3e00a9	0.0007248023
63	0xb729ae42	-1.01137575e-05
64	0x399b21f6	0.00029589207
65	0xb81f0e54	-3.79219e-05
66	0x38f3d3b7	0.00011626578
67	0x00000000	0.0
68	0xb9ba6b2b	-0.0003555653
69	0x394daf11	0.00019615541
70	0x00000000	0.0
71	0xb9133dd7	-0.0001404205
72	0x00000000	0.0
73	0x3a1a1b94	0.0005878743
74	0xb978f04f	-0.00023740645
75	0x392e0cb1	0.00016598661
76	0x39195944	0.00014624471
77	0xb98adacc	-0.00026484428
78	0x38899208	6.5598695e-05
79	0xb9a5d286	-0.00031628105
80	0xb94f6ad8	-0.00019780861
81	0xb8e1d004	-0.00010767582
82	0xb8c8eec2	-9.581215e-05
83	0xb928d16e	-0.00016099747
84	0x3a0fae63	0.0005481003
85	0x391228b5	0.0001393881
86	0xb8ee6944	-0.000113683316
87	0xb92d8342	-0.00016547463
88	0x389260ef	6.979878e-05
89	0x00000000	0.0
90	0x38d3192a	0.00010065951
91	0x39d0151f	0.00039688588
92	0x00000000	0.0
93	0xb9cb117d	-0.00038732207
94	0x00000000	0.0
95	0xb7b7c02f	-2.1904792e-05
96	0xb895edca	-7.149165e-05
97	0x38685f3c	5.5401804e-05
98	0x386caf7e	5.6430225e-05
99	0x3886486d	6.403108e-05
100	0x37a3157a	1.9441115e-05
101	0x399a3699	0.00029413847
102	0xb8b72168	-8.7323424e-05
103	0x39153060	0.00014227768
104	0x39bb750c	0.00035754626
105	0x38994870	7.309101e-05
106	0xb994aaba	-0.0002835596
107	0x3a127a6d	0.0005587701
108	0x3a2d495f	0.00066103594
109	0x37ce3ff9	2.4586903e-05
110	0xb53be040	-6.9989255e-07
111	0x00000000	0.0
112	0xb8bf7af8	-9.1304944e-05
113	0xb94a0a52	-0.00019268066
114	0x00000000	0.0
115	0xb7aff128	-2.0973923e-05
116	0x00000000	0.0
117	0x392a78e9	0.00016257506
118	0xb7289cec	-1.00501165e-05
119	0x370cc722	8.3910145e-06
120	0xb8d0d01d	-9.956977e-05
121	0xb9d534e2	-0.00040665927
122	0xb9a715b4	-0.00031868892
123	0x3696ac14	4.490381e-06
124	0x37dc0035	2.622614e-05
125	0xb9131934	-0.00014028401
126	0xb8af3849	-8.355134e-05
127	0xb8120a0f	-3.481848e-05
128	0xb7d9a0f6	-2.594337e-05
129	0x3896fd9e	7.199797e-05
130	0x3911ba13	0.00013897596
131	0x399c1603	0.0002977104
132	0x38751941	5.843607e-05
133	0x00000000	0.0
134	0xb8b86056	-8.791748e-05
135	0x399af6c2	0.00029557018
136	0x00000000	0.0
137	0xb94a19f4	-0.0001927389
138	0x00000000	0.0
139	0x3963d356	0.00021727136
140	0xb8e6b88a	-0.00011001628
141	0x38c5a926	9.4251984e-05
142	0x39034bbc	0.00012521347
143	0x3726374e	9.907248e-06
144	0xb84e22e6	-4.914673e-05
145	0xb94571e4	-0.00018829812
146	0xb83d53d5	-4.5139186e-05
147	0xb6ff3fdc	-7.6070264e-06
148	0x38855e47	6.359495e-05
149	0x37f4f5d5	2.9201541e-05
150	0x3905f2f2	0.00012774373
151	0x38d21022	0.00010016585
152	0x38e7873c	0.00011040128
153	0xb93bd8d5	-0.00017914486
154	0xb8a501af	-7.868127e-05
155	0x00000000	0.0
156	0x38ce9164	9.8499266e-05
157	0xb88b2398	-6.634666e-05
158	0x00000000	0.0
159	0x38c5627f	9.412038e-05
160	0x00000000	0.0
161	0xb993740e	-0.00028124492
162	0x38a02ac0	7.637357e-05
163	0x37daef21	2.6098978e-05
164	0xb91c47a6	-0.0001490401
165	0x392589c7	0.00015786952
166	0xb91be7b5	-0.0001486827
167	0xb7dfa942	-2.6662488e-05
168	0x38d53eea	0.0001016835
169	0x391b6510	0.000148196
170	0xb8fb133b	-0.000119721946
171	0xb46ccc80	-2.205361e-07
172	0xb8f57a52	-0.00011705294
173	0xb902b372	-0.00012464615
174	0xb91028ed	-0.00013748156
175	0xb7a7f57b	-2.0022262e-05
176	0xb7d6cd5a	-2.5606412e-05
177	0x00000000	0.0
178	0xb847f03a	-4.7669026e-05
179	0xb9f5bcde	-0.00046870759
180	0x00000000	0.0
181	0x39d33b32	0.0004028916
182	0x00000000	0.0
183	0x39dddb4b	0.0004231579
184	0x39db2354	0.00041797257
185	0x39618712	0.0002150799
186	0x37dd3d8c	2.6373913e-05
187	0xb94125f4	-0.00018420053
188	0x39a5485b	0.00031525161
189	0x382aca84	4.0719766e-05
190	0x3a001c36	0.0004887016
191	0x392bc682	0.00016381781
192	0xb9cbc38c	-0.0003886487
193	0xb94bf664	-0.00019451376
194	0x3931b79d	0.00016948437
195	0xba1411d1	-0.0005648407
196	0xb9b6930e	-0.0003482331
197	0x37e42356	2.7196173e-05
198	0xb7d7e83c	-2.573814e-05
199	0x00000000	0.0
200	0xb9187bff	-0.00014542042
201	0xb9013109	-0.00012320666
202	0x00000000	0.0
203	0x39225c3e	0.00015483887
204	0x00000000	0.0
205	0x38a907ea	8.060022e-05
206	0x38abac59	8.186018e-05
207	0xb8182fa8	-3.6284007e-05
208	0xb9495774	-0.00019201433
209	0x38e4dad5	0.00010912648
210	0xb8eaf60c	-0.00011203819
211	0x37750808	1.4605008e-05
212	0x38e2b0a1	0.000108094195
213	0xb8497204	-4.802832e-05
214	0xb9d1883d	-0.00039965092
215	0x3926142b	0.00015838507
216	0xb96f98cf	-0.00022849742
217	0xb93270a8	-0.0001701737
218	0xb8ebfb32	-0.00011252462
219	0x3898fa38	7.294532e-05
220	0xb7660e5d	-1.37124125e-05
221	0x00000000	0.0
222	0xb8c29aa0	-9.279442e-05
223	0xb82ba343	-4.0921626e-05
224	0x00000000	0.0
225	0xb99e8ef2	-0.0003024261
226	0x00000000	0.0
227	0x39002435	0.0001222052
228	0xb88472c6	-6.315629e-05
229	0x38f5572b	0.00011698747
230	0xb90d29a2	-0.00013462317
231	0xba0c0bdc	-0.00053423434
232	0xb8dc2c2d	-0.00010498646
233	0xb85e03ec	-5.2932577e-05
234	0xb77507c9	-1.4604951e-05
235	0xb8bdfe26	-9.059561e-05
236	0xb955a989	-0.0002037642
237	0xb973507f	-0.00023204273
238	0x399e9c59	0.00030252596
239	0x3962fb7e	0.00021646728
240	0x396bb732	0.00022479592
241	0x391763fb	0.00014437728
242	0xb8672f04	-5.511848e-05
243	0x00000000	0.0
244	0x385b5f3a	5.2302355e-05
245	0x39b2f6f2	0.00034134794
246	0x00000000	0.0
247	0xba24b87f	-0.00062835956
248	0x00000000	0.0
249	0xb856c1df	-5.1202132e-05
250	0x38e7fdbd	0.00011062201
251	0xb87275ca	-5.7806996e-05
252	0xb98bfac4	-0.0002669898
253	0x3745f5b2	1.179932e-05
254	0xba0701fc	-0.0005150137
255	0xb8b0fa2a	-8.438931e-05

exp_avg_sq f4 [64, 22]
0	0x307f2f39	9.2835567e-10
1	0x00000000	0.0
2	0x33003dfa	2.985869e-08
3	0x312f5998	2.551678e-09
4	0x00000000	0.0
5	0x329e3b3a	1.8420554e-08
6	0x00000000	0.0
7	0x32803f18	1.4929853e-08
8	0x32a0fd20	1.874156e-08
9	0x32a55bc5	1.925026e-08
10	0x328d376e	1.6439767e-08
11	0x31ddcb43	6.4550547e-09
12	0x32860d55	1.5605716e-08
13	0x31b4da90	5.263537e-09
14	0x32b3dfac	2.0940057e-08
15	0x3289007b	1.5949118e-08
16	0x328ee100	1.6633294e-08
17	0x31bdadf1	5.520399e-09
18	0x32bb2455	2.1786187e-08
19	0x3201e18b	7.560071e-09
20	0x331b1a8b	3.611289e-08
21	0x3317d527	3.5351288e-08
22	0x30d96030	1.5816166e-09
23	0x00000000	0.0
24	0x32573032	1.2525605e-08
25	0x307d6cbd	9.219539e-10
26	0x00000000	0.0
27	0x31ae941a	5.0809037e-09
28	0x00000000	0.0
29	0x32de32eb	2.5867356e-08
30	0x32533118	1.2292979e-08
31	0x32aa93a0	1.9857737e-08
32	0x32867947	1.5654804e-08
33	0x323f38f4	1.1130613e-08
34	0x31aeaf1a	5.0839732e-09
35	0x329655c9	1.7501309e-08
36	0x32517e6f	1.2194149e-08
37	0x329eb0f6	1.8474093e-08
38	0x32769e9f	1.4355151e-08
39	0x31798321	3.6308807e-09
40	0x31fb8a7f	7.3208066e-09
41	0x32bb2d45	2.1790251e-08
42	0x31c81483	5.823098e-09
43	0x31fdc4bc	7.385635e-09
44	0x2fe6b8fc	4.1968196e-10
45	0x00000000	0.0
46	0x32402ee4	1.1186533e-08
47	0x300170bd	4.709014e-10
48	0x00000000	0.0
49	0x31d84fd3	6.2955023e-09
50	0x00000000	0.0
51	0x324bc52a	1.1860985e-08
52	0x31f41f07	7.104862e-09
53	0x31f9ec68	7.27373e-09
54	0x3283d82f	1.5348716e-08
55	0x32878280	1.5775413e-08
56	0x30e807c1	1.6882425e-09
57	0x317b69e4	3.65855e-09
58	0x321cc4a7	9.125109e-09
59	0x32b55fae	2.1114683e-08
60	0x32e60380	2.6777116e-08
61	0x31b7dd4e	5.3511604e-09
62	0x33bc8b2f	8.7797495e-08
63	0x3389c041	6.4145304e-08
64	0x31b7dc70	5.351062e-09
65	0x32abbcac	1.9992818e-08
66	0x3140184d	2.795349e-09
67	0x00000000	0.0
68	0x344a055a	1.8814663e-07
69	0x31d30e55	6.1425376e-09
70	0x00000000	0.0
71	0x32b6eed4	2.1296195e-08
72	0x00000000	0.0
73	0x334ffa89	4.8423804e-08
74	0x341456f5	1.3815209e-07
75	0x324b74d8	1.1842722e-08
76	0x33d0c9f0	9.722487e-08
77	0x3309f8ee	3.21242e-08
78	0x3278b9c3	1.4477737e-08
79	0x3203e8ec	7.678164e-09
80	0x341dbbb3	1.4690049e-07
81	0x3256646b	1.2479272e-08
82	0x33ac87c1	8.0340676e-08
83	0x32e86bcd	2.7057377e-08
84	0x3336ed5b	4.259105e-08
85	0x337ccd16	5.8859847e-08
86	0x32fef947	2.968285e-08
87	0x32c19a7c	2.2538408e-08
88	0x31771f2a	3.5960945e-09
89	0x00000000	0.0
90	0x33dc783a	1.02664174e-07
91	0x3205668e	7.764937e-09
92	0x00000000	0.0
93	0x33531d9c	4.9154195e-08
94	0x00000000	0.0
95	0x33374607	4.2671697e-08
96	0x33c01bf1	8.945779e-08
97	0x343e3c2e	1.7717022e-07
98	0x33ab2dc7	7.971135e-08
99	0x32933344	1.7136365e-08
100	0x329ac77a	1.8018671e-08
101	0x337b46c8	5.8504867e-08
102	0x33af2121	8.1550986e-08
103	0x3434ed90	1.6850231e-07
104	0x33d25444	9.794215e-08
105	0x3242e31c	1.1343925e-08
106	0x33844962	6.160077e-08
107	0x32254f88	9.622347e-09
108	0x33a81dab	7.828506e-08
109	0x33b16085	8.2597616e-08
110	0x306fd971	8.7256696e-10
111	0x00000000	0.0
112	0x33c99f9a	9.388823e-08
113	0x31b37dfd	5.223909e-09
114	0x00000000	0.0
115	0x32643904	1.32843105e-08
116	0x00000000	0.0
117	0x32d285fa	2.4508143e-08
118	0x338828c2	6.340407e-08
119	0x328b547c	1.6220149e-08
120	0x33658e31	5.344754e-08
121	0x32e0d90a	2.617573e-08
122	0x329ffcd1	1.8625004e-08
123	0x31db0836	6.3746723e-09
124	0x33931177	6.848398e-08
125	0x32bb7dc2	2.1826853e-08
126	0x333a18fd	4.3329226e-08
127	0x3243319e	1.13617755e-08
128	0x31314918	2.579844e-09
129	0x32e8773a	2.7062573e-08
130	0x32655bb9	1.335041e-08
131	0x3306a33b	3.1347763e-08
132	0x3047f510	7.2744033e-10
133	0x00000000	0.0
134	0x328279c2	1.518936e-08
135	0x318be8b0	4.071886e-09
136	0x00000000	0.0
137	0x31f8028e	7.2180404e-09
138	0x00000000	0.0
139	0x320ee8f3	8.318454e-09
140	0x3243d604	1.1399155e-08
141	0x329a8c1b	1.7991672e-08
142	0x323cc250	1.0987222e-08
143	0x3145f475	2.880623e-09
144	0x314d4d9a	2.9875538e-09
145	0x30ce2e85	1.5001694e-09
146	0x3241bb4d	1.1276666e-08
147	0x329a0a55	1.7932658e-08
148	0x32352564	1.0544088e-08
149	0x3124be24	2.3973223e-09
150	0x30bcef98	1.3746897e-09
151	0x30129fb3	5.3341437e-10
152	0x31a8c41d	4.911739e-09
153	0x31ec6e5c	6.8810504e-09
154	0x30e5392e	1.6678194e-09
155	0x00000000	0.0
156	0x339d253c	7.317655e-08
157	0x30c70a4d	1.4482083e-09
158	0x00000000	0.0
159	0x3212be4c	8.541587e-09
160	0x00000000	0.0
161	0x32b20c37	2.0727482e-08
162	0x33626e92	5.272029e-08
163	0x328efbb2	1.6645433e-08
164	0x33557a01	4.970389e-08
165	0x322ebfc2	1.0171734e-08
166	0x319746de	4.402735e-09
167	0x32ad07f5	2.014347e-08
168	0x3366027d	5.355331e-08
169	0x329795a7	1.7646768e-08
170	0x33334eb8	4.174828e-08
171	0x31e580bf	6.679414e-09
172	0x3212619c	8.520512e-09
173	0x31fc5126	7.343391e-09
174	0x325be519	1.27995685e-08
175	0x32552805	1.2407331e-08
176	0x30c9f708	1.4694885e-09
177	0x00000000	0.0
178	0x337e52d2	5.9214308e-08
179	0x3250bbc9	1.2149891e-08
180	0x00000000	0.0
181	0x332c12d7	4.0064005e-08
182	0x00000000	0.0
183	0x32fae19a	2.9206422e-08
184	0x336acf89	5.4671123e-08
185	0x339b5463	7.2331e-08
186	0x332cea64	4.0260048e-08
187	0x3252b7c2	1.22653905e-08
188	0x329b8ce7	1.810845e-08
189	0x318e84db	4.147848e-09
190	0x3372edb3	5.6561202e-08
191	0x3384658f	6.1652024e-08
192	0x338d22e4	6.572171e-08
193	0x321300cd	8.556708e-09
194	0x322c9875	1.0046382e-08
195	0x32724710	1.4102412e-08
196	0x33a6ec85	7.773e-08
197	0x33b10583	8.2432074e-08
198	0x2f5674eb	1.9504724e-10
199	0x00000000	0.0
200	0x3224b012	9.58609e-09
201	0x308f1c29	1.0412623e-09
202	0x00000000	0.0
203	0x318014b9	3.727646e-09
204	0x00000000	0.0
205	0x3143ac4b	2.8474172e-09
206	0x32101c95	8.388402e-09
207	0x3206cd2a	7.8464755e-09
208	0x31f5aca3	7.150065e-09
209	0x30d52419	1.5508049e-09
210	0x310d6352	2.0574658e-09
211	0x3008047d	4.948289e-10
212	0x322d5681	1.0089594e-08
213	0x31fdd41a	7.3873823e-09
214	0x32a4fe8c	1.9207867e-08
215	0x31330a06	2.6053626e-09
216	0x32747464	1.4229133e-08
217	0x30bfc61e	1.3953387e-09
218	0x31affc73	5.1218705e-09
219	0x31e802f4	6.7524244e-09
220	0x2f2ec897	1.5896472e-10
221	0x00000000	0.0
222	0x31cab734	5.8998015e-09
223	0x2ff9546a	4.5352816e-10
224	0x00000000	0.0
225	0x31b656ae	5.3067515e-09
226	0x00000000	0.0
227	0x31f087c9	7.0003563e-09
228	0x31b580b2	5.2824243e-09
229	0x31962fb2	4.370997e-09
230	0x318fe230	4.1875623e-09
231	0x32bb87ba	2.1831386e-08
232	0x314fee2c	3.025785e-09
233	0x313d2b35	2.752768e-09
234	0x31a634a1	4.837219e-09
235	0x32054c87	7.759019e-09
236	0x31ab677d	4.9885203e-09
237	0x3167467c	3.365499e-09
238	0x327ec2b7	1.4829019e-08
239	0x3324c34b	3.8361843e-08
240	0x3198eb42	4.450528e-09
241	0x315753a8	3.133417e-09
242	0x304e6899	7.5091006e-10
243	0x00000000	0.0
244	0x3397c45d	7.067204e-08
245	0x31ceafc7	6.0153726e-09
246	0x00000000	0.0
247	0x3321044a	3.7489635e-08
248	0x00000000	0.0
249	0x3259f760	1.2687309e-08
250	0x33710411	5.6115883e-08
251	0x326a64a6	1.36434775e-08
252	0x33932912	6.8526916e-08
253	0x3214684b	8.638447e-09
254	0x32eb512c	2.7394513e-08
255	0x30d45981	1.5450469e-09

exp_avg f4 [64]
0	0xb6a5ea60	-4.944668e-06
1	0xb90affc8	-0.00013255992
2	0x390889b9	0.00013021276
3	0xb9ba6b17	-0.00035556473
4	0x38d318e5	0.00010065901
5	0xb8bf7b08	-9.130506e-05
6	0xb8b86051	-8.791744e-05
7	0x38ce9130	9.849889e-05
8	0xb847f036	-4.766901e-05
9	0xb9187c0a	-0.00014542058
10	0xb8c29ab0	-9.279454e-05
11	0x385b5f23	5.230227e-05
12	0xb828a17c	-4.0204715e-05
13	0x38ab83c8	8.1784616e-05
14	0x390707be	0.00012877487
15	0x37575c46	1.2836483e-05
16	0xb90afebe	-0.00013255604
17	0xb9674758	-0.00022056454
18	0xb8f989d0	-0.00011898915
19	0xb89c3c69	-7.449912e-05
20	0x38f1ef9e	0.00011536408
21	0xb8b022a4	-8.398786e-05
22	0xb881e2e5	-6.193462e-05
23	0xb7f93f84	-2.971269e-05
24	0xb74de59c	-1.2272412e-05
25	0xb782cbde	-1.559214e-05
26	0xb99af1df	-0.00029553377
27	0x380393e8	3.1370582e-05
28	0xb8a426a5	-7.8273275e-05
29	0x386caf40	5.643e-05
30	0x3910960f	0.00013788811
31	0xb8db4028	-0.00010454684
32	0x389d7734	7.508547e-05
33	0xb8dc86a1	-0.00010515494
34	0xb8da4b0c	-0.000104090286
35	0x38a52b41	7.87587e-05
36	0x397e0246	0.00024224175
37	0xb9a8e656	-0.0003221507
38	0x38a9e6b4	8.10152e-05
39	0x384bf681	4.8628546e-05
40	0xb90d4ffc	-0.00013476604
41	0xb8287d56	-4.017105e-05
42	0xb615b8a0	-2.2310196e-06
43	0xb7f921e5	-2.9698896e-05
44	0x387b14ac	5.9862316e-05
45	0x38d92016	0.00010353343
46	0xb928ec47	-0.00016109749
47	0x38b09c95	8.4215e-05
48	0x388e89ee	6.796779e-05
49	0x37997444	1.8293162e-05
50	0x389a38a2	7.353841e-05
51	0x36a5c060	4.9397786e-06
52	0x3729d275	1.0122186e-05
53	0xb67df910	-3.7844911e-06
54	0x36f95148	7.4302407e-06
55	0xb908b753	-0.00013038264
56	0x38bcc2e0	9.000837e-05
57	0x392ad4f6	0.00016291798
58	0x393be54f	0.00017919134
59	0x387f500a	6.087128e-05
60	0xb926ec40	-0.00015919004
61	0xb8825cf0	-6.216194e-05
62	0x388c68c4	6.695234e-05
63	0x38fdec37	0.000121079785

exp_avg_sq f4 [64]
0	0x33003df6	2.9858676e-08
1	0x3257303c	1.2525614e-08
2	0x32402ef2	1.1186545e-08
3	0x344a0553	1.8814653e-07
4	0x33dc783d	1.02664195e-07
5	0x33c99f97	9.388821e-08
6	0x328279c2	1.518936e-08
7	0x339d252f	7.317646e-08
8	0x337e52d5	5.921432e-08
9	0x3224b015	9.586093e-09
10	0x31cab732	5.8998006e-09
11	0x3397c458	7.0672e-08
12	0x336aa229	5.4629854e-08
13	0x33940c4b	6.894023e-08
14	0x31f0aa03	7.0042474e-09
15	0x33474cda	4.6403194e-08
16	0x33da1c71	1.01565895e-07
17	0x33cce14f	9.540474e-08
18	0x348a0b22	2.5712603e-07
19	0x33f8dfdd	1.15891204e-07
20	0x344d133f	1.9099114e-07
21	0x3220294a	9.322614e-09
22	0x320e9079	8.298337e-09
23	0x3365f5bb	5.3541708e-08
24	0x329d2039	1.8291859e-08
25	0x342445a7	1.529903e-07
26	0x341883fd	1.420412e-07
27	0x344fdfc2	1.935978e-07
28	0x324a4cc2	1.17754e-08
29	0x34a64360	3.096893e-07
30	0x32f4fd1a	2.8520436e-08
31	0x3567871d	8.625082e-07
32	0x3409df1c	1.2840286e-07
33	0x348c6a26	2.6154265e-07
34	0x32c125b6	2.2485306e-08
35	0x319b04eb	4.511653e-09
36	0x3406d635	1.255765e-07
37	0x339c665e	7.2829366e-08
38	0x345c0517	2.0490948e-07
39	0x350532f2	4.9620496e-07
40	0x350ead0d	5.3150944e-07
41	0x331a575e	3.593538e-08
42	0x32c45a44	2.2858451e-08
43	0x34b1e7d8	3.3137508e-07
44	0x3416c86f	1.4042756e-07
45	0x32f4fc5d	2.85201e-08
46	0x341eb293	1.4779862e-07
47	0x334fff33	4.8428046e-08
48	0x32b01245	2.0497405e-08
49	0x3404cdca	1.2368324e-07
50	0x34041a24	1.2302968e-07
51	0x3427420a	1.5577112e-07
52	0x320dd5d0	8.2558955e-09
53	0x34b511d1	3.372684e-07
54	0x338e9754	6.639917e-08
55	0x3201b666	7.550261e-09
56	0x345c7213	2.0530597e-07
57	0x3318ec48	3.5605154e-08
58	0x3356c591	5.0005443e-08
59	0x3394ab7d	6.9229806e-08
60	0x349a5917	2.8749557e-07
61	0x321330a4	8.567586e-09
62	0x3344627a	4.572437e-08
63	0x33dfbbc5	1.0418402e-07

exp_avg f4 [64, 64]
0	0xb9b5659a	-0.0003459871
1	0xb90601d1	-0.00012779913
2	0xb8bb2878	-8.924393e-05
3	0x39d0b5d0	0.00039808312
4	0xb8d59cd7	-0.00010185845
5	0xb9e612cb	-0.0004388302
6	0x37845b2f	1.5778087e-05
7	0x3972c9f8	0.00023154158
8	0x376d81f1	1.4156555e-05
9	0xb98d897a	-0.00026996044
10	0x380d9b1d	3.376148e-05
11	0x38ba31f8	8.8784785e-05
12	0xb7ddc22a	-2.6435668e-05
13	0xb9d27f55	-0.0004014919
14	0xb87b1ab4	-5.9867933e-05
15	0x382bc30f	4.095124e-05
16	0xb8820b36	-6.200971e-05
17	0x3834ef9c	4.3138498e-05
18	0xb944ccdf	-0.00018768337
19	0x38a969ab	8.07823e-05
20	0x390ae1b2	0.00013244784
21	0x3874dabc	5.8377846e-05
22	0x38503deb	4.964873e-05
23	0xb93ac8dd	-0.0001781317
24	0xb90e5026	-0.00013572033
25	0xb85db855	-5.286218e-05
26	0xb8ee89d0	-0.00011374394
27	0xb72212d5	-9.660337e-06
28	0xb9a733a0	-0.00031891186
29	0xb8bf2a16	-9.115429e-05
30	0x3873bec3	5.8113375e-05
31	0xb866fbad	-5.5070665e-05
32	0x372f8178	1.0460957e-05
33	0xb87dd205	-6.0515496e-05
34	0x38aee7ff	8.340179e-05
35	0x3803a9a7	3.1390835e-05
36	0xb7b06d84	-2.1031832e-05
37	0xb93ad1c4	-0.00017816486
38	0xb9dbe30c	-0.00041940098
39	0xb9f26957	-0.0004623632
40	0x393cc12e	0.00018001042
41	0x396cc3c0	0.00022579636
42	0x38e9e628	0.00011153176
43	0x39c49453	0.00037494543
44	0xb8b01a10	-8.3971885e-05
45	0xb96a84a4	-0.00022365391
46	0x3839bb22	4.4281718e-05
47	0xb71c8669	-9.329619e-06
48	0x397caf55	0.00024097909
49	0x364376e0	2.9126459e-06
50	0x388a0e8c	6.583062e-05
51	0x39567f97	0.00020456161
52	0x38a20782	7.7261604e-05
53	0xb789cb8f	-1.6426462e-05
54	0xb7f712c2	-2.945343e-05
55	0xb9483811	-0.00019094373
56	0x38d7763e	0.00010274023
57	0xb8f1e6b5	-0.00011534748
58	0xb9382b7c	-0.00017563807
59	0x39438ffa	0.00018650285
60	0xb9982400	-0.0002901852
61	0x394ee654	0.00019731495
62	0xb939fea9	-0.00017737843
63	0xb99da197	-0.00030065767
64	0x37f38338	2.902896e-05
65	0x38dbb226	0.000104759165
66	0xba3a98e4	-0.00071181194
67	0x38946969	7.076824e-05
68	0xb8a28fb4	-7.751529e-05
69	0x36d250d0	6.2678955e-06
70	0x38bda72c	9.0433605e-05
71	0xb8c55eb6	-9.411333e-05
72	0x393bc7c9	0.00017908135
73	0xb88f9019	-6.845612e-05
74	0xb920427b	-0.00015283555
75	0xb88a02f7	-6.580905e-05
76	0x3907928f	0.000129292
77	0xb997408a	-0.0002884905
78	0xb90b0482	-0.00013257752
79	0xb722992f	-9.691618e-06
80	0x394ff859	0.00019833575
81	0x397982f7	0.00023795279
82	0xb7911014	-1.7292834e-05
83	0x394c2376	0.00019468166
84	0xb902748b	-0.00012441182
85	0x3915508d	0.00014239755
86	0xb88454d5	-6.310052e-05
87	0xb91760e9	-0.00014436584
88	0x39aea66f	0.0003331187
89	0x36fbe284	7.506753e-06
90	0x369736f8	4.50655e-06
91	0xb9301607	-0.00016792874
92	0xb87818d2	-5.9150923e-05
93	0xb8fc8079	-0.00012040226
94	0xb83c63cd	-4.491564e-05
95	0x3901364c	0.00012322626
96	0x36b5ea72	5.4215134e-06
97	0xb893a2b9	-7.039816e-05
98	0x3998e8c4	0.00029165123
99	0xb7bd1f52	-2.254514e-05
100	0xb8e29804	-0.00010804835
101	0xb95cb600	-0.00021048635
102	0xb8f329f5	-0.00011594958
103	0xb81b57cc	-3.7036647e-05
104	0x39a2ef2d	0.00031077248
105	0x38426818	4.635015e-05
106	0x381e4463	3.7733826e-05
107	0x3949f90b	0.0001926163
108	0xb96d76b5	-0.00022646303
109	0xb85d5ed8	-5.2778836e-05
110	0xb93c01b8	-0.00017929717
111	0xb90661fd	-0.0001281574
112	0x383357f8	4.2758853e-05
113	0xb800e581	-3.073132e-05
114	0x3995a40e	0.00028541725
115	0x3919d1c8	0.00014669367
116	0xb92ed65b	-0.00016673787
117	0x3884e9ac	6.337775e-05
118	0x36c152a2	5.761468e-06
119	0x382ff357	4.194988e-05
120	0xb8b03b23	-8.403349e-05
121	0xb91440a2	-0.00014138457
122	0x36ee88f7	7.1088975e-06
123	0x3785beae	1.5943628e-05
124	0x387ed1e2	6.0753788e-05
125	0x395d35f5	0.00021096303
126	0xb971417e	-0.00023007949
127	0xb890817e	-6.890575e-05
128	0x39a8e801	0.00032216313
129	0x38248f6e	3.9234226e-05
130	0x37391736	1.10322635e-05
131	0x3958aa18	0.0002066273
132	0x375183d5	1.2488065e-05
133	0x3928b1e0	0.00016087992
134	0x39aa143c	0.00032440003
135	0x398b77ac	0.00026601308
136	0x38851c61	6.34722e-05
137	0x38ec82f3	0.00011277748
138	0x39833705	0.0002502726
139	0x37f4462b	2.9119741e-05
140	0xb97306de	-0.00023176844
141	0xb8851d22	-6.3473606e-05
142	0x39352180	0.00017273985
143	0xb91910c0	-0.00014597457
144	0xb96e69ae	-0.00022736817
145	0x391a10ab	0.00014692794
146	0xb8c5f0ea	-9.438566e-05
147	0x3936005a	0.00017357004
148	0xb978cead	-0.00023728116
149	0x38306c7f	4.2062715e-05
150	0xb9b479b4	-0.0003442295
151	0x39e63c60	0.00043914
152	0xb7ff73a1	-3.0452213e-05
153	0x38998a88	7.321412e-05
154	0x39d7e0bc	0.00041175436
155	0xb98e054a	-0.0002708829
156	0x39693195	0.00022239082
157	0xb690b005	-4.312026e-06
158	0x37c2df5e	2.3230616e-05
159	0xb9497e06	-0.00019215801
160	0x3890356b	6.876405e-05
161	0xb8de60d0	-0.00010603818
162	0xb9429bdd	-0.00018559345
163	0xb919e89d	-0.00014677872
164	0x39b8481e	0.00035148946
165	0xb81b7bb6	-3.7070095e-05
166	0x3978af9a	0.0002371654
167	0xb9485260	-0.00019104173
168	0xb72c439e	-1.0267742e-05
169	0xb9057714	-0.00012728228
170	0x3963c29e	0.00021720908
171	0xb96ed24c	-0.0002277579
172	0xb9c0c63e	-0.00036768796
173	0xb91b81d4	-0.00014830317
174	0x3961f04b	0.00021547188
175	0xb7aa6787	-2.0313788e-05
176	0xb93be033	-0.0001791723
177	0x3893eb79	7.0533664e-05
178	0x391d60c2	0.00015008732
179	0x39a5bb2b	0.00031610703
180	0xb6ec4bf4	-7.04219e-06
181	0xb8c4eb75	-9.3898656e-05
182	0xb936075b	-0.00017359613
183	0x39903413	0.0002750462
184	0xb9998b59	-0.00029286256
185	0x39999809	0.0002929571
186	0x38547544	5.065395e-05
187	0x368578f8	3.9777915e-06
188	0x39a59f26	0.00031589827
189	0x39aa505c	0.000324848
190	0xb7794688	-1.4857978e-05
191	0xb98885bc	-0.0002603958
192	0x39097c36	0.0001311161
193	0x392986eb	0.00016167357
194	0x39425184	0.00018531649
195	0xb910bda1	-0.00013803552
196	0x3862208e	5.3912918e-05
197	0x387022c8	5.725285e-05
198	0xb8232e1b	-3.8905167e-05
199	0xb78f70d4	-1.7099468e-05
200	0xb80f8dff	-3.42261e-05
201	0x39882c34	0.00025972875
202	0x38a677f4	7.93784e-05
203	0x37e6a356	2.7494196e-05
204	0xb81afb1b	-3.695032e-05
205	0x398b4f38	0.0002657117
206	0xb8272230	-3.9847742e-05
207	0xb93ff75b	-0.00018307327
208	0xb7c1c2a7	-2.3098035e-05
209	0xb90b74c9	-0.00013299579
210	0x375417e4	1.2641747e-05
211	0xb93d8f76	-0.00018077888
212	0xb7ad1646	-2.0633579e-05
213	0xb935a4e8	-0.00017322937
214	0x38989ef6	7.2775336e-05
215	0x3899a5b7	7.326475e-05
216	0xb6149b20	-2.2144013e-06
217	0xb8c850da	-9.551803e-05
218	0x3853800a	5.0425566e-05
219	0x38860872	6.391191e-05
220	0x39268632	0.00015880985
221	0x3933e357	0.00017155461
222	0xb93509ec	-0.00017265201
223	0xb91378fd	-0.00014064084
224	0x384f6790	4.9449096e-05
225	0xb6aa6f74	-5.0793697e-06
226	0x37dfc2f8	2.6674461e-05
227	0xb88c9bde	-6.704753e-05
228	0xb88761dc	-6.4555294e-05
229	0x3953fa9d	0.00020215889
230	0x39a767b2	0.0003192998
231	0x3958504d	0.0002062928
232	0xb8db2e06	-0.00010451306
233	0xb965b717	-0.00021907348
234	0xb91e23a1	-0.00015081327
235	0xb982dae7	-0.00024958627
236	0x37f1fb9b	2.8846602e-05
237	0x38b72d2c	8.734534e-05
238	0xb69a2240	-4.593545e-06
239	0x3847cd04	4.7636233e-05
240	0xb987ecea	-0.0002592572
241	0xb8c1a777	-9.23415e-05
242	0xb886e19a	-6.4316395e-05
243	0xb888f2ea	-6.5302316e-05
244	0xb8a96d99	-8.078962e-05
245	0x391129d0	0.00013843854
246	0x37cfadba	2.475722e-05
247	0xb79da273	-1.8791505e-05
248	0xb7e2b81d	-2.7027034e-05
249	0x388f1748	6.823108e-05
250	0x38d41552	0.00010112919
251	0xb82ec524	-4.1668434e-05
252	0x3946f2cb	0.00018973199
253	0xb8e1c4e1	-0.000107655076
254	0x38ed984f	0.0001132941
255	0x38992f64	7.304436e-05

exp_avg_sq f4 [64, 64]
0	0x33aff936	8.194404e-08
1	0x3198b830	4.444722e-09
2	0x3307fb4b	3.1660687e-08
3	0x32d8c6d6	2.523613e-08
4	0x31ec2803	6.873053e-09
5	0x33513b1b	4.871536e-08
6	0x32b2cd53	2.0815298e-08
7	0x32bec6f8	2.2209392e-08
8	0x3312eec3	3.4210426e-08
9	0x3283483c	1.5283256e-08
10	0x32387a89	1.0738071e-08
11	0x32f5159c	2.853158e-08
12	0x330ebfb6	3.323631e-08
13	0x31c04d47	5.596721e-09
14	0x324afd35	1.181552e-08
15	0x3296e341	1.7565641e-08
16	0x3246dec7	1.1575771e-08
17	0x32a5756d	1.9261927e-08
18	0x32aa07ef	1.9794212e-08
19	0x328dfe49	1.6530196e-08
20	0x32ca7e6b	2.3573383e-08
21	0x3410b865	1.3478127e-07
22	0x340ecf87	1.3300279e-07
23	0x3335e4bd	4.2350383e-08
24	0x33225ff3	3.780583e-08
25	0x3366f946	5.377776e-08
26	0x33577829	5.0167873e-08
27	0x33260c36	3.8660993e-08
28	0x3353fdc4	4.9358064e-08
29	0x328d4ef0	1.6450457e-08
30	0x32969276	1.7528901e-08
31	0x32aa52b2	1.982821e-08
32	0x32ca140d	2.3525013e-08
33	0x336ace3d	5.4669943e-08
34	0x33ad9776	8.083491e-08
35	0x318ac79b	4.039021e-09
36	0x333312fe	4.169396e-08
37	0x3284c4eb	1.545637e-08
38	0x331644b7	3.4987092e-08
39	0x332e8dad	4.0641385e-08
40	0x332f00d2	4.074611e-08
41	0x329704fb	1.7580978e-08
42	0x332e8745	4.063556e-08
43	0x32e77fc0	2.6950033e-08
44	0x32b6f5a7	2.1299298e-08
45	0x32b213d1	2.0730939e-08
46	0x3393c5a2	6.88117e-08
47	0x339a7e31	7.194138e-08
48	0x33f77013	1.152222e-07
49	0x31a74db0	4.8691717e-09
50	0x332d1eb8	4.030764e-08
51	0x33633dd1	5.2908778e-08
52	0x33294468	3.9410594e-08
53	0x335a61ca	5.084602e-08
54	0x31d7f4be	6.2851475e-09
55	0x3336c0cd	4.255053e-08
56	0x3309c3e2	3.2075953e-08
57	0x3268bb23	1.3546727e-08
58	0x3370783e	5.5988714e-08
59	0x32846014	1.5410514e-08
60	0x326514e0	1.3334301e-08
61	0x325564d4	1.2421157e-08
62	0x336131ff	5.2432366e-08
63	0x339e9859	7.38516e-08
64	0x32a68574	1.938563e-08
65	0x3194f9a8	4.3357495e-09
66	0x32c871ee	2.3334874e-08
67	0x32115bb7	8.460964e-09
68	0x3124d796	2.3987687e-09
69	0x328143a4	1.5048336e-08
70	0x3114a270	2.162917e-09
71	0x3149eb6f	2.9383178e-09
72	0x320b4717	8.107029e-09
73	0x3198ac1a	4.443348e-09
74	0x3101348b	1.8801838e-09
75	0x325e5654	1.29417295e-08
76	0x321f13b0	9.2594945e-09
77	0x31b09142	5.138788e-09
78	0x32380295	1.0710797e-08
79	0x31fa8533	7.2911006e-09
80	0x31c7cb1b	5.8147527e-09
81	0x31bf6d88	5.571284e-09
82	0x31e885bc	6.7672925e-09
83	0x319e375a	4.604698e-09
84	0x31c01079	5.589808e-09
85	0x33142449	3.4491936e-08
86	0x331435f1	3.4507995e-08
87	0x323b587e	1.0904953e-08
88	0x328c95cb	1.6366263e-08
89	0x3292ab48	1.7074527e-08
90	0x327673ef	1.4345445e-08
91	0x31f9880f	7.262322e-09
92	0x327dfae6	1.4783586e-08
93	0x310c6517	2.0430144e-09
94	0x315e1eb7	3.2322711e-09
95	0x32366180	1.0615963e-08
96	0x316741ee	3.36524e-09
97	0x3244160c	1.1413714e-08
98	0x32bdd142	2.2097655e-08
99	0x31180108	2.2119497e-09
100	0x3252769f	1.225058e-08
101	0x31cf6a5f	6.036586e-09
102	0x31b316e5	5.2121885e-09
103	0x31a2b60d	4.7355173e-09
104	0x32c795fb	2.3234852e-08
105	0x3169bb46	3.4012415e-09
106	0x3219d57c	8.954313e-09
107	0x31b54310	5.2754174e-09
108	0x3232a381	1.039814e-08
109	0x320b7f4c	8.119809e-09
110	0x328a5f8e	1.6108768e-08
111	0x3285ce8b	1.5577163e-08
112	0x32fe3c23	2.9596839e-08
113	0x3132c980	2.6016949e-09
114	0x3288e800	1.5937985e-08
115	0x3251feaa	1.2223305e-08
116	0x32719dc5	1.4063919e-08
117	0x32839efa	1.5322701e-08
118	0x30cd98d1	1.4959146e-09
119	0x320a1ad4	8.038757e-09
120	0x32186c89	8.8722425e-09
121	0x3151a6f4	3.0508405e-09
122	0x320ed701	8.314374e-09
123	0x31b0925a	5.1389124e-09
124	0x316c2511	3.436359e-09
125	0x31af19e8	5.0961155e-09
126	0x3292fb50	1.711092e-08
127	0x32af18ff	2.0384048e-08
128	0x34053928	1.2407384e-07
129	0x327c8138	1.46977115e-08
130	0x326fcf5c	1.3958779e-08
131	0x31bf4390	5.5665126e-09
132	0x32eb8a50	2.7420498e-08
133	0x32b3b8a0	2.09223e-08
134	0x3286e4df	1.5703732e-08
135	0x32a261f3	1.8903824e-08
136	0x337dc1f7	5.9082563e-08
137	0x323f6717	1.1141103e-08
138	0x3230b465	1.0285565e-08
139	0x33b4712b	8.402488e-08
140	0x3387221b	6.292631e-08
141	0x32cd3870	2.3890806e-08
142	0x321c9f62	9.116635e-09
143	0x32e9fffb	2.7241176e-08
144	0x322ec460	1.01727835e-08
145	0x334ef5d6	4.81867e-08
146	0x32da25be	2.5395703e-08
147	0x32b8ae4b	2.1499678e-08
148	0x32780b08	1.4438008e-08
149	0x344302f5	1.8161866e-07
150	0x344f2b6f	1.9294178e-07
151	0x33925417	6.813951e-08
152	0x337476b5	5.691864e-08
153	0x33960714	6.986207e-08
154	0x332985db	3.947012e-08
155	0x33372bc8	4.2647827e-08
156	0x33c48a1f	9.152085e-08
157	0x320cccc8	8.195634e-09
158	0x321d4b44	9.155716e-09
159	0x331aff0c	3.6087883e-08
160	0x32cce857	2.3854382e-08
161	0x3393b98f	6.878974e-08
162	0x339b9ae5	7.245925e-08
163	0x313b9098	2.7294274e-09
164	0x3330cead	4.1166164e-08
165	0x3295bd9a	1.7432104e-08
166	0x3374213f	5.6840914e-08
167	0x32951c00	1.7358616e-08
168	0x332e7529	4.061909e-08
169	0x32c9cf4f	2.3493753e-08
170	0x331b1308	3.610606e-08
171	0x319d4298	4.576872e-09
172	0x335d1bb7	5.148078e-08
173	0x324a1ac8	1.1764037e-08
174	0x33d67f82	9.988345e-08
175	0x33c11a33	8.9920285e-08
176	0x33c4b3b9	9.1596526e-08
177	0x32652228	1.3337321e-08
178	0x3386b189	6.272155e-08
179	0x33d35033	9.840041e-08
180	0x337b4508	5.8503275e-08
181	0x33bdb626	8.834131e-08
182	0x31a14141	4.693135e-09
183	0x3231c06c	1.0346508e-08
184	0x33ac72ff	8.030292e-08
185	0x3233e0cf	1.0470287e-08
186	0x334d5d1f	4.7814975e-08
187	0x32a4f1e2	1.9202108e-08
188	0x327eac94	1.4823986e-08
189	0x31fbde23	7.3303155e-09
190	0x3354737c	4.946513e-08
191	0x33c5886d	9.198343e-08
192	0x338fd9d5	6.69858e-08
193	0x3106f1ca	1.9637008e-09
194	0x329886fe	1.7756516e-08
195	0x32676b41	1.3470356e-08
196	0x31d00780	6.0544494e-09
197	0x32d0d8b0	2.4312925e-08
198	0x3239722b	1.0794376e-08
199	0x327669d6	1.4343149e-08
200	0x32d74352	2.5059908e-08
201	0x325c42e8	1.2820898e-08
202	0x31c468c7	5.7162626e-09
203	0x32eabb78	2.7326436e-08
204	0x32ed7885	2.7645237e-08
205	0x314e906b	3.0059037e-09
206	0x321b67e2	9.045808e-09
207	0x32a01dec	1.8640058e-08
208	0x32279989	9.755589e-09
209	0x327ad9d7	1.4601446e-08
210	0x328a7bad	1.6121556e-08
211	0x327cc2d1	1.4712627e-08
212	0x32b0e09d	2.0591239e-08
213	0x34005cfe	1.195476e-07
214	0x33f6819c	1.14788435e-07
215	0x33075a28	3.1514134e-08
216	0x3308aa2b	3.1819734e-08
217	0x333a3397	4.335342e-08
218	0x33301533	4.0997474e-08
219	0x32f64618	2.8670044e-08
220	0x334686a2	4.6222915e-08
221	0x32440f9c	1.1412251e-08
222	0x328d43d2	1.6445401e-08
223	0x32d54e7a	2.483215e-08
224	0x322f438b	1.0201698e-08
225	0x3323f639	3.8175333e-08
226	0x33969c24	7.013321e-08
227	0x3133f32b	2.6186153e-09
228	0x32cc43ad	2.3779501e-08
229	0x32667435	1.3414184e-08
230	0x32ca851c	2.3576426e-08
231	0x32b6466c	2.1219613e-08
232	0x33281ae4	3.9140005e-08
233	0x32560bf5	1.2459158e-08
234	0x3318652d	3.5482277e-08
235	0x3285c418	1.5572411e-08
236	0x32809eb3	1.497333e-08
237	0x329f938e	1.8577136e-08
238	0x337267f2	5.6439553e-08
239	0x3377281a	5.754564e-08
240	0x33c15653	9.002965e-08
241	0x318c2e08	4.0797694e-09
242	0x32eb811f	2.7416318e-08
243	0x3328734b	3.9220406e-08
244	0x3310cf39	3.371608e-08
245	0x3341ee71	4.5153175e-08
246	0x31362435	2.6505067e-09
247	0x331fb516	3.718477e-08
248	0x32ee3f42	2.7735613e-08
249	0x324166ea	1.12574785e-08
250	0x332d3ae4	4.0333262e-08
251	0x3280c6e4	1.4991606e-08
252	0x3242abec	1.1331377e-08
253	0x31d0b026	6.0736225e-09
254	0x331f08a6	3.7027938e-08
255	0x3382febf	6.099935e-08

exp_avg f4 [64]
0	0x3920decb	0.00015341786
1	0x39e156aa	0.00042979914
2	0x36e36170	6.7764704e-06
3	0xb960e5d2	-0.0002144792
4	0xb8db86a5	-0.00010467813
5	0xb7054638	-7.943767e-06
6	0x393cd59e	0.00018008656
7	0xb96b8858	-0.00022462138
8	0xb97f5ff6	-0.00024354443
9	0x38a64cdc	7.929813e-05
10	0x38969062	7.179451e-05
11	0x36ad49b0	5.16438e-06
12	0x396d1a52	0.00022611886
13	0x376da698	1.4165089e-05
14	0x39757e9e	0.0002341219
15	0x396db61d	0.00022669924
16	0x38768b97	5.8780974e-05
17	0x383728a1	4.366844e-05
18	0xb9a2d2b3	-0.0003105603
19	0x394f36c5	0.00019761462
20	0x39471ca4	0.00018988788
21	0x38fbfde8	0.000120159064
22	0x379c3f52	1.8626135e-05
23	0xb92689d9	-0.00015882346
24	0x397007c8	0.00022891082
25	0xb926244e	-0.00015844518
26	0x3963f5ce	0.00021739976
27	0x37dcf472	2.6339872e-05
28	0x398e932a	0.00027193996
29	0x3739ed28	1.10820765e-05
30	0xb94afcd4	-0.00019358407
31	0xb906cbe0	-0.00012855185
32	0x393c0a15	0.00017932833
33	0xb984cd72	-0.0002533007
34	0xb91a9a40	-0.00014744047
35	0xb91d2a00	-0.00014988333
36	0xb86f4d34	-5.705394e-05
37	0x39649e01	0.00021802635
38	0x39234cbc	0.00015573477
39	0xb93a8f6c	-0.00017791771
40	0xb89eea26	-7.577641e-05
41	0x398598b0	0.00025481498
42	0xb8c03f48	-9.1670605e-05
43	0xb98463b9	-0.000252513
44	0xb8c7fbfd	-9.535996e-05
45	0xb92bcc50	-0.00016383943
46	0x38817e14	6.174683e-05
47	0x394222de	0.00018514271
48	0x38a60fac	7.918416e-05
49	0x39741166	0.00023276135
50	0x3977298e	0.00023571236
51	0xb89b2b44	-7.399035e-05
52	0xb894b90a	-7.091656e-05
53	0xb8f14dc2	-0.00011506259
54	0x35b20440	1.326327e-06
55	0xb91a8ec2	-0.00014739766
56	0xb9d6260e	-0.00040845614
57	0x395a9232	0.00020844562
58	0xb901e14b	-0.00012386327
59	0x3844d5a0	4.6928995e-05
60	0xb92ff7d0	-0.00016781618
61	0xb78db6c2	-1.6893613e-05
62	0xb8d25495	-0.00010029335
63	0x37da4864	2.6021335e-05

exp_avg_sq f4 [64]
0	0x34b84da0	3.432915e-07
1	0x33cef9e9	9.638081e-08
2	0x350514a3	4.957639e-07
3	0x34a14784	3.004062e-07
4	0x35150c4d	5.5524725e-07
5	0x33bd14f3	8.804809e-08
6	0x33892f82	6.388201e-08
7	0x346cc648	2.2051347e-07
8	0x33faa657	1.1671789e-07
9	0x350b7b4a	5.1960944e-07
10	0x34d3e7ab	3.9470373e-07
11	0x3592d574	1.0939971e-06
12	0x3641033d	2.8761126e-06
13	0x34ac8fc0	3.2142088e-07
14	0x34b4410e	3.3574946e-07
15	0x33e4204d	1.0622953e-07
16	0x328e8c90	1.6594896e-08
17	0x356e0027	8.866213e-07
18	0x35f8f705	1.8549332e-06
19	0x34a2e995	3.0344805e-07
20	0x34409225	1.793456e-07
21	0x357317eb	9.055936e-07
22	0x344acfed	1.8888359e-07
23	0x33d6acf1	9.9966094e-08
24	0x35400ad7	7.154135e-07
25	0x338ed679	6.6514026e-08
26	0x34bad396	3.479915e-07
27	0x348eb2bc	2.6579607e-07
28	0x3564aceb	8.518825e-07
29	0x33388606	4.2962732e-08
30	0x35049a9f	4.9398835e-07
31	0x35479074	7.4343484e-07
32	0x34dcf2e8	4.115493e-07
33	0x338dcc3b	6.6029735e-08
34	0x34825cc5	2.4281886e-07
35	0x35877c64	1.0094486e-06
36	0x34e5161f	4.267067e-07
37	0x347bca7a	2.3449857e-07
38	0x340a80ec	1.2899153e-07
39	0x33b4df4f	8.422523e-08
40	0x341722df	1.4075657e-07
41	0x34efc333	4.4659245e-07
42	0x35f4291d	1.8191382e-06
43	0x34026f25	1.2147628e-07
44	0x346c7383	2.2021236e-07
45	0x33d719b5	1.0016394e-07
46	0x32d7a204	2.510297e-08
47	0x335fdb4a	5.2120676e-08
48	0x32f450c4	2.8442066e-08
49	0x35fa3c0d	1.8643929e-06
50	0x33da0f5f	1.0154212e-07
51	0x34180711	1.4158674e-07
52	0x345ee62a	2.0759094e-07
53	0x349e7417	2.951426e-07
54	0x32b5e4f6	2.1175293e-08
55	0x331c878d	3.6444863e-08
56	0x35126236	5.4532154e-07
57	0x3640b24e	2.8714016e-06
58	0x344a6d9b	1.885259e-07
59	0x34e4ec1d	4.2640104e-07
60	0x34890abe	2.5526055e-07
61	0x349280be	2.7288291e-07
62	0x3465fb6a	2.1418751e-07
63	0x3510e281	5.3973787e-07

exp_avg f4 [6, 64]
0	0x38ad3fab	8.261142e-05
1	0x3a5fff0b	0.0008544779
2	0xba38ca2a	-0.0007049168
3	0x3a194c04	0.0005847814
4	0x3a19c46c	0.0005865756
5	0xba35aa6a	-0.0006929996
6	0x3a10c2c8	0.0005522189
7	0xb991b083	-0.00027788067
8	0xba750ae5	-0.0009347632
9	0x38f7f23b	0.00011822997
10	0x3a06678d	0.00051271246
11	0xb9de260e	-0.00042371493
12	0x398c55c3	0.00026766778
13	0xba23ed11	-0.0006253282
14	0xba0be615	-0.0005336714
15	0x3a1a6747	0.00058900233
16	0x3a98398c	0.001161383
17	0xb864b05c	-5.4523684e-05
18	0x3978789c	0.00023696054
19	0x3a53f0e3	0.0008084906
20	0x397c58f8	0.00024065736
21	0x381aca62	3.6904945e-05
22	0x3a159039	0.000570539
23	0xba85ed4b	-0.0010217814
24	0xb9e04621	-0.0004277686
25	0xba426428	-0.0007415437
26	0x39452762	0.00018802055
27	0x39118646	0.00013878298
28	0xba50377d	-0.0007942839
29	0x3a6fea3b	0.00091520295
30	0x39d2025c	0.0004005608
31	0x399ec66a	0.00030283938
32	0x3a2182e1	0.0006161165
33	0xba226f51	-0.0006196397
34	0x39bfd666	0.00036590098
35	0x3a3330de	0.000683559
36	0xb9ac3c0d	-0.00032851138
37	0x39bdeba8	0.00036224467
38	0x3a396291	0.00070718775
39	0xba9fc16e	-0.0012188384
40	0x3901d1b0	0.00012380513
41	0x3a36078a	0.00069438724
42	0xba2c1cca	-0.0006565569
43	0x3919d224	0.000146695
44	0x3a3f2788	0.00072919624
45	0x3980ffaa	0.00024604547
46	0x396029f6	0.00021377936
47	0xba10cb94	-0.00055234996
48	0xb985c262	-0.00025512563
49	0x39dcf610	0.00042145
50	0x39f07244	0.00045861502
51	0xb773defb	-1.4535845e-05
52	0xb90b99e7	-0.00013313406
53	0xba13c4cc	-0.000563693
54	0x3a02918d	0.0004980795
55	0x3934f4ba	0.00017257305
56	0x3977e85f	0.0002364232
57	0x39ad1aa2	0.00033016974
58	0x3998f1e2	0.00029171916
59	0xb7ea15c8	-2.7905116e-05
60	0x391e5473	0.00015099514
61	0x3a585009	0.0008251672
62	0xba4ac0fa	-0.0007734444
63	0xba5ca8bb	-0.0008417477
64	0xb944aeaa	-0.00018757084
65	0xba441b10	-0.0007480839
66	0xb9de32ab	-0.0004238089
67	0xba204424	-0.00061136694
68	0xb9ff1f43	-0.00048660682
69	0xb9a23fec	-0.00030946673
70	0x36fcd520	7.5349963e-06
71	0x39ce97d3	0.000394045
72	0xb8b1db43	-8.4808584e-05
73	0xb9902d40	-0.00027499534
74	0x3a193b5e	0.0005845333
75	0x3a252dd3	0.0006301079
76	0x39116b97	0.00013868358
77	0x39f77ba6	0.00047203636
78	0xba14e1e1	-0.00056794105
79	0x39ad7446	0.00033083762
80	0xb90d2b81	-0.00013463014
81	0x37d7ef08	2.5741305e-05
82	0x390f08d7	0.00013640836
83	0xba181d64	-0.00058027194
84	0xb9a49da0	-0.00031397957
85	0x3a366be2	0.0006958825
86	0xba0d4321	-0.0005388726
87	0xba395404	-0.0007069709
88	0x39633075	0.00021666459
89	0x39f486a4	0.00046639622
90	0xb9873d72	-0.00025794987
91	0x37ff6d93	3.0449393e-05
92	0x3a22644f	0.0006194757
93	0x39f736e4	0.00047152408
94	0xba0b095e	-0.0005303825
95	0x39d6d904	0.0004097895
96	0x3917d163	0.00014478485
97	0xb9951dea	-0.00028441782
98	0xb9c6f862	-0.00037950563
99	0x3a18aafc	0.00058238185
100	0xb9a8f7df	-0.00032228135
101	0x39bf4bdb	0.00036486876
102	0x393124d9	0.00016893762
103	0x38c73499	9.4988565e-05
104	0xb75851c0	-1.2893637e-05
105	0x382a3830	4.0583487e-05
106	0x394a5ef1	0.0001929959
107	0xb96f34f0	-0.00022812537
108	0xb896faca	-7.1992705e-05
109	0xb9a1538d	-0.00030770563
110	0x39f087f0	0.00045877649
111	0xb90af7f8	-0.00013253081
112	0x3a7ee98b	0.00097241317
113	0xb81b992a	-3.7097525e-05
114	0xb8328bc0	-4.256866e-05
115	0xb92d8eab	-0.00016551714
116	0x38ee41de	0.00011360993
117	0xba680fd7	-0.0008852458
118	0x38a5c64e	7.90475e-05
119	0x3a3a3931	0.0007103859
120	0xb8039c60	-3.137847e-05
121	0x394cce98	0.00019531918
122	0xb98622b0	-0.00025584316
123	0xb7f073a0	-2.8664072e-05
124	0x398bcce2	0.00026664796
125	0xba1183b7	-0.0005550938
126	0x39963e57	0.00028656676
127	0xb99a7dbc	-0.00029466848
128	0x394401ee	0.00018692735
129	0xb965aaf8	-0.00021902833
130	0x3a1bb127	0.00059391785
131	0xba12c5b5	-0.00055989187
132	0x39261d86	0.00015841992
133	0xba2fe6f3	-0.00067101343
134	0x3a002f02	0.0004889817
135	0x398200ce	0.00024796132
136	0xb957768c	-0.0002054816
137	0xb99412f1	-0.00028242872
138	0xb968e387	-0.00022210005
139	0xb9816172	-0.000246774
140	0x3a1d52c2	0.00060014066
141	0x383a501b	4.442046e-05
142	0x3a4dcb03	0.00078503805
143	0xb7775848	-1.4742902e-05
144	0x3a390b5b	0.0007058882
145	0x3906e76c	0.00012865447
146	0x3a788b53	0.000948121
147	0x3a36ecba	0.0006978024
148	0x39875d29	0.00025818616
149	0x3a66bbcb	0.0008801787
150	0xb8bf5594	-9.12353e-05
151	0xb9745ae4	-0.00023303513
152	0xba115d5f	-0.00055452244
153	0x3a47fe27	0.0007629119
154	0xb9d6b4ab	-0.0004095187
155	0x397a9630	0.00023897807
156	0xb9e1b142	-0.00043047412
157	0x3a24f27c	0.00062922365
158	0xba865b5d	-0.0010250617
159	0x39c4c936	0.00037533947
160	0x39aadb58	0.0003258835
161	0xba29ac75	-0.00064725365
162	0xb94ceeff	-0.00019543989
163	0x3aa0f1af	0.0012279059
164	0x3a28278a	0.0006414583
165	0x3a4e9459	0.0007880382
166	0x39b19325	0.00033869702
167	0xb8e37b4a	-0.00010847168
168	0x3a0b3510	0.0005310336
169	0x39c94253	0.00038387123
170	0x3937a064	0.0001751199
171	0xba8bda11	-0.0010669847
172	0x39b62465	0.0003474086
173	0x3a8b5a59	0.0010631784
174	0x3a120419	0.00055700686
175	0x393c5471	0.00017960534
176	0xba01dd3e	-0.0004953927
177	0x3944d8da	0.000187728
178	0x3a30064f	0.0006714807
179	0x384a6ee6	4.8263835e-05
180	0xb9ecae91	-0.0004514349
181	0xb983e10a	-0.00025153934
182	0x3a1d64dc	0.0006004104
183	0xba013635	-0.0004929037
184	0x3a68381c	0.00088584586
185	0x39e6d0df	0.0004402464
186	0xb934468a	-0.00017192416
187	0xb9a5900f	-0.00031578584
188	0xb9ffddd4	-0.00048802665
189	0x38f3602a	0.00011605055
190	0xb95f078a	-0.00021269746
191	0xb9b6d7c3	-0.000348745
192	0xb9a5068a	-0.00031476124
193	0xbaadc4ac	-0.0013257465
194	0x39e98845	0.00044542752
195	0xba678b9a	-0.0008832753
196	0x39aa40bb	0.00032473155
197	0x39a71b65	0.00031873133
198	0xb8339f22	-4.282513e-05
199	0x3a045b0d	0.0005048968
200	0x393c8c4f	0.00017981346
201	0xb90081cc	-0.00012255384
202	0x37848369	1.5796819e-05
203	0x3914fa35	0.00014207589
204	0xb8c2744b	-9.272302e-05
205	0x39b83f81	0.0003514253
206	0xb8f277a5	-0.00011561745
207	0xb8e298d3	-0.000108049855
208	0xb99c8809	-0.00029855993
209	0x3a37c55e	0.0007010306
210	0x3a15c8b7	0.0005713808
211	0x39ba8679	0.00035576875
212	0xb9e0db4c	-0.00042887998
213	0x3aa29d9e	0.0012406593
214	0xb994808b	-0.00028324532
215	0x38d9b5f8	0.00010381261
216	0x39bda05b	0.00036168363
217	0x3abdd6c0	0.0014483556
218	0xbab952ab	-0.0014139017
219	0x3a0a0a32	0.00052658014
220	0x3a5a934b	0.00083379884
221	0xb92e6c56	-0.00016634291
222	0xba2787f3	-0.00063908024
223	0xba725aea	-0.00092451146
224	0xb922d2b2	-0.00015528014
225	0xb79a8016	-1.8417875e-05
226	0xb9c6955c	-0.00037876784
227	0x3901c396	0.0001237526
228	0x39d7b6a2	0.00041144068
229	0x3a18998f	0.0005821222
230	0xb9f68686	-0.00047021004
231	0x3a38bd9b	0.00070472964
232	0x39b7b43a	0.0003503876
233	0x3991b00c	0.0002778772
234	0x39dbf2b5	0.00041951766
235	0xba068c41	-0.0005132594
236	0xb8cbdf55	-9.721393e-05
237	0xb8a33e06	-7.7839984e-05
238	0xb6b36f68	-5.347585e-06
239	0x39c7b5f6	0.0003809181
240	0x39a9c349	0.0003237969
241	0xb9976112	-0.00028873287
242	0xba048058	-0.0005054525
243	0x3a443da6	0.0007485993
244	0xba802e83	-0.0009779487
245	0x37c374e6	2.3300247e-05
246	0x3a1d9448	0.00060111703
247	0x38a6cf1a	7.9540725e-05
248	0x3a63d29f	0.0008690748
249	0xba1e259c	-0.0006032826
250	0x39551982	0.00020322765
251	0xb7f5b3c8	-2.9289993e-05
252	0xb8f52d85	-0.00011690989
253	0xb9a67631	-0.00031750047
254	0x392e7b80	0.0001663994
255	0xb9d31e58	-0.00040267664
