flare-benchmarking/2yw4y2uf/checkpoints/epoch=96.ckpt (torch_old, 101060 bytes, 36 tensors)

exp_avg f4 [6]
000000 a4 08 48 3c 0a cd e0 3b d7 23 95 3c 44 25 91 3c
       0.012209091 0.00686038 0.018205566 0.017717965
000010 d8 ff c4 3c 3a 42 6c 3c
       0.024047777 0.0144200865

exp_avg_sq f4 [6]
000000 f9 c7 1e 39 dc 79 b6 39 b3 0b 99 39 84 72 92 39
       0.0001514255 0.00034804537 0.0002919115 0.0002793261
000010 5c ed 84 39 cc 99 b0 39
       0.00025353848 0.00033683924

exp_avg f4 [64, 26]
000000 a0 5c 05 3a 00 00 00 00 d2 f9 19 bb 72 15 81 ba
       0.00050873496 0.0 -0.0023494852 -0.000984831
000010 00 00 00 00 43 a4 24 ba 00 00 00 00 42 89 45 b9
       0.0 -0.00062805804 0.0 -0.00018838517
000020 f2 8e 10 bb 7e 1e 12 bb 05 7f 22 3b c4 99 b2 3b
       -0.0022057858 -0.0022296007 0.0024794948 0.005450459
000030 b2 23 e4 ba 93 56 ae ba f0 cb 21 bb 3b 6e f6 3a
       -0.0017405658 -0.0013300948 -0.0024688207 0.0018801162
000040 56 24 1b 3a 58 17 63 ba 5c 58 3c 39 1c 81 25 39
       0.0005918195 -0.0008662841 0.00017961994 0.00015783723
000050 7e 12 9d ba c1 63 96 39 42 e9 97 b9 3f e5 05 bb
       -0.001198366 0.00028684552 -0.00028974755 -0.002043083
000060 6e ef 4f 33 3a eb e9 38 6c 52 a6 b8 00 00 00 00
       4.8413703e-08 0.0001115412 -7.930849e-05 0.0
000070 b1 84 91 3a f5 5e c0 b9 00 00 00 00 18 83 3c bb
       0.0011102167 -0.00036691842 0.0 -0.0028764661
000080 00 00 00 00 bf eb 58 ba e9 66 35 bb a2 f0 7f ba
       0.0 -0.0008274875 -0.0027679747 -0.0009763335
000090 2c 17 9f 3b ab ec a4 3b 95 59 8b bb fa ff 16 bb
       0.004855057 0.005033096 -0.0042526224 -0.0023040758
0000a0 0d f3 35 3a a7 28 03 3b 5a dd 18 ba f0 1c e1 b9
       0.00069408194 0.0020013244 -0.0005831324 -0.00042936904
0000b0 29 8b 02 3b 74 53 ad ba 7e fb 3b bb 9e 6a 26 37
       0.0019919372 -0.0013223724 -0.0028683837 9.919195e-06
0000c0 b7 b7 1a b9 68 f4 c0 39 5c e7 72 33 0f db da 38
       -0.00014755024 0.0003680319 5.6555436e-08 0.00010435853
0000d0 5e 94 4d 3b 00 00 00 00 08 0d 7b bc 49 cb 8c ba
       0.0031368951 0.0 -0.015322931 -0.0010741736
0000e0 00 00 00 00 ba 4e 64 3b 00 00 00 00 77 b1 a7 ba
       0.0 0.0034836964 0.0 -0.0012793978
0000f0 52 98 79 3a 6b ae 40 bb c5 34 27 ba 3a 1c d0 ba
       0.00095212937 -0.0029400836 -0.00063784077 -0.0015877553
000100 33 06 52 3b dc 35 a9 3b 1e 4e 5b bc c3 2e d2 ba
       0.0032047152 0.0051638912 -0.013385324 -0.0016035665
000110 74 4c ee 3a f9 c3 a6 b9 75 68 18 bb 83 43 44 3b
       0.0018180744 -0.00031807998 -0.002325562 0.0029947467
000120 e2 78 de bb 7e 86 d3 ba 11 79 d7 b9 0a 09 ff bb
       -0.0067893127 -0.0016138104 -0.00041098197 -0.00778306
000130 17 bc a9 b2 57 01 b4 b8 7c b8 0e 39 00 00 00 00
       -1.9759723e-08 -8.5833184e-05 0.00013610901 0.0
000140 d2 0c b3 ba f4 83 9f 39 00 00 00 00 d3 d1 19 3b
       -0.0013660437 0.00030425156 0.0 0.0023471012
000150 00 00 00 00 c1 a4 35 ba b9 90 8f ba 92 a4 1d bb
       0.0 -0.00069291523 -0.0010953165 -0.002405439
000160 80 ea 6b 3a c6 0d 4c ba 77 15 0a 3c aa 11 90 3b
       0.0008999482 -0.0007784035 0.008427969 0.004396637
000170 87 b1 0d bb 77 e0 86 b9 b8 fb 53 3a fb 42 8b b8
       -0.0021620707 -0.0002572571 0.000808652 -6.6405126e-05
000180 53 6c b6 39 1d b3 b5 3a 29 20 23 3a 04 d8 f2 39
       0.00034794453 0.0013862584 0.0006222749 0.0004631878
000190 f4 46 80 37 16 c6 2a 3b 2a eb d6 b2 1a e7 a0 b8
       1.529183e-05 0.002605801 -2.5019819e-08 -7.6724406e-05
0001a0 56 ec 4c ba 00 00 00 00 a1 61 59 3b 68 d5 1b 3a
       -0.0007817199 0.0 0.0033169764 0.0005944581
0001b0 00 00 00 00 e3 4a 91 3a 00 00 00 00 95 b9 3d 3a
       0.0 0.001108494 0.0 0.0007237432
0001c0 52 99 47 39 a1 39 52 3a c4 d5 d8 ba 2b 65 41 bb
       0.00019035235 0.00080194516 -0.0016543199 -0.0029509764
0001d0 59 ec 8d 3b c4 97 36 3b 5a b4 4c 3b a9 1b 94 ba
       0.0043311534 0.0027861455 0.0031235428 -0.0011299747
0001e0 44 f6 ac b9 e0 5f 81 3a d8 43 cc b9 27 a3 fe ba
       -0.0003298988 0.0009870492 -0.0003896046 -0.0019427285
0001f0 61 b1 39 3b d1 2a ef 39 f4 75 bc 38 2a 93 cf 3a
       0.0028334486 0.00045617533 8.986509e-05 0.0015836705
000200 f0 01 27 b3 57 9d bb b7 f3 9a 74 3a 00 00 00 00
       -3.888448e-08 -2.2365404e-05 0.00093309506 0.0
000210 6e b0 8d bb 2c bb 56 ba 00 00 00 00 76 d7 87 ba
       -0.0043240106 -0.0008191343 0.0 -0.0010363895
000220 00 00 00 00 da d5 cb b7 e4 a4 5b 39 0c 15 4a b9
       0.0 -2.4299068e-05 0.00020946894 -0.00019272062
000230 4a c9 f8 b9 18 71 36 3b 63 ea a3 bb aa 40 93 bb
       -0.00047452218 0.0027838405 -0.0050023063 -0.0044937925
000240 83 7a 74 bb 05 cf d0 3a 60 29 4e 3a 57 4d eb ba
       -0.0037304468 0.0015930837 0.0007864442 -0.0017952126
000250 da 54 7b ba 0e a7 5f 3b 5c db ed ba e6 72 7f b9
       -0.0009587534 0.0034126672 -0.0018147039 -0.00024361498
000260 d8 a0 80 37 bf a7 37 bb db 73 33 33 46 6d 2f 38
       1.5333688e-05 -0.0028023568 4.1782055e-08 4.182502e-05
000270 3e bf 89 bb 00 00 00 00 4c a7 a7 3c 62 46 08 3b
       -0.004203706 0.0 0.020465516 0.0020793905
000280 00 00 00 00 db aa 8e bb 00 00 00 00 e8 3f 87 3a
       0.0 -0.0043538637 0.0 0.0010318728
000290 71 dc dc ba 76 96 7d 3b 42 cd 21 3b 70 65 43 39
       -0.0016850365 0.0038694418 0.0024688994 0.00018634438
0002a0 20 a1 2f ba 2e 19 75 bb c5 8e 93 3c c0 b1 89 3a
       -0.000669973 -0.0037399041 0.018012414 0.0010505244
0002b0 46 57 45 bb 82 42 08 3b 62 1f 5d 3b f7 d7 e7 bb
       -0.0030111833 0.0020791595 0.003374063 -0.0070753056
0002c0 05 ad ea 3b 52 66 38 3b 99 0d 96 39 03 76 2e 3c
       0.007161739 0.002813716 0.0002862036 0.010648253
0002d0 d7 26 0e 32 7f 3d 06 39 bb e8 0a 3b 00 00 00 00
       8.274319e-09 0.00012802145 0.0021195847 0.0
0002e0 8e 61 fa bb ca 18 44 ba 00 00 00 00 6d c7 22 3a
       -0.007641024 -0.00074805005 0.0 0.00062095263
0002f0 00 00 00 00 79 f9 08 3a 31 de 3a 3b 4c df b2 b9
       0.0 0.00052251626 0.0028513784 -0.00034117175
000300 c4 da c6 bb 32 be 00 3b 4c fd 48 bb e0 ad b2 bb
       -0.0060685594 0.0019644615 -0.0030668555 -0.0054528564
000310 15 24 ec bb 80 2b 94 3a ed d9 a1 3a 40 35 0d bb
       -0.0072064498 0.0011304468 0.0012348272 -0.0021546632
000320 41 b2 9f b9 7b 34 a0 3b ad 25 3f bb fe d1 42 bb
       -0.00030459653 0.0048890687 -0.0029166744 -0.0029727216
000330 a2 6c 2b b9 39 6e b8 bb 8b 7c fc 32 ae 5c 9b b8
       -0.000163483 -0.005628374 2.9393297e-08 -7.408239e-05
000340 3f fc 86 ba 00 00 00 00 d1 23 be 3b 5e 6d 59 38
       -0.0010298564 0.0 0.0058026095 5.1838688e-05
000350 00 00 00 00 75 65 22 bb 00 00 00 00 05 ce 91 b8
       0.0 -0.0024779711 0.0 -6.952513e-05
000360 f3 37 17 bb 2c 8f ac b9 1c 03 59 3b 10 c1 81 3b
       -0.002307412 -0.00032913068 0.0033113426 0.0039597824
000370 1b 98 c6 ba ff 5d d7 ba 88 36 98 3b c2 0a f0 3a
       -0.0015151532 -0.0016431211 0.0046451725 0.0018313753
000380 9b 9f 4a ba ca 78 51 b9 78 2f 0b 3b c9 21 49 bb
       -0.00077294715 -0.0001997679 0.002123801 -0.0030690304
000390 d5 44 1e 3a 40 e0 e6 39 09 63 95 b8 7a b7 17 3b
       0.00060374785 0.00044036098 -7.1233204e-05 0.0023150132
0003a0 c9 ea 2b 33 fe 4d ed 38 e9 cf 66 38 00 00 00 00
       4.0027576e-08 0.00011315568 5.5029905e-05 0.0
0003b0 e2 63 94 bb 9b 45 b7 b8 00 00 00 00 eb 61 51 39
       -0.0045285085 -8.739085e-05 0.0 0.0001996827
0003c0 00 00 00 00 c3 c7 12 bb 2a fd 49 bb a9 bd 06 ba
       0.0 -0.00223969 -0.0030821064 -0.0005139956
0003d0 1d 9f 13 3c 43 3d 72 bb 74 fc 66 bb 27 36 c7 3b
       0.0090101035 -0.0036962784 -0.0035245689 0.0060794535
0003e0 26 9d 1a bb 65 48 3c 39 b9 cd 05 ba 87 ce 1a bb
       -0.0023592203 0.00017956046 -0.00051042024 -0.0023621635
0003f0 ce fc ed ba 80 42 46 3a a5 01 de ba 4f 2a 98 3b
       -0.0018157007 0.000756301 -0.0016937746 0.0046437155

exp_avg_sq f4 [64, 26]
000000 77 63 24 37 00 00 00 00 34 90 f6 38 65 47 56 35
       9.79832e-06 0.0 0.00011757054 7.9825105e-07
000010 00 00 00 00 37 da be 35 00 00 00 00 07 56 4f 38
       0.0 1.4219612e-06 0.0 4.9432765e-05
000020 45 c1 80 38 66 31 17 36 1d d9 9d 38 96 39 b0 36
       6.139515e-05 2.2529507e-06 7.526784e-05 5.2519126e-06
000030 a0 9c 5a 38 f0 f4 bd 36 19 df dc 38 3d 21 a7 36
       5.212112e-05 5.6611534e-06 0.00010531973 4.9808573e-06
000040 5e 2d 89 36 90 d4 6e 37 f2 82 09 38 bb a9 34 37
       4.0881996e-06 1.42353965e-05 3.2785298e-05 1.07683545e-05
000050 99 f3 e2 38 89 d4 ba 35 56 14 dd 35 a3 ae bf 38
       0.000108218934 1.3919936e-06 1.6471702e-06 9.140118e-05
000060 b9 c3 b1 34 39 00 58 35 a0 bd 3c 37 00 00 00 00
       3.3111226e-07 8.0466594e-07 1.1249824e-05 0.0
000070 13 b6 0b 39 2a 81 4c 35 00 00 00 00 0c 58 bd 35
       0.00013323901 7.618388e-07 0.0 1.4107222e-06
000080 00 00 00 00 f1 de 74 38 94 5d 9e 38 9a f9 f8 35
       0.0 5.8381764e-05 7.5514574e-05 1.8550083e-06
000090 ae 7a b0 38 28 c8 a1 36 5b c0 66 38 9b 5a c3 36
       8.415185e-05 4.821475e-06 5.501542e-05 5.8220007e-06
0000a0 ad f8 fc 38 65 b9 84 36 c4 c9 6e 36 28 5d 40 37
       0.00012062616 3.9554893e-06 3.5582207e-06 1.1465781e-05
0000b0 fa 0d 1a 38 6f f4 05 37 31 c7 01 39 eb 80 90 35
       3.6729478e-05 7.984329e-06 0.00012376603 1.0766356e-06
0000c0 0c 7a aa 35 15 a7 d8 38 ac 41 59 34 e1 3e 5c 35
       1.2701507e-06 0.00010330804 2.0233591e-07 8.204789e-07
0000d0 1f 6b cd 37 00 00 00 00 c7 65 9b 39 d2 c2 02 36
       2.4487787e-05 0.0 0.00029639734 1.948491e-06
0000e0 00 00 00 00 b7 1c 0b 36 00 00 00 00 b9 a1 f5 38
       0.0 2.0729328e-06 0.0 0.000117126336
0000f0 e0 7d 15 39 d9 77 f4 36 1b 3a 40 39 31 77 7b 37
       0.0001425664 7.2857188e-06 0.00018332193 1.4988517e-05
000100 30 9c 0f 39 cd c0 54 37 80 6f 8b 39 10 b1 10 37
       0.00013695727 1.2681075e-05 0.0002659522 8.624294e-06
000110 cb 57 1a 37 a1 e7 f7 37 94 94 93 38 5a 99 90 37
       9.199556e-06 2.9552555e-05 7.037181e-05 1.7237548e-05
000120 f2 b3 8e 39 cd 8d 61 36 59 25 d1 36 23 73 6c 39
       0.0002721842 3.3610152e-06 6.233033e-06 0.00022549606
000130 4a 3b 09 35 08 6b 60 35 da c4 ce 36 00 00 00 00
       5.1122754e-07 8.3602254e-07 6.162195e-06 0.0
000140 a2 8b 9f 38 09 5e 36 35 00 00 00 00 17 9e ba 35
       7.6077195e-05 6.793712e-07 0.0 1.390409e-06
000150 00 00 00 00 2a 24 ea 37 e1 34 19 38 e0 6f 1e 36
       0.0 2.7911814e-05 3.652729e-05 2.3608955e-06
000160 b2 0f 39 38 46 46 cd 36 dc e5 13 38 bb 48 cb 36
       4.4122055e-05 6.117657e-06 3.5261604e-05 6.0583384e-06
000170 b8 0c 8e 38 25 e3 a5 36 a1 c8 80 36 8c d5 61 37
       6.773457e-05 4.9438263e-06 3.8380535e-06 1.3460765e-05
000180 0e 72 92 37 24 16 06 37 61 a1 8a 38 09 cf df 35
       1.7457667e-05 7.992177e-06 6.610412e-05 1.667505e-06
000190 20 4d e2 35 90 0d 6d 38 fa 9e 93 34 82 7d 06 35
       1.6860758e-06 5.6517834e-05 2.7496554e-07 5.010153e-07
0001a0 26 23 ef 36 00 00 00 00 2d dc b0 38 29 f3 dc 34
       7.126847e-06 0.0 8.433345e-05 4.1155116e-07
0001b0 00 00 00 00 a7 6c 2d 35 00 00 00 00 1e 50 19 38
       0.0 6.460563e-07 0.0 3.6552658e-05
0001c0 3a af 3e 38 38 18 ac 35 28 07 65 38 d9 d2 48 36
       4.5462722e-05 1.2822047e-06 5.460452e-05 2.9925052e-06
0001d0 c5 9f 12 38 35 4b 86 36 5e ee 9f 38 1f 24 27 36
       3.495791e-05 4.0022665e-06 7.62611e-05 2.4905964e-06
0001e0 5b 26 18 36 5c 03 02 37 d8 3b ba 37 49 53 a9 36
       2.267209e-06 7.749386e-06 2.2200795e-05 5.046288e-06
0001f0 16 c2 a6 38 cb 22 6d 35 6c d5 9c 35 6a 29 8a 38
       7.951648e-05 8.834001e-07 1.168502e-06 6.588067e-05
000200 d1 49 26 34 72 1e ec 34 a4 f6 f2 36 00 00 00 00
       1.5486809e-07 4.3980577e-07 7.2408748e-06 0.0
000210 11 4b b2 38 c3 85 f4 34 00 00 00 00 5b d7 35 35
       8.5016836e-05 4.5545866e-07 0.0 6.774114e-07
000220 00 00 00 00 10 8d 1d 38 4d 3a 4b 38 da 08 b9 35
       0.0 3.756309e-05 4.845327e-05 1.378615e-06
000230 47 f6 6d 38 cc 21 7d 36 59 d1 19 38 3a 5f 82 36
       5.6734567e-05 3.771961e-06 3.6673013e-05 3.8853877e-06
000240 25 3b 9f 38 c5 0a 25 36 4d e8 2b 36 4a 72 02 37
       7.592727e-05 2.4593185e-06 2.5616202e-06 7.775214e-06
000250 dd 9a c0 37 d4 d7 ab 36 ae f6 ab 38 5f f5 88 35
       2.2960297e-05 5.121323e-06 8.199863e-05 1.0204202e-06
000260 ea 85 de 35 ec 62 92 38 9d 47 13 34 7a 75 bb 34
       1.6579263e-06 6.980248e-05 1.3716495e-07 3.491694e-07
000270 30 08 0b 38 00 00 00 00 9c b3 d5 39 e8 c0 39 36
       3.3147808e-05 0.0 0.00040760345 2.7679434e-06
000280 00 00 00 00 39 f7 78 36 00 00 00 00 12 00 24 39
       0.0 3.7098782e-06 0.0 0.00015640285
000290 5b b3 46 39 83 7c 26 37 e0 f9 7f 39 2b 50 b5 37
       0.00018949567 9.923361e-06 0.00024411781 2.1614213e-05
0002a0 18 b7 38 39 43 60 8b 37 53 d2 bf 39 a4 ab 99 37
       0.00017615815 1.6614917e-05 0.00036587063 1.8318948e-05
0002b0 32 94 5a 37 a8 60 45 38 5f 9c be 38 39 38 f9 37
       1.3028317e-05 4.705848e-05 9.0890324e-05 2.9709294e-05
0002c0 31 e3 bf 39 27 62 b0 36 0c 22 fa 36 80 02 9e 39
       0.0003659963 5.256635e-06 7.454544e-06 0.0003013797
0002d0 05 55 6f 35 95 a2 f4 35 16 5d ef 36 00 00 00 00
       8.915816e-07 1.8226734e-06 7.1335917e-06 0.0
0002e0 e8 f4 b3 38 d2 21 20 35 00 00 00 00 dc 7c 63 35
       8.5810025e-05 5.965386e-07 0.0 8.4745784e-07
0002f0 00 00 00 00 4d 13 07 38 0c 55 2e 38 69 72 e7 35
       0.0 3.2204483e-05 4.156404e-05 1.7244139e-06
000300 ef ba 53 38 8a cb 9d 36 c4 f9 30 38 48 7c 9d 36
       5.0480416e-05 4.7026597e-06 4.2194282e-05 4.693433e-06
000310 06 bd a0 38 5d 18 74 36 3a ce 52 36 c0 9e 2c 37
       7.664603e-05 3.6373015e-06 3.1412478e-06 1.0288961e-05
000320 1c 61 b0 37 84 52 df 36 ca 77 9f 38 c2 d0 d2 35
       2.1026055e-05 6.655524e-06 7.604023e-05 1.5706976e-06
000330 2e 07 07 36 2b f4 86 38 69 20 7b 34 df 1a 97 34
       2.0120747e-06 6.435098e-05 2.3387987e-07 2.8145493e-07
000340 68 97 22 36 00 00 00 00 e3 92 f5 37 7b 9d 96 34
       2.4228011e-06 0.0 2.9274675e-05 2.805426e-07
000350 00 00 00 00 ed 4c 2e 35 00 00 00 00 ce f4 46 37
       0.0 6.4931993e-07 0.0 1.1858718e-05
000360 4f 51 8b 37 e5 e2 64 35 b2 32 9a 37 a3 f5 24 36
       1.6607954e-05 8.5266794e-07 1.8381837e-05 2.4580884e-06
000370 36 e7 97 37 a3 8b 02 36 77 46 d8 37 70 9b 03 36
       1.8108269e-05 1.9452789e-06 2.578202e-05 1.9610998e-06
000380 a8 a7 d6 35 48 9f 95 36 f9 81 11 37 ea 15 65 36
       1.5993037e-06 4.459089e-06 8.672935e-06 3.4136415e-06
000390 bd 05 db 37 0a 70 23 35 04 65 60 35 65 10 bd 37
       2.6109507e-05 6.088527e-07 8.35935e-07 2.253819e-05
0003a0 57 fc 1a 34 2f 10 96 34 12 23 fb 37 00 00 00 00
       1.4434168e-07 2.7951452e-07 2.9937863e-05 0.0
0003b0 b0 21 ba 39 61 74 1c 36 00 00 00 00 ca f3 2a 36
       0.00035501784 2.3313553e-06 0.0 2.5473878e-06
0003c0 00 00 00 00 65 f6 10 39 4d 5c 3c 39 ee 51 e7 36
       0.0 0.00013824699 0.00017963462 6.8938743e-06
0003d0 49 e9 4e 39 c4 fc 6b 37 21 e3 1c 39 09 90 7b 37
       0.00019732596 1.4065943e-05 0.00014961931 1.4994302e-05
0003e0 58 b1 a6 39 42 26 22 37 7b af 4c 37 74 2e 0f 38
       0.0003179412 9.66486e-06 1.2200205e-05 3.413712e-05
0003f0 a4 9d ad 38 0b e5 ae 37 c6 13 a7 39 4e 31 b1 36
       8.278646e-05 2.0849073e-05 0.00031867455 5.280751e-06

exp_avg f4 [64]
000000 d3 f9 19 bb c0 84 91 3a fd 0c 7b bc bd 0c b3 ba
       -0.0023494854 0.0011102185 -0.015322921 -0.0013660413
000010 a0 61 59 3b 6f b0 8d bb 53 a7 a7 3c 72 61 fa bb
       0.0033169761 -0.004324011 0.020465529 -0.007641011
000020 c5 23 be 3b de 63 94 bb eb 5f 1f 3b 17 7e 58 39
       0.005802604 -0.0045285067 0.0024318646 0.00020646337
000030 8c 60 38 bc ce 52 85 ba 49 0b a0 ba d2 9c 1c bb
       -0.011253487 -0.0010171772 -0.0012210394 -0.0023897183
000040 b4 a0 49 bb 5c fe b4 ba 0b 30 ca bb 40 f2 ae bb
       -0.0030765953 -0.0013808715 -0.006170278 -0.005338937
000050 7b 7e 3c 3b 24 e1 c8 bb ec cc 0c bc 52 36 bd 3b
       0.0028761912 -0.0061303545 -0.008593779 0.0057742978
000060 fb 09 41 3c d2 44 72 bc da c3 ab b8 f6 1b 12 b9
       0.011782165 -0.014786916 -8.1903956e-05 -0.00013934061
000070 37 ac c1 bb aa e4 85 3b 54 ce 8e 37 30 ba 41 3c
       -0.005910422 0.004086097 1.7023798e-05 0.011824176
000080 9b cf a7 39 11 37 b6 3a ae 2f e2 ba 6a d0 5a 3b
       0.000320074 0.0013901909 -0.0017256641 0.0033388385
000090 26 fb 74 bb a4 f9 bb bb bd 7b 8c 3b 67 29 d7 3a
       -0.0037381141 -0.0057365466 0.0042872117 0.0016415537
0000a0 56 eb 9a 3b 85 e0 02 bc a4 08 8e bb c7 da 63 ba
       0.0047277613 -0.0079881 -0.004334526 -0.0008691963
0000b0 44 aa 99 3a 34 3a 76 3b ac b0 1c bb 7d 7d bc 3b
       0.0011723717 0.0037571313 -0.0023909016 0.005752264
0000c0 44 2c 13 3b 43 ca 6c b9 c8 08 61 3b 6f d8 37 bb
       0.0022456804 -0.00022582062 0.003433751 -0.0028052588
0000d0 20 ce 40 b9 9a 15 9c 3b 33 d4 c6 3b 18 6b 91 bb
       -0.00018387334 0.0047633173 0.0060677766 -0.0044378154
0000e0 a6 d7 0a bc 78 ec ce 3a d8 ae 17 3b 5d e2 29 39
       -0.008474266 0.0015787026 0.0023144986 0.00016201423
0000f0 ab 7e 88 3b 22 51 54 bb 63 bc b0 3a 6f 19 19 bc
       0.0041654906 -0.0032396992 0.0013483878 -0.009344443

exp_avg_sq f4 [64]
000000 36 90 f6 38 14 b6 0b 39 c8 65 9b 39 a2 8b 9f 38
       0.000117570555 0.00013323902 0.00029639737 7.6077195e-05
000010 28 dc b0 38 0e 4b b2 38 a2 b3 d5 39 e4 f4 b3 38
       8.433341e-05 8.5016814e-05 0.00040760363 8.5809996e-05
000020 e0 92 f5 37 b0 21 ba 39 3e a2 16 37 82 8e a0 39
       2.927467e-05 0.00035501784 8.978472e-06 0.00030623755
000030 16 d1 70 39 54 b7 54 38 72 70 36 38 7c 21 74 38
       0.00022966074 5.0715476e-05 4.3496904e-05 5.8205318e-05
000040 3b fc 47 39 e4 88 53 38 e3 15 20 39 fa 89 d5 38
       0.00019072082 5.043381e-05 0.00015266943 0.000101823316
000050 69 ea 07 39 7f d1 14 39 05 bd 6a 38 ea a8 a5 38
       0.00012961928 0.00014192423 5.5965986e-05 7.899276e-05
000060 75 d9 6f 39 8f fd ea 38 67 63 0e 39 bb 8f 22 38
       0.00022873825 0.000112052185 0.00013579206 3.875767e-05
000070 cc f9 c1 38 8a 54 a3 38 87 1c 44 37 d9 d4 d6 39
       9.2494854e-05 7.788192e-05 1.1689152e-05 0.00040975845
000080 9e d0 9d 37 af d5 ae 38 78 da 9c 38 e0 d4 0e 39
       1.8813003e-05 8.336768e-05 7.479353e-05 0.00013621477
000090 90 21 d5 38 7c e1 2b 39 90 d5 76 39 f2 30 02 38
       0.00010162883 0.0001639183 0.00023539946 3.104e-05
0000a0 01 b8 1a 38 de 84 a9 38 33 c4 dc 37 db a8 e9 38
       3.6887828e-05 8.0832964e-05 2.6317406e-05 0.000111417576
0000b0 94 45 99 38 50 34 00 39 d7 09 9c 36 11 05 03 39
       7.3085685e-05 0.00012226519 4.650308e-06 0.00012495021
0000c0 ed 26 5e 38 1f 52 1d 39 00 0d 91 37 64 8b ee 37
       5.2965177e-05 0.00015003279 1.72914e-05 2.843672e-05
0000d0 b8 b5 3c 38 16 af ea 36 56 97 e4 37 8a 63 ad 37
       4.499193e-05 6.994126e-06 2.725019e-05 2.0669559e-05
0000e0 6e 86 3e 39 a0 ab 81 38 b6 23 11 39 80 1e 93 37
       0.00018169891 6.183167e-05 0.00013841581 1.7537968e-05
0000f0 18 e0 02 39 4b 54 3e 38 eb ec 4d 38 2c 4d 73 39
       0.00012481248 4.5378034e-05 4.9096456e-05 0.00023203035

exp_avg f4 [32, 64]
000000 86 a4 ed 39 6c 07 5b ba ea 9c 6f bb 0b 0a 4e 3a
       0.00045326742 -0.0008355293 -0.0036562034 0.0007859773
000010 cf 93 f2 b8 50 70 17 3b 65 6a 82 b8 f8 a2 b2 3a
       -0.00011566991 0.0023107715 -6.2187006e-05 0.0013628891
000020 34 89 67 b9 98 41 2e 3b 50 26 54 bb 92 2b cc 3a
       -0.00022080989 0.002658939 -0.003237147 0.001557695
000030 88 be 21 3b 5c 28 c5 3a 53 0e 80 ba 22 f7 1e 3b
       0.0024680216 0.0015041935 -0.0009769894 0.002425619
000040 aa 65 2b 3b 0a 1c 46 3b 66 3e 88 3a 47 c0 f3 ba
       0.0026153126 0.0030229115 0.0010394573 -0.0018596732
000050 3a 08 f9 3a ef c8 62 3b e4 2c e4 b9 b8 06 c4 ba
       0.0018999644 0.003460463 -0.00043520995 -0.0014955616
000060 5d 1b 49 3a e1 e3 e8 38 67 a8 72 ba 4f ac 08 bb
       0.0007671619 0.00011105068 -0.0009256661 -0.0020854657
000070 fe 25 4b 3b 90 15 ff 3a a4 4d b1 b9 71 62 e3 3a
       0.0030997987 0.0019461382 -0.00033817918 0.0017348063
000080 7e 17 86 3a 14 22 99 ba 65 44 e5 39 69 95 b3 ba
       0.001023039 -0.001168313 0.00043729242 -0.0013701144
000090 e9 90 07 3a c9 a7 0b 3a fc fd 00 ba 35 30 13 bb
       0.00051714346 0.0005327431 -0.0004920659 -0.0022459154
0000a0 3e 2c d6 ba 45 3c e3 3a 26 25 9d ba 9b 8f 9c b9
       -0.001634009 0.0017336687 -0.001198922 -0.00029861633
0000b0 07 f3 e8 b9 cf b0 cd 39 59 32 2e bb 40 c7 a3 ba
       -0.00044431558 0.0003923238 -0.0026580303 -0.0012495294
0000c0 b9 e2 7c 3a cc 1d e1 39 06 7c 1a bb ca 4e b7 3a
       0.00096468214 0.00042937545 -0.002357246 0.0013985273
0000d0 e6 25 1e b9 86 55 04 3b 7e b6 0e 3b b9 35 43 bb
       -0.00015082172 0.0020192578 0.0021776254 -0.002978666
0000e0 65 af b9 3a c9 fa df b8 3b cb 0a 3b a4 57 a4 3a
       0.0014166652 -0.00010680181 0.0021178264 0.0012538326
0000f0 30 55 2c ba 2d a6 15 bb e3 19 48 ba 06 ef f0 3a
       -0.0006573973 -0.0022834644 -0.0007633252 0.0018381781
000100 c7 40 53 3a 0d fe f8 b8 bc 6f 4a ba 72 71 9d 39
       0.0008058664 -0.00011872882 -0.0007722338 0.00030029897
000110 86 b7 b8 b9 3c 46 43 b9 45 e3 00 ba 35 40 bb 39
       -0.0003523195 -0.00018622814 -0.00049166783 0.00035715257
000120 99 e8 39 b9 0f 0f a7 b8 73 c5 a5 ba b1 3d 11 3a
       -0.00017729624 -7.9659854e-05 -0.0012647345 0.0005540504
000130 09 c6 ff 39 59 ae 9e 3a ec 02 30 ba 96 bb a9 3a
       0.00048784938 0.0012106403 -0.00067143026 0.0012949582
000140 34 00 34 3a fd d7 ef b9 19 68 ba b8 ac 3f c1 b9
       0.00068664853 -0.00045746556 -8.888561e-05 -0.00036859268
000150 49 bd c3 3a 38 7d 36 3a 65 96 99 b9 9d 4f 74 37
       0.0014933731 0.0006961408 -0.00029294487 1.456207e-05
000160 02 48 4e 3a 8c 42 9a b9 5f 1e e2 b9 24 4a 9d 37
       0.00078690064 -0.0002942275 -0.00043128707 1.8750383e-05
000170 d9 44 61 3a 63 9a 18 39 0b 23 f3 b9 a2 0a 01 ba
       0.0008593328 0.00014553363 -0.0004637468 -0.0004922544
000180 62 76 c0 39 cb a9 a8 b9 4d 53 bc b9 78 3f 66 ba
       0.00036709296 -0.00032169963 -0.00035920218 -0.00087832613
000190 0c 3b f5 39 aa ca cd 39 b9 0e f4 38 ef c6 15 b9
       0.00046774035 0.00039251643 0.00011637569 -0.00014283856
0001a0 7c bf 5e ba 48 53 5b b7 34 6f 41 ba 16 e8 20 ba
       -0.00084971613 -1.3072808e-05 -0.0007378936 -0.0006138099
0001b0 59 44 97 b9 8d 4b 04 ba e6 30 55 ba 7e 1d 32 ba
       -0.00028851887 -0.00050466583 -0.00081325916 -0.0006794556
0001c0 52 21 10 b9 16 ca 5a 3a e9 5c 31 b9 78 ce 2e 3a
       -0.00013745323 0.0008346153 -0.00016914647 0.00066683395
0001d0 93 8f e1 39 6c 34 8f 3a 91 5e 3d b9 78 11 bf b9
       0.00043022315 0.0010925657 -0.00018059673 -0.00036443374
0001e0 f3 a4 e2 b8 eb 75 41 3a 45 1c a8 b7 d2 c1 0c ba
       -0.00010807244 0.0007379937 -2.0040325e-05 -0.00053694576
0001f0 3f 2e 1c ba bc 1e 9c 38 46 13 8a 39 8f 0c 36 3a
       -0.0005957819 7.4443844e-05 0.0002633577 0.00069446204
000200 9d 30 78 3a 9c c7 a3 ba 03 4b 4e 3b cd 39 3b 38
       0.0009467693 -0.0012495401 0.0031477816 4.4638105e-05
000210 d2 f8 8b ba ea 5e 8a bb 2d a3 b2 ba 91 8e 2b 3a
       -0.0010679013 -0.0042227404 -0.0013628952 0.00065443764
000220 9f 0f 03 ba 1a c3 43 bb 13 dd 0b 3b cc 79 40 ba
       -0.0004999581 -0.0029870928 0.0021341487 -0.0007342368
000230 b0 fc 1e bb 1e d3 16 ba ee e0 99 3a a0 f1 cd b9
       -0.00242595 -0.0005753505 0.0011740008 -0.00039280672
000240 21 5b 23 b9 92 4e a1 bb ce da ce 3a 91 69 44 3a
       -0.0001557884 -0.0049226964 0.0015781762 0.0007492537
000250 1f 9d 67 b6 9f e0 51 bb 65 ae 26 3a ec 6a 89 3b
       -3.451314e-06 -0.0032024754 0.0006358384 0.0041936543
000260 49 44 7c 3a e0 be 9f b7 a9 fd 9e 3a 76 81 36 3b
       0.00096232124 -1.904316e-05 0.001213004 0.002784816
000270 5d db 04 bb fe 79 f9 ba d2 88 32 bb 2a eb 4b bb
       -0.0020272352 -0.0019033549 -0.0027242196 -0.003111551
000280 54 8a c5 ba 55 7e 90 ba b5 1e 1d ba 94 07 98 39
       -0.0015071132 -0.0011023978 -0.00059936504 0.00028997345
000290 11 76 7b ba c4 58 91 b9 fd 71 88 3a ea e9 45 39
       -0.00095924834 -0.0002772269 0.0010409948 0.00018874524
0002a0 f4 5b 5a b9 e5 8b 10 ba c1 34 20 b9 39 d5 b2 ba
       -0.00020824355 -0.000551401 -0.00015278441 -0.0013643868
0002b0 ee 67 0b b9 6c 50 78 b9 16 17 69 3b 3c 6e b5 b9
       -0.0001329479 -0.00023681083 0.0035566739 -0.0003460514
0002c0 7e b3 fa b9 5e e0 a6 3a 0d 6d 21 3b d0 24 52 39
       -0.00047817448 0.0012731662 0.002463165 0.00020040874
0002d0 fd dd b0 3a 1c 3a 18 bb 7c d5 2e bb 68 8d 73 3b
       0.0013493892 -0.0023227995 -0.002667754 0.0037163142
0002e0 ec 3c 86 bb e8 b2 53 3a ad 47 f7 ba 9c db 3d bb
       -0.004096618 0.00080756703 -0.0018865966 -0.0028970009
0002f0 0e 19 27 ba f1 78 84 3b 73 b4 c1 3a de 37 0d bb
       -0.0006374278 0.0040427377 0.001477851 -0.0021548192
000300 3a 4d a2 3a ad f6 e2 3a 90 3c 37 3a ab c3 39 3a
       0.0012382634 0.0017315947 0.00069899205 0.0007086347
000310 72 dc 2c 3b 8c b5 81 3a 94 a1 84 b8 6e fe 0c bb
       0.0026376513 0.0009896024 -6.324347e-05 -0.0021513957
000320 c9 d0 3b 3b c4 9e 06 3b 16 e7 1d ba c9 75 91 ba
       0.0028658381 0.002054141 -0.0006023509 -0.0011097725
000330 25 b4 3a 3a b4 b9 54 3a 7e 0c 4d ba df cb 12 39
       0.00071221805 0.000811483 -0.0007821991 0.00013999593
000340 28 1e 62 bb b4 d4 af b9 00 f3 3e bb 82 39 59 3b
       -0.0034502838 -0.00033537077 -0.0029136539 0.003314585
000350 f0 59 3e bb bf e1 b3 39 16 67 d9 3a ad c8 68 ba
       -0.0029045306 0.00034309734 0.0016586508 -0.00088800007
000360 2f 71 1d bb a6 cd ba ba c8 d0 0d b9 44 98 bc ba
       -0.0024023762 -0.0014251962 -0.00013524585 -0.001438864
000370 a4 f5 a0 3a 7a 4b f0 ba bf 02 eb 3a fb c9 03 3b
       0.0012280238 -0.0018333041 0.0017929896 0.0020109403
000380 6d 77 81 3b 2c c8 0f 3b d7 84 35 3b b1 7d f5 3a
       0.0039510042 0.002193938 0.0027697587 0.0018729476
000390 6a 78 cd 39 e4 e7 9e ba 67 0d 21 3a a4 ad 29 3b
       0.00039190362 -0.0012123552 0.00061436597 0.0025890851
0003a0 1d b8 97 3a 8c b9 2d bb b7 bb 31 3b 43 66 e1 3a
       0.0011575256 -0.00265083 0.0027119943 0.0017196614
0003b0 44 c2 cc 3a 57 43 79 3a 85 b9 5b ba 80 82 0b 3b
       0.001562186 0.00095086306 -0.00083818316 0.00212875
0003c0 88 93 61 39 ba 9b 92 ba 97 1b 9f 3a 12 a5 1c bb
       0.00021512632 -0.0011185326 0.001213896 -0.00239021
0003d0 1a e2 0a 3a 62 15 81 ba 03 53 49 39 ba 17 2e 3a
       0.0005297974 -0.0009848292 0.00019199778 0.0006641109
0003e0 fa 06 22 3b 05 50 80 3a 81 87 75 b9 69 9b 79 3b
       0.0024723397 0.0009789473 -0.000234155 0.0038087016
0003f0 53 56 82 3a 2d 0e 76 ba f7 e9 24 bb a8 03 9a ba
       0.000994394 -0.00093862676 -0.0025163868 -0.0011750357

exp_avg_sq f4 [32, 64]
000000 99 cb c7 36 2e 11 47 37 ae c3 2d 37 9a fd 00 37
       5.954364e-06 1.1865324e-05 1.0357164e-05 7.688441e-06
000010 8e 7f 94 36 f9 bf 83 36 53 d3 73 36 94 07 fb 36
       4.425593e-06 3.926453e-06 3.6332829e-06 7.481265e-06
000020 db 3d 9b 36 c4 bb c3 36 d6 d5 75 37 46 19 24 36
       4.626561e-06 5.8333117e-06 1.46529255e-05 2.4452615e-06
000030 d9 78 f9 36 50 18 af 37 dd cf ec 37 fe 4b 9a 36
       7.434847e-06 2.0872947e-05 2.8230186e-05 4.5984043e-06
000040 fe ee 6e 37 fc e0 82 36 5d 5b 99 37 09 42 c3 36
       1.424155e-05 3.9004935e-06 1.8281566e-05 5.8191404e-06
000050 31 16 46 36 12 b6 02 37 b6 19 47 37 6b be 00 38
       2.9517216e-06 7.790995e-06 1.1867311e-05 3.069492e-05
000060 37 1b 31 36 de 75 20 36 1d 7a 14 36 1d 8e c8 37
       2.6390896e-06 2.3910466e-06 2.2124798e-06 2.3908035e-05
000070 64 d3 f4 36 d3 ad 18 37 f4 fe 89 37 49 96 0e 36
       7.2963758e-06 9.100378e-06 1.6450394e-05 2.1247126e-06
000080 61 7c 80 38 d9 a0 5c 37 25 59 86 36 8a 4a d6 36
       6.126683e-05 1.3150472e-05 4.003889e-06 6.3863745e-06
000090 57 4f 01 38 ab 16 d9 36 4c 8a 0a 36 bf 24 60 38
       3.0829888e-05 6.469743e-06 2.0644102e-06 5.3439984e-05
0000a0 76 16 60 36 07 8c f2 36 b8 6d 4b 38 ab 30 26 37
       3.3391675e-06 7.2284633e-06 4.8501155e-05 9.905702e-06
0000b0 f9 4b 4f 37 91 9e 7d 36 aa 98 bf 38 48 77 8f 36
       1.235585e-05 3.7792236e-06 9.1360256e-05 4.2756183e-06
0000c0 79 57 6f 37 74 61 7f 37 8c 67 89 38 f0 8b b4 37
       1.4265876e-05 1.52218745e-05 6.551956e-05 2.1522836e-05
0000d0 91 ff 86 37 94 87 4b 38 a7 ab 46 38 ce 9e 0e 38
       1.6093052e-05 4.852524e-05 4.7366742e-05 3.4003337e-05
0000e0 56 a7 e8 36 5f 36 f8 35 78 27 ef 37 55 52 b3 37
       6.9336193e-06 1.8493264e-06 2.85094e-05 2.1376802e-05
0000f0 d5 30 33 36 1d 91 9d 36 6d 0f 1a 37 72 5b b9 37
       2.6701503e-06 4.695858e-06 9.182707e-06 2.2096301e-05
000100 77 7e a2 35 50 d7 28 36 05 d9 ee 35 d9 af ca 35
       1.2106747e-06 2.515928e-06 1.7795543e-06 1.5101351e-06
000110 47 33 80 35 47 a8 51 35 e4 06 61 35 11 4d d5 35
       9.551667e-07 7.8103443e-07 8.382906e-07 1.5892166e-06
000120 3e 34 88 35 e9 df b1 35 c1 e8 43 36 71 31 17 35
       1.0147994e-06 1.3252694e-06 2.9192745e-06 5.632383e-07
000130 3c 1b cb 35 1d 9c 84 36 3b b4 b2 36 f7 a8 8d 35
       1.5132605e-06 3.9520805e-06 5.325795e-06 1.0554494e-06
000140 c7 be 44 36 47 a1 67 35 1f d2 84 36 82 3f b1 35
       2.9317323e-06 8.6288895e-07 3.958368e-06 1.3206011e-06
000150 1a 2f 34 35 1a fa d0 35 d3 da 1b 36 f0 f6 cc 36
       6.712377e-07 1.5569997e-06 2.3224172e-06 6.108421e-06
000160 c9 68 07 35 26 e3 1a 35 0e 5e 13 35 d1 b8 95 36
       5.04439e-07 5.7700015e-07 5.4898635e-07 4.4620615e-06
000170 6c 90 c2 35 5a 73 02 36 67 f5 74 36 bf 03 03 35
       1.4496159e-06 1.9438653e-06 3.6501676e-06 4.8806754e-07
000180 95 2b 45 37 87 70 34 36 96 31 90 35 1f 0b bb 35
       1.1752262e-05 2.688759e-06 1.0743267e-06 1.3935822e-06
000190 da d3 b2 36 dd d2 a1 35 39 9b 07 35 75 f1 28 37
       5.329476e-06 1.2056804e-06 5.05173e-07 1.0069799e-05
0001a0 33 e4 3d 35 5b da c9 35 5a b8 16 37 8e 0e f6 35
       7.074006e-07 1.5039217e-06 8.983619e-06 1.8332664e-06
0001b0 3d b0 21 36 88 56 82 35 fa 1d 91 37 48 3a 79 35
       2.4093454e-06 9.710939e-07 1.7299306e-05 9.284454e-07
0001c0 10 6d 38 36 7f c6 35 36 33 53 4d 37 3c cf 8c 36
       2.748162e-06 2.7086642e-06 1.22383235e-05 4.1964504e-06
0001d0 28 b2 59 36 16 28 20 37 13 28 18 37 91 a1 e7 36
       3.243922e-06 9.546076e-06 9.0692365e-06 6.9031453e-06
0001e0 51 2d e4 35 36 31 c9 34 d6 4a b3 36 2f f7 93 36
       1.7000513e-06 3.7474973e-07 5.3433278e-06 4.4097173e-06
0001f0 66 a2 0b 35 84 dc ac 35 63 fb f3 35 c7 06 8d 36
       5.2017856e-07 1.2879177e-06 1.8178074e-06 4.2029164e-06
000200 cd 53 42 36 bf 78 b8 36 5d 0a ae 36 1c 4f 61 36
       2.8957031e-06 5.497684e-06 5.1868105e-06 3.357366e-06
000210 2f 42 09 36 cb cd 29 36 65 1c 00 36 f1 d0 4e 36
       2.0453115e-06 2.530275e-06 1.9090014e-06 3.0818012e-06
000220 84 bf 18 36 5c 78 51 36 29 ab bf 36 ed d8 b9 35
       2.2761242e-06 3.1213485e-06 5.7121692e-06 1.3846708e-06
000230 10 21 5c 36 08 f6 f6 36 a0 56 30 37 d9 82 2c 36
       3.28018e-06 7.360013e-06 1.0510586e-05 2.570616e-06
000240 93 13 c4 36 8c 5a 3f 36 bf da 01 37 92 ca 62 36
       5.843534e-06 2.8513923e-06 7.73993e-06 3.3794536e-06
000250 da aa b2 35 a3 66 86 36 93 c2 a0 36 9b 24 44 37
       1.3311758e-06 4.0054597e-06 4.791023e-06 1.1691033e-05
000260 48 41 be 35 e5 06 91 35 f3 1d a8 35 26 30 14 37
       1.4175102e-06 1.0805348e-06 1.2525692e-06 8.832698e-06
000270 d0 ea 57 36 5b ce 87 36 80 fa ee 36 bd 24 ea 35
       3.2174175e-06 4.0473365e-06 7.1221148e-06 1.7445051e-06
000280 a8 4a be 37 68 f5 ca 36 88 dd 27 36 0c 76 73 36
       2.268453e-05 6.048638e-06 2.5013887e-06 3.6278534e-06
000290 06 47 58 37 9a 78 47 36 2d d7 b1 35 e8 8a a6 37
       1.289114e-05 2.972351e-06 1.3250152e-06 1.9853425e-05
0002a0 e5 43 cb 35 01 2f 86 36 9e d7 99 37 86 bd 8a 36
       1.5144439e-06 3.998983e-06 1.8339426e-05 4.134784e-06
0002b0 a5 53 ae 36 b1 54 2b 36 c4 32 0f 38 78 16 20 36
       5.1953416e-06 2.5530283e-06 3.4141136e-05 2.3854936e-06
0002c0 f2 40 b3 36 57 9f ea 36 3a 95 cd 37 3c 1f 03 37
       5.3421763e-06 6.992293e-06 2.4507393e-05 7.815481e-06
0002d0 a8 11 df 36 3f 42 91 37 11 e8 93 37 f7 58 5f 37
       6.6479734e-06 1.7316195e-05 1.763183e-05 1.33125495e-05
0002e0 0b b3 8e 36 9f b7 a1 35 72 e4 48 37 ee 79 12 37
       4.252773e-06 1.2048876e-06 1.1974118e-05 8.730667e-06
0002f0 13 ee c0 35 7d 94 4a 36 08 18 8c 36 11 23 13 37
       1.4374403e-06 3.0186777e-06 4.1751227e-06 8.770047e-06
000300 45 df b2 36 85 cf 35 37 2e 8b 08 37 23 13 e5 36
       5.3308054e-06 1.0836758e-05 8.138637e-06 6.8269596e-06
000310 2b 3e 92 36 87 a1 21 36 8e 71 66 36 dd af cb 36
       4.3583764e-06 2.408489e-06 3.4338768e-06 6.0703446e-06
000320 bc e9 96 36 09 09 cd 36 cd 42 42 37 b1 61 0c 36
       4.4975586e-06 6.110528e-06 1.1578854e-05 2.091849e-06
000330 84 5e b5 36 6b 19 79 37 63 a4 b2 37 e8 4e a1 36
       5.4052234e-06 1.4847475e-05 2.1295802e-05 4.80736e-06
000340 62 d5 4d 37 37 89 32 36 cb 46 7e 37 f7 23 e6 36
       1.2268634e-05 2.6603936e-06 1.5156063e-05 6.858721e-06
000350 58 24 53 36 87 af cc 36 51 3c 23 37 2f 37 c0 37
       3.1462605e-06 6.100108e-06 9.729601e-06 2.291388e-05
000360 b2 33 31 36 9e 02 0a 36 ed 1b ee 35 59 5c 91 37
       2.6405146e-06 2.0565126e-06 1.7740509e-06 1.732835e-05
000370 72 ee b5 36 5c 87 e6 36 53 a3 5a 37 54 5a f5 35
       5.421979e-06 6.870292e-06 1.3031839e-05 1.8280211e-06
000380 74 3e 51 38 60 cf 3a 37 1d 9f a9 36 67 39 dc 36
       4.9887647e-05 1.1134747e-05 5.0551157e-06 6.5631934e-06
000390 1d fb c8 37 d3 71 b8 36 7d 1a f4 35 80 e5 2e 38
       2.3958792e-05 5.496878e-06 1.8187126e-06 4.169857e-05
0003a0 7c 7f 4b 36 a2 dc c8 36 cd 51 1f 38 f6 ae ee 36
       3.0323563e-06 5.9861495e-06 3.7984737e-05 7.113321e-06
0003b0 93 a7 22 37 f4 54 8a 36 84 4d 93 38 d5 2c 93 36
       9.694969e-06 4.1226103e-06 7.0239446e-05 4.3861605e-06
0003c0 17 f1 38 37 32 d1 4c 37 bf f1 53 38 f5 a4 99 37
       1.1023388e-05 1.2208055e-05 5.0531464e-05 1.8315835e-05
0003d0 66 c5 5b 37 75 fa 10 38 2e 93 12 38 35 fe ca 37
       1.3099378e-05 3.456553e-05 3.4946184e-05 2.419865e-05
0003e0 b7 ce b3 36 85 89 d9 35 b0 ab b7 37 7e 20 98 37
       5.3586805e-06 1.6207783e-06 2.1895248e-05 1.8134942e-05
0003f0 5a bd 1d 36 e6 09 8a 36 4e fc 00 37 a1 44 88 37
       2.350504e-06 4.113873e-06 7.688139e-06 1.6244421e-05

exp_avg f4 [32]
000000 18 81 e8 3a ac 9c ad b6 b2 2e d5 bb ae d4 ca 3b
       0.0017738668 -5.174041e-06 -0.0065058107 0.006189904
000010 75 e4 18 3c d2 a5 5e bb fe 12 44 3b d0 d9 49 bb
       0.009331812 -0.0033973348 0.0029918547 -0.0030799992
000020 2f b2 19 bc 1d 61 2f bc cb df 54 3b f4 a5 d6 bb
       -0.009380861 -0.010704306 0.0032482024 -0.006550545
000030 f4 d0 b0 ba 68 2b 2f 3a 13 9f 21 3a 81 3e 09 bc
       -0.0013490007 0.0006682188 0.00061653665 -0.0083767185
000040 14 6c 31 3c dd 71 1a 3a 06 eb 97 bb 10 ac 2c ba
       0.0108289905 0.0005891601 -0.0046361713 -0.00065869186
000050 e0 36 bd bb 40 7b 9f 3b 03 f7 cd 3b 76 f3 37 3b
       -0.005774364 0.0048669875 0.0062855496 0.0028068698
000060 5e 97 6c 3b 58 98 d8 b9 8d 33 db 3b 57 3a 87 3b
       0.0036100964 -0.00041312235 0.006689495 0.0041268277
000070 d8 5f 31 3c b2 3f 67 3b 96 76 9b bb 47 8b c0 3b
       0.010826074 0.0035285768 -0.004744361 0.005875978

exp_avg_sq f4 [32]
000000 d3 7d 39 39 bd 93 0c 38 38 3f 88 38 92 16 0f 39
       0.00017689848 3.3516193e-05 6.496761e-05 0.00013645951
000010 02 a8 c2 38 b5 d7 19 39 8b 6a cf 38 f9 8c 9a 38
       9.281935e-05 0.00014671574 9.890374e-05 7.3695504e-05
000020 c0 b5 67 39 1a 65 8c 39 da ab 23 39 a2 a8 f9 38
       0.00022097584 0.00026778207 0.00015608911 0.000119046555
000030 41 f0 d0 38 c4 d3 46 38 e4 ad 9b 38 5a 1e b6 38
       9.962964e-05 4.74041e-05 7.4233656e-05 8.68409e-05
000040 a4 16 6b 38 cc 80 d7 38 26 e9 14 38 15 56 71 37
       5.604945e-05 0.00010275989 3.5503086e-05 1.4384762e-05
000050 54 83 13 39 3b a8 a2 38 9b 31 28 39 59 84 df 37
       0.00014067936 7.756097e-05 0.00016040208 2.66453e-05
000060 da 72 32 39 6b 10 ad 38 b6 79 3e 39 b3 0f cd 38
       0.00017018188 8.252341e-05 0.00018165153 9.778086e-05
000070 6d 72 0f 39 a0 45 95 38 53 6d 29 39 c3 d2 8b 38
       0.0001368017 7.117842e-05 0.00016157822 6.667294e-05

exp_avg f4 [6, 32]
000000 ad 82 9f 3b 2e f4 fc 39 65 fd 57 bc ea 11 b3 3b
       0.0048678727 0.00048247114 -0.013182973 0.005464782
000010 f7 20 0b 3a 00 ef 41 3c 9a 23 36 b9 62 b6 83 bb
       0.00053073413 0.011836767 -0.00017370135 -0.0040195445
000020 b2 79 ac bb a6 ea 33 3c ca 87 75 bb ef bc 99 3b
       -0.0052635306 0.0109812375 -0.003746497 0.004691712
000030 f1 11 0a 3c 3f 20 c3 3a 1a b6 ed 3b fd ec 6b 3b
       0.008427129 0.001488693 0.007254374 0.003599941
000040 95 be 28 39 7f 1f 3d bb 10 1b 9e bb 28 fc a7 bb
       0.00016092726 -0.0028857884 -0.0048250034 -0.005126495
000050 7f 8d 7d bc 65 03 7c bb 23 d2 85 bb 9b dc 0a 3c
       -0.01547563 -0.0038454172 -0.004083888 0.008475448
000060 18 af 84 3a 93 0b 0f 3c 50 ce 93 ba 5b 05 e1 ba
       0.0010122983 0.008730787 -0.0011276696 -0.0017167734
000070 32 ec 4b bb 81 c2 0b bb c8 b0 6a 39 1d 93 18 bc
       -0.0031116125 -0.002132565 0.00022381835 -0.009312418
000080 7b 2b 4b bb 5a b7 7f bb 43 98 ea ba e3 0a 2a 3a
       -0.0031001258 -0.0039019198 -0.0017898161 0.00064866076
000090 d5 5e a0 bb 70 d9 d6 3a 4e d4 98 bb 79 12 2f bb
       -0.0048941174 0.0016391706 -0.0046639806 -0.0026713891
0000a0 a5 c9 04 bb 48 bb cc bb 3a 29 77 3b ef f5 99 b9
       -0.002026179 -0.0062479116 0.0037713782 -0.0002936567
0000b0 a3 1c 8d bb 22 1f 82 38 c5 6e 88 3a 68 af 77 bb
       -0.0043063923 6.204682e-05 0.0010408988 -0.003779376
0000c0 02 fc 4e ba 42 74 b0 ba 61 22 84 3b 8e 81 42 3c
       -0.00078958285 -0.0013462382 0.0040324186 0.011871709
0000d0 e7 7c d5 3a ad fa 09 3b ef 18 53 b8 c0 c1 ff 3b
       0.0016287834 0.0021053955 -5.032954e-05 0.007805079
0000e0 11 bd fe b9 fb ac 03 3b b8 79 3e ba b8 16 0c ba
       -0.0004858752 0.0020092118 -0.00072660623 -0.00053439615
0000f0 03 69 4d 3b ac 12 2c bb 07 c3 fa ba 10 f4 44 bb
       0.003134311 -0.0026256246 -0.0019131609 -0.00300527
000100 b1 29 bc b9 1c f9 d2 3a f7 a3 94 3b 27 27 2f 3b
       -0.00035889217 0.0016095969 0.0045361477 0.0026726217
000110 7c b0 a2 3a 9c 6e d5 bb 9d 64 d6 ba 12 fd 26 3b
       0.0012412216 -0.00651343 -0.0016356889 0.0025480432
000120 a3 05 b6 3a 0f 42 4f bc 58 d2 06 3a 88 7f f1 ba
       0.0013887178 -0.012650027 0.0005143038 -0.0018424848
000130 a4 56 d0 bb 1b 13 8b ba 24 7a 4e 39 1a f5 5d bb
       -0.0063579846 -0.0010610552 0.00019691192 -0.0033868016
000140 c8 88 2a 3b 9b f3 ca 3b 98 7a 8a 3a 3b 9c d7 3b
       0.002602147 0.006193591 0.00105651 0.0065799034
000150 af c7 c7 3b 10 ae 8a 3b d0 80 38 bb c7 a5 10 3b
       0.006096802 0.0042321756 -0.002815295 0.0022071467
000160 c9 4c 19 ba 02 1e eb bb 49 4f 8e 3a fd dc 1f 3b
       -0.00058479287 -0.007175208 0.0010857369 0.0024393194
000170 80 d7 70 3b d8 7d a3 bb f2 d8 39 bb 80 5b d5 3b
       0.0036749542 -0.004989367 -0.002835807 0.006511152
000180 7b e1 73 ba b8 28 e9 3a 67 a0 29 3b e7 e3 70 bb
       -0.00093033136 0.0017788624 0.002588296 -0.0036756934
000190 64 d0 15 3b 23 12 27 3a 36 e4 25 ba 21 47 f1 3a
       0.0022859806 0.0006373247 -0.00063282566 0.0018408039
0001a0 08 a0 fa 3a 37 7e 8e ba 9a e0 85 3b e8 ef 4d 3b
       0.0019121179 -0.0010871355 0.0040856125 0.0031423513
0001b0 84 c5 b3 38 63 08 27 3b 08 f8 2b bb 2d 08 db 3a
       8.572175e-05 0.0025487177 -0.0026240367 0.0016710811
0001c0 1e b1 0f bb 54 73 a5 3b c2 ba 75 3b 77 21 a3 3a
       -0.0021925638 0.0050491486 0.003749535 0.0012445886
0001d0 84 9a 34 3b c5 cc 95 ba 62 bd b8 3a 12 75 06 bb
       0.0027557919 -0.0011428824 0.0014094526 -0.0020516557
0001e0 e4 90 b5 3a 8f a3 6d b9 88 9a a4 3a cd 6a ea 3a
       0.0013852385 -0.00022663012 0.0012558261 0.0017884612
0001f0 44 cb 1a 3a 44 06 b2 3b 74 85 31 3a 85 5f 57 3a
       0.0005904923 0.005432876 0.00067719 0.00082158326
000200 0f bf e5 ba 78 86 1c 3a c3 6d bb 3b d9 fa 05 bb
       -0.0017528253 0.0005970965 0.0057198717 -0.0020443706
000210 b1 8f 87 b8 eb df 22 3b 99 f4 2e bb ab fa 3b 3b
       -6.464066e-05 0.0024852704 -0.0026696085 0.0028683345
000220 09 81 27 3b 0a 44 bd 3a 44 cb ab 3a 6f 07 09 3b
       0.0025559089 0.0014439833 0.0013106843 0.0020908972
000230 b0 51 82 3b 64 1c 43 3b c7 bd 72 bb 44 86 83 3b
       0.003977023 0.002977156 -0.0037039386 0.0040138084
000240 6f 4a cb bb 54 87 1f 3b cf e1 4d 3b bf 60 a3 3b
       -0.0062039415 0.0024342136 0.003141511 0.0049858983
000250 e9 ba aa 3a 91 49 89 ba 6a e4 1a 3a 2a 89 7d ba
       0.0013025674 -0.0010474195 0.000590867 -0.0009671623
000260 e7 3d d5 b9 0d cb 1d 3a d2 12 e2 ba e8 af ac 3b
       -0.00040672647 0.00060193316 -0.001724804 0.005269993
000270 19 a8 14 bc e2 cb 52 3b 15 96 2a 3b 5f e4 ce 39
       -0.009073281 0.003216498 0.0026029397 0.00039461532
000280 cd c9 59 bb 69 8e bc ba c2 a8 ea 3a f4 40 f1 ba
       -0.0033231855 -0.0014385703 0.0017903077 -0.0018406198
000290 ba 30 cd ba d9 4f d1 3a a2 30 d2 b9 08 f4 94 3b
       -0.001565478 0.0015969231 -0.00040090556 0.0045456924
0002a0 24 81 90 ba 7f 41 b0 3b 46 ee b1 3b e5 08 b8 bb
       -0.0011024815 0.0053789015 0.0054300157 -0.0056162947
0002b0 32 b5 32 3b 6e ff c7 3b 28 86 ec bb 61 33 84 bb
       0.0027268645 0.0061034476 -0.007218141 -0.004034445
0002c0 00 d5 72 bb 17 3e ae 39 c0 78 a6 3b 14 34 35 ba
       -0.0037053227 0.00033234127 0.0050803125 -0.00069123623
0002d0 8a f3 3c bb 9e 83 7f bb ce 65 4e 3b 0b ef cd bb
       -0.0028831684 -0.0038988362 0.0031493786 -0.0062845997
0002e0 85 dc b4 bb 13 2e 39 3b e8 84 de ba f4 5e 46 bb
       -0.005519452 0.0028256222 -0.0016976865 -0.0030268999
0002f0 fa 78 90 3a 4d a1 93 3b 82 ee 47 3b b1 7a 7a bb
       0.0011022382 0.0045053125 0.0030507152 -0.0038220102

exp_avg_sq f4 [6, 32]
000000 85 85 81 37 8c bd f7 36 e0 4d 7f 37 7f 53 bc 36
       1.5440173e-05 7.38324e-06 1.5217316e-05 5.612557e-06
000010 92 0b 60 37 94 1a 5c 37 9e a3 08 37 8a 8f 47 37
       1.3354134e-05 1.311921e-05 8.144327e-06 1.1894745e-05
000020 51 f5 fc 36 89 a1 9a 37 ef 13 9a 37 6a a2 43 37
       7.538744e-06 1.8433451e-05 1.8367513e-05 1.1660721e-05
000030 51 73 94 37 4c c1 d2 37 75 f5 34 37 35 61 4c 37
       1.7696673e-05 2.5123962e-05 1.0785986e-05 1.218198e-05
000040 3c 4d cd 37 94 e9 0e 38 08 ac 9e 38 4d f6 81 39
       2.447387e-05 3.4072975e-05 7.5660704e-05 0.00024788306
000050 8a dc cb 37 a3 7c 9e 38 46 ee 9e 37 f5 27 08 39
       2.4302182e-05 7.5572425e-05 1.8946022e-05 0.00012984856
000060 3d 96 05 37 a0 4a b2 37 24 eb c0 37 87 f4 1c 38
       7.962398e-06 2.1254004e-05 2.299768e-05 3.7421032e-05
000070 8e b6 15 38 25 f2 90 37 5d 30 b0 37 eb be aa 37
       3.5694386e-05 1.7278895e-05 2.1003356e-05 2.0354482e-05
000080 15 e3 9c 37 1c 5c 3d 37 f5 73 8f 37 a4 d4 bd 36
       1.8702392e-05 1.1286724e-05 1.7100925e-05 5.6573936e-06
000090 58 64 a5 37 bf 73 5d 37 92 b1 1b 37 28 0b 9a 37
       1.9716259e-05 1.3199576e-05 9.280064e-06 1.8363426e-05
0000a0 60 22 2c 37 d0 66 00 38 4b a5 be 37 ce ed 70 37
       1.0260002e-05 3.061333e-05 2.2726736e-05 1.4360483e-05
0000b0 fb ff cb 37 a6 a2 18 38 1e 37 71 37 05 2a 82 37
       2.4318686e-05 3.6391102e-05 1.4377552e-05 1.5516775e-05
0000c0 ad 1a 0c 38 c6 5a 41 38 b5 0b 06 39 3b bf d5 39
       3.3403445e-05 4.6099325e-05 0.00012783597 0.00040769004
0000d0 ab c1 d7 37 86 76 08 39 3a d6 eb 37 95 a3 40 39
       2.5720181e-05 0.00013014124 2.811394e-05 0.00018371486
0000e0 ee a7 57 37 18 d4 05 38 ac 41 13 38 6e bb 35 38
       1.2854098e-05 3.19072e-05 3.5108693e-05 4.332832e-05
0000f0 6f 7d 3e 38 6b 32 e0 37 97 85 f0 37 64 f9 af 37
       4.541635e-05 2.6726359e-05 2.8672437e-05 2.0977757e-05
000100 99 a1 82 37 bb ad 22 37 09 c1 64 37 ef 7a 96 36
       1.5572457e-05 9.696402e-06 1.36348035e-05 4.4846597e-06
000110 bc 0d 66 37 89 fe 72 37 02 28 f3 36 cd ce 4b 37
       1.3712266e-05 1.4483588e-05 7.246622e-06 1.2147892e-05
000120 37 f8 10 37 7e a2 a3 37 2b b3 90 37 ea 08 3f 37
       8.640861e-06 1.950678e-05 1.724957e-05 1.1386563e-05
000130 ae 47 b5 37 90 9f e0 37 53 9c 3b 37 7b 86 6c 37
       2.161026e-05 2.6777183e-05 1.1182466e-05 1.4098007e-05
000140 65 dc b9 37 c1 e9 f4 37 b6 c9 a7 38 54 d0 75 39
       2.2156348e-05 2.9195917e-05 8.000752e-05 0.00023442629
000150 82 d0 ae 37 9f 7f a6 38 ca 6a 95 37 24 89 e6 38
       2.083951e-05 7.939268e-05 1.7811912e-05 0.00010992799
000160 11 42 2b 37 71 3e d2 37 66 58 d0 37 aa ac 04 38
       1.02077765e-05 2.5063027e-05 2.4836696e-05 3.163206e-05
000170 24 4f ef 37 a3 67 61 37 b4 7d b7 37 76 d5 89 37
       2.8527873e-05 1.3435175e-05 2.1873835e-05 1.6431073e-05
000180 71 16 96 37 f2 0e 1c 37 a5 58 49 37 f2 77 85 36
       1.7891844e-05 9.301804e-06 1.2001173e-05 3.9776723e-06
000190 97 f7 90 37 25 67 36 37 66 64 eb 36 5c 42 5d 37
       1.728143e-05 1.0872061e-05 7.0152337e-06 1.3188077e-05
0001a0 46 de f1 36 8b dc b3 37 2d d6 82 37 26 5b 2d 37
       7.2082357e-06 2.1441161e-05 1.5596941e-05 1.0332826e-05
0001b0 61 d0 b9 37 05 08 d7 37 33 83 20 37 cf 96 43 37
       2.2150753e-05 2.5633732e-05 9.56729e-06 1.1658019e-05
0001c0 88 3b 05 38 12 48 17 38 09 ec 01 39 ae 83 c9 39
       3.1765114e-05 3.6068326e-05 0.00012390329 0.00038435817
0001d0 77 31 9c 37 4e ff fc 38 6b 2a b3 37 14 f5 38 39
       1.8619683e-05 0.000120638506 2.1358215e-05 0.00017638906
0001e0 97 8a 02 37 e0 37 f5 37 29 02 bf 37 0a 9e 2e 38
       7.780872e-06 2.9232295e-05 2.276998e-05 4.1632018e-05
0001f0 0d cc 1d 38 bb 8b 9d 37 27 70 b7 37 60 e2 89 37
       3.7621754e-05 1.8780926e-05 2.1867525e-05 1.6437087e-05
000200 50 ed 13 38 f8 48 9f 37 26 93 00 38 f8 74 07 37
       3.5268546e-05 1.8988256e-05 3.065462e-05 8.073861e-06
000210 86 ef 0d 38 b6 27 84 37 43 22 5d 37 f9 a6 df 37
       3.3840093e-05 1.5754118e-05 1.3180604e-05 2.6661424e-05
000220 50 ed 96 37 ed e2 26 38 03 30 23 38 ef 5f 9d 37
       1.79919e-05 3.9788825e-05 3.8906943e-05 1.8760531e-05
000230 61 e4 2c 38 59 74 85 38 ce 3a bc 37 57 fc df 37
       4.122069e-05 6.363606e-05 2.243873e-05 2.6701176e-05
000240 2f a1 97 38 43 f8 a9 38 dd 2a 91 39 77 73 64 3a
       7.230264e-05 8.10479e-05 0.0002768849 0.00087147154
000250 6f c9 2b 38 f1 92 8b 39 f1 8b 3d 38 98 8b ce 39
       4.0957177e-05 0.00026621626 4.5191442e-05 0.00039395387
000260 ca cc 9f 37 b1 78 70 38 44 98 68 38 4a f9 d5 38
       1.904964e-05 5.733286e-05 5.545492e-05 0.00010203065
000270 04 7e be 38 54 bd 27 38 4f c7 61 38 8b ec 19 38
       9.083378e-05 3.999223e-05 5.38298e-05 3.669834e-05
000280 f1 28 d1 37 fa 39 65 37 37 3e 98 37 de e9 ad 36
       2.4933806e-05 1.3662962e-05 1.8148783e-05 5.1830275e-06
000290 c5 ea c6 37 30 87 a3 37 3e 4f 36 37 df 1c 9e 37
       2.3712762e-05 1.9494066e-05 1.0866495e-05 1.8848512e-05
0002a0 a5 ff 3c 37 5a 7b ee 37 8a 07 d9 37 f6 ce 98 37
       1.1265195e-05 2.8429251e-05 2.5871926e-05 1.8216186e-05
0002b0 7a 8a 0b 38 03 40 39 38 51 e7 8d 37 e8 53 ab 37
       3.326915e-05 4.4167053e-05 1.6916225e-05 2.042386e-05
0002c0 00 e6 42 38 3d ee 34 38 45 6c 41 39 39 c5 13 3a
       4.646741e-05 4.313722e-05 0.00018446248 0.00056369934
0002d0 dd cb d4 37 47 98 38 39 9f 74 09 38 1b 0f 87 39
       2.53673e-05 0.00017604335 3.2771957e-05 0.0002576046
0002e0 2c 86 6b 37 83 2e 36 38 13 82 39 38 8f 35 77 38
       1.4038331e-05 4.34355e-05 4.422858e-05 5.893927e-05
0002f0 45 19 83 38 8a 81 f8 37 dc 6e 1d 38 74 97 d3 37
       6.2512736e-05 2.9624225e-05 3.7534963e-05 2.5223686e-05

exp_avg f4 [6]
000000 10 65 0a bd bd ca 79 bb 34 f4 ad 3a f2 9c 5e 3b
       -0.033787787 -0.0038115226 0.0013271631 0.0033968058
000010 2e 21 09 bb 02 de 82 3c
       -0.0020924318 0.015975002

exp_avg_sq f4 [6]
000000 61 a5 fb 39 35 e3 23 3a 3b 5c ce 39 9f b9 1e 3a
       0.00047997668 0.0006251813 0.000393601 0.00060548814
000010 06 64 b1 3a 9d fc 6d 3a
       0.0013533838 0.0009078475
