flare/polgrad/lightning_logs/version_34/checkpoints/epoch=111.ckpt (torch_old, 152910 bytes, 36 tensors)

exp_avg f4 [6]
0.01692865 0.014831579 -0.007419373 0.01706987 0.012357213 0.005267849
00000000: f4ad 8a3c 2700 733c 361e f3bb 1dd6 8b3c
00000010: e875 4a3c ec9d ac3b

exp_avg_sq f4 [6]
0.00017591946 0.0002557726 0.0001587021 0.00017672873 0.00026148587 0.00021346743
00000000: 0577 3839 3819 8639 4569 2639 4250 3939
00000010: 0a18 8939 3ad6 5f39

exp_avg f4 [64, 26]
-0.0021359625 0.0 0.0037806497 0.00067664334 0.0 -0.0013635468 0.0 0.0021376626
0.002232586 0.00083860965 -0.0030427217 -0.00019352735 -0.00038235323 0.000459268 0.003651991 -0.0024997331
0.004927228 0.0057461495 -0.0075112814 -0.00079807907 0.00403523 0.004346074 8.434535e-05 0.0050278255
1.7273769e-28 2.1016756e-05 0.00039303355 0.0 -0.0003265095 -0.0002206025 0.0 0.00022108774
0.0 -0.00032293217 -0.0005098949 -0.00041731398 0.00022863275 0.00023792085 0.00014438613 -0.00016327044
-0.00066422793 -0.00027728305 -0.00044849253 0.00018886283 0.0011849361 -0.0005037625 -0.00085970014 -0.0007778724
-0.00015614547 -0.0005499035 -1.215319e-28 -2.9445525e-06 -0.0029849708 0.0 0.008562575 0.00035122715
0.0 -0.0012836381 0.0 0.0018139145 0.0056730774 -0.00036965954 -0.0065830816 -0.00040556391
0.0068811104 -0.00074382446 0.006668799 -0.0025287983 0.000950182 0.003494603 0.0015133647 -0.00044373248
0.004579488 -0.0031693822 3.6322563e-06 0.005295218 -6.848615e-28 9.500088e-05 -0.0018648012 0.0
0.0024911375 -0.0003706745 0.0 -0.0015031601 0.0 0.0018449518 0.0032284278 -3.448721e-05
-0.0043537025 0.00055242714 0.0038972618 -0.0004996884 0.0034483061 -0.0010207037 0.0014185352 0.000467728
-0.0042210543 0.0036727902 0.003108799 0.00093131326 -0.00056326133 0.0035433373 -2.053423e-28 -4.890267e-05
-0.001042883 0.0 0.0034290454 0.00032619303 0.0 0.0004824521 0.0 0.00073440466
0.0013401896 -0.00049330783 -0.0015486364 -0.00029054985 -0.0010843812 4.0619554e-05 0.0023911118 -0.0030132462
0.0025072894 0.004547363 -0.0018315552 1.8479714e-05 0.00251877 -0.0003011914 0.0005074928 0.0038664471
7.5204897e-28 0.00011250503 0.00018719549 0.0 -8.71925e-05 0.00051728735 0.0 -0.00029987184
0.0 6.613212e-05 -0.0011702802 0.0005426977 0.00074734114 -7.065515e-05 -0.0014184191 0.00044077015
-0.00066820753 -3.5727426e-05 0.0014357951 0.0018785377 -0.0020460733 -0.0019093 -0.000325039 0.0016822072
-0.00015777863 0.0004892578 3.6259895e-28 3.787271e-05 -0.0055634608 0.0 0.013839858 -0.0005796637
0.0 -0.0008933153 0.0 0.0039971448 0.0118266 -0.0023153136 -0.014284932 0.0012020923
0.012205382 -0.0012136039 0.012995558 -0.006157463 0.0029370706 0.005682245 -0.003442444 0.009234761
0.012539612 -0.003062495 -0.00016269054 0.014001952 5.3241524e-28 0.00013606905 -0.0012170405 0.0
0.0024150233 -7.977105e-05 0.0 0.00067538576 0.0 0.001123199 0.0016504523 -0.0012126868
-0.0023218936 0.0006312928 0.001722656 6.969636e-05 0.0023813911 -0.0036859002 0.0027986295 0.0055472227
-0.0037165969 0.00040871592 0.0034152851 0.0012685956 0.00088146084 0.0042047543 8.163873e-28 6.490648e-05
-0.00016299481 0.0 -0.0011714428 -0.00042620668 0.0 -0.0013165829 0.0 0.00012932764
0.0009793962 0.001003372 -0.00023948886 0.00016029234 0.0001383554 -0.00046434908 0.00029257554 0.0036876802
-0.0022925353 -0.006967024 0.0005184133 0.0034892517 -0.0008812687 -0.0005889188 -0.00086645246 -0.0019833997
-9.595152e-28 -0.00017609603 -0.0020033512 0.0 0.0016623349 -0.00028920668 0.0 0.0003441202
0.0 0.0019445737 0.0024960148 -0.00055227696 -0.0023830128 0.0007733877 0.001045987 -0.000116956406
0.0031153085 -0.0036651134 0.0035984127 0.0054739127 -0.0071981633 0.0014542036 0.0047501912 0.0035297447
00000000: 81fb 0bbb 0000 0000 c7c4 773b c460 313a
00000010: 0000 0000 0ab9 b2ba 0000 0000 0718 0c3b
00000020: 9450 123b 24d6 5b3a 6668 47bb 9aed 4ab9
00000030: 9576 c8b9 e8c9 f039 3e56 6f3b 90d2 23bb
00000040: 9674 a13b 324a bc3b 3221 f6bb 2e36 51ba
00000050: f639 843b 8369 8e3b 91e2 b038 75c0 a43b
00000060: 96f8 5a11 244d b037 1210 ce39 0000 0000
00000070: 5d2f abb9 8851 67b9 0000 0000 cad3 6739
00000080: 0000 0000 394f a9b9 78aa 05ba efca dab9
00000090: 23bd 6f39 647a 7939 5b66 1739 9333 2bb9
000000a0: 951f 2eba 4d60 91b9 a623 ebb9 7b09 4639
000000b0: dc4f 9b3a ee0e 04ba 805d 61ba 22ea 4bba
000000c0: fbba 23b9 6627 10ba 5b0f 1a91 079b 45b6
000000d0: 809f 43bb 0000 0000 0b4a 0c3c e924 b839
000000e0: 0000 0000 bf3f a8ba 0000 0000 dfc0 ed3a
000000f0: 39e5 b93b ddce c1b9 e4b6 d7bb dea1 d4b9
00000100: f07a e13b 37fd 42ba f185 da3b 32ba 25bb
00000110: a215 793a b605 653b 185c c63a c4a4 e8b9
00000120: 880f 963b 69b5 4fbb b0c1 7336 8283 ad3b
00000130: 910a 5992 363b c738 586c f4ba 0000 0000
00000140: 5a42 233b 1757 c2b9 0000 0000 af05 c5ba
00000150: 0000 0000 4fd2 f13a 0894 533b 5ca6 10b8
00000160: 81a9 8ebb c2d0 103a 3469 7f3b 85fd 02ba
00000170: fafc 613b 22c9 85ba 25ee b93a 6439 f539
00000180: c550 8abb 32b3 703b febc 4b3b 6023 743a
00000190: d4a7 13ba 5637 683b b126 8291 d81c 4db8
000001a0: 59b1 88ba 0000 0000 d6b9 603b e304 ab39
000001b0: 0000 0000 a0f1 fc39 0000 0000 1085 403a
000001c0: 4da9 af3a 5451 01ba 9dfb caba f154 98b9
000001d0: cc21 8eba ea5e 2a38 33b4 1c3b e279 45bb
000001e0: 5651 243b 0c02 953b cb10 f0ba e204 9b37
000001f0: f311 253b 3ae9 9db9 4409 053a 3864 7d3b
00000200: 7655 6e12 aef0 eb38 e849 4439 0000 0000
00000210: 1edb b6b8 919a 073a 0000 0000 1e38 9db9
00000220: 0000 0000 69b0 8a38 1664 99ba d343 0e3a
00000230: 37e9 433a b22c 94b8 3fea b9ba 2b17 e739
00000240: a62a 2fba 08da 15b8 4a31 bc3a 4439 f63a
00000250: 6a17 06bb 7a41 faba ff69 aab9 827d dc3a
00000260: 6171 25b9 8941 003a 0bd3 e511 83d9 1e38
00000270: b14d b6bb 0000 0000 92c0 623c 93f4 17ba
00000280: 0000 0000 602d 6aba 0000 0000 7bfa 823b
00000290: 5bc4 413c 84bc 17bb 590b 6abc 868f 9d3a
000002a0: 15f9 473c ca11 9fba 52eb 543c 8bc4 c9bb
000002b0: de7b 403b 2032 ba3b a09a 61bb 654d 173c
000002c0: f272 4d3c 24b4 48bb e997 2ab9 7168 653c
000002d0: a8ba 2812 c2ad 0e39 1a85 9fba 0000 0000
000002e0: 5e45 1e3b c24a a7b8 0000 0000 5f0c 313a
000002f0: 0000 0000 4e38 933a fd53 d83a 04f3 9eba
00000300: e92a 18bb 587d 253a beca e13a f329 9238
00000310: 1d11 1c3b 258f 71bb 3669 373b 7ac5 b53b
00000320: 2692 73bb ec48 d639 fad2 5f3b 0147 a63a
00000330: d611 673a 09c8 893b 9a5c 8112 671e 8838
00000340: 96e9 2ab9 0000 0000 198b 99ba 7e74 dfb9
00000350: 0000 0000 3191 acba 0000 0000 209c 0739
00000360: 155f 803a 9483 833a 4d1f 7bb9 2614 2839
00000370: 7f13 1139 e173 f3b9 d364 9939 02ad 713b
00000380: 5c3e 16bb a24b e4bb 21e6 073a eeab 643b
00000390: f104 67ba ac61 1aba a422 63ba edfb 01bb
000003a0: 900a 9892 6ba6 38b9 a84a 03bb 0000 0000
000003b0: b4e2 d93a aaa0 97b9 0000 0000 086b b439
000003c0: 0000 0000 11e1 fe3a 2e94 233b aec6 10ba
000003d0: 522c 1cbb 2cbd 4a3a 8019 893a 7e46 f5b8
000003e0: 342a 4c3b 6632 70bb 59d3 6b3b 825e b33b
000003f0: 92de ebbb fa9a be3a 7ea7 9b3b 4a53 673b

exp_avg_sq f4 [64, 26]
2.5581296e-05 0.0 0.00015651628 8.529768e-07 0.0 8.8673085e-07 0.0 7.830403e-06
0.00010804156 2.6133966e-06 9.3235074e-05 4.185706e-06 9.616045e-05 2.9824216e-06 0.00014782709 4.3406485e-06
6.526061e-05 1.8699515e-05 4.8187532e-05 1.2077796e-05 0.00014199752 9.934481e-06 4.834557e-06 0.00014114205
1.5120887e-07 1.9496156e-06 1.144036e-06 0.0 8.49068e-06 1.1178681e-07 0.0 1.2681404e-07
0.0 2.8718367e-07 4.3228165e-06 3.3873437e-07 3.192279e-06 3.1989677e-07 5.642241e-06 3.9793372e-07
7.759557e-06 3.787279e-07 2.5786774e-06 1.39076e-06 2.4641026e-06 1.9637125e-06 6.9875678e-06 6.990419e-07
1.5627899e-07 7.09196e-06 8.6095014e-08 5.0390224e-07 9.631901e-05 0.0 0.0005843464 2.0675518e-06
0.0 2.432269e-06 0.0 2.8261842e-05 0.00041308324 8.934133e-06 0.00034767677 1.1850421e-05
0.00038870532 1.142261e-05 0.0005609526 8.336348e-06 0.0002137828 3.242177e-05 0.00017085743 1.8118693e-05
0.00055355934 3.2695196e-05 1.9365601e-05 0.0005427478 1.1140414e-06 7.0423607e-06 1.6386395e-05 0.0
0.00010228483 8.94834e-07 0.0 8.130399e-07 0.0 5.018016e-06 7.235156e-05 2.343573e-06
6.410526e-05 3.1052393e-06 7.1216775e-05 3.4564491e-06 9.726657e-05 2.842403e-06 4.5126017e-05 1.2215757e-05
3.4713976e-05 1.0708253e-05 9.525068e-05 6.734498e-06 3.5037822e-06 9.378124e-05 3.4530987e-07 1.5681543e-06
7.34673e-06 0.0 5.1960084e-05 5.783605e-07 0.0 6.1954546e-07 0.0 2.1066076e-06
3.194836e-05 1.6094984e-06 2.4676023e-05 1.745373e-06 3.0200814e-05 1.9087129e-06 4.6755016e-05 2.1760598e-06
2.066974e-05 9.35471e-06 1.4566935e-05 8.372443e-06 4.314654e-05 4.135468e-06 2.2975853e-06 4.437144e-05
3.6224142e-07 1.5841457e-06 1.0125792e-05 0.0 6.542251e-05 4.390489e-07 0.0 3.926747e-07
0.0 3.0175463e-06 4.3788226e-05 1.2082315e-06 3.4664812e-05 1.5305543e-06 3.9138362e-05 1.6894326e-06
6.171499e-05 1.8667852e-06 2.3692097e-05 7.43051e-06 1.6592123e-05 6.165653e-06 5.895742e-05 3.748005e-06
2.1278684e-06 5.852254e-05 1.1815059e-07 7.3480123e-07 7.561539e-05 0.0 0.0004957442 2.4750034e-06
0.0 2.2278903e-06 0.0 2.1374735e-05 0.00035272428 5.348153e-06 0.00030013002 7.2807825e-06
0.00028608256 7.688993e-06 0.0004686195 8.844627e-06 0.00017562711 3.691368e-05 0.00013835293 3.3866425e-05
0.00045857366 1.9217081e-05 1.0008598e-05 0.00045460698 8.21939e-07 4.985967e-06 2.625867e-05 0.0
0.00016966766 8.318606e-07 0.0 8.0437695e-07 0.0 7.3379233e-06 0.00011901569 2.2762051e-06
9.350713e-05 3.3757499e-06 9.9945864e-05 3.3238953e-06 0.00016080128 4.015384e-06 5.834424e-05 1.65685e-05
4.5399658e-05 1.1233886e-05 0.00015603605 8.099497e-06 4.098072e-06 0.00015455995 2.2599829e-07 2.1619983e-06
2.900993e-05 0.0 0.00019811088 1.3527692e-06 0.0 1.1959668e-06 0.0 8.137631e-06
0.00013428391 3.904491e-06 0.000101911966 4.2349006e-06 0.00011429705 5.859833e-06 0.00018564035 5.354107e-06
6.781708e-05 2.313413e-05 4.596102e-05 1.7475344e-05 0.00017503381 9.7444e-06 5.49575e-06 0.00017701424
3.9923503e-07 2.476194e-06 3.152035e-05 0.0 0.00020148321 1.1001764e-06 0.0 1.0864275e-06
0.0 8.733307e-06 0.0001362702 3.0222677e-06 0.00010976841 4.155903e-06 0.00012551347 3.378597e-06
0.00019051932 4.8213224e-06 6.8786474e-05 2.1400416e-05 5.437557e-05 1.6790991e-05 0.00018349376 1.0678768e-05
00000000: 6a97 d637 0000 0000 851e 2439 1ff8 6435
00000010: 0000 0000 ae07 6e35 0000 0000 535f 0337
00000020: 5f94 e238 d061 2f36 3387 c338 f172 8c36
00000030: c0a9 c938 9d25 4836 0802 1b39 e3a5 9136
00000040: 86dc 8838 e7dc 9c37 f81c 4a38 bda1 4a37
00000050: 2be5 1439 45ac 2637 8738 a236 88ff 1339
00000060: fa5b 2234 24d6 0236 c78c 9935 0000 0000
00000070: 3173 0e37 730f f033 0000 0000 612a 0834
00000080: 0000 0000 392e 9a34 b60c 9136 4cdb b534
00000090: f03a 5636 47be ab34 7b52 bd36 98a3 d534
000000a0: 0b2f 0237 f753 cb34 570d 2d36 26aa ba35
000000b0: f65c 2536 53c8 0336 c076 ea36 cba5 3b35
000000c0: a4cd 2734 79f7 ed36 3ce3 b833 e643 0735
000000d0: e0fe c938 0000 0000 d32e 193a 45c0 0a36
000000e0: 0000 0000 103a 2336 0000 0000 d813 ed37
000000f0: 1893 d839 cfe3 1537 6348 b639 2cd1 4637
00000100: 25cb cb39 bda3 3f37 e40c 133a 58dc 0b37
00000110: e22a 6039 9cfc 0738 3128 3339 99fd 9737
00000120: bd1c 113a 3322 0938 5073 a237 3047 0e3a
00000130: 2c86 9535 6b4d ec36 8475 8937 0000 0000
00000140: c081 d638 8634 7035 0000 0000 ad3f 5a35
00000150: 0000 0000 6e60 a836 73bb 9738 4746 1d36
00000160: 4070 8638 9b63 5036 375a 9538 58f5 6736
00000170: 98fb cb38 1dc0 3e36 b145 3d38 47f2 4c37
00000180: d999 1138 99a7 3337 52c1 c738 e6f8 e136
00000190: 8522 6b36 6bac c438 0763 b934 5f79 d235
000001a0: ee83 f636 0000 0000 b7ef 5938 a240 1b35
000001b0: 0000 0000 d74e 2635 0000 0000 3e5f 0d36
000001c0: 4a00 0638 f205 d835 5bff ce37 8f42 ea35
000001d0: c157 fd37 7017 0036 d11a 4438 6c08 1236
000001e0: ee63 ad37 2cf2 1c37 8264 7437 5e77 0c37
000001f0: 3ff8 3438 66c3 8a36 3730 1a36 791b 3a38
00000200: 157a c234 d59e d435 f2e1 2937 0000 0000
00000210: 7133 8938 6cb6 eb34 0000 0000 cdd0 d234
00000220: 0000 0000 0d81 4a36 40a9 3738 852a a235
00000230: 0f65 1138 726d cd35 7f28 2438 76c0 e235
00000240: fc6c 8138 408e fa35 64be c637 9853 f936
00000250: 502f 8b37 8ee2 ce36 0c49 7738 3c86 7b36
00000260: 80cc 0e36 1976 7538 f9b9 fd33 283f 4535
00000270: b493 9e38 0000 0000 d5f4 013a 3c18 2636
00000280: 0000 0000 dd82 1536 0000 0000 e54d b337
00000290: daed b839 4974 b336 c55a 9d39 724d f436
000002a0: 5afd 9539 f9ff 0037 0bb1 f539 6263 1437
000002b0: 8b28 3839 c3d3 1a38 d512 1139 cc0b 0e38
000002c0: b76c f039 5e34 a137 9aea 2737 5158 ee39
000002d0: 38a3 5c35 214d a736 1046 dc37 0000 0000
000002e0: d1e8 3139 064d 5f35 0000 0000 5dec 5735
000002f0: 0000 0000 4838 f636 1098 f938 e8c0 1836
00000300: 4219 c438 f18a 6236 079a d138 1610 5f36
00000310: c49c 2839 e3bb 8636 a7b6 7438 95fc 8a37
00000320: 836b 3e38 2c79 3c37 9c9d 2339 13e3 0737
00000330: 2c82 8936 5f11 2239 f0a9 7234 d916 1136
00000340: 5a5a f337 0000 0000 fcbb 4f39 cc90 b535
00000350: 0000 0000 1b85 a035 0000 0000 dc86 0837
00000360: 90ce 0c39 5303 8336 92b9 d538 8519 8e36
00000370: c3b2 ef38 959f c436 74a8 4239 6ea7 b336
00000380: 0539 8e38 2a10 c237 45c6 4038 0498 9237
00000390: 4889 3739 e17b 2337 2268 b836 e69c 3939
000003a0: 7256 d634 b02c 2636 b834 0438 0000 0000
000003b0: 3d45 5339 c6a9 9335 0000 0000 5dd1 9135
000003c0: 0000 0000 4585 1237 c1e3 0e39 2ad2 4a36
000003d0: 7733 e638 ef72 8b36 449c 0339 dbbb 6236
000003e0: 24c6 4739 d8c6 a136 7541 9038 0b85 b337
000003f0: 5311 6438 61da 8c37 3b68 4039 f628 3337

exp_avg f4 [64]
0.003780653 -0.00032651008 0.008562574 0.0024911398 0.0034290443 -8.7192966e-05 0.01383986 0.002415014
-0.0011714419 0.0016623291 0.0072401315 0.00092648726 0.0055634542 0.005988853 -0.000870014 -0.0020607822
0.0028728894 -0.0006322035 0.001098651 0.0015108122 -0.005125242 -0.00053866755 0.0038415415 -0.0062280293
0.0051828288 -0.006016403 -0.00214825 -0.00096971734 0.010106506 0.001541205 -0.0041611097 0.00275303
0.0026402683 -0.0005707735 -0.002221028 0.0035261298 -0.0056224433 -0.009878059 0.001965558 0.0049777995
0.0005034369 0.00416729 0.00086334744 -0.006639245 0.0024080276 9.1810856e-05 -0.0058001596 -0.0006419695
0.0035275894 0.003316583 0.0013309582 -0.0009939672 -0.010609438 0.0027626278 -0.002331512 0.005989614
-0.011729506 0.0029352643 -0.0051475796 -0.0030292536 0.004928793 -0.0029625613 -0.006311779 0.0046355864
00000000: d5c4 773b 712f abb9 0a4a 0c3c 6442 233b
00000010: d1b9 603b 5edb b6b8 95c0 623c 3645 1e3b
00000020: 118b 99ba 82e2 d93a a03e ed3b 82df 723a
00000030: a34d b63b 243e c43b a711 64ba 300e 07bb
00000040: 1647 3c3b 75ba 25ba 9c00 903a 7206 c63a
00000050: a5f1 a7bb 5e35 0dba 5fc2 7b3b 7f14 ccbb
00000060: b8d4 a93b 3f25 c5bb a7c9 0cbb a134 7eba
00000070: c295 253c 4202 ca3a eb59 88bb 2e6c 343b
00000080: 5a08 2d3b f69f 15ba ab8e 11bb a416 673b
00000090: 793c b8bb 95d7 21bc 97d0 003b cf1c a33b
000000a0: 14f9 033a c38d 883b 4452 623a 068e d9bb
000000b0: 00d0 1d3b 948a c038 440f bebb d849 28ba
000000c0: 212f 673b 085b 593b 8c73 ae3a 0148 82ba
000000d0: 35d3 2dbc 340d 353b 48cc 18bb 8644 c43b
000000e0: 1d2d 40bc 905d 403b 07ad a8bb 7186 46bb
000000f0: b681 a13b 8827 42bb 0ad3 cebb 1ee6 973b

exp_avg_sq f4 [64]
0.00015651625 8.49068e-06 0.0005843465 0.00010228481 5.196007e-05 6.542253e-05 0.0004957442 0.00016966766
0.00019811101 0.0002014832 0.000492379 6.129166e-05 0.00033480034 0.00016847669 0.00011817775 0.00088856154
5.1837917e-05 9.7769145e-05 1.3436437e-05 3.9181577e-05 0.00036014654 0.00017897846 3.440068e-05 0.00011743214
0.0004879448 0.000674995 4.841418e-05 2.1769247e-05 0.00067085016 0.00017874343 0.00010479274 4.7254885e-05
9.210572e-05 0.0006512582 0.0008513164 5.4475076e-05 0.00021225847 0.00026206626 0.00016648728 0.0005118954
5.3610802e-05 4.179199e-05 0.00013919658 7.109767e-05 0.00037197734 8.959637e-05 4.9967588e-05 0.0003333098
0.0001255023 0.00048497037 2.29109e-05 0.00018861181 0.0004583052 0.000115739764 0.000800087 0.00032980295
0.0005340231 0.00012977241 0.00069487275 0.00013046969 6.844425e-05 0.00029022957 0.000117544274 7.5483214e-05
00000000: 831e 2439 3173 0e37 d42e 193a bd81 d638
00000010: b3ef 5938 7433 8938 d5f4 013a d1e8 3139
00000020: 05bc 4f39 3c45 5339 ff12 013a b689 8038
00000030: 2488 af39 1ea9 3039 32d6 f738 5bee 683a
00000040: 8a6c 5938 6909 cd38 0f6d 6137 e656 2438
00000050: 0dd2 bc39 2aac 3b39 7349 1038 e645 f638
00000060: d8d2 ff39 26f2 303a 5410 4b38 1a9d b637
00000070: fedb 2f3a 136d 3b39 2dc4 db38 8c33 4638
00000080: e228 c138 33b9 2a3a e02a 5f3a 2b7c 6438
00000090: b391 5e39 f065 8939 1793 2e39 b830 063a
000000a0: 29dc 6038 cf49 2f38 4cf5 1139 451a 9538
000000b0: f405 c339 afe5 bb38 4a94 5138 16c0 ae39
000000c0: 4499 0339 9f43 fe39 c830 c037 19c6 4539
000000d0: af48 f039 50b9 f238 eebc 513a 67e9 ac39
000000e0: affd 0b3a 8413 0839 1f28 363a b1ce 0839
000000f0: ba89 8f38 f429 9839 1a82 f638 be4c 9e38

exp_avg f4 [64, 64]
0.00014848265 0.0011009098 -0.0011304731 -0.0007791982 0.0011644914 -0.0006109736 -0.0011428737 -0.0006192843
-0.0007295166 4.1207415e-05 -0.0009035404 0.001569316 -0.0010487596 0.0011741881 0.00096545706 0.00032956724
0.00020385184 -0.0003242911 -0.0009844826 -0.001355791 -0.0011573281 -0.00054869964 0.00022877962 -0.0004212052
-0.0005098193 8.817681e-05 0.002053005 0.00043185402 0.0012052469 -0.0012246936 9.4414456e-05 0.00040412246
0.00029692007 4.7602738e-05 0.00020378346 -0.0019771326 0.0004328324 -0.0005733151 -0.002456897 -0.0006179623
0.0017014053 0.00045376274 -5.296756e-05 0.0014622054 -0.00036973052 0.00012776251 -0.00018323323 -0.0004052355
0.0006967499 -0.00024319303 0.000822044 0.00063048326 1.4391385e-05 -0.00014350557 -0.00030563457 -0.00045833955
-0.00024791207 -0.00050909736 -6.351809e-05 -3.3270568e-05 -0.0018186332 0.0006081265 -0.0001696588 0.00045865023
0.0011370872 -0.0013917175 -0.0012747957 -0.00060634967 0.004338607 -0.00063367153 -0.00073669665 -0.00012764266
-0.00025425924 -0.00091182854 -0.0025102803 1.0777927e-05 -0.0017740589 0.0023031645 0.0007188424 -0.0009671836
-9.448232e-05 0.0014146883 0.00022894029 6.177358e-05 -0.0027299682 -0.0008883921 0.0018797307 -0.001065484
-0.0006670319 -0.0004945652 0.0037303423 0.0010007026 0.0025822902 -0.0027491867 -0.0018817435 0.0018896018
-0.0008044041 0.00026518418 0.001514167 -0.0022776453 6.6865578e-06 -0.0010020409 -0.0036867617 -4.590852e-05
0.004135121 0.0025116836 -0.00037410893 0.0019881777 0.00082520203 0.00041829154 0.0013193248 0.00060484256
0.001994915 0.0012635316 -0.0008678969 -0.0008596418 0.0003954578 0.00026504762 -0.0005826601 0.0003756357
-0.00052224606 -0.0024576057 -0.0010543928 0.0021991804 -0.0017733781 0.0010655319 0.0006123485 0.002470916
-0.00021141727 0.0044739833 0.0016628578 0.00043957183 -0.004044879 -0.0009854557 0.00094630045 0.0006513798
-0.00014289157 0.00038388773 0.00054167566 0.0030824759 0.0028730333 -0.001802132 -0.0004732036 0.0004967693
0.0014725942 -0.0005937305 -0.003548257 -0.004395442 0.0033779782 -0.00028220098 -0.0013042497 -0.0020514622
-0.0023033903 -0.0005815101 0.0006249637 -0.0018598468 -0.00061630865 -0.0007722896 0.0021633501 -2.2995198e-05
0.0004847549 0.0011607406 -4.2380052e-05 -0.002854523 -0.000531567 0.000113644055 0.00073772215 0.0003933148
-0.0033707093 -0.0040689143 0.0012335163 0.0014819922 -0.0027842582 -0.0012060667 -0.00092373416 -0.0004759943
-0.00032662752 0.0016581009 0.0018436762 0.0023127005 -0.0011831769 -0.0024161043 0.000980021 0.000500327
0.0005535619 0.0018807073 -0.002244315 -0.0008616133 3.3864606e-05 -0.00064265914 -0.00015796672 0.00046041698
-0.00038286237 -0.0030349027 0.00092220807 8.573673e-05 -0.00017577357 0.0011287301 0.0014887259 4.1283245e-05
0.00074247236 -1.3553625e-05 0.0013869026 -0.003276254 0.0008046321 -0.0013737639 -0.0014469407 -0.00023256178
-0.00066325633 -0.00011479252 0.0021622935 0.0031268059 0.00054265506 0.0009070522 0.00011996197 0.00085675286
0.00081302854 -6.98944e-05 -0.0036744485 -2.7926057e-05 -0.0008532654 0.0023770845 0.00063100556 -0.0009264773
-0.0005769328 -6.124421e-05 -0.0010229575 0.0037445293 -0.00068396854 0.0005283025 0.00350586 -0.0001573665
-0.0012144506 0.0009927172 -0.00029005855 -0.0028480515 0.00064605323 6.483046e-05 0.00031628046 0.00040749327
-0.00047823702 -0.00029740483 -0.0020455858 -0.0005626453 0.00054314005 0.00023248454 -8.243765e-05 -0.00063456746
0.00044363673 -0.0004624763 0.0016436768 0.00034598485 0.002515022 -0.00030083096 0.00038492048 -0.0010079889
00000000: 02b2 1b39 674c 903a 622c 94ba 1b43 4cba
00000010: d9a1 983a bf29 20ba 7acc 95ba 7757 22ba
00000020: 083d 3fba 20d6 2c38 92db 6cba 82b1 cd3a
00000030: 8876 89ba 37e7 993a ba16 7d3a c4c9 ac39
00000040: 10c1 5539 9d05 aab9 c109 81ba ccb4 b1ba
00000050: 7db1 97ba 9cd6 0fba 90e4 6f39 34d5 dcb9
00000060: 65a5 05ba 90eb b838 b58b 063b 776a e239
00000070: 60f9 9d3a e685 a0ba 6000 c638 66e0 d339
00000080: f0ab 9b39 0da9 4738 b5ae 5539 c892 01bb
00000090: c8ed e239 864a 16ba e403 21bb bffe 21ba
000000a0: b001 df3a 01e7 ed39 7c29 5eb8 79a7 bf3a
000000b0: 64d8 c1b9 fdf7 0539 4c22 40b9 ca75 d4b9
000000c0: 18a6 363a a201 7fb9 707e 573a 0447 253a
000000d0: 8772 7137 fc79 16b9 943d a0b9 4b4d f0b9
000000e0: 32fa 81b9 f274 05ba 0435 85b8 008c 0bb8
000000f0: 345f eeba ae6a 1f3a 70e6 31b9 fe76 f039
00000100: 510a 953a 4a6a b6ba 0c17 a7ba 70f3 1eba
00000110: e02a 8e3b fa1c 26ba e01e 41ba d1d7 05b9
00000120: 194e 85b9 c707 6fba 8483 24bb d8d2 3437
00000130: 8a87 e8ba b0f0 163b b270 3c3a 988a 7dba
00000140: cf24 c6b8 106d b93a b10f 7039 708c 8138
00000150: 44e9 32bb fce2 68ba 4c61 f63a b6a7 8bba
00000160: c1db 2eba b5a5 01ba c278 743b 022a 833a
00000170: a43b 293b b32b 34bb d6a4 f6ba 84ac f73a
00000180: a5de 52ba 6b08 8b39 0377 c63a 8c44 15bb
00000190: 185d e036 ea56 83ba 999d 71bb e68d 40b8
000001a0: e97f 873b 0f9b 243b 0d24 c4b9 164c 023b
000001b0: 5f52 583a 244e db39 32ed ac3a 4c8e 1e3a
000001c0: 1fbd 023b 169d a53a 9383 63ba 9659 61ba
000001d0: 7355 cf39 17f6 8a39 a8bd 18ba f8f0 c439
000001e0: 57e7 08ba c80f 21bb 8d33 8aba 2020 103b
000001f0: b270 e8ba 51a9 8b3a 0386 203a 17ef 213b
00000200: e4af 5db9 7e9a 923b 40f4 d93a 5576 e639
00000210: e88a 84bb 682a 81ba 2611 783a 5cc1 2a3a
00000220: 2ad5 15b9 8a44 c939 3dff 0d3a 5d03 4a3b
00000230: 8049 3c3b 8435 ecba 5018 f8b9 a039 023a
00000240: 1004 c13a 94a4 1bba e089 68bb a407 90bb
00000250: 1261 5d3b 60f4 93b9 5cf3 aaba d371 06bb
00000260: 7af4 16bb 7b70 18ba 9bd4 233a 1ac6 f3ba
00000270: c68f 21ba 7a73 4aba fec6 0d3b d0e5 c0b7
00000280: b426 fe39 fe23 983a 3cc1 31b8 f312 3bbb
00000290: dc58 0bba 3054 ee38 b263 413a d235 ce39
000002a0: 1ee7 5cbb 8754 85bb f0ad a13a 683f c23a
000002b0: 1a78 36bb e214 9eba c026 72ba e08e f9b9
000002c0: 343f abb9 a254 d93a 82a7 f13a ad90 173b
000002d0: d414 9bba 8157 1ebb 0c74 803a 6028 033a
000002e0: e91c 113a 1182 f63a 5c15 13bb e4dd 61ba
000002f0: d809 0e38 2078 28ba dea3 25b9 1f64 f139
00000300: ebba c8b9 38e5 46bb 56c0 713a 8ecd b338
00000310: dc4f 38b9 e6f1 933a 5a21 c33a 8c27 2d38
00000320: 7aa2 423a 6064 63b7 bbc8 b53a 6cb6 56bb
00000330: f2ed 523a de0f b4ba 46a7 bdba d4db 73b9
00000340: 61de 2dba c4bc f0b8 44b5 0d3b 19eb 4c3b
00000350: f740 0e3a 3ec7 6d3a 1894 fb38 b697 603a
00000360: 6c21 553a 4594 92b8 04cf 70bb c042 eab7
00000370: acad 5fba dcc8 1b3b 116a 253a d7de 72ba
00000380: 4e3d 17ba 3c70 80b8 c214 86ba c766 753b
00000390: 5a4c 33ba c87d 0a3a 92c2 653b c002 25b9
000003a0: 332e 9fba 101e 823a 0013 98b9 60a6 3abb
000003b0: e65b 293a 97f5 8738 72d2 a539 d2a4 d539
000003c0: e3bb fab9 00ed 9bb9 3c0f 06bb 7d7e 13ba
000003d0: 8361 0e3a 18c7 7339 60e2 acb8 1a59 26ba
000003e0: ea97 e839 8578 f2b9 a470 d73a 4d65 b539
000003f0: 11d3 243b d9b8 9db9 27cf c939 7f1e 84ba

exp_avg_sq f4 [64, 64]
8.976612e-06 4.784135e-05 5.513426e-06 2.0545385e-06 2.6068868e-05 7.462654e-06 2.1352735e-06 3.6459066e-06
1.8220794e-06 2.9526148e-06 5.6223994e-06 2.434067e-05 8.827271e-06 2.3006953e-06 3.165853e-06 8.7396296e-07
3.0307542e-06 4.6483983e-06 2.4962177e-05 2.1359161e-05 6.755652e-06 2.9658647e-06 5.87013e-06 3.7359894e-06
2.207024e-06 1.0610077e-06 4.5840957e-06 3.587559e-06 2.9049995e-06 2.2390395e-06 1.4903449e-05 7.988946e-06
3.0674034e-06 1.9699723e-06 1.2064304e-06 1.093731e-05 5.614628e-06 2.3738505e-06 3.0461297e-06 9.974234e-07
2.0934516e-05 2.6016323e-05 6.5785916e-06 2.7111635e-06 5.4632637e-06 2.0601856e-06 8.079809e-06 2.3691837e-06
9.691212e-07 1.7153146e-06 1.4970145e-05 5.4287098e-06 1.2716856e-06 1.3930633e-05 2.5844604e-06 1.4431556e-06
1.741532e-06 1.39342765e-05 2.1339006e-06 9.985978e-06 5.804627e-06 3.7406162e-06 7.200074e-06 9.4177085e-06
9.259307e-06 5.7188456e-05 7.2122803e-06 2.5973427e-06 3.102005e-05 9.678229e-06 3.5973376e-06 4.3548944e-06
2.0850048e-06 3.2089474e-06 5.446479e-06 2.9461762e-05 1.10044575e-05 3.4955426e-06 3.6654324e-06 1.3024719e-06
4.1118824e-06 5.666249e-06 3.139922e-05 2.6284562e-05 8.244975e-06 3.4140844e-06 7.718003e-06 5.3984313e-06
3.1793888e-06 1.3399969e-06 6.3865627e-06 3.0850756e-06 3.7468853e-06 2.9474932e-06 1.8458495e-05 1.0064759e-05
3.582683e-06 2.3290033e-06 1.7320535e-06 1.3181296e-05 5.8473743e-06 3.2752805e-06 4.0771492e-06 1.202958e-06
2.5718233e-05 3.276745e-05 8.205185e-06 3.32251e-06 7.0951514e-06 2.7112808e-06 9.013142e-06 2.875563e-06
1.2355887e-06 2.4354672e-06 1.8914297e-05 7.317892e-06 1.5729635e-06 1.8794208e-05 3.0460665e-06 1.5989193e-06
2.2945628e-06 1.6148755e-05 2.385607e-06 1.0083764e-05 7.606528e-06 5.078001e-06 7.652073e-06 1.0818818e-05
1.3977068e-05 9.838292e-05 9.011992e-06 3.6818185e-06 5.2268213e-05 1.5613527e-05 4.5532142e-06 6.5363843e-06
2.609441e-06 5.130014e-06 8.569553e-06 4.863798e-05 1.7915794e-05 4.394617e-06 4.2987713e-06 1.5149609e-06
6.1421447e-06 9.036612e-06 5.1105722e-05 4.4985918e-05 1.4389195e-05 5.3344793e-06 1.1954221e-05 7.105598e-06
4.9887035e-06 1.7904288e-06 7.5424923e-06 5.364851e-06 4.352488e-06 3.1021884e-06 3.1135678e-05 1.5815693e-05
4.8068473e-06 3.7280872e-06 2.1491824e-06 2.0946054e-05 9.054463e-06 4.5217075e-06 4.4197204e-06 1.4283056e-06
4.1371633e-05 5.5344637e-05 1.2670642e-05 4.637902e-06 1.2087522e-05 3.90389e-06 1.4612076e-05 3.4949803e-06
1.4330086e-06 3.2185142e-06 2.942237e-05 1.1687385e-05 2.0584987e-06 3.122325e-05 4.2495953e-06 2.1966116e-06
2.5914487e-06 2.6255606e-05 3.287277e-06 1.713025e-05 1.1333434e-05 7.583656e-06 1.266715e-05 1.6095471e-05
1.1517842e-05 5.1526647e-05 6.993585e-06 2.3847326e-06 2.8738797e-05 7.2198204e-06 1.8400059e-06 3.1286384e-06
2.1527635e-06 3.8353487e-06 7.57237e-06 2.6317231e-05 8.780535e-06 2.67595e-06 3.645326e-06 8.856384e-07
2.6662358e-06 5.0527087e-06 2.5222722e-05 2.2274106e-05 6.7375468e-06 3.173725e-06 5.6680774e-06 3.2807288e-06
2.052714e-06 1.1103418e-06 5.556806e-06 4.985138e-06 2.9969808e-06 2.5794798e-06 1.4156228e-05 8.258638e-06
3.483609e-06 2.0128766e-06 1.1461194e-06 1.100148e-05 7.1382588e-06 2.5755335e-06 3.4979219e-06 1.0738727e-06
2.2889279e-05 2.6334143e-05 6.1578353e-06 3.1089085e-06 4.7735216e-06 2.1608448e-06 9.05631e-06 3.2193907e-06
1.2090555e-06 1.694704e-06 1.5659336e-05 4.702768e-06 1.5276831e-06 1.1150806e-05 3.0303777e-06 1.6616293e-06
2.033724e-06 1.6061009e-05 2.2299068e-06 1.2174354e-05 5.6265417e-06 3.634615e-06 8.607976e-06 1.0101555e-05
00000000: 419a 1637 42a9 4838 f8ff b836 b4e0 0936
00000010: 78ae da37 b667 fa36 b84b 0f36 33ac 7436
00000020: 2c8e f435 8925 4636 0ba8 bc36 312f cc37
00000030: d718 1437 a565 1a36 f174 5436 479a 6a35
00000040: f663 4b36 70f9 9b36 de65 d137 732c b337
00000050: 9cae e236 2b09 4736 08f8 c436 cfb7 7a36
00000060: 621c 1436 f267 8e35 15d1 9936 cbc1 7036
00000070: 83f3 4236 6842 1636 d309 7a37 4308 0637
00000080: 97d9 4d36 de33 0436 a2ec a135 647f 3737
00000090: 4a65 bc36 714e 1f36 1c6c 4c36 35df 8535
000000a0: 889c af37 a13d da37 acbd dc36 6ff1 3536
000000b0: 1451 b736 b841 0a36 848e 0737 44fe 1e36
000000c0: c012 8235 c339 e635 4828 7b37 4328 b636
000000d0: c9ae aa35 9db7 6937 b170 2d36 73b2 c135
000000e0: 95be e935 43c7 6937 2234 0f36 7389 2737
000000f0: 5ec5 c236 4c07 7b36 2a98 f136 c000 1e37
00000100: 6c58 1b37 a3dd 6f38 0401 f236 024e 2e36
00000110: 861b 0238 ad5f 2237 ca69 7136 4220 9236
00000120: 1cec 0b36 4c59 5736 e6c0 b636 a724 f737
00000130: c99f 3837 f794 6a36 a6fb 7536 98d0 ae35
00000140: cdf8 8936 b520 be36 a8b2 0338 ab7d dc37
00000150: e653 0a37 861d 6536 927c 0137 2c24 b536
00000160: 7c5d 5536 f1d9 b335 284c d636 3209 4f36
00000170: 0073 7b36 8ccd 4536 51d7 9a37 d0db 2837
00000180: 066e 7036 f94b 1c36 e878 e835 3c25 5d37
00000190: 9034 c436 e4cc 5b36 72ce 8836 5275 a135
000001a0: 7cbd d737 c86f 0938 00a9 0937 4af8 5e36
000001b0: e312 ee36 73f3 3536 2637 1737 ccf9 4036
000001c0: 81d6 a535 0271 2336 25aa 9e37 378c f536
000001d0: 9d1e d335 41a8 9d37 066b 4c36 739a d635
000001e0: 4afc 1936 3077 8737 6b18 2036 702d 2937
000001f0: 943b ff36 b263 aa36 6761 0037 7882 3537
00000200: 0d7f 6a37 ee52 ce38 3632 1737 2915 7736
00000210: 913a 5b38 cbf9 8237 d0c7 9836 1d53 db36
00000220: db1d 2f36 7c22 ac36 f3c5 0f37 a200 4c38
00000230: e049 9637 7975 9336 2a3e 9036 a955 cb35
00000240: 9f18 ce36 f49b 1737 5a5a 5638 43af 3c38
00000250: 1f69 7137 d4fe b236 fd8e 4837 9f6c ee36
00000260: a364 a736 aa4e f035 8415 fd36 b803 b436
00000270: 960b 9236 312f 5036 ae97 0238 f1ab 8437
00000280: 814a a136 0d30 7a36 ac3a 1036 4fb5 af37
00000290: 9fe8 1737 2cb9 9736 1c4d 9436 35b4 bf35
000002a0: 7486 2d38 da21 6838 fe93 5437 469f 9b36
000002b0: 83cb 4a37 29fe 8236 6326 7537 4e8b 6a36
000002c0: cd55 c035 a7fd 5736 0fd0 f637 f014 4437
000002d0: bd24 0a36 b6f5 0238 bf97 8e36 8069 1336
000002e0: c0e8 2d36 7c3f dc37 fd9a 5c36 efb2 8f37
000002f0: ba24 3e37 1c77 fe36 ff84 5437 c304 8737
00000300: c13c 4137 511e 5838 70aa ea36 6509 2036
00000310: 1914 f137 c941 f236 1ff6 f635 99f5 5136
00000320: 3278 1036 65b1 8036 2a16 fe36 d3c3 dc37
00000330: 1c50 1337 7994 3336 39a2 7436 9cbc 6d35
00000340: 95ed 3236 708a a936 6295 d337 47d9 ba37
00000350: 1613 e236 2efc 5436 6a30 be36 7e2a 5c36
00000360: 5cc1 0936 0e07 9535 9a74 ba36 0246 a736
00000370: bd1f 4936 201b 2d36 8980 6d37 958e 0a37
00000380: f2c7 6936 f514 0736 5dd4 9935 ff92 3837
00000390: 2d85 ef36 54d7 2c36 d7bd 6a36 fc21 9035
000003a0: 5a02 c037 24e8 dc37 679f ce36 a4a2 5036
000003b0: 3d2c a036 0803 1136 8ef0 1737 b60c 5836
000003c0: d546 a235 9675 e335 2b5c 8337 78cc 9d36
000003d0: cb0a cd35 5914 3b37 7e5d 4b36 2605 df35
000003e0: 1d7b 0836 c1ba 8637 82a5 1536 7440 4c37
000003f0: a0cb bc36 36ea 7336 fa6a 1037 d979 2937

exp_avg f4 [64]
-0.0013193445 0.0026509026 -0.004777753 0.0024731548 0.0025800434 -0.0010620679 0.00023413185 0.0045011216
0.0026645341 -9.114097e-05 -0.0028994072 0.0033569846 0.0044343253 -0.0042635095 0.00063109567 -0.00040938827
-0.004727345 -0.0039205533 0.0008724838 0.0027001183 -0.0017789948 0.0009856884 0.004560625 -0.0030244556
0.00061962294 0.00034732837 -0.004884649 5.549725e-05 0.0023114523 -0.00040720913 -0.0041078636 2.8611408e-05
-0.0024670765 0.00020606513 -0.0037927092 0.005358449 0.0034568792 -0.001543873 0.0027835409 -0.008229018
-0.0019864715 -0.0021289247 0.0006645641 0.0021610965 0.0027360953 0.0018385508 0.00015059364 0.0022309157
-0.00056128926 -0.0006602197 4.7035122e-05 0.00011488676 0.0005615744 0.002379117 -0.0014549657 0.0005781223
0.006022394 0.0017019128 0.0037644987 -0.0037911055 0.0028176052 -0.00013997484 0.0034116046 -0.006997729
00000000: dbed acba c4ba 2d3b b28e 9cbb a714 223b
00000010: f215 293b 1635 8bba 4a81 7539 257e 933b
00000020: 779f 2e3b f022 bfb8 fb03 3ebb db00 5c3b
00000030: d14d 913b e9b4 8bbb 1d70 253a 2aa3 d6b9
00000040: d8e7 9abb fc77 80bb 66b7 643a 78f4 303b
00000050: 292d e9ba 3732 813a 4c71 953b f235 46bb
00000060: 316e 223a a019 b639 680f a0bb b8c5 6838
00000070: bc7b 173b af7e d5b9 429b 86bb 8802 f037
00000080: adae 21bb 3013 5839 1a8f 78bb ee95 af3b
00000090: cf8c 623b c85b caba 116c 363b 01d3 06bc
000000a0: 762f 02bb 6e85 0bbb 2436 2e3a 2fa1 0d3b
000000b0: 1050 333b 87fb f03a ace8 1d39 8e34 123b
000000c0: 7c23 13ba 9812 2dba 9447 4538 5cef f038
000000d0: 9f36 133a f6ea 1b3b 8cb4 beba 218d 173a
000000e0: 8157 c53b b812 df3a cfb5 763b 3274 78bb
000000f0: 92a7 383b 36c6 12b9 3a95 5f3b 354d e5bb

exp_avg_sq f4 [64]
9.019846e-05 0.00010492092 0.00017524521 9.7935146e-05 8.793059e-05 6.9952745e-05 3.237977e-05 8.517836e-05
0.00018542804 0.00017443833 2.8446462e-05 7.049353e-05 0.00024102896 4.2599775e-05 0.0001328381 3.7317357e-05
0.0001295614 5.0396415e-05 4.7495734e-05 6.439584e-05 2.7629254e-05 8.784654e-05 8.820179e-05 4.5552228e-05
2.9892175e-05 8.444398e-05 0.00014382644 8.1431914e-05 2.0451558e-05 1.795552e-05 6.600869e-05 3.5543795e-05
3.964529e-05 0.00013101037 6.521218e-05 6.051026e-05 4.4239994e-05 5.4559874e-05 5.6661025e-05 0.0001570921
2.0537216e-05 0.00011422721 0.00011135998 4.6346948e-05 3.3361266e-05 5.9530117e-05 3.9804516e-05 2.691248e-05
5.660977e-05 8.3283856e-05 0.00012223552 3.602371e-05 0.00018084509 3.3280627e-05 3.511338e-05 3.944799e-05
0.00013738021 0.0001240399 2.5987383e-05 5.598696e-05 3.6824058e-05 2.4931263e-05 4.3843185e-05 0.00016519967
00000000: ee28 bd38 fd08 dc38 07c2 3739 8862 cd38
00000010: 6067 b838 98b3 9238 83cf 0738 c9a1 b238
00000020: 766f 4239 6fe9 3639 50a0 ee37 edd5 9338
00000030: b8bc 7c39 29ad 3238 754a 0b39 3585 1c38
00000040: e0da 0739 bd60 5338 2836 4738 410c 8738
00000050: 5fc5 e737 413a b838 faf8 b838 550f 3f38
00000060: f5c0 fa37 8417 b138 1ed0 1639 6dc6 aa38
00000070: 638f ab37 309f 9637 256e 8a38 dc14 1538
00000080: ce48 2638 d45f 0939 86c2 8838 66cc 7d38
00000090: 558e 3938 38d7 6438 50a7 6d38 17b9 2439
000000a0: 5647 ac37 448d ef38 ef89 e938 a864 4238
000000b0: 63ed 0b38 faaf 7938 c6f3 2638 1cc2 e137
000000c0: 4770 6d38 aea8 ae38 592c 0039 2a18 1738
000000d0: 3ca1 3d39 cd96 0b38 b446 1338 f574 2538
000000e0: b80d 1039 b510 0239 7bff d937 8ad3 6a38
000000f0: 8873 1a38 7b23 d137 43e4 3738 7339 2d39

exp_avg f4 [6, 64]
0.0018008624 0.00037158554 0.00032532748 0.0024346616 9.4594885e-05 0.000255609 -0.00033647675 -0.00024590263
0.00023322673 -0.0007818476 -0.0004958131 -0.0019127823 0.0011859643 0.000727872 0.0019069277 -0.0017705674
-0.0022624286 0.0015204169 0.0007467199 -0.001642075 -0.004534813 -0.0011061247 0.0010849469 0.0021083711
0.0002687506 0.0013826193 0.00058299693 -0.0017176573 -4.9619237e-05 -0.0012683776 3.054946e-05 0.00074723706
-0.00022886804 6.216578e-07 0.002116875 0.0002926958 -0.0019342226 -0.00033672663 0.0006753168 -0.00085334247
-0.0008290012 -0.0007354652 0.00048368835 -0.00041058642 0.0025573825 0.0001325236 0.004416048 0.00042770134
-0.00045447232 0.0002640991 0.0008887262 -0.0012151982 0.0021607736 -0.00088836957 -0.0016669668 0.0015760541
-0.0020521176 0.0015337132 -0.00048063343 -0.0010683846 0.00073665933 -0.0010516031 -0.0013636438 0.0018136718
0.00013377948 -0.006338721 0.0017049357 0.0021541426 -0.0011518132 -0.0010067055 -0.0010941529 0.0028357608
-0.00047443924 -0.001705233 -0.0066728736 -0.0052437577 -0.0029808637 0.0053601237 0.00040704297 0.0021840446
-0.0029923944 -0.00074209145 0.009912533 0.00028373935 -0.0028682982 0.00038027915 -0.00043961834 0.0066758953
0.010626193 0.00348208 0.0026350922 -0.0015649789 -0.0060623586 0.008979677 -0.0014201826 0.0050692665
-0.006850446 -0.0018880295 0.0043696114 -0.003449716 -0.008618179 -0.0063146716 0.0007487551 -0.0002511955
0.004268016 0.00034590144 0.004045952 0.0044989004 -0.0024221088 -0.0032882353 0.0027012909 0.00023617511
0.004464256 -0.003724404 -0.0045002014 0.003536246 0.00017278589 0.003890727 0.0015002497 -0.005138282
-0.003556243 -0.00020974118 -0.008863306 0.0004926403 -0.004383336 -0.00038258295 -0.0064314185 0.004821784
0.0044567217 -0.0005482967 -0.004476364 0.0011361939 0.0077291066 0.0029618181 0.0062510464 0.0045125494
0.0020185607 0.0054639685 0.0015767687 -5.5915298e-05 0.009264067 0.0005815771 0.0060690544 -0.00016117322
-0.0066005476 -0.0023259462 -0.003914492 0.0013651116 -0.005041098 0.00047903985 -9.567279e-05 0.0011196117
-0.004839597 0.00021463257 -0.008658291 -0.0018756867 0.003440285 -0.00391703 0.002812873 -0.0013914533
0.0017779308 -0.0011814875 -0.0050042886 0.005053745 0.0051521454 -0.0022553988 0.0016640674 -0.0048824158
-0.0008876367 0.0015754893 -0.0070069125 -0.0033870449 -0.0010429326 0.003705399 0.002129044 0.00074693066
-0.0027010005 0.0041520945 0.0026057628 0.001268833 0.008233308 -0.0038711862 -0.004328745 -0.002040433
0.0019679954 0.0032802592 0.0043181027 -0.0003243744 0.003511585 0.0020098267 0.0030329656 -0.0037819576
-0.00023430282 -0.005858762 -0.00042910763 -0.0004653424 0.002655922 0.00014115695 0.0028441912 0.0049906815
0.00024486583 0.0020954332 -0.00051459257 0.0013975919 0.00244118 0.0004154895 0.003640793 0.0018987238
0.001360246 -0.0012446143 0.0017647287 0.0006530551 0.0015662187 0.0020914595 0.0001141292 -0.002205045
0.0039837067 0.002267066 -0.00048494755 -5.4034193e-05 -0.0005356419 0.0023956555 0.0017900884 0.0026885024
-0.0031360444 0.0026482928 0.0009107285 0.0005136692 -0.0008527904 -0.0051464112 0.002136643 -0.0017757739
0.001983863 -0.00068590353 -0.002916709 0.0015570224 -0.0020395764 -0.004294777 1.6172737e-05 0.0023885681
-0.0011602225 -0.0031108467 -0.0037202346 0.0035003861 0.00046973053 0.002345669 -0.0019432737 -0.0037137503
-0.0011607892 0.0030099936 -0.0034999133 -0.0006764671 0.0006358607 0.00011070399 -0.0037832726 -0.00011446458
00000000: ea0a ec3a 5ed1 c239 b790 aa39 d88e 1f3b
00000010: 3e61 c638 4203 8639 2569 b0b9 7eec 80b9
00000020: 538e 7439 e7f4 4cba 74f9 01ba 53b6 faba
00000030: 5c72 9b3a aace 3e3a e0f1 f93a 6212 e8ba
00000040: 4145 14bb ba48 c73a 86bf 433a e53a d7ba
00000050: c598 94bb 63fb 90ba c734 8e3a 992c 0a3b
00000060: 18e7 8c39 0139 b53a 43d4 183a 0423 e1ba
00000070: 401e 50b8 b13f a6ba 3c22 0038 3be2 433a
00000080: 4cfc 6fb9 00e0 2635 45bb 0a3b f774 9939
00000090: be85 fdba af8a b0b9 be07 313a d8b2 5fba
000000a0: 5451 59ba 3ccc 40ba 8d97 fd39 fa43 d7b9
000000b0: c299 273b 08f6 0a39 7fb4 903b 1a3d e039
000000c0: 3e46 eeb9 c876 8a39 68f9 683a 4947 9fba
000000d0: c49b 0d3b 79e1 68ba 207e daba 9a93 ce3a
000000e0: d27c 06bb e006 c93a 87fd fbb9 0a09 8cba
000000f0: 5f1c 413a f2d5 89ba 4bbc b2ba bab8 ed3a
00000100: 2847 0c39 0cb5 cfbb 2678 df3a 842c 0d3b
00000110: 70f8 96ba 6ef3 83ba ae69 8fba 2cd8 393b
00000120: 28be f8b9 2082 dfba 1fa8 dabb d4d3 abbb
00000130: 985a 43bb faa3 af3b 6268 d539 3022 0f3b
00000140: 0c1c 44bb ea88 42ba 2d68 223c dac2 9439
00000150: 0ffa 3bbb 3460 c739 937c e6b9 78c1 da3b
00000160: 7c19 2e3c 9c33 643b 83b1 2c3b fa1f cdba
00000170: c0a6 c6bb 7f1f 133c 6c25 baba 171c a63b
00000180: b579 e0bb c277 f7ba f52e 8f3b a114 62bb
00000190: 4333 0dbc 4eeb cebb 1b48 443a e4b2 83b9
000001a0: b7da 8b3b 1b5a b539 e893 843b 836b 933b
000001b0: 3ebc 1ebb 6f7f 57bb 2408 313b c6a5 7739
000001c0: e548 923b 2115 74bb 6d76 93bb 5dc0 673b
000001d0: dc2d 3539 91fb 7e3b 07a4 c43a 095f a8bb
000001e0: db0f 69bb f8ed 5bb9 6637 11bc 8824 013a
000001f0: 16a2 8fbb 6a95 c8b9 a6be d2bb 0e00 9e3b
00000200: b109 923b 92bb 0fba 76ae 92bb 57ec 943a
00000210: 7244 fd3b 101b 423b 94d5 cc3b 02de 933b
00000220: d449 043b 170b b33b 94ab ce3a 9886 6ab8
00000230: 50c8 173c fa74 183a ebde c63b 9b00 29b9
00000240: 6849 d8bb e76e 18bb 2445 80bb 8bed b23a
00000250: cc2f a5bb a427 fb39 f0a3 c8b8 efbf 923a
00000260: 7b95 9ebb fe0e 6139 81db 0dbc 9ad9 f5ba
00000270: 6876 613b 6e5a 80bb 2e58 383b 6d61 b6ba
00000280: 7509 e93a 24dc 9aba 04fb a3bb e399 a53b
00000290: 54d3 a83b 50cf 13bb d61c da3a acfc 9fbb
000002a0: 4ab0 68ba a680 ce3a 3e9a e5bb 2ff9 5dbb
000002b0: 03b3 88ba 48d6 723b 6e87 0b3b abcd 433a
000002c0: 4503 31bb 4b0e 883b 72c5 2a3b f84e a63a
000002d0: ffe4 063c bab3 7dbb 25d8 8dbb c9b8 05bb
000002e0: 7cf9 003b 9ef9 563b df7e 8d3b cc10 aab9
000002f0: 9f22 663b 4cb7 033b b8c4 463b b8da 77bb
00000300: 2faf 75b9 dcfa bfbb daf9 e0b9 33f9 f3b9
00000310: fa0e 2e3b 8803 1439 9c65 3a3b df88 a33b
00000320: 5661 8039 8953 093b b9e5 06ba 672f b73a
00000330: 34fc 1f3b 0fd6 d939 5f9a 6e3b 99de f83a
00000340: 484a b23a 5322 a3ba 784e e73a c931 2b3a
00000350: 9449 cd3a de10 093b a658 ef38 8482 10bb
00000360: c189 823b 0e93 143b 8f40 feb9 c6a2 62b8
00000370: 526a 0cba 6e00 1d3b 66a1 ea3a 9631 303b
00000380: 1886 4dbb fb8e 2d3b f4bd 6e3a c2a7 063a
00000390: cc8d 5fba 3aa3 a8bb ec06 0c3b 16c1 e8ba
000003a0: b303 023b 35ce 33ba 4226 3fbb 0115 cc3a
000003b0: 6aaa 05bb 33bb 8cbb b0aa 8737 8689 1c3b
000003c0: 9b12 98ba 59df 4bbb 2ecf 73bb bc66 653b
000003d0: 2a46 f639 ccb9 193b 72b5 feba 6462 73bb
000003e0: 9f25 98ba 5043 453b cd5e 65bb f054 31ba
000003f0: e4af 263a c129 e838 c8f0 77bb b40c f0b8

exp_avg_sq f4 [6, 64]
2.8325709e-05 7.7056495e-05 6.327109e-06 3.5556783e-05 9.754333e-06 9.744792e-06 9.124727e-06 4.5489956e-05
1.0056755e-05 1.4845007e-05 6.436395e-05 1.649112e-05 1.6117863e-05 8.994934e-06 2.0679518e-05 5.0201244e-05
3.956748e-05 1.922508e-05 3.7215766e-05 2.5026859e-05 0.00025598425 4.397414e-05 1.2920259e-05 5.767711e-05
0.0001895685 9.477797e-06 1.0476886e-05 2.3324938e-05 3.7208883e-05 0.000162473 2.1978769e-05 6.417044e-05
5.0664592e-05 1.4717861e-05 7.2960042e-06 4.8280366e-05 3.9403498e-05 7.1769195e-05 3.5002166e-05 1.3317331e-05
8.546004e-05 1.3085124e-05 2.3189641e-05 3.0254712e-05 3.5998855e-05 0.00011510376 0.00011444708 1.5315183e-05
5.052804e-05 3.2361877e-05 5.6827965e-05 5.7398247e-05 2.645032e-05 6.773641e-05 1.5975762e-05 0.0001416311
1.05654835e-05 1.9243103e-05 0.0001570791 1.0643867e-05 8.353602e-05 1.7282064e-05 5.211956e-05 1.321378e-05
3.951531e-05 0.000119115364 7.888144e-06 5.901419e-05 1.4717415e-05 1.3039796e-05 1.3342796e-05 7.848144e-05
1.22988695e-05 2.0105557e-05 0.000101429956 2.6448715e-05 1.724985e-05 1.3927714e-05 3.063205e-05 8.537787e-05
5.20292e-05 2.508838e-05 5.7630004e-05 3.989777e-05 0.00042452017 7.312926e-05 2.1008036e-05 0.0001001889
0.0003099045 1.4541098e-05 1.3496971e-05 3.5179135e-05 5.534205e-05 0.00026447937 3.0647112e-05 0.00010162361
8.279987e-05 2.0400952e-05 1.0310192e-05 7.155676e-05 6.2718194e-05 0.00012268095 5.9758506e-05 1.878887e-05
0.00013219524 2.0578726e-05 3.516587e-05 4.988687e-05 5.5235796e-05 0.00019187763 0.00016736488 2.469356e-05
7.726748e-05 4.9102615e-05 8.8543966e-05 9.147813e-05 3.440748e-05 0.00010905777 2.044029e-05 0.0002481401
1.36787385e-05 2.8687087e-05 0.0002527156 1.5312144e-05 0.00012712753 2.3568999e-05 9.150755e-05 1.4030476e-05
3.4786237e-05 8.371657e-05 9.583454e-06 4.2994478e-05 1.8967374e-05 1.3066591e-05 1.568182e-05 5.858676e-05
1.6331793e-05 2.4301471e-05 7.371012e-05 2.018683e-05 2.2834476e-05 1.3743778e-05 3.921894e-05 6.704495e-05
7.0683884e-05 2.1458247e-05 4.45187e-05 3.1778367e-05 0.00029221983 5.2918036e-05 1.5366011e-05 6.836247e-05
0.00019978742 1.3258503e-05 1.7720951e-05 2.7340122e-05 4.029928e-05 0.0001749807 3.2583863e-05 7.079997e-05
5.7948382e-05 1.7387514e-05 1.4120428e-05 4.9367864e-05 4.1505908e-05 8.995753e-05 4.79674e-05 1.6254036e-05
9.311779e-05 1.667843e-05 3.687485e-05 3.787229e-05 3.963983e-05 0.000128777 0.00013494308 1.9535231e-05
5.608017e-05 3.837584e-05 6.4312844e-05 6.613419e-05 5.296994e-05 7.344546e-05 2.3629409e-05 0.0001658385
1.618613e-05 2.7125248e-05 0.00016050333 1.16070805e-05 8.7495384e-05 2.3655446e-05 6.16087e-05 1.5713353e-05
3.2313223e-05 9.2323324e-05 5.896849e-06 5.0493498e-05 1.0596953e-05 1.1829981e-05 1.0243275e-05 6.158476e-05
1.0942415e-05 1.5451737e-05 9.66761e-05 1.857285e-05 1.6516267e-05 1.1748628e-05 2.3107159e-05 7.632675e-05
5.4700464e-05 2.0859918e-05 4.9547067e-05 3.676232e-05 0.00036873345 5.8485402e-05 1.7996605e-05 8.318537e-05
0.00026712622 1.077934e-05 1.1430906e-05 2.7323536e-05 5.0474217e-05 0.00023375038 2.463048e-05 8.575963e-05
7.0457805e-05 1.5767328e-05 8.89577e-06 6.296936e-05 5.37909e-05 0.00010685926 4.679625e-05 1.6053982e-05
0.00012199859 1.4243279e-05 2.6380589e-05 4.387397e-05 4.4671044e-05 0.00016166242 0.00014483409 2.1319822e-05
6.823178e-05 3.95545e-05 6.950746e-05 7.677112e-05 3.348799e-05 9.266099e-05 1.7071074e-05 0.00021551843
1.2008526e-05 2.3445175e-05 0.00021989572 1.30529415e-05 0.000112603855 1.879404e-05 7.669887e-05 1.074674e-05
00000000: ff9c ed37 6499 a138 744d d436 ce22 1538
00000010: 8ba6 2337 907d 2337 6716 1937 78cc 3e38
00000020: 6fb9 2837 d20e 7937 22fb 8638 6956 8a37
00000030: d934 8737 f3e8 1637 ed78 ad37 2d8f 5238
00000040: 42f5 2538 8c45 a137 2018 1c38 c5f0 d137
00000050: a035 8639 e070 3838 17c4 5837 53ea 7138
00000060: e8c6 4639 d402 1f37 e2c5 2f37 eca9 c337
00000070: bc10 1c38 845d 2a39 0c5f b837 3e93 8638
00000080: b180 5438 bbec 7637 33d0 f436 a680 4a38
00000090: 2f45 2538 cb82 9638 4acf 1238 806d 5f37
000000a0: 0239 b338 2e88 5b37 6087 c237 80cb fd37
000000b0: 7afd 1638 dc63 f138 4f03 f038 1b79 8037
000000c0: 12ee 5338 4dbc 0738 905a 6e38 e6be 7038
000000d0: a1e1 dd37 b50d 8e38 b003 8637 cf82 1439
000000e0: 6842 3137 406c a137 9ab5 2439 1093 3237
000000f0: 0f30 af38 f3f8 9037 f49a 5a38 c1b0 5d37
00000100: 3ebd 2538 93cd f938 5257 0437 0186 7738
00000110: d1ea 7637 7fc5 5a37 dfda 5f37 6796 a438
00000120: 3e57 4e37 5ba8 a837 cbb6 d438 2fde dd37
00000130: c5b3 9037 13ab 6937 ea7a 0038 e50c b338
00000140: ee39 5a38 e374 d237 bfb7 7138 e857 2738
00000150: 2292 de39 f95c 9938 6a3a b037 821c d238
00000160: ae7a a239 8af5 7337 0d71 6237 4f8d 1338
00000170: 131f 6838 d2a9 8a39 168b 0038 c31e d538
00000180: d7a4 ad38 b622 ab37 f0f9 2c37 be10 9638
00000190: 9387 8338 eba3 0039 35a5 7a38 cb9c 9d37
000001a0: e49d 0a39 7aa0 ac37 117f 1338 9e3d 5138
000001b0: fcac 6738 c232 4939 ab7e 2f39 0425 cf37
000001c0: aa0a a238 88f3 4d38 aeb0 b938 f2d7 bf38
000001d0: c050 1038 f2b5 e438 3077 ab37 cd18 8239
000001e0: bc7d 6537 0da5 f037 ea7e 8439 9472 8037
000001f0: 894d 0539 0ab6 c537 bee7 bf38 7064 6b37
00000200: 70e7 1138 fe90 af38 9fc8 2037 f854 3438
00000210: 201c 9f37 9538 5b37 748c 8337 0ebb 7538
00000220: 4200 8937 03db cb37 d294 9a38 e356 a937
00000230: aa8c bf37 1495 6637 047f 2438 7c9a 8c38
00000240: 1f3c 9438 3c01 b437 97b9 3a38 c349 0538
00000250: 1535 9939 4ff4 5d38 42e6 8037 d25d 8f38
00000260: 077e 5139 d670 5e37 74a7 9437 7758 e537
00000270: 0607 2938 067b 3739 a8aa 0838 727a 9438
00000280: 9a0d 7338 67db 9137 c7e6 6c37 5710 4f38
00000290: a116 2e38 95a7 bc38 9b30 4938 4759 8837
000002a0: 3c48 c338 a8e8 8b37 12aa 1a38 10d9 1e38
000002b0: f242 2638 5008 0739 827f 0d39 97df a337
000002c0: a037 6b38 bff5 2038 b2df 8638 86b1 8a38
000002d0: 0a2c 5e38 bb06 9a38 c537 c637 efe4 2d39
000002e0: 73c7 8737 078b e337 c94c 2839 08bc 4237
000002f0: ba7d b738 af6f c637 eb33 8138 2bd0 8337
00000300: 0f88 0738 b59d c138 8cdd c536 fbc8 5338
00000310: 91c9 3137 6279 4637 88da 2b37 1127 8138
00000320: 5195 3737 5a9e 8137 96be ca38 e4cc 9b37
00000330: 6a8c 8a37 f91b 4537 3fd6 c137 9d11 a038
00000340: 2d6e 6538 55fc ae37 c2d0 4f38 3e31 1a38
00000350: 9152 c139 394e 7538 6af7 9637 ce73 ae38
00000360: 130d 8c39 ead8 3437 5ec7 3f37 d934 e537
00000370: 47b4 5338 e41a 7539 8e9d ce37 dad9 b338
00000380: bfc2 9338 1444 8437 0b3f 1537 6b0e 8438
00000390: 8a9d 6138 a119 e038 1747 4438 aaab 8637
000003a0: 7fd9 ff38 6bf6 6e37 e24b dd37 5105 3838
000003b0: 2b5d 3b38 ed83 2939 9bde 1739 f8d7 b237
000003c0: a817 8f38 52e7 2538 89c4 9138 2e00 a138
000003d0: 7575 0c38 fd52 c238 da33 8f37 cafc 6139
000003e0: 3a78 4937 21ac c437 cf93 6639 f5fd 5a37
000003f0: bc25 ec38 e5a7 9d37 64d9 a038 e64c 3437

exp_avg f4 [6]
0.0015303849 -0.0102156475 0.009304438 -0.010041242 -0.01755446 0.006792322
00000000: 3297 c83a 885f 27bc a471 183c 0684 24bc
00000010: 5fce 8fbc 2092 de3b

exp_avg_sq f4 [6]
0.0006840843 0.0011540168 0.0007709607 0.000977336 0.0017006597 0.0006107325
00000000: 1f54 333a 6142 973a 4c1a 4a3a f419 803a
00000010: ace8 de3a 9019 203a
