flare-benchmarking/2uc1oshi/checkpoints/epoch=4.ckpt (torch_old, 101025 bytes, 36 tensors)

exp_avg f4 [6]
-0.0017146792 0.013883804 -0.0035602064 0.008008403 0.03208746 0.018685311
00000000: 16bf e0ba e578 633c 5a52 69bb ad35 033c
00000010: 246e 033d f011 993c

exp_avg_sq f4 [6]
9.130947e-05 2.7490612e-05 6.1188905e-05 7.932621e-05 7.284758e-05 0.00010944069
00000000: 667d bf38 a49b e637 8b52 8038 ef5b a638
00000010: bfc5 9838 8683 e538

exp_avg f4 [64, 26]
5.1110448e-05 0.0 -0.0006125808 -0.0003131707 0.0 6.980577e-05 0.0 -8.7860615e-05
-0.0014804937 -0.0004352857 0.0016089124 -0.00026681917 0.0007223719 0.0012243448 0.0004764329 -0.00030201362
0.00058560196 -0.00070870016 -0.0014364514 0.004186004 0.00093583105 0.00056572707 0.0007840424 0.00021016068
-0.00025990832 -0.0014646047 0.00020124365 0.0 -0.0010203723 0.00032322196 0.0 -0.00010805626
0.0 9.068569e-05 -0.00012200832 0.00039967406 -0.00039815812 -0.0011095449 0.00070014235 0.00076909567
-0.0007916219 -9.632623e-05 0.0010144697 -0.0005450974 -0.0014891301 0.0016113908 0.00029059345 0.00011263986
0.0009324608 -0.0008972881 -0.0001698904 -0.0007081978 -0.00012112776 0.0 -2.733453e-06 7.071811e-05
0.0 4.177487e-06 0.0 -8.9966874e-05 0.0009198759 -7.834392e-05 -0.00071638095 0.00015577453
0.0009461877 0.00025525215 -0.0005403196 0.0002543945 0.00046893657 -0.00041983428 0.00024075924 -0.000112335365
-0.00021705747 0.00035281532 0.000112991605 0.00043620425 -0.00018813324 0.0004219609 2.0781625e-05 0.0
-0.00075714185 -4.9608243e-06 0.0 4.0841733e-05 0.0 -9.330894e-05 -0.00070559996 -0.00022067163
0.0012565283 0.00041640096 0.0017128115 0.00067330827 -0.0005158229 0.00033096573 0.00063077756 -0.0008029955
-0.0012290892 0.0009805878 0.00020156245 0.00010798632 0.0005845339 0.00012199475 -0.00020203443 -0.0010291619
0.00014218314 0.0 -0.00029135818 0.00014374453 0.0 0.00012178706 0.0 9.303661e-05
-0.00016056752 0.00021359435 -0.00054648006 0.00092655624 -0.0007955213 -0.00018539849 -6.1025174e-05 -8.25279e-05
-0.0001350891 0.0013082041 0.00043646139 -0.0026866242 -0.00070990267 -0.000333174 -0.0012694749 0.00064080436
-7.409335e-05 0.00017037602 -0.00012738405 0.0 0.0010659123 -0.00072570174 0.0 0.00027640082
0.0 0.000117292315 -0.0009031855 -0.00046330786 0.0007550232 0.0009274708 -0.0034278873 -0.0008566963
0.0018283522 -0.0011778045 -0.0013435984 0.0020227379 0.00121802 0.0012702261 -1.7967825e-05 -0.00032247044
-0.0015504773 0.0005444135 0.00024419112 0.0011300514 0.00020297033 0.0 -0.0015684702 0.00025045534
0.0 -0.0002441763 0.0 0.0001941837 0.00032302958 0.00022835282 -0.00036449663 -0.0007296453
0.0012133219 -0.0006146086 -0.001395765 0.0003645546 -0.00012006014 -0.0020289386 -0.0017952161 0.00095984736
-0.0008692323 -0.0007843147 0.0015574277 -0.0020928483 -0.00012316805 -2.1113807e-05 2.1412829e-05 0.0
0.00032307763 -5.5170487e-05 0.0 0.00010424374 0.0 0.00015481499 -0.00029015867 7.9250996e-05
-0.00052057713 -0.00026887044 -0.0012599728 0.00055146863 0.00035816888 -0.0005908681 2.7554757e-05 0.0010398325
4.192169e-05 0.00031145453 0.00019262664 0.00037033917 -0.00036620683 0.00020639173 9.086944e-05 0.00036559696
-0.00019650304 0.0 0.00015024832 -2.4606808e-05 0.0 6.288432e-05 0.0 -0.00032406062
0.0007711506 -0.00028175834 -1.1097003e-05 0.00049990497 0.0014111917 0.00061687315 -0.00030013075 0.00044640075
0.0008570219 -0.0005682503 0.0007692 0.00028345882 0.00020465865 0.0003127059 -0.00032503193 0.0010177548
-0.00024270541 0.00012956579 0.00017290784 0.0 -0.0006739557 0.00020348896 0.0 1.9552928e-05
0.0 0.00011421248 -0.0009986099 0.00016743837 0.000847362 0.0010014325 0.0005123014 -0.0002636033
-9.111972e-06 0.00048168594 -0.00065199385 5.4603315e-05 -0.0007422509 -0.0018218992 -0.0005065163 -0.00031859515
00000000: 6d5f 5638 0000 0000 9a95 20ba 0f31 a4b9
00000010: 0000 0000 b064 9238 0000 0000 cf41 b8b8
00000020: 200d c2ba 0f37 e4b9 24e2 d23a dde3 8bb9
00000030: 8f5d 3d3a 327a a03a bec9 f939 9557 9eb9
00000040: 1583 193a 10c8 39ba 5047 bcba bf2a 893b
00000050: 8f52 753a 4d4d 143a 3288 4d3a 945e 5c39
00000060: 4e44 88b9 fbf7 bfba ee04 5339 0000 0000
00000070: 03be 85ba 1e76 a939 0000 0000 439c e2b8
00000080: 0000 0000 822e be38 b8de ffb8 588b d139
00000090: e1bf d0b9 266e 91ba c289 373a 239d 493a
000000a0: d984 4fba c002 cab8 f4f7 843a dee4 0eba
000000b0: ea2e c3ba 4e35 d33a cb5a 9839 1039 ec38
000000c0: 6370 743a fc37 6bba 9b24 32b9 5aa6 39ba
000000d0: f905 feb8 0000 0000 5d70 37b6 7f4e 9438
000000e0: 0000 0000 572c 8c36 0000 0000 99ac bcb8
000000f0: d423 713a 924c a4b8 83cb 3bba 6857 2339
00000100: 9509 783a 5dd3 8539 3ca4 0dba 4060 8539
00000110: 9adb f539 341d dcb9 5174 7c39 9795 ebb8
00000120: ec99 63b9 12fa b839 e8f5 ec38 58b2 e439
00000130: a245 45b9 a23a dd39 3354 ae37 0000 0000
00000140: ee7a 46ba 2875 a6b6 0000 0000 7a4d 2b38
00000150: 0000 0000 dbae c3b8 03f8 38ba 1764 67b9
00000160: 18b2 a43a 6450 da39 6b80 e03a f480 303a
00000170: 4a38 07ba 7885 ad39 c45a 253a 1e80 52ba
00000180: 6419 a1ba 1187 803a 825a 5339 b776 e238
00000190: 683b 193a 6fd7 ff38 34d9 53b9 f1e4 86ba
000001a0: ff16 1539 0000 0000 6fc1 98b9 21ba 1639
000001b0: 0000 0000 ee67 ff38 0000 0000 a61c c338
000001c0: 045e 28b9 4cf8 5f39 a841 0fba 23e4 723a
000001d0: 888a 50ba 8767 42b9 48f5 7fb8 d412 adb8
000001e0: b4a6 0db9 0c78 ab3a dbd4 e439 1312 30bb
000001f0: c318 3aba dbad aeb9 8264 a6ba a7fb 273a
00000200: 9062 9bb8 f7a6 3239 6592 05b9 0000 0000
00000210: 15b6 8b3a 053d 3eba 0000 0000 e4e9 9039
00000220: 0000 0000 d5fa f538 c1c3 6cba 21e8 f2b9
00000230: c0ec 453a 8321 733a 68a6 60bb ea93 60ba
00000240: 52a5 ef3a 9060 9aba ae1b b0ba e98f 043b
00000250: f8a5 9f3a b77d a63a 9cb9 96b7 4011 a9b9
00000260: 6339 cbba f9b6 0e3a c706 8039 3c1e 943a
00000270: 6fd4 5439 0000 0000 2095 cdba 8c4f 8339
00000280: 0000 0000 ca04 80b9 0000 0000 ca9d 4b39
00000290: 4c5c a939 fe71 6f39 e919 bfb9 ab45 3fba
000002a0: 5408 9f3a af1d 21ba 1af2 b6ba b121 bf39
000002b0: ccc8 fbb8 f1f7 04bb 754d ebba 449e 7b3a
000002c0: 31dd 63ba 789a 4dba 9a22 cc3a 2b28 09bb
000002d0: ac26 01b9 8e1d b1b7 b39f b337 0000 0000
000002e0: bf62 a939 dc66 67b8 0000 0000 6f9d da38
000002f0: 0000 0000 d555 2239 7020 98b9 8e33 a638
00000300: 5777 08ba 2ef7 8cb9 ac25 a5ba 6f90 103a
00000310: 9dc8 bb39 7de4 1aba 6425 e737 fd4a 883a
00000320: 12d5 2f38 b84a a339 d2fb 4939 152a c239
00000330: 73ff bfb9 dc6a 5839 2991 be38 98ad bf39
00000340: 620c 4eb9 0000 0000 fa8b 1d39 b86a ceb7
00000350: 0000 0000 c3e0 8338 0000 0000 aee6 a9b9
00000360: 0a27 4a3a f7b8 93b9 442d 3ab7 0e0c 033a
00000370: bcf7 b83a a8b5 213a de5a 9db9 e50a ea39
00000380: c4a9 603a a2f6 14ba 23a4 493a 339d 9439
00000390: a399 5639 adf2 a339 0c69 aab9 2f66 853a
000003a0: bd7e 7eb9 0ddc 0739 984e 3539 0000 0000
000003b0: 67ac 30ba a75f 5539 0000 0000 9805 a437
000003c0: 0000 0000 5c85 ef38 cae3 82ba 6592 2f39
000003d0: 8021 5e3a 8042 833a f74b 063a 3c34 8ab9
000003e0: 9fdf 18b7 cb8a fc39 91ea 2aba dd05 6538
000003f0: 9d93 42ba cbcc eeba bcc7 04ba 1e09 a7b9

exp_avg_sq f4 [64, 26]
1.2256672e-07 0.0 1.0041452e-06 5.8763653e-08 0.0 2.1244494e-08 0.0 1.8678662e-08
3.9867035e-07 2.0218229e-07 2.962859e-07 1.6025794e-07 5.665684e-07 2.392277e-07 5.7730676e-07 1.3573523e-07
3.400111e-07 3.066716e-07 3.3624698e-07 7.077826e-07 2.177412e-07 7.412595e-07 2.1165489e-07 4.253577e-07
2.387292e-08 5.0735844e-07 2.3433678e-07 0.0 2.2310026e-06 3.7978356e-08 0.0 1.7001433e-08
0.0 3.6147625e-08 6.1841575e-07 1.3119597e-07 4.6646156e-07 1.5143699e-07 5.3181617e-07 1.9804635e-07
7.748229e-07 9.235966e-08 3.8049285e-07 2.834857e-07 6.337409e-07 3.5701873e-07 1.9906625e-07 1.2615326e-06
3.4482238e-07 8.2554635e-07 2.0181412e-08 8.9227024e-07 3.9425466e-08 0.0 3.4932881e-07 1.2683757e-08
0.0 1.3011206e-08 0.0 6.136433e-09 1.97877e-07 2.3456657e-08 1.0542216e-07 8.161292e-08
1.9888331e-07 5.638078e-08 1.7991175e-07 4.8561276e-08 1.8610261e-07 1.4872248e-07 1.2230197e-07 1.2385183e-07
7.5782246e-08 2.2513048e-07 5.7033677e-08 1.4224725e-07 9.99045e-09 1.6596913e-07 8.6628816e-08 0.0
8.139662e-07 1.9270631e-08 0.0 1.41612215e-08 0.0 1.2316059e-08 2.7603434e-07 5.1264344e-08
2.1075522e-07 7.743052e-08 2.9837875e-07 5.5759514e-08 3.0551413e-07 7.0605026e-08 1.5928548e-07 2.284743e-07
2.1278825e-07 2.9946443e-07 6.705911e-08 4.924636e-07 1.4629121e-07 3.1761812e-07 1.3476004e-08 3.4068586e-07
6.737015e-08 0.0 5.819778e-07 1.8706183e-08 0.0 1.1405005e-08 0.0 1.1346715e-08
2.0140769e-07 6.86856e-08 1.3219375e-07 9.687033e-08 2.4794815e-07 1.3810214e-07 2.8067274e-07 8.99802e-08
1.786219e-07 3.9475938e-07 2.0087748e-07 6.61248e-07 1.6082659e-07 3.2162689e-07 1.13557576e-07 2.400065e-07
1.4596084e-08 2.2700628e-07 1.6700653e-07 0.0 1.3879411e-06 4.1022485e-08 0.0 1.361944e-08
0.0 1.1844577e-08 6.7135556e-07 7.247133e-08 2.3761407e-07 1.582628e-07 9.1902825e-07 2.1958718e-07
5.2453333e-07 1.833187e-07 1.9454936e-07 4.696085e-07 5.615538e-07 5.8646634e-07 1.7005247e-07 7.824085e-07
3.707335e-07 5.670801e-07 2.2921403e-08 8.1471023e-07 4.0307816e-07 0.0 3.9303695e-06 5.6737992e-08
0.0 3.766641e-08 0.0 6.059501e-08 1.0247827e-06 1.1092755e-07 6.5053104e-07 1.9632866e-07
7.921012e-07 1.9352483e-07 9.721001e-07 2.4264935e-07 5.7383903e-07 9.170009e-07 9.990714e-07 9.466963e-07
3.8185317e-07 2.0587086e-06 4.508314e-07 1.4136784e-06 3.372021e-08 1.4197277e-06 3.01068e-08 0.0
2.2796387e-07 4.8474096e-09 0.0 6.960171e-09 0.0 9.052371e-09 7.37488e-08 2.9702493e-08
6.0719564e-08 9.744089e-08 1.6978572e-07 1.536447e-07 1.2026386e-07 5.4924673e-08 1.2166326e-07 1.9196906e-07
8.632283e-08 1.3153262e-07 9.542558e-08 2.0747707e-07 6.331094e-08 1.0288688e-07 4.581584e-09 8.570214e-08
1.6214689e-07 0.0 1.4441827e-06 3.158069e-08 0.0 2.3935682e-08 0.0 2.7629593e-08
4.965937e-07 8.585463e-08 2.5235653e-07 1.6532618e-07 4.809227e-07 1.2219634e-07 4.7191438e-07 1.6454983e-07
4.2312578e-07 5.1980777e-07 2.7186434e-07 4.570349e-07 2.3457187e-07 8.7003116e-07 1.7734568e-07 5.765626e-07
3.3099234e-08 5.709407e-07 4.036843e-08 0.0 3.5574735e-07 1.3521976e-08 0.0 8.64686e-09
0.0 8.339715e-09 1.8495098e-07 3.9626975e-08 8.737266e-08 1.3605174e-07 2.4252205e-07 1.3171793e-07
1.4925567e-07 1.09187006e-07 1.642016e-07 3.9152053e-07 1.6659526e-07 5.762213e-07 1.3816788e-07 2.6877083e-07
00000000: e29a 0334 0000 0000 2bc6 8635 5263 7c33
00000010: 0000 0000 237d b632 0000 0000 d072 a032
00000020: d608 d634 7217 5934 3911 9f34 5e13 2c34
00000030: 4916 1835 346f 8034 38f8 1a35 9ebe 1134
00000040: c58a b634 a0a4 a434 6f85 b434 73fe 3d35
00000050: 3fcc 6934 f7fa 4635 4143 6334 b85c e434
00000060: 1b11 cd32 6831 0835 019e 7b34 0000 0000
00000070: 55b8 1536 a51d 2333 0000 0000 8c0a 9232
00000080: 0000 0000 bc40 1b33 3501 2635 e0de 0c34
00000090: fd6d fa34 af9a 2234 21c2 0e35 91a6 5434
000000a0: 6dfd 4f35 4357 c633 8a46 cc34 fa31 9834
000000b0: 581e 2a35 48ac bf34 eabe 5534 ee51 a935
000000c0: 0720 b934 1d9b 5d35 655b ad32 5884 6f35
000000d0: c254 2933 0000 0000 638b bb34 c1e7 5932
000000e0: 0000 0000 e487 5f32 0000 0000 a3d8 d231
000000f0: 0478 5434 bc7d c932 7264 e233 2d43 af33
00000100: a18c 5534 5327 7233 c42d 4134 b091 5033
00000110: 7fd3 4734 86b0 1f34 1c52 0334 22fc 0434
00000120: bbbd a233 65bb 7134 31f5 7433 a0bc 1834
00000130: 77a2 2b32 3f35 3234 b208 ba33 0000 0000
00000140: 557f 5a35 9188 a532 0000 0000 b649 7332
00000150: 0000 0000 9a96 5332 df31 9434 be2d 5c33
00000160: f44b 6234 e147 a633 dd30 a034 3c7c 6f33
00000170: 8b05 a434 869f 9733 0f08 2b34 8a52 7534
00000180: ca7a 6434 14c6 a034 2302 9033 d731 0435
00000190: 3914 1d34 1a85 aa34 1884 6732 82e7 b634
000001a0: 22ad 9033 0000 0000 3639 1c35 55af a032
000001b0: 0000 0000 beef 4332 0000 0000 61ef 4232
000001c0: 8642 5834 4f80 9333 24f1 0d34 0707 d033
000001d0: bc1d 8534 3a49 1434 5eaf 9634 233b c133
000001e0: 37cb 3f34 51ef d334 c8b0 5734 9e80 3135
000001f0: adaf 2c34 10ac ac34 f0dc f333 3eda 8034
00000200: 42c2 7a32 03bf 7334 6852 3334 0000 0000
00000210: 4b49 ba35 b330 3033 0000 0000 eefa 6932
00000220: 0000 0000 007d 4b32 3437 3435 89a1 9b33
00000230: dc22 7f34 f2ee 2934 24b3 7635 aac7 6b34
00000240: a8cd 0c35 43d6 4434 52e5 5034 801e fc34
00000250: afbd 1635 a96d 1d35 ab97 3634 b406 5235
00000260: 3909 c734 7339 1835 b3e4 c432 76b2 5a35
00000270: a466 d834 0000 0000 9ee1 8336 15b0 7333
00000280: 0000 0000 a8c6 2133 0000 0000 7620 8233
00000290: 448b 8935 1137 ee33 27a0 2e35 69ce 5234
000002a0: c8a0 5435 b3cb 4f34 1b79 8235 7945 8234
000002b0: eb09 1a35 d227 7635 d517 8635 7920 7e35
000002c0: 8001 cd34 5828 0a36 cc09 f234 9fbd bd35
000002d0: c3d3 1033 798d be35 c74e 0133 0000 0000
000002e0: 3bc6 7434 448e a631 0000 0000 5026 ef31
000002f0: 0000 0000 c084 1b32 d55f 9e33 7924 ff32
00000300: ef64 8233 b240 d133 584e 3634 89f9 2434
00000310: e121 0134 51e6 6b33 8ba2 0234 0e20 4e34
00000320: 7a60 b933 693b 0d34 c4ec cc33 ddc6 5e34
00000330: 8ff5 8733 a9f2 dc33 0a6c 9d31 400b b833
00000340: 991a 2e34 0000 0000 bdd5 c135 56a3 0733
00000350: 0000 0000 1f9b cd32 0000 0000 1e56 ed32
00000360: a94d 0535 155f b833 9e7b 8734 8484 3134
00000370: c218 0135 1335 0334 6b5b fd34 1daf 3034
00000380: f729 e334 eb88 0b35 c0f4 9134 665e f534
00000390: a0de 7b34 168c 6935 696c 3e34 15c5 1a35
000003a0: fe28 0e33 bf42 1935 8f61 2d33 0000 0000
000003b0: 8bfd be34 484e 6832 0000 0000 4b8d 1432
000003c0: 0000 0000 7446 0f32 f096 4634 5232 2a33
000003d0: a1a1 bb33 9e15 1234 fa33 8234 596e 0d34
000003e0: 1643 2034 317a ea33 644f 3034 2c32 d234
000003f0: 5be1 3234 a0ad 1a35 4c5b 1434 954b 9034

exp_avg f4 [64]
-0.0006125809 -0.0010203718 -2.7335177e-06 -0.0007571423 -0.00029135798 0.0010659132 -0.0015684761 0.00032307833
0.00015024898 -0.00067395583 1.7207078e-05 -0.0013569086 0.00012348122 0.00087981264 -0.00049841905 0.00064974354
-0.00012929397 0.0009725017 0.00036221585 3.7010882e-06 -0.0005177025 -4.048169e-05 -0.0003028412 0.0009467935
0.00072743994 0.00092742604 0.0002278463 0.00013127305 0.0005760465 9.30458e-05 0.0007681613 -3.9483737e-05
-3.25563e-05 -0.0005012128 -0.00067777565 0.00025044335 0.00036374206 0.0003328849 -3.1570286e-05 0.0009413822
0.00012497901 0.0011149943 -0.00044784445 0.001299658 -0.00018627162 0.0003478372 1.7202381e-05 0.000106855565
-0.00054148695 -1.5072652e-05 -0.0011816679 0.00023371307 0.00084798556 0.00022687145 -0.0007667945 -0.00051154394
-4.633204e-05 -0.00023074751 0.0007988769 0.00023101241 -0.0019568405 0.00021028431 0.00092734577 0.00029890504
00000000: 9c95 20ba ffbd 85ba 7a71 37b6 f67a 46ba
00000010: 68c1 98b9 1db6 8b3a 5395 cdba d762 a939
00000020: 278c 1d39 69ac 30ba eb57 9037 4cda b1ba
00000030: bd7a 0139 3aa3 663a 56a8 02ba 8d53 2a3a
00000040: 1693 07b9 7cef 7e3a cae7 bd39 3660 7836
00000050: 6db6 07ba e2ca 29b8 a8c6 9eb9 3c32 783a
00000060: abb1 3e3a 821e 733a 07ea 6e39 57a6 0939
00000070: d401 173a 9521 c338 6f5e 493a 579b 25b8
00000080: 108d 08b8 d263 03ba c1ac 31ba f04d 8339
00000090: a2b4 be39 0e87 ae39 566a 04b8 17c7 763a
000000a0: cc0c 0339 0025 923a aacc eab9 4959 aa3a
000000b0: e851 43b9 eb5d b639 d54d 9037 a517 e038
000000c0: 93f2 0dba 8ce0 7cb7 32e2 9aba e010 7539
000000d0: 594b 5e3a 57e4 6d39 b502 49ba 2219 06ba
000000e0: a654 42b8 d0f4 71b9 b96b 513a ec3b 7239
000000f0: 563e 00bb c47f 5c39 1f19 733a 5bb6 9c39

exp_avg_sq f4 [64]
1.0041458e-06 2.2310023e-06 3.4932887e-07 8.1396604e-07 5.819778e-07 1.3879411e-06 3.9303695e-06 2.2796405e-07
1.4441832e-06 3.557473e-07 4.4158864e-07 1.1739469e-06 1.5215329e-07 5.298583e-07 3.5271515e-07 4.9186735e-07
3.5815088e-07 8.8887106e-07 4.8650827e-07 3.2916518e-07 1.5125805e-06 1.5203075e-06 5.9253796e-07 1.7127533e-06
2.9979137e-07 3.1295585e-06 1.9736532e-07 1.3426882e-06 1.694532e-07 1.295001e-06 7.8917986e-07 9.218883e-07
5.1455453e-07 4.7399408e-07 8.022268e-07 1.0256507e-06 1.5478684e-06 1.5906028e-07 3.4730513e-07 7.507105e-07
1.5086027e-07 4.622338e-07 3.837065e-07 7.934585e-07 4.9863553e-07 6.521101e-07 7.7158256e-07 9.642011e-07
8.9419626e-07 7.094939e-07 1.6113513e-06 2.4959016e-07 2.8598527e-06 5.5300984e-07 4.71964e-07 1.8162113e-07
3.5525008e-07 6.7636086e-07 3.9911023e-07 1.6341037e-06 3.0096103e-06 2.4594692e-07 2.367831e-07 1.0303185e-07
00000000: 30c6 8635 54b8 1536 658b bb34 527f 5a35
00000010: 3639 1c35 4b49 ba35 9ee1 8336 48c6 7434
00000020: c2d5 c135 89fd be34 7b13 ed34 8290 9d35
00000030: 945f 2334 963b 0e35 cd5c bd34 de08 0435
00000040: e247 c034 c19a 6e35 9898 0235 1eb8 b034
00000050: df03 cb35 5e0d cc35 e60e 1f35 c1e1 e535
00000060: 03f3 a034 6805 5236 5eeb 5334 6a36 b435
00000070: f1f2 3534 e5cf ad35 07d8 5335 ae77 7735
00000080: eb1f 0a35 4079 fe34 9b58 5735 17a9 8935
00000090: 5ac0 cf35 28ca 2a34 4175 ba34 6f84 4935
000000a0: 28fc 2134 ee28 f834 3800 ce34 0efe 5435
000000b0: f9d9 0535 aa0c 2f35 c01e 4f35 b369 8135
000000c0: b308 7035 0d74 3e35 9c45 d835 69ff 8534
000000d0: e5eb 3f36 8c72 1435 3d62 fd34 a303 4334
000000e0: 33b9 be34 2a8f 3535 4b45 d634 6053 db35
000000f0: b6f8 4936 b00a 8434 713e 7e34 5c42 dd33

exp_avg f4 [32, 64]
-0.00050465355 0.00012075726 -0.0011816032 -8.059295e-05 0.00018609386 0.00044509995 0.00035027132 0.00066401856
-0.00026727552 0.00046175573 -7.597318e-05 -0.00020157764 -0.0020588883 0.00051908573 -0.00082171155 -6.919229e-05
-0.0002619939 -0.00026006406 -1.1032226e-05 -0.00066189206 0.0022635867 0.0003391721 -4.7194328e-05 -0.00015708385
0.0004651025 0.0006012764 -0.0011965767 -0.0010032991 -0.00031133223 -0.0013118889 0.00047365713 -0.0005457504
0.0007520585 0.0010232812 -0.00017753751 -0.00051009736 0.00042747194 0.00048713587 -0.00032444188 -0.0010251245
-0.001318373 0.0004990362 1.0264261e-05 7.570847e-05 1.8688222e-06 -8.665061e-06 -7.5282675e-05 -0.00013470602
0.00031794078 -0.00057347695 0.00065022556 -4.7901005e-05 -1.8813247e-05 -0.0006434995 0.0004958805 -0.0012646962
0.0010539157 -0.0011142096 -0.0005263521 0.00052390445 -4.735935e-06 -0.00032198295 6.194959e-06 -0.0005319866
-0.00043755828 -0.00021560764 -0.0012461228 -0.00055503764 -0.00020073589 -0.00077003543 0.00079186464 0.001510531
-0.0013455745 -0.00014574303 0.0013306313 -0.0005163953 -0.0016705075 0.0014252681 3.84601e-05 -0.00013296978
0.0005802269 -0.0011331334 -0.00025713266 -0.0011974789 0.0017038753 0.0009652006 0.00017669135 -0.00043113754
0.0002449884 0.0005296898 -0.00022812633 -0.0007900232 -0.0001716872 -0.00083267764 0.00069794396 -0.00060407945
0.0005921521 0.0019420286 0.0005011375 6.852654e-05 0.0014812667 -0.0005090394 -0.0007003024 -0.0002985666
-0.001287081 0.001903582 -0.00074270583 -0.0006788535 -0.00068288983 -0.000607322 -0.00060875574 0.0010300681
3.4635814e-05 -0.0004884703 3.7341888e-05 -0.00043911114 1.5170604e-05 -0.0003259252 0.00028706115 -0.000996499
-0.00010687967 -2.7361048e-05 -0.00021865734 0.0007553467 0.00064006157 0.00049627357 -4.7042242e-05 4.9367736e-05
0.0009332695 0.00017930566 0.0009829934 -0.00036942412 0.00079085445 -0.0004072989 0.00097285205 -0.00092038105
0.0008408223 -0.0013113784 0.00012272876 -0.00024607492 0.0005314241 0.00044362977 0.001146476 0.0018532267
0.00065878755 5.143502e-05 0.00021609069 0.00078279036 -0.0011042004 0.000955414 -0.00016628366 -8.621277e-05
-0.0007140277 -0.00035455052 -9.079855e-05 -0.00024324865 -0.00040419766 0.0021488597 -0.0006594417 -0.00021294538
-0.00018208305 -0.00063826446 0.00031150808 -4.0568826e-05 -0.0006953666 -0.0004329354 -6.406646e-05 0.0005125857
0.0012004633 -0.00052181265 0.0004987732 0.00031670256 0.0013676654 -0.00081678235 -0.00042353757 -0.00032754318
0.0005996728 0.00095557474 -0.0011789018 0.00030095555 0.0003059313 -0.00045884144 -0.00093697547 0.00010872651
-0.0012281153 -3.828918e-05 0.0011696905 -0.00072569674 0.00027585914 -0.0006372423 -0.00022057496 0.00054750766
-0.00091878546 -5.820517e-05 -0.00039415565 0.0010202983 0.00033976423 -0.00046786165 -0.00014169909 -0.00055633514
0.001196777 0.00061906525 -0.0007588467 -0.00019736741 0.00019076242 -0.0015785592 0.0002533916 0.00037106642
-0.002329549 0.00043375892 0.0004785027 -0.00047721516 0.00046606516 -0.0011289616 -0.0013503867 0.00087924954
0.0002449122 0.0004926378 -0.00055081927 -0.0012189295 0.00026286978 -1.4248005e-05 -0.00032362872 0.0004198886
-0.00042504788 -0.00027231703 0.00014857747 0.0012123048 -0.00062704197 -0.00026738003 -0.00045953455 -0.00054326095
-0.00042675625 -0.001089581 -6.008555e-05 0.0009210721 0.001617897 -0.00021411337 0.000100187644 -0.0015573252
0.0021981683 -0.00030662966 0.0017989799 0.0001552626 -1.3623014e-05 0.00015884559 3.448213e-05 -0.0007580688
9.0499794e-05 -0.00060672883 -0.0009053706 -0.0007709997 -0.0007593573 -0.0006474973 -0.00010697354 -0.0012158453
00000000: ba4a 04ba 0f3f fd38 06e0 9aba 0304 a9b8
00000010: 3122 4339 4e5c e939 9fa4 b739 8811 2e3a
00000020: 1d21 8cb9 ce17 f239 ca53 9fb8 965e 53b9
00000030: 6aee 06bb 4113 083a 2168 57ba 541b 91b8
00000040: 3a5c 89b9 3559 88b9 0d17 39b7 d382 2dba
00000050: af58 143b e9d2 b139 86f2 45b8 e0b6 24b9
00000060: 00d9 f339 fa9e 1d3a 74d6 9cba 2281 83ba
00000070: 4e3a a3b9 b0f3 abba 2f55 f839 b010 0fba
00000080: cb25 453a 9f1f 863a 5d29 3ab9 0eb8 05ba
00000090: 501e e039 4566 ff39 da19 aab9 785d 86ba
000000a0: 42cd acba c1d1 023a aa34 2c37 adc5 9e38
000000b0: 3ed4 fa35 2760 11b7 14e1 9db8 df3f 0db9
000000c0: 4ab1 a639 6355 16ba e673 2a3a 50e9 48b8
000000d0: 24d1 9db7 85b0 28ba fafd 013a 2ac4 a5ba
000000e0: 8b23 8a3a ac0a 92ba e4fa 09ba a256 093a
000000f0: 5fe9 9eb6 d2cf a8b9 4bde cf36 0475 0bba
00000100: 1468 e5b9 bc14 62b9 f154 a3ba f27f 11ba
00000110: a17c 52b9 34dc 49ba 2395 4f3a 02fd c53a
00000120: fd5d b0ba 99d2 18b9 9468 ae3a b45e 07ba
00000130: eef4 daba 10d0 ba3a 3850 2138 ce6d 0bb9
00000140: 5e1a 183a a685 94ba c3cf 86b9 b9f4 9cba
00000150: 9154 df3a 8405 7d3a 3946 3939 4d0a e2b9
00000160: c971 8039 e1da 0a3a 3235 6fb9 8f19 4fba
00000170: ef06 34b9 0d48 5aba 3af6 363a 165b 1eba
00000180: a83a 1b3a ab8b fe3a c55e 033a e8b5 8f38
00000190: 1027 c23a 0e71 05ba 8094 37ba ee88 9cb9
000001a0: 46b3 a8ba 9d81 f93a 25b2 42ba 16f5 31ba
000001b0: f603 33ba b134 1fba e894 1fba 5a03 873a
000001c0: ec45 1138 b00c 00ba 8c9f 1c38 8038 e6b9
000001d0: 3f85 7e37 f1e0 aab9 b280 9639 f59c 82ba
000001e0: 9624 e0b8 6785 e5b7 6247 65b9 7502 463a
000001f0: cec9 273a 5b18 023a 394f 45b8 3410 4f38
00000200: a8a6 743a ff03 3c39 c9d7 803a 44af c1b9
00000210: 5851 4f3a bc8a d5b9 ff06 7f3a ba45 71ba
00000220: a16a 5c3a 8fe2 abba c0b0 0039 9e03 81b9
00000230: 454f 0b3a fb96 e839 5a45 963a f8e7 f23a
00000240: 7cb2 2c3a efbb 5738 6796 6239 2c34 4d3a
00000250: d1ba 90ba c074 7a3a 6e5c 2eb9 21cd b4b8
00000260: 962d 3bba f7e2 b9b9 1a6b beb8 9010 7fb9
00000270: 7eea d3b9 e2d3 0c3b 62de 2cba 174a 5fb9
00000280: 8ced 3eb9 3451 27ba e851 a339 7228 2ab8
00000290: 4349 36ba 9bfb e2b9 6b5b 86b8 0b5f 063a
000002a0: dd58 9d3a 41ca 08ba 1ac0 023a 190b a639
000002b0: 3c43 b33a 561d 56ba 400e deb9 1aba abb9
000002c0: 5c33 1d3a 897f 7a3a 6185 9aba 92c9 9d39
000002d0: 6765 a039 a890 f0b9 5c9f 75ba 1a04 e438
000002e0: b6f8 a0ba b298 20b8 4d50 993a af3c 3eba
000002f0: 30a1 9039 9b0c 27ba 244a 67b9 9e86 0f3a
00000300: a6da 70ba 5321 74b8 ada6 ceb9 88bb 853a
00000310: 6222 b239 544b f5b9 0f95 14b9 05d7 11ba
00000320: 2cdd 9c3a c448 223a 57ed 46ba 69f4 4eb9
00000330: 6607 4839 a8e7 ceba a5d9 8439 b18b c239
00000340: 59ab 18bb 236a e339 8cdf fa39 bc32 fab9
00000350: 355a f439 aaf9 93ba 75ff b0ba 707d 663a
00000360: 8f67 8039 5d24 013a db64 10ba 7dc4 9fba
00000370: c9d1 8939 b70a 6fb7 b6ac a9b9 7e24 dc39
00000380: f6d8 deb9 c6c5 8eb9 76cb 1b39 33e6 9e3a
00000390: 1360 24ba 242f 8cb9 afed f0b9 a069 0eba
000003a0: 41be dfb9 46d0 8eba 5e04 7cb8 1a74 713a
000003b0: 9d0f d43a 9f83 60b9 d51b d238 2a1f ccba
000003c0: 250f 103b 23c3 a0b9 c0cb eb3a fdcd 2239
000003d0: 668e 64b7 ca8f 2639 e8a0 1038 23b9 46ba
000003e0: b5ca bd38 e20c 1fba 6456 6dba ea1c 4aba
000003f0: 9b0f 47ba cfbc 29ba fb56 e0b8 005d 9fba

exp_avg_sq f4 [32, 64]
1.8962972e-07 9.2137384e-08 2.8356257e-07 1.870335e-07 3.4843276e-07 2.0815268e-07 4.355249e-07 3.7398692e-07
2.6994945e-07 1.8727563e-07 3.770016e-07 8.7399954e-08 7.376883e-07 1.462059e-07 4.409327e-07 3.7722378e-07
3.6029823e-07 3.531138e-07 1.3133229e-07 3.2386873e-07 2.2585343e-07 1.8199636e-07 3.40588e-07 3.4933905e-07
2.9336493e-07 2.3504597e-07 6.621497e-07 2.0835496e-07 1.993584e-07 5.0534845e-07 5.551215e-07 6.890966e-08
3.6069102e-07 5.8832836e-07 2.3779887e-07 2.7144097e-07 3.7094676e-07 1.3793908e-06 2.1601788e-07 1.3058863e-07
3.2379563e-07 2.812788e-07 2.2471347e-07 7.0213605e-07 6.313122e-07 3.273038e-07 3.0814272e-07 3.4177708e-07
2.5557875e-07 2.468513e-07 2.3529668e-07 1.902509e-07 8.067025e-08 2.7956577e-07 4.627907e-07 2.2240634e-07
3.7434413e-07 2.1221085e-07 1.9592517e-07 1.5677753e-07 1.5302561e-07 6.9242003e-07 1.9021553e-07 1.9692837e-07
3.430915e-07 1.659601e-07 4.3250196e-07 2.9291144e-07 4.3054644e-07 3.1320062e-07 5.462459e-07 4.929969e-07
4.5165663e-07 1.9118592e-07 4.4630679e-07 1.5518667e-07 8.984789e-07 3.6911376e-07 4.886059e-07 4.7649092e-07
4.025837e-07 4.2930023e-07 2.6280395e-07 3.8914823e-07 2.2794558e-07 3.709287e-07 4.897154e-07 4.3644198e-07
2.8153772e-07 3.160052e-07 8.713983e-07 3.3297783e-07 3.6138354e-07 7.585629e-07 7.44659e-07 1.303986e-07
5.099418e-07 8.022782e-07 3.4987912e-07 3.7784963e-07 4.821347e-07 1.5080151e-06 3.3634893e-07 1.5030275e-07
4.3622407e-07 5.106017e-07 3.6526276e-07 9.935404e-07 7.507146e-07 5.7206125e-07 5.6156455e-07 6.3366576e-07
3.9662086e-07 3.1587487e-07 3.0172762e-07 2.3098609e-07 2.3334445e-07 3.422257e-07 5.2221685e-07 1.9953727e-07
5.986577e-07 2.5897646e-07 2.6171026e-07 2.4520654e-07 2.6719525e-07 7.782887e-07 1.9166751e-07 2.742877e-07
2.0356737e-07 2.7084488e-07 4.7268688e-07 2.6751283e-07 1.1882031e-06 6.186157e-07 1.0556673e-06 1.0587722e-06
7.5191923e-07 3.3078635e-07 1.2234799e-06 1.4509156e-07 1.9128104e-06 3.3040226e-07 1.153722e-06 1.3524577e-06
1.0599122e-06 8.582522e-07 2.3655807e-07 1.123243e-06 2.5069147e-07 3.4854358e-07 6.9753514e-07 5.4373936e-07
7.079415e-07 8.1453175e-07 1.1101232e-06 2.0902141e-07 3.0270976e-07 1.1625402e-06 1.1848767e-06 1.12553714e-07
1.1351739e-06 1.4520026e-06 5.9802426e-07 5.310744e-07 8.627356e-07 4.1275166e-06 2.426814e-07 3.0505072e-07
6.301885e-07 5.0033765e-07 7.463222e-07 1.7125157e-06 1.6792447e-06 6.8486685e-07 9.1432116e-07 7.1433146e-07
3.8290574e-07 5.4018614e-07 3.8705815e-07 3.1267496e-07 9.423405e-08 8.4972135e-07 1.1619117e-06 3.935151e-07
7.6763456e-07 3.3898482e-07 2.9961882e-07 3.0826016e-07 1.8686872e-07 2.1096926e-06 2.9752846e-07 1.8914777e-07
2.7680431e-07 1.1878896e-07 3.2272658e-07 2.6119858e-07 9.993689e-07 2.9678768e-07 1.1320876e-06 7.768309e-07
6.151286e-07 1.8701122e-07 8.004808e-07 1.8369212e-07 1.6560554e-06 4.918775e-07 8.038578e-07 8.871968e-07
1.1701529e-06 7.719533e-07 2.597589e-07 8.499559e-07 1.7177916e-07 4.4548528e-07 5.420124e-07 3.9704508e-07
5.492799e-07 4.6214132e-07 1.4252305e-06 2.2559114e-07 2.815181e-07 1.1778804e-06 1.387932e-06 1.4332777e-07
8.5844886e-07 1.2460738e-06 4.9220955e-07 2.4720026e-07 6.074679e-07 3.3149076e-06 1.914759e-07 2.1043772e-07
4.2714316e-07 6.5862946e-07 4.1906742e-07 1.6926982e-06 1.3193603e-06 6.2868367e-07 7.595757e-07 6.9894054e-07
4.8766225e-07 4.2245964e-07 4.403977e-07 1.9638772e-07 1.4889861e-07 6.7376175e-07 8.6822126e-07 1.8383594e-07
5.7561437e-07 3.381241e-07 2.0958382e-07 2.4892077e-07 2.6329974e-07 1.7102807e-06 2.2707972e-07 2.3271107e-07
00000000: 059d 4b34 10dd c533 8b3c 9834 61d3 4834
00000010: 3c10 bb34 9380 5f34 16d2 e934 5fc8 c834
00000020: 92ed 9034 ef15 4934 b566 ca34 a2b0 bb33
00000030: 8e05 4635 c6fc 1c34 54b9 ec34 3e85 ca34
00000040: 036f c134 9793 bd34 5804 0d34 2ee0 ad34
00000050: 1e82 7234 c76a 4334 0fda b634 cb8c bb34
00000060: c57f 9d34 f260 7c34 95be 3135 2db8 5f34
00000070: 380f 5634 48a7 0735 a903 1535 7cfb 9333
00000080: ffa4 c134 9eed 1d35 a855 7f34 90ba 9134
00000090: 8926 c734 8223 b935 8bf2 6734 ee37 0c34
000000a0: 22d6 ad34 aa02 9734 c548 7134 6c7a 3c35
000000b0: 7277 2935 4bb8 af34 d06e a534 7c7d b734
000000c0: 7a36 8934 fc86 8434 dca5 7c34 c547 4c34
000000d0: f03c ad33 3a17 9634 7875 f834 97ce 6e34
000000e0: 77f9 c834 13dc 6334 805f 5234 ae56 2834
000000f0: 5c4f 2434 bede 3935 0c3e 4c34 4273 5334
00000100: 2332 b834 c432 3234 9e32 e834 7141 9d34
00000110: da25 e734 f725 a834 bba1 1235 7d56 0435
00000120: 377b f234 c948 4d34 f09b ef34 63a1 2634
00000130: 002f 7135 9c2a c634 be28 0335 6ad0 ff34
00000140: af22 d834 937a e634 8017 8d34 20ec d034
00000150: 34c1 7434 0d24 c734 fc74 0335 2150 ea34
00000160: 4026 9734 6da7 a934 09ea 6935 20c4 b234
00000170: 2d04 c234 0ca0 4b35 94e4 4735 b203 0c34
00000180: efe2 0835 235c 5735 05d7 bb34 42db ca34
00000190: 0b6c 0135 0167 ca35 7293 b434 e862 2134
000001a0: 2e32 ea34 4810 0935 5519 c434 ca59 8535
000001b0: b784 4935 c08f 1935 6cbe 1635 2e19 2a35
000001c0: 28ef d434 8395 a934 21fd a134 f904 7834
000001d0: 3c8d 7a34 24bb b734 782e 0c35 6340 5634
000001e0: 72b3 2035 7409 8b34 2f81 8c34 eea4 8334
000001f0: 0973 8f34 98eb 5035 2acd 4d34 d041 9334
00000200: 2c94 5a34 a368 9134 97c5 fd34 af9e 8f34
00000210: 597a 9f35 f20e 2635 74b0 8d35 231b 8e35
00000220: 7fd7 4935 ee96 b134 7336 a435 77ca 1b34
00000230: d55d 0036 2462 b134 96d9 9a35 1886 b535
00000240: 4e42 8e35 a462 6635 9600 7e34 56c2 9635
00000250: c696 8634 771f bb34 403e 3b35 7cf5 1135
00000260: 5f09 3e35 32a6 5a35 8bff 9435 5e6f 6034
00000270: 1d84 a234 9408 9c35 0e08 9f35 0fb5 f133
00000280: 475c 9835 6ee2 c235 ea87 2035 288f 0e35
00000290: bd96 6735 197f 8a36 e149 8234 dac5 a334
000002a0: 392a 2935 f14e 0635 df56 4835 97d9 e535
000002b0: 6962 e135 b1d7 3735 ac6f 7535 7cc0 3f35
000002c0: 2a92 cd34 4f01 1135 decc cf34 b8dd a734
000002d0: b85d ca33 6818 6435 fbf2 9b35 4e44 d334
000002e0: 720f 4e35 b8fd b534 4cdb a034 f47e a534
000002f0: 15a6 4834 3e94 0d36 00bc 9f34 8b18 4b34
00000300: b29b 9434 ec18 ff33 3443 ad34 dc3a 8c34
00000310: 0e22 8635 3056 9f34 3cf2 9735 6a87 5035
00000320: 511f 2535 41cd 4834 9fe0 5635 e83c 4534
00000330: a145 de35 9009 0435 b0c8 5735 b327 6e35
00000340: 260e 9d35 3a38 4f35 fe74 8b34 8628 6435
00000350: 4c72 3834 082b ef34 cf7e 1135 7629 d534
00000360: 3a72 1335 381c f834 8c4a bf35 053a 7234
00000370: 8e23 9734 aa17 9e35 fb48 ba35 a3e5 1934
00000380: 2870 6635 c53e a735 6220 0435 f2b6 8434
00000390: e010 2335 ae75 5e36 7f98 4d34 aef4 6134
000003a0: 1c52 e534 accc 3035 30fc e034 ab30 e335
000003b0: e014 b135 d0c2 2835 a5e5 4b35 d49e 3b35
000003c0: e5e7 0235 69ce e234 cd6f ec34 a5de 5234
000003d0: f0e0 1f34 8edc 3435 b60f 6935 7064 4534
000003e0: eb83 1a35 6c87 b534 f609 6134 69a3 8534
000003f0: a45b 8d34 cc8c e535 33d3 7334 22df 7934

exp_avg f4 [32]
-0.0014179706 -0.0010931169 -0.00036605334 0.002455686 0.0015306878 -0.00011826701 -0.0010200313 -0.00013770701
0.00041826948 0.0023464218 0.0006730818 -0.00075547467 0.0008778941 0.002220166 0.0017727327 -0.001026304
0.0019705887 0.001376766 0.00060235854 -0.00026029957 0.00035907183 -0.0008357322 -0.001480146 -0.0013761638
0.0014724954 -0.0005078467 0.0015463966 0.00255414 0.00059839076 -0.0011848396 0.0020469723 0.0027473846
00000000: 33db b9ba eb46 8fba d9ea bfb9 93ef 203b
00000010: 5ca1 c83a 1e06 f8b8 92b2 85ba 7265 10b9
00000020: 2e4b db39 6dc6 193b c171 303a 0c0b 46ba
00000030: 7a22 663a 3480 113b 0a5b e83a 0c85 86ba
00000040: fe24 013b 9a74 b43a 99e7 1d3a d178 88b9
00000050: ce41 bc39 0a15 5bba 7501 c2ba 6560 b4ba
00000060: bf00 c13a 0421 05ba 76b0 ca3a 5c63 273b
00000070: 53dd 1c3a 9f4c 9bba 7f26 063b 770d 343b

exp_avg_sq f4 [32]
2.919645e-06 3.4715727e-06 9.914179e-06 8.836165e-06 8.044098e-06 1.9464865e-06 3.3842027e-06 1.8349508e-06
2.71034e-06 3.742044e-06 2.1188407e-06 2.1887984e-06 2.7388246e-06 5.9435156e-06 1.0214108e-05 1.91972e-06
1.0740963e-05 7.864333e-06 3.1638008e-06 2.5330546e-06 2.494537e-06 1.1331043e-06 4.7879903e-06 2.3490852e-06
3.9042e-06 4.080972e-06 2.3779512e-06 2.5796678e-06 6.778906e-06 2.7986825e-06 7.1823624e-06 9.403221e-06
00000000: 1fef 4336 2af9 6836 1355 2637 0a3f 1437
00000010: 23f5 0637 62a0 0236 291c 6336 6e48 f635
00000020: 49e3 3536 d41f 7b36 6831 0e36 45e3 1236
00000030: a6cc 3736 696e c736 435d 2b37 8ad4 0036
00000040: 1634 3437 0ef1 0337 af51 5436 8cfd 2936
00000050: d267 2736 2b15 9835 86a8 a036 faa4 1d36
00000060: d300 8336 48ef 8836 e494 1f36 5b1e 2d36
00000070: 5c76 e336 00d1 3b36 0600 f136 87c2 1d37

exp_avg f4 [6, 32]
0.0010085722 0.0009300441 0.000104551844 0.0022337507 0.0072599887 -0.0007177337 -5.6828434e-05 -0.00056458544
-0.00013422489 -0.0006895217 -0.00067624747 0.0016625797 -0.00056797074 -0.0022679009 -0.006589956 0.0020304995
0.00077286747 -0.0008380731 -0.00012090682 -9.084393e-05 -0.005179367 -0.00065926113 0.0032932584 0.003273936
0.0029016598 0.0007316424 0.00019272922 -0.006181063 0.0026867958 -0.0053592357 0.0029381895 -0.004340253
0.00055723544 -0.0018011961 -0.0007792513 0.0010376067 -0.0019655898 0.0014154271 0.001940932 0.0016303943
0.000239144 1.8145416e-06 -0.0015237603 -0.0023838922 -0.0024805113 0.0042188307 0.0010103077 -0.0029235883
0.002440595 0.0006137506 -0.0030437382 -0.0013757925 0.0005443275 -0.0021679404 -0.0025351525 -0.0001791009
0.00019498024 0.004834885 -0.0019877495 -0.0021048745 -0.0012685923 -0.0018500994 -0.002299643 0.00024342479
0.00029515132 -0.00062121724 0.002605677 -0.001145677 -0.0032354742 0.0011415574 -0.0011764944 -0.00048839557
-0.0024910937 0.0022935057 -0.00057611265 -0.001602365 -0.00033228105 -0.00023073544 0.00087464694 0.002717859
-0.00011517961 -6.5565015e-05 0.0014305369 0.0016646326 -0.0006273999 0.001310193 0.00084536057 -0.00316481
-0.00069030817 -0.0025062729 0.0016285927 0.002103682 0.00047712796 0.004046105 -0.0021121595 -0.0012036992
0.002505514 -0.0004349511 -0.0014033004 0.0028524108 0.003276521 -0.0015747974 0.006437426 -0.0008085824
0.0020739606 -0.00028887362 -6.597435e-05 -0.0017538532 -0.0019753312 0.0047435705 -0.0006172368 -0.0017767965
0.00029620607 -0.0015822253 0.000995127 -0.000387049 0.0002619547 -0.0019655891 0.00031401843 -0.0013545904
0.0010210016 0.000984676 0.00087622437 -0.0014803383 -0.00016498049 -0.0032731674 0.002243657 -0.0013270496
0.0016107217 -0.00097283925 0.000101725964 0.0025442957 0.00060824066 -0.0012204001 -0.0014534302 -0.0011956197
0.0030171464 0.0013791749 -0.0018705385 -8.620286e-05 0.0049101263 0.00039745044 0.0040628393 -0.0036913403
-0.0006759869 -0.00399388 -0.0028089294 0.00123127 0.002114669 -0.0017513592 0.00028739293 -0.0017732905
0.002246846 -0.00035681852 -0.005066793 0.0024521595 -0.00074517954 -0.0020146538 -0.00011998475 0.0005130663
-0.0012061663 -0.0035870308 7.6805845e-05 -0.001344187 -0.004008183 0.0012160138 0.0021501489 0.0008334075
-0.0006912806 0.0017122894 0.0011259234 0.0001576717 0.0021261766 -0.0011078727 0.0008331966 0.00029276585
-0.0019051976 -0.0032678728 -0.0012058541 0.0020417701 -0.002501553 -0.0007394099 -0.0010399823 0.00042918613
-0.0019775964 -0.0016654177 0.00065812364 -0.00022160042 -0.0028354202 0.0014509314 -0.00092213805 -0.0040252493
00000000: 1132 843a 34ce 733a d842 db38 1e64 123b
00000010: 33e5 ed3b 4b26 3cba 115b 6eb8 b000 14ba
00000020: b8be 0cb9 05c1 34ba 3346 31ba ebea d93a
00000030: dfe3 14ba 10a1 14bb 8ff0 d7bb 2112 053b
00000040: 429a 4a3a 22b2 5bba 5b8f fdb8 7783 beb8
00000050: aeb7 a9bb 44d2 2cba b5d3 573b 888f 563b
00000060: c629 3e3b b1cb 3f3a 5b17 4a39 848a cabb
00000070: f414 303b 879c afbb a48e 403b ae38 8ebb
00000080: 7013 123a 1d16 ecba ab46 4cba 4e00 883a
00000090: 20d1 00bb da85 b93a df66 fe3a f4b2 d53a
000000a0: bbc2 7a39 2d8b f335 e9b8 c7ba 133b 1cbb
000000b0: 1390 22bb 1e3e 8a3b 4d6c 843a ac99 3fbb
000000c0: 64f2 1f3b 1be4 203a 7479 47bb f053 b4ba
000000d0: 33b1 0e3a 0114 0ebb cd24 26bb 08cd 3bb9
000000e0: 9c73 4c39 f46d 9e3b e744 02bb eff1 09bb
000000f0: e546 a6ba 097f f2ba 9bb5 16bb d83f 7f39
00000100: 8abe 9a39 2fd9 22ba 01c4 2a3b 8a2a 96ba
00000110: 400a 54bb 4fa0 953a 9a34 9aba ac07 00ba
00000120: 9e41 23bb a44e 163b 4406 17ba 7306 d2ba
00000130: 0236 aeb9 93f1 71b9 9048 653a 1c1e 323b
00000140: 958c f1b8 f37f 89b8 da80 bb3a cd2f da3a
00000150: 1878 24ba c8ba ab3a 309b 5d3a b368 4fbb
00000160: ccf5 34ba 4840 24bb 8176 d53a eddd 093b
00000170: 0827 fa39 3095 843b 286c 0abb 71c5 9dba
00000180: 8d33 243b 260a e4b9 f3ee b7ba 83ef 3a3b
00000190: e7ba 563b 6f69 ceba 0bf1 d23b 0cf7 53ba
000001a0: 49eb 073b f673 97b9 b65b 8ab8 8ce1 e5ba
000001b0: 8f74 01bb f46f 9b3b 0fce 21ba 66e3 e8ba
000001c0: 1b4c 9b39 ac62 cfba ec6e 823a d6ec cab9
000001d0: f756 8939 1dd1 00bb d7a2 a439 838c b1ba
000001e0: 21d3 853a 3e10 813a 6cb2 653a e907 c2ba
000001f0: 9dfe 2cb9 a382 56bb 510a 133b 65f0 adba
00000200: da1e d33a 2306 7fba b655 d538 33be 263b
00000210: 5772 1f3a d5f5 9fba 0681 beba 57b6 9cba
00000220: 51bb 453b 6ec5 b43a db2c f5ba cfc7 b4b8
00000230: 20e5 a03b e560 d039 9121 853b 6aea 71bb
00000240: b734 31ba 18df 82bb 0416 38bb 9162 a13a
00000250: 4296 0a3b dd8d e5ba 3aad 9639 c16d e8ba
00000260: d23f 133b 5f13 bbb9 5707 a6bb 69b4 203b
00000270: 2758 43ba 4808 04bb 52a0 fbb8 4c7f 063a
00000280: 3a18 9eba 6414 6bbb d312 a138 6e2f b0ba
00000290: 1357 83bb a762 9f3a 83e9 0c3b 0879 5a3a
000002a0: 0e37 35ba e66e e03a b893 933a ad54 2539
000002b0: 5357 0b3b 0a36 91ba e16a 5a3a 5e7e 9939
000002c0: d3b7 f9ba cf29 56bb c00d 9eba 38cf 053b
000002d0: 18f1 23bb f5d4 41ba 0450 88ba 6304 e139
000002e0: 909a 01bb 254a daba ee85 2c3a 695d 68b9
000002f0: 75d2 39bb 2e2d be3a a3bb 71ba 3de6 83bb

exp_avg_sq f4 [6, 32]
4.605541e-07 1.8283638e-06 1.039663e-06 1.0401129e-06 4.7280505e-06 8.164931e-07 1.4089237e-06 1.0833252e-06
8.7749584e-07 1.0689364e-06 1.0318805e-06 3.9428314e-06 1.4070783e-06 4.5240945e-06 4.1540998e-06 1.6088896e-06
1.2100757e-06 1.9337415e-06 2.6351768e-06 9.2909926e-07 4.6575624e-06 6.5571595e-07 1.4786829e-06 3.982227e-06
1.0946947e-06 2.01927e-06 2.2542915e-06 2.3062385e-06 1.6030958e-06 1.5977087e-06 2.608488e-06 1.6996656e-06
4.1809727e-07 2.1635344e-06 1.6462171e-06 1.1919767e-06 2.8612878e-06 1.0212232e-06 8.77422e-07 1.7723313e-06
1.6688224e-06 1.7723078e-06 1.5078026e-06 7.334784e-06 1.7792992e-06 7.644713e-06 2.6847358e-06 1.3365153e-06
2.162019e-06 2.8012932e-06 4.3759296e-06 8.2186483e-07 5.274695e-06 6.9887e-07 1.043548e-06 5.401953e-06
8.8368364e-07 4.185993e-06 4.367059e-06 1.4240392e-06 1.6554708e-06 8.7067747e-07 4.0141754e-06 1.0610227e-06
4.3898413e-07 3.367037e-06 2.9460105e-06 1.3039873e-06 4.630661e-06 1.0994331e-06 2.4632395e-06 2.0824377e-06
2.1518051e-06 2.8287297e-06 1.807378e-06 1.049691e-05 1.9685524e-06 9.7380935e-06 3.4865188e-06 2.7529243e-06
2.5267686e-06 4.988854e-06 6.0023717e-06 1.4256443e-06 6.8624354e-06 9.56587e-07 1.7332391e-06 9.345347e-06
7.852671e-07 4.4693747e-06 5.6471004e-06 1.4202043e-06 3.1133873e-06 1.0968639e-06 5.703268e-06 1.3360581e-06
1.1102545e-06 2.9943692e-06 1.422531e-06 2.1971168e-06 6.7310943e-06 1.4740647e-06 3.7608456e-06 3.1510951e-06
3.7030607e-06 8.1860253e-07 1.2708771e-06 4.2387155e-06 1.6003746e-06 3.877061e-06 2.0733357e-06 2.3619104e-06
1.7269273e-06 3.3349506e-06 5.550146e-06 2.4787994e-06 2.5775237e-06 7.2914895e-07 3.3630986e-06 3.4272437e-06
2.4076598e-06 2.0122316e-06 3.5154467e-06 1.8081658e-06 2.1244905e-06 1.8687365e-06 5.3182553e-06 1.1333356e-06
6.529679e-07 2.3252876e-06 2.5011354e-06 1.5276415e-06 3.8457215e-06 1.4583106e-06 9.33508e-07 2.0934838e-06
2.20688e-06 2.075505e-06 2.7272076e-06 8.728974e-06 2.4287049e-06 1.0035227e-05 3.0561587e-06 2.4244712e-06
2.5253375e-06 6.8732825e-06 5.3219987e-06 1.9458078e-06 5.7693383e-06 8.5027295e-07 2.5580096e-06 7.860933e-06
1.3456205e-06 4.115387e-06 5.227972e-06 2.2860027e-06 2.7021597e-06 1.529079e-06 4.2102624e-06 1.4092682e-06
4.229592e-07 1.6309741e-06 1.1096802e-06 1.3589101e-06 3.767841e-06 1.3620781e-06 1.6668057e-06 7.6344014e-07
1.2535711e-06 1.1227792e-06 1.2018467e-06 3.1427871e-06 1.1359091e-06 3.5437713e-06 3.3530446e-06 3.4795185e-06
9.982385e-07 1.9013729e-06 1.9611575e-06 1.5021276e-06 4.397803e-06 5.915929e-07 1.6615572e-06 2.0141895e-06
9.125898e-07 1.8001343e-06 2.6051719e-06 1.2506434e-06 1.9388772e-06 7.3357944e-07 2.5621678e-06 2.8825616e-06
00000000: 1342 f734 1a66 f535 8c8a 8b35 029a 8b35
00000010: a5a5 9e36 fb2c 5b35 401a bd35 c566 9135
00000020: 0e8d 6b35 6078 8f35 257f 8a35 aa4c 8436
00000030: d8da bc35 adcd 9736 7263 8b36 07f1 d735
00000040: e269 a235 6dc5 0136 fed7 3036 3767 7935
00000050: 2848 9c36 7504 3035 2877 c635 129f 8536
00000060: 6ced 9235 cb82 0736 6f48 1736 e0c4 1a36
00000070: f429 d735 da70 d635 7c0d 2f36 1120 e435
00000080: da76 e034 3d31 1136 97f3 dc35 02fc 9f35
00000090: 8d04 4036 f610 8935 fb87 6b35 d7e0 ed35
000000a0: 4dfc df35 08e0 ed35 b45f ca35 511d f636
000000b0: 41d0 ee35 cb41 0037 692b 3436 5162 b335
000000c0: 3417 1136 dafd 3b36 f3d4 9236 1f9e 5c35
000000d0: 49fd b036 fb99 3b35 0910 8c35 6c42 b536
000000e0: 4736 6d35 6875 8c36 c088 9236 9d21 bf35
000000f0: 8b31 de35 80b8 6935 81b1 8636 7668 8e35
00000100: 85ad eb34 41f5 6136 13b4 4536 aa04 af35
00000110: 1361 9b36 3c90 9335 224e 2536 02c0 0b36
00000120: bb67 1036 35d5 3d36 0995 f235 e31b 3037
00000130: 791b 0436 cb60 2337 f0f9 6936 e1be 3836
00000140: 8e91 2936 ee65 a736 fb67 c936 c458 bf35
00000150: df43 e636 1464 8035 a4a1 e835 f6c9 1c37
00000160: 25cb 5235 a3f7 9536 397c bd36 d99d be35
00000170: 96ef 5036 f537 9335 b35e bf36 9b52 b335
00000180: 0e04 9535 dff2 4836 cbed be35 2e72 1336
00000190: a9db e136 7ad8 c535 d662 7c36 6777 5336
000001a0: 1982 7836 f0bd 5b35 0193 aa35 4a3a 8e36
000001b0: 74cc d635 b317 8236 a323 0b36 5081 1e36
000001c0: c5c8 e735 04ce 5f36 643b ba36 7359 2636
000001d0: 85f9 2c36 bcba 4335 98b1 6136 99ff 6536
000001e0: 4893 2136 e009 0736 eaea 6b36 1bb0 f235
000001f0: 7892 0e36 4cd1 fa35 7773 b236 1d1d 9835
00000200: 9d47 2f35 230c 1c36 2ed9 2736 5d09 cd35
00000210: 7f0a 8136 2cbb c335 2e96 7a35 c77d 0c36
00000220: e919 1436 e848 0b36 1205 3736 a872 1237
00000230: d5fc 2236 f95c 2837 6818 4d36 19b4 2236
00000240: f878 2936 0ca1 e636 9f93 b236 b994 0236
00000250: 3d96 c136 503e 6435 45aa 2b36 73e2 0337
00000260: 2b9b b435 e816 8a36 f06b af36 3a69 1936
00000270: c056 3536 c13a cd35 e145 8d36 1626 bd35
00000280: 1213 e334 d8e7 da35 52f0 9435 cc63 b635
00000290: 04db 7c36 a6d0 b635 02b7 df35 35ef 4c35
000002a0: 6040 a835 66b2 9635 234f a135 ace8 5236
000002b0: 8a75 9835 87d1 6d36 de04 6136 ac81 6936
000002c0: 37fb 8535 ad32 ff35 6e9c 0336 b69c c935
000002d0: d790 9336 f4cd 1e35 ac02 df35 832b 0736
000002e0: b2f8 7435 259c f135 83d4 2e36 c8db a735
000002f0: a81d 0236 32eb 4435 b5f1 2b36 0872 4136

exp_avg f4 [6]
-0.008001624 0.007455284 0.0028915582 -0.006241543 -0.0017749313 0.0043392107
00000000: 3e19 03bc 744b f43b 4c80 3d3b dc85 ccbb
00000010: d0a4 e8ba f02f 8e3b

exp_avg_sq f4 [6]
4.4228906e-05 7.6818935e-05 0.0001124619 5.183813e-05 8.713033e-05 3.1735137e-05
00000000: 6d82 3938 da19 a138 86d9 eb38 c56c 5938
00000010: bdb9 b638 581b 0538

exp_avg f4 [64, 26]
0.08677494 0.0 -0.3119959 0.0015702888 0.0 0.0065512145 0.0 -0.0024633897
-0.0809638 0.0018691901 -0.06604376 0.0010856258 -0.06796176 -0.011947131 -0.061616253 -0.0032406182
0.017959906 -0.00873527 -0.014364639 -0.004612143 -0.020938046 -0.10519128 -0.010644294 -0.0839073
-0.022642648 -0.12675984 0.1309379 0.0 -0.45974848 -0.00060964556 0.0 0.009857898
0.0 -0.004118575 -0.11457258 -0.0026199091 -0.11385787 0.0024766473 -0.09588791 -0.0014371295
-0.049631894 -0.0091201905 0.002526836 -0.01566078 -0.02064147 -0.010663539 -0.02589338 -0.1597684
-0.01724502 -0.11877942 -0.03518367 -0.19074172 0.113793574 0.0 -0.41051686 0.001769825
0.0 0.012257863 0.0 -0.0032712296 -0.08870555 -0.001358055 -0.095591255 0.001549148
-0.11462341 -0.00033674078 -0.029637793 -0.0070788297 -0.012936491 -0.0052259765 -0.04055131 -0.01143447
-0.025147403 -0.12703505 -0.021319365 -0.10393922 -0.032432735 -0.14869735 0.05002385 0.0
-0.17726934 0.004825422 0.0 0.002094866 0.0 -0.0020247085 -0.040184345 0.0060956427
-0.043717284 -0.006414377 -0.041521166 -0.0015606543 -0.023427319 0.009726486 0.005081717 -0.02165195
-0.00730993 -0.008804274 -0.0084055895 -0.061008684 -0.007185128 -0.040315878 -0.017107196 -0.078661434
-0.04795809 0.0 0.15960084 0.0002346782 0.0 -0.0017681278 0.0 0.0029538604
0.04391713 3.6477068e-05 0.037449226 0.0015194244 0.04422652 0.004594266 0.024274312 0.00076094014
-0.01736679 0.015044949 0.0035643883 -0.01312057 0.00936187 0.06507634 0.008946117 0.040452633
0.01510705 0.07546763 0.10479681 0.0 -0.37366575 0.0013017115 0.0 0.008356459
0.0 -0.003209802 -0.08372777 0.0011900894 -0.09463362 0.004408986 -0.08208443 -0.0115055945
-0.0629733 -0.0024636 0.016351335 -0.010285401 -0.024600364 -0.009119886 -0.024020586 -0.12961599
-0.011769883 -0.09510221 -0.03204075 -0.14829503 -0.10234387 0.0 0.35798872 -0.0013056763
0.0 -0.008307645 0.0 0.002714374 0.074126676 -0.0010347108 0.10036362 -0.0016725307
0.10591659 -0.0005346412 0.053251926 0.0067746965 -0.01321995 0.00824207 0.012662008 0.014101104
0.018092308 0.12899716 0.0132261645 0.08160559 0.03131184 0.14447895 0.13911746 0.0
-0.49259716 0.00063957676 0.0 0.0119386865 0.0 -0.005422631 -0.1295841 -0.0010198051
-0.10850356 -0.0032279922 -0.097616486 0.0003401961 -0.07682447 -0.0061514634 0.02187657 -0.022310555
-0.022887696 0.0029874824 -0.028557615 -0.16979636 -0.020822283 -0.12617089 -0.037695907 -0.21027997
-0.0811676 0.0 0.28761104 3.8032584e-05 0.0 -0.0070538665 0.0 0.0036155973
0.04267093 0.0011854975 0.08350992 -0.0065288204 0.09752036 0.008947375 0.038035206 0.0062117996
-0.020573536 0.005003534 0.04445476 0.0019456244 0.013988792 0.09335878 0.010261876 0.07298327
0.025106173 0.10502971 0.13613433 0.0 -0.4577149 0.0023452968 0.0 0.008508787
0.0 -0.004836178 -0.113440126 0.0063144686 -0.11579617 0.0007991923 -0.1802823 -0.01070654
-0.10134824 -0.008469537 0.060368977 -0.010765367 -0.0011437836 -0.0024531966 -0.030218534 -0.18404505
00000000: 0fb7 b13d 0000 0000 edbd 9fbe 26d2 cd3a
00000010: 0000 0000 92ab d63b 0000 0000 d270 21bb
00000020: 59d0 a5bd 9dff f43a f341 87bd 8f4b 8e3a
00000030: 892f 8bbd e6bd 43bc 5361 7cbd 8d60 54bb
00000040: a720 933c 611e 0fbc aa59 6bbc 7621 97bb
00000050: 4486 abbc 876e d7bd 6865 2ebc 97d7 abbd
00000060: 137d b9bc 55cd 01be 9614 063e 0000 0000
00000070: 2764 ebbe 9fd0 1fba 0000 0000 0583 213c
00000080: 0000 0000 1cf5 86bb 07a5 eabd c8b2 2bbb
00000090: 512e e9bd 3f4f 223b e160 c4bd 105e bcba
000000a0: d04a 4bbd da6c 15bc 4699 253b 094b 80bc
000000b0: 4d18 a9bc 20b6 2ebc 5b1e d4bc 549a 23be
000000c0: 6e45 8dbc a042 f3bd c11c 10bd cc51 43be
000000d0: 9b0c e93d 0000 0000 442f d2be 79f9 e73a
000000e0: 0000 0000 34d5 483c 0000 0000 2062 56bb
000000f0: 41ab b5bd c400 b2ba 59c5 c3bd c80c cb3a
00000100: aebf eabd 958c b0b9 f5ca f2bc 87f5 e7bb
00000110: 93f3 53bc ab3e abbb 2119 26bd a557 3bbc
00000120: ed01 cebc 7a15 02be f3a5 aebc 16de d4bd
00000130: 30d8 04bd 1e44 18be cfe5 4c3d 0000 0000
00000140: 1886 35be 931e 9e3b 0000 0000 054a 093b
00000150: 0000 0000 f9b0 04bb 5798 24bd f5bd c73b
00000160: e510 33bd b22f d2bb 1912 2abd de8e ccba
00000170: a6ea bfbc d75b 1f3c 8884 a63b 6e5f b1bc
00000180: 2388 efbb cd3f 10bc 99b7 09bc 3ee4 79bd
00000190: 3971 ebbb 4322 25bd 6424 8cbc 3f19 a1bd
000001a0: b46f 44bd 0000 0000 676e 233e f313 7639
000001b0: 0000 0000 86c0 e7ba 0000 0000 8e95 413b
000001c0: 73e2 333d f4fe 1838 5c64 193d 6c27 c73a
000001d0: de26 353d 7f8b 963b ecda c63c d479 473a
000001e0: cc44 8ebc 177f 763c 8398 693b a9f7 56bc
000001f0: 8762 193c bf46 853d bc92 123c a9b1 253d
00000200: 8f83 773c c68e 9a3d b69f d63d 0000 0000
00000210: 1e51 bfbe 319e aa3a 0000 0000 88e9 083c
00000220: 0000 0000 8b5b 52bb 7779 abbd c6fc 9b3a
00000230: 45cf c1bd 4179 903b e21b a8bd f681 3cbc
00000240: 25f8 80bd 5974 21bb 3cf3 853c 1984 28bc
00000250: b486 c9bc 936b 15bc d2c6 c4bc 0eba 04be
00000260: 78d6 40bc f3c4 c2bd 293d 03bd a7da 17be
00000270: aa99 d1bd 0000 0000 4c4a b73e 3a23 abba
00000280: 0000 0000 ca1c 08bc 0000 0000 a4e3 313b
00000290: bacf 973d 229f 87ba 718b cd3d d138 dbba
000002a0: ccea d83d 2a27 0cba b11e 5a3d 46fe dd3b
000002b0: 7d98 58bc bf09 073c 5074 4f3c 5108 673c
000002c0: 5236 943c d517 043e 8eb2 583c d520 a73d
000002d0: d840 003d 4af2 133e cf74 0e3e 0000 0000
000002e0: b235 fcbe 45a9 273a 0000 0000 7b9a 433c
000002f0: 0000 0000 53b0 b1bb b2b1 04be fbaa 85ba
00000300: 1d37 debd b98c 53bb 27eb c7bd 595c b239
00000310: 2656 9dbd 3792 c9bb 7e36 b33c a0c4 b6bc
00000320: fa7e bbbc a3c9 433b a9f1 e9bc 19df 2dbe
00000330: 7e93 aabc f132 01be 0667 1abd a253 57be
00000340: 333b a6bd 0000 0000 c141 933e 2d85 1f38
00000350: 0000 0000 1f24 e7bb 0000 0000 a8f3 6c3b
00000360: b7c7 2e3d b262 9b3a 4007 ab3d b7ef d5bb
00000370: c1b8 c73d 0398 123c ceca 1b3d 5a8c cb3b
00000380: d589 a8bc aff4 a33b 3216 363d 5204 ff3a
00000390: 3f31 653c e332 bf3d 6d21 283c 4178 953d
000003a0: 76ab cd3c d119 d73d cc66 0b3e 0000 0000
000003b0: 9b59 eabe 8db3 193b 0000 0000 7068 0b3c
000003c0: 0000 0000 cd78 9ebb 4c53 e8bd 9ae9 ce3b
000003d0: 8b26 edbd e380 513a ec9b 38be 7c6a 2fbc
000003e0: ab8f cfbd d0c3 0abc 7645 773d 3961 30bc
000003f0: 02eb 95ba cfc5 20bb dc8c f7bc 4e76 3cbe
