flare-benchmarking/2x3z8ghv/checkpoints/epoch=96.ckpt (torch_old, 101057 bytes, 36 tensors)

exp_avg f4 [6]
00000000: b712 c43b b76b b03b 7bbf 833a a483 523a
00000010: 8fe6 503c df1d e6ba
0.0059836763 0.0053839344 0.0010051572 0.000803048 0.012750282 -0.001755651

exp_avg_sq f4 [6]
00000000: 402f 8639 c742 e939 3d4e 4d39 8e1c 6839
00000010: 3982 0c3a 9d88 1439
0.00025593676 0.00044490976 0.0001957947 0.00022135882 0.0005359981 0.00014165272

exp_avg f4 [64, 26]
00000000: 9975 81b8 0000 0000 8547 d1ba 30db 20ba
00000010: 0000 0000 9e16 16ba 0000 0000 2922 d239
00000020: 0f58 2f3a 8f78 d239 926e faba 5ff5 503a
00000030: 7d40 a4ba 4843 12ba 387d a93a 6d5b 793a
00000040: 6e3e 8cba 11fe 45b9 fc99 a43a 9339 c2ba
00000050: 688e 103a adba e0b9 71bb 25b7 fd7b 36b8
00000060: 0400 0080 0400 0080 22d1 08b9 0000 0000
00000070: 26e5 feb9 abf7 d1b9 0000 0000 82fc 01b8
00000080: 0000 0000 bd6e b639 d6c3 313a 09dc 99b9
00000090: 2602 92ba afa2 5c3a 8936 b3b9 e40c 8ab9
000000a0: 022c e839 6b4d 91ba 74cb 563a 0ff6 883a
000000b0: 7752 bb39 587c 1738 6a44 263a 80e3 25b9
000000c0: 213d e8b9 1ded 773a 0400 0080 0400 0000
000000d0: 5ea5 1c39 0000 0000 acc8 14bb 1ac2 82b9
000000e0: 0000 0000 6351 fa38 0000 0000 d5da d4b9
000000f0: 4df5 bd3a f4a4 2c3a 6cab 02ba 23c3 363a
00000100: 0c3a 28ba e92d 02ba fadb abb9 39ad 97b9
00000110: fe08 83b9 a905 8439 974c b4b8 5af2 4c35
00000120: b2fe 85ba 34bb 16ba 9111 fdb9 c248 51b9
00000130: 0400 0080 0400 0080 1b68 df39 0000 0000
00000140: 33b1 3f39 b148 3839 0000 0000 9134 e439
00000150: 0000 0000 59cf 56ba cd32 b9ba 2486 bbb9
00000160: 17d1 293b 0c4e 9839 8d51 40b9 4886 8eb9
00000170: b8ab e7ba b0be 8c39 e253 45ba 087f ec38
00000180: 9f07 cf39 5766 313a 18ba 02ba 843f 2839
00000190: c9ea c137 d685 d8ba 0400 0000 0400 0000
000001a0: 8bbe 1039 0000 0000 a0bb ccb9 4ce6 ae38
000001b0: 0000 0000 7836 fc38 0000 0000 05e5 b4b9
000001c0: ff57 f239 d647 67b9 ae49 8f39 c09a 2339
000001d0: 231b 91b9 d60a 8e38 4e3d fbb9 34fb a2b9
000001e0: 0e31 90b8 a5d2 adb8 9068 98b8 1ec5 8b39
000001f0: b825 cab9 db5f 2db9 37b3 82b9 a836 b3b9
00000200: 0400 0000 0400 0000 644b 0138 0000 0000
00000210: ff9e cf39 3164 ecb8 0000 0000 9680 9739
00000220: 0000 0000 d39a 5fb9 3835 9cb9 bd56 c3b8
00000230: 701c 3e3a f790 bdb8 fd4e acb9 d2f5 1fb9
00000240: 0c19 4ab9 aee3 4bb9 907d 1db9 ad81 0f3a
00000250: 3728 4b3a f7ef 89b9 68e3 513a 49c1 b439
00000260: bf16 88b8 efb4 01ba 0400 0000 0400 0000
00000270: 3c1a 31b9 0000 0000 73ac 2a3a 9c42 90b9
00000280: 0000 0000 76b3 5eb9 0000 0000 04bf fa39
00000290: 9494 7fb9 c348 5eba b0f7 32ba de70 0a39
000002a0: 67ab 1ab8 be19 a839 b551 393a 4f06 1339
000002b0: 29ce 9fb7 716e 6eba c6dc 3f39 fc8d af39
000002c0: 9734 ca3a 3342 3739 25dd e038 1ae0 333a
000002d0: 0400 0000 0400 0080 09af e938 0000 0000
000002e0: 9496 b6b9 b92b f4b8 0000 0000 3a8b 25ba
000002f0: 0000 0000 25d2 c738 a4fb 5039 bc69 cdb9
00000300: 6896 8eba 3361 6eb8 664c 64b9 ccd2 9e39
00000310: f80e 8d39 a906 90b8 52dc 8238 dc6d de39
00000320: 2aa0 013a 4f2d dfb8 ae9a 2f3a d444 51b9
00000330: e101 28b9 be80 933a 0400 0080 0400 0000
00000340: fdb8 3ab8 0000 0000 705b a1ba e356 00b8
00000350: 0000 0000 967a 8bb9 0000 0000 77f5 ba39
00000360: 954e a939 9f79 25b6 5c8e 8eba dc63 ffb9
00000370: 8adf ae39 4ae9 9e39 d7d4 df39 c71c 11b8
00000380: 1482 7cba d1cf 9bb9 ab4a b6ba cb29 21b9
00000390: 1d02 8a39 e609 99b8 cf54 79b8 f834 3f3a
000003a0: 0400 0080 0400 0080 8516 eb38 0000 0000
000003b0: 3a85 5cb9 030c a637 0000 0000 ef04 093a
000003c0: 0000 0000 6cbe d9b9 bf83 5639 0ee5 64b9
000003d0: 58f9 7f3a cbae 633a fe20 6aba 6cbe 86b8
000003e0: 32e2 27ba fdcc 28b9 69a2 18b9 e262 a0b9
000003f0: 7e85 5a39 62c5 7c39 a1f3 96b9 c876 9839
-6.1731036e-05 0.0 -0.0015966749 -0.0006136177 0.0 -0.0005725416 0.0 0.00040079773
0.0006688842 0.00040144144 -0.0019106439 0.00079711335 -0.0012531426 -0.00055794837 0.0012930995 0.00095122197
-0.0010699758 -0.00018882031 0.0012558098 -0.0014818184 0.0005514384 -0.00042863694 -9.8784085e-06 -4.3507654e-05
-6e-45 -6e-45 -0.00013047879 0.0 -0.00048617384 -0.00040048113 0.0 -3.0991163e-05
0.0 0.00034796252 0.0006781196 -0.00029346373 -0.0011139556 0.0008416576 -0.00034182172 -0.00026331015
0.00044283277 -0.0011085694 0.0008193769 0.0010449308 0.0003572886 3.611701e-05 0.0006342592 -0.00015820377
-0.00044296033 0.0009457635 -6e-45 6e-45 0.00014938923 0.0 -0.0022702618 -0.0002494015
0.0 0.000119360884 0.0 -0.00040598834 0.0014492661 0.0006585859 -0.00049846503 0.00069718267
-0.0006417341 -0.00049659476 -0.00032779557 -0.00028930025 -0.00024992967 0.0002518122 -8.597335e-05 7.634859e-07
-0.0010223 -0.00057499413 -0.00048269008 -0.00019958898 -6e-45 -6e-45 0.0004261144 0.0
0.00018281191 0.00017574687 0.0 0.00043526714 0.0 -0.00081943494 -0.001412952 -0.00035767362
0.002591198 0.0002904985 -0.00018340927 -0.00027184398 -0.0017675078 0.00026844954 -0.0007527453 0.00011277018
0.00039487795 0.0006767264 -0.00049868366 0.0001604539 2.3116723e-05 -0.0016519378 6e-45 6e-45
0.00013803893 0.0 -0.00039049704 8.339863e-05 0.0 0.00012026442 0.0 -0.00034502908
0.000462234 -0.00022056638 0.0002732998 0.0001560254 -0.00027676774 6.773106e-05 -0.00047920126 -0.0003108621
-6.875592e-05 -8.2885184e-05 -7.267401e-05 0.0002665901 -0.00038556545 -0.00016534275 -0.00024929058 -0.00034182263
6e-45 6e-45 3.082621e-05 0.0 0.00039600578 -0.00011272019 0.0 0.00028896768
0.0 -0.00021324614 -0.0002979429 -9.314481e-05 0.00072521623 -9.039224e-05 -0.00032865247 -0.00015254997
-0.00019273552 -0.00019444406 -0.00015019462 0.000547434 0.0007749828 -0.00026309464 0.00080066035 0.00034476284
-6.489222e-05 -0.00049479207 6e-45 6e-45 -0.00016889808 0.0 0.0006510682 -0.00027515448
0.0 -0.00021238424 0.0 0.00047826034 -0.00024374045 -0.000847947 -0.00068270694 0.00013202752
-3.6876092e-05 0.00032062636 0.0007069365 0.00014021363 -1.9050278e-05 -0.00090954365 0.00018297424 0.00033484388
0.001542705 0.00017476901 0.00010722344 0.0006861702 6e-45 -6e-45 0.000111429086 0.0
-0.00034825935 -0.00011642971 0.0 -0.0006314997 0.0 9.528202e-05 0.00019930169 -0.00039179425
-0.0010878565 -5.6834146e-05 -0.00021772235 0.00030293164 0.00026904768 -6.8676956e-05 6.239921e-05 0.0004242499
0.0004944826 -0.00010641908 0.0006698769 -0.00019957434 -0.00016022428 0.0011253578 -6e-45 6e-45
-4.451814e-05 0.0 -0.0012310576 -3.0598498e-05 0.0 -0.0002660348 0.0 0.0003565957
0.0003229274 -2.4657709e-06 -0.0010876167 -0.0004871179 0.00033354416 0.00030309922 0.00042692453 -3.4597495e-05
-0.000963242 -0.0002971874 -0.0013907751 -0.00015369726 0.00026322986 -7.297452e-05 -5.944521e-05 0.0007293965
-6e-45 -6e-45 0.00011209868 0.0 -0.00021030466 1.9794335e-05 0.0 0.00052268704
0.0 -0.0004153134 0.0002045771 -0.00021829104 0.0009764633 0.0008685409 -0.0008931308 -6.425087e-05
-0.000640425 -0.00016098093 -0.00014556352 -0.00030591252 0.0002083983 0.00024106124 -0.00028791747 0.00029080198

exp_avg_sq f4 [64, 26]
00000000: c59b c637 0000 0000 925d 8c39 66fa 1436
00000010: 0000 0000 ff6a 1536 0000 0000 b0b7 ff38
00000020: 2d70 4939 1632 ae36 8c48 0739 51a6 6737
00000030: ed9e 4039 5224 7a37 7a8d 7639 94e2 9537
00000040: 12c9 5a38 c4ee 9f38 ce40 ad38 2715 6338
00000050: 098d 7739 c836 a336 1fdd fe37 5ef4 7039
00000060: 2b8a be31 fc3c 0333 3cca e836 0000 0000
00000070: 9e93 a838 2813 2235 0000 0000 95b1 f534
00000080: 0000 0000 365d 2038 6111 7738 1172 cd35
00000090: 412f 3e38 d1ad 9a36 30f1 6c38 a310 ae36
000000a0: 599b 9638 3925 4636 f72c 3d37 2ed6 2337
000000b0: 1019 b737 7ffa 0337 24db 9838 db70 de35
000000c0: e8f0 8336 10e0 8f38 a278 ff31 0ee3 5b33
000000d0: 11b7 6937 0000 0000 d618 2539 f25b c735
000000e0: 0000 0000 0b3a a735 0000 0000 1802 9638
000000f0: f1ec f138 b805 4b36 922b 9b38 0cfb 1637
00000100: 8bfd dd38 d977 0b37 c001 1139 4f99 0637
00000110: 8c13 eb37 4c6f 0838 447c 3e38 4ed2 af37
00000120: cc9c 1239 6736 0f36 6fe4 9937 1098 0b39
00000130: 35cb d331 df59 8832 b6ed 0a37 0000 0000
00000140: c0bd c638 346a 4a35 0000 0000 c4ea 4635
00000150: 0000 0000 ced5 3a38 2259 9238 76c5 1436
00000160: e951 5138 9680 b336 cf1d 8a38 be93 be36
00000170: 529d b038 94af bb36 a2a1 8537 d79b d337
00000180: 68ba e537 e92f a537 0e47 b138 1e37 b535
00000190: f8e6 ee36 3cbe a338 44ad 8031 a507 a332
000001a0: d111 4135 0000 0000 5a8d 0937 1980 fd33
000001b0: 0000 0000 83b3 0434 0000 0000 f5ea 6f36
000001c0: a452 b936 1a73 9c34 372c 8b36 39d5 2435
000001d0: 4224 c136 0a37 4d35 18a1 e636 2e50 5c35
000001e0: 7c47 1136 6be9 4a36 f22a 4f36 7692 0536
000001f0: b55e f136 456d 9334 68d3 8135 4e50 f336
00000200: 2d28 6630 d58c 1232 7bf5 f435 0000 0000
00000210: 4c4e ad37 d593 a734 0000 0000 1235 cc34
00000220: 0000 0000 ff69 0237 951f 5237 3334 3335
00000230: 9b22 0937 bed4 ef35 7d53 6f37 f559 1b36
00000240: d6d7 8537 edd3 0d36 364c f436 d98f f636
00000250: 176e 1537 211b d836 c0ec 9637 54e1 e034
00000260: c89f 6736 1e22 8a37 11f1 8c31 186c 4932
00000270: a471 6d36 0000 0000 c5be 2638 4165 c834
00000280: 0000 0000 6567 b734 0000 0000 2925 9937
00000290: 9ec0 ed37 93c1 6035 6987 a237 f7fa 0836
000002a0: 343d e337 6d2a 0636 ff46 1138 829d ff35
000002b0: 2c1f fb36 69b3 ee36 6614 4237 34df ac36
000002c0: 4c04 1938 a7a8 1d35 0cc9 8736 6759 0e38
000002d0: 8610 6830 b921 7a32 a27d 1037 0000 0000
000002e0: f2cc d738 6f8d 4035 0000 0000 1207 2435
000002f0: 0000 0000 8acd 4838 9f2d 9b38 76d7 ce35
00000300: a81e 6038 5b01 ab36 4e49 8b38 c60c d736
00000310: 5f0f bc38 aed8 9536 288c 7737 654c a537
00000320: cec5 d137 8305 5337 9a3a be38 2632 a035
00000330: fd07 bc36 d81f b938 2c05 2b31 0726 1432
00000340: 6389 4e36 0000 0000 7127 1338 d898 f234
00000350: 0000 0000 6ecd 2035 0000 0000 68e7 6d37
00000360: b63f bb37 3a2e 8635 0623 8a37 a2a3 4c36
00000370: 48fb c437 dce9 4a36 e9c3 fa37 99c0 7936
00000380: dede 0c37 dd75 7237 887d 5e37 6d34 1737
00000390: 6762 fc37 4b92 4335 e950 4e36 bb54 fa37
000003a0: d4e2 1131 e91c 1c33 25a6 1736 0000 0000
000003b0: 0b42 e837 f3c6 9934 0000 0000 ba36 d434
000003c0: 0000 0000 1166 3937 e1e1 8f37 968c 3e35
000003d0: 7d02 4d37 128a 0436 bf59 8a37 1b79 2336
000003e0: 0d9e bf37 bd82 0436 c690 bd36 ea00 1b37
000003f0: a16b f536 5415 ed36 b996 b737 638a cc34
2.3675975e-05 0.0 0.00026772596 2.219947e-06 0.0 2.226501e-06 0.0 0.00012193562
0.00019210642 5.191435e-06 0.00012901629 1.38073965e-05 0.00018369751 1.4909618e-05 0.00023513092 1.7867693e-05
5.216251e-05 7.6261844e-05 8.261354e-05 5.4140717e-05 0.00023608295 4.864156e-06 3.0382127e-05 0.00022979217
5.5454357e-09 3.055628e-08 6.937682e-06 0.0 8.03836e-05 6.037758e-07 0.0 4.5764014e-07
0.0 3.8233782e-05 5.8905574e-05 1.5306888e-06 4.534354e-05 4.6097925e-06 5.6491408e-05 5.187541e-06
7.181493e-05 2.9525966e-06 1.1275747e-05 9.765425e-06 2.182697e-05 7.866532e-06 7.288743e-05 1.6573134e-06
3.9321494e-06 6.860506e-05 7.435191e-09 5.1196416e-08 1.3930506e-05 0.0 0.00015744878 1.4853415e-06
0.0 1.2459362e-06 0.0 7.1529474e-05 0.00011535909 3.0252686e-06 7.3990916e-05 8.999148e-06
0.00010585327 8.31295e-06 0.0001382893 8.022717e-06 2.8023285e-05 3.252858e-05 4.541526e-05 2.0959556e-05
0.00013982056 2.1340327e-06 1.8345394e-05 0.0001331272 6.16401e-09 1.5873352e-08 8.280787e-06 0.0
9.4767194e-05 7.540541e-07 0.0 7.4102377e-07 0.0 4.4544977e-05 6.978425e-05 2.2168656e-06
4.9905768e-05 5.349585e-06 6.585905e-05 5.6796407e-06 8.421637e-05 5.5934743e-06 1.5930102e-05 2.5225729e-05
2.738573e-05 1.9691843e-05 8.453253e-05 1.3501592e-06 7.119841e-06 7.8078796e-05 3.7449883e-09 1.8979174e-08
7.192403e-07 0.0 8.198747e-06 1.18045314e-07 0.0 1.2358764e-07 0.0 3.5750538e-06
5.5230503e-06 2.9141012e-07 4.14767e-06 6.140504e-07 5.756069e-06 7.6448543e-07 6.873288e-06 8.2073063e-07
2.1648293e-06 3.0236213e-06 3.08704e-06 1.9903796e-06 7.193385e-06 2.7460388e-07 9.672776e-07 7.251313e-06
8.3730606e-10 8.53034e-09 1.8250861e-06 0.0 2.0659667e-05 3.1213736e-07 0.0 3.8036575e-07
0.0 7.773283e-06 1.2524329e-05 6.6758656e-07 8.173894e-06 1.7868804e-06 1.4264949e-05 2.3149162e-06
1.5955342e-05 2.1133994e-06 7.280639e-06 7.3481174e-06 8.906724e-06 6.44046e-06 1.7991639e-05 4.18872e-07
3.4514687e-06 1.6466769e-05 4.1019423e-09 1.17243175e-08 3.53819e-06 0.0 3.9755152e-05 3.7326575e-07
0.0 3.4161636e-07 0.0 1.8256325e-05 2.8342296e-05 8.372819e-07 1.937496e-05 2.041166e-06
2.7089009e-05 1.999225e-06 3.4636814e-05 1.9044821e-06 7.484012e-06 7.113839e-06 1.15680505e-05 5.1519837e-06
3.6482044e-05 5.873248e-07 4.0467185e-06 3.39387e-05 8.442459e-10 1.4559583e-08 8.61232e-06 0.0
0.00010290173 7.1731387e-07 0.0 6.110505e-07 0.0 4.787514e-05 7.3994735e-05 1.5410903e-06
5.3434313e-05 5.096355e-06 6.6416906e-05 6.4089863e-06 8.967402e-05 4.465771e-06 1.475498e-05 1.9705107e-05
2.5006852e-05 1.2577863e-05 9.0708214e-05 1.1935524e-06 5.6037666e-06 8.827419e-05 2.4886715e-09 8.62338e-09
3.0776362e-06 0.0 3.5084264e-05 4.518722e-07 0.0 5.9903584e-07 0.0 1.4180179e-05
2.2321805e-05 9.997232e-07 1.6467191e-05 3.0493616e-06 2.3482033e-05 3.023647e-06 2.989355e-05 3.7215998e-06
8.396541e-06 1.4451766e-05 1.3261459e-05 9.012508e-06 3.0086563e-05 7.2856045e-07 3.0743488e-06 2.9841778e-05
2.1229214e-09 3.6347874e-08 2.2597462e-06 0.0 2.7687309e-05 2.8643225e-07 0.0 3.9527896e-07
0.0 1.10506235e-05 1.7152111e-05 7.0985095e-07 1.22195315e-05 1.97499e-06 1.6492673e-05 2.4359385e-06
2.2842572e-05 1.9745632e-06 5.649493e-06 9.238933e-06 7.3140986e-06 7.0656333e-06 2.1885486e-05 3.809865e-07

exp_avg f4 [64]
00000000: 8847 d1ba 89e4 feb9 bdc8 14bb 2bb1 3f39
00000010: 93bb ccb9 0e9f cf39 3aac 2a3a b096 b6b9
00000020: 6e5b a1ba 4185 5cb9 c8d3 073a 2d9d 95b9
00000030: f227 e6ba 2c4b e439 08a7 4039 9f5c 7339
00000040: 7be9 64ba 07e3 5c3a 2471 1c3a 4389 3839
00000050: 4875 fdb9 ff4c efb7 9cf5 bbba e04f e2b8
00000060: 7dc6 2739 95e8 2f3a 95a6 d739 99e4 ad39
00000070: 32b3 2c39 fe3f 623a 24c6 abb9 f358 02b9
00000080: 5a2f 6aba f518 6fb9 f2f8 a9ba 2dbb 7639
00000090: faae 333a 5623 8c39 ddb8 ae3a 187d ca39
000000a0: 752e c0ba 557b 1e3a af24 5339 1985 2039
000000b0: f7bf 303a c8a4 9a38 b7d9 e2ba 4f04 9bb8
000000c0: 7742 9cba 365a a2ba 3660 abba 6f02 b43a
000000d0: ff5e 01ba 6b1a af37 d58a 92b8 8634 81ba
000000e0: 0a9d 7bba 63a1 4fba a6b8 5fb9 c3d5 2fba
000000f0: 7fd1 7cba 693d 463a 38e8 5fba 67ff 4339
-0.0015966753 -0.00048616927 -0.0022702657 0.0001828118 -0.00039049666 0.00039600622 0.0006510649 -0.00034826016
-0.0012310573 -0.00021030476 0.0005181399 -0.000285366 -0.0017559512 0.00043543556 0.00018372771 0.0002320879
-0.0008732301 0.00084261637 0.0005967787 0.00017598741 -0.00048343302 -2.8526874e-05 -0.0014340165 -0.00010791398
0.00016000304 0.00067103776 0.0004113211 0.0003316745 0.00016469954 0.00086307514 -0.00032763288 -0.00012430902
-0.00089334475 -0.00022802113 -0.0012967868 0.00023530117 0.00068543816 0.00026729208 0.001333024 0.00038621644
-0.0014662283 0.00060455996 0.00020136194 0.00015308372 0.0006742472 7.373985e-05 -0.0017307316 -7.3917785e-05
-0.0011921664 -0.0012386504 -0.0013074938 0.0013733635 -0.0004935115 2.0873927e-05 -6.987682e-05 -0.0009857572
-0.0009598291 -0.0007920472 -0.00021335724 -0.0006707573 -0.00096442545 0.00075622514 -0.0008541378 0.00018691794

exp_avg_sq f4 [64]
00000000: 935d 8c39 9f93 a838 da18 2539 bdbd c638
00000010: 5a8d 0937 4b4e ad37 c1be 2638 f1cc d738
00000020: 7627 1338 0742 e837 46f1 a438 7beb 3e38
00000030: f435 0139 1421 8638 fd88 1839 3697 de38
00000040: e8f6 a238 3a42 ad38 10ef d737 85ff 8637
00000050: 4ce0 cd38 2a3c bc38 fca0 e237 377b 1738
00000060: ec9c f437 70bb 5b38 ed26 ba38 e275 1838
00000070: 9463 7637 989e 8b39 3665 8f38 d1fa 1739
00000080: bd26 b039 b428 0438 5f13 1339 e4ae 8537
00000090: 1857 3539 c457 6938 8ab5 be38 ef7b 8338
000000a0: 09a0 b638 4c2c 7e38 38ee 3038 f7c1 2b38
000000b0: 4c55 ce37 272f 1539 bfbf db38 004e 2e39
000000c0: 3fd0 0d38 5a96 2938 8a6b 0b39 db59 7338
000000d0: 9e1a 9e38 eec4 cb38 0d08 8438 edff 6b38
000000e0: 13ca 8438 ef3e e938 7714 a439 ecfb 3a38
000000f0: 6604 6d38 4a74 b438 b85f ad38 669f c238
0.000267726 8.038361e-05 0.00015744884 9.476717e-05 8.198747e-06 2.0659665e-05 3.9755138e-05 0.00010290172
3.5084282e-05 2.7687302e-05 7.86507e-05 4.551884e-05 0.00012322498 6.395779e-05 0.00014546882 0.0001061395
7.770752e-05 8.2616185e-05 2.574132e-05 1.609303e-05 9.81694e-05 8.975745e-05 2.7016264e-05 3.611596e-05
2.916014e-05 5.2388234e-05 8.8764216e-05 3.634941e-05 1.4685927e-05 0.00026630308 6.8376234e-05 0.00014493919
0.00033598198 3.150916e-05 0.00014026229 1.5936275e-05 0.0001729395 5.5633267e-05 9.09372e-05 6.269651e-05
8.708245e-05 6.0599574e-05 4.218353e-05 4.095022e-05 2.4596833e-05 0.00014227313 0.00010478449 0.0001662299
3.3810964e-05 4.0432766e-05 0.00013296134 5.80194e-05 7.538985e-05 9.716475e-05 6.29575e-05 5.6266716e-05
6.33189e-05 0.00011122028 0.00031295765 4.4580476e-05 5.65093e-05 8.6047294e-05 8.267112e-05 9.280331e-05

exp_avg f4 [32, 64]
00000000: 0864 13b9 33b1 e5b7 44f1 b638 879e 9f39
00000010: b5cb e639 4f7d 173a 5fc6 d638 2177 aab9
00000020: cc43 083a 706a 2b3a 1fef 2a39 830c cab9
00000030: a07e 6638 8a28 293a 5ea1 42ba dc5a beb8
00000040: beb2 6339 6232 95b9 72a1 37ba 3d5e 7839
00000050: 02b8 6b39 959c 1f39 746f ff39 8cbe 1c39
00000060: 65d2 743a d86d c539 802e 15b8 2f7c 93b9
00000070: 337f 11ba 55e6 05b9 895e 7ab9 d071 85b8
00000080: ed5d e439 7fa0 a0b9 d633 94b9 07fe bdb9
00000090: f595 d6b8 ffe8 ca38 69a8 7d39 3226 65b9
000000a0: 7f15 6139 8528 e6b9 1727 9639 47ba 8839
000000b0: 2118 f038 b1eb 24b9 99fe 36ba d588 04ba
000000c0: a7f0 97b8 d7e2 d5b9 489a c0b7 55c4 9239
000000d0: 1507 b3b9 a094 3039 dfb8 69b8 9c5f 1339
000000e0: 1e10 eeb9 fccf 18b9 6340 ae37 7ec8 6b39
000000f0: 2dd9 4639 00ee 4139 f8dc f537 beeb b739
00000100: d521 38b9 1388 3f38 238f b2b9 03f5 273a
00000110: 910c eb37 1198 d939 4a39 293a 772c 1037
00000120: 1906 3537 b2b3 bb38 03e5 d8b9 edd9 1cb9
00000130: d443 0cb8 f33c fe39 ebcb 36ba 6939 9138
00000140: cb9d 61b9 3c54 9eb8 657b ddb9 f6b4 3c3a
00000150: de48 8eb9 6be4 8bb9 f383 5639 f9bd da39
00000160: 1e51 2fba 9861 aa38 dd93 ed39 f32f 29ba
00000170: ed27 5fb9 2059 5f39 3280 07ba 70b6 2639
00000180: 8dc6 09b8 527d b1b9 5fe0 6bb9 0314 8539
00000190: 655d afb9 dfe9 93b9 ae77 6bb9 4129 1139
000001a0: b3ba aeb9 4b58 dbb8 e070 073a 2a23 9db8
000001b0: ed22 8439 5a24 bbb8 9bb6 c8b9 8c57 a3b9
000001c0: 0f34 a6b9 5726 deb8 93c2 4b38 811a ab39
000001d0: 1f9e 0dba 2820 05ba 2cc9 f9b6 fa53 c939
000001e0: 48d6 93b9 1abb 69b8 4d51 00b8 4a81 0eb9
000001f0: 92c8 b939 d252 a938 5ca8 ceb9 7d63 9fb8
00000200: 87fd 21b9 b4b8 e1b9 0c77 8938 f810 8a39
00000210: aab9 6cb9 63e8 2139 83ca 203a 3202 b439
00000220: 3ffd 263a f0a5 af39 584c 1339 ac42 d638
00000230: c4f2 dc3a 1a66 12b7 caf7 72b9 39ee 48b8
00000240: 259f 5bba 393f 2639 9c4a 8438 3ec2 bd3a
00000250: 22c8 98b9 549e f739 d761 573a 3a08 373a
00000260: dcb5 4339 63ad 59b8 1e9d 66ba 8ce9 e9b9
00000270: a6df fb39 5acc 4839 2d06 a0ba 8eea ec39
00000280: ff2b 11ba 1b64 18ba 7683 a539 a767 13b9
00000290: 6b5c 5eba 616e 14b9 939e 3a3a 153c d639
000002a0: ca5e d738 0491 f539 06e5 6539 b5e9 1239
000002b0: 4967 8cb9 4274 1739 88f8 e8b8 c0f4 7139
000002c0: 602f 8cb9 6cb0 1cba 66c5 a439 a07b 5739
000002d0: 43cd c7b9 bb8b 9139 cf2a b2b9 3689 cd39
000002e0: b1e5 9739 e8a4 9739 cac4 f8b8 dfe3 05b9
000002f0: a404 2b3a ac80 af39 5e9f edb8 9e02 6bb9
00000300: 4193 0cb8 a134 8038 70c5 7db9 054a 9639
00000310: 9c0c 25b9 4153 d839 59b2 ac39 0744 90b7
00000320: c1d0 beb7 4052 9639 e655 c1b9 59a8 13b9
00000330: 6237 85b9 ffdb b839 b91e 1bba 9017 ff38
00000340: 1a6b 39b9 71b8 d9b6 47a3 bab9 f154 ce39
00000350: bfb2 adb8 9ec5 9db9 2452 6039 6208 023a
00000360: daeb 34b8 87d9 8eb8 ca16 5b39 d522 a8b9
00000370: c19f 4ab9 37b8 5139 9681 90b8 51f7 9f38
00000380: 7c20 c0b8 4464 03ba 3251 7cb9 eb9d e4b7
00000390: 0279 77b9 9923 52b9 4edc 33b9 1c53 c839
000003a0: 5104 5ab9 9f7c 8db9 7c29 9f39 3d0d 85b9
000003b0: c29b 0939 40ad d5b9 5499 7fb9 a4cc c0b9
000003c0: 031c 8cb8 b49e 1b39 bab4 ccb8 60aa 5c39
000003d0: 0fd4 00ba e20d f3b9 656a 80b9 f7a4 2f3a
000003e0: 8cb2 b6b8 f42a 28b9 c1b7 0e39 902b 60b8
000003f0: 9ce0 6439 abc8 feb6 bdbe 39b9 75b4 a1b8
-0.00014056277 -2.7381442e-05 8.7233755e-05 0.00030444955 0.00044020792 0.00057788653 0.00010241265 -0.00032513685
0.0005198091 0.0006538993 0.00016301543 -0.00038537764 5.4954202e-05 0.0006452879 -0.0007424558 -9.07683e-05
0.00021714994 -0.00028457033 -0.0007004953 0.0002368623 0.00022479895 0.00015221753 0.0004872043 0.00014948304
0.00093392126 0.00037656608 -3.5567675e-05 -0.0002813055 -0.0005550265 -0.00012769674 -0.00023877075 -6.3631334e-05
0.0004355753 -0.00030637157 -0.0002826738 -0.00036238154 -0.00010232247 9.6755095e-05 0.00024190698 -0.0002185337
0.0002146568 -0.00043899208 0.00028639354 0.0002607873 0.00011448586 -0.0001572806 -0.0006980687 -0.000505579
-7.245066e-05 -0.00040795535 -2.2960026e-05 0.0002799357 -0.00034146817 0.00016840035 -5.5723704e-05 0.0001405463
-0.00045406906 -0.0001457333 2.0772399e-05 0.00022486036 0.00018963656 0.00018494576 2.9309173e-05 0.00035080122
-0.00017560211 4.5664678e-05 -0.0003405745 0.0006407054 2.8020035e-05 0.00041502764 0.0006455375 8.593422e-06
1.078986e-05 8.950326e-05 -0.00041369357 -0.00014958503 -3.344177e-05 0.00048492066 -0.0006973135 6.924832e-05
-0.00021516455 -7.549717e-05 -0.0004224434 0.0007198596 -0.0002713864 -0.0002668233 0.00020457785 0.0004172174
-0.00066878076 8.12441e-05 0.0004531433 -0.00064539834 -0.00021281811 0.00021300139 -0.0005168944 0.00015898957
-3.284826e-05 -0.00033853442 -0.00022494931 0.00025382647 -0.00033448185 -0.00028212272 -0.0002245593 0.00013843646
-0.00033326968 -0.000104591796 0.0005166661 -7.492893e-05 0.00025203024 -8.923626e-05 -0.00038283024 -0.0003115501
-0.00031700774 -0.00010592926 4.8580183e-05 0.0003263541 -0.0005402285 -0.0005078339 -7.4441978e-06 0.00038400275
-0.00028197677 -5.572578e-05 -3.0593295e-05 -0.00013590339 0.00035435386 8.0739745e-05 -0.0003941682 -7.600242e-05
-0.00015448603 -0.0004305296 6.554843e-05 0.00026334054 -0.00022575879 0.00015440727 0.0006133692 0.0003433391
0.0006370134 0.00033502234 0.00014047453 0.00010216734 0.0016857018 -8.7260505e-06 -0.00023171227 -4.7905578e-05
-0.00083779014 0.00015854546 6.3081476e-05 0.0014477444 -0.0002914081 0.00047229475 0.00082161784 0.0006982122
0.00018664397 -5.189831e-05 -0.0008797216 -0.0004461523 0.00048041082 0.00019149613 -0.0012208872 0.00045188185
-0.0005537867 -0.0005813257 0.00031569198 -0.00014057626 -0.0008482399 -0.00014155499 0.00071189663 0.00040862025
0.00010269655 0.00046838087 0.0002192446 0.00014010708 -0.00026779834 0.00014443792 -0.000111089146 0.00023074728
-0.00026738178 -0.00059772166 0.0003142759 0.00020550052 -0.0003810917 0.00027760662 -0.000339827 0.00039202877
0.00028972098 0.0002892383 -0.00011862216 -0.00012768757 0.0006523824 0.0003347447 -0.00011330725 -0.00022412321
-3.3515742e-05 6.1133185e-05 -0.00024201511 0.00028665378 -0.00015740324 0.0004126076 0.00032939276 -1.7197815e-05
-2.2746974e-05 0.0002867151 -0.00036875828 -0.00014081727 -0.00025409 0.00035259125 -0.0005917359 0.000121637364
-0.00017682873 -6.4885758e-06 -0.00035598336 0.00039354668 -8.282577e-05 -0.0003009261 0.00021392904 0.00049603556
-4.3134998e-05 -6.811605e-05 0.00020893957 -0.0003206941 -0.00019323734 0.00020000419 -6.890592e-05 7.627777e-05
-9.161324e-05 -0.0005012194 -0.0002406284 -2.7253254e-05 -0.00023600835 -0.00020040422 -0.0001715284 0.00038208894
-0.00020791708 -0.00026986466 0.00030357752 -0.000253776 0.00013123362 -0.00040755607 -0.00024375814 -0.00036773563
-6.680938e-05 0.00014841073 -9.761141e-05 0.00021044305 -0.00049144117 -0.00046358915 -0.00024493333 0.0006700302
-8.711693e-05 -0.0001603773 0.00013610629 -5.3446332e-05 0.00021827448 -7.5931507e-06 -0.0001771403 -7.710691e-05

exp_avg_sq f4 [32, 64]
00000000: 8759 1936 fe17 3337 ef6c 7a36 ce93 f136
00000010: 71c9 0137 203f 2638 6ea3 d837 4f0e 5236
00000020: 29fa 7938 433d 2538 ee04 e336 46ec 4e37
00000030: 7528 df36 ac92 1138 6e03 6f37 2364 3237
00000040: b164 a836 4071 af37 ce68 8b38 f4e7 7e38
00000050: a225 2137 d347 b137 7752 9838 7b29 b637
00000060: f35a 8d38 0f26 0537 1a26 ba36 13af 5437
00000070: 6f80 1f38 19b7 5237 7679 4b38 ff89 2636
00000080: 2765 2437 5790 3937 365c c836 4423 2738
00000090: 1828 2637 092d 3137 cb3b 6436 a804 a036
000000a0: 4186 f236 4326 1a37 946f 1137 402a 0838
000000b0: 0882 af36 eea8 9736 94b0 a237 e58d 0837
000000c0: 9860 6b36 08e8 fa37 ae4b 2936 75e8 a436
000000d0: 4775 9d37 b269 df36 b78e 3c37 bba2 9a36
000000e0: 392c 1637 1099 4136 a199 a436 617f 4637
000000f0: ed57 4137 bee8 7137 66f5 5c37 da62 8037
00000100: d6bd c635 b1b7 b036 7f44 0b36 3958 7e36
00000110: 6016 7236 0873 9a37 91cb 4a37 8b41 c535
00000120: cf81 e037 584a 9437 b9c3 5236 bd7a bd36
00000130: c07d 6336 18e9 8837 cd53 e936 51f7 9936
00000140: 8ce9 1b36 a979 1437 d8e1 f337 e92d e737
00000150: e01f 9a36 1ac0 2437 40d4 0438 7676 1f37
00000160: e3c2 0438 62dd 6e36 8264 2236 5b34 d536
00000170: 88e4 8d37 29b2 cc36 4cdc c037 d9af be35
00000180: 5236 9136 0b35 a436 d809 4936 4b6f 9837
00000190: baa6 8a36 c12f a736 1c62 0436 ef04 0436
000001a0: e326 6536 35bb 9236 3c5a 9336 79e6 7f37
000001b0: dabc 0536 a3a8 1f36 0a7f 1f37 05b7 7036
000001c0: efbe 0536 2826 8137 18cf b035 95e8 2736
000001d0: 3810 1337 4c2d 5836 5a1b ac36 ad65 3e36
000001e0: 3919 a036 7a0b e535 404e 2036 fe54 aa36
000001f0: 4c3f a036 dc9d f236 8126 db36 cd90 0337
00000200: 734e dc35 9efb 0837 ccc7 6836 6e0e bd36
00000210: 6527 c436 defe 0f38 02b5 b337 39f2 2636
00000220: 6524 5538 2f3a 0638 dbfe 9d36 dc3c 3437
00000230: 0a65 d036 fe9d e537 0ee9 3f37 89a7 0d37
00000240: a231 7f36 a034 9137 66e8 6438 e0c1 5438
00000250: 2e4e f536 578c 9637 c1ea 7a38 1f03 8e37
00000260: 20f0 7838 3dcd e536 ffa9 9b36 0c5f 3637
00000270: 2948 0338 917d 4637 96c5 3238 948c db35
00000280: 2642 0637 c1e0 0437 02c3 9536 5712 0d38
00000290: 115b ce36 1cac 2637 57bd 2d36 4678 3036
000002a0: b8d5 9b36 c5a3 d936 32f8 fd36 7d74 f837
000002b0: 3f7b 7736 3b3c 7136 12bb 8437 a4ef c136
000002c0: 0ac0 3236 ffc7 e437 23f8 0536 a3f5 5536
000002d0: d06e 5037 6b12 ab36 2ca6 1637 941d 7936
000002e0: 6058 0437 97da 2636 1682 6736 9d9a 2437
000002f0: 9365 f936 215c 5937 5f35 3837 f0ea 5d37
00000300: b9b2 d835 0c55 d236 f102 3236 f228 8d36
00000310: 00ec 8b36 dbbd be37 f691 7537 c898 f835
00000320: 38da 0338 55f1 aa37 e520 7236 9b04 ee36
00000330: 8d2e 8036 6076 9537 da48 1437 3e77 bf36
00000340: ca4c 3436 0ef3 3e37 d9a4 1038 fe3d 0a38
00000350: 8679 c436 434c 5337 45bb 1a38 eac1 4237
00000360: 5a8f 1f38 d3da 9e36 d9de 4f36 4f25 f336
00000370: 8789 a637 8308 f636 f446 ea37 3aaa b735
00000380: 0dae bb36 3c1f b736 7c4f 5636 ccad b537
00000390: b9cc 8036 51b5 df36 a0a6 0736 31d5 1636
000003a0: 748f 8f36 af2d b436 66c8 c236 3a70 9c37
000003b0: 7eac 2036 7e18 4136 edd3 3537 e366 8e36
000003c0: a09a 1736 4983 8e37 8534 e835 c156 4136
000003d0: 7a6d 1c37 c7cf 7836 7fff cb36 fc38 4c36
000003e0: f8d3 c236 d9b0 de35 94dd 4336 b5d5 c636
000003f0: 094b a136 9f74 0537 a871 0d37 825f 2037
2.2850888e-06 1.06748175e-05 3.731631e-06 7.1995664e-06 7.735901e-06 3.9636274e-05 2.582531e-05 3.1300767e-06
5.9599206e-05 3.939612e-05 6.765701e-06 1.23335685e-05 6.6506277e-06 3.4707293e-05 1.4246309e-05 1.0632942e-05
5.018512e-06 2.0914362e-05 6.647558e-05 6.0774342e-05 9.60511e-06 2.113349e-05 7.263285e-05 2.1715407e-05
6.7403445e-05 7.936279e-06 5.5476676e-06 1.2676947e-05 3.8028167e-05 1.2559606e-05 4.851209e-05 2.4816252e-06
9.798713e-06 1.1060466e-05 5.9711992e-06 3.9848746e-05 9.903706e-06 1.0560508e-05 3.4009452e-06 4.7689136e-06
7.2277912e-06 9.188024e-06 8.668652e-06 3.2464275e-05 5.230544e-06 4.5198167e-06 1.939413e-05 8.139269e-06
3.5073954e-06 2.991037e-05 2.5227014e-06 4.9146424e-06 1.877047e-05 6.6582224e-06 1.1238902e-05 4.608502e-06
8.950993e-06 2.8848335e-06 4.9054656e-06 1.1831377e-05 1.1524168e-05 1.4418909e-05 1.3170158e-05 1.530482e-05
1.4807399e-06 5.2665932e-06 2.0752484e-06 3.7900302e-06 3.6073834e-06 1.8411796e-05 1.2087535e-05 1.4696719e-06
2.6763328e-05 1.7677594e-05 3.1406364e-06 5.6469275e-06 3.3898832e-06 1.6321006e-05 6.953697e-06 4.5885467e-06
2.3232742e-06 8.849814e-06 2.9073024e-05 2.7558724e-05 4.5932684e-06 9.819889e-06 3.1668926e-05 9.50472e-06
3.1652755e-05 3.5593625e-06 2.4198384e-06 6.3539896e-06 1.6914928e-05 6.1004143e-06 2.2990767e-05 1.4207282e-06
4.3276605e-06 4.893756e-06 2.9957064e-06 1.8171637e-05 4.13213e-06 4.982547e-06 1.972664e-06 1.9672405e-06
3.4146294e-06 4.372933e-06 4.391446e-06 1.52528455e-05 1.992847e-06 2.3791006e-06 9.506717e-06 3.5869318e-06
1.9929682e-06 1.5395766e-05 1.3173294e-06 2.502032e-06 8.765659e-06 3.2212874e-06 5.1291836e-06 2.837139e-06
4.771308e-06 1.706517e-06 2.3887405e-06 5.076289e-06 4.7757403e-06 7.2305393e-06 6.531191e-06 7.8419225e-06
1.6414109e-06 8.164816e-06 3.468699e-06 5.6343188e-06 5.8458413e-06 3.433122e-05 2.1422751e-05 2.487692e-06
5.0817052e-05 3.2002277e-05 4.7086337e-06 1.0743006e-05 6.2106456e-06 2.7372498e-05 1.1438749e-05 8.443262e-06
3.8026851e-06 1.7309852e-05 5.4575874e-05 5.07253e-05 7.3106703e-06 1.7946744e-05 5.9823276e-05 1.6929172e-05
5.935144e-05 6.8486247e-06 4.63915e-06 1.0870175e-05 3.130004e-05 1.1830955e-05 4.2622523e-05 1.6357685e-06
8.002424e-06 7.920143e-06 4.463248e-06 3.36341e-05 6.14988e-06 9.934443e-06 2.588922e-06 2.6296052e-06
4.64424e-06 6.4861692e-06 7.5688813e-06 2.9618148e-05 3.6877607e-06 3.5946857e-06 1.5822738e-05 5.779746e-06
2.6635848e-06 2.7272848e-05 1.996298e-06 3.1882453e-06 1.2423567e-05 5.0983413e-06 8.979387e-06 3.7121108e-06
7.8883895e-06 2.4863164e-06 3.4497402e-06 9.81116e-06 7.432603e-06 1.2955658e-05 1.0979681e-05 1.3227327e-05
1.6145269e-06 6.2683885e-06 2.652578e-06 4.206894e-06 4.169997e-06 2.2738173e-05 1.4637122e-05 1.8521905e-06
3.1436066e-05 2.0377958e-05 3.6079957e-06 7.093489e-06 3.8201165e-06 1.7817307e-05 8.8384495e-06 5.706125e-06
2.6866787e-06 1.1381473e-05 3.44858e-05 3.29595e-05 5.8554024e-06 1.2594336e-05 3.689087e-05 1.160845e-05
3.804206e-05 4.7342414e-06 3.0975118e-06 7.2463076e-06 1.9852783e-05 7.332362e-06 2.7928014e-05 1.3684105e-06
5.5932965e-06 5.457461e-06 3.193475e-06 2.1657812e-05 3.83853e-06 6.667026e-06 2.0213556e-06 2.2475836e-06
4.2784322e-06 5.3697363e-06 5.80498e-06 1.8648909e-05 2.3942262e-06 2.8773497e-06 1.08377835e-05 4.2439074e-06
2.2590757e-06 1.6988854e-05 1.7300632e-06 2.8809739e-06 9.323814e-06 3.7075822e-06 6.079615e-06 3.0431538e-06
5.806327e-06 1.6591758e-06 2.918624e-06 5.9257386e-06 4.806909e-06 7.954571e-06 8.430718e-06 9.55898e-06

exp_avg f4 [32]
00000000: 90dd a5ba 8575 91ba 8c21 c539 2d34 8aba
00000010: 5cda 5939 0fac ac39 b329 e5ba 23f1 313a
00000020: 9927 34ba 45c9 6939 5f56 a73a dbe6 bb39
00000030: 7e03 44ba 5b89 113a c086 0039 0866 4cb7
00000040: e1da 04bb 440d d5b9 a85a ef3a e3cf a7b9
00000050: c1c6 9f39 b586 3bba 3a13 bbba 4f45 403a
00000060: a235 643a db4d b0b9 91dd 0e3a 17be 8b3a
00000070: 30b4 83ba 8c58 cf39 d5e6 acba 765c 7b3a
-0.0012654532 -0.0011097646 0.00037599762 -0.0010544114 0.00020776078 0.0003293459 -0.0017483741 0.00067879463
-0.00068723556 0.0002229559 0.001276683 0.0003583942 -0.0007477327 0.00055517786 0.0001225723 -1.21831035e-05
-0.0020272064 -0.0004063641 0.0018261271 -0.0003200761 0.00030474926 -0.0007153557 -0.0014272698 0.00073345465
0.00087055017 -0.00033627343 0.0005449886 0.001066151 -0.0010048207 0.0003954809 -0.0013191352 0.0009588668

exp_avg_sq f4 [32]
00000000: 2d33 2439 04ef 9338 d9b7 0739 8536 ab38
00000010: 39eb 6738 2ab5 c038 56a6 1539 bfff a838
00000020: 888b 8338 55bb 9338 c24c e837 e4f1 2139
00000030: 4f4e f437 bf77 d638 1e4a 9738 6496 8338
00000040: 7c03 1539 9a68 ba38 c21a c038 ea98 9437
00000050: e2f2 1839 8cc4 9338 2814 d438 93a4 1138
00000060: 7a6a db38 1953 1839 8588 3e38 be2a a738
00000070: 805b 1539 036e 3938 d729 1139 bcfd c538
0.00015659323 7.054026e-05 0.00012943092 8.1640705e-05 5.529376e-05 9.189018e-05 0.00014271712 8.058501e-05
6.2725565e-05 7.0443995e-05 2.7692298e-05 0.00015444268 2.9123532e-05 0.000102266196 7.2140465e-05 6.274579e-05
0.00014211045 8.888655e-05 9.1602575e-05 1.7714181e-05 0.0001458633 7.046116e-05 0.00010112702 3.4723966e-05
0.000104625666 0.00014526806 4.5426674e-05 7.971142e-05 0.00014243834 4.4209894e-05 0.00013843864 9.440954e-05

exp_avg f4 [6, 32]
00000000: cf12 443a 9f71 07b9 7ff3 dd3a 8039 c939
00000010: 8bba c7b8 e2e3 a437 d8f1 3bba 0a2d 4dba
00000020: 3dd2 e3ba d5c7 98ba f004 033a 06a3 913a
00000030: 9306 c6ba ad27 9db9 989a 7aba 0a18 32b8
00000040: 5be3 ec39 5c79 8139 bb0f ad3a 19ec ea3a
00000050: 0c87 2f3a 5d5f fbb9 8f17 6a39 a3ba ebba
00000060: edd4 45b9 1e40 f4ba e61b 5939 b986 4039
00000070: 908f 44ba fc02 ca3a d7bc 8e38 5455 beba
00000080: 4775 e03a c87b f5ba 0cc7 a0b9 be1c 32bb
00000090: 4485 f8b9 64d8 9738 4250 a63a f8b6 92ba
000000a0: b3aa 1a3a 9d09 aeba 186d b93a 605a 8fba
000000b0: 86b3 df3a 2573 34bb 5e66 47ba 55bb bd3a
000000c0: 779a 303a 4b28 503a 174f 3e3b 4662 de3a
000000d0: 6f32 093b 0eae 1fba 0e9f fbb9 cbfb 993a
000000e0: 00e7 3739 ec4e 92ba 69b1 a4ba de70 053b
000000f0: 990f 68ba c8a0 cfb9 3cfa 1f3b 2b96 823a
00000100: 7249 cdb9 9cb0 3f3a 073c db3a 470f d039
00000110: c7d7 883a a2c9 243a 9817 f0ba 6c21 ea39
00000120: b5d9 f8ba fd65 103a 26ac 723a 28e0 943a
00000130: e713 3abb d500 ae3a e302 9439 06e5 a1ba
00000140: badd 803a 7e05 88ba c3b6 6b3a 238c 893b
00000150: bf3a 0abb b05f 70ba f79e eeba 173b 70ba
00000160: ecce d4b9 3933 53ba 0ee9 cc36 8530 02bb
00000170: 8ad1 e2b7 2614 c039 386c f3ba 9f60 b4ba
00000180: a913 283a af97 273a 75e5 293a 0b4e fab7
00000190: b7c3 b6b9 8b8b fd39 60c2 44b9 2f31 09ba
000001a0: bb5e b13a c070 2f3a 182b 513a 9716 5439
000001b0: 1e11 823b 09e8 32b9 49e6 2f39 1a2e a2ba
000001c0: 9680 a73a 5522 0aba 8f48 f639 549c 9dbb
000001d0: e2d0 ccba e48e 83b8 f974 a5b9 74ad 283a
000001e0: f09a 8539 d704 02b9 0a31 95b9 1ff5 8cba
000001f0: 5f04 84b9 08a0 b2b8 cbf6 22b9 e4ef 05ba
00000200: e758 203a e2f5 0bb9 f48f 4eba 3176 0f3a
00000210: 342a 5039 5ed8 beb9 c58c 9f3a a2e4 b93a
00000220: 6b30 cf3a 4685 93ba fe2f 19b9 f5f4 c1ba
00000230: c132 253b a200 00bb edb8 e236 e4b3 bb3a
00000240: a75a 95ba 1c76 993a 5519 51ba acf6 e1b9
00000250: 72da 313b d04a 30ba 93bc 623a 3be6 82b9
00000260: b28c 60b9 5e86 b5b8 0d45 d1b8 1f26 c63a
00000270: 8f00 72b7 6b7c 9d39 98c2 093b a048 cb3a
00000280: 3a76 db3a 232c a8b9 dae1 22ba 97db acba
00000290: 9212 c438 a43a 31ba 0b18 c839 b726 ce39
000002a0: 3817 203b 999a efb8 df4a cc3a 0ee4 f7ba
000002b0: 1253 f53a f8b6 1ebb 592c a5ba ff81 c33a
000002c0: c6a2 0a39 e806 023b 5a09 523a af85 00bb
000002d0: d652 e23a 09a7 4c3a 3e2a 153b 5e40 cd3a
000002e0: bc8f b3b7 ffed bb3a 453a 43ba b035 a53a
000002f0: f1d3 1c38 bc84 b9ba 9236 d53a 382b 9339
0.00074796093 -0.0001291693 0.0016933529 0.00038380548 -9.523806e-05 1.965644e-05 -0.00071695214 -0.0007826841
-0.0017381381 -0.0011656234 0.0004997989 0.0011111207 -0.001510816 -0.00029974934 -0.00095597794 -4.2460895e-05
0.0004518282 0.00024695217 0.0013203541 0.0017923146 0.0006695844 -0.00047945502 0.00022324755 -0.0017984699
-0.00018866705 -0.0018634831 0.00020705126 0.00018360735 -0.0007498199 0.0015412266 6.806262e-05 -0.0014521279
0.0017124795 -0.0018728906 -0.0003066588 -0.0027177776 -0.00047401537 7.240547e-05 0.0012688714 -0.0011193445
0.000590007 -0.0013278011 0.0014146892 -0.0010936968 0.0017067052 -0.0027534452 -0.00076065015 0.0014475385
0.0006736884 0.00079405744 0.002903884 0.0016966544 0.0020934602 -0.0006091305 -0.00047992956 0.0011748014
0.00017538294 -0.0011162437 -0.0012565079 0.0020361464 -0.0008852422 -0.00039601908 0.0024410626 0.0009962966
-0.00039155368 0.00073123886 0.0016726264 0.00039684234 0.0010440283 0.0006286149 -0.0018317578 0.0004465686
-0.001898578 0.00055083615 0.00092572195 0.0011358308 -0.002839321 0.0013275394 0.0002823091 -0.001235158
0.0009831705 -0.0010377613 0.0008991772 0.004197614 -0.0021092144 -0.0009169532 -0.0018205334 -0.00091640785
-0.0004058996 -0.0008056644 6.106805e-06 -0.0019865346 -2.7038874e-05 0.00036636106 -0.001857168 -0.0013761705
0.0006411621 0.0006393147 0.000648103 -2.9838664e-05 -0.00034859564 0.00048359888 -0.00018764427 -0.0005233464
0.001353226 0.0006692521 0.0007979139 0.00020226311 0.0039693257 -0.00017061843 0.00016775088 -0.0012373358
0.001277941 -0.0005269398 0.00046974837 -0.0048098955 -0.0015626217 -6.273182e-05 -0.00031558404 0.0006434538
0.00025483174 -0.00012399569 -0.00028456032 -0.0010754204 -0.0002518026 -8.5175096e-05 -0.00015541461 -0.0005109294
0.0006116763 -0.00013347671 -0.0007879727 0.0005472629 0.00019852148 -0.0003640083 0.001217269 0.0014182518
0.0015807276 -0.0011254929 -0.00014609096 -0.0014797734 0.0025207254 -0.0019531627 6.756853e-06 0.0014320579
-0.0011394814 0.0011708173 -0.0007976492 -0.0004309913 0.002713826 -0.0006725015 0.00086493156 -0.00024967067
-0.00021414718 -8.6557804e-05 -9.978758e-05 0.0015117562 -1.4424454e-05 0.00030038072 0.0021020528 0.0015509315
0.0016743608 -0.0003207634 -0.0006213464 -0.0013188001 9.349467e-05 -0.00067607523 0.00038164886 0.00039320227
0.0024427902 -0.00011425204 0.0015586278 -0.001891257 0.0018716773 -0.0024217945 -0.0012601718 0.0014916061
0.00013221343 0.0019840542 0.0008012258 -0.0019610932 0.0017267119 0.00078068726 0.0022760774 0.0015659442
-2.1405394e-05 0.0014337896 -0.00074473425 0.0012604501 3.7390684e-05 -0.0014153938 0.0016266874 0.00028070225

exp_avg_sq f4 [6, 32]
00000000: 5810 e337 72ff b837 7c55 e737 ace2 8938
00000010: 71a8 1038 d177 b437 548b e037 8c74 d737
00000020: a478 fe38 62eb 1c38 a130 7839 ba04 0638
00000030: 2a42 ae39 33e9 5a38 289f 8237 a58a bb38
00000040: 9d2f a238 3b77 5438 78de 4b38 28c3 a439
00000050: 047a bc38 76f7 fe37 f106 4738 c6bf 1839
00000060: da24 ab37 e0dc 9a37 10ec 4f38 92ab 2d38
00000070: f573 cf37 85ca 7938 0483 ee37 8e6e a537
00000080: fca6 5738 1470 1338 2d02 3438 b877 1239
00000090: 72a4 aa38 5f75 6038 56b4 6138 1763 3f38
000000a0: 4708 8e39 2e65 c838 35c3 163a 1dce 7438
000000b0: 147c 4f3a e44a e738 aa90 9c37 519d 3e39
000000c0: d6e7 ff38 c504 bd38 886c e938 f2a3 463a
000000d0: 1929 4639 d4ba 4d38 4eb1 9938 68a1 ae39
000000e0: 3d4b 0a38 d41a f237 6490 f338 a931 9d38
000000f0: 4d90 f937 ef51 0639 cce9 6938 6898 f037
00000100: 8971 3838 ec9e 3d38 aa0b 2238 db42 e538
00000110: 4783 9838 c72d 1f38 35b9 2e38 1c7d 2738
00000120: 1d88 6539 6aee 8d38 75ae d939 177e 5138
00000130: 0d11 1d3a 3f92 bb38 f296 a437 a62a 1439
00000140: 5fdc ef38 256d a738 b7d8 b038 bce3 103a
00000150: c415 1c39 d42d 5f38 9111 9e38 9bca 8339
00000160: 949d ff37 d0b6 c937 72c4 a938 3e45 a538
00000170: ce86 ed37 6ed9 c938 aad2 3538 80df fc37
00000180: 53f9 b937 a57e 9f37 5890 d237 8b49 8d38
00000190: 05a7 1d38 0605 c137 3547 c837 394d ab37
000001a0: 0ab9 cd38 bd04 1e38 40ec 6b39 eb49 e537
000001b0: 709b a139 23a9 3a38 b17e 4c37 bb07 9e38
000001c0: 1174 8138 cea8 3038 ca1d 4638 b1c2 9b39
000001d0: e6b3 a538 b90b b837 290d 0938 8a87 0c39
000001e0: de0d 8337 e335 7d37 4e1a 5838 bd73 1838
000001f0: 542d a737 f6cd 7a38 fc0b e037 5113 7e37
00000200: 0691 0638 0b36 ee37 d009 f237 47fe b138
00000210: 69a6 5138 6541 0138 da56 0538 4895 f537
00000220: 8285 1f39 f005 5e38 fbaa 9d39 686f 1e38
00000230: a399 e139 7ec5 7938 999e 8837 d314 df38
00000240: dce4 af38 649d 7138 5f41 8438 e987 d539
00000250: f803 e238 62eb 0938 89be 5738 d9a4 3f39
00000260: 172a c437 2a1d a037 695b 8138 325c 7d38
00000270: 911e a937 4b5d 9738 4911 1738 db0b a937
00000280: 8b0e 3238 9f45 0038 f33d 0a38 6b9e c138
00000290: cbbf 6338 758a 0438 b45d 1d38 d9a9 0038
000002a0: a51c 3a39 c971 7538 b78e b639 62df 3938
000002b0: 55d5 ff39 1822 9f38 ccf9 ad37 ca4c 0439
000002c0: 3ef6 aa38 40d6 8038 cdb3 9538 bead f439
000002d0: 3c67 0239 a44c 2c38 801b 8138 9067 6039
000002e0: 8317 d437 1318 b937 46f3 8b38 afac 8a38
000002f0: 2b15 e837 f4d9 9e38 9eb1 3038 c021 c137
2.706812e-05 2.205346e-05 2.7577153e-05 6.57489e-05 3.448915e-05 2.1513466e-05 2.676776e-05 2.5684269e-05
0.00012134135 3.7412516e-05 0.00023669239 3.195249e-05 0.00033237162 5.2192434e-05 1.557132e-05 8.9426794e-05
7.7336306e-05 5.065578e-05 4.860616e-05 0.0003142592 8.987266e-05 3.0394393e-05 4.7451762e-05 0.00014567291
2.0401949e-05 1.8461084e-05 4.9572496e-05 4.14062e-05 2.473032e-05 5.9554837e-05 2.843282e-05 1.9721014e-05
5.141551e-05 3.5151912e-05 4.291737e-05 0.00013968244 8.136862e-05 5.3515072e-05 5.381213e-05 4.5630233e-05
0.00027090518 9.555589e-05 0.0005751134 5.836609e-05 0.00079149124 0.00011028888 1.8664014e-05 0.00018178417
0.0001220253 9.013111e-05 0.00011130521 0.00075775303 0.00018898062 4.9049806e-05 7.328634e-05 0.00033308123
3.2971835e-05 2.886114e-05 0.00011614038 7.495593e-05 2.9750308e-05 0.00012809758 5.576927e-05 2.86812e-05
4.3974756e-05 4.520912e-05 3.8634673e-05 0.00010932024 7.272377e-05 3.7951188e-05 4.165732e-05 3.993242e-05
0.00021889848 6.767812e-05 0.00041519446 4.9946913e-05 0.00059916155 8.944095e-05 1.9620613e-05 0.00014130268
0.000114374554 7.98351e-05 8.4327e-05 0.0005527099 0.00014885428 5.3210024e-05 7.537299e-05 0.0002513722
3.0471747e-05 2.4046196e-05 8.095139e-05 7.8807105e-05 2.8315375e-05 9.624926e-05 4.334996e-05 3.0144816e-05
2.216982e-05 1.901325e-05 2.5101166e-05 6.7371024e-05 3.7587266e-05 2.3009732e-05 2.3875016e-05 2.0420748e-05
9.809628e-05 3.767455e-05 0.00022499356 2.7333348e-05 0.00030824123 4.4503377e-05 1.2188845e-05 7.535467e-05
6.1728184e-05 4.211888e-05 4.7234622e-05 0.0002970896 7.901322e-05 2.1939968e-05 3.26756e-05 0.00013401933
1.5622874e-05 1.5092522e-05 5.152291e-05 3.6347414e-05 1.9929059e-05 5.979646e-05 2.6708462e-05 1.5144077e-05
3.2083153e-05 2.8396977e-05 2.8853217e-05 8.4873805e-05 4.9984465e-05 3.08169e-05 3.1790558e-05 2.927579e-05
0.00015213157 5.2934454e-05 0.00030072764 3.777389e-05 0.00043029813 5.9550155e-05 1.6286316e-05 0.000106373474
8.387279e-05 5.760546e-05 6.306427e-05 0.00040727787 0.00010777259 3.2882563e-05 5.1437444e-05 0.0001827659
2.338462e-05 1.9087067e-05 6.168226e-05 6.0405764e-05 2.0160604e-05 7.217618e-05 3.6017304e-05 2.015189e-05
4.245205e-05 3.0582418e-05 3.295946e-05 9.232465e-05 5.429964e-05 3.16002e-05 3.7518985e-05 3.067576e-05
0.00017749013 5.8518523e-05 0.00034820076 4.431548e-05 0.00048796335 7.588061e-05 2.0739528e-05 0.00012617107
8.152098e-05 6.143423e-05 7.138364e-05 0.00046668755 0.00012436224 4.1079373e-05 6.1563216e-05 0.00021400885
2.5283318e-05 2.2064929e-05 6.67335e-05 6.6125176e-05 2.7666412e-05 7.574624e-05 4.212709e-05 2.3023109e-05

exp_avg f4 [6]
00000000: 60f7 c1ba f476 c43b a6f1 99ba c5c1 0d3b
00000010: 7207 263a 6b6f 8a3b
-0.0014798455 0.0059956256 -0.001174499 0.0021630388 0.0006333507 0.004224708

exp_avg_sq f4 [6]
00000000: 4244 153a 1bf6 a73a 4821 623a e557 153a
00000010: 86db 343a 54d7 473a
0.000569407 0.0012814434 0.0008626175 0.0005696996 0.00068991666 0.0007623334

exp_avg f4 [64, 26]
00000000: a7e2 bcbb 0000 0000 f988 e83c 03b3 833b
00000010: 0000 0000 54be 75bb 0000 0000 48b1 4b3c
00000020: 9bc9 47bc ac30 6b3b 7b4c 9cbc b3e8 62bc
00000030: 48e9 d43b 88a9 f23b 3ce4 c03c 18e2 ac3b
00000040: 4c42 bd3b 1bc3 2cbb 29da 1e3c 6e0d f63b
00000050: c090 f63c ae31 02b9 3edc 79bb 2dd8 f03c
00000060: 0400 0080 0400 0000 c7f5 ebbc 0000 0000
00000070: 4a16 d23d 6ac1 713c 0000 0000 bad4 01bd
00000080: 0000 0000 8ea8 423d 55ae 853b 52ab cabc
00000090: ebe5 bdbd 2e86 e4bc 8bf5 d23c 4f64 693d
000000a0: 2bcf d43d 9063 d93c b436 603d 6556 c7bc
000000b0: 88ae 47bc 2e0a bbbd 8c38 fb3d 42fa 6b38
000000c0: f01c 8e3b 3bb2 b93d 0400 0080 0400 0000
000000d0: 7ea1 14bb 0000 0000 03b4 703d 721f 293c
000000e0: 0000 0000 e483 2dba 0000 0000 40a9 d33b
000000f0: fdcc 89bc c809 aa3c 03cf 91bc e372 a6bc
00000100: d569 c539 8194 99bb d499 c23c 6d35 18bd
00000110: 7244 983c e87c c53d 3596 673d 9699 99bc
00000120: 40bc 5ebb e9a6 91b9 6fac 2cbc ebe5 233d
00000130: 0400 0000 0400 0080 630f 163c 0000 0000
00000140: f23b 90bd 6008 ffbb 0000 0000 f751 c4ba
00000150: 0000 0000 3848 e6bc ce0e 3f3d 357c 9bbc
00000160: 9228 133d d85c 883c fec3 cdbc 4f43 1a3c
00000170: 2045 32bd 689b 843c 2e04 0cbc 5722 25bd
00000180: 93ae ddbc 76ed a73b 5d77 d2bc e3a0 293a
00000190: 7868 233c 1c1f 60bd 0400 0080 0400 0080
000001a0: 9e5b 3ab8 0000 0000 4e9b 9d3c 275d 423b
000001b0: 0000 0000 eb0d f7ba 0000 0000 cba3 5aba
000001c0: ce9b 3239 e182 6d3b e871 87bb 4cfd 25bb
000001d0: d54a 8ebb 7232 5bbb a26a e43b d9cc 04bc
000001e0: 2642 fd3b 9803 cb3c 95f3 c63c f732 eebb
000001f0: 0d9b 11bb e4fd c0b7 fec6 0dbb 24a1 273c
00000200: 0400 0000 0400 0000 6073 103c 0000 0000
00000210: a1a1 8ebd f020 c1bb 0000 0000 72f0 8ebb
00000220: 0000 0000 431c 08bd a4e2 903d 1fb2 d1bc
00000230: 1c44 de3c 71a6 1c3c 5062 fabc 36a7 cc3c
00000240: 027b 26bd 09d4 ea3c 15c8 f63a e1a9 81bd
00000250: 0b9a c8bb efc7 543c 9d28 f6bb 98f8 213a
00000260: edce 3b3c dbef 71bd 0400 0080 0400 0080
00000270: 24bf a5bc 0000 0000 24c4 633d 1e1f 2e3c
00000280: 0000 0000 2682 f5bc 0000 0000 845d ae3c
00000290: d7be 523d a20d 25bd 5855 90bd ffba cbbb
000002a0: 9042 c8b9 c080 453d 7981 963d 9076 f53c
000002b0: 2625 673d 807e 27bd 3c42 633b f26b 83bd
000002c0: 05b9 db3d b351 a639 eb76 093c 8d59 973d
000002d0: 0400 0080 0400 0000 260e ec3a 0000 0000
000002e0: 8605 16bd 5822 99bb 0000 0000 daa0 853a
000002f0: 0000 0000 97f0 1cbc 11ab c13c 9fc4 8cbc
00000300: 824d 753c 6889 ab3c 7607 73ba f38f 063b
00000310: a266 9bbc 315a 5c3c f2dc 13bb 516e 2ebd
00000320: acb6 10bd 06a8 a43b d089 70bc 99f5 d439
00000330: 4c5e a83c 7af1 09bd 0400 0080 0400 0080
00000340: 5be3 94bc 0000 0000 7032 d03d 3b29 803c
00000350: 0000 0000 15b6 b0bc 0000 0000 a8db e43c
00000360: 3257 3a3b af7b 19bc 78aa 88bd 10b1 53bc
00000370: 7e9c 8cbb 2b93 8b3c c9ee ad3d d80d af3b
00000380: 4e68 1b3d ea2f ee3c bb46 683d 2bce 30bd
00000390: acd5 a93d 482c 0fb7 371d 00bb 5834 b53d
000003a0: 0400 0080 0400 0000 e4a5 bfbc 0000 0000
000003b0: d7de 023e 4729 7d3c 0000 0000 406f c8bb
000003c0: 0000 0000 a6d8 763d 1489 93bd 25f4 cc3c
000003d0: 0053 aebd 9f09 30bd ff14 4b3d 5407 503c
000003e0: 11a3 c53d b962 14bd afca e03c dff2 ca3d
000003f0: 6172 b93c 784a 07bd b557 ac3d af8e 5cba
-0.0057643238 0.0 0.028385626 0.0040191426 0.0 -0.0037497478 0.0 0.012432404
-0.012194063 0.0035887165 -0.019079437 -0.013849425 0.006497536 0.0074054636 0.02354633 0.005275976
0.0057757255 -0.002636141 0.009695568 0.007508925 0.030098319 -0.00012416273 -0.003812566 0.029399956
-6e-45 6e-45 -0.02880372 0.0 0.102581576 0.014755586 0.0 -0.031697012
0.0 0.047524028 0.00407962 -0.024739895 -0.09272369 -0.027896013 0.02575185 0.056980427
0.10391077 0.026536733 0.05473967 -0.024333188 -0.012187608 -0.09132801 0.12266645 5.6261437e-05
0.0043369457 0.09067198 -6e-45 6e-45 -0.0022679265 0.0 0.058765423 0.010322439
0.0 -0.00066190795 0.0 0.006459385 -0.016821379 0.020756617 -0.017798906 -0.020318454
0.0003765362 -0.0046868925 0.023754992 -0.037160326 0.018587325 0.096429646 0.056539733 -0.018749993
-0.0033986717 -0.00027780913 -0.010539158 0.04001419 6e-45 -6e-45 0.009158942 0.0
-0.07042684 -0.007782981 0.0 -0.0014978041 0.0 -0.028110608 0.04664498 -0.018980125
0.035927363 0.016645834 -0.02511787 0.009415462 -0.043522954 0.016187385 -0.008545918 -0.040315952
-0.027060783 0.005124743 -0.025691682 0.00064708124 0.009973638 -0.05471717 -6e-45 -6e-45
-4.443118e-05 0.0 0.019239094 0.0029657574 0.0 -0.0018848752 0.0 -0.0008340447
0.00017033445 0.003624134 -0.0041334517 -0.0025327979 -0.0043424168 -0.0033446816 0.0069707194 -0.00810548
0.007728833 0.024781987 0.02428607 -0.007269259 -0.0022217662 -2.300641e-05 -0.0021633501 0.01023129
6e-45 6e-45 0.00881657 0.0 -0.06964422 -0.005893819 0.0 -0.0043621594
0.0 -0.033230077 0.07074478 -0.02559763 0.027132086 0.009561167 -0.030564457 0.024982076
-0.040644653 0.02866556 0.001882794 -0.0633123 -0.006121879 0.012987121 -0.0075121657 0.0006178706
0.011462909 -0.059066635 -6e-45 -6e-45 -0.020232745 0.0 0.055606976 0.010627536
0.0 -0.029969286 0.0 0.021284826 0.05145153 -0.040296204 -0.07047528 -0.00621736
-0.00038196566 0.04821849 0.07348914 0.029963762 0.056431912 -0.040892124 0.003467693 -0.06417073
0.10728649 0.00031722858 0.008390169 0.07390127 -6e-45 6e-45 0.0018009588 0.0
-0.03662636 -0.0046732835 0.0 0.0010195032 0.0 -0.009578845 0.023641141 -0.0171836
0.014972093 0.020939544 -0.0009270826 0.0020532578 -0.018969838 0.013449238 -0.0022562114 -0.042585675
-0.03533046 0.0050249128 -0.014681295 0.00040618776 0.020552777 -0.033677556 -6e-45 -6e-45
-0.018174818 0.0 0.1016587 0.01564466 0.0 -0.021571198 0.0 0.027936772
0.002843332 -0.009367867 -0.06673139 -0.012920633 -0.0042911163 0.017037949 0.0849281 0.0053422265
0.03794127 0.029075582 0.05670808 -0.043165367 0.08292708 -8.533774e-06 -0.0019548663 0.088478744
-6e-45 6e-45 -0.023394533 0.0 0.12780319 0.015451736 0.0 -0.0061167777
0.0 0.060265206 -0.0720388 0.025018761 -0.08511925 -0.042977925 0.04958057 0.01269706
0.09650243 -0.03622696 0.027440397 0.09909605 0.022637548 -0.033030003 0.08415166 -0.00084135955
