flare/polgrad/lightning_logs/version_29/checkpoints/epoch=49.ckpt (torch_old, 152910 bytes, 36 tensors)

exp_avg f4 [6]
0.022167535 0.0051971013 -0.003476773 0.02251377 0.006632201 0.021192519
00000000: b198 b53c 724c aa3b 92da 63bb cc6e b83c
00000010: ef52 d93b ef9b ad3c

exp_avg_sq f4 [6]
0.00017466754 0.0001473784 0.0001429975 0.00017406979 0.00017838246 0.00016916209
00000000: f626 3739 9789 1a39 99f1 1539 8186 3639
00000010: 2d0c 3b39 1a61 3139

exp_avg f4 [64, 26]
-0.00091643597 0.0 0.0003160179 -0.00030874365 0.0 4.971804e-06 0.0 0.00050732016
0.0022702971 -0.0010708983 -0.0017334532 -0.0008745483 0.0029551643 0.002704596 0.001082729 0.0010644163
0.0026315115 -0.004332359 0.0012355333 0.004086151 0.0011741832 0.00033852604 0.0012979922 0.002618027
6e-45 -2.9299144e-05 -3.1814925e-05 0.0 -0.0018073597 -0.00056681724 0.0 -0.00016506024
0.0 0.00012296368 0.00045284053 -0.0013119068 0.00026364517 0.0016441955 0.0005443157 -0.0009364366
-0.00021692665 -0.00072109024 0.00025290158 0.00030718494 -0.003502105 -4.0684914e-05 0.00019634994 0.00022590102
0.00021728544 0.00038100051 -6e-45 8.984458e-05 0.00034186893 0.0 -0.0009697622 5.052793e-05
0.0 3.934013e-05 0.0 -0.00013850938 -0.00046018814 -0.00015044097 0.0003653194 0.00017081888
0.0008380785 -0.00077122235 -0.000669098 -3.3464108e-05 -0.00054054556 0.00011257092 -0.0018785234 -0.0010088952
-0.00030624768 -0.00036643527 -0.0007051675 -0.00016480079 -6e-45 -1.4965475e-05 0.0002097458 0.0
0.0007894309 0.0003266268 0.0 -0.00045272766 0.0 -0.00018599723 -0.0005993612 0.00033084306
0.0004246228 0.00053616497 -0.00056156283 -0.00064995955 -3.6634854e-05 0.0002878893 -4.2660064e-05 0.00058015296
0.0013999837 -0.0010481629 -0.0008598162 -0.0003655344 -0.00076039234 -0.0005182084 6e-45 -2.2772803e-05
0.00016801583 0.0 0.0029819175 0.0007738661 0.0 -0.0003413569 0.0 -0.00031728274
0.00035789318 0.0007700174 -0.0009592136 -0.00044749517 -0.0010005215 -0.00019923768 0.0010941123 0.0007100362
-0.0006588139 -0.0008021913 0.0040505854 -0.0014339747 -0.0002786502 -0.0015446532 -0.00227304 0.0014423743
6e-45 -0.00021238075 0.0002491358 0.0 0.0012528589 0.0004267572 0.0 -0.0005530895
0.0 -0.00041156326 -9.384344e-05 0.00057921966 -3.2425043e-05 -0.00083515537 0.0016603225 0.0005638811
-2.3545581e-05 0.00062871433 0.00069093285 -0.0014384605 0.0053026434 -0.0006127957 -0.0019847075 -0.0006082456
-0.0006655211 0.00030881108 -6e-45 -0.00010094766 0.00079646055 0.0 -0.0015932985 0.00019345466
0.0 0.0013789949 0.0 -0.00046068203 -0.0010152352 0.0012760677 -0.00022078055 -0.0035897107
0.0009449095 0.00017378396 -0.0018748885 5.566553e-05 -0.00281067 -0.0013703853 0.0021028616 0.0006150218
-0.00014870902 -0.0009783038 -0.00042048443 -0.0014996276 6e-45 -0.00015454675 2.1160115e-05 0.0
0.0014446657 0.00051466323 0.0 0.0006961551 0.0 -3.0973286e-05 0.00038265658 0.0009593378
-0.0014406621 -0.002414261 -7.299404e-05 0.0010619776 0.00024612504 0.0011773384 -0.00042403684 -0.0029018167
0.0039922176 0.0012018122 0.00022103253 -0.0009540466 -0.00071902236 0.00023061654 6e-45 -0.0001976533
-0.0006979099 0.0 -0.0015391823 -0.0008591722 0.0 -0.00031514256 0.0 0.00053198036
0.0014580685 -0.0016304896 -0.00017887563 0.001642219 0.0006996676 0.0005162186 0.0006720952 -0.00044456153
0.0015585199 -0.00036254554 -0.0050057657 0.0019620871 0.0012144719 0.0015431555 0.0019474719 0.0012022357
6e-45 0.00020207002 -0.0007116215 0.0 0.00039956818 -0.00048066291 0.0 -0.00015481502
0.0 0.00039240898 0.0014953096 -0.00083137915 -0.00075602066 0.00030052062 3.252685e-05 0.0015113403
0.0010934407 0.0003432423 0.0018534658 -0.0019136881 -0.00049858354 0.0019815913 0.000910926 0.0010608854
00000000: fa3c 70ba 0000 0000 34af a539 dfde a1b9
00000010: 0000 0000 79d3 a636 0000 0000 aefd 043a
00000020: 44c9 143b 625d 8cba 0a35 e3ba f141 65ba
00000030: 6eab 413b 973f 313b 5bea 8d3a e283 8b3a
00000040: 7075 2c3b 76f6 8dbb 9ef1 a13a 1ee5 853b
00000050: 0de7 993a 327c b139 6421 aa3a 3493 2b3b
00000060: 0400 0000 6fc7 f5b7 0471 05b8 0000 0000
00000070: eee4 ecba 7696 14ba 0000 0000 0514 2db9
00000080: 0000 0000 d0ef 0039 3a6b ed39 4af4 abba
00000090: db39 8a39 0c82 d73a 69b0 0e3a 327b 75ba
000000a0: ce76 63b9 8c07 3dba e097 8439 aa0d a139
000000b0: 9283 65bb 18a5 2ab8 49e3 4d39 d8df 6c39
000000c0: 1ed7 6339 06c1 c739 0400 0080 f16a bc38
000000d0: df3c b339 0000 0000 a437 7eba f4ed 5338
000000e0: 0000 0000 2501 2538 0000 0000 d43c 11b9
000000f0: 6845 f1b9 b1bf 1db9 5788 bf39 d81d 3339
00000100: 7fb2 5b3a db2b 4aba 6866 2fba d05b 0cb8
00000110: 66b3 0dba 0d14 ec38 c938 f6ba e83c 84ba
00000120: de8f a0b9 1c1e c0b9 fdda 38ba 60ce 2cb9
00000130: 0400 0080 3a14 7bb7 36ef 5b39 0000 0000
00000140: d0f1 4e3a 1b3f ab39 0000 0000 145c edb9
00000150: 0000 0000 4008 43b9 731e 1dba 0175 ad39
00000160: e89f de39 6c8d 0c3a d835 13ba 0c62 2aba
00000170: 60a8 19b8 d9ef 9639 e5ed 32b8 6815 183a
00000180: a87f b73a 8362 89ba 4a65 61ba 32a5 bfb9
00000190: 1155 47ba 61d8 07ba 0400 0000 3908 bfb7
000001a0: 682d 3039 0000 0000 466c 433b 46dd 4a3a
000001b0: 0000 0000 26f8 b2b9 0000 0000 f858 a6b9
000001c0: 9ca3 bb39 feda 493a bc73 7bba c99d eab9
000001d0: ee23 83ba 75ea 50b9 5168 8f3a b921 3a3a
000001e0: 41b4 2cba 264a 52ba c6ba 843b 35f4 bbba
000001f0: cc17 92b9 f675 caba 48f7 14bb 0d0e bd3a
00000200: 0400 0000 86b2 5eb9 719e 8239 0000 0000
00000210: f836 a43a 62be df39 0000 0000 35fd 10ba
00000220: 0000 0000 16c7 d7b9 d0cd c4b8 c6d6 173a
00000230: 2000 08b8 54ee 5aba 2e9f d93a 6cd1 133a
00000240: c083 c5b7 4ed0 243a b81f 353a ba8a bcba
00000250: ccc1 ad3b 06a4 20ba de11 02bb ac72 1fba
00000260: 5d76 2eba ece7 a139 0400 0080 ddb3 d3b8
00000270: 90c9 503a 0000 0000 3ad6 d0ba 17da 4a39
00000280: 0000 0000 64bf b43a 0000 0000 b287 f1b9
00000290: a411 85ba ba41 a73a 5481 67b9 5a41 6bbb
000002a0: ceb3 773a c739 3639 d2be f5ba 687a 6938
000002b0: 3833 38bb 809e b3ba 2ad0 093b 6a39 213a
000002c0: c6ee 1bb9 6e3a 80ba 7774 dcb9 278f c4ba
000002d0: 0400 0000 d40d 22b9 0081 b137 0000 0000
000002e0: f05a bd3a 77ea 063a 0000 0000 2e7e 363a
000002f0: 0000 0000 50e9 01b8 4c9f c839 127c 7b3a
00000300: 99d4 bcba 9438 1ebb 6014 99b8 0e32 8b3a
00000310: 580a 8139 ec50 9a3a 4351 deb9 682c 3ebb
00000320: 26d1 823b 2086 9d3a f8c4 6739 fc18 7aba
00000330: c67c 3cba a8d1 7139 0400 0000 2741 4fb9
00000340: f1f3 36ba 0000 0000 63be c9ba 123a 61ba
00000350: 0000 0000 b839 a5b9 0000 0000 9974 0b3a
00000360: a91c bf3a 27b6 d5ba 9090 3bb9 ba3f d73a
00000370: e669 373a d852 073a 8c2f 303a 0a14 e9b9
00000380: 4047 cc3a 0a14 beb9 6807 a4bb 5c96 003b
00000390: ea2e 9f3a b543 ca3a 5042 ff3a 5694 9d3a
000003a0: 0400 0000 c2e2 5339 1c8c 3aba 0000 0000
000003b0: 227d d139 7c01 fcb9 0000 0000 d755 22b9
000003c0: 0000 0000 3ebc cd39 44fe c33a e9f0 59ba
000003d0: b02f 46ba 328f 9d39 706d 0838 2a18 c63a
000003e0: c851 8f3a 34f5 b339 feef f23a b8d4 faba
000003f0: 60b3 02ba 96dd 013b 36cb 6e3a 680d 8b3a

exp_avg_sq f4 [64, 26]
2.5602271e-06 0.0 1.8064244e-05 2.3457613e-07 0.0 4.1085383e-07 0.0 1.1021157e-06
1.3908271e-05 7.2218984e-07 1.5309999e-05 1.0864892e-06 9.337374e-06 1.6081824e-06 1.5048795e-05 1.8656756e-06
8.710926e-06 7.327982e-06 9.69891e-06 3.9119295e-06 1.51560225e-05 1.8624403e-06 4.8947013e-06 1.546628e-05
1.5268133e-08 1.4418262e-07 6.925866e-07 0.0 8.412769e-06 1.9911475e-07 0.0 2.0695978e-07
0.0 3.2135517e-07 5.613103e-06 4.4646075e-07 6.5410222e-06 7.6551635e-07 4.2508955e-06 8.348072e-07
6.25649e-06 1.0265195e-06 1.1028701e-06 2.0784826e-06 4.093451e-06 2.167501e-06 5.2434075e-06 5.3691457e-07
2.383143e-07 5.6935237e-06 1.8475252e-08 2.7593172e-08 7.7511817e-07 0.0 7.4474797e-06 1.1020712e-07
0.0 1.2416056e-07 0.0 3.7297144e-07 5.1944558e-06 1.8768456e-07 6.188836e-06 4.1092406e-07
4.273533e-06 6.1273477e-07 5.9309386e-06 4.205526e-07 1.8921315e-06 1.2314144e-06 3.628825e-06 8.404068e-07
5.76133e-06 6.979674e-07 7.465156e-07 5.9194936e-06 4.3547383e-09 3.284161e-08 5.767403e-07 0.0
4.8154843e-06 5.7774077e-08 0.0 7.0106026e-08 0.0 2.6603598e-07 3.5561418e-06 1.2142578e-07
4.0569694e-06 1.8253797e-07 2.8995164e-06 3.2727044e-07 3.984229e-06 2.9684747e-07 1.8091366e-06 8.8552616e-07
2.1501908e-06 6.684705e-07 3.8591656e-06 4.8507763e-07 7.1107866e-07 3.9709334e-06 8.312885e-09 2.941741e-08
2.2940199e-06 0.0 2.1557142e-05 2.905775e-07 0.0 3.590504e-07 0.0 1.0097157e-06
1.5587144e-05 7.161383e-07 1.776673e-05 1.1779503e-06 1.1225636e-05 1.5507837e-06 1.6645197e-05 1.6420379e-06
6.6701487e-06 4.9158357e-06 1.0650265e-05 3.2775097e-06 1.6129725e-05 1.724395e-06 3.4918962e-06 1.611212e-05
3.123973e-08 7.6192315e-08 1.4111162e-06 0.0 1.1116644e-05 1.7641864e-07 0.0 1.8435347e-07
0.0 7.086013e-07 8.235966e-06 4.9987943e-07 8.987927e-06 8.8175767e-07 6.292166e-06 1.0770322e-06
9.110408e-06 1.1249302e-06 4.922585e-06 3.759317e-06 7.765788e-06 2.3563302e-06 9.381209e-06 1.0958998e-06
1.7298514e-06 9.340473e-06 3.583731e-08 1.18686856e-07 6.020499e-06 0.0 5.3064796e-05 5.1147725e-07
0.0 3.7056583e-07 0.0 2.6448079e-06 4.4157125e-05 6.562447e-07 4.8280923e-05 1.5255994e-06
3.027804e-05 2.2994866e-06 4.491898e-05 2.1750272e-06 1.2565172e-05 6.1184855e-06 1.6241203e-05 4.045197e-06
4.3893775e-05 2.3360142e-06 4.0559744e-06 4.4183045e-05 2.7127259e-08 8.659637e-08 2.8894867e-06 0.0
2.8061015e-05 2.5979855e-07 0.0 2.8122153e-07 0.0 1.2204129e-06 2.2117425e-05 6.9509156e-07
2.4752004e-05 1.0764576e-06 1.51015665e-05 1.3790266e-06 2.2502736e-05 1.4513834e-06 5.444721e-06 4.7849103e-06
8.643e-06 2.7369058e-06 2.2984965e-05 1.5889372e-06 2.0084433e-06 2.3187018e-05 1.8769589e-08 5.968158e-08
2.5066734e-06 0.0 2.331428e-05 2.3275301e-07 0.0 3.0397285e-07 0.0 1.1130518e-06
1.7857961e-05 5.452567e-07 1.9843015e-05 9.156991e-07 1.20198665e-05 1.4331132e-06 1.8515035e-05 1.4097728e-06
5.2244372e-06 3.959681e-06 8.472289e-06 3.0030621e-06 1.863083e-05 1.7012768e-06 2.316225e-06 1.879506e-05
1.1488529e-08 6.2739105e-08 1.7122544e-06 0.0 1.6219763e-05 1.8238663e-07 0.0 2.6239672e-07
0.0 7.4217155e-07 1.2009442e-05 4.97337e-07 1.33180865e-05 7.9338287e-07 7.875856e-06 1.1215344e-06
1.2481723e-05 1.4746815e-06 4.321381e-06 5.1284583e-06 6.6549e-06 2.5942734e-06 1.2168529e-05 1.1801012e-06
00000000: 5ed0 2b36 0000 0000 ab88 9737 ccdf 7b34
00000010: 0000 0000 5293 dc34 0000 0000 68ec 9335
00000020: 9257 6937 82dc 4135 f96d 8037 7cd3 9135
00000030: b7a7 1c37 bad8 d735 157a 7c37 2068 fa35
00000040: 2425 1237 e3e2 f536 80b8 2237 3843 8336
00000050: 9f46 7e37 f6f8 f935 2a3d a436 95bd 8137
00000060: fb26 8332 9ed0 1a34 30ea 3935 0000 0000
00000070: 9124 0d37 3fcc 5534 0000 0000 ac38 5e34
00000080: 0000 0000 b886 ac34 3058 bc36 19b1 ef34
00000090: f47a db36 e27d 4d35 eaa2 8e36 8417 6035
000000a0: d7ee d136 f1c6 8935 5406 9435 0f7c 0b36
000000b0: 7a5a 8936 6275 1136 87f0 af36 7d20 1035
000000c0: 56e3 7f34 ff0a bf36 82b3 9e32 0706 ed32
000000d0: b711 5035 0000 0000 5de5 f936 01ab ec33
000000e0: 0000 0000 ff50 0534 0000 0000 ce3c c834
000000f0: 094c ae36 5786 4934 b2a9 cf36 f99c dc34
00000100: 5e65 8f36 d07a 2435 6002 c736 4fc8 e134
00000110: 25f5 fd35 1447 a535 bd86 7336 5198 6135
00000120: 7351 c136 f45b 3b35 2964 4835 10a0 c636
00000130: afa0 9531 bb0d 0d33 4bd1 1a35 0000 0000
00000140: b294 a136 4523 7833 0000 0000 328d 9633
00000150: 0000 0000 b5d3 8e34 0da6 6e36 4461 0234
00000160: 1a21 8836 a8ff 4334 5095 4236 b5b3 af34
00000170: 44b0 8536 685e 9f34 76d1 f235 e5b4 6d35
00000180: ff4b 1036 f170 3335 fb7d 8136 4836 0235
00000190: f4e0 3e35 0f3e 8536 74d0 0e32 92b1 fc32
000001a0: f6f2 1936 0000 0000 9cd5 b437 ab00 9c34
000001b0: 0000 0000 83c3 c034 0000 0000 9185 8735
000001c0: 23c1 8237 a63c 4035 c309 9537 101a 9e35
000001d0: bd55 3c37 8624 d035 4aa1 8b37 fe63 dc35
000001e0: 24d0 df36 b5f2 a436 8aae 3237 30f3 5b36
000001f0: 524e 8737 c371 e735 5256 6a36 8428 8737
00000200: 722c 0633 2b9f a333 9565 bd35 0000 0000
00000210: 9f81 3a37 966d 3d34 0000 0000 b2f2 4534
00000220: 0000 0000 b636 3e35 342d 0a37 742f 0635
00000230: daca 1637 edb1 6c35 4b21 d336 8b8e 9035
00000240: e8d8 1837 4ffc 9635 af2c a536 9348 7c36
00000250: ce49 0237 7221 1e36 fc63 1d37 d516 9335
00000260: 3e2d e835 07b5 1c37 8aeb 1933 cae0 fe33
00000270: b103 ca36 0000 0000 e491 5e38 734c 0935
00000280: 0000 0000 2ef2 c634 0000 0000 747d 3136
00000290: 5a35 3938 cb28 3035 3f81 4a38 32c3 cc35
000002a0: 99fd fd37 e150 1a36 6367 3c38 aff6 1136
000002b0: 01cf 5237 644d cd36 b83d 8837 fabb 8736
000002c0: 951a 3838 6bc4 1c36 8e18 8836 2f51 3938
000002d0: 7905 e932 dcf6 b933 01e9 4136 0000 0000
000002e0: 9264 eb37 717a 8b34 0000 0000 cbfa 9634
000002f0: 0000 0000 11cd a335 cf88 b937 5496 3a35
00000300: 86a2 cf37 cd7a 9035 bc5c 7d37 fe16 b935
00000310: 42c4 bc37 27cd c235 ccb1 b636 118e a036
00000320: 6701 1137 afab 3736 d6cf c037 7743 d535
00000330: cbc8 0636 be81 c237 c33a a132 4c2a 8033
00000340: 5238 2836 0000 0000 0993 c337 a9ea 7934
00000350: 0000 0000 b631 a334 0000 0000 2b64 9535
00000360: aecd 9537 c15d 1235 8d74 a637 5dce 7535
00000370: efa8 4937 6559 c035 bc50 9b37 6d37 bd35
00000380: 934d af36 67dd 8436 3424 0e37 3788 4936
00000390: 6749 9c37 6d57 e435 7170 1b36 16aa 9d37
000003a0: 165f 4532 30bb 8633 9dd0 e535 0000 0000
000003b0: ad0f 8837 0ed6 4334 0000 0000 88df 8c34
000003c0: 0000 0000 a439 4735 297c 4937 bd80 0535
000003d0: bf70 5f37 dbf8 5435 8b22 0437 a187 9635
000003e0: 9868 5137 aced c535 6100 9136 1f15 ac36
000003f0: 284d df36 4719 2e36 6f27 4c37 f863 9e35

exp_avg f4 [64]
0.00031601219 -0.0018073597 -0.00096976035 0.0007894331 0.0029819168 0.0012528577 -0.0015933069 0.001444665
-0.0015391822 0.00039956652 0.00014018407 0.0017743421 -0.0016210421 -0.002198671 -0.0017702242 0.0023359703
-0.00075082394 -0.0017177982 0.0023457152 0.0018853289 -0.0012753576 0.0009890848 0.0052402588 0.00012373374
-0.0009839539 -0.0032610944 2.129469e-06 0.00067235756 -0.004322935 -0.0015865497 -0.0026355605 -0.0015504773
-0.001437298 -0.00018950293 0.0036256518 0.0016185632 -0.0018225684 6.0100516e-05 0.0027227562 0.001474544
0.0019758525 0.0009941577 -0.0045891725 0.0003642912 -0.003466638 -0.00051485555 0.0005050595 -0.0005279378
0.0017711457 -0.0003947795 -0.00061433495 -6.810532e-05 -0.00023063167 -6.7655084e-05 0.00068360346 -0.0006796822
0.0011308693 0.0002885934 0.0020157488 -0.00021335273 2.6704103e-05 -0.0021882611 -7.6681725e-05 0.0008061762
00000000: 70ae a539 eee4 ecba 8437 7eba f5f1 4e3a
00000010: 436c 433b ee36 a43a 82d6 d0ba ea5a bd3a
00000020: 62be c9ba e97c d139 60fe 1239 0b91 e83a
00000030: 2679 d4ba 9417 10bb de06 e8ba 1417 193b
00000040: f1d2 44ba be27 e1ba 92ba 193b 241d f73a
00000050: e629 a7ba 2ea4 813a 7ab6 ab3b 86be 0139
00000060: 04f8 80ba 16b8 55bb 00e8 0e36 2741 303a
00000070: 68a7 8dbb c6f3 cfba 5eb9 2cbb 6339 cbba
00000080: b863 bcba 4eb5 46b9 589c 6d3b f825 d43a
00000090: 3fe3 eeba 7014 7c38 4570 323b 7d45 c13a
000000a0: 4e7d 013b 664e 823a c560 96bb 56fe be39
000000b0: 8930 63bb 5ff7 06ba f865 043a 4e65 0aba
000000c0: ca25 e83a 68fa ceb9 520b 21ba c4d3 8eb8
000000d0: b8d5 71b9 0ce2 8db8 da33 333a b32c 32ba
000000e0: ad39 943a 5a4e 9739 a71a 043b 70b7 5fb9
000000f0: a002 e037 ee68 0fbb 30d0 a0b8 9255 533a

exp_avg_sq f4 [64]
1.8064244e-05 8.412769e-06 7.4474788e-06 4.815486e-06 2.1557144e-05 1.1116647e-05 5.30648e-05 2.8061011e-05
2.3314271e-05 1.621977e-05 1.8580075e-05 2.8500745e-05 1.0605526e-05 5.7700763e-05 3.4472585e-05 3.556358e-05
2.2479298e-05 2.2811622e-05 1.9145382e-05 1.6760074e-05 2.6898972e-05 1.39374815e-05 4.246582e-05 3.998312e-06
2.7117507e-05 5.622632e-05 2.0120495e-05 8.689314e-06 8.8997615e-05 3.6715668e-05 1.8265737e-05 1.2830509e-05
2.3080764e-05 1.9777104e-05 4.194918e-05 1.320306e-05 1.6960983e-05 2.3342396e-05 2.6694033e-05 2.8391007e-05
1.016832e-05 1.4533839e-05 4.8602975e-05 4.085697e-06 1.7030105e-05 2.610315e-05 2.1155585e-05 9.763234e-06
3.5207442e-05 3.1737458e-05 9.768387e-06 7.95376e-06 7.064017e-05 7.5691214e-06 1.9450436e-05 6.6794582e-06
1.6992524e-05 3.1532372e-06 1.1585508e-05 1.8897377e-05 3.870055e-06 1.45464155e-05 1.6131378e-05 2.1381427e-05
00000000: ab88 9737 9124 0d37 5be5 f936 b694 a136
00000010: 9dd5 b437 a381 3a37 e591 5e38 9064 eb37
00000020: 0493 c337 b10f 8837 68dc 9b37 e214 ef37
00000030: 63ee 3137 b903 7238 a896 1038 1a2a 1538
00000040: ed91 bc37 965b bf37 659a a037 fc97 8c37
00000050: 1aa5 e137 07d5 6937 541d 3238 3d29 8636
00000060: 677a e337 8dd4 6b38 6fc8 a837 52c8 1137
00000070: 3ba4 ba38 26ff 1938 5f39 9937 9e42 5737
00000080: 909d c137 02e7 a537 97f2 2f38 b682 5d37
00000090: 6f47 8e37 6acf c337 00ed df37 3929 ee37
000000a0: 9a98 2a37 5dd6 7337 0cdb 4b38 df17 8936
000000b0: dfdb 8e37 16f8 da37 4677 b137 c5cc 2337
000000c0: b4ab 1338 d61d 0538 e7e2 2337 2471 0537
000000d0: a724 9438 42fa fd36 7e29 a337 1c20 e036
000000e0: 2b8b 8e37 349c 5336 615f 4237 cf85 9e37
000000f0: 85db 8136 610c 7437 df51 8737 445c b337

exp_avg f4 [64, 64]
-0.00030721433 0.001213535 -0.00027358992 -0.00030776064 -0.0012865162 -0.0007297384 6.104103e-05 -0.0010157533
-2.3171742e-05 0.00047492218 0.0006421401 0.00016249923 0.00047158642 -0.00062686036 -0.00048702554 -1.9647938e-05
0.00038738974 -0.000636105 -0.0005430758 -0.00073957763 -5.881139e-05 0.0006917912 -0.00056889234 0.0001447282
0.00034520475 0.0004809635 -0.00019116931 -0.00021512486 0.0003477214 -0.00013637014 0.00044414765 -0.0007752427
7.571776e-05 0.000367963 -0.0003254557 -0.0007846364 0.0003139369 -0.00018684991 -0.00069684145 -0.00032515908
-0.00044874498 -0.00088215794 0.00017468954 9.2097966e-05 9.3333365e-06 6.0140068e-05 -0.00042214378 -0.00041098916
0.00028454306 -0.000383771 0.0005564415 0.00011211274 0.00040657367 -0.000623202 0.0010635231 -8.86301e-05
-6.4674095e-05 0.00075827347 -0.00013997286 -0.00087309384 -0.00049542665 0.00034263948 -0.00033643984 0.00023337331
0.00065007294 0.0021605634 -0.0009668885 -3.2432916e-05 -0.0027044574 -0.0003552448 -0.00033934927 -0.0011041296
0.000101415586 0.0010255578 -0.00035486263 0.00015667983 3.280872e-05 -0.0009159072 -0.00014702103 -0.0002971805
0.0010642873 -0.00033832324 -0.00012722821 -0.0012138954 0.00040287562 0.0010236242 -0.0018203121 0.0016316773
0.0011356135 0.0023536924 0.0004432865 -0.00038772324 -3.4449375e-05 -8.3779334e-05 -0.000646744 -0.0017523426
0.0005250602 -0.00039457242 1.40400225e-05 -0.000731395 0.0003720389 0.00045160102 -0.0024393087 0.00028988128
-0.0013034455 -0.002199935 0.0001982201 0.00031764165 0.0009614426 -0.00037957568 -0.00033919443 -0.00030787574
0.0001536209 -0.0012359491 0.0018966767 -0.00061294314 0.0008974547 -0.0007992199 0.0015218938 0.0009603523
-7.209214e-05 0.0013550881 -0.0006548197 -0.0011936984 -0.0010033745 -0.00016176596 -0.00016138995 0.00077531574
0.0005729715 -0.002206334 -0.0008897388 -0.0008699215 0.0019736988 7.576417e-05 -4.3276632e-05 0.0004658616
-0.00042736327 -0.00014817092 -0.00031681417 -0.00090588356 -0.00051216385 0.00096097816 0.00037724522 -0.000498606
0.00014949961 0.00033385184 0.0009550579 0.0012694404 -0.000878214 -0.001027044 0.0008495402 4.7413676e-05
-0.00013624766 0.00033280806 -0.00066441606 0.0011765957 0.0009144623 -3.201238e-05 -0.00040471434 0.00010297436
-0.00040528935 0.00035804475 0.00023575114 0.0010166431 -0.0001499973 -0.00021212662 -0.00014354571 -0.0004441574
0.0010122538 0.0010146585 -0.0008852427 6.83917e-05 -0.00036876777 -0.00033851908 0.00065577356 0.0011230024
0.00076455885 0.00025859536 -0.00081245013 0.00015590947 -0.00036645506 -0.0012580015 -0.001269796 0.00047693512
-0.00041183157 -0.0016156307 0.0005433319 0.0010576157 0.0006867919 -0.0010124426 0.00064428855 0.00086644036
0.0018118059 -0.00012579653 0.00062290527 0.0012475844 -0.0007014276 0.0008662941 -0.00013366838 0.00068845466
0.00041290367 -9.974011e-05 -0.0018686568 1.6624472e-06 -0.0007754191 0.00011863306 0.00046063194 0.00016390198
0.00031871378 0.00063284027 0.00068576616 -4.371605e-05 0.000847679 -0.00016864028 -0.0007768168 0.0012197931
-0.00040594686 0.0011729263 0.0004635317 0.0003168779 -0.00053744053 8.2401064e-05 -0.0010935785 -0.00020897714
0.00041260725 -0.0010016651 0.00026675157 0.0008562137 -0.0006597793 0.00094555947 -0.00081072224 0.001233528
-0.0005078966 -0.0005971085 0.00048199182 0.0003335983 0.00085859007 -0.00060759357 0.0004697183 0.00079245324
-0.0004524864 -0.00035753363 0.0005069972 -0.00031674598 0.00038075255 0.00036849905 -0.0007021609 0.000583692
0.0007541175 0.00031196314 0.00011855533 0.0007076304 9.040121e-05 -0.0002901988 0.0005885781 -0.00025397557
00000000: 9c11 a1b9 7a0f 9f3a 9e70 8fb9 ef5a a1b9
00000010: 52a0 a8ba ea4b 3fba 2703 8038 0623 85ba
00000020: f060 c2b7 fafe f839 4b55 283a 8e64 2a39
00000030: 423f f739 e353 24ba 7657 ffb9 a0d1 a4b7
00000040: 921a cb39 49c0 26ba 335d 0eba 37e0 41ba
00000050: 40ac 76b8 5259 353a b821 15ba 2ec2 1739
00000060: 99fc b439 d429 fc39 9f74 48b9 2493 61b9
00000070: 604e b639 95fe 0eb9 7ddc e839 a839 4bba
00000080: aaca 9e38 28eb c039 eda1 aab9 0fb0 4dba
00000090: e697 a439 24ed 43b9 3dac 36ba 1d7a aab9
000000a0: 8845 ebb9 9e40 67ba de2c 3739 b824 c138
000000b0: 6096 1c37 e83e 7c38 2e53 ddb9 087a d7b9
000000c0: b92e 9539 df34 c9b9 28de 113a 121e eb38
000000d0: 6529 d539 615e 23ba ea65 8b3a ecde b9b8
000000e0: a4a1 87b8 dfc6 463a aec5 12b9 56e0 64ba
000000f0: 85df 01ba 4ba4 b339 3164 b0b9 acb5 7439
00000100: a869 2a3a 3d98 0d3b ca76 7dba 9408 08b8
00000110: 443d 31bb 2640 bab9 b0ea b1b9 71b8 90ba
00000120: 14af d438 026c 863a db0c bab9 6c4a 2439
00000130: 189c 0938 7e19 70ba a829 1ab9 e4ce 9bb9
00000140: 8e7f 8b3a fa60 b1b9 9068 05b9 921b 9fba
00000150: 0d39 d339 212b 863a 8a97 eeba 01de d53a
00000160: ded8 943a 6840 1a3b e868 e839 5547 cbb9
00000170: bc7d 10b8 b0b2 afb8 418a 29ba dcae e5ba
00000180: 32a4 093a 9dde ceb9 708d 6b37 16bb 3fba
00000190: 370e c339 ddc4 ec39 cfdc 1fbb 35fb 9739
000001a0: 60d8 aaba c92c 10bb 4ed9 4f39 2489 a639
000001b0: 5209 7c3a c901 c7b9 e8d5 b1b9 626a a1b9
000001c0: 4c15 2139 92ff a1ba e999 f83a ebad 20ba
000001d0: 2a43 6b3a bd82 51ba 487a c73a 27c0 7b3a
000001e0: 2c30 97b8 369d b13a 35a8 2bba df75 9cba
000001f0: a983 83ba b89f 29b9 c93a 29b9 8f3e 4b3a
00000200: 7733 163a 2498 10bb 5c3d 69ba 720b 64ba
00000210: 2c59 013b 94e3 9e38 ee83 35b8 e33e f439
00000220: ba0f e0b9 545e 1bb9 141a a6b9 d178 6dba
00000230: bc42 06ba 27ea 7b3a ffc8 c539 e2b4 02ba
00000240: ffc2 1c39 d608 af39 da5c 7a3a 5a63 a63a
00000250: f237 66ba e19d 86ba aeb3 5e3a 0cde 4638
00000260: b4dd 0eb9 be7c ae39 352c 2eba 0038 9a3a
00000270: 87b8 6f3a 0845 06b8 d72f d4b9 f0f3 d738
00000280: 047d d4b9 f4b7 bb39 f733 7739 e240 853a
00000290: 9848 1db9 4e6e 5eb9 c284 16b9 ccdd e8b9
000002a0: 9aad 843a 4afe 843a a20f 68ba 846d 8f38
000002b0: 2c57 c1b9 437b b1b9 38e8 2b3a b531 933a
000002c0: ad6c 483a 1594 8739 9bfa 54ba a17b 2339
000002d0: c420 c0b9 87e3 a4ba 496f a6ba 260d fa39
000002e0: 19eb d7b9 92c3 d3ba 636e 0e3a b29f 8a3a
000002f0: d309 343a f0b3 84ba 79e5 283a d421 633a
00000300: 1e7a ed3a 40e8 03b9 774a 233a fc85 a33a
00000310: 02e0 37ba 0318 633a 5529 0cb9 6979 343a
00000320: fe7a d839 902b d1b8 b8ed f4ba 4021 df35
00000330: 7f45 4bba a4ca f838 f980 f139 1add 2b39
00000340: 0a19 a739 31e5 253a fdc4 333a c05b 37b8
00000350: c636 5e3a 08d5 30b9 4ba3 4bba 77e1 9f3a
00000360: 44d5 d4b9 e0bc 993a 2c06 f339 a222 a639
00000370: 06e3 0cba bcce ac38 6856 8fba e020 5bb9
00000380: 3553 d839 4e4a 83ba cada 8b39 8773 603a
00000390: 0af5 2cba 6cdf 773a a686 54ba 55ae a13a
000003a0: 5d24 05ba 4687 1cba d9b3 fc39 cee6 ae39
000003b0: 0113 613a ea46 1fba 8644 f639 a3bc 4f3a
000003c0: b23b edb9 5a73 bbb9 02e8 043a ed10 a6b9
000003d0: be9f c739 1b33 c139 3811 38ba e802 193a
000003e0: f8af 453a fc8e a339 e8a0 f838 4680 393a
000003f0: c895 bd38 d325 98b9 cf4a 1a3a 0628 85b9

exp_avg_sq f4 [64, 64]
4.3665036e-06 1.01495125e-05 1.5209487e-06 1.2485896e-06 6.590447e-06 1.6183485e-06 7.985104e-07 2.0312123e-06
5.71883e-07 2.6733535e-06 3.161306e-06 6.202351e-07 4.520116e-06 2.9188203e-07 9.605196e-07 6.5277055e-07
1.1250934e-06 2.937309e-06 4.7695344e-06 3.3758247e-06 2.4220612e-06 7.6667374e-07 1.1062253e-06 1.0068972e-06
6.736958e-07 6.441734e-07 7.0586844e-07 5.171403e-06 5.0953315e-07 6.825543e-07 2.530458e-06 7.3520505e-07
6.0856627e-07 5.1356136e-07 7.33853e-07 3.6070564e-06 2.9665923e-06 4.3988143e-07 8.1585506e-07 2.8445456e-07
3.6821175e-06 2.2169902e-06 2.303657e-06 1.562065e-06 6.0671505e-07 1.5155557e-06 2.7119675e-06 2.6134312e-06
2.488611e-07 1.062814e-06 7.407646e-06 3.1510137e-07 3.6088238e-07 7.8625754e-07 2.235782e-06 1.3829313e-06
1.0958166e-06 2.9045343e-06 9.2158297e-07 3.4940522e-06 2.0343075e-06 4.498007e-07 1.9811837e-06 2.1747126e-06
8.2568395e-06 1.841442e-05 2.9981554e-06 2.43534e-06 1.2905362e-05 2.897639e-06 1.4903352e-06 3.576798e-06
1.0400751e-06 5.2964547e-06 5.5964165e-06 1.1111152e-06 8.174938e-06 6.3922613e-07 1.4956449e-06 1.1016324e-06
1.9086224e-06 5.288299e-06 8.655633e-06 5.874158e-06 5.0050567e-06 1.2941462e-06 2.3967732e-06 1.9788026e-06
1.107943e-06 1.2397121e-06 1.3585993e-06 9.576123e-06 9.745246e-07 1.2976537e-06 4.6122527e-06 1.3922155e-06
1.0969804e-06 1.01306e-06 1.3093877e-06 6.1477926e-06 5.279638e-06 7.908084e-07 1.8415315e-06 5.565307e-07
7.348105e-06 3.996035e-06 3.8733806e-06 3.057447e-06 1.2566763e-06 2.785039e-06 4.8163715e-06 4.5690394e-06
4.831777e-07 2.0467419e-06 1.4011306e-05 5.7928077e-07 7.6945116e-07 1.3724307e-06 3.8729086e-06 2.8024886e-06
2.350443e-06 5.3296753e-06 1.9759036e-06 6.5539684e-06 3.3006554e-06 1.0324364e-06 3.3121055e-06 3.410922e-06
5.0700996e-06 1.1859118e-05 1.9309218e-06 1.3872208e-06 7.710917e-06 1.6635418e-06 8.9194003e-07 2.190728e-06
7.851222e-07 3.190228e-06 3.4586496e-06 1.0658166e-06 4.95735e-06 4.6811994e-07 1.1636146e-06 8.225045e-07
1.3814266e-06 3.2859639e-06 5.164243e-06 3.99881e-06 2.6816435e-06 9.725854e-07 1.4102033e-06 1.1473668e-06
9.519893e-07 8.686478e-07 7.192754e-07 5.9654813e-06 6.7324095e-07 7.7186974e-07 2.5196568e-06 1.1527683e-06
9.648104e-07 5.956412e-07 7.637553e-07 4.075234e-06 3.3167432e-06 4.979315e-07 1.1700196e-06 3.1295863e-07
4.254125e-06 2.7230371e-06 2.4002227e-06 1.6450166e-06 7.494173e-07 1.6480363e-06 3.0590443e-06 3.1592824e-06
2.690247e-07 1.3267386e-06 8.774964e-06 4.792833e-07 5.01877e-07 7.775576e-07 2.8198262e-06 1.9390739e-06
1.4859785e-06 3.6347421e-06 1.2750608e-06 4.013551e-06 2.468014e-06 5.8176613e-07 2.39747e-06 2.5757922e-06
5.1284283e-06 1.10370265e-05 1.5982836e-06 1.382467e-06 7.065045e-06 1.7561114e-06 8.01912e-07 2.167502e-06
6.785262e-07 2.8733964e-06 3.5763064e-06 7.899903e-07 5.1317093e-06 3.698743e-07 1.0493463e-06 7.1800986e-07
1.2040487e-06 3.1337067e-06 5.215836e-06 3.6510867e-06 2.7685094e-06 9.0327234e-07 1.2624711e-06 1.0856423e-06
7.3477656e-07 7.004407e-07 7.938619e-07 5.8124224e-06 5.6098634e-07 7.580516e-07 2.7961335e-06 9.893142e-07
7.9773804e-07 4.989986e-07 8.359769e-07 4.0869486e-06 3.1735588e-06 5.175535e-07 9.069355e-07 3.173454e-07
4.2201386e-06 2.613566e-06 2.610669e-06 1.7696785e-06 7.655309e-07 1.7067528e-06 3.0634083e-06 2.9465605e-06
2.9135734e-07 1.1057128e-06 7.799531e-06 3.3876697e-07 5.047602e-07 8.2753326e-07 2.326318e-06 1.4953341e-06
1.2814476e-06 3.1461263e-06 1.2264633e-06 3.7822253e-06 2.2972074e-06 5.526069e-07 2.3986613e-06 2.6726443e-06
00000000: fb83 9236 d347 2a37 6623 cc35 3695 a735
00000010: 8223 dd36 0836 d935 3859 5635 f64f 0836
00000020: 8083 1935 dd67 3336 d326 5436 3b7e 2635
00000030: 80ab 9736 f6b3 9c34 34eb 8035 0d3a 2f35
00000040: ea01 9735 961e 4536 fd09 a036 3a8c 6236
00000050: b28a 2236 6bcd 4d35 9d79 9435 b924 8735
00000060: 06d8 3435 42eb 2c35 e97a 3d35 0386 ad36
00000070: dac6 0835 c638 3735 f0d0 2936 e85a 4535
00000080: 5b5c 2335 abdb 0935 fffd 4435 c210 7236
00000090: ab15 4736 d828 ec34 2201 5b35 23b7 9834
000000a0: 4c1a 7736 9ac7 1436 8798 1a36 25a8 d135
000000b0: 24dd 2235 196a cb35 3fff 3536 6862 2f36
000000c0: 369b 8534 03a6 8e35 328f f836 342b a934
000000d0: 4cbf c134 350f 5335 710a 1636 289d b935
000000e0: f913 9335 85eb 4236 b362 7735 5c7b 6a36
000000f0: 2385 0836 237c f134 7af4 0436 47f1 1136
00000100: db86 0a37 aa78 9a37 eb33 4936 d36e 2336
00000110: 1c84 5837 0f75 4236 8707 c835 ec08 7036
00000120: b598 8b35 33b8 b136 dac8 bb36 a121 9535
00000130: 1727 0937 4997 2b35 f8bd c835 cddb 9335
00000140: e215 0036 2472 b136 a937 1137 a21a c536
00000150: 1cf1 a736 86b2 ad35 40d8 2036 92cb 0436
00000160: a2b4 9435 2f64 a635 1e59 b635 23a9 2037
00000170: 69cc 8235 0b2b ae35 f3c2 9a36 29dc ba35
00000180: f63b 9335 7af8 8735 38be af35 2349 ce36
00000190: bf27 b136 f047 5435 8a2a f735 8064 1535
000001a0: be8f f636 ae15 8636 16f8 8136 8a2e 4d36
000001b0: 12ab a835 9be6 3a36 519c a136 c04f 9936
000001c0: b8b3 0135 c25a 0936 1a12 6b37 df7f 1b35
000001d0: 488c 4e35 5c34 b835 08f4 8136 6312 3c36
000001e0: 4ebc 1d36 90d5 b236 c499 0436 29ea db36
000001f0: d480 5d36 3f92 8a35 8a45 5e36 32e7 6436
00000200: d31f aa36 86f6 4637 fc94 0136 8b30 ba35
00000210: 235e 0137 dc46 df35 a76d 6f35 6c04 1336
00000220: 30c1 5235 b317 5636 261b 6836 2e0d 8f35
00000230: 5057 a636 ea51 fb34 7e2d 9c35 14ca 5c35
00000240: 7569 b935 6e84 5c36 8248 ad36 842d 8636
00000250: 49f6 3336 c889 8235 3746 bd35 39ff 9935
00000260: 358c 7f35 062d 6935 3b14 4135 182b c836
00000270: c4b8 3435 7c32 4f35 6017 2936 d1b8 9a35
00000280: a27e 8135 27e4 1f35 dd04 4d35 febd 8836
00000290: 3795 5e36 98a9 0535 9109 9d35 b504 a834
000002a0: a8be 8e36 6cbd 3636 8313 2136 57ca dc35
000002b0: 912b 4935 1932 dd35 fb49 4d36 0f04 5436
000002c0: 796e 9034 6412 b235 2f38 1337 19a8 0035
000002d0: bab8 0635 5ab9 5035 3f3c 3d36 0921 0236
000002e0: d571 c735 65ec 7336 c122 ab35 24ac 8636
000002f0: 28a0 2536 aa2a 1c35 39e4 2036 c6db 2c36
00000300: dd14 ac36 ab2b 3937 9b84 d635 348d b935
00000310: 4610 ed36 87b3 eb35 f942 5735 6775 1136
00000320: f723 3635 93d4 4036 7a00 7036 b80f 5435
00000330: 0c31 ac36 2393 c634 44d7 8c35 43bd 4035
00000340: cc9a a135 ac4c 5236 b103 af36 3105 7536
00000350: a1ca 3936 6778 7235 2d72 a935 63b6 9135
00000360: 763d 4535 eb05 3c35 c619 5535 5408 c336
00000370: b096 1635 e97c 4b35 35a5 3b36 94c8 8435
00000380: 2424 5635 ecf2 0535 e567 6035 9f22 8936
00000390: 53f9 5436 01ee 0a35 2274 7335 9f5f aa34
000003a0: b79a 8d36 b964 2f36 f432 2f36 b185 ed35
000003b0: e27e 4d35 9413 e535 f494 4d36 86bd 4536
000003c0: d96b 9c34 0168 9435 bbda 0237 c7df b534
000003d0: db7e 0735 a723 5e35 d71d 1c36 4ab3 c835
000003e0: 34fe ab35 0a22 5336 f59c a435 23d2 7d36
000003f0: b929 1a36 db56 1435 b0f8 2036 ae5b 3336

exp_avg f4 [64]
-0.0009658191 4.672585e-05 0.0018625748 0.002242007 -0.0007217658 0.0011160574 -0.00039693003 -0.00044414395
0.002403919 -0.000107353335 0.002041468 0.0008084482 -0.0005611741 0.00018230954 -0.0016367557 -0.0013918389
-0.0007411682 -0.0009889518 -0.0005862786 -0.0030808896 -0.002050792 -0.0014697175 -0.0005891533 0.0019097136
-0.002327246 -0.00055708404 -0.0006014765 -0.0012375163 -0.00097386015 -0.0027256915 0.0018184327 -0.00067470176
0.0011407267 0.0019166422 0.0010204398 0.0002020665 0.0015185328 4.4512417e-05 -0.0012215006 -0.00036642456
-0.0006885453 -0.0014478286 0.0006534577 0.00071813056 0.0015333432 0.0016547051 0.000954219 6.301701e-05
-0.0014958906 -0.0012490472 -0.0012158938 -0.0011626745 0.0013889733 -0.0002864055 0.00038528675 0.0024631016
0.0013077492 -0.0026662163 0.00088694895 -0.000716071 0.0011967568 3.7047896e-05 9.172439e-05 0.00035306893
00000000: 062f 7dba 80fb 4338 a421 f43a a3ee 123b
00000010: e234 3dba ac48 923a 0c1b d0b9 fedb e8b9
00000020: 118b 1d3b e222 e1b8 26ca 053b 0aee 533a
00000030: c21b 13ba 582a 3f39 6888 d6ba 5d6e b6ba
00000040: f54a 42ba b79f 81ba 7eb0 19ba c0e8 49bb
00000050: 9566 06bb 89a3 c0ba 6971 1aba 5b4f fa3a
00000060: b584 18bb 4709 12ba 68ac 1dba 2834 a2ba
00000070: a64a 7fba 84a1 32bb 7a58 ee3a 78de 30ba
00000080: 7084 953a d737 fb3a 47c0 853a d0e1 5339
00000090: 8109 c73a d8b2 3a38 c21a a0ba ac1c c0b9
000000a0: 7e7f 34ba 11c5 bdba ce4c 2b3a ed40 3c3a
000000b0: 76fa c83a b1e2 d83a 8e24 7a3a 0028 8438
000000c0: c211 c4ba 12b7 a3ba a05e 9fba e264 98ba
000000d0: 360e b63a b228 96b9 5000 ca39 fd6b 213b
000000e0: c868 ab3a b0bb 2ebb 2382 683a b6b6 3bba
000000f0: 7fdc 9c3a e063 1b38 285c c038 1c1c b939

exp_avg_sq f4 [64]
2.1388581e-05 3.778412e-05 2.3483237e-05 2.3528686e-05 1.1437204e-05 7.411952e-06 3.199145e-05 1.0759546e-05
1.64492e-05 2.0987243e-05 1.3133058e-05 2.9259458e-05 2.809145e-05 1.4407873e-05 2.481983e-05 1.538809e-05
8.333631e-06 1.0927235e-05 2.943332e-05 4.56074e-05 1.7483262e-05 9.307093e-06 2.7656779e-05 1.8060628e-05
1.197277e-05 1.6714397e-05 3.586474e-05 1.4972657e-05 1.7834724e-05 1.6186485e-05 2.080147e-05 7.4385175e-06
1.6377673e-05 2.6984606e-05 7.385657e-06 2.184291e-05 2.8345781e-05 1.1135713e-05 1.0805529e-05 4.8057056e-05
9.0773365e-06 3.0904685e-05 1.4509021e-05 1.4380038e-05 2.6876276e-05 1.4000881e-05 1.5310907e-05 1.090829e-05
8.683386e-06 1.3855626e-05 3.5082714e-05 1.1869883e-05 2.4798414e-05 2.1784608e-05 3.2893704e-06 1.7610182e-05
2.8567354e-05 2.9315985e-05 1.6867929e-05 1.6433185e-05 1.2188931e-05 4.776272e-06 1.1067677e-05 1.2347292e-05
00000000: a16b b337 647a 1e38 defd c437 785f c537
00000010: 6be2 3f37 2fb4 f836 8f2e 0638 e683 3437
00000020: 63fc 8937 c30d b037 0e56 5c37 3572 f537
00000030: eea5 eb37 58b9 7137 2e34 d037 ac15 8137
00000040: acd0 0b37 1e54 3737 93e7 f637 934a 3f38
00000050: 05a9 9237 a925 1c37 7b00 e837 e780 9737
00000060: a8de 4837 e535 8c37 796d 1638 1233 7b37
00000070: c79b 9537 36c8 8737 d17e ae37 6198 f936
00000080: c962 8937 005d e237 50d2 f736 4b3b b737
00000090: 1ac8 ed37 86d3 3a37 6549 3537 df90 4938
000000a0: dd4a 1837 a79f 0138 c56b 7337 cb41 7137
000000b0: 5d74 e137 53e5 6a37 ec6f 8037 c002 3737
000000c0: dcae 1137 7675 6837 c725 1338 c224 4737
000000d0: 3006 d037 17be b637 f4be 5c36 94b9 9337
000000e0: eda3 ef37 99eb f537 9a7f 8d37 ffd9 8937
000000f0: 0f7f 4c37 dd43 a036 50af 3937 3727 4f37

exp_avg f4 [6, 64]
-0.0025534523 6.2422725e-05 0.0004943743 0.0035563866 0.003596149 0.00016338115 0.005338623 0.0015474139
-0.0015711617 0.005195736 0.003664996 0.0014101688 0.0046503926 0.0010831524 0.00588769 -0.003619792
0.0005548913 -0.002043113 -0.004035478 -0.0034449438 -0.009339189 0.00264083 -4.460648e-05 -0.0028370311
-0.000243446 0.0024903873 -0.0038159464 0.0004830999 0.0031689238 0.0010894105 -0.0011804412 0.0030475652
0.0034905267 0.0032565119 0.0022458998 0.0040752967 -0.00044283803 -0.0015501642 0.0051529203 -0.001653298
-0.0055487473 -0.0020855947 -0.0042440956 -0.0012616271 0.0016606778 0.00075036753 0.00827749 -0.0031961554
-0.0013620954 -0.0030436006 -0.005445332 -0.0018769046 0.0010543517 0.00033733223 -0.00026792934 -0.0027447897
-0.0010900081 0.0028250774 0.00055712444 -0.001975557 0.0018791837 0.0006483459 0.0013973044 -0.0027796356
-0.0022467405 -0.00525501 -0.0015761117 -0.0058496473 -0.0026931441 -0.0037089444 -0.0036989169 0.0013589022
0.0007984445 -0.0006677995 0.0010876664 0.0018218944 -0.0013045629 -0.00285579 -0.0019480379 0.0019937563
0.0016472349 0.00010087213 0.0022359805 -0.0022299036 0.012569024 0.005718952 -0.0018810671 -0.00050555344
0.004690888 0.001207963 0.0019440878 0.0042153616 -6.1874394e-05 -0.0009763087 0.0010064179 0.0039288816
-0.0046653775 0.001746821 0.0012366533 -0.0056469785 -0.0015336561 -0.0016346518 -6.539037e-05 0.0006590436
0.003377486 -0.001622936 -0.00040777307 0.00052431365 -0.0035044434 -0.010918972 -0.008431175 0.0030621337
0.005190749 0.0016252327 -0.00018131477 0.0075121857 0.0022850768 0.0035053531 -0.0029496728 0.004510128
0.0015473433 0.0021027578 -0.006755463 0.0039670705 -0.003951811 -0.0032588462 -0.00412667 -5.9781945e-05
-0.00427408 -0.0020687655 -0.0016367063 -0.0020751073 -0.0029340019 -0.0015698762 -0.0034654862 -0.000511834
0.0031697943 -0.0014445637 -0.0022194409 -0.0026789266 -0.003601638 -0.0026083952 -0.00497641 0.0021046477
-0.0006747751 4.9925176e-05 0.0075389277 0.002011205 0.008694568 0.001610724 0.00311375 0.0020139585
0.0038880594 0.0016206561 -0.0014080477 0.0048277085 -0.0010725376 0.001540269 -0.002605169 0.0020992456
-0.0053954395 -0.00021871548 -0.0037096103 -0.0007654716 0.00022196249 -0.0031245141 -0.0020603705 -0.0009434528
0.002645887 0.0015581325 0.0035022602 0.0017852478 -0.0049552894 -0.0035901852 -0.008732247 0.003936085
0.0040658503 -0.00012256304 -0.00095593976 0.0050743646 -0.0007009036 0.0023702953 0.0007781744 0.0035040749
0.00413522 -0.0011121719 -0.0024933645 0.0029373425 -0.00040819505 -0.00081389886 -0.001111765 0.0006541198
0.00061823893 0.00076370663 -0.00038775697 -0.0012826507 0.000118869764 0.00056181184 -4.676418e-05 -0.00084249687
0.00086687366 -0.0040448396 -0.0018216127 -0.0029078764 -0.0025796788 -0.00028823083 -0.0023330993 0.0022467598
-0.00092465547 0.00082234305 0.0025545005 0.0020973356 0.00064908096 -0.0009846267 0.0021589345 -1.4171121e-05
0.0011047858 -2.7408081e-05 0.0006143373 0.00061344483 -0.0031700598 0.0016684625 -0.0018810946 -0.00030369428
-0.0016363488 -0.0018460301 -0.00090918544 1.4078891e-05 -0.0003223701 -0.0004354184 -0.0005670254 -0.00035417863
0.0030913788 0.0006693712 0.0036674417 0.00064038375 -0.0008823861 0.0001435366 -0.0023054846 0.0012903333
0.0025734077 0.0019102264 -0.001181367 -0.001944982 -0.0010563326 0.00065920444 -0.0005670695 -0.0018923897
0.0006388766 -0.0001948619 0.0010434834 0.0015602232 0.00051472493 -0.0005501834 0.0019081015 0.0021368961
00000000: d257 27bb f2e8 8238 e698 013a 4412 693b
00000010: 5ead 6b3b 4b51 2b39 9eef ae3b 98d2 ca3a
00000020: 70ef cdba fe40 aa3b 6e30 703b 6ad5 b83a
00000030: 5262 983b 90f8 8d3a 86ed c03b 083a 6dbb
00000040: 2076 113a c0e5 05bb 0b3c 84bb 91c4 61bb
00000050: 6603 19bc c611 2d3b d817 3bb8 7ced 39bb
00000060: 8a45 7fb9 c435 233b f514 7abb 9248 fd39
00000070: b8ad 4f3b 8dca 8e3a 09b9 9aba a9b9 473b
00000080: 52c1 643b 346b 553b f22f 133b 118a 853b
00000090: b72c e8b9 e12e cbba d4d9 a83b 7ab3 d8ba
000000a0: 44d2 b5bb 79ae 08bb 0e12 8bbb 2e5d a5ba
000000b0: 1aab d93a 50b4 443a 4f9e 073c 9776 51bb
000000c0: 5688 b2ba 2577 47bb c16e b2bb 7802 f6ba
000000d0: 2c32 8a3a f7db b039 de78 8cb9 eee1 33bb
000000e0: 9ade 8eba ef24 393b fd0b 123a 5978 01bb
000000f0: f14e f63a c2f5 293a c125 b73a 8c2a 36bb
00000100: 0d3e 13bb 3832 acbb 8895 ceba 66ae bfbb
00000110: 767f 30bb c311 73bb 8769 72bb 311d b23a
00000120: b44e 513a 440f 2fba 0790 8e3a a2cc ee3a
00000130: defd aaba 3528 3bbb 4e55 ffba aea9 023b
00000140: 08e8 d73a 508b d338 8789 123b 9323 12bb
00000150: 4fee 4d3c 0c66 bb3b 238e f6ba 1e87 04ba
00000160: 05b6 993b 8354 9e3a c3d0 fe3a 0421 8a3b
00000170: 90c2 81b8 f8ee 7fba c8e9 833a d9bd 803b
00000180: 06e0 98bb 96f5 e43a 3317 a23a 4a0a b9bb
00000190: f604 c9ba d041 d6ba 3022 89b8 abc3 2c3a
000001a0: d058 5d3b b2b8 d4ba 60ca d5b9 1872 093a
000001b0: ceaa 65bb 7de5 32bc e922 0abc 14ae 483b
000001c0: 2917 aa3b c305 d53a 501f 3eb9 c828 f63b
000001d0: 3ac1 153b 11ba 653b 4c4f 41bb b2c9 933b
000001e0: 3ad0 ca3a 6cce 093b ee5c ddbb 33fe 813b
000001f0: 327e 81bb 5e92 55bb 0439 87bb 60be 7ab8
00000200: 950d 8cbb 2094 07bb c086 d6ba 86fe 07bb
00000210: 6248 40bb 4ec4 cdba 361d 63bb 992c 06ba
00000220: 53bc 4f3b 8457 bdba 0a74 11bb ee90 2fbb
00000230: 7509 6cbb 9cf1 2abb 2711 a3bb 21ee 093b
00000240: 64e3 30ba c066 5138 1c09 f73b 6cce 033b
00000250: a973 0e3c ee1e d33a 0e10 4c3b 9efc 033b
00000260: d0ce 7e3b 326c d43a 3e8e b8ba c131 9e3b
00000270: 6494 8cba dae2 c93a 7cbb 2abb 7f93 093b
00000280: 3acc b0bb fd56 65b9 ef1c 73bb eea9 48ba
00000290: 9abe 6839 a6c4 4cbb 4807 07bb 0c52 77ba
000002a0: 9e66 2d3b 403a cc3a 2d86 653b fafe e93a
000002b0: fb5f a2bb 5049 6bbb b311 0fbc 46fa 803b
000002c0: d33a 853b 4484 00b9 0898 7aba db46 a63b
000002d0: d8bc 37ba f556 1b3b 66fe 4b3a 9fa4 653b
000002e0: bd80 873b 4cc6 91ba b767 23bb 6e80 403b
000002f0: 0303 d6b9 d45b 55ba a5b8 91ba 3d79 2b3a
00000300: 5011 223a 7c33 483a dc4b cbb9 9e1e a8ba
00000310: b849 f938 8e46 133a a824 44b8 02db 5cba
00000320: e83e 633a 938a 84bb 2ec3 eeba 1292 3ebb
00000330: d40f 29bb b01d 97b9 e9e6 18bb 603e 133b
00000340: 9464 72ba 8292 573a 6869 273b 7473 093b
00000350: 1627 2a3a 970e 81ba e97c 0d3b 80c0 6db7
00000360: 76ce 903a 68ea e5b7 7a0b 213a 96cf 203a
00000370: c7c0 4fbb 50b0 da3a 108f f6ba 2839 9fb9
00000380: c17a d6ba 7ef6 f1ba 6756 6eba 6034 6c37
00000390: c803 a9b9 de48 e4b9 6ea4 14ba 0db1 b9b9
000003a0: bb98 4a3b be78 2f3a 7659 703b 6ddf 273a
000003b0: ee4f 67ba 5082 1639 9d17 17bb 6720 a93a
000003c0: 9ea6 283b 9060 fa3a 19d8 9aba c4ee feba
000003d0: a474 8aba 76ce 2c3a 64a7 14ba 100a f8ba
000003e0: 487a 273a d853 4cb9 7ec5 883a 6780 cc3a
000003f0: 9bee 063a 2f3a 10ba 4319 fa3a 2b0b 0c3b

exp_avg_sq f4 [6, 64]
1.3814575e-05 2.6692749e-05 1.6656832e-05 1.4330199e-05 4.857404e-06 1.7495686e-05 7.492656e-06 1.6826958e-05
1.0726105e-05 4.031565e-06 5.280465e-06 7.0680167e-06 7.5874514e-06 4.540129e-06 6.765961e-06 4.9221194e-06
1.7666973e-05 3.4243694e-06 1.8883647e-05 4.0986642e-06 4.94052e-05 3.4323482e-05 2.1787698e-06 8.461134e-06
4.997742e-05 1.7886673e-06 1.5540289e-05 2.643672e-05 9.140021e-06 2.7549211e-05 3.0978015e-05 3.126927e-05
1.8875897e-05 4.4317285e-06 1.3596762e-05 1.4337698e-05 1.0676389e-05 1.3770989e-05 1.1079536e-05 5.3206586e-06
1.7304545e-05 2.7555745e-06 1.6300308e-05 3.2347657e-06 2.1371225e-05 7.4667754e-05 5.4421365e-05 7.3424812e-06
3.335424e-05 6.293842e-06 1.1493161e-05 5.079497e-05 2.7000872e-06 2.0454248e-05 7.413411e-06 2.7817972e-05
4.4955455e-06 2.1800579e-05 3.3814104e-05 3.2431446e-05 1.6073542e-05 2.8318953e-05 3.2679553e-05 6.0803886e-06
2.1926193e-05 4.0949093e-05 2.2226295e-05 2.2383352e-05 6.547772e-06 2.8616856e-05 7.264527e-06 2.06247e-05
1.5575339e-05 5.145311e-06 6.7409155e-06 7.96205e-06 8.884966e-06 5.9790573e-06 7.5685202e-06 6.6675316e-06
2.5624957e-05 4.373537e-06 2.616992e-05 4.6379405e-06 6.576381e-05 5.256331e-05 2.8627785e-06 1.1003211e-05
7.475415e-05 2.1197252e-06 2.2010434e-05 4.109955e-05 1.1198268e-05 3.7186677e-05 4.839253e-05 5.005255e-05
2.7015616e-05 4.9126124e-06 1.9644429e-05 1.9255145e-05 1.7050625e-05 2.0683976e-05 1.3921316e-05 5.8794226e-06
2.3902898e-05 3.3209328e-06 2.4066008e-05 4.7168855e-06 3.3700733e-05 0.00011737634 7.152238e-05 9.308883e-06
5.3663636e-05 8.2761535e-06 1.4193225e-05 7.8587706e-05 3.8881635e-06 2.9786626e-05 1.0989721e-05 3.482802e-05
5.8609553e-06 3.180388e-05 5.226568e-05 5.080709e-05 2.4820478e-05 4.2706943e-05 5.0431536e-05 7.3841315e-06
1.8996998e-05 3.2713637e-05 2.0966734e-05 1.8433055e-05 7.9653755e-06 2.472481e-05 7.98958e-06 1.9914336e-05
1.493641e-05 4.70581e-06 6.8432364e-06 1.0346292e-05 9.457869e-06 5.048232e-06 8.13751e-06 6.8609706e-06
2.4042938e-05 4.810183e-06 2.8349696e-05 4.476969e-06 5.9883772e-05 4.399267e-05 3.4106627e-06 1.1117131e-05
6.700275e-05 2.235262e-06 1.892478e-05 3.6866626e-05 1.2505069e-05 3.6433066e-05 4.806867e-05 4.4738626e-05
2.5691317e-05 5.110373e-06 1.6124628e-05 1.5385021e-05 1.6684673e-05 1.8435854e-05 1.4596988e-05 5.7379693e-06
2.0338446e-05 2.9230466e-06 2.0376068e-05 4.7035323e-06 3.0515403e-05 9.6818905e-05 6.294696e-05 1.0042342e-05
4.940909e-05 7.074086e-06 1.3083134e-05 6.770911e-05 3.272885e-06 2.5774745e-05 1.0546104e-05 3.4594043e-05
7.097027e-06 3.0305879e-05 4.415911e-05 4.4103333e-05 2.2147513e-05 3.726407e-05 4.279884e-05 9.089446e-06
2.0370328e-05 3.394674e-05 2.2064787e-05 2.003692e-05 5.2426317e-06 2.3839966e-05 7.1917984e-06 2.132779e-05
1.0194303e-05 4.544664e-06 5.544602e-06 6.720894e-06 9.741609e-06 4.2864517e-06 6.9478256e-06 5.7286593e-06
2.2730976e-05 3.2038183e-06 2.6895617e-05 5.088486e-06 5.6615907e-05 4.917294e-05 3.2834473e-06 1.0081264e-05
6.448127e-05 1.9280685e-06 1.5905503e-05 3.8415386e-05 1.0322806e-05 3.1006075e-05 4.4655415e-05 4.704638e-05
2.4703755e-05 3.963264e-06 1.6073967e-05 1.22542915e-05 1.6095131e-05 1.7367443e-05 1.2878123e-05 4.884907e-06
1.6711054e-05 2.5481027e-06 2.1154494e-05 3.7877144e-06 3.0505305e-05 0.000102110185 5.735345e-05 8.67216e-06
4.856136e-05 5.9283598e-06 1.2858331e-05 7.367564e-05 3.0774088e-06 2.6539201e-05 1.138428e-05 2.6029513e-05
4.0964137e-06 3.3797158e-05 4.773609e-05 4.35347e-05 1.9529969e-05 3.317019e-05 4.103406e-05 6.915708e-06
00000000: 26c5 6737 3eea df37 46ba 8b37 bc6b 7037
00000010: c8fc a236 b3c3 9237 6d69 fb36 9e27 8d37
00000020: 45f4 3337 e146 8736 d92e b136 cd29 ed36
00000030: b697 fe36 6957 9836 2a07 e336 af28 a536
00000040: 8933 9437 38ce 6536 5368 9e37 4287 8936
00000050: 6e38 4f38 8ff6 0f38 fb36 1236 4bf4 0d37
00000060: d99e 5138 2412 f035 845c 8237 6dc4 dd37
00000070: 1758 1937 7b19 e737 64ee 0138 1f27 0338
00000080: ae57 9e37 42b4 9436 a61d 6437 f28b 7037
00000090: be1e 3337 f309 6737 3fe2 3937 1c88 b236
000000a0: 3a29 9137 69ec 3836 a5bc 8837 da14 5936
000000b0: 5b46 b337 f296 9c38 7f42 6438 6f5f f636
000000c0: d8e5 0b38 b12f d336 c0d2 4037 af0c 5538
000000d0: 2533 3536 2a95 ab37 b7c0 f836 a45a e937
000000e0: 71d8 9636 63e0 b637 9ed3 0d38 0007 0838
000000f0: abd5 8637 7d8e ed37 6711 0938 2406 cc36
00000100: 24ee b737 c1c0 2b38 9b72 ba37 e2c3 bb37
00000110: efb4 db36 3b0e f037 d0c1 f336 3503 ad37
00000120: c9a7 8237 e3a5 ac36 0630 e236 bf94 0537
00000130: a310 1537 b69f c836 18f5 fd36 a9b9 df36
00000140: 2df5 d637 66c0 9236 7a87 db37 9b9f 9b36
00000150: adea 8938 6d77 5c38 291e 4036 6e9a 3837
00000160: 54c5 9c38 9a40 0e36 0ca3 b837 4e62 2c38
00000170: 32e0 3b37 e4f8 1b38 15f9 4a38 84ef 5138
00000180: 989f e237 05d7 a436 17ca a437 1c86 a137
00000190: f007 8f37 8082 ad37 998f 6937 db47 c536
000001a0: 1583 c837 31dd 5e36 5ce1 c937 bd45 9e36
000001b0: e359 0d38 f127 f638 49fe 9538 592d 1c37
000001c0: e414 6138 cfd9 0a37 701f 6e37 74cf a438
000001d0: 1277 8236 4bde f937 7e60 3837 4d14 1238
000001e0: 39a9 c436 2865 0538 d937 5b38 b319 5538
000001f0: 9235 d037 3b20 3338 7386 5338 35c5 f736
00000200: be5b 9f37 0036 0938 b8e1 af37 afa0 9a37
00000210: 07a3 0537 2068 cf37 fc0a 0637 b60d a737
00000220: 6497 7a37 9ae6 9d36 f49e e536 fc94 2d37
00000230: 3dad 1e37 fc63 a936 5786 0837 4a37 e636
00000240: d1af c937 2867 a136 82d0 ed37 df38 9636
00000250: b62b 7b38 c584 3838 bde2 6436 b783 3a37
00000260: d483 8c38 8201 1636 a8c0 9e37 3da1 1a38
00000270: ddcc 5137 b5cf 1838 579d 4938 bca5 3b38
00000280: af83 d737 c579 ab36 6043 8737 150f 8137
00000290: 10f6 8b37 b2a6 9a37 96e5 7437 c888 c036
000002a0: 7b9c aa37 8f29 4436 46ed aa37 09d3 9d36
000002b0: 54fb ff37 410b cb38 6402 8438 887b 2837
000002c0: 9b3c 4f38 f05d ed36 a27f 5b37 0dff 8d38
000002d0: bca3 5b36 d836 d837 2cef 3037 1219 1138
000002e0: ff22 ee36 6139 fe37 7c37 3938 98fb 3838
000002f0: 6cc9 b937 fe4b 1c38 e882 3338 e07e 1837
00000300: f2e0 aa37 0962 0e38 c517 b937 f514 a837
00000310: dde9 af36 f0fb c737 1451 f136 15e9 b237
00000320: 3308 2b37 5e7e 9836 c50b ba36 0a84 e136
00000330: e46f 2337 57d4 8f36 5e21 e936 cf38 c036
00000340: 66ae be37 2e01 5736 e69d e137 c3bd aa36
00000350: de76 6d38 0b3f 4e38 3259 5c36 b322 2937
00000360: 1e3a 8738 f763 0136 cf6c 8537 3520 2138
00000370: 1d30 2d37 850c 0238 634c 3b38 aa53 4538
00000380: e93a cf37 2efc 8436 95d6 8637 c897 4d37
00000390: 0804 8737 4db0 9137 1e0f 5837 08e9 a336
000003a0: b72e 8c37 1200 2b36 ee74 b137 7030 7e36
000003b0: a5e5 ff37 fd23 d638 cc8e 7038 a57e 1137
000003c0: 5dae 4b38 39ec c636 1cba 5737 4f82 9a38
000003d0: 7b85 4e36 80a0 de37 1cff 3e37 f459 da37
000003e0: ed73 8936 6cc1 0d38 3d38 4838 0799 3638
000003f0: 4ad4 a337 3820 0b38 fd1b 2c38 7b0d e836

exp_avg f4 [6]
-0.0052907798 -0.009346013 -0.0024086304 0.0033830774 0.0048436644 0.0069534993
00000000: 475e adbb 0520 19bc 1dda 1dbb 9fb6 5d3b
00000010: 9ab7 9e3b 2eda e33b

exp_avg_sq f4 [6]
0.00025854356 0.00039917644 0.00034195304 0.00034302156 0.00046145823 0.00058314815
00000000: 218d 8739 8e48 d139 2948 b339 93d7 b339
00000010: e0ef f139 69de 183a
