flare-benchmarking/1ogzn0vs/checkpoints/epoch=91.ckpt (torch_old, 101058 bytes, 36 tensors)

exp_avg f4 [6]
000000 b8 5c 99 3b 47 77 e4 3b 8c c0 99 3c a4 a0 2e 3b
       0.0046802424 0.006972227 0.018768571 0.0026646042
000010 ea d1 5e 3c 33 42 9a 38
       0.013599852 7.355623e-05

exp_avg_sq f4 [6]
000000 b9 b1 62 39 bb 9b 98 39 d5 a4 89 39 4a 27 37 39
       0.00021619246 0.00029107727 0.00026253486 0.00017466876
000010 11 91 b1 39 4d 59 53 39
       0.00033868154 0.00020155795

exp_avg f4 [64, 26]
000000 0c 97 6f 3a 00 00 00 00 12 fc 54 bb be c4 52 ba
       0.0009139634 0.0 -0.0032498878 -0.0008040181
000010 00 00 00 00 c2 47 3d 3a 00 00 00 00 3f d7 d4 b9
       0.0 0.00072204706 0.0 -0.00040596162
000020 cb e9 c9 ba 6b 44 19 3a 14 a1 be 39 96 5b 9f 3a
       -0.0015404759 0.0005846682 0.00036359637 0.0012158032
000030 89 92 5e 3b 91 0a 92 ba 68 cc 49 bb b6 e6 dd 39
       0.0033961853 -0.0011142065 -0.0030792002 0.00042324298
000040 09 05 3d bb 99 2e 08 b9 1e a5 02 3b 55 dc 7e 3b
       -0.0028842113 -0.0001298733 0.0019934843 0.0038888652
000050 70 1d 8a ba 4f 18 d5 ba 1a 80 e0 ba b4 ca 84 bb
       -0.0010537338 -0.0016257855 -0.0017128021 -0.0040524844
000060 9f c8 55 ab 37 85 34 ba cd 06 80 ba 00 00 00 00
       -7.595122e-13 -0.00068863056 -0.0009767652 0.0
000070 60 e8 09 3a b5 de 93 ba 00 00 00 00 6c 46 73 3a
       0.0005260762 -0.0011281582 0.0 0.0009280208
000080 00 00 00 00 0a c4 59 3b b4 d7 a8 bb bf f0 04 ba
       0.0 0.003322842 -0.005152667 -0.00050712744
000090 fb 77 23 bb 32 b2 db 3a 48 6b d7 3b 65 fc 6e 39
       -0.002494334 0.001676148 0.006574068 0.00022791473
0000a0 c6 d7 0a 3b e6 3d d4 ba 1a 04 c4 ba 9f 81 34 3a
       0.002118574 -0.0016192764 -0.0014954836 0.000688577
0000b0 40 8a a9 bb 70 8f 6c 3b d8 0b 82 3b 41 fd a9 ba
       -0.0051739514 0.0036096238 0.003968697 -0.0012969152
0000c0 ba e1 92 ba d2 72 7c 3b fc e5 15 ab 24 53 28 b8
       -0.0011206188 0.0038520587 -5.32546e-13 -4.0131752e-05
0000d0 b9 b4 96 3a 00 00 00 00 0b ff 8d bb a5 f1 96 38
       0.0011497951 0.0 -0.004333382 7.197567e-05
0000e0 00 00 00 00 73 f3 75 39 00 00 00 00 20 21 0f bb
       0.0 0.00023455713 0.0 -0.0021839812
0000f0 72 f6 a2 3b 1b c0 1d 3a 9e a0 1b b8 78 b5 4c 3a
       0.004973226 0.00060177007 -3.7104466e-05 0.00078090234
000100 3f ea de ba a9 8e 96 3a 80 9f 7a bb 1a 75 a5 ba
       -0.0017007067 0.0011486608 -0.0038242042 -0.00126234
000110 cb 8c 1f ba 9e c3 90 3b e0 be 9d 3a 0c 6b 3c bb
       -0.00060863484 0.0044178506 0.0012035035 -0.0028750328
000120 7d 53 76 bb 9d 63 dd ba 3b f1 94 ba 38 cc 79 bb
       -0.0037586384 -0.0016890649 -0.0011363396 -0.0038116109
000130 67 d4 1a ab bb 02 e7 b9 2e c1 82 b9 00 00 00 00
       -5.500656e-13 -0.00044061788 -0.00024939462 0.0
000140 3f 76 3d 3b 97 38 ab 3a 00 00 00 00 8b 62 39 ba
       0.0028909591 0.001306313 0.0 -0.0007071874
000150 00 00 00 00 d1 a9 8f ba 6f 43 8a 3b 1b 6f 3d 37
       0.0 -0.0010960643 0.0042194645 1.1291147e-05
000160 8f f6 a9 b9 6e 1e 08 bb c2 93 b0 bb aa 2e cc 3a
       -0.00032417892 -0.002077009 -0.005388708 0.0015577872
000170 d7 2c c9 3a f3 a0 c7 b9 27 6e 3f 3b 66 c9 bb 3a
       0.0015348446 -0.00038076154 0.0029209943 0.0014326989
000180 ac 41 ce 3a 75 44 8b bb 9a 25 63 ba cc d8 c4 3a
       0.0015736124 -0.004250104 -0.0008664966 0.0015018224
000190 75 e4 ac 3a be 6b b2 3a a5 a9 44 2b e8 ed ca 39
       0.0013190644 0.0013612432 6.9868617e-13 0.00038705696
0001a0 3f 7d a8 39 00 00 00 00 51 94 b5 b9 89 ef 53 3a
       0.00032136773 0.0 -0.00034633515 0.0008084705
0001b0 00 00 00 00 fd 61 00 ba 00 00 00 00 89 9f df ba
       0.0 -0.0004897414 0.0 -0.0017061095
0001c0 7a 73 96 3b ac 0f 4a 39 d0 b5 be 39 67 7f a2 ba
       0.0045914026 0.0001927006 0.00036375085 -0.0012397588
0001d0 1f ae 93 bb 6a ac da 3a 1c 6c 2a ba e6 4c 30 ba
       -0.004506841 0.0016683463 -0.0006501095 -0.0006725326
0001e0 e6 5d e7 3a 24 f6 0b 3b 94 7c 68 3a cb 36 84 bb
       0.0017651885 0.0021356428 0.0008868661 -0.004034852
0001f0 c1 dd 26 bb 3d 8f 85 39 03 05 0a 3a 4f 43 19 ba
       -0.0025461765 0.00025474458 0.0005265029 -0.00058465166
000200 7f a0 92 2a f6 27 1f 39 de 42 3b 3a 00 00 00 00
       2.6046176e-13 0.00015178308 0.0007143448 0.0
000210 bc aa 49 ba 95 84 10 39 00 00 00 00 7c 60 2f b9
       -0.0007692983 0.00013782301 0.0 -0.00016725244
000220 00 00 00 00 4b a8 c9 ba 50 de b6 3a 3f 1b 1b 3a
       0.0 -0.0015385238 0.0013951752 0.0005916841
000230 d2 62 b1 3a ad e8 ab 39 c9 25 04 bb 30 fb 0d bb
       0.0013533479 0.0003278902 -0.0020164123 -0.0021664612
000240 fe 9a e7 ba 2f 89 55 3a f5 6f fd b9 45 eb 0b b9
       -0.0017670093 0.0008145747 -0.00048339335 -0.00013343718
000250 82 4f 69 3b 60 d1 56 ba 41 fa de ba de 4a a3 39
       0.003560037 -0.00081946515 -0.0017011837 0.00031145563
000260 30 5a bb 38 be 7e 3d bb 0d ee f8 29 cd aa cf b7
       8.9336536e-05 -0.0028914656 1.10547076e-13 -2.4755858e-05
000270 dc a7 01 3a 00 00 00 00 ce b6 10 39 47 56 3d 3a
       0.00049459725 0.0 0.0001380101 0.0007222634
000280 00 00 00 00 ad ff 2d ba 00 00 00 00 2e 02 01 bb
       0.0 -0.0006637525 0.0 -0.0019685137
000290 ab 22 5c 3b 6b 53 1e 3a b1 21 be 3a 26 b7 41 ba
       0.003359 0.0006039652 0.001450589 -0.0007389657
0002a0 02 70 9a bb 47 3b 6a ba 57 d7 39 ba 87 96 f8 39
       -0.0047130594 -0.00089352246 -0.0007089278 0.00047414398
0002b0 67 43 6b 3a 5a 3d 3f 3a bf 75 45 3b 98 d7 70 bb
       0.00089745823 0.0007295214 0.0030129997 -0.0036749598
0002c0 5a ba 26 bb 8d 39 28 3a 7f 01 4b 3a 4c a8 02 bb
       -0.0025440664 0.0006417267 0.00077440584 -0.0019936739
0002d0 b9 66 a3 2a 78 b0 ba 38 2c e5 8b 38 00 00 00 00
       2.9025895e-13 8.902041e-05 6.670723e-05 0.0
0002e0 d3 ac 04 bb 86 19 f6 ba 00 00 00 00 9b e4 cd 3a
       -0.0020244613 -0.0018775917 0.0 0.0015708389
0002f0 00 00 00 00 ad 9c 16 3b 97 61 c8 bb 10 a2 a9 b9
       0.0 0.002298157 -0.0061151492 -0.00032354938
000300 b3 af b2 ba ab b2 96 3b 8d bd 1e 3c 21 48 48 bb
       -0.0013632685 0.0045989356 0.009688747 -0.003056057
000310 46 23 c0 ba 98 89 73 39 89 ef 84 bb bf 8d 2b ba
       -0.001465895 0.00023225544 -0.004056875 -0.0006544254
000320 9f 44 72 ba 8a 05 d9 3b 87 42 66 3b 0b 90 eb ba
       -0.0009241793 0.0066229748 0.0035134868 -0.0017972005
000330 22 01 27 bb 9f fc 81 ba 60 bd 34 ab 89 0a 09 ba
       -0.0025482853 -0.0009917206 -6.4211657e-13 -0.0005227705
000340 89 8d ef 3a 00 00 00 00 d7 f1 f4 bb f4 07 cf ba
       0.0018276434 0.0 -0.0074751186 -0.0015795217
000350 00 00 00 00 37 88 93 3a 00 00 00 00 30 d7 a0 ba
       0.0 0.0011255805 0.0 -0.0012271162
000360 a6 04 7f ba 77 27 dd 39 3e a6 94 3a 39 ad 39 3b
       -0.00097281707 0.00042181808 0.0011341048 0.0028332009
000370 42 0c 50 3b bb 72 28 bb 88 27 d4 bb 56 42 14 ba
       0.0031745587 -0.002570315 -0.006474439 -0.0005655637
000380 dd 61 84 bb 98 39 52 3a 24 d4 77 3a bc dd 81 3b
       -0.0040399865 0.00080194464 0.00094539137 0.0039632004
000390 18 8a 65 bb 79 65 e3 ba 45 07 ae ba 37 14 d5 bb
       -0.0035024937 -0.0017348967 -0.0013277313 -0.006502654
0003a0 93 a8 cc ab 2d 33 33 ba f8 d3 3c 38 00 00 00 00
       -1.4541861e-12 -0.0006835934 4.5020104e-05 0.0
0003b0 ab e2 75 3a b9 eb 63 3a 00 00 00 00 7b 8f 83 ba
       0.00093797845 0.0008694488 0.0 -0.0010037267
0003c0 00 00 00 00 88 4e b4 ba 29 ee 09 3b 1c a6 18 3a
       0.0 -0.0013756314 0.0021046496 0.0005823092
0003d0 e3 90 f8 3a b3 2c 3e ba cb 33 4d bb 60 4f 52 ba
       0.0018964078 -0.00072545855 -0.0031311389 -0.0008022692
0003e0 68 27 11 3a d8 7d ba 3a c1 39 88 3a 8e 1a f3 b9
       0.0005537183 0.0014228178 0.0010393189 -0.00046368357
0003f0 76 82 f9 3a 2f 2b 69 bb 88 5d a9 ba 86 20 c9 39
       0.0019036073 -0.0035578718 -0.0012921551 0.0003836194

exp_avg_sq f4 [64, 26]
000000 6d 67 6b 37 00 00 00 00 c3 86 0e 39 c2 c6 c2 35
       1.4031172e-05 0.0 0.00013592378 1.4511972e-06
000010 00 00 00 00 01 f7 2a 36 00 00 00 00 4e a2 01 38
       0.0 2.547575e-06 0.0 3.0907155e-05
000020 01 ee 8e 38 e6 4f ab 36 f2 65 da 37 d6 6c 32 37
       6.815419e-05 5.1054985e-06 2.6035097e-05 1.0634967e-05
000030 af 90 af 38 ce 25 40 37 ba 6b fb 38 30 b8 f1 36
       8.3716e-05 1.1452894e-05 0.00011988678 7.203802e-06
000040 fd 75 9f 37 13 2f c3 37 cf 4c 56 38 32 d6 2b 38
       1.900922e-05 2.3267732e-05 5.109311e-05 4.0969062e-05
000050 b9 7d ef 38 52 2f 80 36 c0 b5 0d 37 ab 30 e0 38
       0.00011419826 3.820206e-06 8.446572e-06 0.000106902175
000060 05 1e 9f 35 a8 38 1a 35 9b b1 eb 36 00 00 00 00
       1.185516e-06 5.7451916e-07 7.0242218e-06 0.0
000070 2a a3 96 38 f5 1a 2e 35 00 00 00 00 c2 f3 9e 35
       7.182949e-05 6.485928e-07 0.0 1.184286e-06
000080 00 00 00 00 e7 bd 89 37 ac fc 0c 38 44 48 d9 35
       0.0 1.6420103e-05 3.361392e-05 1.6188792e-06
000090 4f ae 33 37 de 6f 8b 36 a0 fc 2b 38 6d f6 91 36
       1.0709816e-05 4.155546e-06 4.1004852e-05 4.3500245e-06
0000a0 57 d4 81 38 3e 24 2b 36 c3 d3 03 37 96 a2 52 36
       6.190751e-05 2.5502081e-06 7.857513e-06 3.1387076e-06
0000b0 ed 20 ee 37 94 65 3a 37 d0 7f 6a 38 f6 4a 8c 35
       2.8387143e-05 1.1110114e-05 5.5908982e-05 1.0452629e-06
0000c0 c3 2f 22 36 64 90 66 38 dc e9 0c 35 98 48 97 34
       2.4167682e-06 5.4970747e-05 5.2494374e-07 2.817876e-07
0000d0 21 c0 85 37 00 00 00 00 7a 58 27 39 66 85 c8 35
       1.5944303e-05 0.0 0.00015959321 1.4939985e-06
0000e0 00 00 00 00 c9 23 37 36 00 00 00 00 85 e0 15 38
       0.0 2.7289955e-06 0.0 3.573347e-05
0000f0 79 c0 9f 38 04 77 8f 36 04 89 03 38 22 70 25 37
       7.617562e-05 4.2755873e-06 3.136044e-05 9.860874e-06
000100 3a ac b6 38 48 23 43 37 2c e1 10 39 81 a6 05 37
       8.710516e-05 1.163112e-05 0.00013816793 7.966185e-06
000110 0e c5 b7 37 ce 16 a3 37 77 4d 77 38 49 3c 07 38
       2.190706e-05 1.9441733e-05 5.8961534e-05 3.2242653e-05
000120 74 ff 04 39 fb cc 6f 36 8a 18 27 37 79 a0 00 39
       0.00012683665 3.573309e-06 9.959689e-06 0.00012266812
000130 b3 56 b0 35 1d ff 82 35 0a ac 29 37 00 00 00 00
       1.3138255e-06 9.760003e-07 1.0113241e-05 0.0
000140 65 b7 cb 38 b8 a9 7f 35 00 00 00 00 41 37 bf 35
       9.713954e-05 9.5241876e-07 0.0 1.424669e-06
000150 00 00 00 00 ac 48 ce 37 72 c3 55 38 01 bc 26 36
       0.0 2.4590954e-05 5.096518e-05 2.484536e-06
000160 a7 36 81 37 99 2a b8 36 6b dd 6c 38 40 8e d5 36
       1.5403448e-05 5.4885863e-06 5.6472996e-05 6.3644547e-06
000170 e1 09 b6 38 79 7b 51 36 a1 ae 4a 37 7f 40 28 37
       8.6802764e-05 3.1215297e-06 1.2080797e-05 1.0028597e-05
000180 a4 b7 1c 38 7d 63 af 37 cc 2e a9 38 8b 09 b7 35
       3.7364327e-05 2.0907954e-05 8.0672646e-05 1.363734e-06
000190 f4 92 ad 36 8f a1 a1 38 d8 d3 3d 35 fb 5f 6b 34
       5.1729094e-06 7.707171e-05 7.071626e-07 2.1920998e-07
0001a0 94 d4 6f 36 00 00 00 00 49 1a 12 38 e1 c5 c4 34
       3.5737512e-06 0.0 3.4833593e-05 3.665182e-07
0001b0 00 00 00 00 7b 25 35 35 00 00 00 00 15 31 16 37
       0.0 6.7482296e-07 0.0 8.9521245e-06
0001c0 f9 e3 9b 37 ec 4b 9c 35 a0 0b db 36 ad 90 30 36
       1.8583598e-05 1.1645002e-06 6.528062e-06 2.6310256e-06
0001d0 ee 05 b7 37 82 0f 0b 36 fd 72 03 38 0b b9 c6 35
       2.1818061e-05 2.072164e-06 3.1339925e-05 1.4806004e-06
0001e0 b2 5b 91 36 6c a3 aa 36 4f cd 73 37 8a c8 32 37
       4.3320115e-06 5.0854196e-06 1.4531731e-05 1.0656318e-05
0001f0 15 a0 f3 37 31 54 0d 35 97 04 ca 35 92 95 e5 37
       2.9042401e-05 5.264911e-07 1.5051509e-06 2.7368576e-05
000200 43 02 4c 34 97 ff 65 34 82 25 e0 35 00 00 00 00
       1.8999803e-07 2.142027e-07 1.6700217e-06 0.0
000210 f1 3e 90 37 59 d5 39 34 00 00 00 00 a1 de bf 34
       1.7195447e-05 1.7307083e-07 0.0 3.5738506e-07
000220 00 00 00 00 04 ba 37 36 c4 cd 01 37 ce 7e e0 34
       0.0 2.73774e-06 7.736908e-06 4.1815514e-07
000230 e3 39 2e 36 79 e2 95 35 7c 12 0d 37 6a 67 9c 35
       2.5961715e-06 1.1167277e-06 8.408559e-06 1.1653003e-06
000240 0d 6a 61 37 4d 3a 65 35 0f f3 6a 36 13 c6 e3 35
       1.3435737e-05 8.5393987e-07 3.5010196e-06 1.6970465e-06
000250 80 25 0d 37 19 2a 64 36 54 b4 3e 37 42 5c bd 34
       8.412986e-06 3.3999152e-06 1.1366868e-05 3.527112e-07
000260 28 5d f8 35 5c 66 46 37 c5 13 47 34 7e 59 01 34
       1.8504552e-06 1.1825552e-05 1.8540511e-07 1.2046618e-07
000270 d0 92 17 36 00 00 00 00 4b 45 c8 37 1d 24 b4 34
       2.258621e-06 0.0 2.3874125e-05 3.3553889e-07
000280 00 00 00 00 e1 c5 34 35 00 00 00 00 62 73 b2 36
       0.0 6.7343177e-07 0.0 5.3182457e-06
000290 17 c5 3a 37 a2 c2 8c 35 67 83 95 36 93 9c f1 35
       1.11323525e-05 1.0487458e-06 4.4558433e-06 1.8001468e-06
0002a0 5d 9c 6c 37 ee d9 f8 35 4f 2a a9 37 80 48 b5 35
       1.4103102e-05 1.8540866e-06 2.0166071e-05 1.3506651e-06
0002b0 4f 30 3c 36 55 13 67 36 aa c0 34 37 b1 d4 12 37
       2.8042302e-06 3.4432935e-06 1.0773694e-05 8.751799e-06
0002c0 ff ad 97 37 ca df df 34 94 43 5c 35 aa 51 92 37
       1.8081626e-05 4.1699815e-07 8.2054726e-07 1.7442584e-05
0002d0 bd 3f 87 34 dc 93 28 34 0f d4 77 37 00 00 00 00
       2.5192085e-07 1.570001e-07 1.4771721e-05 0.0
0002e0 ed 4f 15 39 9f bc 04 36 00 00 00 00 2a 9a 38 36
       0.00014239522 1.9779325e-06 0.0 2.7507872e-06
0002f0 00 00 00 00 db 63 14 38 b2 25 a0 38 7c 8a b1 36
       0.0 3.5378947e-05 7.636416e-05 5.2911328e-06
000300 8d 1c d4 37 dc 15 70 37 b3 1d bf 38 ae f9 2f 37
       2.5285664e-05 1.4310204e-05 9.1131216e-05 1.0488946e-05
000310 88 ff 03 39 75 93 b9 36 6a b2 9f 37 3f 07 96 37
       0.00012588326 5.530596e-06 1.9037358e-05 1.7884768e-05
000320 05 01 81 38 65 df 19 38 31 78 f8 38 7b 89 14 36
       6.151389e-05 3.6686095e-05 0.00011847949 2.2133743e-06
000330 89 79 f6 36 e2 1b f0 38 d7 c0 b9 35 1d 41 56 35
       7.34552e-06 0.000114492854 1.3839698e-06 7.9815965e-07
000340 05 90 84 37 00 00 00 00 2f 14 23 39 1c 55 0d 36
       1.580269e-05 0.0 0.0001555241 2.1060177e-06
000350 00 00 00 00 50 5a 76 36 00 00 00 00 9b d2 08 38
       0.0 3.6709425e-06 0.0 3.262107e-05
000360 5e ae a9 38 b6 c4 b0 36 82 5f 03 38 74 c0 40 37
       8.0910264e-05 5.268109e-06 3.1321782e-05 1.1488901e-05
000370 d3 62 bd 38 20 64 72 37 fd b1 09 39 5f 9e 26 37
       9.03063e-05 1.4447636e-05 0.00013131644 9.931245e-06
000380 c9 59 f7 37 cc 05 f2 37 0a 54 7c 38 96 c7 43 38
       2.9486504e-05 2.8851347e-05 6.015975e-05 4.66775e-05
000390 af 2a ff 38 c7 62 17 36 e2 ac 4a 37 53 90 fe 38
       0.00012167298 2.255825e-06 1.2080391e-05 0.00012138546
0003a0 0a 3a 45 36 6e 26 2c 35 61 a7 06 36 00 00 00 00
       2.938907e-06 6.4130916e-07 2.0064983e-06 0.0
0003b0 5a 95 b4 37 e0 d8 ae 34 00 00 00 00 6c cd 1d 35
       2.152722e-05 3.2567823e-07 0.0 5.8785986e-07
0003c0 00 00 00 00 27 e8 8e 36 30 c9 24 37 13 0e 61 35
       0.0 4.258956e-06 9.822004e-06 8.383951e-07
0003d0 63 47 84 36 95 c6 be 35 c7 64 4c 37 bf d8 ea 35
       3.942217e-06 1.4213898e-06 1.2182812e-05 1.749744e-06
0003e0 a0 38 95 37 72 59 b6 35 4a 18 56 36 5e a4 33 36
       1.7788552e-05 1.3586089e-06 3.1902623e-06 2.6768753e-06
0003f0 64 a1 12 37 45 b2 ed 36 85 6f 82 37 ad 2c 74 34
       8.739855e-06 7.0839037e-06 1.5549138e-05 2.2740524e-07

exp_avg f4 [64]
000000 08 fc 54 bb 3b e8 09 3a fd fe 8d bb 3c 76 3d 3b
       -0.0032498855 0.000526074 -0.0043333755 0.0028909585
000010 1c 94 b5 b9 c7 aa 49 ba 9c b6 10 39 be ac 04 bb
       -0.0003463336 -0.00076929893 0.00013800937 -0.0020244564
000020 cc f1 f4 bb a3 e2 75 3a 7f 99 7b bb 28 b4 a2 bb
       -0.0074751135 0.000937978 -0.0038391051 -0.004965324
000030 75 f6 7c bb 32 5e 32 3b 83 02 b2 3a 78 5b e0 3b
       -0.0038599048 0.002721679 0.0013581071 0.0068468414
000040 6d 0a 48 3b 1c a2 73 bb bb 4e 96 39 c4 6e 95 38
       0.0030523792 -0.0037175482 0.00028668888 7.125505e-05
000050 b0 6e e0 3b f7 30 38 3b 20 02 c7 38 9a 8f d4 39
       0.0068491325 0.0028105357 9.489455e-05 0.00040542783
000060 d2 8a ad 39 5f ed 35 ba a1 ad 13 3b ac 8f 91 3b
       0.0003310056 -0.0006939973 0.002253391 0.004442176
000070 a2 b9 a2 3b 18 e8 04 3b 1f d9 e9 3b 7a 8d 86 3b
       0.004965977 0.002027994 0.0071364786 0.004106221
000080 f9 7e 34 39 18 fc 93 3a da 76 af 3a 08 19 8f ba
       0.00017213439 0.001129034 0.0013386861 -0.0010917494
000090 b7 53 f7 ba 20 30 ad ba 5a be a1 b9 7b 27 6a b9
       -0.0018869553 -0.0013213195 -0.00030850136 -0.00022330687
0000a0 5a e7 59 3b 73 79 af 39 b2 01 2b 3a d7 84 69 ba
       0.0033249469 0.00033469088 0.0006523385 -0.00089080393
0000b0 97 fb 63 3b 69 bf 0c 3b 2f 24 82 3a fa a2 76 bb
       0.003478741 0.0021476394 0.0009928996 -0.0037633763
0000c0 91 20 a3 39 e3 36 03 3c b9 69 81 3b c2 f7 48 3b
       0.00031114047 0.0080086915 0.0039493707 0.0030665253
0000d0 ab 46 06 bc 73 99 09 bb 35 1a 36 bb 7b b5 37 3a
       -0.0081955595 -0.0020996004 -0.0027786617 0.00070079387
0000e0 69 a6 c3 39 ee 5b 5a bb 6f 0a 6d bb 98 24 83 ba
       0.00037317284 -0.0033318955 -0.003616955 -0.0010005413
0000f0 0f 04 91 ba 38 2a 1c 3a 03 bd f9 b9 cf c4 de ba
       -0.0011063832 0.0005957219 -0.00047633806 -0.0016995909

exp_avg_sq f4 [64]
000000 bc 86 0e 39 2b a3 96 38 76 58 27 39 65 b7 cb 38
       0.00013592368 7.18295e-05 0.00015959315 9.713954e-05
000010 4d 1a 12 38 f1 3e 90 37 46 45 c8 37 ec 4f 15 39
       3.4833607e-05 1.7195447e-05 2.3874116e-05 0.0001423952
000020 2c 14 23 39 58 95 b4 37 67 10 8d 39 be d3 4d 38
       0.00015552406 2.1527216e-05 0.00026905836 4.907301e-05
000030 cf 9d 96 38 81 70 4f 38 db b4 c7 38 b7 33 f9 38
       7.1819515e-05 4.9457423e-05 9.5227464e-05 0.00011882878
000040 d2 2d 16 39 83 3c f3 38 e2 14 b9 37 ae 32 fa 37
       0.00014322184 0.00011598414 2.2063443e-05 2.9825922e-05
000050 23 64 d0 38 f6 14 8e 38 cc 0f 0f 38 60 d8 d4 37
       9.936865e-05 6.774992e-05 3.410857e-05 2.5373127e-05
000060 c4 6a f5 36 d4 0c ee 38 5a 64 bd 39 b1 31 36 38
       7.313998e-06 0.00011351114 0.00036123657 4.343846e-05
000070 ab 7e 31 38 c6 66 a3 39 79 52 c3 38 b3 e8 7a 39
       4.2318057e-05 0.00031166355 9.313686e-05 0.00023928545
000080 e8 ab 65 38 28 b9 1b 38 79 62 a5 38 78 16 2a 38
       5.4757955e-05 3.712732e-05 7.886155e-05 4.0552084e-05
000090 ff e6 85 39 95 7c 7a 38 a3 9d b0 38 15 43 22 38
       0.00025539842 5.972067e-05 8.421696e-05 3.8686285e-05
0000a0 d0 71 81 38 ff 5f a9 38 9e dc 07 37 04 4d f9 37
       6.1723986e-05 8.076429e-05 8.0979935e-06 2.9718976e-05
0000b0 15 3e 5c 39 33 36 bf 38 c8 ec a5 38 f5 8f 97 38
       0.00021003962 9.117685e-05 7.911917e-05 7.227055e-05
0000c0 18 0a 12 39 56 51 bd 38 dd b6 2d 39 48 41 17 38
       0.00013927405 9.027372e-05 0.00016566688 3.6062003e-05
0000d0 76 32 c4 38 8e 8a cf 38 b4 7d 19 39 6d a2 76 39
       9.3554074e-05 9.896337e-05 0.00014638045 0.00023520897
0000e0 f7 4c 80 38 47 92 45 39 7b fa 42 39 f1 96 11 38
       6.1178514e-05 0.00018841877 0.00018594593 3.471127e-05
0000f0 9a 5b 5b 38 15 9a a9 37 7c a8 2a 38 3d 49 ba 38
       5.229898e-05 2.021812e-05 4.068807e-05 8.882813e-05

exp_avg f4 [32, 64]
000000 a4 39 40 b9 ae 7c 8a 3a a4 a1 29 ba c7 8e 6e 39
       -0.0001833202 0.0010565722 -0.0006470925 0.00022750637
000010 e3 01 e8 39 0d a3 6e 3b 62 93 0a 3b bc 5a 3f ba
       0.00044251894 0.0036413104 0.0021144976 -0.0007299592
000020 f8 1a 09 3b 17 cf f5 3a e6 4a 2c 3a 4a 7f 76 ba
       0.0020920616 0.0018753734 0.000657244 -0.0009403123
000030 22 61 af b9 78 b1 23 3b 37 8b 90 ba bc db ee ba
       -0.0003345097 0.0024977606 -0.0011027817 -0.0018223445
000040 b5 36 80 ba ef 8b d4 ba ec 3b 10 bb 12 28 6d 3b
       -0.0009781929 -0.001621602 -0.0022008372 0.0036187214
000050 9e dc 95 ba f8 0d d7 ba 2a 9a 26 3b 4f ae 43 3b
       -0.0011433547 -0.0016407361 0.0025421479 0.0029858535
000060 76 57 73 3b a8 2b 45 3b bf db aa b9 34 61 5c bb
       0.0037130988 0.0030085836 -0.0003258865 -0.0033627274
000070 c0 ec f7 b9 43 13 b3 ba 1a cf 8f bb 89 38 5f ba
       -0.00047287904 -0.0013662357 -0.004388702 -0.00085151993
000080 78 04 e1 3a c9 d3 dd b7 5e 30 a0 3a bc d3 41 ba
       0.001716747 -2.6443873e-05 0.0012221446 -0.00073939166
000090 65 47 1f 3b 95 bd 16 3b 5e 28 8f 3a be 79 ba 39
       0.002430403 0.0023001183 0.0010922065 0.0003556739
0000a0 87 64 ed 3a 24 68 0e ba db 5b a9 b9 1d f9 43 3b
       0.0018111625 -0.0005432388 -0.0003230263 0.0029903122
0000b0 9f 07 64 3a 50 7a 14 3b 77 d2 5c bb f1 dd 8a b9
       0.00086986454 0.0022655912 -0.0033694783 -0.0002648677
0000c0 17 a7 c8 ba 99 81 2b 3b f9 ad 47 ba 28 50 8f ba
       -0.0015308586 0.0026169776 -0.00076171715 -0.0010933923
0000d0 ab 59 bd ba d2 96 43 b9 11 f5 eb 39 01 23 e1 ba
       -0.0014446279 -0.00018652834 0.00045005282 -0.001717657
0000e0 23 3d ee ba cd 82 4c 3b c6 fc 0d ba f6 c8 5d b9
       -0.0018176179 0.0031205893 -0.00054163893 -0.00021151066
0000f0 75 a1 cd b9 06 4b 06 3b b1 a9 00 ba e3 65 80 3b
       -0.00039220942 0.0020491495 -0.00049080985 0.003918396
000100 0d 59 2b 3a 80 4d 93 38 3e 19 05 ba 18 85 9c 3a
       0.0006536402 7.023942e-05 -0.0005077309 0.001194152
000110 ca 39 c2 ba 8a 1a d1 ba ff 6c d7 ba c3 65 8b 3a
       -0.0014818248 -0.0015953344 -0.0016435682 0.0010635186
000120 c8 00 8c ba cd 61 1a bb 1d b2 f4 b6 9a 7a 8c 3a
       -0.0010681385 -0.002355683 -7.292502e-06 0.001071769
000130 85 bd 49 bb 41 34 7c b9 d4 15 52 b9 19 90 bf 39
       -0.0030783128 -0.00024052059 -0.00020035292 0.0003653772
000140 61 4f 87 ba a8 87 91 39 a8 b5 f1 3a 23 8a 0d bb
       -0.0010323339 0.00027757627 0.0018440979 -0.0021597228
000150 b1 c6 d7 39 3e 39 23 3a e2 c1 57 bb 9a 18 0d bb
       0.00041156032 0.00062264863 -0.003292196 -0.0021529556
000160 4e 5d 73 bb 61 df 80 b9 7c 4c 26 b9 8b 73 f4 39
       -0.0037134471 -0.00024580493 -0.00015859486 0.00046625393
000170 4b 6a f0 3a 53 9c 84 3a 3c fb 7d 39 10 21 8f 3a
       0.0018342225 0.0010117389 0.00024221552 0.0010919888
000180 74 a8 89 ba 92 33 94 3a ab 42 9a ba f6 f0 b5 3a
       -0.0010502473 0.0011306873 -0.0011769136 0.0013881016
000190 3f ec ab ba f2 68 6a 3a c2 7f ea b8 78 54 c6 ba
       -0.0013116671 0.00089420297 -0.00011181786 -0.0015131375
0001a0 82 13 10 39 5d 23 98 b9 1e b5 17 3b 2c f7 1e bb
       0.00013740177 -0.00029018047 0.0023148726 -0.0024256213
0001b0 f4 39 a5 ba fe e7 fa ba 05 51 ec 3a 38 28 b2 3a
       -0.0012605772 -0.0019142625 0.0018029517 0.0013592308
0001c0 ea 6b 19 3a 79 cd 18 3b b1 af 6f 39 53 59 99 ba
       0.0005852567 0.002331583 0.00022858266 -0.0011699594
0001d0 b1 3c cf ba 2f e6 0f ba a8 8a a0 3a e4 a5 e1 38
       -0.0015810934 -0.0005489317 0.0012248354 0.000107597356
0001e0 76 a5 a9 39 93 70 8e ba 42 7b d4 3a d0 35 ac ba
       0.0003235747 -0.001086729 0.001621105 -0.0013138596
0001f0 47 35 a4 b9 04 70 75 ba 71 2a 5b 3a 83 14 97 ba
       -0.00031320212 -0.00093627 0.0008360511 -0.0011526499
000200 87 b1 db b9 b6 b1 b9 3a b2 4e 88 ba 53 bd e6 39
       -0.00041903203 0.0014167342 -0.001039943 0.00044010076
000210 89 6a a7 ba a5 b7 66 3a 65 37 dc b8 f0 b5 18 3a
       -0.0012772839 0.0008801169 -0.000105007355 0.00058254506
000220 67 9d 65 39 ea f7 34 ba 66 8a 85 39 ae b5 01 3a
       0.00021897779 -0.0006903397 0.00025470852 0.0004948032
000230 84 03 83 ba 14 a1 1c 3a 35 0f 28 39 5a f8 92 ba
       -0.0009995555 0.000597493 0.00016027394 -0.001121293
000240 a3 bf e4 ba 6d 22 ab ba 5d 5d 80 3a 99 5d a5 3a
       -0.0017452132 -0.0013056524 0.000979345 0.0012616395
000250 27 34 52 ba ff f5 9e ba aa d0 e1 ba 28 c3 5d ba
       -0.00080186356 -0.0012127756 -0.0017228324 -0.00084595615
000260 5c e5 ed b8 ee 70 45 3b e5 b8 09 b9 71 5a 1e bb
       -0.00011343762 0.0030127126 -0.00013134217 -0.0024162794
000270 24 03 0b 3b bb fb 9e b9 e2 b2 38 bb db cc a0 37
       0.0021211589 -0.00030323662 -0.0028182794 1.916888e-05
000280 15 af 90 39 8d 7e c2 3a f0 d1 98 3a 0a 1a 8b 38
       0.00027596267 0.001483874 0.0011659246 6.632887e-05
000290 72 52 73 3a aa 95 1d 3b b5 40 1f 3a 20 97 9c ba
       0.00092819997 0.0024045506 0.0006075011 -0.0011946894
0002a0 9c 40 3e 3b 83 1b da 39 ee 64 01 3b 05 bc f9 39
       0.002903021 0.00041600698 0.0019743997 0.00047633066
0002b0 80 3a bc ba 74 8e bf 3a cd ec 8a ba c8 5d 98 3a
       -0.0014360696 0.0014614598 -0.0010599137 0.0011624629
0002c0 0a 03 93 ba 73 0f 91 3b 4b 36 36 39 69 5e 0c bb
       -0.0011216116 0.0044268905 0.00017377098 -0.0021418578
0002d0 dd 7c 09 bb 9c 94 0e ba 1e 57 af 3a e5 7f b7 ba
       -0.0020978965 -0.00054390146 0.0013377403 -0.0013999908
0002e0 1d c6 a7 ba ba 28 04 3b 23 0a 33 39 b0 52 00 bb
       -0.0012800131 0.0020165876 0.00017074546 -0.0019580536
0002f0 47 6c f1 b9 7d 73 a6 3a 51 1b a0 3a c3 af 08 3b
       -0.00046047775 0.0012699213 0.0012215172 0.0020856715
000300 66 9e b8 b7 34 a7 74 39 00 fc 33 ba bb 31 1e 39
       -2.200827e-05 0.00023331941 -0.0006865859 0.0001508658
000310 2d ae 1d bb 6f aa 18 bb d0 d0 2f bb 09 9e 11 38
       -0.0024060116 -0.0023294946 -0.0026827343 3.4717876e-05
000320 04 ce 1d ba ce 1c 27 bb 38 00 c2 39 82 70 61 3a
       -0.00060197734 -0.0025499347 0.00037002726 0.0008599834
000330 87 28 38 bb e7 6a 9e ba e8 56 bf 3a 52 3d 8c 39
       -0.0028100328 -0.0012086303 0.0014598044 0.00026748568
000340 ff 38 54 ba c7 09 da 39 18 18 22 3b 9d c2 2d bb
       -0.0008095651 0.00041587485 0.00247336 -0.0026513704
000350 73 72 b8 3a 80 16 a9 39 d2 26 74 bb fd 76 7b bb
       0.0014072194 0.00032250956 -0.0037254584 -0.0038370483
000360 4d 88 4e bb d7 0c 0c 3a 8f 9a fc 39 3b c5 41 3a
       -0.0031514347 0.00053424895 0.0004818034 0.00073917554
000370 1a df c0 3a 37 b9 7a 3a c3 8a 6a 3a 03 ec ff 38
       0.0014714927 0.00095643423 0.00089470687 0.00012203308
000380 a6 5e 5a ba dd cd f0 3a 66 8f 28 ba a4 c1 89 3a
       -0.0008330144 0.0018371899 -0.00064300594 0.001050998
000390 fa 5c 03 b8 fc a9 8b 3a 34 73 30 38 26 66 43 bb
       -3.1319425e-05 0.0010655518 4.206896e-05 -0.0029815524
0003a0 5e b5 c5 b8 03 05 f3 39 98 06 10 3b 60 3d e0 ba
       -9.427474e-05 0.00046352306 0.0021976586 -0.0017108135
0003b0 3c 30 73 ba 9d 67 b3 ba bc d6 0b 3b 12 a5 ad 3a
       -0.0009276902 -0.0013687495 0.0021337708 0.0013248047
0003c0 81 68 85 3a 86 02 22 3b a6 b3 64 39 f7 6b 9d ba
       0.0010178239 0.0024720742 0.00021810699 -0.0012010325
0003d0 02 f1 14 ba aa 27 cc 39 05 8a b3 3a 8d 50 24 b6
       -0.0005681665 0.00038939464 0.0013697749 -2.448479e-06
0003e0 c8 35 99 3a 51 46 01 ba 33 69 83 3a e9 77 15 bb
       0.0011689002 -0.00049314374 0.0010025859 -0.0022807068
0003f0 9c 77 2f ba 7c 08 00 3a 16 e3 d7 39 f6 e1 eb ba
       -0.00066935434 0.0004884077 0.00041177188 -0.0017996419

exp_avg_sq f4 [32, 64]
000000 81 b5 93 36 4d 33 9f 36 e8 24 cd 35 1a cf a2 36
       4.402071e-06 4.7445415e-06 1.5284431e-06 4.852086e-06
000010 24 4b 54 37 5f 6b 10 38 c5 79 dc 37 1c 2a d4 36
       1.265368e-05 3.4432273e-05 2.6282747e-05 6.3229945e-06
000020 9d 46 7c 37 7f 9c b7 37 f4 ed f7 36 cc 2d 26 37
       1.5036811e-05 2.1888174e-05 7.388875e-06 9.905034e-06
000030 37 39 3f 37 17 9b 94 37 c1 8d 4c 37 26 af af 36
       1.13978085e-05 1.7715194e-05 1.2192352e-05 5.2357964e-06
000040 85 f6 ed 36 da 01 e0 36 15 cb 26 38 d4 dc f3 37
       7.091849e-06 6.6759358e-06 3.976662e-05 2.9070688e-05
000050 ad ea eb 36 e4 31 86 36 b9 19 61 38 13 7f 60 38
       7.0308656e-06 3.9993192e-06 5.3668136e-05 5.352411e-05
000060 c4 78 67 38 04 ec db 36 b4 79 58 36 0d 9e 4c 37
       5.5187164e-05 6.5541844e-06 3.2257349e-06 1.2196147e-05
000070 6d c1 ec 37 2a 26 2c 37 de 80 8a 37 6f 46 42 36
       2.8223463e-05 1.0260885e-05 1.651089e-05 2.894925e-06
000080 f5 3b 15 37 6f ef 29 37 5a 76 87 36 a2 90 0c 37
       8.895052e-06 1.0128932e-05 4.0370915e-06 8.378325e-06
000090 3d 93 fd 36 80 dc 5f 36 2e 7d 22 36 ea 41 93 37
       7.5571284e-06 3.3357937e-06 2.4212745e-06 1.755446e-05
0000a0 86 b3 cf 36 03 45 a2 36 a9 83 d2 37 89 11 e8 37
       6.18998e-06 4.8360102e-06 2.509526e-05 2.766472e-05
0000b0 64 26 88 37 36 1e c7 36 92 1f 04 38 26 2f 29 37
       1.623034e-05 5.934179e-06 3.1500655e-05 1.0084163e-05
0000c0 c2 25 fd 36 79 89 d6 37 fb 28 30 36 2c a1 22 37
       7.544383e-06 2.5574804e-05 2.6249897e-06 9.693478e-06
0000d0 b0 b2 5b 36 8a 1a 00 36 7d c6 20 37 e0 05 b6 36
       3.2737553e-06 1.9088934e-06 9.582957e-06 5.4247066e-06
0000e0 b9 c8 e2 36 82 b0 00 37 0c 93 c1 36 f2 37 79 37
       6.758692e-06 7.670491e-06 5.7689667e-06 1.4854582e-05
0000f0 6a 32 3d 36 83 b7 b7 36 05 6e a4 37 a7 28 be 37
       2.819254e-06 5.4751886e-06 1.9601555e-05 2.2668695e-05
000100 6b 37 31 36 48 41 92 36 e1 17 a8 35 30 59 87 36
       2.6407313e-06 4.358739e-06 1.2523925e-06 4.0336963e-06
000110 29 6c eb 36 a0 ed 93 37 9a c0 67 37 45 ad 83 36
       7.0161373e-06 1.7634418e-05 1.38135165e-05 3.9242755e-06
000120 e1 a8 11 37 9c 24 5d 37 6a 45 9c 36 00 ee db 36
       8.681994e-06 1.318115e-05 4.657243e-06 6.5544154e-06
000130 66 84 d9 36 69 86 29 37 58 69 0b 37 8c cc 6a 36
       6.482517e-06 1.010448e-05 8.309573e-06 3.498778e-06
000140 39 d8 af 36 78 e1 b1 36 f2 e2 ce 37 92 a7 8a 37
       5.240578e-06 5.301259e-06 2.4662793e-05 1.6528913e-05
000150 df 98 81 36 9f 5b 40 36 93 59 f3 37 1f 79 05 38
       3.862296e-06 2.866356e-06 2.9009569e-05 3.1822474e-05
000160 0a f8 ef 37 14 b6 8e 36 72 ef 28 36 d0 50 f4 36
       2.8606522e-05 4.2531265e-06 2.5173326e-06 7.2811745e-06
000170 86 ea 94 37 e3 ba ba 36 6e 8b 06 37 79 0d ff 35
       1.7752183e-05 5.5649884e-06 8.019486e-06 1.9002902e-06
000180 9f 27 bb 36 24 4d ea 36 01 e3 5b 36 06 d5 9f 36
       5.577647e-06 6.982724e-06 3.2765677e-06 4.7633685e-06
000190 d8 4c ae 36 e1 0b 4c 36 a5 97 09 36 f1 31 1f 37
       5.19455e-06 3.0405283e-06 2.050286e-06 9.488766e-06
0001a0 0b 37 b3 36 70 64 62 36 f8 ed 67 37 39 0d 6a 37
       5.3410236e-06 3.3735087e-06 1.3824079e-05 1.39505655e-05
0001b0 42 3d 10 37 af 70 68 36 a0 53 95 37 ba 76 ef 36
       8.5973315e-06 3.4636284e-06 1.7801125e-05 7.1365766e-06
0001c0 81 fd 95 36 00 2b 87 37 cd 41 d3 35 9a 40 dc 36
       4.470058e-06 1.6113278e-05 1.5739876e-06 6.5640315e-06
0001d0 8a 22 40 36 0f e7 e0 35 49 f5 ba 36 b8 5a 44 36
       2.8630334e-06 1.6756547e-06 5.571787e-06 2.9259081e-06
0001e0 5f 2a 72 36 ea ee 90 36 67 97 8d 36 57 88 04 37
       3.6085473e-06 4.3193477e-06 4.219753e-06 7.899557e-06
0001f0 5b c5 2c 36 1f 63 54 36 96 99 33 37 ca 2c 3b 37
       2.5744873e-06 3.1648158e-06 1.0704991e-05 1.1156497e-05
000200 8c a7 99 36 ee 5d b3 36 b6 f6 0b 36 94 b3 94 36
       4.5792603e-06 5.3455506e-06 2.0856219e-06 4.4316494e-06
000210 fe e0 44 37 e0 8e 10 38 c5 7f ca 37 c9 a9 d3 36
       1.1734895e-05 3.4465338e-05 2.4139774e-05 6.3080556e-06
000220 bf 41 7f 37 8e f6 b5 37 ed 5c e2 36 79 1d 42 37
       1.5214492e-05 2.1691692e-05 6.746143e-06 1.1570163e-05
000230 33 b1 49 37 f7 0f 94 37 8a c7 62 37 b0 c8 e0 36
       1.2021791e-05 1.7650409e-05 1.35171085e-05 6.6990833e-06
000240 7a b2 d8 36 eb cd 1f 37 82 79 2d 38 ce 05 01 38
       6.458079e-06 9.5250825e-06 4.1359577e-05 3.0761403e-05
000250 e6 e6 c3 36 2e c9 9b 36 9d 05 63 38 53 14 65 38
       5.838333e-06 4.6427804e-06 5.4126245e-05 5.4616783e-05
000260 ba a1 69 38 7c 0e f1 36 71 72 91 36 6a f1 7e 37
       5.570215e-05 7.184046e-06 4.3346595e-06 1.5195788e-05
000270 63 8a e2 37 9d 19 1f 37 19 1e 7c 37 f0 79 68 36
       2.700574e-05 9.483102e-06 1.5027378e-05 3.464167e-06
000280 bc 7e 27 37 b0 93 1e 37 ac c0 c0 36 1d f7 fa 36
       9.983483e-06 9.45192e-06 5.744476e-06 7.4793484e-06
000290 c1 7e 19 37 87 a9 7c 36 64 1e 4a 36 93 33 88 37
       9.149023e-06 3.7649604e-06 3.0118035e-06 1.623648e-05
0002a0 cf 68 0a 37 6c e0 b7 36 be 2f c9 37 e7 6d e0 37
       8.249844e-06 5.479951e-06 2.3983299e-05 2.6754058e-05
0002b0 45 58 88 37 60 88 ed 36 20 97 00 38 6c 4e 2b 37
       1.6253567e-05 7.0790265e-06 3.0658324e-05 1.0210653e-05
0002c0 b4 80 06 37 d1 19 cb 37 f2 8a 2a 36 ea eb 2f 37
       8.016988e-06 2.4211507e-05 2.541285e-06 1.0485741e-05
0002d0 a2 31 8c 36 c3 15 fb 35 45 ac 21 37 16 a7 b6 36
       4.178103e-06 1.8707291e-06 9.636457e-06 5.443474e-06
0002e0 7e 4e f5 36 b9 90 1c 37 66 f2 e4 36 25 2d 70 37
       7.3107067e-06 9.33202e-06 6.8231484e-06 1.4315626e-05
0002f0 00 13 5b 36 4a 9b 9c 36 d6 a3 92 37 bf 1f c2 37
       3.2644602e-06 4.6672403e-06 1.7480848e-05 2.3141385e-05
000300 17 f9 0b 36 6f 96 8e 36 3b 39 aa 35 aa c6 7c 36
       2.0857603e-06 4.2494426e-06 1.2682643e-06 3.7666564e-06
000310 7e 6c fd 36 90 33 a5 37 c4 8d 76 37 ec 37 8e 36
       7.5526177e-06 1.9693543e-05 1.469575e-05 4.23844e-06
000320 96 72 21 37 9d 02 78 37 9a bd 92 36 c6 22 fd 36
       9.623027e-06 1.478256e-05 4.3732116e-06 7.5440357e-06
000330 2b a8 01 37 b2 43 1e 37 5d 56 04 37 d5 d8 8a 36
       7.728154e-06 9.433295e-06 7.887921e-06 4.137963e-06
000340 73 47 9f 36 7f 92 b8 36 7f b9 d8 37 a9 30 96 37
       4.746887e-06 5.5006817e-06 2.5835585e-05 1.7904053e-05
000350 99 9b 90 36 9c c3 38 36 92 1f 04 38 d6 b2 0b 38
       4.3096484e-06 2.7531996e-06 3.1500655e-05 3.3306736e-05
000360 cf 93 08 38 a7 8b 8a 36 75 bc 15 36 42 45 02 37
       3.2562584e-05 4.128978e-06 2.2312427e-06 7.764729e-06
000370 a9 69 97 37 e5 14 b9 36 59 09 13 37 c0 fd 10 36
       1.8049805e-05 5.515862e-06 8.764059e-06 2.1605374e-06
000380 eb 0f c0 36 b5 ca fb 36 af fe 57 36 0b 33 a2 36
       5.723899e-06 7.503981e-06 3.2185742e-06 4.8339184e-06
000390 d4 ac bc 36 9e 74 5c 36 86 16 ea 35 fb 32 32 37
       5.6229565e-06 3.2850435e-06 1.7440914e-06 1.0621497e-05
0003a0 e2 50 b8 36 ee c2 4c 36 cf e1 81 37 ec e8 80 37
       5.4930433e-06 3.0511833e-06 1.5483149e-05 1.5367252e-05
0003b0 07 e0 20 37 bf 3a 63 36 34 f1 a0 37 d4 c1 05 37
       9.588904e-06 3.385983e-06 1.9185805e-05 7.972547e-06
0003c0 d7 dd 93 36 7e 67 94 37 bc 96 15 36 ad ed e2 36
       4.406767e-06 1.7691167e-05 2.229047e-06 6.762994e-06
0003d0 05 42 3e 36 65 05 ab 35 3c e1 de 36 32 37 3b 36
       2.8350635e-06 1.2742063e-06 6.6423363e-06 2.78973e-06
0003e0 fd 2d 84 36 2a f3 9c 36 27 d1 81 36 06 3c 1d 37
       3.9392603e-06 4.6774703e-06 3.868848e-06 9.3719045e-06
0003f0 9b 18 1d 36 61 26 5d 36 d1 12 38 37 26 74 43 37
       2.3409145e-06 3.2953906e-06 1.0971636e-05 1.1649949e-05

exp_avg f4 [32]
000000 fa a0 bb ba ee 16 65 3b de 98 8f 3b cb df a4 3b
       -0.0014314943 0.0034956294 0.004382237 0.005031561
000010 ec 22 a9 bb 90 21 f6 3a d7 48 64 bb 27 f3 05 3b
       -0.0051616337 0.0018778313 -0.0034833455 0.002043912
000020 d4 cd 76 3b 34 0b 21 3b c5 a2 3d 3b 98 0e e7 3b
       0.0037659304 0.0024573328 0.002893613 0.0070513003
000030 42 17 55 3b fb 28 81 3a e1 f3 0f 3b a4 70 86 3b
       0.0032515083 0.0009854132 0.0021965432 0.0041027833
000040 e9 29 94 bb ba 44 36 3b 04 aa b1 3b 14 3d 8c bb
       -0.0045215976 0.002781196 0.005421879 -0.004279742
000050 39 9d c7 ba 04 60 4f bb e3 97 15 bb 06 ec 26 3b
       -0.0015229351 -0.0031642923 -0.0022826127 0.002547027
000060 e8 9c e8 3b 8e e6 6e ba be 9c 15 3a d7 38 90 bb
       0.007098783 -0.0009113335 0.00057072553 -0.004401307
000070 36 68 7e 3a 06 8b a6 35 f9 70 0d ba d5 4f 97 bb
       0.00097048597 1.2408425e-06 -0.00053955574 -0.004617671

exp_avg_sq f4 [32]
000000 df c0 0f 39 64 22 9e 38 3e 26 09 39 8b 51 ab 38
       0.00013709393 7.540433e-05 0.00013079584 8.169104e-05
000010 47 b8 ff 38 0b eb 66 38 de c8 36 39 50 61 85 38
       0.00012193672 5.5055174e-05 0.00017431701 6.36006e-05
000020 79 54 63 38 05 31 95 38 de a9 06 39 c8 e5 50 39
       5.419969e-05 7.114004e-05 0.00012842516 0.00019922026
000030 29 73 0d 39 95 1b 78 38 d3 87 02 39 91 d1 9f 38
       0.00013489708 5.9153495e-05 0.00012448365 7.6207456e-05
000040 28 0e 2a 39 69 0c 97 38 d3 fc c5 38 37 31 83 38
       0.00016217737 7.202553e-05 9.440784e-05 6.255734e-05
000050 51 64 3b 38 25 60 20 38 01 64 28 38 7d 46 99 38
       4.46777e-05 3.8236514e-05 4.0147457e-05 7.308738e-05
000060 46 3a e6 38 ab ce e9 38 bb 79 76 38 96 90 f8 38
       0.00010978109 0.00011148801 5.876434e-05 0.00011852493
000070 8a ef 9c 38 4c a5 d0 38 99 31 8e 39 8b d3 0a 39
       7.483277e-05 9.949002e-05 0.00027121304 0.00013239511

exp_avg f4 [6, 32]
000000 ed d1 63 ba b6 9a 00 bb be 0a a7 ba 31 0e 1c 3b
       -0.0008690644 -0.0019623465 -0.001274429 0.002381217
000010 f7 18 fa ba 71 3b c0 ba 8a 23 72 3b 86 dd d4 ba
       -0.0019080926 -0.0014666152 0.0036947452 -0.0016240336
000020 85 e2 6f bb 48 a3 3f bb 7b 4d 0b 3a d8 16 37 bb
       -0.0036603522 -0.002924161 0.00053139747 -0.00279372
000030 db b9 5b bb a6 cc 4a ba b0 4f 13 bb 3f 27 38 3b
       -0.0033527527 -0.00077361835 -0.0022477917 0.0028099564
000040 e8 7d 86 3a 6b e8 7c ba 16 0f 52 3b 23 cf fb 3b
       0.0010260912 -0.000964767 0.003205245 0.0076846047
000050 b0 bb 97 3b 42 4f 05 3a 55 ec ea 3a 0b 9b 87 bb
       0.0046305284 0.00050853577 0.0017923216 -0.0041383556
000060 bb 7c 22 bb 99 fc ec ba e5 40 57 38 b4 ac 70 3b
       -0.0024793583 -0.0018080651 5.1320432e-05 0.0036724033
000070 c6 be 2a 3b b8 a5 17 3b 13 39 12 3a da 91 d2 3a
       0.0026053651 0.0023139548 0.0005577963 0.0016065196
000080 3d f2 27 3c 73 e0 90 bb 7a 5a 9a 3b b8 4b 23 3c
       0.010250625 -0.0044212877 0.0047104927 0.009966783
000090 96 08 35 bb 31 4d 39 bb 20 99 23 3b 28 96 2c bb
       -0.0027623526 -0.002827477 0.0024963096 -0.0026334617
0000a0 dd 69 f5 bb bc f6 fd bb f4 2e 72 bb 2c 19 7e ba
       -0.0074894265 -0.0077503603 -0.0036954256 -0.0009693082
0000b0 77 2e 9e bb e2 a6 ad bb 59 ac 0c bb f1 b1 cf 3a
       -0.0048273164 -0.005299435 -0.0021465032 0.0015845877
0000c0 ff 2e 53 bb 38 48 0a 3b f9 f1 7f b6 99 54 45 3b
       -0.0032224057 0.0021100175 -3.8138808e-06 0.0030110239
0000d0 90 5e 8d 3b 7d a2 e8 3a c3 2f 5e 3b b3 4c bf bb
       0.0043142512 0.0017748621 0.003390298 -0.0058380007
0000e0 aa 58 ab ba 77 de b5 3a 43 be 5c 3b 33 c5 c0 ba
       -0.0013072689 0.0013875504 0.003368274 -0.0014707207
0000f0 d9 e4 4d 3b 76 96 19 3b ea 28 a0 3b 27 13 12 bb
       0.0031416921 0.002343563 0.00488769 -0.0022289248
000100 4a d3 e5 3b 04 27 1c 3c 06 76 0b 3b 79 1b 9e 3b
       0.007013713 0.009530786 0.0021280064 0.0048250523
000110 a3 f6 9a 3b 5c e5 18 bb 58 07 15 bc 04 1b e7 3b
       0.0047291084 -0.0023330068 -0.009095989 0.007052781
000120 23 87 e6 3b d7 62 d7 3b 28 8d d4 ba d5 23 a6 bb
       0.0070351525 0.006573062 -0.0016216384 -0.0050701895
000130 31 6c f9 3a 37 0e 7d 3a 5e 99 20 3a a7 2d 7d bb
       0.0019029436 0.0009653302 0.0006126369 -0.0038631947
000140 4c f4 88 3b 49 f9 f5 3b 4e 12 a1 bb 5c 4d 02 bc
       0.004179513 0.0075065237 -0.004915512 -0.007953014
000150 5e 3c 81 bb 23 92 6c bb 05 e2 0e bb b8 ea 77 3b
       -0.003943964 -0.0036097846 -0.0021802199 0.0037829112
000160 7c df 68 3b 2e 87 01 3c 70 aa 06 3b 8b 86 b0 bb
       0.0035533598 0.0079057645 0.0020548366 -0.0053871325
000170 18 af 89 39 d3 da 9b ba 4e c6 67 3b e3 89 5d ba
       0.0002626113 -0.0011890776 0.0035366002 -0.00084510277
000180 45 2e 63 bb 79 a3 00 bb 97 7f 78 3b 1f e1 05 bc
       -0.003466503 -0.0019628687 0.0037917846 -0.008171349
000190 11 26 07 ba 28 ee c3 b9 a7 69 13 3b f5 56 8d 3a
       -0.00051555136 -0.0003737074 0.0022493394 0.0010783362
0001a0 c4 9e ab 3a 5c d2 c7 ba 8d ac d8 b9 5e 45 a0 3b
       0.001309358 -0.0015245187 -0.0004132729 0.0048910817
0001b0 99 0b 47 3b cd 1f c4 b9 a5 19 97 39 03 bc bf ba
       0.0030371903 -0.00037407727 0.0002882007 -0.0014628175
0001c0 c7 e6 45 bb 0e 9b 15 bb c3 ac 3a bb 03 e4 53 bb
       -0.0030197368 -0.0022828015 -0.0028484322 -0.003233195
0001d0 e7 5b c0 b9 c1 b4 9c 3b 17 a1 30 3b ed 14 93 3b
       -0.00036689566 0.0047822897 0.0026951486 0.0044885785
0001e0 a1 6b e6 ba 91 92 1b bb ee 93 19 3a 84 5c 33 b8
       -0.0017579683 -0.0023738483 0.000585853 -4.2763088e-05
0001f0 b7 2d db bb 97 d4 a1 ba cc 7a 9c ba 19 de 44 3b
       -0.0066887992 -0.0012346682 -0.0011938452 0.0030039607
000200 06 b6 18 bc 56 11 97 3b 86 5c 0e bc 74 bc 4e 3b
       -0.0093207415 0.004610221 -0.0086890515 0.0031545432
000210 90 93 89 3a 76 8a 55 3b 6f 5f d9 ba 5f 19 a6 ba
       0.0010496248 0.003258375 -0.0016584228 -0.0012672356
000220 81 dd 10 3b 4d 5a 40 3b 10 9b 0c 3b 0d 82 af bb
       0.0022104683 0.0029350698 0.002145473 -0.0053560794
000230 1d 93 bb ba 08 c8 e0 3a b3 d4 06 b9 40 cb e8 3b
       -0.0014310811 0.0017149458 -0.00012858472 0.0071043074
000240 15 c8 b2 3b 6d 27 90 3a 20 be 94 3b 9d e6 ff 3b
       0.0054559805 0.0010998078 0.004539266 0.0078094737
000250 9d ce 73 3a 32 e3 ee bb 4d cf 8e bb 0d f1 56 bb
       0.0009300502 -0.0072902674 -0.0043582083 -0.0032797486
000260 4f cb 2a 39 2f 8c c6 3a 55 83 a7 bb 8d 93 5a 3b
       0.00016288202 0.0015147979 -0.0051120915 0.0033352107
000270 59 3d 0c 3c 85 38 4d 3a 04 c7 41 ba 7d d3 24 bb
       0.008559548 0.00078285515 -0.00073920214 -0.002515047
000280 19 56 0b 3c 03 08 2c 3c 82 d1 7a bb 3a cb 88 bc
       0.008504414 0.010499957 -0.003827185 -0.016698468
000290 a2 b0 d2 3a 3d e1 73 3c 2e 9c 94 bb 7e fa a9 3b
       0.0016074369 0.014885244 -0.0045352196 0.0051873317
0002a0 6b 10 c2 3c 21 43 8b 3c c1 aa 63 3c 67 c5 80 3b
       0.02368947 0.016999783 0.013895691 0.003929782
0002b0 77 1e 9e 3c fc 9b 78 bb cf c4 46 3b c9 c1 ab bb
       0.019301636 -0.003793477 0.003032971 -0.005241607
0002c0 7d 8d e2 b9 bd e0 04 3c 5d 48 12 3a 3c 31 bb bc
       -0.00043211496 0.008110222 0.0005580241 -0.022850625
0002d0 99 41 3c bc 0d 8c 67 bc 17 65 48 bc d8 dc 74 3c
       -0.011490249 -0.014132512 -0.012231133 0.014945231
0002e0 0b 18 f9 3b 68 b6 49 39 c8 bc ff bb 4e 98 aa 3b
       0.007601743 0.00019236805 -0.007804487 0.0052061444
0002f0 04 5a 37 ba 09 9f 5e bc 3e 8e 41 bb 0f d6 ed ba
       -0.00069943094 -0.013587722 -0.0029534246 -0.001814546

exp_avg_sq f4 [6, 32]
000000 c5 f1 f2 38 2a 5c 9e 38 07 33 13 38 db 5e d6 38
       0.00011584492 7.551194e-05 3.5095054e-05 0.000102219834
000010 cd d4 26 38 e9 b6 d5 38 36 d9 46 38 f2 ea 1b 38
       3.977567e-05 0.00010190701 4.7409172e-05 3.717369e-05
000020 48 25 4c 39 7f 4d 85 38 cc 39 a9 38 af 28 1c 38
       0.00019468844 6.356369e-05 8.0693135e-05 3.7231188e-05
000030 a8 c6 fb 38 f6 ec 5b 38 d8 4b be 37 88 a5 16 38
       0.00012005615 5.2434356e-05 2.2685083e-05 3.591695e-05
000040 b7 17 f2 37 f9 b1 79 38 6e d8 24 38 23 14 3a 39
       2.8859691e-05 5.9531976e-05 3.9302213e-05 0.00017745844
000050 5c 24 2a 38 aa 81 ed 38 11 1a 57 38 0d 42 c9 38
       4.056502e-05 0.000113251925 5.128427e-05 9.59673e-05
000060 43 5f a3 37 96 35 40 38 e9 aa 27 38 c4 eb 78 38
       1.9475474e-05 4.5826273e-05 3.9975075e-05 5.934738e-05
000070 8a 11 68 38 64 4e b7 38 6a db 74 37 f0 33 d5 37
       5.5329445e-05 8.7407214e-05 1.459462e-05 2.5415764e-05
000080 ac 36 66 39 34 a7 fb 38 f5 cf 59 38 05 83 28 39
       0.00021954876 0.00011999757 5.1930507e-05 0.00016070537
000090 90 11 76 38 30 74 4f 39 5d 3b 7e 38 ef ca 7e 38
       5.8667327e-05 0.00019784342 6.0613605e-05 6.0747316e-05
0000a0 69 e7 c7 39 a8 9c 02 39 78 3f 22 39 3b 4e 40 38
       0.00038128652 0.00012456125 0.00015473168 4.5849225e-05
0000b0 44 6c 58 39 d6 01 bf 38 b6 f7 22 38 2e 18 74 38
       0.00020639697 9.107932e-05 3.885451e-05 5.8196652e-05
0000c0 e4 59 22 38 27 da e7 38 ae 08 82 38 df 42 a6 39
       3.8707527e-05 0.000110555724 6.2005e-05 0.0003171181
0000d0 98 c5 92 38 40 7e 73 39 d7 41 ca 38 2b ea 17 39
       6.998627e-05 0.00023221318 9.644374e-05 0.00014487717
0000e0 92 d3 1c 38 82 a8 89 38 78 ff a1 38 8c 85 e3 38
       3.739034e-05 6.564056e-05 7.724663e-05 0.000108490785
0000f0 e8 2c ab 38 85 15 26 39 95 60 c7 37 0b 42 2a 38
       8.16228e-05 0.0001583901 2.3767623e-05 4.0592666e-05
000100 5d 07 10 39 43 43 b8 38 12 5f 30 38 2a c2 05 39
       0.00013735653 8.786332e-05 4.205021e-05 0.000127562
000110 f9 de 60 38 df 5f 11 39 b6 81 8f 38 c3 74 50 38
       5.361342e-05 0.00013863992 6.842932e-05 4.9699807e-05
000120 99 59 74 39 6f 19 9e 38 c8 d0 e8 38 dd 23 42 38
       0.00023303031 7.5387645e-05 0.000111015106 4.6286605e-05
000130 4e c9 17 39 51 5a 9c 38 17 88 c6 37 dd 76 28 38
       0.00014475474 7.4554824e-05 2.3666811e-05 4.016502e-05
000140 ff f6 2e 38 78 44 98 38 67 3f 5b 38 db d2 4b 39
       4.1714866e-05 7.260678e-05 5.2272717e-05 0.00019438138
000150 7d 3f 43 38 08 b5 1a 39 7a aa 79 38 7e 05 ef 38
       4.655075e-05 0.00014754024 5.9524995e-05 0.00011397431
000160 f3 bd c1 37 1d 4f 9c 38 e4 e5 66 38 f8 17 af 38
       2.3095845e-05 7.453396e-05 5.5050376e-05 8.349115e-05
000170 37 e8 9c 38 93 cc ec 38 23 92 9a 37 87 fc 08 38
       7.481913e-05 0.00011291462 1.842628e-05 3.266011e-05
000180 58 cb ab 38 37 4f 61 38 ad 82 ed 37 37 f9 97 38
       8.191791e-05 5.3717955e-05 2.8313452e-05 7.246661e-05
000190 dd d2 0a 38 27 c9 b2 38 ad 11 17 38 a2 6f e9 37
       3.3098146e-05 8.525169e-05 3.6017667e-05 2.7827748e-05
0001a0 3f a3 16 39 b1 33 35 38 34 a9 88 38 b3 60 f2 37
       0.00014365929 4.3201904e-05 6.516502e-05 2.8893677e-05
0001b0 67 d9 b7 38 3e 47 4b 38 c3 c6 a8 37 d8 73 d2 37
       8.766614e-05 4.846532e-05 2.0119716e-05 2.5087895e-05
0001c0 ce 83 d2 37 36 7a 4a 38 a6 30 0f 38 89 3f 01 39
       2.5095327e-05 4.827437e-05 3.4139164e-05 0.00012326067
0001d0 04 8d d7 37 c3 c0 ca 38 8f ac 22 38 58 0e 8d 38
       2.5695663e-05 9.668015e-05 3.8784518e-05 6.726076e-05
0001e0 2d ab 76 37 19 26 12 38 10 39 19 38 7c f7 49 38
       1.4702598e-05 3.4844594e-05 3.6531186e-05 4.8152622e-05
0001f0 7e 24 51 38 ba 92 9f 38 74 11 48 37 04 c4 9d 37
       4.986347e-05 7.609041e-05 1.1924993e-05 1.8807135e-05
000200 28 f0 40 39 0c 46 c3 38 8a db 1a 38 12 a9 10 39
       0.00018400012 9.311372e-05 3.6920923e-05 0.00013795894
000210 53 b2 3b 38 db 89 20 39 17 df 61 38 8d 0a 42 38
       4.475035e-05 0.00015310144 5.385195e-05 4.626303e-05
000220 03 8a 99 39 b8 77 d1 38 20 32 04 39 eb a9 21 38
       0.0002928526 9.988196e-05 0.00012607174 3.854364e-05
000230 e8 a1 48 39 14 d6 97 38 52 77 e5 37 77 8b 56 38
       0.00019133801 7.240116e-05 2.735449e-05 5.1151463e-05
000240 e2 bd 0e 38 7a ac ad 38 33 7c 29 38 7a d6 90 39
       3.403228e-05 8.281409e-05 4.040841e-05 0.00027625618
000250 1b cc 81 38 22 66 34 39 24 25 a3 38 c6 5d 1c 39
       6.189217e-05 0.00017204185 7.779364e-05 0.00014912253
000260 98 10 01 38 7c e3 5a 38 8c 18 62 38 b0 ea 95 38
       3.077145e-05 5.218711e-05 5.390546e-05 7.1485876e-05
000270 51 c2 8f 38 5e 51 10 39 df e0 48 37 64 6a e6 37
       6.8549656e-05 0.00013763222 1.1973286e-05 2.7467679e-05
000280 5d 54 42 39 b6 24 dc 38 5c 6d 5d 38 2d 90 2c 39
       0.0001853271 0.000104972554 5.2792355e-05 0.00016456908
000290 ce fa 32 38 a5 02 34 39 f5 55 48 38 aa 45 38 38
       4.2672087e-05 0.00017167123 4.776377e-05 4.39339e-05
0002a0 27 89 b0 39 df 3e e9 38 a1 16 09 39 35 9d 4a 38
       0.00033671522 0.000111220164 0.00013073768 4.8306963e-05
0002b0 81 ba 51 39 59 01 88 38 94 b7 d6 37 47 27 42 38
       0.00020001271 6.4852364e-05 2.5596273e-05 4.6289784e-05
0002c0 84 51 0f 38 a2 99 c9 38 6b 46 3c 38 19 e1 8d 39
       3.4169774e-05 9.613043e-05 4.4888275e-05 0.00027061327
0002d0 e5 14 7a 38 f1 ec 52 39 2a 33 bc 38 e4 a4 0f 39
       5.9624104e-05 0.00020115428 8.9740686e-05 0.00013698969
0002e0 74 11 0d 38 ff 3d 61 38 9d 70 91 38 aa f7 a7 38
       3.3633274e-05 5.370192e-05 6.935115e-05 8.0093116e-05
0002f0 5c ab b1 38 91 68 14 39 7a 7e 9b 37 28 8a 07 38
       8.471936e-05 0.00014153334 1.8536335e-05 3.2315176e-05

exp_avg f4 [6]
000000 7a 80 5f 3a 5b 98 df ba 74 1b 0c 3a 75 86 bf bb
       0.00085259194 -0.0017058955 0.0005344667 -0.005844886
000010 c3 72 22 3c a5 1e dd 3c
       0.009915057 0.026992152

exp_avg_sq f4 [6]
000000 99 78 1f 3a 53 5f a5 3a df 6f 59 3a 4c ae 07 3a
       0.0006083339 0.001261691 0.0008294563 0.00051758136
000010 2a d8 64 3a f9 f2 81 3a
       0.0008729721 0.000991433
