flare/polgrad/lightning_logs/version_3/checkpoints/epoch=1.ckpt (torch_old, 58391 bytes, 18 tensors)

exp_avg f4 [64, 4]
000000 e3 a3 2d 39 f4 6d b7 3a ea 00 c8 b9 22 e3 2c bb
       0.00016559618 0.001399456 -0.00038147654 -0.00263805
000010 08 9d 6e ba 2b 0d 1f bc ac a6 1d 3b 0a 4d 95 3c
       -0.0009102379 -0.009707729 0.0024055643 0.018225212
000020 8e 68 2b ba cb 67 e4 bb 14 29 db 3a 6f 30 54 3c
       -0.0006538712 -0.006970381 0.0016720616 0.012951001
000030 dc 45 96 b9 67 64 50 bb 9f 77 4a 3a 57 7b c4 3b
       -0.0002866228 -0.0031798126 0.00077235134 0.0059961486
000040 e5 03 14 3a 0f 85 ac 3b d8 81 ca ba d7 8f 2a bc
       0.0005646332 0.0052648853 -0.0015450073 -0.010410271
000050 f5 58 fa b9 fd 16 ac bb 4b 7f b0 3a ef d2 23 3c
       -0.00047749994 -0.005251764 0.0013465671 0.009999021
000060 c1 28 3a 39 9a 6d b2 3a 1a fa e9 b9 ce c7 32 bb
       0.00017753524 0.0013612986 -0.00044627563 -0.0027279737
000070 85 d9 8b 3a 3f f3 3a 3c 44 68 3f bb 7a 10 b3 bc
       0.0010669684 0.011410533 -0.0029206434 -0.021858443
000080 ff 33 85 ba 09 02 2d bc 81 98 3d 3b 7b 28 a9 3c
       -0.0010162591 -0.010559567 0.002893001 0.020649185
000090 69 6f 81 b7 58 57 c9 b9 27 f2 e3 38 fb d8 50 3a
       -1.5429878e-05 -0.00038402784 0.00010869308 0.0007966903
0000a0 3b 00 55 3a 8c 98 0a 3c f3 5d 06 bb f5 56 7e bc
       0.00081253395 0.008459222 -0.0020502775 -0.015523662
0000b0 04 76 a4 b8 aa d3 d7 b9 ee 7b 3c 39 a0 48 6b 3a
       -7.8421115e-05 -0.00041165698 0.00017975245 0.00089753605
0000c0 2f 19 15 3a 74 de c2 3b 60 64 d4 ba 42 8f 3d bc
       0.00056876516 0.0059469286 -0.001620423 -0.0115698
0000d0 c6 b1 9f 36 2e 25 8d 39 da 7a 4c b8 50 84 02 ba
       4.759265e-06 0.00026921317 -4.8751805e-05 -0.00049788225
0000e0 86 b0 21 b7 9d 08 4c 39 f1 9e 6a b8 88 10 f3 b9
       -9.637448e-06 0.00019458165 -5.5937973e-05 -0.00046360889
0000f0 78 66 d2 39 d0 22 8b 3b 6a 1b 89 ba f3 9e 02 bc
       0.00040130666 0.0042460933 -0.001046044 -0.007972467
000100 e5 44 49 b9 87 20 1a bb 8b 9c 12 3a 69 42 90 3b
       -0.00019194519 -0.0023517923 0.0005592785 0.004402448
000110 ce c2 1c 38 a2 81 27 3a 86 f5 15 b9 35 e8 a0 ba
       3.7374724e-05 0.0006389861 -0.00014301212 -0.0012276234
000120 7a 24 2d 39 c8 92 c1 3a 4b 06 c4 b9 ab 8d 32 bb
       0.00016512154 0.0014768476 -0.00037388722 -0.0027245085
000130 7e 78 54 b9 2b a6 14 bb 4b 4d 1b 3a f8 4f 8f 3b
       -0.00020262782 -0.0022682052 0.00059242983 0.0043735467
000140 af 8d a5 39 2e 9b 44 3b 4c ef 4d ba 42 b6 b7 bb
       0.00031576815 0.002999972 -0.00078557874 -0.0056064436
000150 06 3b d5 b9 4e d8 83 bb 36 01 99 3a 6e d8 01 3c
       -0.00040670502 -0.0040235883 0.0011673335 0.007925136
000160 ab 9a 35 3a 15 1e f4 3b c0 33 f4 ba 00 6c 65 bc
       0.00069276494 0.007449875 -0.0018631145 -0.0140028
000170 71 24 00 b9 b3 25 d1 ba 8e f7 a8 39 68 51 3c 3b
       -0.00012220607 -0.001595667 0.000322279 0.0028735045
000180 bf 92 aa b9 8b c4 69 bb 40 04 70 3a c4 34 de 3b
       -0.0003253426 -0.0035670127 0.0009155907 0.0067811925
000190 fe 2d b5 b8 15 09 2c ba f2 d9 4f 39 0c 90 a6 3a
       -8.639319e-05 -0.00065626326 0.0001982225 0.0012707724
0001a0 cc cb 99 3a 41 c8 4b 3c b3 7b 4d bb 48 f5 bf bc
       0.001173371 0.012437881 -0.0031354248 -0.023432389
0001b0 74 af 48 ba a2 7e 0a bc a6 dc 0b 3b 5b 2e 83 3c
       -0.0007655539 -0.008453043 0.0021341234 0.016013315
0001c0 78 aa a3 3a 1c a6 52 3c e0 dc 66 bb 4e 52 cc bc
       0.0012486717 0.012856986 -0.0035226867 -0.02494159
0001d0 17 4d cc b9 53 ed 6f bb 6b d7 83 3a ab 26 e4 3b
       -0.00038967349 -0.0036609962 0.0010058706 0.0069626174
0001e0 c5 00 a3 3a 21 99 4f 3c fe 95 56 bb f8 59 c4 bc
       0.0012436142 0.012670786 -0.003274321 -0.023968682
0001f0 7b 51 0b 39 4e 6a c3 3a 16 c3 da b9 90 2c 40 bb
       0.00013286427 0.0014909001 -0.0004172555 -0.0029323436
000200 2d 82 65 ba b3 b8 0a bc 03 de 20 3b ad a9 88 3c
       -0.00087550544 -0.008466887 0.0024546392 0.01668247
000210 3b 46 f3 38 e3 10 97 3a 1a 47 91 b9 09 d6 0b bb
       0.000116002244 0.0011525418 -0.0002770953 -0.0021337292
000220 b7 bf 27 ba 6d 09 c0 bb 97 a5 e2 3a ee 86 3b 3c
       -0.0006399112 -0.0058604986 0.0017291781 0.011445744
000230 37 24 41 b9 54 e9 c5 ba c0 10 01 3a b1 29 48 3b
       -0.00018419405 -0.0015099444 0.00049234554 0.0030542428
000240 95 4c 5d 3a c0 3d 16 3c e6 0f 10 bb 43 f8 8a bc
       0.00084418926 0.009169996 -0.0021982132 -0.016964084
000250 b8 71 fd b9 15 e0 b3 bb 72 e6 aa 3a 29 64 27 3c
       -0.00048340647 -0.005489359 0.0013038649 0.010216751
000260 ea bc 6c ba fd 81 19 bc d5 18 20 3b 6c ae 93 3c
       -0.0009030836 -0.0093693705 0.0024428864 0.018027507
000270 80 93 20 3a e8 0c cb 3b 76 05 ce ba e1 fb 3e bc
       0.0006125495 0.006196607 -0.001571818 -0.011656732
000280 db ea b4 ba 14 98 68 bc a3 b4 72 3b 60 f5 dd 3c
       -0.0013802903 -0.0141964145 0.0037033937 0.027094543
000290 c4 d2 39 ba bc e2 ee bb 53 c2 f4 3a e0 a1 62 3c
       -0.00070885965 -0.0072902124 0.0018673636 0.013832539
0002a0 8a a9 01 3a 86 26 a4 3b 3a 6e ac ba da 31 1d bc
       0.0004946223 0.005009475 -0.0013155409 -0.009594405
0002b0 ab bb 71 37 5b 42 d3 39 7e 80 87 b8 ff c6 3d ba
       1.4408414e-05 0.00040294495 -6.461235e-05 -0.00072394306
0002c0 f2 b0 f4 b9 96 57 a8 bb 08 ce a2 3a 6f 84 1c 3c
       -0.0004667114 -0.005137394 0.0012421021 0.009553059
0002d0 88 32 e5 39 47 a2 85 3b 39 ff 94 ba 2d 00 01 bc
       0.00043715932 0.004078183 -0.0011367566 -0.007873577
0002e0 a1 00 6f b9 fa 14 f6 ba 37 bf 1b 3a 8a a2 73 3b
       -0.0002279305 -0.0018774562 0.0005941274 0.0037175738
0002f0 19 2e 40 b9 ef 58 ce ba c4 be ee 39 4e 97 47 3b
       -0.0001832772 -0.0015743057 0.0004553703 0.0030455175
000300 93 72 22 3a 11 08 df 3b e1 90 d9 ba 61 49 51 bc
       0.00061968825 0.0068063815 -0.0016598963 -0.012773843
000310 d8 44 58 b9 6c 43 ef ba 95 e2 0a 3a 46 15 6a 3b
       -0.00020625012 -0.0018254346 0.00052980456 0.0035718246
000320 6a e5 61 3a 3b c2 10 3c ce af 15 bb 65 64 89 bc
       0.0008617254 0.008835371 -0.0022840383 -0.016771505
000330 60 79 9b b9 04 c1 61 bb f7 e7 54 3a 2b ec d2 3b
       -0.00029654335 -0.0034447322 0.00081217237 0.006436845
000340 b8 6e 8b b9 08 af 3b bb 09 7e 33 3a d4 9d ad 3b
       -0.00026594638 -0.0028638262 0.0006847089 0.0052983556
000350 4c 55 db b9 2f 7c 99 bb f6 95 99 3a 15 25 11 3c
       -0.00041834486 -0.0046839933 0.0011717665 0.008858939
000360 1a ef ea 39 cd 06 98 3b f6 a4 9c ba 66 0b 11 bc
       0.00044810103 0.0046394826 -0.0011951018 -0.008852815
000370 0d 91 d7 39 b7 77 9a 3b 30 ce 92 ba e4 34 0e bc
       0.00041116067 0.004713978 -0.0011200365 -0.008679602
000380 bc f0 79 3a 4c a4 27 3c 32 b8 24 bb 8b 13 9d bc
       0.00095344684 0.0102320425 -0.0025134203 -0.019174358
000390 a2 3c e0 39 6e d9 8f 3b 4c e8 a4 ba 1e 1b 0d bc
       0.00042769784 0.0043899333 -0.0012581437 -0.008612422
0003a0 15 a6 c7 38 71 3d 87 3a 51 78 84 b9 5c 37 fa ba
       9.519995e-05 0.0010317994 -0.00025266645 -0.0019089985
0003b0 3c f3 ba b9 26 03 72 bb 7c fc 60 3a 14 c3 dc 3b
       -0.00035657908 -0.0036928146 0.0008582545 0.0067371223
0003c0 e9 42 ff b9 84 01 af bb 7c e1 a9 3a 3f 1d 22 3c
       -0.00048687242 -0.005340757 0.0012960876 0.009894668
0003d0 a7 28 e6 b8 00 68 73 ba 3b 3f 88 39 8d 20 e8 3a
       -0.00010974827 -0.00092852116 0.00025987052 0.0017709896
0003e0 7f 3b 9b ba ac 7a 41 bc b9 9f 52 3b 32 a3 bb 3c
       -0.0011843293 -0.011809032 0.003213866 0.022904966
0003f0 6c 85 5b ba 2d 3d 17 bc bc 68 11 3b 0c b0 8c 3c
       -0.00083740684 -0.009230894 0.002218767 0.01717379

exp_avg_sq f4 [64, 4]
000000 fa df 10 31 ca 3a d0 33 e3 07 06 32 21 65 af 34
       2.1082074e-09 9.6964484e-08 7.80162e-09 3.266987e-07
000010 e5 d6 49 33 e9 99 3a 36 bd a8 59 34 8d 26 24 37
       4.6994405e-08 2.7805747e-06 2.0271086e-07 9.784138e-06
000020 44 a1 e5 32 00 79 cf 35 65 39 d9 33 2b 36 ad 36
       2.6732444e-08 1.5457917e-06 1.011529e-07 5.1621078e-06
000030 b8 6e a3 31 e8 4c 9c 34 2f e6 a5 32 c2 81 86 35
       4.7565116e-09 2.911322e-07 1.9313203e-08 1.0021542e-06
000040 f3 1a 9c 32 37 a5 5d 35 b8 bc bf 33 6c d5 5c 36
       1.8173045e-08 8.2569335e-07 8.928458e-08 3.2906783e-06
000050 69 14 68 32 2d e5 4a 35 53 77 73 33 5e 1d 33 36
       1.3508818e-08 7.558436e-07 5.668637e-08 2.6690172e-06
000060 f9 ec 12 31 05 18 a7 33 99 6a 2a 32 96 65 a6 34
       2.13805e-09 7.7809126e-08 9.91954e-09 3.0993823e-07
000070 17 3b 93 33 23 53 7f 36 d4 eb 98 34 9d ad 64 37
       6.855969e-08 3.8046353e-06 2.8483794e-07 1.36302815e-05
000080 59 8a 73 33 d9 8f 4b 36 54 58 94 34 07 b4 45 37
       5.6703673e-08 3.0333088e-06 2.7631415e-07 1.1784031e-05
000090 9b 91 7b 2f c9 34 48 32 92 b7 60 30 44 73 37 33
       2.2880046e-10 1.1653534e-08 8.1751594e-10 4.271284e-08
0000a0 09 0b 30 33 54 25 15 36 be 89 24 34 22 cd f5 36
       4.098823e-08 2.2224458e-06 1.53238e-07 7.3254496e-06
0000b0 a1 b0 12 30 eb 59 83 32 0b 50 2c 31 f2 65 8f 33
       5.3365495e-10 1.5291297e-08 2.5074793e-09 6.6775e-08
0000c0 7b a0 98 32 64 a9 78 35 7e 32 b4 33 28 83 70 36
       1.7768107e-08 9.2633695e-07 8.391088e-08 3.583913e-06
0000d0 94 84 87 2e 84 42 7e 31 01 ea 84 2f a7 36 65 32
       6.16264e-11 3.6999674e-09 2.417693e-10 1.3341981e-08
0000e0 b5 ab bb 2f a2 06 a3 32 07 43 8f 30 01 3b 84 33
       3.4137107e-10 1.8978714e-08 1.042367e-09 6.157462e-08
0000f0 b2 ca 27 32 7c 9d 17 35 7f ac 28 33 bc f9 01 36
       9.766767e-09 5.6481053e-07 3.9272432e-08 1.9367862e-06
000100 a3 96 1d 31 f6 97 19 34 a4 f1 18 32 23 6e 02 35
       2.2932134e-09 1.4304518e-07 8.902507e-09 4.8589044e-07
000110 7f e9 15 2f ba 21 54 32 23 1f 36 30 5e a7 44 33
       1.3634426e-10 1.2347693e-08 6.625546e-10 4.5787026e-08
000120 bf 8d 0b 31 04 64 d3 33 ef 29 f8 31 b3 4b ac 34
       2.0307735e-09 9.843646e-08 7.2225173e-09 3.2092575e-07
000130 66 ad 24 31 45 d6 0f 34 03 27 36 32 8a 1d 05 35
       2.3963707e-09 1.3395864e-07 1.06026645e-08 4.9589346e-07
000140 dc a5 dd 31 96 5c a8 34 66 26 d7 32 9d 0d 8f 35
       6.4508026e-09 3.1359804e-07 2.5046756e-08 1.0658292e-06
000150 47 95 24 32 11 75 e3 34 0a bd 3b 33 0f 92 df 35
       9.579998e-09 4.2367222e-07 4.371126e-08 1.6657303e-06
000160 10 2d ea 32 f8 bb cc 35 73 a6 f4 33 5f 9d b5 36
       2.7261677e-08 1.525389e-06 1.1392412e-07 5.4125408e-06
000170 aa cd 73 30 35 76 98 33 87 73 4b 31 e5 90 69 34
       8.869515e-10 7.099553e-08 2.9606058e-09 2.1752528e-07
000180 00 bc db 31 1a f0 ba 34 1d d4 dd 32 a5 d9 a2 35
       6.395112e-09 3.4819897e-07 2.5824244e-08 1.2133283e-06
000190 1a b9 0f 30 e5 31 b4 32 61 52 22 31 d6 4c b0 33
       5.228614e-10 2.0977447e-08 2.362093e-09 8.209615e-08
0001a0 7f d1 bd 33 74 9d 9e 36 97 7b b2 34 13 01 85 37
       8.8391054e-08 4.727097e-06 3.3245007e-07 1.5855336e-05
0001b0 c8 91 18 33 0a 82 07 36 1e 13 1d 34 f6 2e ec 36
       3.5522845e-08 2.019226e-06 1.4628719e-07 7.038815e-06
0001c0 d5 6e c8 33 85 0c 9b 36 86 fd da 34 c9 90 8f 37
       9.333386e-08 4.6208174e-06 4.0790127e-07 1.711435e-05
0001d0 7e 98 36 32 2d 63 03 35 37 b1 2d 33 39 87 dc 35
       1.0628467e-08 4.894562e-07 4.0440877e-08 1.6430632e-06
0001e0 4e e2 cf 33 5e 22 a8 36 4a 3d cd 34 28 e5 90 37
       9.680353e-08 5.010791e-06 3.822882e-07 1.7272847e-05
0001f0 f9 fb 97 30 fe 63 76 33 99 12 ad 31 84 35 69 34
       1.1058311e-09 5.736728e-08 5.037077e-09 2.1719285e-07
000200 c8 68 38 33 bc 6f 09 36 ac 91 66 34 02 9d 07 37
       4.2936136e-08 2.0479629e-06 2.1473414e-07 8.083183e-06
000210 d5 ec 68 30 37 98 3d 33 f3 48 56 31 62 99 22 34
       8.4737667e-10 4.414343e-08 3.1182565e-09 1.5143226e-07
000220 9d 72 ec 32 36 03 9f 35 3c 7f f3 33 03 8e 8c 36
       2.7526136e-08 1.1847358e-06 1.1338713e-07 4.1888575e-06
000230 bd b7 0f 31 b9 90 9d 33 93 b9 2c 32 25 ae a5 34
       2.0913682e-09 7.337207e-08 1.0053912e-08 3.0860352e-07
000240 46 6a 35 33 74 75 24 36 58 d8 30 34 c2 dc 0a 37
       4.2239e-08 2.450627e-06 1.6469983e-07 8.27684e-06
000250 f8 78 69 32 03 12 61 35 1b 68 65 33 43 53 3e 36
       1.358989e-08 8.384524e-07 5.34129e-08 2.836067e-06
000260 b9 70 57 33 3f 1f 37 36 33 32 62 34 3a 13 24 37
       5.016111e-08 2.7287313e-06 2.1066153e-07 9.779638e-06
000270 d3 4f c5 32 68 50 a7 35 b8 60 c9 33 06 14 91 36
       2.2970118e-08 1.2465871e-06 9.377385e-08 4.323668e-06
000280 18 b3 f4 33 60 80 ca 36 3d 88 01 35 45 b0 b5 37
       1.13947124e-07 6.035014e-06 4.82545e-07 2.1658963e-05
000290 5d 7c 08 33 fa 5a e1 35 88 53 04 34 2a d1 c1 36
       3.1778075e-08 1.6790284e-06 1.2323846e-07 5.776198e-06
0002a0 32 5e 84 32 df 25 57 35 74 1b 85 33 1c b9 3c 36
       1.5409658e-08 8.014885e-07 6.198289e-08 2.812193e-06
0002b0 32 53 8e 2e 3f 41 c1 31 20 7d 9b 2f 58 d9 ae 32
       6.472191e-11 5.624457e-09 2.8283242e-10 2.0355102e-08
0002c0 3e 74 5d 32 86 e2 49 35 67 ef 57 33 51 43 2a 36
       1.28903235e-08 7.520797e-07 5.0276324e-08 2.5371157e-06
0002d0 6d d1 58 32 32 2f 19 35 50 1d 5a 33 d2 3e 09 36
       1.2620473e-08 5.706562e-07 5.078374e-08 2.0451157e-06
0002e0 62 d7 6d 31 66 cb 0f 34 e6 ca 83 32 38 f9 05 35
       3.461047e-09 1.3391909e-07 1.5342675e-08 4.990902e-07
0002f0 4c e4 14 31 d1 c5 cd 33 fa ea 25 32 4d 53 c0 34
       2.1666606e-09 9.582039e-08 9.6576915e-09 3.5823396e-07
000300 19 70 c6 32 07 4a b4 35 10 d1 c3 33 5b c1 9a 36
       2.310121e-08 1.343259e-06 9.118423e-08 4.612067e-06
000310 c4 3a 34 31 a3 e5 f6 33 5d 72 4c 32 89 e5 ed 34
       2.6226852e-09 1.1497038e-07 1.1900366e-08 4.43117e-07
000320 8b 09 45 33 6c d6 20 36 aa ac 40 34 a7 bb 09 37
       4.5876316e-08 2.3966668e-06 1.7944208e-07 8.209528e-06
000330 89 b0 a8 31 33 97 ac 34 37 be af 32 37 86 95 35
       4.9095132e-09 3.2147508e-07 2.0459181e-08 1.1140427e-06
000340 b3 b5 8b 31 18 61 82 34 dc b1 89 32 7f a0 5a 35
       4.0660892e-09 2.4285032e-07 1.602978e-08 8.144488e-07
000350 4f 37 37 32 72 da 23 35 ec 65 37 33 19 ef 0c 36
       1.0664578e-08 6.104011e-07 4.2700705e-08 2.1000799e-06
000360 04 31 4a 32 a9 f7 2a 35 9a cd 50 33 7f ea 16 36
       1.1769092e-08 6.369033e-07 4.8615767e-08 2.2488236e-06
000370 78 e5 3a 32 ea 8b 2b 35 da 3b 29 33 d7 b3 09 36
       1.08788e-08 6.3906066e-07 3.9402813e-08 2.0519271e-06
000380 50 37 6e 33 ad 50 53 36 96 0f 67 34 96 1e 33 37
       5.5464e-08 3.148841e-06 2.1519222e-07 1.0676353e-05
000390 80 8e 3a 32 08 97 07 35 8a fd 54 33 9c a9 02 36
       1.0859026e-08 5.05112e-07 4.959069e-08 1.9470235e-06
0003a0 5e b6 2d 30 00 50 0f 33 83 6e 19 31 72 31 e7 33
       6.319619e-10 3.336754e-08 2.232725e-09 1.076577e-07
0003b0 72 cc 0d 32 1e c0 00 35 fa b2 f8 32 9b 56 cd 35
       8.253766e-09 4.7963283e-07 2.8952389e-08 1.5298896e-06
0003c0 de 61 78 32 8c d1 5d 35 d3 53 6b 33 fb 3c 37 36
       1.4457752e-08 8.2633846e-07 5.479144e-08 2.730462e-06
0003d0 3b af 74 30 52 8c 26 33 02 d0 75 31 c5 00 17 34
       8.90157e-10 3.8777507e-08 3.577043e-09 1.4063251e-07
0003e0 f1 60 bd 33 0e ef 8e 36 c6 d5 c3 34 33 93 82 37
       8.818632e-08 4.2597594e-06 3.647712e-07 1.5565753e-05
0003f0 2e 44 3d 33 2d e4 29 36 33 73 30 34 3b 20 0d 37
       4.4067e-08 2.5315778e-06 1.6433187e-07 8.411759e-06

exp_avg f4 [64]
000000 22 a9 f5 37 aa 87 d1 3b 4b 92 46 3b 27 c7 08 3b
       2.9285035e-05 0.0063943462 0.00302996 0.0020870657
000010 e2 88 cd bb 01 b6 1d 3b 37 0f 6f ba e8 aa 24 bc
       -0.006272421 0.0024064782 -0.00091193937 -0.010050513
000020 d9 86 68 3c 45 55 6d 3a b1 d1 a2 ba 8a 1c b0 39
       0.014192306 0.00090535387 -0.0012422112 0.000335906
000030 46 b5 07 bc f7 26 a7 37 c6 f4 7c ba de dc 0d bb
       -0.008282965 1.9926096e-05 -0.0009649511 -0.002164654
000040 06 06 6f 3a 64 05 a7 ba 5e ab ee b8 0c 10 15 3b
       0.0009118024 -0.0012742695 -0.00011380644 0.002274516
000050 4e 02 25 ba 5f 74 9b 3b e3 63 b5 bb d8 45 25 3a
       -0.0006294594 0.004744097 -0.005535589 0.0006304658
000060 d9 28 91 3a cc 9c c9 39 d5 cf 43 bb a2 63 b0 3b
       0.0011074796 0.0003845453 -0.0029878516 0.005382971
000070 14 5b 21 bc 3b 03 0b ba 40 74 a7 bb 6d f7 8d ba
       -0.009848375 -0.00053029106 -0.0051102936 -0.0010831185
000080 d0 bc 16 3c 09 0b 6f ba e0 aa 85 ba 6c 4d 16 3b
       0.00920029 -0.0009118771 -0.001019802 0.002293433
000090 d9 7c 91 bb 20 59 40 3b a5 3c 08 3c 98 84 4e bb
       -0.004439932 0.0029349998 0.00831524 -0.0031512138
0000a0 36 4e 26 3c 05 ac 85 3b da 0d 5b bb 19 26 43 ba
       0.010150483 0.004079344 -0.0033425004 -0.00074443367
0000b0 73 b8 19 3b e8 a0 2a bb 24 8f c0 b9 09 c2 58 3a
       0.0023455888 -0.002603585 -0.00036727742 0.00082686596
0000c0 29 cb 87 bb cd 39 ee 3a d2 89 34 bb 3f de 34 3b
       -0.0041440916 0.0018175185 -0.0027547968 0.002759829
0000d0 2c a3 a3 3a 63 42 f1 3a fe 56 3f bb a8 ee eb 38
       0.0012484542 0.0018406626 -0.0029196138 0.000112501264
0000e0 0a 35 9e bb 8e 97 6f bb 9d c0 25 39 0a b9 ae 3a
       -0.0048281 -0.003655884 0.0001580738 0.0013330292
0000f0 94 33 52 3a 2f 48 55 3a ba 39 34 3c 35 2c 47 3b
       0.000801855 0.00081360614 0.011000091 0.003039134

exp_avg_sq f4 [64]
000000 83 33 2d 34 bf 59 b5 36 25 d6 27 36 d2 f8 17 35
       1.613062e-07 5.404668e-06 2.5009588e-06 5.6613965e-07
000010 81 7c 3e 36 81 6b c7 35 48 88 74 34 d6 9e 16 37
       2.8384677e-06 1.4857943e-06 2.277385e-07 8.977679e-06
000020 cb cd 38 37 c7 00 1e 33 44 81 73 36 e1 5d 55 33
       1.101517e-05 3.678795e-08 3.6285064e-06 4.967831e-08
000030 1e 1b 6e 36 80 99 85 31 f4 71 28 33 a5 9c 83 35
       3.5480548e-06 3.8882604e-09 3.9219188e-08 9.80585e-07
000040 97 ec 7d 34 a2 f0 70 33 f3 a6 29 34 a6 dc cc 34
       2.3648532e-07 5.609821e-08 1.5800087e-07 3.8158504e-07
000050 c5 76 18 35 47 51 d0 35 22 61 63 36 d4 87 c6 33
       5.6797245e-07 1.5520862e-06 3.3882175e-06 9.2448005e-08
000060 00 50 2d 35 ba fc 46 33 43 56 08 37 97 0e 8a 36
       6.456394e-07 4.633032e-08 8.126316e-06 4.114419e-06
000070 b9 d9 43 37 b0 cf 87 35 c6 4b 1d 37 cf 88 28 34
       1.1673598e-05 1.0118729e-06 9.375572e-06 1.569599e-07
000080 be 8f df 36 f5 24 be 33 7e 52 3c 36 43 f0 b1 34
       6.6626517e-06 8.854287e-08 2.80622e-06 3.3143633e-07
000090 83 32 91 36 97 53 c9 35 a6 68 d4 36 6e 11 1a 36
       4.327217e-06 1.4999995e-06 6.330275e-06 2.2957934e-06
0000a0 2b 63 5d 37 fe de 55 36 d6 9c db 35 e0 5d ad 32
       1.3195716e-05 3.1869272e-06 1.6362417e-06 2.018254e-08
0000b0 b8 52 ae 35 d7 f4 a9 35 7b 7f c4 34 4f b6 64 34
       1.2988085e-06 1.2662739e-06 3.66006e-07 2.1300478e-07
0000c0 39 d0 2c 36 53 4a ad 34 f9 15 93 36 b6 08 32 35
       2.5751199e-06 3.227784e-07 4.3834993e-06 6.6322843e-07
0000d0 2f 5b de 34 ab b7 95 35 90 41 b2 35 4d 0c 85 35
       4.1417067e-07 1.115482e-06 1.3281115e-06 9.912852e-07
0000e0 e5 eb bb 36 9a 26 c7 35 c0 f8 6f 33 d9 11 38 35
       5.600496e-06 1.483789e-06 5.587276e-08 6.8571313e-07
0000f0 d8 c5 b2 35 16 f2 b7 33 a3 17 39 37 70 af 8a 36
       1.3319614e-06 8.565637e-08 1.1032363e-05 4.133144e-06

exp_avg f4 [64, 64]
000000 d9 e1 c5 3b 6f b9 a8 ba c5 9d 05 ba 02 90 27 3a
       0.006038886 -0.0012872646 -0.0005097057 0.0006392003
000010 56 7a 14 3c 8e 17 a2 3b 8e d3 1d 3c 13 11 f0 ba
       0.00906237 0.0049466556 0.009632958 -0.0018315635
000020 a5 c2 ec 3b dd 06 4e 3c 18 60 e3 3b dc 61 18 bc
       0.007225352 0.0125748785 0.0069389455 -0.009300675
000030 6c 0d 07 bc 70 95 fa bb f1 72 a3 bb 9e cb e5 3a
       -0.008242946 -0.007647209 -0.0049880673 0.0017531996
000040 3f d0 11 3c 1f 7d bd bb 25 ad 42 3c 1e 38 21 3b
       0.008899747 -0.005782738 0.011882101 0.00246001
000050 28 7e cd 3b 5e 62 0e 3c 4b a4 02 bb 5e 0c fa 3a
       0.0062711425 0.008690445 -0.0019934352 0.0019077172
000060 0f 27 b7 3b a2 e4 fd bb ee 86 98 bb 42 42 e7 3b
       0.005589373 -0.0077482024 -0.0046547567 0.007057459
000070 23 f1 11 bc 4b 9f 3a bc 45 df b7 3b cc 6b b9 bb
       -0.008907589 -0.0113905175 0.0056113326 -0.0056586023
000080 7f 8d 2a bc 79 45 fe 39 0a 2a 4c bc 85 39 08 bc
       -0.010409712 0.00048498416 -0.012461195 -0.008314495
000090 47 78 ba 3a 58 26 21 3a 4e 29 59 bb f1 f2 75 3b
       0.0014226519 0.0006147376 -0.0033136192 0.0037528838
0000a0 ab 38 9a bb a8 af 19 bb 86 a7 22 3b 80 de e4 bb
       -0.0047064624 -0.0023450647 0.002481909 -0.006984532
0000b0 2c 9f 82 3b d5 d5 d2 3b 58 2b 65 bc 5f 22 09 bc
       0.00398626 0.006434182 -0.013987385 -0.008370011
0000c0 f4 ff bd ba a6 bd d3 bb a1 58 7d 3b 90 82 66 3b
       -0.0014495836 -0.006461817 0.0038657563 0.0035173036
0000d0 d0 a7 90 ba 17 f7 b2 3b 0c 76 27 3b e9 48 2b bc
       -0.001103634 0.0054615843 0.002555254 -0.010454395
0000e0 33 18 12 3a e4 dc 2d bc c9 bd 99 bb 66 dc b7 bb
       0.0005573064 -0.010611746 -0.0046918136 -0.0056109903
0000f0 07 33 b9 3b 76 f5 95 bb 0b 5b e2 bb 75 d2 65 3b
       0.005651835 -0.0045763804 -0.006907826 0.003506807
000100 d9 9f 87 bb c4 71 46 3a 07 b2 ae 39 7e c4 b2 b9
       -0.0041389284 0.0007570053 0.00033320507 -0.00034097204
000110 a8 50 c6 bb f7 69 5a bb bc 5d d6 bb 1e 77 91 3a
       -0.0060520954 -0.003332732 -0.0065419357 0.0011098122
000120 72 79 9c bb 84 5d 0b bc ac fd 9c bb 30 07 cd 3b
       -0.0047752196 -0.008506183 -0.004790982 0.0062569603
000130 18 89 b3 3b 71 ae ac 3b b4 9f 5c 3b c0 9f 91 ba
       0.0054789893 0.0052698185 0.0033664526 -0.0011110231
000140 2c a5 c7 bb 35 af 81 3b 6e b2 03 bc 88 d2 cb ba
       -0.006092688 0.003957654 -0.008038146 -0.0015550414
000150 5c 43 8d bb 0c ef bd bb 4a 3a a4 3a 79 3b 9c ba
       -0.0043110084 -0.005796319 0.0012529579 -0.001191958
000160 6f 7f 7d bb a8 0d a9 3b 44 cf 56 3b 6b 61 9b bb
       -0.0038680693 0.0051590987 0.0032777349 -0.0047418377
000170 94 21 c4 3b c9 5d ff 3b 2c 89 79 bb 43 30 74 3b
       0.005985448 0.0077931625 -0.0038076146 0.0037260212
000180 9a 6c e4 3b ab a3 b1 b9 e9 6d 0b 3c 0a 9d b4 3b
       0.006970954 -0.00033882013 0.008510091 0.0055118846
000190 e1 90 89 ba 5e bf b9 b9 b7 24 0a 3b fb 50 24 bb
       -0.0010495448 -0.0003542853 0.0021079013 -0.0025072682
0001a0 2e a8 4b 3b 1e b8 c3 3a 53 c2 cd ba 63 2f 97 3b
       0.0031075585 0.001493219 -0.0015698172 0.0046138032
0001b0 fb 96 33 bb 61 7a 8c bb 98 06 1c 3c fb 1f b8 3b
       -0.0027403224 -0.0042870496 0.009523056 0.0056190467
0001c0 a7 3a 6e 3a 22 fb 8b 3b 2d 30 31 bb 68 06 18 bb
       0.00090877194 0.0042718807 -0.0027036772 -0.0023197178
0001d0 cf a3 52 3a 95 c1 72 bb e6 80 f0 ba 8b 8b e9 3b
       0.00080352736 -0.0037041653 -0.0018348962 0.0071272305
0001e0 f9 2a d9 b9 6b 02 ea 3b a6 5f 58 3b fe 3a 78 3b
       -0.00041421482 0.0071414015 0.0033015995 0.003787696
0001f0 20 37 80 bb 38 9d 43 3b 43 13 96 3b b7 b1 22 bb
       -0.0039128214 0.0029848348 0.004579933 -0.0024825165
000200 ce 8e c4 3b 00 bd 8f ba fc 29 fc b9 54 89 06 3a
       0.005998469 -0.001096636 -0.00048096466 0.0005132158
000210 3f ba 0f 3c 74 ff 9d 3b 1e 51 1b 3c 4d 06 d6 ba
       0.008772432 0.004821712 0.009479789 -0.0016328782
000220 92 ff e2 3b 6c 2b 4a 3c b9 d1 e3 3b df 98 14 bc
       0.006927439 0.012339454 0.006952491 -0.00906965
000230 5d 2f 02 bc fe 18 fa bb c2 42 a0 bb 3d 4d d3 3a
       -0.007945863 -0.007632374 -0.0048907707 0.0016121041
000240 7f ac 10 3c df 0a bc bb 68 30 3f 3c b2 1c 15 3b
       0.008830189 -0.0057386006 0.011669256 0.00227527
000250 79 17 cd 3b 04 b5 09 3c 93 b3 ed ba ad ad e6 3a
       0.0062589017 0.008404974 -0.0018135182 0.0017599367
000260 e4 1d b7 3b 10 05 f5 bb b2 12 9b bb 21 b3 e1 3b
       0.00558828 -0.00747741 -0.0047324533 0.006887809
000270 b6 56 0e bc 2c 16 39 bc 83 19 b5 3b 14 07 b1 bb
       -0.008687666 -0.01129679 0.005526723 -0.005402455
000280 3c 8a 25 bc 25 bb 01 3a 20 23 4a bc 75 e0 02 bc
       -0.010103758 0.0004948846 -0.012337476 -0.007988085
000290 90 7f c7 3a 57 74 06 3a b0 df 49 bb 4f 0d 6e 3b
       0.0015220512 0.00051290303 -0.0030803494 0.003632385
0002a0 4c d9 93 bb 80 47 0f bb 75 f5 16 3b b1 51 db bb
       -0.004511988 -0.0021862686 0.0023034487 -0.006693088
0002b0 66 c5 82 3b 01 4f cc 3b c7 56 62 bc 47 71 05 bc
       0.003990817 0.006235004 -0.013814635 -0.008144683
0002c0 ca 04 ae ba 72 28 cb bb 19 29 7f 3b 14 4f 5c 3b
       -0.0013276574 -0.00619989 0.0038934408 0.003361647
0002d0 01 24 9a ba 3d 0c b0 3b d5 99 2c 3b e3 7d 29 bc
       -0.0011759998 0.0053725527 0.0026336808 -0.010344955
0002e0 53 26 1a 3a 77 97 29 bc be 76 9c bb 7d c4 b4 bb
       0.00058803445 -0.010351053 -0.0047748974 -0.0055165873
0002f0 31 20 ba 3b a4 89 8e bb ee 7b da bb 64 e8 6a 3b
       0.005680107 -0.004349904 -0.0066676056 0.0035844082
000300 d7 06 39 bc 17 da a3 3a 4f d0 4d 3a cc 70 c3 b9
       -0.011293135 0.0012500909 0.000785117 -0.0003727734
000310 8c 15 7e bc 7d 9a 0e bc fc 1a 8f bc bf e8 0a 3b
       -0.015508067 -0.008703825 -0.017468922 0.0021195856
000320 f2 53 43 bc a2 c5 b8 bc 97 b4 5b bc 36 79 85 3c
       -0.01192187 -0.022555176 -0.013409755 0.01629315
000330 1f d8 62 3c 28 28 6f 3c 33 2d 12 3c 02 4c 20 bb
       0.013845473 0.014596976 0.008921909 -0.0024459367
000340 3f 1a 88 bc 3a cb 31 3c a6 18 af bc 60 72 5f bb
       -0.016614078 0.010851676 -0.021374058 -0.0034095272
000350 7d b1 43 bc c4 8e 71 bc 40 30 2a 3b fb 80 27 bb
       -0.011944172 -0.014743511 0.00259687 -0.0025559056
000360 df c1 30 bc 96 25 56 3c 65 f5 1b 3c 78 77 4b bc
       -0.01078841 0.013070485 0.009518956 -0.01241862
000370 46 c7 7f 3c 1a 17 ae 3c e5 d3 26 bc 15 c1 16 3c
       0.015611475 0.02125125 -0.0101823555 0.009201308
000380 01 80 93 3c 73 13 82 ba fa ad bc 3c 2d 47 62 3c
       0.018005373 -0.0009924009 0.023032177 0.013810915
000390 b9 c9 60 bb 07 f2 03 ba 72 80 9c 3b 82 e5 d3 bb
       -0.0034299924 -0.00050333183 0.004776054 -0.0064665684
0003a0 d0 b4 fd 3b c2 38 5e 3b 32 3c 68 bb 84 b6 3b 3c
       0.007742502 0.0033908342 -0.003543627 0.011457089
0003b0 91 8e f9 bb c8 d5 33 bc 53 f6 d1 3c 1b 10 6f 3c
       -0.007615872 -0.010976262 0.025630152 0.014591242
0003c0 2a 4d f9 3a b7 14 2f 3c 2e 9b fa bb 07 ce bc bb
       0.0019020189 0.010686091 -0.0076478934 -0.005761865
0003d0 54 1f 28 3b ed 47 22 bc b8 ea b2 bb dc 59 9e 3c
       0.0025653439 -0.009904844 -0.0054601096 0.019329958
0003e0 83 ad ae ba 59 81 98 3c 62 b9 1d 3c ee a2 25 3c
       -0.0013326857 0.018616365 0.009626718 0.010109646
0003f0 b1 d0 33 bc 86 ae ed 3b ee 0c 3e 3c fe 88 ef bb
       -0.010975049 0.007253471 0.011599762 -0.007310032

exp_avg_sq f4 [64, 64]
000000 2b 73 a1 35 c2 3f bf 35 f8 6a e0 32 ae c9 34 35
       1.2028953e-06 1.4249165e-06 2.6125676e-08 6.734871e-07
000010 25 6e 66 36 a3 37 52 35 59 5a 31 36 73 94 ce 35
       3.4336783e-06 7.831206e-07 2.6427645e-06 1.53914e-06
000020 95 42 58 36 7a 3f 99 36 39 f0 18 36 39 84 39 36
       3.2225264e-06 4.567145e-06 2.2789593e-06 2.7644112e-06
000030 6b 77 65 36 cc 0c 1f 36 c6 a7 4e 35 42 43 35 35
       3.419317e-06 2.3700295e-06 7.698512e-07 6.752563e-07
000040 bb 8c 2c 36 63 55 9d 35 57 ca 8a 36 07 5d a9 35
       2.5711913e-06 1.1722262e-06 4.136276e-06 1.2618556e-06
000050 69 46 d9 35 05 02 60 36 af fd a3 35 c7 67 5c 35
       1.6188252e-06 3.3379777e-06 1.2218278e-06 8.21074e-07
000060 43 45 b3 35 2a a1 3d 36 65 f6 f8 35 7d fb d9 35
       1.3356697e-06 2.8257004e-06 1.854915e-06 1.6240953e-06
000070 96 f9 2b 36 94 28 90 36 40 01 76 35 d8 9e 18 36
       2.5626264e-06 4.2962583e-06 9.164396e-07 2.2742224e-06
000080 20 7b 8a 36 6f c3 17 33 a5 90 a0 36 50 1a 88 36
       4.127054e-06 3.5335173e-08 4.7852104e-06 4.056179e-06
000090 f8 b3 67 35 60 07 ed 34 51 27 00 36 eb 62 1c 35
       8.6316095e-07 4.4150056e-07 1.9096371e-06 5.8258473e-07
0000a0 c4 fb b0 35 7f 7f 69 35 ec 4c 95 35 29 96 51 36
       1.3186295e-06 8.6984795e-07 1.1123752e-06 3.1230832e-06
0000b0 88 8b 3c 35 5f a7 dd 35 09 29 c0 36 b7 ec 20 36
       7.02385e-07 1.6514495e-06 5.726823e-06 2.3979644e-06
0000c0 d6 b1 17 35 35 c2 24 36 57 64 6a 35 61 78 5d 35
       5.651067e-07 2.4550948e-06 8.7317807e-07 8.250409e-07
0000d0 8b cc e9 34 71 76 69 35 59 53 76 35 c5 0b 67 36
       4.3548457e-07 8.697162e-07 9.176343e-07 3.4428533e-06
0000e0 da 6b e7 33 77 82 71 36 26 ca 04 36 62 ca 85 35
       1.0776394e-07 3.598774e-06 1.9787199e-06 9.968173e-07
0000f0 2d 28 db 35 d4 10 ed 35 99 b8 15 36 5c e0 b1 35
       1.6328464e-06 1.7662774e-06 2.231018e-06 1.3252825e-06
000100 48 e4 16 35 39 e3 27 35 66 25 43 32 b8 99 a0 34
       5.621155e-07 6.2543e-07 1.1358997e-08 2.9914167e-07
000110 5d 1a cc 35 97 e3 bc 34 57 31 a3 35 6a 46 36 35
       1.5206857e-06 3.5183322e-07 1.2158806e-06 6.790275e-07
000120 df d1 bd 35 7f 9e 0b 36 20 68 8e 35 82 8d a6 35
       1.4142678e-06 2.080487e-06 1.0610129e-06 1.2409148e-06
000130 df 35 ca 35 a0 e6 94 35 1a cf bb 34 ea 7e 9e 34
       1.5065851e-06 1.109398e-06 3.498215e-07 2.9522135e-07
000140 44 0e a1 35 96 77 12 35 a4 31 fd 35 29 9a 14 35
       1.1999587e-06 5.456326e-07 1.8864416e-06 5.535863e-07
000150 30 2a 4a 35 d9 23 c6 35 e7 8c 0f 35 2b 77 c2 34
       7.5312255e-07 1.4762583e-06 5.347669e-07 3.6222022e-07
000160 ed f4 28 35 56 42 a7 35 6d f1 67 35 fd d6 43 35
       6.294129e-07 1.2461776e-06 8.6405527e-07 7.295601e-07
000170 44 29 9a 35 c2 4f 06 36 91 1a e2 34 0f 7c 85 35
       1.1485904e-06 2.0013981e-06 4.211511e-07 9.945378e-07
000180 74 58 f6 35 eb a0 88 32 39 58 15 36 cd c5 ef 35
       1.8354172e-06 1.590566e-08 2.2254083e-06 1.7864455e-06
000190 38 4f d1 34 34 db 4f 34 29 a7 60 35 ba 28 8a 34
       3.8986923e-07 1.9358123e-07 8.368975e-07 2.5734136e-07
0001a0 31 e6 1a 35 c0 15 cd 34 03 37 03 35 82 0a b8 35
       5.7704443e-07 3.820005e-07 4.8881355e-07 1.3712126e-06
0001b0 9c 79 ae 34 a6 16 44 35 4e c1 31 36 13 ce 8f 35
       3.2498508e-07 7.304865e-07 2.6487573e-06 1.0714306e-06
0001c0 d3 20 85 34 57 6d 90 35 59 14 dd 34 48 07 c1 34
       2.4797063e-07 1.0760658e-06 4.1179263e-07 3.595435e-07
0001d0 cd fb 51 34 e1 28 d6 34 40 f3 e4 34 a2 12 d6 35
       1.9556246e-07 3.989035e-07 4.2645297e-07 1.5949665e-06
0001e0 e5 e8 54 33 9e db d8 35 31 73 76 35 81 79 f3 34
       4.9571913e-08 1.6157171e-06 9.1809767e-07 4.5350683e-07
0001f0 e0 d5 4b 35 c8 45 4f 35 57 d4 83 35 1c c2 24 35
       7.593462e-07 7.7215054e-07 9.82206e-07 6.137723e-07
000200 34 05 9c 35 49 b3 af 35 f5 d4 c9 32 d0 55 27 35
       1.162442e-06 1.3090695e-06 2.3496321e-08 6.233722e-07
000210 ad e9 50 36 48 f7 40 35 75 79 27 36 7f c6 bd 35
       3.1130432e-06 7.1885415e-07 2.4955636e-06 1.4139367e-06
000220 43 1d 43 36 67 3f 8f 36 47 ae 14 36 fc 57 2a 36
       2.9074297e-06 4.269113e-06 2.2155161e-06 2.5383188e-06
000230 33 9c 4f 36 c4 a1 1a 36 58 d4 40 35 fc 92 24 35
       3.0936324e-06 2.3041948e-06 7.1834575e-07 6.130865e-07
000240 0b 7d 26 36 80 8a 97 35 52 fa 81 36 b0 7d 9a 35
       2.4808712e-06 1.1290686e-06 3.8736407e-06 1.1510474e-06
000250 b5 b1 d2 35 93 4b 4b 36 56 14 96 35 66 fe 49 35
       1.5697939e-06 3.0293347e-06 1.118179e-06 7.5248533e-07
000260 f2 e7 ae 35 1c 8c 2b 36 41 36 f2 35 18 9d c8 35
       1.3031515e-06 2.556254e-06 1.8046195e-06 1.4946881e-06
000270 6b d4 1d 36 c0 f3 8a 36 86 68 68 35 63 85 09 36
       2.3518467e-06 4.1410967e-06 8.6578837e-07 2.0492232e-06
000280 ba 0f 7c 36 61 86 12 33 9a 67 9a 36 88 36 76 36
       3.756008e-06 3.411549e-08 4.6016185e-06 3.6688598e-06
000290 dc e0 5c 35 11 8c da 34 af c1 e8 35 44 2b 0d 35
       8.22836e-07 4.0707576e-07 1.7341716e-06 5.2589553e-07
0002a0 17 36 9f 35 09 36 54 35 c8 cb 87 35 5d 54 3d 36
       1.1862165e-06 7.9054786e-07 1.0117592e-06 2.82123e-06
0002b0 66 30 37 35 9f ed c8 35 3d 7d b7 36 82 fc 12 36
       6.824324e-07 1.4970318e-06 5.4684047e-06 2.1902674e-06
0002c0 76 d8 0a 35 5a 66 14 36 c7 3a 65 35 1d 00 47 35
       5.1724e-07 2.2113295e-06 8.539468e-07 7.413344e-07
0002d0 c4 92 de 34 08 b9 5b 35 19 9e 6e 35 8a 4a 5d 36
       4.1457508e-07 8.1853113e-07 8.889197e-07 3.2974954e-06
0002e0 98 78 de 33 16 1c 5e 36 48 fa 00 36 f7 37 7b 35
       1.03596165e-07 3.3096926e-06 1.921917e-06 9.3586226e-07
0002f0 31 6c d5 35 5d b3 d5 35 a1 4c 07 36 f8 7a ac 35
       1.5901225e-06 1.5921938e-06 2.0161172e-06 1.2850787e-06
000300 77 3e 8b 36 5e da 8c 36 cb 34 9a 33 b4 68 0a 36
       4.1497947e-06 4.1977464e-06 7.180787e-08 2.0624548e-06
000310 c2 ca 25 37 f4 62 1c 36 ba 96 0f 37 2a f4 99 36
       9.881975e-06 2.330341e-06 8.558558e-06 4.5881798e-06
000320 de 0c 19 37 52 13 71 37 12 54 06 37 c0 da 09 37
       9.1225065e-06 1.4369218e-05 8.0065965e-06 8.216768e-06
000330 f1 38 23 37 61 f9 0b 37 3b c8 22 36 bf dd 01 36
       9.728815e-06 8.343109e-06 2.425643e-06 1.9351571e-06
000340 57 a1 14 37 65 1b 88 36 0d 69 5c 37 c6 f2 75 36
       8.859052e-06 4.056305e-06 1.3137481e-05 3.6649158e-06
000350 75 64 bd 36 15 41 20 37 71 65 6d 36 0b 5b 23 36
       5.6443337e-06 9.551896e-06 3.5374799e-06 2.4341887e-06
000360 09 a1 a0 36 5c a3 06 37 0d 38 dc 36 de d6 a4 36
       4.7871185e-06 8.0250575e-06 6.563036e-06 4.9125947e-06
000370 58 25 00 37 cc cd 77 37 e5 d3 47 36 79 34 d6 36
       7.638089e-06 1.4770263e-05 2.977665e-06 6.3838056e-06
000380 e1 d6 49 37 b5 f7 f8 33 89 00 88 37 80 15 42 37
       1.2030564e-05 1.15934576e-07 1.6212713e-05 1.1568307e-05
000390 87 73 3e 36 3b b6 ae 35 12 25 b9 36 19 50 e0 35
       2.8379452e-06 1.3017046e-06 5.517745e-06 1.6712612e-06
0003a0 07 b0 77 36 19 69 29 36 7e 19 5a 36 1d 58 14 37
       3.690833e-06 2.5244137e-06 3.249937e-06 8.842003e-06
0003b0 20 03 23 36 63 6a 9f 36 22 c1 9f 37 40 ca ec 36
       2.4290712e-06 4.7509543e-06 1.9044212e-05 7.056893e-06
0003c0 b8 0d dd 35 f0 fe e7 36 d2 9b 52 36 56 8e 19 36
       1.6469776e-06 6.914015e-06 3.1383138e-06 2.2881627e-06
0003d0 e8 1e bd 35 69 ba 3c 36 1d 7f 57 36 59 53 43 37
       1.4090592e-06 2.8122688e-06 3.2111486e-06 1.1642312e-05
0003e0 25 c3 c6 34 0e e5 33 37 d8 6f e9 36 1c 00 57 36
       3.702236e-07 1.0722562e-05 6.9569614e-06 3.203756e-06
0003f0 22 7f bf 36 04 b5 a7 36 49 7f d5 36 c3 75 9b 36
       5.707044e-06 4.998061e-06 6.3627126e-06 4.6330692e-06

exp_avg f4 [64]
000000 d3 ed a7 bb a4 7f 76 3b c9 87 b1 bb 8d a1 42 3c
       -0.0051247864 0.00376127 -0.005417798 0.011879337
000010 dc 4e 8e 3b 6c 02 5c bb c3 e4 65 ba 81 53 c5 3a
       0.004342897 -0.003357078 -0.0008769745 0.0015054793
000020 76 01 45 3a 5d cb 31 bb 0a 6d 08 bc 13 92 e4 bb
       0.00075151713 -0.002712927 -0.008326778 -0.006975421
000030 52 65 c5 3b a3 f9 cf 37 17 cf 4b bc 12 0f 38 3a
       0.006024041 2.479257e-05 -0.012439511 0.00070212886
000040 1c d1 1f 3b 7f cf de 39 90 a1 22 bb 46 98 e7 3b
       0.0024386114 0.00042497736 -0.0024815537 0.007067713
000050 0f 5c 4b 3b f2 13 7a 3b 50 b9 14 3b 1d b3 af 3b
       0.0031030213 0.003815886 0.0022693463 0.005361928
000060 8c 84 a2 3b 24 99 79 bb 37 57 e5 3a 5e 3e c5 ba
       0.0049596485 -0.0038085664 0.0017497306 -0.0015048494
000070 1b ec 5a 3b b0 ec 22 bb ab a3 d7 3b dc b8 93 bb
       0.003340489 -0.0024860315 0.00658079 -0.004508121
000080 75 fb cf bb a8 79 1d 3a d5 d6 23 ba 8c 4d 75 b7
       -0.0063471147 0.0006007203 -0.0006249969 -1.4621193e-05
000090 97 b5 d0 bb f7 cf 0c bb 1b 6f a3 bb 38 09 8a bb
       -0.0063693034 -0.0021486261 -0.00498761 -0.0042125247
0000a0 b0 c6 ec 3b db b0 18 ba 06 ca 0a bb a5 2a c7 ba
       0.007225834 -0.00058246934 -0.0021177544 -0.0015195204
0000b0 9d 4d 1b 3c eb 7a e6 bb c5 83 c4 39 72 c0 03 3c
       0.009478954 -0.007033696 0.0003748221 0.008041488
0000c0 36 d6 eb bb 19 14 35 b9 e5 d8 d4 bb 61 f7 ed 37
       -0.007197167 -0.00017268992 -0.0064955824 2.8367796e-05
0000d0 ca 9d 53 3a 5f 53 34 3b 3f 94 4d 3c 04 88 07 bc
       0.00080725236 0.0027515513 0.012547552 -0.008272175
0000e0 1a 9c d7 3b cd bb ce ba 22 b7 06 bc 7a d8 28 3c
       0.006579888 -0.0015772522 -0.008222373 0.010305518
0000f0 5e 18 49 3b 97 10 dd bb 34 cb 3d 3a f6 24 5a 3a
       0.003068469 -0.0067463624 0.00072400575 0.00083215476

exp_avg_sq f4 [64]
000000 28 b5 05 37 67 e6 73 36 88 e2 ff 36 9b 2e e0 37
       7.9695965e-06 3.6343934e-06 7.625964e-06 2.6724583e-05
000010 24 f1 9c 36 f6 31 4b 36 b6 37 8f 34 60 b6 66 35
       4.6772348e-06 3.0278438e-06 2.667636e-07 8.594707e-07
000020 0f b2 c9 33 aa 09 05 36 af 82 1b 37 21 b4 2d 37
       9.3921805e-08 1.982417e-06 9.269147e-06 1.0353543e-05
000030 b2 c3 2f 37 2f cd 24 31 94 80 20 38 9a 5a 16 34
       1.0476377e-05 2.3981774e-09 3.826672e-05 1.4002799e-07
000040 61 13 3e 35 39 e4 a2 33 83 f2 e0 35 95 c4 ac 37
       7.0808716e-07 7.585226e-08 1.6759881e-06 2.0595538e-05
000050 8a 0a 32 36 db 57 f3 36 b4 b6 91 35 77 a9 01 37
       2.6530201e-06 7.252192e-06 1.0856515e-06 7.728456e-06
000060 da ae 4a 36 e8 d7 8a 36 0b 4a 8f 35 0a 59 15 35
       3.0202123e-06 4.1378553e-06 1.067588e-06 5.5636394e-07
000070 3f 7c 83 36 ac 74 30 35 7c 55 c7 37 da 43 aa 36
       3.9185684e-06 6.573489e-07 2.3762455e-05 5.0742938e-06
000080 5d 36 15 37 d9 89 8f 33 62 87 d8 33 21 17 44 31
       8.8937495e-06 6.684031e-08 1.008291e-07 2.85349e-09
000090 86 0e a0 36 e6 4f bb 35 e3 b9 f0 36 ca 70 99 36
       4.7700623e-06 1.3955839e-06 7.1741974e-06 4.5728857e-06
0000a0 73 d2 ae 37 47 f0 1b 34 02 03 a7 35 96 3b e4 34
       2.0840414e-05 1.4522912e-07 1.2443345e-06 4.2511664e-07
0000b0 5e d3 d2 37 c3 e2 7f 37 1d 0f c0 33 21 fd 80 37
       2.5132376e-05 1.52519815e-05 8.943446e-08 1.5376661e-05
0000c0 cf 1c 83 37 66 d5 5e 32 cd 67 2e 37 a4 c2 c9 31
       1.5629832e-05 1.2970622e-08 1.0395376e-05 5.871998e-09
0000d0 6f ac 73 34 60 25 14 36 cb b5 1a 38 17 96 96 37
       2.269387e-07 2.2075474e-06 3.688577e-05 1.7951284e-05
0000e0 a8 85 50 37 21 e5 9a 35 e0 81 8d 37 ce 91 19 38
       1.2428885e-05 1.1540579e-06 1.6868988e-05 3.6613834e-05
0000f0 0b 8b 66 36 20 e2 71 37 e0 76 7a 33 d6 47 13 35
       3.4353604e-06 1.4417368e-05 5.8315777e-08 5.48663e-07

exp_avg f4 [2, 64]
000000 9a 71 12 bc a7 99 17 3c 1b 6c db 3c 9e c6 22 3d
       -0.008938218 0.009252942 0.026784947 0.039740197
000010 06 ad 3a 3d cb a7 07 be 4d 7c 1c ba 41 44 49 3d
       0.045575164 -0.13247602 -0.000596945 0.049137358
000020 3a be 89 bb 87 fe 25 bd 61 94 36 3d a5 85 5d bd
       -0.004203585 -0.04052594 0.0445751 -0.05408253
000030 76 ad 1b 3c a4 e3 2d bb f0 79 95 3b ba fa a0 bb
       0.0095018055 -0.002653339 0.004561655 -0.0049127014
000040 af f5 93 bd e0 ab 10 3d fd 73 31 3c cd 3d ae bd
       -0.07224595 0.035320163 0.010830876 -0.08507881
000050 c3 a1 e2 bc a4 a7 33 bd 64 7e 87 ba 7d 78 9f bc
       -0.027665025 -0.043861046 -0.001033735 -0.019466633
000060 53 36 97 bc 13 ea bc 3c 62 80 bd 3c da 8a 79 3c
       -0.018458521 0.023060834 0.023132507 0.015230859
000070 97 7f 2f 3d f4 91 8b 3c c6 07 26 bd bd b8 5c bd
       0.04284629 0.01703737 -0.040534757 -0.053887118
000080 df ea 31 3c bf 3f a5 bd a3 1d 35 3d 8c 01 cd bb
       0.01085922 -0.08068799 0.044217717 -0.006256288
000090 59 1c 48 3d a0 b8 19 3b a1 f4 8f bb 3d 75 bd bc
       0.04885516 0.0023455992 -0.0043931757 -0.023127193
0000a0 1f 84 00 3d 92 f4 dc bc 3d 14 78 3c 63 01 2f 3d
       0.031376 -0.026972089 0.015141544 0.04272593
0000b0 e4 45 3c bc f3 a6 43 bc 50 54 26 3d 6d 17 d6 bc
       -0.011491273 -0.011941659 0.04060775 -0.026134217
0000c0 c0 a2 46 bb 78 39 1a 3d 81 b0 8e bd ee 2f 6e 3c
       -0.003030941 0.037652463 -0.06967259 0.0145377945
0000d0 f3 f9 c8 3c 24 47 0d bc dd b8 6a 3c 2d 1b 75 bd
       0.024533248 -0.008622918 0.014326301 -0.05984037
0000e0 32 a5 8e bc 28 94 0e bd b2 90 07 3d de 0f cd 3c
       -0.017412756 -0.03480926 0.033096977 0.02503198
0000f0 4a 52 71 3d c9 ba 85 3c de 85 20 bd e7 50 86 3d
       0.058916368 0.016324418 -0.039190166 0.065584
000100 9a 71 12 3c a5 99 17 bc 1a 6c db bc 9c c6 22 bd
       0.008938218 -0.00925294 -0.026784945 -0.03974019
000110 08 ad 3a bd cc a7 07 3e 51 7c 1c 3a 42 44 49 bd
       -0.04557517 0.13247603 0.00059694523 -0.04913736
000120 40 be 89 3b 89 fe 25 3d 60 94 36 bd a6 85 5d 3d
       0.004203588 0.040525947 -0.044575095 0.054082535
000130 76 ad 1b bc a4 e3 2d 3b f7 79 95 bb bc fa a0 3b
       -0.0095018055 0.002653339 -0.0045616585 0.0049127024
000140 af f5 93 3d e0 ab 10 bd ff 73 31 bc ce 3d ae 3d
       0.07224595 -0.035320163 -0.010830878 0.08507882
000150 c3 a1 e2 3c a6 a7 33 3d 4e 7e 87 3a 7d 78 9f 3c
       0.027665025 0.043861054 0.0010337324 0.019466633
000160 50 36 97 3c 13 ea bc bc 64 80 bd bc da 8a 79 bc
       0.018458515 -0.023060834 -0.02313251 -0.015230859
000170 96 7f 2f bd f5 91 8b bc c6 07 26 3d be b8 5c 3d
       -0.042846285 -0.017037371 0.040534757 0.05388712
000180 da ea 31 bc c0 3f a5 3d a3 1d 35 bd 8e 01 cd 3b
       -0.010859216 0.080688 -0.044217717 0.006256289
000190 5a 1c 48 bd a4 b8 19 bb a1 f4 8f 3b 3a 75 bd 3c
       -0.048855163 -0.0023456002 0.0043931757 0.023127187
0001a0 1f 84 00 bd 8e f4 dc 3c 3a 14 78 bc 62 01 2f bd
       -0.031376 0.026972082 -0.015141541 -0.042725928
0001b0 e2 45 3c 3c f2 a6 43 3c 4f 54 26 bd 6b 17 d6 3c
       0.011491271 0.011941658 -0.040607747 0.026134213
0001c0 bb a2 46 3b 73 39 1a bd 80 b0 8e 3d ef 2f 6e bc
       0.0030309397 -0.037652444 0.069672585 -0.014537795
0001d0 f3 f9 c8 bc 24 47 0d 3c df b8 6a bc 2f 1b 75 3d
       -0.024533248 0.008622918 -0.014326303 0.059840377
0001e0 32 a5 8e 3c 27 94 0e 3d b1 90 07 bd de 0f cd bc
       0.017412756 0.034809258 -0.033096973 -0.02503198
0001f0 49 52 71 bd c8 ba 85 bc de 85 20 3d e7 50 86 bd
       -0.058916364 -0.016324416 0.039190166 -0.065584

exp_avg_sq f4 [2, 64]
000000 e5 ac 5b 36 b0 18 01 38 ec 14 a1 37 30 53 ae 38
       3.273418e-06 3.077899e-05 1.9202438e-05 8.3124614e-05
000010 38 ce 98 38 5b 28 05 3a 01 95 89 36 95 4d 98 38
       7.286336e-05 0.0005079561 4.1002645e-06 7.2623756e-05
000020 4e 85 b4 38 e2 2e 6f 38 76 98 ff 38 c3 66 de 38
       8.607899e-05 5.7025703e-05 0.000121877456 0.00010604926
000030 9f 40 2c 37 6b 0a 3d 36 de f2 8b 38 30 0a f8 35
       1.0267045e-05 2.8169259e-06 6.673274e-05 1.8480405e-06
000040 9d 71 4a 39 07 e5 4f 38 3f 89 60 36 71 6a 4e 39
       0.00019306545 4.9565944e-05 3.3458489e-06 0.00019685343
000050 e1 8f a7 37 32 25 c0 38 06 3b 9e 38 92 58 32 37
       1.997495e-05 9.1622016e-05 7.545021e-05 1.0630249e-05
000060 84 2b 17 39 a1 21 77 37 7e 89 a8 38 db 8d cc 36
       0.00014416693 1.4730177e-05 8.036474e-05 6.096188e-06
000070 8e 4c 72 38 68 0a 48 39 8e 79 0b 39 c3 b2 c9 38
       5.7768593e-05 0.00019077363 0.00013301356 9.617724e-05
000080 53 bf 28 38 e3 77 3e 39 0f db 6e 38 82 3e ee 37
       4.0232506e-05 0.00018164473 5.6947636e-05 2.8400918e-05
000090 7e 25 18 39 c5 76 1a 37 a9 5d 3f 37 7f 0a ed 37
       0.00014509817 9.2067685e-06 1.1406294e-05 2.825749e-05
0000a0 8a b0 5b 38 a8 e1 5f 38 9e 36 f0 36 35 19 84 38
       5.2378084e-05 5.3377502e-05 7.1589157e-06 6.298946e-05
0000b0 84 57 d2 36 38 b1 aa 36 9e ae 4e 38 85 66 d9 37
       6.268676e-06 5.087026e-06 4.9276852e-05 2.5916155e-05
0000c0 8c 71 e4 35 13 19 12 39 13 52 20 39 7e 82 3e 37
       1.702037e-06 0.00013932986 0.00015289364 1.1355265e-05
0000d0 aa 02 eb 37 8a 75 17 38 2f 92 19 38 c3 98 e2 38
       2.8015424e-05 3.6110672e-05 3.6614187e-05 0.00010804974
0000e0 50 c7 04 37 54 65 d4 38 e8 03 0a 38 f7 22 0a 38
       7.914219e-06 0.000101278216 3.2905402e-05 3.2934327e-05
0000f0 a5 af d1 38 aa 66 fe 37 08 8c f8 38 64 ed 10 39
       9.998613e-05 3.0326966e-05 0.000118516444 0.00013821345
000100 e2 ac 5b 36 b0 18 01 38 eb 14 a1 37 2d 53 ae 38
       3.2734174e-06 3.077899e-05 1.9202436e-05 8.312459e-05
000110 38 ce 98 38 5b 28 05 3a 01 95 89 36 95 4d 98 38
       7.286336e-05 0.0005079561 4.1002645e-06 7.2623756e-05
000120 4f 85 b4 38 e3 2e 6f 38 77 98 ff 38 c7 66 de 38
       8.6078995e-05 5.7025707e-05 0.00012187746 0.00010604929
000130 a1 40 2c 37 69 0a 3d 36 dd f2 8b 38 34 0a f8 35
       1.02670465e-05 2.8169254e-06 6.673273e-05 1.8480409e-06
000140 9d 71 4a 39 07 e5 4f 38 40 89 60 36 72 6a 4e 39
       0.00019306545 4.9565944e-05 3.345849e-06 0.00019685345
000150 df 8f a7 37 32 25 c0 38 07 3b 9e 38 92 58 32 37
       1.9974947e-05 9.1622016e-05 7.545022e-05 1.0630249e-05
000160 86 2b 17 39 a2 21 77 37 7d 89 a8 38 d9 8d cc 36
       0.00014416696 1.4730178e-05 8.0364734e-05 6.096187e-06
000170 8d 4c 72 38 67 0a 48 39 8a 79 0b 39 c5 b2 c9 38
       5.776859e-05 0.00019077362 0.0001330135 9.617725e-05
000180 53 bf 28 38 e2 77 3e 39 0b db 6e 38 83 3e ee 37
       4.0232506e-05 0.00018164472 5.694762e-05 2.840092e-05
000190 82 25 18 39 c4 76 1a 37 a9 5d 3f 37 80 0a ed 37
       0.00014509822 9.206768e-06 1.1406294e-05 2.8257491e-05
0001a0 8a b0 5b 38 a5 e1 5f 38 a2 36 f0 36 34 19 84 38
       5.2378084e-05 5.337749e-05 7.1589175e-06 6.298945e-05
0001b0 84 57 d2 36 36 b1 aa 36 9d ae 4e 38 84 66 d9 37
       6.268676e-06 5.087025e-06 4.927685e-05 2.5916153e-05
0001c0 8c 71 e4 35 10 19 12 39 12 52 20 39 81 82 3e 37
       1.702037e-06 0.00013932982 0.00015289363 1.1355268e-05
0001d0 aa 02 eb 37 8b 75 17 38 30 92 19 38 c5 98 e2 38
       2.8015424e-05 3.6110676e-05 3.661419e-05 0.00010804975
0001e0 50 c7 04 37 54 65 d4 38 e7 03 0a 38 f5 22 0a 38
       7.914219e-06 0.000101278216 3.29054e-05 3.293432e-05
0001f0 a3 af d1 38 a6 66 fe 37 09 8c f8 38 64 ed 10 39
       9.9986115e-05 3.0326959e-05 0.00011851645 0.00013821345

exp_avg f4 [2]
000000 95 1c 69 3d 95 1c 69 bd
       0.056912024 -0.056912024

exp_avg_sq f4 [2]
000000 b9 76 79 3a b7 76 79 3a
       0.0009516287 0.0009516286
