flare/polgrad/lightning_logs/version_30/checkpoints/epoch=21.ckpt (torch_old, 152910 bytes, 36 tensors)

exp_avg f4 [6]
0	0x3a6596ea	0.00087581447
1	0x3aef5b6e	0.0018261501
2	0x3b1bdeae	0.002378385
3	0x39f8f21e	0.00047482637
4	0x3a609444	0.0008567015
5	0xba739894	-0.000929245

exp_avg_sq f4 [6]
0	0x38b35b32	8.5523716e-05
1	0x394c1620	0.00019463198
2	0x39747cc6	0.00023316135
3	0x38fdccd4	0.00012102132
4	0x38d70a3f	0.000102539074
5	0x386d95eb	5.6644825e-05

exp_avg f4 [64, 26]
0	0x386d8473	5.6628556e-05
1	0x00000000	0.0
2	0x36fb11d8	7.48246e-06
3	0x39317f50	0.00016927463
4	0x00000000	0.0
5	0x38690ab8	5.556151e-05
6	0x00000000	0.0
7	0xb8408051	-4.589587e-05
8	0xb7646bca	-1.3614956e-05
9	0x39b4c4bc	0.00034478854
10	0x38af4358	8.357194e-05
11	0xb9697991	-0.00022265899
12	0xb9999358	-0.00029292214
13	0xb962b02c	-0.00021618669
14	0xb8e6fcf8	-0.00011014374
15	0xb9ba665b	-0.00035552945
16	0x3780c760	1.535163e-05
17	0x3a55865e	0.00081453274
18	0xb848c669	-4.78685e-05
19	0x396ea71f	0.00022759706
20	0x388d07c7	6.7248526e-05
21	0xb7c9298a	-2.398041e-05
22	0x398f303c	0.00027311023
23	0x39226d6e	0.0001549029
24	0x07b12b8d	2.6657597e-34
25	0xb683abae	-3.9240904e-06
26	0xb60b25fa	-2.073472e-06
27	0x00000000	0.0
28	0xb8c6b7c8	-9.475608e-05
29	0x37a8f1b6	2.0139716e-05
30	0x00000000	0.0
31	0xb78c9537	-1.6758784e-05
32	0x00000000	0.0
33	0xb80e4ce1	-3.3927037e-05
34	0x386e05e2	5.67491e-05
35	0x391fab63	0.00015227268
36	0xb63d2508	-2.818475e-06
37	0xb92dd4c0	-0.00016577821
38	0x39828e6e	0.0002490165
39	0xb95fa17a	-0.00021327092
40	0x382ab389	4.0698364e-05
41	0xb8b0193a	-8.397033e-05
42	0x37bcd115	2.2508708e-05
43	0x3915d9aa	0.00014290833
44	0xb89c4101	-7.4507676e-05
45	0xb8d4000a	-0.00010108955
46	0x384d07ac	4.8882954e-05
47	0x38abcb3b	8.19177e-05
48	0xb8382623	-4.3904536e-05
49	0xb8d67f22	-0.000102279955
50	0x8809516e	-4.132266e-34
51	0x37ef7e4a	2.8549828e-05
52	0x3975bd4c	0.0002343554
53	0x00000000	0.0
54	0xba3cc6ce	-0.0007201255
55	0xb99aa7eb	-0.00029498278
56	0x00000000	0.0
57	0xb89ede22	-7.5754026e-05
58	0x00000000	0.0
59	0xb80ad0f6	-3.3096374e-05
60	0xba3dbe34	-0.00072381203
61	0x3a21b58b	0.00061687146
62	0x3a8376c4	0.0010029902
63	0xb9e59802	-0.00043791538
64	0xba953fb2	-0.001138678
65	0xba23063d	-0.0006218886
66	0xba56f856	-0.0008200457
67	0xba416505	-0.0007377419
68	0xba2120e7	-0.00061465654
69	0x3a739234	0.00092915003
70	0x399ff9fc	0.00030513096
71	0x39373d0e	0.00017474985
72	0xb9f266aa	-0.00046234328
73	0xba641ede	-0.00087021093
74	0x393ee5b0	0.00018205377
75	0xb8524fd0	-5.0142233e-05
76	0x080fbc75	4.3254027e-34
77	0xb838399e	-4.392268e-05
78	0xb6d7f3b8	-6.435872e-06
79	0x00000000	0.0
80	0x392ee060	0.0001667752
81	0x38280201	4.0056188e-05
82	0x00000000	0.0
83	0xb840c90c	-4.5963607e-05
84	0x00000000	0.0
85	0xb710890c	-8.614978e-06
86	0x384f9418	4.949057e-05
87	0x3980d127	0.00024569893
88	0xb87ab874	-5.977643e-05
89	0xb8efa156	-0.00011426459
90	0x36813a50	3.851288e-06
91	0x38b02e2b	8.4009334e-05
92	0x395afc51	0.00020884095
93	0xb931ace4	-0.00016944442
94	0x39a23e08	0.00030945265
95	0x3920493f	0.00015286075
96	0xb867ffc4	-5.5312892e-05
97	0xb968f48e	-0.00022216348
98	0x398f0aa1	0.00027283005
99	0xb889d655	-6.5725915e-05
100	0x37d1a8b4	2.49933e-05
101	0xb8867ec2	-6.4132284e-05
102	0x87985df0	-2.292563e-34
103	0x3907ad14	0.0001293908
104	0x399163f8	0.00027731038
105	0x00000000	0.0
106	0xb9178a19	-0.00014451928
107	0x3941b29f	0.00018472456
108	0x00000000	0.0
109	0x38b7bf49	8.7617496e-05
110	0x00000000	0.0
111	0xb9e1eb9f	-0.00043090896
112	0x39905a92	0.000275333
113	0x39099b36	0.00013123159
114	0xb9068bef	-0.00012831365
115	0xb9b101ba	-0.00033761357
116	0x398055aa	0.00024477887
117	0xb9803031	-0.00024449968
118	0xba079cf1	-0.00051732274
119	0xb99b3659	-0.00029604396
120	0xb9ac84d8	-0.00032905373
121	0x3a598bd8	0.00082987314
122	0x392b5687	0.00016340065
123	0xb9e9ba29	-0.00044579923
124	0xba52e3d1	-0.00080448115
125	0xb93040f5	-0.00016808866
126	0x38cad4b4	9.67173e-05
127	0xba9512f5	-0.0011373447
128	0x086726f3	6.955982e-34
129	0x397ae790	0.00023928122
130	0x388005ae	6.1045735e-05
131	0x00000000	0.0
132	0xb8205d28	-3.823373e-05
133	0x392a7003	0.00016254191
134	0x00000000	0.0
135	0x3882fd37	6.246048e-05
136	0x00000000	0.0
137	0xb8861953	-6.394335e-05
138	0x39106c41	0.00013773238
139	0xb8dd1c39	-0.00010543358
140	0xb9b628f6	-0.00034744263
141	0xb5d6dd58	-1.6008662e-06
142	0xb99d28aa	-0.0002997567
143	0x3918c84f	0.0001457047
144	0x390d9614	0.00013502716
145	0x394e595c	0.0001967898
146	0xb8b03e73	-8.403966e-05
147	0xb91e61c8	-0.0001510448
148	0x38e27b6f	0.00010799511
149	0xba346747	-0.00068818446
150	0xb9ff9eee	-0.00048755802
151	0xb95543e8	-0.0002033856
152	0x38bb3120	8.926005e-05
153	0xb7604de8	-1.3369579e-05
154	0x887bdbc6	-7.5790907e-34
155	0x392b8d63	0.00016360501
156	0xb8d2ac8c	-0.0001004572
157	0x00000000	0.0
158	0x382cc51e	4.1191575e-05
159	0xb8c54e25	-9.4082476e-05
160	0x00000000	0.0
161	0x379f2ffe	1.8976625e-05
162	0x00000000	0.0
163	0x386de7ec	5.6721197e-05
164	0x38b1a496	8.470674e-05
165	0xb7d75806	-2.5670986e-05
166	0xb8131171	-3.5063775e-05
167	0xb812d4cc	-3.5007295e-05
168	0x3977a089	0.0002361556
169	0x3935750f	0.00017305113
170	0x392401a2	0.00015640867
171	0x3683c474	3.9269744e-06
172	0xb7ca10fc	-2.4088185e-05
173	0xb996dfae	-0.00028776884
174	0xb88ae758	-6.623444e-05
175	0x39e5ccc6	0.00043830852
176	0x392da24f	0.0001655903
177	0x392a0411	0.00016213978
178	0xb6bcdb30	-5.6283534e-06
179	0xb90fec63	-0.00013725604
180	0x86ff29b4	-9.5981616e-35
181	0xb819dcb6	-3.6683596e-05
182	0xb86df36a	-5.67319e-05
183	0x00000000	0.0
184	0x399bbbc4	0.000297038
185	0x38a8e11f	8.052796e-05
186	0x00000000	0.0
187	0x3856d133	5.1216408e-05
188	0x00000000	0.0
189	0xb90bb6c9	-0.00013324166
190	0x39f8b6d0	0.00047438452
191	0xb86fc988	-5.716973e-05
192	0xb94053e1	-0.00018341794
193	0xb8aa3a34	-8.117073e-05
194	0xb9f145ba	-0.00046019052
195	0xb8f769ea	-0.00011797606
196	0x393bff85	0.00017928898
197	0x391a9fd5	0.00014746127
198	0x3814facc	3.5519522e-05
199	0xb96737a1	-0.000220506
200	0xb985a85b	-0.0002549317
201	0x3a1243d8	0.00055795675
202	0x38ddacc4	0.00010570281
203	0x38b9e966	8.864961e-05
204	0x392660ee	0.00015867103
205	0x38894792	6.546e-05
206	0x87379a5d	-1.3812753e-34
207	0x38f50418	0.00011683273
208	0x3938bc74	0.00017617812
209	0x00000000	0.0
210	0xb95c2d23	-0.0002099765
211	0xb928ac84	-0.00016085996
212	0x00000000	0.0
213	0xb735bb9f	-1.0832125e-05
214	0x00000000	0.0
215	0x387f81ee	6.0917744e-05
216	0xba22b41c	-0.0006206648
217	0x393256de	0.00017007763
218	0x3a0a6e83	0.000528075
219	0x39339a24	0.00017128192
220	0xb9178953	-0.0001445164
221	0x37dc24b7	2.624314e-05
222	0xb9e4a83e	-0.000436129
223	0xb7c036ff	-2.2913793e-05
224	0xb8a98856	-8.0839425e-05
225	0xb9c338e0	-0.00037235674
226	0x3a0a85de	0.000528423
227	0xb87f8fbc	-6.09306e-05
228	0x3a1d650c	0.0006004132
229	0x38ae7366	8.318461e-05
230	0xb904bb08	-0.00012658176
231	0xb9244534	-0.00015666039
232	0x880d36c3	-4.2495016e-34
233	0xb90da52e	-0.00013508342
234	0xb933c062	-0.00017142438
235	0x00000000	0.0
236	0xb8829a1c	-6.227588e-05
237	0x39cea30d	0.00039412864
238	0x00000000	0.0
239	0x38c6104b	9.4444105e-05
240	0x00000000	0.0
241	0x36c5b1a0	5.891736e-06
242	0x3a004ba9	0.0004894087
243	0xb91a320e	-0.00014705231
244	0xb9cbc27a	-0.00038864074
245	0x36e249dc	6.743923e-06
246	0xb8f22ae2	-0.00011547447
247	0x37a5f6d6	1.9784475e-05
248	0x39510b50	0.00019936007
249	0x398514ec	0.00025383325
250	0xb917ec18	-0.00014488434
251	0xb92b2321	-0.00016320917
252	0xb906e278	-0.00012863602
253	0x3a4603e9	0.0007553683
254	0x3837db6c	4.3834953e-05
255	0xb81b5578	-3.703448e-05

exp_avg_sq f4 [64, 26]
0	0x3588daed	1.0196505e-06
1	0x00000000	0.0
2	0x369cbf00	4.6713976e-06
3	0x330f663b	3.338776e-08
4	0x00000000	0.0
5	0x33871a62	6.2912264e-08
6	0x00000000	0.0
7	0x34be4458	3.5439984e-07
8	0x366dffe5	3.5464702e-06
9	0x341bc08c	1.4505548e-07
10	0x3658ab2a	3.2286139e-06
11	0x345149d9	1.9491507e-07
12	0x36230c6e	2.4296128e-06
13	0x34bbf1d4	3.5007417e-07
14	0x3688be93	4.0753016e-06
15	0x34432901	1.8175707e-07
16	0x3681f1a1	3.872629e-06
17	0x352b3638	6.378136e-07
18	0x368b0c36	4.1439444e-06
19	0x3504be9c	4.9451205e-07
20	0x367feacc	3.813463e-06
21	0x35b3c478	1.3393719e-06
22	0x35163845	5.596124e-07
23	0x367a22bc	3.727312e-06
24	0x32831157	1.5258292e-08
25	0x34d5d4e6	3.9829246e-07
26	0x3403e9b4	1.2285346e-07
27	0x00000000	0.0
28	0x3536c389	6.8084825e-07
29	0x3279a3ee	1.4530981e-08
30	0x00000000	0.0
31	0x323a2d6d	1.0836954e-08
32	0x00000000	0.0
33	0x3343ec1f	4.5616726e-08
34	0x34d9890f	4.0519123e-07
35	0x334c7d07	4.7611163e-08
36	0x34b41c60	3.3548258e-07
37	0x338780fd	6.30989e-08
38	0x34bb3b6c	3.48747e-07
39	0x33bc89b7	8.7794824e-08
40	0x350555bb	4.9671115e-07
41	0x337165c1	5.620473e-08
42	0x34f295ab	4.518491e-07
43	0x348ba075	2.6007515e-07
44	0x35102b50	5.370721e-07
45	0x3489d020	2.566967e-07
46	0x34d8b4de	4.0364733e-07
47	0x3483b95c	2.4535518e-07
48	0x334c485e	4.756327e-08
49	0x34db9fce	4.0908202e-07
50	0x31b88b9f	5.370978e-09
51	0x33e061a3	1.0448573e-07
52	0x35dc559e	1.6416195e-06
53	0x00000000	0.0
54	0x36f3be34	7.264107e-06
55	0x3337e23b	4.2813763e-08
56	0x00000000	0.0
57	0x33aeaf70	8.134418e-08
58	0x00000000	0.0
59	0x351b4d9f	5.7854953e-07
60	0x36bbf948	5.6020544e-06
61	0x34100b14	1.3415075e-07
62	0x36ae6880	5.1977695e-06
63	0x349067e5	2.6897683e-07
64	0x367f2ed5	3.802522e-06
65	0x349c1388	2.9071475e-07
66	0x36ddf21f	6.6145e-06
67	0x3448f2e1	1.871481e-07
68	0x36d127f9	6.233339e-06
69	0x352a5271	6.3449903e-07
70	0x36daab78	6.516868e-06
71	0x351abddb	5.7645747e-07
72	0x36cf352e	6.1752717e-06
73	0x35f1b7db	1.8009408e-06
74	0x3594928f	1.1069513e-06
75	0x36bd6503	5.6443982e-06
76	0x32274d66	9.738278e-09
77	0x34d9e065	4.0582668e-07
78	0x35ba8a90	1.3898407e-06
79	0x00000000	0.0
80	0x36ce70d3	6.152413e-06
81	0x32f72aa6	2.8773979e-08
82	0x00000000	0.0
83	0x334e9397	4.8097345e-08
84	0x00000000	0.0
85	0x35013b24	4.8142306e-07
86	0x36a2d2f0	4.8525326e-06
87	0x342e80e0	1.6251897e-07
88	0x368fb6d7	4.2830175e-06
89	0x34604ef8	2.0890354e-07
90	0x367bacb7	3.7502448e-06
91	0x34c13147	3.5984905e-07
92	0x36b80728	5.4844604e-06
93	0x3457747b	2.006581e-07
94	0x36b4cf28	5.388534e-06
95	0x356cc476	8.820274e-07
96	0x36bf666c	5.704167e-06
97	0x354029fe	7.158668e-07
98	0x36b05410	5.254995e-06
99	0x35df3753	1.6630896e-06
100	0x353ddb5a	7.0727185e-07
101	0x369ca264	4.668067e-06
102	0x324b4bc1	1.183338e-08
103	0x34956f61	2.7834452e-07
104	0x361b0afe	2.3103198e-06
105	0x00000000	0.0
106	0x3730d19e	1.0539223e-05
107	0x33b85cbd	8.585037e-08
108	0x00000000	0.0
109	0x34111ab2	1.3513889e-07
110	0x00000000	0.0
111	0x3550b854	7.775427e-07
112	0x37055ef9	7.94953e-06
113	0x34a480c7	3.0641078e-07
114	0x36ebb82d	7.0249866e-06
115	0x34de74dd	4.1435752e-07
116	0x36d619f7	6.3807197e-06
117	0x3507a9b1	5.053835e-07
118	0x371af189	9.235352e-06
119	0x34ddc481	4.1307433e-07
120	0x3718aad0	9.099676e-06
121	0x35e40393	1.6988364e-06
122	0x371df171	9.414144e-06
123	0x35e37d95	1.6949367e-06
124	0x370f1f74	8.530787e-06
125	0x36192727	2.2821566e-06
126	0x35ea8b62	1.7474924e-06
127	0x36f6e383	7.357857e-06
128	0x325e6108	1.2944163e-08
129	0x35265632	6.196525e-07
130	0x36122e5d	2.1782682e-06
131	0x00000000	0.0
132	0x3724f163	9.831364e-06
133	0x3344f8bb	4.5861025e-08
134	0x00000000	0.0
135	0x33fbf434	1.17325186e-07
136	0x00000000	0.0
137	0x3547ee6c	7.4480226e-07
138	0x36f83c04	7.3979627e-06
139	0x347019d4	2.2361138e-07
140	0x36dc850e	6.5720005e-06
141	0x3503d477	4.911048e-07
142	0x36b79af4	5.471864e-06
143	0x350e541a	5.3021506e-07
144	0x3710c1bf	8.628179e-06
145	0x34f42cb8	4.548108e-07
146	0x3702c476	7.794346e-06
147	0x35bbeb38	1.4001043e-06
148	0x371446f3	8.838007e-06
149	0x3551d986	7.8175106e-07
150	0x3708bb7a	8.149882e-06
151	0x3633e52b	2.6806472e-06
152	0x35b71a94	1.3642298e-06
153	0x36eb01f4	7.003773e-06
154	0x32e92d52	2.714538e-08
155	0x354befbe	7.5972264e-07
156	0x34e21618	4.2111856e-07
157	0x00000000	0.0
158	0x36051730	1.9832041e-06
159	0x327079f9	1.3997572e-08
160	0x00000000	0.0
161	0x32fc43a0	2.9367413e-08
162	0x00000000	0.0
163	0x341a9b70	1.4398915e-07
164	0x35ba592d	1.3884033e-06
165	0x339af5c9	7.215892e-08
166	0x35a39568	1.2187929e-06
167	0x340e2c19	1.3240823e-07
168	0x35991eca	1.1408349e-06
169	0x346a54be	2.1823777e-07
170	0x35e1d067	1.6824459e-06
171	0x33b0105c	8.1986144e-08
172	0x35cf28a2	1.5434528e-06
173	0x34a02ff5	2.9837216e-07
174	0x35e4c2a2	1.7043969e-06
175	0x34aa9886	3.1775943e-07
176	0x35cc32b2	1.5213939e-06
177	0x351829ee	5.668543e-07
178	0x34a27770	3.0261754e-07
179	0x35c3dbaa	1.4592563e-06
180	0x32515681	1.218507e-08
181	0x343359a7	1.670329e-07
182	0x35384959	6.8652076e-07
183	0x00000000	0.0
184	0x36537bfa	3.1513614e-06
185	0x32e5311c	2.6681441e-08
186	0x00000000	0.0
187	0x3370990b	5.6018546e-08
188	0x00000000	0.0
189	0x348580a3	2.4866776e-07
190	0x361e945a	2.3630187e-06
191	0x341829ae	1.4171266e-07
192	0x36123e03	2.179179e-06
193	0x3424cb5d	1.5347673e-07
194	0x360b77bc	2.0782309e-06
195	0x34cc2e4b	3.8031644e-07
196	0x3633e214	2.6804673e-06
197	0x344bfb86	1.8997352e-07
198	0x36371278	2.7279875e-06
199	0x35644abd	8.504538e-07
200	0x3644ff9c	2.935506e-06
201	0x3510a820	5.3888834e-07
202	0x362ad2dc	2.545471e-06
203	0x35801f67	9.545882e-07
204	0x3508d952	5.098019e-07
205	0x36182948	2.2673794e-06
206	0x328ce712	1.6403224e-08
207	0x34c8717d	3.7335477e-07
208	0x363ef207	2.8453085e-06
209	0x00000000	0.0
210	0x375daf6f	1.3213473e-05
211	0x33810dec	6.009563e-08
212	0x00000000	0.0
213	0x33d3a56e	9.855545e-08
214	0x00000000	0.0
215	0x35879316	1.0101091e-06
216	0x3720a63f	9.57545e-06
217	0x34aae270	3.1829723e-07
218	0x3712d3c3	8.751583e-06
219	0x34a6e524	3.108663e-07
220	0x36c7e58c	5.957385e-06
221	0x34dc97b0	4.108856e-07
222	0x3742cbaf	1.1610725e-05
223	0x34cec591	3.8514239e-07
224	0x373229ba	1.0619342e-05
225	0x35d3cd45	1.5780466e-06
226	0x3747cad9	1.19085535e-05
227	0x35a265e2	1.2099592e-06
228	0x372f3e32	1.0445294e-05
229	0x3642a262	2.9002772e-06
230	0x359c91aa	1.16653e-06
231	0x37207361	9.563607e-06
232	0x328fad6d	1.6726256e-08
233	0x353cfef5	7.040647e-07
234	0x3695acd4	4.460666e-06
235	0x00000000	0.0
236	0x37a78804	1.9971289e-05
237	0x340f9361	1.3371529e-07
238	0x00000000	0.0
239	0x344ed3b6	1.9262265e-07
240	0x00000000	0.0
241	0x35c8275c	1.4912616e-06
242	0x37815d4f	1.5421449e-05
243	0x34e4e64e	4.2635878e-07
244	0x3765b573	1.3691711e-05
245	0x34f280ef	4.5169824e-07
246	0x37319023	1.0583582e-05
247	0x3567e5a2	8.6388366e-07
248	0x3795a2e6	1.783804e-05
249	0x354bc89e	7.591533e-07
250	0x378d44df	1.684058e-05
251	0x363b19aa	2.788011e-06
252	0x3795a334	1.7838182e-05
253	0x36174c79	2.2545266e-06
254	0x378e7d8e	1.6986185e-05
255	0x3694dff6	4.436816e-06

exp_avg f4 [64]
0	0x36fb150c	7.482833e-06
1	0xb8c6b7a0	-9.4755786e-05
2	0xba3cc6ce	-0.0007201255
3	0x392ee085	0.00016677573
4	0xb9178a90	-0.00014452101
5	0xb8205e50	-3.8234808e-05
6	0x382cc470	4.1190942e-05
7	0x399bbbc2	0.00029703794
8	0xb95c2cd4	-0.00020997535
9	0xb8829b1c	-6.2277744e-05
10	0xb9340142	-0.00017166606
11	0x399864d4	0.00029066822
12	0x38681854	5.5335768e-05
13	0x3905cd04	0.00012760243
14	0xba01fe86	-0.00049588864
15	0xb84f8200	-4.9473718e-05
16	0xb962b560	-0.00021620607
17	0xb8af6104	-8.362721e-05
18	0xb90aee90	-0.00013249577
19	0x3980360f	0.0002445434
20	0xb799e240	-1.8344377e-05
21	0xb98f7cdc	-0.00027368113
22	0x39315997	0.0001691341
23	0xb975899c	-0.00023416284
24	0xb9006c30	-0.00012247334
25	0xb8c86288	-9.555096e-05
26	0x38d3ec6f	0.00010105303
27	0xb8b21407	-8.491432e-05
28	0x380dd89c	3.3818753e-05
29	0xb9774751	-0.00023582323
30	0xb91ddc36	-0.00015054722
31	0xb6d341e8	-6.2959625e-06
32	0x385c2a26	5.249134e-05
33	0x3a9fa038	0.0012178486
34	0x3a319b2c	0.00067751366
35	0x3a236fa8	0.00062345946
36	0xb7420704	-1.15649345e-05
37	0xb93905bc	-0.00017645111
38	0xb8ef5e37	-0.00011413957
39	0xb91b6aea	-0.0001482178
40	0x396f0339	0.00022794017
41	0x38829a2b	6.227599e-05
42	0xb990d42d	-0.00027623904
43	0xba17fc33	-0.00057977735
44	0xb89bf776	-7.437069e-05
45	0x389eb7e0	7.5682765e-05
46	0xb8d35857	-0.000100777186
47	0xb8e4dd3a	-0.00010913094
48	0x3a35e006	0.0006937984
49	0xb98568cf	-0.00025445825
50	0xb9021c2c	-0.00012408261
51	0xb950d880	-0.00019917078
52	0xb9d31122	-0.0004025782
53	0x38ebfa92	0.000112523456
54	0xb99786af	-0.0002890131
55	0x388e3652	6.7812056e-05
56	0x39abea8b	0.0003279041
57	0x387363da	5.802871e-05
58	0x37e09158	2.6770562e-05
59	0xb932335e	-0.00016994539
60	0x3908cdd0	0.00013046642
61	0xb74e52c0	-1.2297824e-05
62	0x3923e3c9	0.00015629748
63	0x39127dd6	0.00013970523

exp_avg_sq f4 [64]
0	0x369cbefc	4.671396e-06
1	0x3536c38a	6.808483e-07
2	0x36f3be2d	7.2641037e-06
3	0x36ce70dc	6.152417e-06
4	0x3730d199	1.0539218e-05
5	0x3724f169	9.831369e-06
6	0x36051733	1.9832048e-06
7	0x36537bf9	3.1513612e-06
8	0x375daf6d	1.3213471e-05
9	0x37a78801	1.9971283e-05
10	0x369b910f	4.636247e-06
11	0x371467b3	8.845632e-06
12	0x36e25bfd	6.7460337e-06
13	0x35db7c29	1.6352907e-06
14	0x35f9345a	1.8567182e-06
15	0x371e00a2	9.417681e-06
16	0x36b12b28	5.280035e-06
17	0x3680517e	3.824184e-06
18	0x368b0b41	4.143833e-06
19	0x36432bdc	2.9082794e-06
20	0x36e4d6aa	6.8199197e-06
21	0x378af3a3	1.6564334e-05
22	0x372a2c4e	1.0143105e-05
23	0x3712d26a	8.751269e-06
24	0x3723845d	9.746375e-06
25	0x3706281d	7.996362e-06
26	0x36860773	3.9943784e-06
27	0x35b18a8e	1.3227852e-06
28	0x3784aeff	1.5817115e-05
29	0x373f1547	1.1389441e-05
30	0x37bcd9fa	2.251285e-05
31	0x36189c5b	2.2740776e-06
32	0x35c0eaf1	1.4373492e-06
33	0x37ab1c95	2.0398098e-05
34	0x37c2f6c7	2.3241517e-05
35	0x368033f7	3.8207468e-06
36	0x36f4ae56	7.292062e-06
37	0x36eb204d	7.007306e-06
38	0x36d8fadf	6.466507e-06
39	0x3807ec54	3.2406606e-05
40	0x36d974dc	6.480708e-06
41	0x3658462f	3.222736e-06
42	0x37919f16	1.7359427e-05
43	0x37053b6c	7.941253e-06
44	0x3630fbb7	2.637256e-06
45	0x37fd9bfc	3.0232586e-05
46	0x365e10a5	3.3090266e-06
47	0x3680ffb5	3.8444655e-06
48	0x379f1be5	1.8967266e-05
49	0x36aee799	5.2125656e-06
50	0x35d884a4	1.6131858e-06
51	0x36e8e915	6.941273e-06
52	0x37510099	1.245751e-05
53	0x37210843	9.598271e-06
54	0x37085199	8.12523e-06
55	0x37837e25	1.5675158e-05
56	0x3762cd6e	1.351848e-05
57	0x36e9d88a	6.9691496e-06
58	0x373c31cc	1.12172675e-05
59	0x37167eb7	8.9702e-06
60	0x36b12fc0	5.28057e-06
61	0x372b5818	1.0212905e-05
62	0x3680fb1b	3.84393e-06
63	0x3696e86b	4.4974054e-06

exp_avg f4 [64, 64]
0	0xb9355ed2	-0.00017296828
1	0xb83d8f6c	-4.5194683e-05
2	0xb9459c9e	-0.00018845728
3	0xb7d5283e	-2.5410318e-05
4	0x396616a4	0.00021942944
5	0xb7e47d94	-2.7238195e-05
6	0xb8ad4c11	-8.263451e-05
7	0xb87854d3	-5.9206806e-05
8	0x38083622	3.2475342e-05
9	0xb912ae4f	-0.0001398858
10	0xb8a22141	-7.730956e-05
11	0x36f07860	7.166571e-06
12	0xb9240712	-0.00015642893
13	0x388eecf7	6.815226e-05
14	0x391f6c6f	0.00015203816
15	0x3726ba0a	9.937687e-06
16	0x371d55e0	9.377924e-06
17	0x3853fc74	5.0541435e-05
18	0x382cfc76	4.1243118e-05
19	0x38142082	3.5316225e-05
20	0xb8b8b144	-8.806822e-05
21	0xb9392e0f	-0.00017660133
22	0x387a8b9c	5.9734666e-05
23	0xb8e6841c	-0.00010991862
24	0xb7896410	-1.6378268e-05
25	0xb85ade14	-5.2182077e-05
26	0x38f742e0	0.00011790334
27	0xb7cef9ee	-2.4673496e-05
28	0x38ea2ece	0.000111667076
29	0xb906aecb	-0.00012844351
30	0xb7e89324	-2.7725073e-05
31	0xb79c6cc0	-1.864729e-05
32	0xb8731340	-5.7953643e-05
33	0x3820da07	3.8350026e-05
34	0x3707e9f4	8.1010985e-06
35	0x38683c2c	5.536915e-05
36	0x388cd53b	6.7154375e-05
37	0xb8c85ce5	-9.554046e-05
38	0xb7bd6c8c	-2.2581102e-05
39	0xb8cd8970	-9.8007615e-05
40	0x39494d57	0.00019197665
41	0x39035bf5	0.0001252739
42	0xb877809b	-5.9009162e-05
43	0x380450f4	3.1546646e-05
44	0x37b79853	2.1886231e-05
45	0x36211fe0	2.4009423e-06
46	0x382e186a	4.150757e-05
47	0xb8aef708	-8.34298e-05
48	0x393b7e76	0.0001788082
49	0x392e1375	0.00016601181
50	0xb91245d8	-0.00013949664
51	0x38e537b8	0.00010929949
52	0xb73a844f	-1.1117269e-05
53	0x385c2aed	5.2492065e-05
54	0x37d8661f	2.579676e-05
55	0x3706bc22	8.0308255e-06
56	0x38471e9f	4.7473815e-05
57	0xb92b1b5d	-0.00016318024
58	0x38231b18	3.888746e-05
59	0x37c15b20	2.3049826e-05
60	0xb82d9199	-4.1382013e-05
61	0x39138f32	0.00014072357
62	0x3844ec96	4.695038e-05
63	0x38e0a0af	0.00010711082
64	0xb8bded4a	-9.056421e-05
65	0xb955dc3b	-0.00020395305
66	0xb7667470	-1.37361785e-05
67	0xb860723e	-5.3512158e-05
68	0x39ce8f1f	0.00039398015
69	0xb86adafc	-5.5993893e-05
70	0xb91f9fb6	-0.00015222919
71	0xb544d980	-7.3332194e-07
72	0x3862e2ed	5.409394e-05
73	0xb92b0813	-0.00016310839
74	0xb94cd05f	-0.0001953258
75	0x38dda2ee	0.00010568449
76	0x37792f38	1.48525505e-05
77	0xb8c84962	-9.550412e-05
78	0xb93c9f5d	-0.00017988445
79	0xb8a864ad	-8.0296166e-05
80	0x38b56366	8.649267e-05
81	0x39455174	0.00018817728
82	0x39144de1	0.00014143392
83	0x37980a3c	1.8124578e-05
84	0xb930d53a	-0.00016864101
85	0x38abbfa6	8.189613e-05
86	0x3902643c	0.00012435106
87	0x37354040	1.08034e-05
88	0xb6fb9502	-7.4977297e-06
89	0xb8b63183	-8.6876586e-05
90	0x39af73c2	0.00033464847
91	0xb94998f8	-0.00019225839
92	0x3894be60	7.09265e-05
93	0xb7109d98	-8.6197615e-06
94	0x36bfd744	5.717304e-06
95	0xb92e5ee7	-0.00016629287
96	0x39269e1a	0.00015889891
97	0x36fcf18b	7.5383045e-06
98	0x3773c7e2	1.45304675e-05
99	0x395e0d09	0.00021176426
100	0x39122fce	0.00013941454
101	0xb94c5516	-0.00019486653
102	0x376aba4c	1.39908625e-05
103	0xb7e81b7c	-2.7669354e-05
104	0x3911a518	0.0001388978
105	0x376b7b20	1.4035759e-05
106	0xb7c96be5	-2.401131e-05
107	0xb78d79ac	-1.6865168e-05
108	0x382c8d46	4.1139567e-05
109	0xb922110e	-0.00015455877
110	0xb781739e	-1.5431837e-05
111	0xb911eeea	-0.0001391728
112	0x38a07cca	7.652638e-05
113	0x38a47940	7.842714e-05
114	0x3915f623	0.0001430144
115	0x38e7987b	0.0001104334
116	0xb68f38cc	-4.268344e-06
117	0x380c39ae	3.343232e-05
118	0x38c1fd4e	9.250139e-05
119	0x38ac54b0	8.2173734e-05
120	0x37b37284	2.1391788e-05
121	0x37e2c275	2.703185e-05
122	0x393ecc1f	0.00018195853
123	0x390ec686	0.00013616131
124	0xb76436b9	-1.36026e-05
125	0x38d3d350	0.00010100624
126	0x37595150	1.295314e-05
127	0x380bc5ba	3.332433e-05
128	0x390ba930	0.000133191
129	0xb9750f63	-0.00023370753
130	0x38fdb87f	0.00012098345
131	0xb9808985	-0.00024516523
132	0x39812623	0.0002463321
133	0x38a20b7c	7.726901e-05
134	0xb9414d92	-0.00018434811
135	0xb8825430	-6.214564e-05
136	0xb90dd6a1	-0.00013526763
137	0x38fc4de5	0.000120308054
138	0xb9401edb	-0.00018322041
139	0xb9534068	-0.00020146521
140	0x39274a9e	0.00015954158
141	0x39360387	0.00017358187
142	0x38eb63ec	0.00011224285
143	0xb7585210	-1.289371e-05
144	0x38340095	4.2915886e-05
145	0x39c9b1dd	0.00038470226
146	0x3900a228	0.00012267439
147	0xb904dbc8	-0.00012670376
148	0xb7c55979	-2.3525894e-05
149	0x3781b552	1.5462432e-05
150	0x38a3f50d	7.81809e-05
151	0x39156400	0.00014247
152	0xb77fe6ad	-1.5252893e-05
153	0x38522341	5.0100734e-05
154	0x397ef7b2	0.00024315601
155	0xb955c659	-0.00020387153
156	0x3666ba27	3.4381026e-06
157	0xb837310a	-4.367627e-05
158	0xb97222a9	-0.0002309183
159	0xb7eed6d8	-2.8471855e-05
160	0xb9251a18	-0.00015745347
161	0x37443f7a	1.169729e-05
162	0xb96641ba	-0.00021958994
163	0xb98289f8	-0.00024898327
164	0xb82dd8ae	-4.1448213e-05
165	0x387001f2	5.722227e-05
166	0xb94f4901	-0.00019768254
167	0xb9577244	-0.00020546565
168	0x39382c69	0.00017564151
169	0xb7341200	-1.0733027e-05
170	0xb9321598	-0.00016983447
171	0xb8883dd4	-6.496502e-05
172	0xb7d803a6	-2.5750905e-05
173	0x38f183fb	0.00011516359
174	0xb88f9504	-6.846528e-05
175	0x388216eb	6.203152e-05
176	0xb80e9337	-3.3992543e-05
177	0x38935512	7.025352e-05
178	0x396a960e	0.00022371879
179	0xb9158bf2	-0.00014261881
180	0x387b2905	5.9881266e-05
181	0xb8b6c25c	-8.7146385e-05
182	0x39584ab8	0.000206272
183	0x397d9285	0.00024182543
184	0xb98fabdc	-0.0002740313
185	0xb7ba6e50	-2.2224296e-05
186	0xb9eb8385	-0.00044920683
187	0xb8eae267	-0.0001120016
188	0xb9070f71	-0.00012880356
189	0xb87ccc08	-6.02715e-05
190	0xb986290f	-0.00025589063
191	0x37c72417	2.3739454e-05
192	0x397c14d1	0.00024040347
193	0xb7ad16b4	-2.0633779e-05
194	0x391ff4c0	0.00015254598
195	0xb8664608	-5.4901495e-05
196	0xb9728054	-0.00023126724
197	0x386b92e5	5.6165172e-05
198	0x388e2f12	6.779855e-05
199	0x375b65f0	1.3077151e-05
200	0x3882224c	6.205271e-05
201	0x38ce21b4	9.829123e-05
202	0x37c9358e	2.3986006e-05
203	0xb93066e8	-0.00016823004
204	0x3874316a	5.8220154e-05
205	0xb8f61f8e	-0.000117360716
206	0x39141a08	0.00014124077
207	0xb82f626f	-4.1814925e-05
208	0xb909b96b	-0.00013134412
209	0xb86256b1	-5.3963337e-05
210	0x3870ac55	5.7380956e-05
211	0x375f2897	1.3301286e-05
212	0x37eaa77e	2.7972968e-05
213	0x392d6f80	0.00016540103
214	0xb88e9620	-6.7990506e-05
215	0xb6e494d0	-6.8122536e-06
216	0xb8abfbc0	-8.2008075e-05
217	0xb8dd1da1	-0.0001054362
218	0xb93acdb7	-0.00017814977
219	0x3882d2bc	6.2381354e-05
220	0xb943bb69	-0.00018666465
221	0x387a1f3d	5.9633738e-05
222	0x3825554e	3.941851e-05
223	0x38fcf4a5	0.00012061865
224	0xb900746a	-0.00012250399
225	0x3706244d	7.995474e-06
226	0x389a505a	7.358259e-05
227	0xb96f5fd7	-0.0002282852
228	0x379b9908	1.85487e-05
229	0x38eaa119	0.00011187996
230	0x38dfea70	0.00010677136
231	0x37121e7c	8.709376e-06
232	0xb8d14189	-9.9781035e-05
233	0xb80b598a	-3.3223572e-05
234	0xb928b1ae	-0.0001608792
235	0x375159b0	1.2478253e-05
236	0xb8c3002a	-9.298355e-05
237	0x38cf2eda	9.879256e-05
238	0x38ead787	0.000111981346
239	0x397e1ac6	0.00024233302
240	0xb86e99e6	-5.688695e-05
241	0xb8a427f5	-7.827572e-05
242	0xb814577d	-3.536743e-05
243	0xb7a71af0	-1.9920495e-05
244	0x3896dc8a	7.193636e-05
245	0xb88d95fb	-6.75134e-05
246	0xb92d4bc7	-0.00016526795
247	0xb9078659	-0.00012924652
248	0xb73497b0	-1.0764154e-05
249	0xb9097987	-0.0001311061
250	0xb90f7c8b	-0.00013683939
251	0x37d95385	2.5907308e-05
252	0x38248990	3.9228762e-05
253	0xb9288dee	-0.00016074601
254	0xb81e02de	-3.7672806e-05
255	0xb8ad8262	-8.2735685e-05

exp_avg_sq f4 [64, 64]
0	0x34f3fda5	4.5446828e-07
1	0x373ac536	1.1132381e-05
2	0x34fd4ce4	4.7180868e-07
3	0x34c8677c	3.7328198e-07
4	0x36a1f993	4.827228e-06
5	0x359f1e3a	1.185522e-06
6	0x344d95bd	1.9146587e-07
7	0x366e78d5	3.5535097e-06
8	0x34146331	1.381966e-07
9	0x34f6d9d9	4.5979576e-07
10	0x3607361e	2.0148068e-06
11	0x36c70170	5.9308295e-06
12	0x3647a2e6	2.974813e-06
13	0x35b319a5	1.3344003e-06
14	0x3621dc47	2.4119088e-06
15	0x34e6daa9	4.2999935e-07
16	0x36983cb5	4.5370202e-06
17	0x364b38a2	3.0282322e-06
18	0x35de1e8a	1.6549177e-06
19	0x369e028c	4.7090634e-06
20	0x347530aa	2.2835107e-07
21	0x36858036	3.9786346e-06
22	0x35ed5592	1.768278e-06
23	0x3523faf3	6.108741e-07
24	0x350db812	5.279445e-07
25	0x34e0f90b	4.1904454e-07
26	0x35cb8126	1.5162266e-06
27	0x360b45e4	2.0753296e-06
28	0x34bf1400	3.5591074e-07
29	0x3448b1cb	1.8691132e-07
30	0x35d75652	1.6043871e-06
31	0x369b6ab5	4.6317823e-06
32	0x36a68f3a	4.9638593e-06
33	0x33fad89e	1.16809346e-07
34	0x348defa9	2.6437672e-07
35	0x35785907	9.251675e-07
36	0x34d67d65	3.9951843e-07
37	0x35713aa5	8.9864835e-07
38	0x35373d6e	6.8262204e-07
39	0x3484f18c	2.4762664e-07
40	0x36939aa6	4.398945e-06
41	0x36ebe65b	7.0303627e-06
42	0x3692a9a7	4.370889e-06
43	0x34e7fefa	4.3212623e-07
44	0x34e893f2	4.3321012e-07
45	0x34cf41cb	3.8604625e-07
46	0x368dc063	4.224524e-06
47	0x351dbf44	5.8765386e-07
48	0x35052ac9	4.960862e-07
49	0x34692731	2.1714074e-07
50	0x36a92376	5.0407207e-06
51	0x34a875c1	3.1378116e-07
52	0x345325e0	1.9664685e-07
53	0x35a95158	1.2615155e-06
54	0x3578f19c	9.273879e-07
55	0x348b7adc	2.598016e-07
56	0x34e647a4	4.2892964e-07
57	0x3685de02	3.989554e-06
58	0x35751de3	9.1313103e-07
59	0x3489b7b2	2.5651894e-07
60	0x358a2469	1.0292398e-06
61	0x346827b4	2.1621128e-07
62	0x3615b5e4	2.2308604e-06
63	0x36863f48	4.000878e-06
64	0x35632ccb	8.462927e-07
65	0x37215d1b	9.618026e-06
66	0x3585d39b	9.970857e-07
67	0x34f6185a	4.583879e-07
68	0x36968e13	4.486888e-06
69	0x359e5ced	1.1798962e-06
70	0x34d60e54	3.987103e-07
71	0x365421ef	3.1610214e-06
72	0x342fb63b	1.636444e-07
73	0x3501e917	4.8395435e-07
74	0x35fc3685	1.879133e-06
75	0x36b4e2ac	5.390806e-06
76	0x3635b724	2.7077704e-06
77	0x35a91cfc	1.2599917e-06
78	0x36263717	2.4767994e-06
79	0x34f2969b	4.5185593e-07
80	0x36863a11	4.000271e-06
81	0x3637eda2	2.7407445e-06
82	0x35d633fc	1.5959372e-06
83	0x368956b1	4.0930104e-06
84	0x34ae6ce3	3.248925e-07
85	0x366468d0	3.4035656e-06
86	0x35df1f21	1.6623854e-06
87	0x355cf3f8	8.231141e-07
88	0x351c4714	5.821796e-07
89	0x34f1aa94	4.501386e-07
90	0x35d2d872	1.5709213e-06
91	0x3609981f	2.0503137e-06
92	0x34f55d19	4.5702544e-07
93	0x34af1a99	3.2615642e-07
94	0x35cdb1ae	1.5325402e-06
95	0x368a56b4	4.122814e-06
96	0x3697206e	4.503926e-06
97	0x344b3afd	1.8927308e-07
98	0x34c666af	3.6955086e-07
99	0x3569539a	8.692092e-07
100	0x3554f346	7.9330164e-07
101	0x357fd1fa	9.530046e-07
102	0x3554493d	7.908273e-07
103	0x34b2d9fe	3.3313694e-07
104	0x3684a087	3.9525944e-06
105	0x36d34789	6.296618e-06
106	0x36809caa	3.8329354e-06
107	0x3504080a	4.918553e-07
108	0x34e7d3e1	4.3181265e-07
109	0x35048979	4.937388e-07
110	0x367a74fb	3.7320995e-06
111	0x353134d2	6.60145e-07
112	0x350a661b	5.155759e-07
113	0x34bedc8b	3.5550724e-07
114	0x369bc1d5	4.641925e-06
115	0x35004b41	4.7793225e-07
116	0x34beaebc	3.5517394e-07
117	0x35972fc2	1.1264276e-06
118	0x35862ed6	9.997409e-07
119	0x350415ce	4.920556e-07
120	0x3530a0fe	6.5799384e-07
121	0x366b6131	3.5074302e-06
122	0x35827d0c	9.722148e-07
123	0x3502606c	4.8569086e-07
124	0x35799f4e	9.299155e-07
125	0x34a07f2e	2.9894858e-07
126	0x360bde5b	2.0842042e-06
127	0x367471a8	3.642499e-06
128	0x3533fbae	6.704894e-07
129	0x371b338d	9.2507225e-06
130	0x35347381	6.7223306e-07
131	0x34ad9130	3.23294e-07
132	0x3693f79c	4.409767e-06
133	0x3591900d	1.0845266e-06
134	0x34b67bb4	3.3990148e-07
135	0x363dd005	2.8284278e-06
136	0x348df8df	2.6444374e-07
137	0x351c8bab	5.831777e-07
138	0x35fc423f	1.8794743e-06
139	0x36b1250d	5.2793243e-06
140	0x36274919	2.4927488e-06
141	0x35a57f9e	1.23306e-06
142	0x36067764	2.003705e-06
143	0x35178c60	5.6456156e-07
144	0x367acd39	3.7372358e-06
145	0x362f3dae	2.6112934e-06
146	0x35c45bad	1.4629819e-06
147	0x36875172	4.032795e-06
148	0x34a6e4d3	3.10864e-07
149	0x366593ca	3.4209684e-06
150	0x35e060b0	1.671744e-06
151	0x35349353	6.726961e-07
152	0x35490cdb	7.489704e-07
153	0x350fda22	5.3589076e-07
154	0x35cd2943	1.5285699e-06
155	0x35f20317	1.8031304e-06
156	0x34a84330	3.1341324e-07
157	0x34ae69b7	3.2486943e-07
158	0x35b8ed00	1.3778044e-06
159	0x3681d2fe	3.8690623e-06
160	0x36979b35	4.518219e-06
161	0x344a7942	1.885683e-07
162	0x349cbd3c	2.919495e-07
163	0x35645a09	8.506764e-07
164	0x352762ca	6.2356105e-07
165	0x35541201	7.9002353e-07
166	0x35596ed7	8.100009e-07
167	0x3484461c	2.4637927e-07
168	0x3683d015	3.928328e-06
169	0x36ca3d68	6.0272178e-06
170	0x366a6084	3.4924897e-06
171	0x35177a5b	5.6429934e-07
172	0x34ee5e3c	4.439952e-07
173	0x34e23756	4.2136043e-07
174	0x366fcee2	3.5734197e-06
175	0x352d41bc	6.454318e-07
176	0x34f1619c	4.4960768e-07
177	0x34b078b4	3.2870378e-07
178	0x36954d0c	4.4495155e-06
179	0x34ba4480	3.469504e-07
180	0x34b35911	3.3406153e-07
181	0x3587c4cf	1.0115563e-06
182	0x35581cee	8.050837e-07
183	0x35098b58	5.123925e-07
184	0x350ee01d	5.322525e-07
185	0x36663563	3.4303746e-06
186	0x356522a5	8.535956e-07
187	0x34e5ea88	4.2825218e-07
188	0x357cfb46	9.4242966e-07
189	0x346dc773	2.2144904e-07
190	0x35ffa9ff	1.9048456e-06
191	0x365dd5f4	3.3056103e-06
192	0x353383d9	6.687456e-07
193	0x374e05fe	1.2279952e-05
194	0x35314e55	6.6051626e-07
195	0x3506ada9	5.01716e-07
196	0x36b6ecdf	5.451598e-06
197	0x35ae4ef3	1.2986987e-06
198	0x348b918c	2.5996667e-07
199	0x367e342b	3.7879315e-06
200	0x34469017	1.8492607e-07
201	0x3521ee03	6.0323526e-07
202	0x361ebb22	2.365276e-06
203	0x36d79203	6.4244973e-06
204	0x3659456c	3.2375929e-06
205	0x35c49639	1.4646859e-06
206	0x363d34a7	2.8193842e-06
207	0x3508bf39	5.0942214e-07
208	0x36a4ebd5	4.9150353e-06
209	0x366554a3	3.4172924e-06
210	0x35f698bc	1.837288e-06
211	0x36ab1191	5.098242e-06
212	0x349a8d91	2.8787738e-07
213	0x369116f3	4.3240084e-06
214	0x35f0d2ee	1.7942782e-06
215	0x3561ffac	8.4191083e-07
216	0x353a965b	6.9509196e-07
217	0x350abbc9	5.168227e-07
218	0x35e63a0e	1.7153232e-06
219	0x36254f36	2.4633023e-06
220	0x34d490c7	3.9593417e-07
221	0x348c2b4b	2.6108532e-07
222	0x35ed829e	1.7695891e-06
223	0x36af7a0a	5.2296136e-06
224	0x36b76d4d	5.4665493e-06
225	0x34580a7e	2.0120385e-07
226	0x34a68839	3.1019025e-07
227	0x358c50b9	1.0454306e-06
228	0x3533a9f0	6.692999e-07
229	0x3582311c	9.700047e-07
230	0x354de3d9	7.6700013e-07
231	0x34bb5e5b	3.4900117e-07
232	0x369e0fb9	4.7105973e-06
233	0x37002a5a	7.639255e-06
234	0x369dac6f	4.6990385e-06
235	0x350d10c5	5.2550996e-07
236	0x35043658	4.925291e-07
237	0x34fd250b	4.7151875e-07
238	0x369b47d4	4.627722e-06
239	0x3553face	7.8968594e-07
240	0x35211e36	6.0021137e-07
241	0x34a70d48	3.1115837e-07
242	0x36b4e18d	5.3906756e-06
243	0x34c0976e	3.5872966e-07
244	0x34b16c44	3.3047593e-07
245	0x35b0df83	1.3178072e-06
246	0x35938f98	1.0994145e-06
247	0x34d2ca28	3.9262636e-07
248	0x3513ec08	5.510524e-07
249	0x3695c93f	4.463974e-06
250	0x35932fbb	1.0966245e-06
251	0x34ea25df	4.361345e-07
252	0x35a1114f	1.2000472e-06
253	0x3491ea4a	2.7178822e-07
254	0x362ae2e5	2.5464044e-06
255	0x3691b114	4.3419514e-06

exp_avg f4 [64]
0	0x387fe0a0	6.1005936e-05
1	0xb94fdbfd	-0.0001982301
2	0x390c351a	0.00013371222
3	0x39b96a08	0.0003536495
4	0x39c6c3b7	0.00037911322
5	0x39de5c02	0.0004241169
6	0x399ce203	0.0002992303
7	0x3998e787	0.000291642
8	0x39f5432e	0.00046780094
9	0xb8364928	-4.3460313e-05
10	0x390c2144	0.00013363833
11	0x394c977c	0.00019511388
12	0x3a18487a	0.00058091397
13	0x396e97d3	0.00022754008
14	0xb8bebbd0	-9.094889e-05
15	0xb7879588	-1.6162885e-05
16	0xb94d0d61	-0.00019555308
17	0xb9a843e3	-0.00032094037
18	0xb868f294	-5.553903e-05
19	0xb987e8fa	-0.00025922788
20	0x38847369	6.315747e-05
21	0xb9806e9c	-0.00024496473
22	0x38f16694	0.00011510882
23	0xb926b8bc	-0.00015899813
24	0xb9c33b60	-0.00037237536
25	0x374adb40	1.2091186e-05
26	0xba0e100e	-0.00054192625
27	0xb9890f22	-0.0002614195
28	0xb89a1700	-7.347576e-05
29	0xb997b621	-0.0002893666
30	0x38e70fd7	0.00011017889
31	0x37a524f8	1.9686748e-05
32	0x39162d04	0.00014321884
33	0x3939dbe8	0.00017724896
34	0x38fe7130	0.000121327466
35	0x39d4d9b7	0.00040598
36	0x39dffbfd	0.0004272162
37	0xb8d97988	-0.00010370003
38	0x37856bd0	1.590504e-05
39	0xba0837f0	-0.00051963236
40	0xb77cdbf0	-1.5071579e-05
41	0xb5edcb00	-1.7716957e-06
42	0x39ba3d9f	0.00035522596
43	0x3788018c	1.6213184e-05
44	0x3931c560	0.00016953563
45	0x39999b86	0.00029298308
46	0x3953e049	0.00020206081
47	0x398b151c	0.00026527874
48	0xb9c4b342	-0.0003751759
49	0xb6fd63e0	-7.5516145e-06
50	0xb94887bc	-0.00019124051
51	0x396d32a0	0.0002262094
52	0x38c6251c	9.448288e-05
53	0xb8e968f6	-0.00011129856
54	0xb8982339	-7.2544855e-05
55	0xb92067fd	-0.00015297528
56	0x386127ff	5.368143e-05
57	0xb993af75	-0.0002816875
58	0x39886676	0.0002601628
59	0x38025330	3.107189e-05
60	0x3a0115d6	0.0004924213
61	0x3947447d	0.00019003633
62	0x384bd120	4.8593734e-05
63	0xb791c9c0	-1.7379294e-05

exp_avg_sq f4 [64]
0	0x37cf386e	2.47026e-05
1	0x37b9e7bd	2.216163e-05
2	0x37b4f14e	2.1570038e-05
3	0x37e24c4d	2.697683e-05
4	0x3704427d	7.883294e-06
5	0x36e32c88	6.7703113e-06
6	0x37133b3d	8.775675e-06
7	0x36bb8363	5.5883297e-06
8	0x371a66b8	9.203031e-06
9	0x377aa497	1.4939483e-05
10	0x36bc94ff	5.620182e-06
11	0x376928d6	1.389739e-05
12	0x37cbb022	2.4281504e-05
13	0x37462abb	1.1811669e-05
14	0x36ade364	5.1822735e-06
15	0x36f6df6d	7.3573815e-06
16	0x36844fcb	3.9431957e-06
17	0x36da4572	6.504991e-06
18	0x377cbe86	1.506473e-05
19	0x378c7769	1.6744905e-05
20	0x377b6137	1.49834e-05
21	0x3703ce56	7.85625e-06
22	0x36cbb2a3	6.0706675e-06
23	0x36e6ba4c	6.876222e-06
24	0x36c65291	5.910472e-06
25	0x3750d4d1	1.2447316e-05
26	0x3738cab9	1.1014455e-05
27	0x370146a6	7.705448e-06
28	0x36b7f7df	5.482681e-06
29	0x370ca6d9	8.3834975e-06
30	0x3730bac9	1.0533907e-05
31	0x36796c58	3.7166956e-06
32	0x37406657	1.146792e-05
33	0x37c8c107	2.3931743e-05
34	0x368703fb	4.023777e-06
35	0x373917c2	1.1032391e-05
36	0x3725b3e0	9.876647e-06
37	0x374543dc	1.1757915e-05
38	0x36a5b510	4.9384616e-06
39	0x3778ed63	1.4837223e-05
40	0x37126bfa	8.727418e-06
41	0x37cc30ba	2.4341385e-05
42	0x371a48cf	9.196067e-06
43	0x37151e62	8.888166e-06
44	0x37a851ae	2.0065196e-05
45	0x375525ae	1.2704562e-05
46	0x3789abea	1.6411726e-05
47	0x36c69da2	5.9192107e-06
48	0x369ef105	4.7368253e-06
49	0x3753e886	1.2630719e-05
50	0x37b3b6a4	2.1423511e-05
51	0x36cd367d	6.1158194e-06
52	0x374227dd	1.15725825e-05
53	0x3739d037	1.1075338e-05
54	0x362f7a58	2.6148246e-06
55	0x3772cf6f	1.4472621e-05
56	0x371cd5b0	9.348078e-06
57	0x379ae3ef	1.846437e-05
58	0x3768d65a	1.3878185e-05
59	0x37d0e0be	2.4900186e-05
60	0x36ad00b2	5.1558827e-06
61	0x3665b82b	3.423086e-06
62	0x36d65fdf	6.388858e-06
63	0x366ae055	3.4999296e-06

exp_avg f4 [6, 64]
0	0x3970ebce	0.00022976028
1	0xb8434689	-4.6557314e-05
2	0xb9727c73	-0.0002312528
3	0x3833c125	4.2856806e-05
4	0xb7ddb082	-2.6427446e-05
5	0xba060b5f	-0.0005113389
6	0xb91aee3c	-0.00014775334
7	0x39492b46	0.00019184974
8	0xb9d2e90a	-0.0004022795
9	0x391d7463	0.00015016044
10	0xb9aaeaea	-0.0003259995
11	0x38bffa32	9.154192e-05
12	0xb9b041fd	-0.000336185
13	0xb98c1c5b	-0.00026724007
14	0x39f0b1e0	0.00045908894
15	0x39a72311	0.0003187885
16	0xb9f824e8	-0.00047329743
17	0x3878f482	5.9355523e-05
18	0xb9975906	-0.00028867292
19	0xb8207b4a	-3.8261795e-05
20	0xb7031660	-7.813418e-06
21	0x3a16a7c9	0.0005747048
22	0x39a6fd95	0.0003185092
23	0xb9555a22	-0.0002034684
24	0x39955906	0.00028485822
25	0x3991c815	0.00027805628
26	0xb910e87f	-0.00013819522
27	0x39205958	0.00015292072
28	0x39336b1a	0.00017110669
29	0x39666a2c	0.00021974061
30	0x39229bf3	0.0001550762
31	0x391af1dc	0.00014776684
32	0xba39ba87	-0.00070849847
33	0xb968de62	-0.00022208088
34	0xb97656d9	-0.00023492741
35	0xb947f2b8	-0.00019068539
36	0xb920a7d5	-0.00015321311
37	0xb9accb6b	-0.00032957955
38	0x3a07f14a	0.0005185796
39	0xb98a22c3	-0.0002634731
40	0x38dabc06	0.00010430072
41	0x381e1637	3.7690825e-05
42	0x39e03dc6	0.00042770634
43	0xb895ac6f	-7.136992e-05
44	0x396beb56	0.00022499016
45	0x375cf320	1.3169629e-05
46	0xb8d3ccef	-0.00010099436
47	0xb9d79851	-0.0004112148
48	0x3a13119d	0.00056102296
49	0x38fc0ed2	0.00012019057
50	0xb905c70a	-0.00012758016
51	0x399ae5ab	0.00029544285
52	0x37deed2e	2.6574908e-05
53	0x368a48e0	4.1212043e-06
54	0xb8ce4f5e	-9.837629e-05
55	0x39568a65	0.00020460186
56	0xb7aa8fc4	-2.0332525e-05
57	0xb8ba82a6	-8.893506e-05
58	0x39b30d62	0.00034151511
59	0xb952ddd7	-0.00020109802
60	0xb96bd2cd	-0.00022489876
61	0x3a01160b	0.0004924244
62	0x38a22238	7.731136e-05
63	0xba16306a	-0.000572926
64	0x39b55670	0.0003458741
65	0x391f0f1e	0.00015169053
66	0xba2452bd	-0.00062684325
67	0xb91dc83c	-0.0001504728
68	0x3a157cf4	0.00057025184
69	0xb8487460	-4.77921e-05
70	0x384da70c	4.9031383e-05
71	0x39b6de6c	0.00034879462
72	0x391ed55a	0.00015147534
73	0x39141634	0.00014122651
74	0xb8f1512d	-0.00011506896
75	0x39fe8820	0.00048548076
76	0x39e18c83	0.00043020034
77	0xb9547f12	-0.00020265233
78	0xb9087ffe	-0.00013017652
79	0x3969d352	0.00022299335
80	0x391c6509	0.00014914958
81	0xb99041e6	-0.00027514918
82	0x3a2cbd5b	0.00065894955
83	0xb913b7a0	-0.00014087418
84	0x392b3149	0.00016326191
85	0xb84eba91	-4.928798e-05
86	0x39f7b940	0.00047249533
87	0xbab37705	-0.0013692087
88	0x3a02c5d6	0.00049885863
89	0x3869bbee	5.5726552e-05
90	0xba8c5cf0	-0.001070885
91	0x399df1de	0.0003012558
92	0xb9106c11	-0.00013773168
93	0x3925ac52	0.0001579982
94	0xba3d718f	-0.00072266994
95	0x3ab3fd6f	0.0013732145
96	0xb9b4ec5e	-0.00034508383
97	0x38eeb4f7	0.00011382432
98	0x38c11b55	9.208048e-05
99	0x3a2d1be6	0.00066035835
100	0x39f3ee1e	0.00046525983
101	0xb9888272	-0.0002603713
102	0xb94f9247	-0.00019795551
103	0xb931c5d7	-0.00016953736
104	0x38f35e66	0.00011604726
105	0xba89b303	-0.001050562
106	0xb93ca103	-0.00017989059
107	0x398e4224	0.0002713363
108	0x39bc2a78	0.00035889796
109	0xb8bc2368	-8.9711335e-05
110	0x3771aa70	1.44044025e-05
111	0x39a60ac7	0.00031670017
112	0x39748ab2	0.00023321321
113	0x39d008c4	0.00039679382
114	0x3a0c2c44	0.0005347172
115	0x39e520d8	0.00043702754
116	0xb8acb876	-8.235958e-05
117	0x3977563c	0.0002358788
118	0xb9121583	-0.00013931659
119	0xb9e97a19	-0.00044532193
120	0x3736e413	1.0901148e-05
121	0x3a321fdc	0.00067949085
122	0xb9f4d756	-0.00046699744
123	0x37c0cf78	2.2984794e-05
124	0xb9d3c402	-0.00040391093
125	0xba0d6fdc	-0.00053953915
126	0x38c6815b	9.46547e-05
127	0xb8382648	-4.390467e-05
128	0x395fd92b	0.00021347839
129	0xb811feac	-3.4807876e-05
130	0x379534f0	1.7786835e-05
131	0xb8b3f8e2	-8.581743e-05
132	0xb9036771	-0.00012531668
133	0xba2dfcd5	-0.0006637101
134	0x39b204de	0.00033954432
135	0xb799da3a	-1.8340641e-05
136	0xb9b4f1bc	-0.00034512382
137	0xb8a05e75	-7.6469885e-05
138	0x38f807e4	0.00011827031
139	0xb7c6d5d0	-2.3703004e-05
140	0xb90a3099	-0.0001317881
141	0x39a39652	0.0003120178
142	0x39b9ceba	0.00035439973
143	0xb840806a	-4.5895962e-05
144	0xb9c386d2	-0.00037293747
145	0x39519af5	0.00019989519
146	0x398e65d9	0.00027160233
147	0x3998d5c6	0.00029150973
148	0x38f18390	0.00011516281
149	0x39d344a0	0.00040296186
150	0x394c4ba7	0.00019483139
151	0xb9631872	-0.00021657514
152	0x3893a4e0	7.0402166e-05
153	0xb96d3cf6	-0.00022624791
154	0xba915c02	-0.0011090043
155	0xb837b808	-4.3801992e-05
156	0xb99e44be	-0.00030187325
157	0xb84c37f0	-4.8689486e-05
158	0x3937749e	0.00017495683
159	0x39fee511	0.00048617323
160	0xb99e28a2	-0.00030166382
161	0xb90dfa0b	-0.00013539956
162	0x3855537a	5.08609e-05
163	0xb985b2fb	-0.00025501088
164	0x3a35ade0	0.00069305114
165	0xb99d1fb8	-0.00029969006
166	0x395a8bd9	0.00020842197
167	0x37470ed3	1.1864776e-05
168	0x3a3921fa	0.0007062253
169	0x38d2be5a	0.00010049036
170	0x39702e89	0.0002290552
171	0x397331d0	0.00023192842
172	0xb8acf220	-8.2466984e-05
173	0xb92bdc12	-0.00016389813
174	0xb9b2c077	-0.00034094203
175	0x3999722e	0.00029267505
176	0xb8aa1f14	-8.1120204e-05
177	0x394d2278	0.00019563164
178	0x39fb6c46	0.0004795512
179	0x3a6bd9b3	0.0008996978
180	0xb9007523	-0.00012250668
181	0xb9df91f5	-0.0004264262
182	0xb8859448	-6.369554e-05
183	0xb5e80500	-1.7286802e-06
184	0xb7dc467f	-2.6258871e-05
185	0x3842e598	4.646703e-05
186	0xb6851140	-3.965717e-06
187	0x38fdf6e0	0.00012109964
188	0xb74de440	-1.2272096e-05
189	0x37c0af40	2.296979e-05
190	0xb9ee5e0e	-0.00045464974
191	0x382bb27a	4.0935796e-05
192	0xb9bb8271	-0.00035764606
193	0xba00b9a0	-0.0004910473
194	0x3a079c5c	0.00051731407
195	0x399b9a7d	0.00029679007
196	0x38a01a0a	7.634245e-05
197	0xb9e63591	-0.0004390893
198	0x38abfa08	8.200487e-05
199	0xb9cf25aa	-0.0003951018
200	0xba33ad90	-0.0006854171
201	0x39aa9414	0.00032535254
202	0x39389c72	0.00017605888
203	0x3934ab41	0.00017229935
204	0x392f417c	0.00016713695
205	0xba078190	-0.00051691476
206	0x3a28a8d5	0.00064338493
207	0xba0ccff8	-0.0005371566
208	0x38cdfc00	9.8221004e-05
209	0xb97767f9	-0.00023594488
210	0xb864e327	-5.4570988e-05
211	0xb9ae18ae	-0.00033206254
212	0xba4c5419	-0.0007794514
213	0x3954f831	0.00020310354
214	0xb90bf8fe	-0.0001334883
215	0x389e43a4	7.546626e-05
216	0xb99f10bf	-0.0003033932
217	0x38f9792c	0.00011895815
218	0x3a256038	0.0006308588
219	0xb7de8880	-2.6528025e-05
220	0xb6637740	-3.3895049e-06
221	0xb7c2ed40	-2.323708e-05
222	0x395840f6	0.00020623565
223	0x38d12298	9.97234e-05
224	0xb87b2c00	-5.988404e-05
225	0x39c749e4	0.0003801129
226	0xb85ca98c	-5.260999e-05
227	0x3a133fcd	0.0005617112
228	0xb9528553	-0.00020076828
229	0xb73a3590	-1.1098935e-05
230	0x3989f4e2	0.00026313128
231	0xb7298dcd	-1.01062005e-05
232	0xba3fc026	-0.0007314704
233	0x3999ebd8	0.0002935815
234	0xb99c4011	-0.00029802372
235	0xb837190c	-4.3653927e-05
236	0xb832a735	-4.259423e-05
237	0x399bf340	0.0002974514
238	0x3a691eae	0.0008892816
239	0xb9a6f025	-0.0003184091
240	0xb94b228a	-0.00019372455
241	0xba0359f0	-0.0005010655
242	0xb9fadd06	-0.0004784839
243	0xb970155e	-0.00022896143
244	0x390ffde9	0.00013732132
245	0xb89865e3	-7.266903e-05
246	0x394f8884	0.00019791914
247	0xb8f90dfe	-0.000118758515
248	0xb996c152	-0.00028754264
249	0xba0b43a0	-0.0005312506
250	0x38dae620	0.00010437914
251	0xba096f48	-0.00052427175
252	0x3a5b12c6	0.00083569845
253	0x38bdc4a4	9.0488495e-05
254	0x390e70b9	0.00013584168
255	0x37e6f93e	2.7534199e-05
