flare-benchmarking/307a9d5g/checkpoints/epoch=93.ckpt (torch_old, 101059 bytes, 36 tensors)

exp_avg f4 [6]
0	0x3b63bc06	0.0034749522
1	0x3bc76988	0.0060855784
2	0xbab9018c	-0.0014114841
3	0x3b765ca8	0.0037591849
4	0x3bba732e	0.00569
5	0x3b0b6504	0.0021269927

exp_avg_sq f4 [6]
0	0x396978e3	0.00022265645
1	0x39e9e3cd	0.00044610948
2	0x3960fa89	0.00021455636
3	0x399c13fe	0.00029769534
4	0x39b6fe9d	0.00034903447
5	0x393f5c6a	0.00018249606

exp_avg f4 [64, 26]
0	0x3951dedc	0.00020014815
1	0x00000000	0.0
2	0xba83614e	-0.0010023506
3	0xb9273efe	-0.00015949828
4	0x00000000	0.0
5	0x3a21271e	0.00061474915
6	0x00000000	0.0
7	0xb8c23c2d	-9.2618495e-05
8	0xb7d34ae9	-2.5188043e-05
9	0x381f1895	3.7931448e-05
10	0x39200626	0.0001526108
11	0x38ce5f8a	9.840641e-05
12	0xb9f4f9b8	-0.00046725362
13	0xba140512	-0.00056465075
14	0xb8f9a532	-0.00011904015
15	0xb989008f	-0.00026131092
16	0x399c14ba	0.0002977008
17	0x373aa137	1.1124e-05
18	0x38d16227	9.984179e-05
19	0x3a65a790	0.00087606255
20	0xba4c84d8	-0.00078017777
21	0xb9a75ab7	-0.0003192031
22	0x39e44530	0.00043539098
23	0xb9d3c049	-0.0004038832
24	0x80000004	-6e-45
25	0x00000004	6e-45
26	0x39976edf	0.0002888357
27	0x00000000	0.0
28	0xba38f900	-0.0007056147
29	0xb9206855	-0.00015297656
30	0x00000000	0.0
31	0x3a06810f	0.00051309256
32	0x00000000	0.0
33	0xb813b1c0	-3.5213074e-05
34	0xb983cae2	-0.00025137427
35	0x3985fb81	0.00025555122
36	0xb9b0ca89	-0.00033720236
37	0xb95411f2	-0.0002022458
38	0xb8e9f983	-0.00011156781
39	0xb8cb3bd9	-9.690942e-05
40	0xb8e70cca	-0.000110173205
41	0x3857e40a	5.1472372e-05
42	0x39ab3fec	0.00032663287
43	0xba31e8ba	-0.0006786693
44	0x38fb9f48	0.00011998281
45	0x38c494d4	9.37373e-05
46	0xb9b5e1e1	-0.00034691303
47	0xb9311edd	-0.00016891533
48	0x38f2a714	0.0001157058
49	0xb961cfee	-0.00021535132
50	0x80000004	-6e-45
51	0x00000004	6e-45
52	0xb9b9858f	-0.0003538546
53	0x00000000	0.0
54	0xb919e5ec	-0.0001467687
55	0xba6d349e	-0.0009048673
56	0x00000000	0.0
57	0x3989e0f7	0.00026298288
58	0x00000000	0.0
59	0x3a087c0b	0.0005206472
60	0x382c89f4	4.1136474e-05
61	0xba715721	-0.00092064036
62	0xb9a6b689	-0.00031797987
63	0x3aa88946	0.0012858293
64	0xbabf71ec	-0.0014606095
65	0xbb12984c	-0.0022368608
66	0x39837026	0.00025069824
67	0x39fa426c	0.00047733204
68	0x3a8f0137	0.0010910396
69	0xba32f303	-0.00068263727
70	0x397f5caa	0.00024353215
71	0x3ac4cf40	0.0015015379
72	0x3abc34a0	0.0014358945
73	0x39626f30	0.0002159446
74	0x39cb508f	0.00038779198
75	0x3a29d130	0.000647801
76	0x00000004	6e-45
77	0x80000004	-6e-45
78	0xba051498	-0.0005076616
79	0x00000000	0.0
80	0xba0e592e	-0.0005430159
81	0xba24b190	-0.00062825624
82	0x00000000	0.0
83	0xb944cf62	-0.00018769273
84	0x00000000	0.0
85	0x3a568b92	0.000818425
86	0x38bfa1cb	9.137726e-05
87	0xbab286b7	-0.001362047
88	0xb8bf0754	-9.108955e-05
89	0x3ac12593	0.001473593
90	0xb9c03721	-0.00036662168
91	0xba63a959	-0.00086845976
92	0xba4d14e1	-0.00078232406
93	0x3a26d219	0.00063637045
94	0x3a2e70cd	0.0006654382
95	0xb9a385c7	-0.00031189455
96	0xbaa8ae8e	-0.0012869404
97	0x3ad9a347	0.0016604447
98	0x3b057700	0.002036512
99	0xb74d1e98	-1.2226075e-05
100	0x3a1c6585	0.00059660553
101	0x38ebbe0f	0.000112410744
102	0x80000004	-6e-45
103	0x80000004	-6e-45
104	0x38869749	6.417797e-05
105	0x00000000	0.0
106	0x3a10de02	0.0005526246
107	0x3a0bc2cd	0.0005331457
108	0x00000000	0.0
109	0xb9fa8264	-0.00047780864
110	0x00000000	0.0
111	0xb9a886bb	-0.0003214384
112	0x39db9d58	0.00041888165
113	0x3a2cb2ae	0.00065879046
114	0x39e44613	0.00043539758
115	0xba220d3b	-0.0006181781
116	0x3a8101d5	0.0009842465
117	0x3aa6cd22	0.0012725929
118	0xb9a863d1	-0.00032117826
119	0xb9851dcb	-0.00025389934
120	0xbaab39d0	-0.0013063494
121	0x3915e486	0.00014294879
122	0x388443a9	6.306853e-05
123	0xbabccec3	-0.0014404882
124	0xb9c91475	-0.0003835295
125	0x3816ae79	3.5925277e-05
126	0xb860a1c1	-5.3556407e-05
127	0xb9b211e6	-0.0003396414
128	0x00000004	6e-45
129	0x80000004	-6e-45
130	0x39b6e534	0.00034884515
131	0x00000000	0.0
132	0xba7f8208	-0.0009746854
133	0xb914bcc1	-0.00014184696
134	0x00000000	0.0
135	0x39f28d97	0.0004626333
136	0x00000000	0.0
137	0xb8627965	-5.3995656e-05
138	0xb9d5d2c4	-0.00040783559
139	0xb925a878	-0.00015798386
140	0xb9853f84	-0.0002541506
141	0x3a1ed77c	0.00060593314
142	0xba5dfa66	-0.0008467793
143	0x34aa7f27	3.1757483e-07
144	0xb953321d	-0.00020141197
145	0xba55989b	-0.0008148045
146	0x3a1ce9db	0.0005985775
147	0x3a8cdef0	0.0010747593
148	0xb9cae5e9	-0.0003869974
149	0x3ace1dba	0.0015725412
150	0xba3ece90	-0.0007278705
151	0xb98ceeae	-0.0002688071
152	0x36780919	3.6960175e-06
153	0x371d810e	9.387977e-06
154	0x80000004	-6e-45
155	0x00000004	6e-45
156	0x39d35d23	0.00040314448
157	0x00000000	0.0
158	0x3aae23b3	0.0013285786
159	0x3a9a8eff	0.0011791884
160	0x00000000	0.0
161	0xba4d4ffa	-0.0007832047
162	0x00000000	0.0
163	0xba877714	-0.0010335171
164	0xb7a5a051	-1.9744186e-05
165	0x3a7eca50	0.0009719478
166	0x3a2d398b	0.0006608001
167	0xbaf2057b	-0.0018464768
168	0x3b0a0a40	0.0021063238
169	0x3b3565dc	0.002767912
170	0x3a593043	0.00082850846
171	0xba37ee19	-0.00070163753
172	0xbb1ba0d8	-0.0023746993
173	0x39ea4bbb	0.00044688382
174	0x3a15d881	0.00057161605
175	0xbb73c2a1	-0.0037194865
176	0xbb10697c	-0.002203553
177	0xb805eef7	-3.1932224e-05
178	0xbaa807d0	-0.0012819711
179	0x39ade49f	0.00033167467
180	0x00000004	6e-45
181	0x00000004	6e-45
182	0xb94f5ae1	-0.00019774913
183	0x00000000	0.0
184	0x384a4a04	4.8229485e-05
185	0xb97101ba	-0.00022984194
186	0x00000000	0.0
187	0x39e8bde1	0.0004439196
188	0x00000000	0.0
189	0x39a63f22	0.00031709025
190	0xb904f5e0	-0.00012680097
191	0xb9934d0e	-0.00028095435
192	0xb919471b	-0.00014617706
193	0x3a00b46b	0.0004909697
194	0x38e76f34	0.000110356516
195	0xba6b2e1b	-0.0008971409
196	0x39813433	0.0002464369
197	0xb9f853a3	-0.0004736456
198	0x3a4d7027	0.00078368414
199	0x3a303c8a	0.0006722888
200	0x395c2bd7	0.00020997167
201	0x3a91abef	0.0011113862
202	0x39c2c164	0.0003714665
203	0x37bccf85	2.250798e-05
204	0x399be005	0.0002973081
205	0x3a1c3dca	0.0005960135
206	0x80000004	-6e-45
207	0x80000004	-6e-45
208	0x3a029d06	0.0004982505
209	0x00000000	0.0
210	0xbad0a191	-0.0015917291
211	0x3a515543	0.0007985422
212	0x00000000	0.0
213	0xba11679b	-0.00055467495
214	0x00000000	0.0
215	0xba2d8940	-0.0006619878
216	0x3a4edca3	0.0007891154
217	0x3a1fcfe3	0.0006096346
218	0x3a636478	0.0008674334
219	0x38c2c63a	9.2875634e-05
220	0xba069df0	-0.0005135229
221	0xb9b077f1	-0.000336587
222	0xbaaab6fa	-0.0013024502
223	0xb99281fe	-0.00027944142
224	0xbb0358d3	-0.0020041957
225	0x393ede6d	0.00018202672
226	0xba64d925	-0.0008729867
227	0xba656712	-0.00087510154
228	0xbafb0b5a	-0.0019153163
229	0xb9b728c8	-0.00034934864
230	0xb7da3249	-2.6011041e-05
231	0xbafab94d	-0.001912871
232	0x00000004	6e-45
233	0x80000004	-6e-45
234	0x39966812	0.00028687768
235	0x00000000	0.0
236	0xbb0691e7	-0.0020533742
237	0xb9c5e70c	-0.0003774691
238	0x00000000	0.0
239	0xb985774a	-0.00025456614
240	0x00000000	0.0
241	0xb9a64c5e	-0.00031718885
242	0x3a39cb55	0.0007087489
243	0xba7aff33	-0.0009574771
244	0x393687a4	0.00017407403
245	0x3a5599ce	0.0008148224
246	0xbb0d8378	-0.0021593254
247	0xbaa9e510	-0.0012961943
248	0xba95764c	-0.0011403053
249	0x3a916312	0.0011092147
250	0x39760977	0.00023463914
251	0xba802cf7	-0.0009779026
252	0xbb01c756	-0.0019802651
253	0x3b09e57b	0.0021041322
254	0x3936f185	0.00017446846
255	0xb9492548	-0.00019182742

exp_avg_sq f4 [64, 26]
0	0x3648822d	2.9878095e-06
1	0x00000000	0.0
2	0x382f31f1	4.1769763e-05
3	0x352068dc	5.9757235e-07
4	0x00000000	0.0
5	0x34c12daf	3.598229e-07
6	0x00000000	0.0
7	0x37a6f05f	1.9900674e-05
8	0x37c70bd1	2.3728151e-05
9	0x3528905e	6.279496e-07
10	0x380bd139	3.3335036e-05
11	0x359b392a	1.1565037e-06
12	0x37f18d33	2.879519e-05
13	0x35fffa6e	1.9071865e-06
14	0x38142cc1	3.532763e-05
15	0x35d3d52d	1.5782767e-06
16	0x36d48629	6.3337106e-06
17	0x36a0e911	4.795504e-06
18	0x37de53ce	2.6503487e-05
19	0x365a96fb	3.2572414e-06
20	0x380e0545	3.3860346e-05
21	0x35022773	4.848618e-07
22	0x35a24cca	1.2092289e-06
23	0x3811fdf4	3.4807206e-05
24	0x32f3b14c	2.8369548e-08
25	0x3341a9b2	4.509065e-08
26	0x36afc5e5	5.2384444e-06
27	0x00000000	0.0
28	0x389fc6e1	7.618755e-05
29	0x35936dd8	1.0984322e-06
30	0x00000000	0.0
31	0x355e7e30	8.288507e-07
32	0x00000000	0.0
33	0x38152a4a	3.5563753e-05
34	0x3835dc0e	4.3358705e-05
35	0x358dc3ff	1.0562361e-06
36	0x3878a857	5.9284586e-05
37	0x36048552	1.9747135e-06
38	0x385a6fff	5.2079555e-05
39	0x3663f77d	3.3969693e-06
40	0x3885270c	6.349207e-05
41	0x36660f27	3.428149e-06
42	0x373df57d	1.1322435e-05
43	0x3702cdba	7.796503e-06
44	0x3867e978	5.5292126e-05
45	0x36be12c7	5.664627e-06
46	0x38784888	5.9195358e-05
47	0x3502ed1e	4.8773825e-07
48	0x35c66ed4	1.4784405e-06
49	0x3879d3b2	5.9563383e-05
50	0x32c5fcdd	2.3048807e-08
51	0x333586fd	4.2265118e-08
52	0x3759a5bd	1.2972797e-05
53	0x00000000	0.0
54	0x3942d21c	0.00018579554
55	0x3610b4d3	2.1562926e-06
56	0x00000000	0.0
57	0x359e940d	1.1815006e-06
58	0x00000000	0.0
59	0x38b82622	8.7809065e-05
60	0x38dbc4ab	0.00010479366
61	0x3653702f	3.150675e-06
62	0x391c15ec	0.00014885486
63	0x36d91681	6.4697238e-06
64	0x390607fb	0.00012782209
65	0x3744604e	1.1704933e-05
66	0x3926f447	0.00015921994
67	0x3705ff65	7.986881e-06
68	0x37cde714	2.4545508e-05
69	0x37b4b5c7	2.1542319e-05
70	0x3908fd2f	0.00013064289
71	0x3776f6a3	1.4720167e-05
72	0x390fd3c5	0.00013716433
73	0x35790dec	9.277999e-07
74	0x36de276e	6.620706e-06
75	0x391992b9	0.00014645875
76	0x33fc0e2c	1.1737242e-07
77	0x33d78d87	1.0037461e-07
78	0x3791e931	1.7393935e-05
79	0x00000000	0.0
80	0x397bfe17	0.00024031881
81	0x36440453	2.9208793e-06
82	0x00000000	0.0
83	0x3616c48e	2.2466152e-06
84	0x00000000	0.0
85	0x38f73b53	0.00011788928
86	0x3912f65d	0.00014015422
87	0x365f01ab	3.323056e-06
88	0x394a8f84	0.00019317685
89	0x36e65b94	6.8651952e-06
90	0x392d2847	0.0001651357
91	0x378d7966	1.686504e-05
92	0x39584ad1	0.00020627237
93	0x37346ea5	1.07545975e-05
94	0x3820f406	3.8374237e-05
95	0x37d6f9b9	2.5627074e-05
96	0x393b1459	0.0001784129
97	0x3795822d	1.7822802e-05
98	0x394ba54b	0.00019421165
99	0x35f66c7a	1.8359999e-06
100	0x3768bbd4	1.387201e-05
101	0x39524ae2	0.00020055057
102	0x33bf82a7	8.917896e-08
103	0x33b5110d	8.431571e-08
104	0x3703be6b	7.852544e-06
105	0x00000000	0.0
106	0x38ec8cf4	0.000112796115
107	0x35a7c0ed	1.2498618e-06
108	0x00000000	0.0
109	0x356697a6	8.5902354e-07
110	0x00000000	0.0
111	0x3863245b	5.4154876e-05
112	0x3889e685	6.575607e-05
113	0x35d93de0	1.6185768e-06
114	0x38bf0f26	9.110411e-05
115	0x366b8a2a	3.509815e-06
116	0x38a45832	7.836557e-05
117	0x36cd55df	6.119473e-06
118	0x38ca5447	9.6478085e-05
119	0x36abc2aa	5.118859e-06
120	0x37816005	1.5422711e-05
121	0x37542cee	1.2646646e-05
122	0x38a07bb2	7.6524346e-05
123	0x3705f248	7.983828e-06
124	0x38b1ff27	8.4875435e-05
125	0x352e6934	6.497314e-07
126	0x3626de8e	2.4865471e-06
127	0x38ba7af1	8.892071e-05
128	0x32f5099d	2.8526125e-08
129	0x32da852a	2.5439096e-08
130	0x36a980fb	5.051608e-06
131	0x00000000	0.0
132	0x3898d119	7.286872e-05
133	0x359798c8	1.1294842e-06
134	0x00000000	0.0
135	0x354f494b	7.7220164e-07
136	0x00000000	0.0
137	0x380d19a6	3.3640907e-05
138	0x382695cb	3.971699e-05
139	0x3590541a	1.0753313e-06
140	0x386dbbb3	5.668001e-05
141	0x3601039e	1.9224603e-06
142	0x384f8c7e	4.948349e-05
143	0x365fd9b3	3.3356307e-06
144	0x3880a110	6.133516e-05
145	0x3641918a	2.8843956e-06
146	0x372fbcfc	1.0474814e-05
147	0x370969db	8.190483e-06
148	0x38484fe1	4.775811e-05
149	0x36cf7c97	6.183585e-06
150	0x386c11cf	5.628337e-05
151	0x352648e3	6.1945883e-07
152	0x3606bf0b	2.0078758e-06
153	0x3875c4c4	5.8595804e-05
154	0x32da5cb0	2.542069e-08
155	0x331710a5	3.5172565e-08
156	0x37f8073e	2.9567276e-05
157	0x00000000	0.0
158	0x39db7e47	0.0004186502
159	0x3691d6a9	4.3463265e-06
160	0x00000000	0.0
161	0x361777ec	2.2570557e-06
162	0x00000000	0.0
163	0x3953fe5e	0.00020217287
164	0x397a1942	0.00023851267
165	0x36bd0c1d	5.634049e-06
166	0x39afaa38	0.00033505424
167	0x373fc5d9	1.1430552e-05
168	0x39940ea3	0.00028239665
169	0x37c2f273	2.3239501e-05
170	0x39ba94e0	0.00035587605
171	0x37843ae4	1.576305e-05
172	0x3870698b	5.7318754e-05
173	0x3825f2a7	3.9565053e-05
174	0x399428a5	0.00028259042
175	0x37d4b07a	2.5354548e-05
176	0x39a67bdf	0.00031754278
177	0x35efe770	1.7874245e-06
178	0x37376356	1.0930778e-05
179	0x39aff1e6	0.0003355883
180	0x33ad793c	8.077993e-08
181	0x33f1b49e	1.1255291e-07
182	0x35c448f9	1.4624376e-06
183	0x00000000	0.0
184	0x37a640bd	1.9818888e-05
185	0x3499dc87	2.8658926e-07
186	0x00000000	0.0
187	0x3481a183	2.4145638e-07
188	0x00000000	0.0
189	0x37210c89	9.599266e-06
190	0x374a0401	1.20410705e-05
191	0x350c59d1	5.2284764e-07
192	0x3787f45c	1.6207043e-05
193	0x35821351	9.691377e-07
194	0x3761e317	1.3463919e-05
195	0x35f00d7d	1.7885319e-06
196	0x378ed922	1.702883e-05
197	0x358b57ea	1.0381893e-06
198	0x365ef5eb	3.322372e-06
199	0x36717551	3.5980086e-06
200	0x374693a1	1.1836092e-05
201	0x3630765f	2.6294945e-06
202	0x3789e932	1.6440263e-05
203	0x350731f1	5.0364093e-07
204	0x3555e54d	7.968236e-07
205	0x37897bd7	1.638934e-05
206	0x336b08a6	5.4723067e-08
207	0x3344d9be	4.583284e-08
208	0x3711985f	8.67815e-06
209	0x00000000	0.0
210	0x38ff6702	0.00012178534
211	0x36022832	1.9394906e-06
212	0x00000000	0.0
213	0x358fad75	1.0704813e-06
214	0x00000000	0.0
215	0x3879c9b2	5.955407e-05
216	0x38967fc2	7.176354e-05
217	0x361a7b45	2.301954e-06
218	0x38d0718d	9.9393634e-05
219	0x369ecc68	4.732563e-06
220	0x38b0c104	8.428286e-05
221	0x36d8c0b3	6.459735e-06
222	0x38dc1e04	0.00010496008
223	0x36b64f47	5.4332518e-06
224	0x37976c9f	1.8051183e-05
225	0x374e6dc6	1.2304115e-05
226	0x38b50cc5	8.633131e-05
227	0x371aa0d3	9.21656e-06
228	0x38c4db5d	9.386868e-05
229	0x35482432	7.4558477e-07
230	0x368928fd	4.08769e-06
231	0x38d1709c	9.986872e-05
232	0x327600d3	1.4319272e-08
233	0x32691472	1.3567034e-08
234	0x3716b5a1	8.9829855e-06
235	0x00000000	0.0
236	0x390699db	0.00012836551
237	0x35b8a49b	1.3756975e-06
238	0x00000000	0.0
239	0x35810557	9.612803e-07
240	0x00000000	0.0
241	0x38809298	6.130821e-05
242	0x3899a83d	7.326945e-05
243	0x35e4ac09	1.7037393e-06
244	0x38d8e010	0.000103414175
245	0x36888f27	4.069781e-06
246	0x38bb41b9	8.929097e-05
247	0x36ee2c31	7.0980973e-06
248	0x38e65b87	0.00010984303
249	0x36df6e44	6.6587545e-06
250	0x378eece3	1.7038028e-05
251	0x378b8fb0	1.6637001e-05
252	0x38b8dc92	8.814888e-05
253	0x37025057	7.767309e-06
254	0x38cc8648	9.75249e-05
255	0x353d382e	7.048974e-07

exp_avg f4 [64]
0	0xba83614b	-0.0010023502
1	0xba38f8f2	-0.0007056139
2	0xb919e8c2	-0.00014677926
3	0xba0e58e7	-0.00054301176
4	0x3a10ddd4	0.0005526219
5	0xba7f8202	-0.00097468507
6	0x3aae23da	0.0013285831
7	0x384a48a7	4.8228216e-05
8	0xbad0a1a0	-0.0015917309
9	0xbb0691ca	-0.0020533674
10	0x3ab09061	0.0013470763
11	0xba5f7f3f	-0.0008525736
12	0xb9ad33d5	-0.0003303575
13	0xb9f865f8	-0.0004737822
14	0x3a690b00	0.0008889884
15	0xba90a040	-0.0011034086
16	0xba9fd043	-0.0012192804
17	0x39edd053	0.00045359376
18	0xb9ab10a2	-0.00032628054
19	0xbb1b0579	-0.0023654385
20	0x3a3d497a	0.00072207267
21	0x3ab5b7c7	0.0013863974
22	0xb8ce03ce	-9.823554e-05
23	0x3a4a3868	0.00077140937
24	0xbad4387a	-0.0016191148
25	0x3ac1dff8	0.0014791479
26	0x3a79a5e3	0.0009523315
27	0x39720052	0.00023079038
28	0xbb28e94f	-0.0025773828
29	0xba55ca3d	-0.0008155441
30	0xb9a71bbe	-0.00031873392
31	0xba99f4b0	-0.0011745896
32	0xba5013b0	-0.0007937504
33	0xb94ea52b	-0.00019707221
34	0xbb6635b0	-0.0035127215
35	0x3b0e8885	0.0021748852
36	0xbab586a4	-0.001384933
37	0xba2982bf	-0.0006466321
38	0xba9d8e9a	-0.0012020648
39	0x3975f326	0.000234556
40	0x3ab4a544	0.0013782163
41	0x398ef2af	0.00027265164
42	0x3a3cbee6	0.0007200077
43	0x3986531e	0.000256204
44	0x3a10d48b	0.00055248354
45	0xbb1897ce	-0.0023283842
46	0xba35675b	-0.0006920003
47	0x3846f4fa	4.743503e-05
48	0xb8a48734	-7.845313e-05
49	0xba88278c	-0.0010387762
50	0x3aa6908c	0.0012707873
51	0x3a61a21d	0.00086072256
52	0xba1e36e5	-0.00060354016
53	0x3a6990de	0.00089098315
54	0x3aa2714c	0.0012393384
55	0x3abbe5ec	0.001433549
56	0xba556a71	-0.0008141166
57	0x3a01b093	0.0004947271
58	0x3a3476cb	0.00068841566
59	0xbaa248af	-0.001238128
60	0x39ef783f	0.00045675223
61	0xb90b9ce4	-0.0001331452
62	0x3ad5d10a	0.0016312909
63	0x3a8fb762	0.0010964687

exp_avg_sq f4 [64]
0	0x382f31f1	4.1769763e-05
1	0x389fc6e3	7.618756e-05
2	0x3942d21e	0.00018579556
3	0x397bfe19	0.00024031884
4	0x38ec8cfa	0.00011279616
5	0x3898d117	7.286871e-05
6	0x39db7e46	0.00041865016
7	0x37a640bf	1.9818892e-05
8	0x38ff670d	0.00012178542
9	0x390699da	0.0001283655
10	0x388e6998	6.790756e-05
11	0x381c65c9	3.7288093e-05
12	0x39072e02	0.00012891743
13	0x37b3406f	2.1368467e-05
14	0x37d96cbc	2.591905e-05
15	0x388202e0	6.1994186e-05
16	0x38f894cc	0.00011853277
17	0x38511a00	4.9853697e-05
18	0x388b0d9b	6.630571e-05
19	0x38731804	5.795808e-05
20	0x39f68118	0.0004701696
21	0x38b2999d	8.516314e-05
22	0x39803d46	0.00024459715
23	0x37933d5d	1.755234e-05
24	0x38318d50	4.2331696e-05
25	0x38341661	4.2936186e-05
26	0x37d7a604	2.5707304e-05
27	0x36cd589d	6.119792e-06
28	0x391c9d9a	0.0001493603
29	0x388b6b41	6.648014e-05
30	0x35bec675	1.4213862e-06
31	0x399445a3	0.00028280643
32	0x3714a9f0	8.861054e-06
33	0x393600cb	0.00017357168
34	0x3912abbe	0.00013987624
35	0x398f4b15	0.00027331026
36	0x37692400	1.3896264e-05
37	0x3837955f	4.3769713e-05
38	0x3980eb35	0.00024589305
39	0x3703f596	7.865388e-06
40	0x38437e0f	4.6609024e-05
41	0x3901e008	0.00012385857
42	0x3818150c	3.6259225e-05
43	0x3827c7f2	4.0002116e-05
44	0x389b84dd	7.415724e-05
45	0x38bacfcc	8.907876e-05
46	0x370829fa	8.116005e-06
47	0x37591ea9	1.29413465e-05
48	0x382eac8a	4.1645522e-05
49	0x3895a964	7.136425e-05
50	0x37967898	1.793755e-05
51	0x3825e1f7	3.954951e-05
52	0x38052f42	3.1753683e-05
53	0x36fb9fe0	7.498995e-06
54	0x38316b59	4.2300064e-05
55	0x377249e0	1.4441524e-05
56	0x388c0e6f	6.678409e-05
57	0x38bf5d27	9.124941e-05
58	0x3912c49b	0.00013996886
59	0x38b923a8	8.828129e-05
60	0x38aaed95	8.150485e-05
61	0x37e77a05	2.7594166e-05
62	0x3871ece7	5.767951e-05
63	0x38baccf3	8.907346e-05

exp_avg f4 [32, 64]
0	0xb92b1d77	-0.00016318807
1	0x394fb27a	0.00019807546
2	0x3845f345	4.7195022e-05
3	0x393a9c35	0.00017796534
4	0x38981278	7.251365e-05
5	0xb989ec77	-0.00026306856
6	0xb9d69e69	-0.00040935286
7	0xb9af466e	-0.00033431075
8	0xb9bc3e8f	-0.00035904764
9	0x39019e4f	0.00012361373
10	0xb9d0f51d	-0.00039855475
11	0x39157fa0	0.00014257291
12	0xb90deee3	-0.000135358
13	0xb8abcbfc	-8.1919105e-05
14	0x3863a1a4	5.4271557e-05
15	0x3a08983d	0.00052106736
16	0xb96b3baf	-0.0002243358
17	0xb760203c	-1.3358946e-05
18	0xba3199c7	-0.0006774929
19	0xb6305dd1	-2.6280652e-06
20	0x3984ab48	0.00025304616
21	0xb867ed7a	-5.529586e-05
22	0xb8c85ebd	-9.5543895e-05
23	0xb9b0bf46	-0.00033711846
24	0xb9dc21e1	-0.00041986912
25	0x398fb29c	0.0002740816
26	0x391e2dfb	0.00015085183
27	0x3a16a48d	0.0005746566
28	0xb9cd8bf4	-0.0003920492
29	0x36b4e3d3	5.3909403e-06
30	0x39d01d64	0.0003969475
31	0xb99cb00a	-0.00029885798
32	0x36c54c6f	5.8799556e-06
33	0x3874bfef	5.8352885e-05
34	0xb9dde6c2	-0.00042324333
35	0x391f8a64	0.00015214976
36	0x3a53681e	0.0008064526
37	0x3971ed32	0.00023071913
38	0xb80ed34a	-3.4052217e-05
39	0x39918e56	0.00027762604
40	0x3981937d	0.00024714685
41	0x39289487	0.00016077059
42	0x3961c945	0.00021532651
43	0x3954b5e0	0.00020285649
44	0xb91c84ce	-0.00014926793
45	0xb96d797b	-0.00022647336
46	0xba967cd1	-0.001148129
47	0xb9d8007d	-0.00041199094
48	0xb84a3a4b	-4.8214843e-05
49	0xb90ffc8d	-0.00013731625
50	0x39bf6efb	0.00036513046
51	0x3955ce1e	0.00020390048
52	0x3947361d	0.00018998278
53	0x3a0cd888	0.0005372842
54	0xb998fac0	-0.00029178523
55	0x3971c189	0.00023055648
56	0x392c184d	0.00016412251
57	0xb901bd67	-0.00012372957
58	0xb9cb73d3	-0.00038805473
59	0xb9551bd0	-0.00020323624
60	0xb6743adb	-3.6393092e-06
61	0x38f424a7	0.00011641654
62	0x390a392d	0.00013182005
63	0x3928fd0c	0.00016115996
64	0xb794ba83	-1.7729826e-05
65	0x39865bdb	0.0002562691
66	0xb8231aa2	-3.8887032e-05
67	0x386cfaad	5.6500245e-05
68	0xb7abab69	-2.0464608e-05
69	0x397450fb	0.00023299821
70	0xb96ab274	-0.00022382458
71	0xb9152e00	-0.00014226884
72	0xb94a2c22	-0.00019280662
73	0x398d3391	0.00026932036
74	0xba1abac8	-0.00059024664
75	0x3979a262	0.00023806983
76	0xb7aedfd1	-2.0846639e-05
77	0x3822e5a1	3.883767e-05
78	0x39a70e03	0.00031863162
79	0x3a050dce	0.00050756044
80	0xb94728e8	-0.00018993358
81	0x3944e492	0.00018777166
82	0xba313a0f	-0.00067606656
83	0x39aefe33	0.0003337726
84	0x37b2d214	2.1317079e-05
85	0x37d3e2a2	2.5258694e-05
86	0x3925380d	0.00015756507
87	0xba0eb2f3	-0.00054435356
88	0xb8e050fd	-0.000106962376
89	0xb7cf82f3	-2.4737301e-05
90	0xb902f1a9	-0.00012487792
91	0x39d0def5	0.00039838967
92	0x388fd9ab	6.859315e-05
93	0x38b769f2	8.745854e-05
94	0x3a08b1a8	0.0005214461
95	0xb726c3ba	-9.939942e-06
96	0x39f6c89f	0.0004707025
97	0x39ae067a	0.00033192692
98	0xb97797a6	-0.00023612249
99	0xb923ea59	-0.00015632193
100	0x3a0e46b9	0.00054274086
101	0x39d9e4d8	0.00041559967
102	0xb8de606f	-0.00010603747
103	0xb9401657	-0.00018318869
104	0x3894f8bb	7.1035196e-05
105	0x38b2721b	8.508955e-05
106	0x392f7861	0.00016734145
107	0x39d796df	0.00041120403
108	0x3975a48c	0.00023426319
109	0xb92ca2d4	-0.00016463856
110	0xbaa3838a	-0.0012475115
111	0xb98e1c5d	-0.00027105483
112	0xb9ab1e76	-0.00032638357
113	0x39814668	0.00024657254
114	0x3934a0f5	0.00017226099
115	0xb7d8f780	-2.5864458e-05
116	0xb854fbd0	-5.0779257e-05
117	0x399c7adc	0.00029846176
118	0xb861baec	-5.3818265e-05
119	0xb8a27f11	-7.74843e-05
120	0x3a273d0f	0.0006379643
121	0xb9ea99cd	-0.00044746549
122	0xb99595d5	-0.00028531128
123	0xb8f31523	-0.0001159108
124	0x372df66e	1.036898e-05
125	0x35e49fef	1.703387e-06
126	0x37bcd856	2.2512086e-05
127	0x38fecdca	0.00012149995
128	0xb9317096	-0.00016921977
129	0x39e4d1e1	0.0004364392
130	0xb93a3525	-0.0001775814
131	0xb98b65b9	-0.00026587935
132	0xb92f92fd	-0.00016744058
133	0xb98e036e	-0.00027086906
134	0xb89f6cc1	-7.601968e-05
135	0x3925f03c	0.0001582512
136	0x385fb31a	5.3334144e-05
137	0x396eea91	0.00022784832
138	0xb9d9c966	-0.0004153952
139	0x39802cdf	0.00024447494
140	0x3897ed10	7.2443974e-05
141	0x397843cd	0.00023676381
142	0x3894392a	7.0678376e-05
143	0x3a3b92a0	0.0007155333
144	0xb894f935	-7.1036084e-05
145	0xb9936258	-0.00028111297
146	0xb9f83e31	-0.00047348582
147	0x3a140173	0.0005645968
148	0x38b76e68	8.746685e-05
149	0xb9e4d680	-0.00043647364
150	0xb945f807	-0.00018879781
151	0xba41ad93	-0.00073882303
152	0x37d91458	2.587789e-05
153	0x38d1ea7e	0.00010009574
154	0xb79e8bbc	-1.8900137e-05
155	0x3a8c3327	0.0010696397
156	0x39c9207b	0.00038361907
157	0x3906ffd8	0.00012874545
158	0x3a29febe	0.0006484798
159	0xb9897643	-0.00026218788
160	0x3a4fce87	0.00079271983
161	0x3912042b	0.00013925198
162	0x3970804f	0.00022935982
163	0x390da08a	0.00013506613
164	0x39b20412	0.00033953838
165	0x3a8982fc	0.0010491307
166	0x393b28b8	0.00017848879
167	0x391622cb	0.00014318076
168	0xb908caea	-0.00013045562
169	0xb8b71428	-8.7298744e-05
170	0x39e9588a	0.0004450719
171	0x3a2bc23e	0.00065520767
172	0x3a72bf43	0.00092600676
173	0xb92aeff2	-0.0001630185
174	0xbb2b26b7	-0.0026115605
175	0xba00493c	-0.0004893725
176	0xba1117ce	-0.0005534858
177	0x3974660a	0.00023307666
178	0x3ad891f6	0.0016522992
179	0xb994acf9	-0.00028357634
180	0x3a00a466	0.000490731
181	0x3a152fe1	0.00056910334
182	0xba3a9fe3	-0.0007119162
183	0xba04c201	-0.0005064309
184	0x39e5106d	0.00043690522
185	0xb9af56b5	-0.00033443203
186	0xb9cb3c26	-0.0003876399
187	0x383fa7f0	4.5694353e-05
188	0xb9ba71c3	-0.00035561444
189	0x39e95ea4	0.00044511736
190	0xb750bd67	-1.2441865e-05
191	0x39944b97	0.0002828508
192	0xb9ace2b1	-0.00032975295
193	0x3a4f6d92	0.00079127506
194	0xba44e3e6	-0.0007510766
195	0xb93d9c20	-0.00018082606
196	0x398eb472	0.00027218793
197	0xb986b75c	-0.00025695085
198	0x390cd9ff	0.0001343265
199	0xba9831f8	-0.0011611572
200	0xb788fb88	-1.6329592e-05
201	0x381dc5cd	3.7615933e-05
202	0xba10587d	-0.000550635
203	0x398c8cce	0.00026807789
204	0x39907c0e	0.00027558248
205	0x3a07c846	0.00051796844
206	0x399d2c98	0.00029978598
207	0x3949e2e5	0.00019253379
208	0xba306a7d	-0.0006729735
209	0x39802281	0.0002443977
210	0xba783c8f	-0.0009469473
211	0x3877b90e	5.9061735e-05
212	0x39e53a3e	0.00043721678
213	0x39976892	0.00028878875
214	0xb9dfc1a3	-0.00042678145
215	0xbac562f9	-0.0015059403
216	0xb9c8531b	-0.0003820889
217	0xb915b81d	-0.00014278335
218	0xba1cef2d	-0.00059865677
219	0x39c38d36	0.0003729851
220	0x38c95927	9.601033e-05
221	0x39d1841a	0.0003996201
222	0x3adff49d	0.001708645
223	0xb8ace798	-8.244737e-05
224	0x3a74fc89	0.0009345492
225	0x396484f8	0.00021793309
226	0xb9a65cd2	-0.00031731144
227	0x399eed5f	0.00030312964
228	0x399a5a99	0.0002944067
229	0x3a00376c	0.0004891071
230	0x390ca396	0.00013412381
231	0x3a0b4266	0.00053123233
232	0x3a3206f9	0.00067912
233	0xba0860a0	-0.00052023865
234	0x39ab6605	0.00032691672
235	0x3a02f988	0.00049962895
236	0xb8b9dad9	-8.862251e-05
237	0xb9d6ae00	-0.000409469
238	0xb9f1db23	-0.00046130372
239	0xb86234ce	-5.3931777e-05
240	0xb976b7c4	-0.00023528846
241	0xba44e8d2	-0.00075114996
242	0x3a03d3ce	0.0005028815
243	0xb9683226	-0.00022143926
244	0xb8ceeb35	-9.866656e-05
245	0x398be776	0.00026684598
246	0xb96db4bb	-0.00022669409
247	0xba1d0a21	-0.0005990584
248	0x3a3c0fca	0.00071739836
249	0xb9a0ec18	-0.00030693482
250	0x38e5ae63	0.00010952053
251	0xb8921be2	-6.967016e-05
252	0x38b97440	8.843141e-05
253	0xb96bc56e	-0.00022484895
254	0xb81e3d3d	-3.7727168e-05
255	0x3a039321	0.00050191773

exp_avg_sq f4 [32, 64]
0	0x36bc4ecc	5.6120098e-06
1	0x37c76fd8	2.377473e-05
2	0x3788046d	1.6214524e-05
3	0x369be9c8	4.6465757e-06
4	0x36bbee97	5.60081e-06
5	0x37c91cbb	2.3974446e-05
6	0x365f7088	3.3295091e-06
7	0x38048e68	3.160388e-05
8	0x363e8fc2	2.8395884e-06
9	0x3684fe1d	3.9634892e-06
10	0x371dafd2	9.398866e-06
11	0x36b0be93	5.2673945e-06
12	0x3689fe77	4.112542e-06
13	0x376f0caf	1.4248463e-05
14	0x36e91957	6.946891e-06
15	0x3781c4bc	1.546961e-05
16	0x370f8c75	8.556167e-06
17	0x36daf417	6.525322e-06
18	0x37e2850e	2.7003258e-05
19	0x36a7caae	5.000583e-06
20	0x36f01f81	7.156225e-06
21	0x3691f82d	4.350228e-06
22	0x374ef786	1.2336188e-05
23	0x38a164f3	7.6958815e-05
24	0x375e19dc	1.3238252e-05
25	0x362453be	2.4486649e-06
26	0x3641edc6	2.8897643e-06
27	0x38611c76	5.3670687e-05
28	0x35d77084	1.6051495e-06
29	0x37866089	1.6018997e-05
30	0x38b3df95	8.5770305e-05
31	0x368f70d8	4.274869e-06
32	0x382f2946	4.176169e-05
33	0x360e2f2b	2.1187104e-06
34	0x368d5563	4.212068e-06
35	0x3726b25e	9.9359e-06
36	0x37ece531	2.8240118e-05
37	0x382532be	3.9386323e-05
38	0x365c54d7	3.2831938e-06
39	0x3877b898	5.9061305e-05
40	0x37a7ab70	1.9987783e-05
41	0x3634c825	2.693859e-06
42	0x37943e61	1.7672022e-05
43	0x378b87de	1.663336e-05
44	0x36dbb265	6.5474765e-06
45	0x35db5232	1.6340693e-06
46	0x38c3839c	9.322839e-05
47	0x37b07062	2.1033167e-05
48	0x374059f5	1.1465037e-05
49	0x37fb911b	2.9989102e-05
50	0x38911372	6.917761e-05
51	0x36aefe21	5.2151886e-06
52	0x37328fb2	1.0643083e-05
53	0x37b8e79e	2.2042364e-05
54	0x37de068f	2.6467516e-05
55	0x37ceb4f8	2.4641384e-05
56	0x36faea78	7.4778764e-06
57	0x36f32452	7.2461926e-06
58	0x377a577e	1.4921532e-05
59	0x36afd922	5.240684e-06
60	0x35ca55d0	1.5075148e-06
61	0x37138054	8.7917615e-06
62	0x3602058b	1.9374736e-06
63	0x37268ae1	9.926706e-06
64	0x35de0cf6	1.6544061e-06
65	0x36ed1549	7.0656283e-06
66	0x3690ae80	4.311849e-06
67	0x35c08903	1.434499e-06
68	0x35e05bb9	1.6715995e-06
69	0x36d710d4	6.4094584e-06
70	0x35900fa4	1.0733388e-06
71	0x37151dfa	8.8880715e-06
72	0x35825406	9.710209e-07
73	0x358e1dba	1.0588476e-06
74	0x36318f78	2.6458565e-06
75	0x35cb7179	1.5157704e-06
76	0x359a2fdc	1.1487823e-06
77	0x3688440a	4.0610366e-06
78	0x3603acba	1.9621061e-06
79	0x36856616	3.9755932e-06
80	0x361d94ad	2.3481364e-06
81	0x360e713a	2.1225555e-06
82	0x371274b0	8.729447e-06
83	0x35c862ab	1.4929877e-06
84	0x36171339	2.2511942e-06
85	0x35da6fa9	1.6274763e-06
86	0x367d8664	3.7778163e-06
87	0x37b4d4ad	2.1556707e-05
88	0x3679d2ad	3.722652e-06
89	0x354948e5	7.498441e-07
90	0x356005b5	8.345481e-07
91	0x376cfaba	1.4125073e-05
92	0x34f2fa07	4.5257931e-07
93	0x369c320a	4.6549876e-06
94	0x37c7fffa	2.3841847e-05
95	0x359f58ec	1.1872303e-06
96	0x374bd999	1.2150406e-05
97	0x35463b7b	7.3847303e-07
98	0x35bd595c	1.4107604e-06
99	0x36384b91	2.7462122e-06
100	0x370281cb	7.778824e-06
101	0x372b68c6	1.0216789e-05
102	0x3585c166	9.965559e-07
103	0x378b1b1a	1.6582711e-05
104	0x36bbd2a4	5.597556e-06
105	0x3544183f	7.305097e-07
106	0x36b46217	5.375837e-06
107	0x369d713e	4.6921477e-06
108	0x3612a4d3	2.1851636e-06
109	0x350015eb	4.771561e-07
110	0x37d7ab2d	2.5709707e-05
111	0x36c0f7ce	5.750894e-06
112	0x36797f0b	3.717784e-06
113	0x370cc6f1	8.39097e-06
114	0x379c53c7	1.8635661e-05
115	0x35f91425	1.8557809e-06
116	0x36486550	2.9861294e-06
117	0x36d09fb4	6.217475e-06
118	0x36f39bd1	7.2601038e-06
119	0x36e95b01	6.9545354e-06
120	0x361df39a	2.3536618e-06
121	0x36163d3f	2.2387392e-06
122	0x3683b617	3.9253023e-06
123	0x35ee2e10	1.7745788e-06
124	0x350f55bd	5.3396417e-07
125	0x36220cc6	2.4147316e-06
126	0x352e88c1	6.5019054e-07
127	0x36443947	2.9239616e-06
128	0x36918971	4.337337e-06
129	0x37a4aa8c	1.962974e-05
130	0x374c8b80	1.2191827e-05
131	0x368b0a8c	4.1437506e-06
132	0x36981181	4.5319907e-06
133	0x37904f67	1.7203112e-05
134	0x36450efd	2.9364012e-06
135	0x37cc3ed9	2.434796e-05
136	0x362c2f0b	2.565738e-06
137	0x367be2a3	3.7533835e-06
138	0x36ee5863	7.1032423e-06
139	0x3698b632	4.5511633e-06
140	0x366bb988	3.5125722e-06
141	0x374997b3	1.2015854e-05
142	0x36babf2f	5.5654887e-06
143	0x3743af38	1.1663702e-05
144	0x36e97d6d	6.9585426e-06
145	0x36bfac65	5.712313e-06
146	0x37d0f1ce	2.4908131e-05
147	0x36aa3f13	5.0737376e-06
148	0x36d604bd	6.3782486e-06
149	0x3691ccf0	4.3451946e-06
150	0x37370db3	1.091084e-05
151	0x387f7020	6.0901162e-05
152	0x3728306e	1.0024856e-05
153	0x35dfd37b	1.6676344e-06
154	0x361c073d	2.3250025e-06
155	0x382796e0	3.9956416e-05
156	0x35e6ab95	1.7186272e-06
157	0x3759c776	1.29806485e-05
158	0x388c8f95	6.7024645e-05
159	0x3668f388	3.4712448e-06
160	0x38150f55	3.5538647e-05
161	0x360cf2ae	2.1002884e-06
162	0x3688e44e	4.079694e-06
163	0x36f99ad0	7.438801e-06
164	0x37af4524	2.0893822e-05
165	0x37f81f21	2.95784e-05
166	0x366142b5	3.3566441e-06
167	0x38425e52	4.6341047e-05
168	0x37820a4c	1.5502002e-05
169	0x361b530f	2.3145146e-06
170	0x3775e347	1.4656055e-05
171	0x37622357	1.3478878e-05
172	0x36c7a158	5.949445e-06
173	0x35c3ff43	1.4602923e-06
174	0x3895afaa	7.137594e-05
175	0x3785f307	1.5968004e-05
176	0x3739676e	1.1050941e-05
177	0x37ba628b	2.2218816e-05
178	0x385ac49c	5.2158357e-05
179	0x36a2c2cd	4.850654e-06
180	0x37054ba9	7.945034e-06
181	0x378e7f6e	1.6987058e-05
182	0x37a5f59d	1.9783905e-05
183	0x37a656e1	1.9829198e-05
184	0x36e566c2	6.8366944e-06
185	0x36e1025d	6.7057977e-06
186	0x3736b3c7	1.0889903e-05
187	0x36bfa57a	5.7115076e-06
188	0x35dee7f7	1.66078e-06
189	0x36e886ee	6.9298467e-06
190	0x361b7563	2.3165128e-06
191	0x3704a6f9	7.9066895e-06
192	0x36a1895c	4.8141646e-06
193	0x37b7987d	2.1886308e-05
194	0x37763502	1.46750845e-05
195	0x36729d2a	3.6152292e-06
196	0x36a7cf20	5.0011004e-06
197	0x37ad97fc	2.069398e-05
198	0x363d6de8	2.8227169e-06
199	0x37f35985	2.9009543e-05
200	0x36211558	2.4003293e-06
201	0x36812878	3.8492108e-06
202	0x371060bc	8.605592e-06
203	0x36a1e8e0	4.825284e-06
204	0x36786541	3.7013817e-06
205	0x375e32de	1.3244075e-05
206	0x36d07526	6.212521e-06
207	0x376129d2	1.3420782e-05
208	0x3701ba3a	7.732358e-06
209	0x36c01314	5.724267e-06
210	0x37ddb64e	2.6430145e-05
211	0x3694dbfa	4.4363524e-06
212	0x36da3571	6.5031277e-06
213	0x367857d0	3.7005993e-06
214	0x374373e9	1.1649893e-05
215	0x38982293	7.254365e-05
216	0x374677ce	1.1829614e-05
217	0x35e85cdf	1.7312376e-06
218	0x36094b80	2.0458538e-06
219	0x384c8369	4.8759775e-05
220	0x35995ad7	1.1425826e-06
221	0x377bc36a	1.5006264e-05
222	0x38a89f91	8.040586e-05
223	0x365fa215	3.3323934e-06
224	0x3827ddfd	4.0022645e-05
225	0x35edc816	1.7716109e-06
226	0x36744f33	3.6404933e-06
227	0x370a4dd4	8.243562e-06
228	0x37d3c012	2.52426e-05
229	0x3815352b	3.5573885e-05
230	0x364a273d	3.0123185e-06
231	0x3866c929	5.502362e-05
232	0x3797e25a	1.8106006e-05
233	0x36156964	2.2264076e-06
234	0x37807d80	1.531723e-05
235	0x3780190e	1.5270456e-05
236	0x36d97337	6.4805167e-06
237	0x35ad28ed	1.2901415e-06
238	0x38b3c614	8.57228e-05
239	0x37a012d8	1.9082261e-05
240	0x374004a1	1.144517e-05
241	0x37e05b39	2.674536e-05
242	0x3882f10f	6.243784e-05
243	0x36936a80	4.3933396e-06
244	0x3717cfaf	9.0486565e-06
245	0x37a90ac5	2.0151385e-05
246	0x37c64f97	2.3640501e-05
247	0x37c2e0bc	2.3231252e-05
248	0x36f47757	7.2856596e-06
249	0x36ec78d2	7.0474134e-06
250	0x3761f373	1.34677275e-05
251	0x36a95f47	5.047684e-06
252	0x35c3d85d	1.4591602e-06
253	0x36f5db00	7.327064e-06
254	0x35cd8558	1.5312498e-06
255	0x371926f4	9.12858e-06

exp_avg f4 [32]
0	0x3a1847d4	0.0005809043
1	0x3a35e797	0.00069391116
2	0x3a24cf3b	0.0006286983
3	0x3b1e0199	0.002410984
4	0x382a96b7	4.0671523e-05
5	0x383080d8	4.2081665e-05
6	0xba14b0e0	-0.00056721084
7	0x3a9a0b1a	0.0011752576
8	0xb9079fe6	-0.0001293417
9	0xbb5807c8	-0.0032963622
10	0xba687038	-0.00088668196
11	0xba5802d0	-0.0008240165
12	0xbac7cd9d	-0.0015243773
13	0xba7c789f	-0.0009631011
14	0x3ac90fb4	0.0015339763
15	0xb8957789	-7.127139e-05
16	0x3a0559ae	0.00050869107
17	0xb9e25c13	-0.0004317468
18	0xbac52310	-0.0015040357
19	0x3743472d	1.1639478e-05
20	0xbb226a7e	-0.0024782713
21	0x3ae51637	0.0017477934
22	0x3a5cf2eb	0.00084285316
23	0x3aab8f27	0.0013088927
24	0x3a90a7af	0.0011036302
25	0xbacbe765	-0.0015556632
26	0xba9f7ad9	-0.0012167349
27	0x3949248a	0.00019182466
28	0xbac3aec6	-0.0014929406
29	0xbab9e22b	-0.0014181783
30	0xba47cd10	-0.0007621804
31	0x3a87791c	0.0010335776

exp_avg_sq f4 [32]
0	0x391a03bc	0.00014687976
1	0x382aa0b4	4.0680825e-05
2	0x38efa4e8	0.00011427124
3	0x3910018e	0.0001373349
4	0x384822ba	4.7716057e-05
5	0x38ffc205	0.000121954865
6	0x36c1b288	5.772632e-06
7	0x388456de	6.310431e-05
8	0x3972c060	0.00023150584
9	0x394126cd	0.00018420369
10	0x382add4f	4.0737268e-05
11	0x3817c075	3.6180445e-05
12	0x38b009cf	8.394161e-05
13	0x37b6d5a3	2.1795573e-05
14	0x38991d21	7.301034e-05
15	0x383bcd87	4.4775687e-05
16	0x36b82a98	5.488586e-06
17	0x38c348fd	9.31192e-05
18	0x388b95a6	6.655911e-05
19	0x36c86549	5.9722556e-06
20	0x39180265	0.00014496742
21	0x38e37662	0.00010846254
22	0x392cbdd3	0.00016473913
23	0x3808a9c6	3.258304e-05
24	0x390b8268	0.00013304653
25	0x38e4f816	0.00010918097
26	0x38c2fc4a	9.2976334e-05
27	0x38f41d31	0.00011640264
28	0x390946a2	0.00013091651
29	0x38cccba5	9.76541e-05
30	0x390179f6	0.00012347833
31	0x38f7d9b8	0.00011818431

exp_avg f4 [6, 32]
0	0xba4806f1	-0.0007630429
1	0xba92de14	-0.00112051
2	0xba4f7d1c	-0.0007915066
3	0x3ab2f169	0.0013652268
4	0x3ad380f3	0.0016136452
5	0x3b2b5906	0.0026145591
6	0xbb498ecd	-0.0030755282
7	0x399dad83	0.0003007465
8	0xba2a311a	-0.0006492302
9	0x3a4a6103	0.00077201443
10	0xb99d63a8	-0.00030019623
11	0x3acef1d9	0.0015788629
12	0x3b021a33	0.0019852042
13	0x3b27d6b0	0.0025610141
14	0xba822ccf	-0.0009931567
15	0x3adc4716	0.0016805853
16	0xba28d522	-0.00064404507
17	0x3a12fd79	0.00056072284
18	0x3a010dca	0.0004923014
19	0xbae8cdd6	-0.0017761539
20	0xbae37948	-0.001735487
21	0xbb173c1f	-0.0023076606
22	0xb9ef0018	-0.00045585702
23	0x3b2520ab	0.0025196474
24	0x385cf317	5.2678482e-05
25	0x3ad0d07c	0.0015931274
26	0x3a2140b3	0.00061513035
27	0x39ddcb92	0.00042304076
28	0x3a034c2e	0.0005008605
29	0x3a0bcce8	0.00053329626
30	0x38639416	5.4258933e-05
31	0xba99a1e6	-0.0011721223
32	0xba7723eb	-0.00094276544
33	0x391333a2	0.00014038247
34	0xb80221b5	-3.1025807e-05
35	0x39d874ec	0.00041285844
36	0x3a826882	0.0009949359
37	0xb93c9967	-0.00017986224
38	0x3b1a5433	0.0023548722
39	0xb97dbc7c	-0.00024198176
40	0xba89cb08	-0.0010512779
41	0x392f03e0	0.00016690744
42	0x3a66d7e0	0.00088059716
43	0xb9adf499	-0.0003317937
44	0xba85e292	-0.0010214618
45	0xb996b1bd	-0.00028742655
46	0xba39481b	-0.00070679345
47	0x3a99df11	0.0011739453
48	0x3a6e7cb8	0.0009097564
49	0xbaec2465	-0.0018016218
50	0x3a60c091	0.00085736165
51	0xba193046	-0.000584368
52	0xbb085589	-0.0020802936
53	0xba2353d4	-0.0006230448
54	0x3a0a2541	0.00052698335
55	0xbb028d19	-0.0019920527
56	0xb9946d3d	-0.0002831015
57	0x39a21a1f	0.0003091851
58	0x3afdecb5	0.0019372912
59	0xb8acbe44	-8.237039e-05
60	0x3ad69da1	0.0016373881
61	0x3ada5542	0.0016657489
62	0xba821c0e	-0.0009926574
63	0xb942e224	-0.00018585526
64	0x3ab916ff	0.0014121233
65	0xba786535	-0.000947553
66	0xbac05128	-0.0014672624
67	0x398cf33d	0.00026884108
68	0xbb07443b	-0.0020640034
69	0x3a3905e7	0.00070580695
70	0xbba86da8	-0.005140025
71	0xbab4ecc2	-0.001380347
72	0x3a3435c8	0.0006874469
73	0x39b1b85c	0.0003389743
74	0xbae06210	-0.0017119069
75	0x3a856f31	0.0010180232
76	0x3a1d7e10	0.00060078595
77	0x3b3dbd42	0.0028951918
78	0xb9b54190	-0.00034571858
79	0xbaac9b06	-0.0013168759
80	0xbbab9529	-0.005236287
81	0xba556d21	-0.00081415667
82	0x3a9ef6f4	0.0012128041
83	0x3bcd9ea7	0.0062750163
84	0xbad5d481	-0.0016313941
85	0x396006d0	0.00021364843
86	0xbaa2e271	-0.0012427104
87	0x3b9a0606	0.004700425
88	0xba544926	-0.0008098058
89	0x3a6cbb4c	0.0009030595
90	0xbacfeca6	-0.0015863373
91	0x3a8ae331	0.0010596273
92	0xba1fbfea	-0.0006093966
93	0xb9b06a87	-0.00033648705
94	0x3905dccf	0.00012766126
95	0xbb004b3e	-0.0019576098
96	0x3a720a4f	0.00092331035
97	0xba6c2d4b	-0.0009009435
98	0xba2a0b69	-0.00064866856
99	0xba271073	-0.00063729956
100	0x38c654d3	9.4571755e-05
101	0xba27f66b	-0.00064072636
102	0x38cb421d	9.692109e-05
103	0xb95134d0	-0.00019951467
104	0x3a8be3cc	0.0010672747
105	0x3a40b578	0.00073512597
106	0xba663134	-0.00087811355
107	0x3988349f	0.00025979147
108	0x3a34b389	0.0006893208
109	0x3a13c2ca	0.0005636631
110	0xb9367384	-0.00017399905
111	0xb9318a25	-0.00016931498
112	0x3a19537b	0.00058489264
113	0xba133939	-0.0005616132
114	0xb9240845	-0.0001564334
115	0xba675603	-0.00088247674
116	0x39114418	0.00013853644
117	0xba0675cc	-0.00051292474
118	0xb9d83f86	-0.0004124606
119	0xb890dd55	-6.9076814e-05
120	0xba36830a	-0.00069622754
121	0x3ab34c4e	0.0013679357
122	0xba6bbae1	-0.00089923857
123	0xba061625	-0.0005114994
124	0xb99bbeff	-0.00029706207
125	0xb95d701f	-0.00021117971
126	0x3a1a7372	0.00058918365
127	0xbad4a2c6	-0.0016222827
128	0xba51ef5a	-0.00080083834
129	0x37a2f1ff	1.9424593e-05
130	0x3a8397e3	0.0010039773
131	0x3af5ee1f	0.0018762982
132	0x3b18e628	0.0023330543
133	0x3af431c4	0.0018630554
134	0xba14da3f	-0.0005678273
135	0x3aed405a	0.0018100843
136	0xba7e58c2	-0.0009702557
137	0x3a4b7e20	0.00077626295
138	0x3a2102bf	0.0006142072
139	0x3a2fccb8	0.00067062257
140	0x3a7bc049	0.0009603543
141	0x3a094cf5	0.0005237603
142	0xba0284cb	-0.0004978894
143	0x3a9a33ee	0.0011764744
144	0x3aa12570	0.0012294482
145	0x3ac07d42	0.0014685767
146	0x3812ba01	3.4982342e-05
147	0xbb5901c4	-0.0033112625
148	0xba8beeef	-0.0010676066
149	0xbaf56832	-0.0018723069
150	0xb9037fa1	-0.00012540679
151	0x3a916f13	0.0011095725
152	0x3a6f4617	0.00091275707
153	0xb7eeacbd	-2.8452248e-05
154	0x3a3a648a	0.00071103184
155	0x39544ce3	0.00020246538
156	0xb89471f8	-7.078418e-05
157	0xb9d042a5	-0.00039722506
158	0x3a5df957	0.00084676355
159	0x37944bd6	1.7678289e-05
160	0xba8281d5	-0.0009956906
161	0x393aaca5	0.00017802657
162	0xb95adf0d	-0.00020873193
163	0x3b1d8b77	0.0024039426
164	0x390975cc	0.00013109221
165	0x3913eac3	0.00014106468
166	0x3ae1169a	0.0017172873
167	0x3b07b808	0.0020709056
168	0xbad004c0	-0.0015870556
169	0xbb11c62b	-0.0022243361
170	0x39dc6e43	0.0004204382
171	0xba954346	-0.0011387847
172	0xbae53e95	-0.0017489964
173	0xba8a4fb2	-0.0010552316
174	0x39f4fc39	0.00046727227
175	0xba5ba39c	-0.00083785667
176	0x3b2a6ac6	0.0026003583
177	0x3915d6ef	0.00014289816
178	0xba4ad07f	-0.0007736757
179	0xbaec9d66	-0.001805228
180	0xbb2e4110	-0.0026589073
181	0xb92ec9b8	-0.00016669079
182	0x3a7e5bf9	0.0009703036
183	0xb82fcadf	-4.191219e-05
184	0x3a9dd29a	0.0012040914
185	0xb7e8f652	-2.7771257e-05
186	0xba2b9c02	-0.00065463793
187	0xbaa3790f	-0.0012471991
188	0x3a9094a9	0.0011030632
189	0xbaef62ca	-0.0018263694
190	0xb8bc8bd9	-8.990587e-05
191	0xb8eab521	-0.000111917274

exp_avg_sq f4 [6, 32]
0	0x380c7ef6	3.3496843e-05
1	0x36d9d6c4	6.492106e-06
2	0x37425c8f	1.1584852e-05
3	0x375c79a1	1.3141341e-05
4	0x381853f9	3.631783e-05
5	0x37a17a39	1.924961e-05
6	0x39bc88ca	0.0003596007
7	0x38289e89	4.020197e-05
8	0x378c3ad6	1.6716698e-05
9	0x37a4d9b0	1.9651692e-05
10	0x38c81159	9.5399744e-05
11	0x37312cc7	1.0560448e-05
12	0x37e23bc8	2.6969137e-05
13	0x38ab3c1a	8.16511e-05
14	0x378d93ce	1.6877337e-05
15	0x38156314	3.5616642e-05
16	0x39acb117	0.0003293834
17	0x375063af	1.24209755e-05
18	0x378ed59e	1.7027192e-05
19	0x39a0bb2f	0.0003065704
20	0x37ebc6b4	2.8106711e-05
21	0x379b1f7e	1.8492105e-05
22	0x37abe872	2.049303e-05
23	0x38f92850	0.00011880754
24	0x3805ba26	3.1883035e-05
25	0x373b0a50	1.114847e-05
26	0x3898a13b	7.277956e-05
27	0x375a7486	1.3020943e-05
28	0x38043b69	3.1526582e-05
29	0x36dcddf4	6.5823497e-06
30	0x37efe64e	2.8598264e-05
31	0x378ed6d5	1.7027758e-05
32	0x38177724	3.6112164e-05
33	0x370cb15a	8.385943e-06
34	0x3753d65b	1.2626489e-05
35	0x3767b96d	1.3811846e-05
36	0x382152c1	3.846246e-05
37	0x3792532d	1.7443288e-05
38	0x39c1cb90	0.00036963494
39	0x3828ee02	4.0275983e-05
40	0x3782fd93	1.5615287e-05
41	0x37a537bb	1.9695484e-05
42	0x38ca6cda	9.652386e-05
43	0x372ce2e8	1.030483e-05
44	0x37d16481	2.4961542e-05
45	0x38a05b0d	7.646354e-05
46	0x3769c9a1	1.3934828e-05
47	0x3815afc3	3.568806e-05
48	0x39b4a24a	0.0003445319
49	0x376583af	1.3680124e-05
50	0x37a803b0	2.0028878e-05
51	0x39ad821e	0.00033094076
52	0x37dfbdbc	2.6672024e-05
53	0x37bceb5d	2.2520946e-05
54	0x37b2e183	2.1324266e-05
55	0x38f1d8e0	0.000115321716
56	0x3801d20f	3.095163e-05
57	0x3764a949	1.3629274e-05
58	0x38967b8d	7.1755705e-05
59	0x375ccceb	1.3160733e-05
60	0x38011920	3.0779396e-05
61	0x36c45454	5.8510723e-06
62	0x37dedd37	2.6567473e-05
63	0x37aa9a29	2.0337366e-05
64	0x380cb0fe	3.3543438e-05
65	0x36ebf9ad	7.032612e-06
66	0x373eb800	1.1367723e-05
67	0x37554f40	1.2714241e-05
68	0x38409cf5	4.5922545e-05
69	0x37880971	1.621686e-05
70	0x39d0b56c	0.0003980802
71	0x3830bf75	4.2139978e-05
72	0x3775b92a	1.464625e-05
73	0x379fdef5	1.90581e-05
74	0x38e39ee9	0.00010853803
75	0x3741ee73	1.1559215e-05
76	0x37c3f2b3	2.3358827e-05
77	0x38ac8f46	8.228286e-05
78	0x3787a81e	1.617154e-05
79	0x3820f152	3.837172e-05
80	0x39c14afe	0.00036867702
81	0x37225db2	9.677768e-06
82	0x378dcfee	1.6905335e-05
83	0x39b988fe	0.00035388017
84	0x37c45ed1	2.3409173e-05
85	0x37ab3736	2.0410498e-05
86	0x37a42e28	1.9571817e-05
87	0x39059815	0.00012740523
88	0x38011a4c	3.0780488e-05
89	0x374cfb02	1.221779e-05
90	0x38b5bd32	8.665993e-05
91	0x374bf5f9	1.2157013e-05
92	0x3806a3dc	3.2100696e-05
93	0x36f4708a	7.284868e-06
94	0x37f463ab	2.9133478e-05
95	0x37917f9a	1.7344766e-05
96	0x37b2ca20	2.1313375e-05
97	0x36aca3d0	5.1450697e-06
98	0x370e87f6	8.495515e-06
99	0x371e6522	9.441081e-06
100	0x37d54ebd	2.5428244e-05
101	0x371d5ae7	9.379094e-06
102	0x397a6afe	0.00023881716
103	0x37d5d4b9	2.5490635e-05
104	0x372e9ec8	1.0408177e-05
105	0x3765efc8	1.3705292e-05
106	0x388372b0	6.267929e-05
107	0x370667bd	8.011176e-06
108	0x37769894	1.46982675e-05
109	0x38403026	4.582121e-05
110	0x3723fbbb	9.774168e-06
111	0x37e0d1fa	2.6800659e-05
112	0x396acaed	0.00022391575
113	0x3725210e	9.8424625e-06
114	0x3724b473	9.817176e-06
115	0x3962ad35	0.00021617564
116	0x3793e060	1.7628248e-05
117	0x3778286a	1.47913615e-05
118	0x3770379d	1.4318063e-05
119	0x389b0129	7.391192e-05
120	0x37aec683	2.0834856e-05
121	0x370c4dad	8.362736e-06
122	0x384dd7a0	4.9076625e-05
123	0x371adf37	9.231087e-06
124	0x37a029c3	1.9092933e-05
125	0x36865fe8	4.004676e-06
126	0x37adb589	2.0707741e-05
127	0x374b0e78	1.2103112e-05
128	0x387c12fd	6.0099166e-05
129	0x371ffa59	9.535427e-06
130	0x37959a57	1.7834054e-05
131	0x37c19ff6	2.308188e-05
132	0x38a8d475	8.0504375e-05
133	0x37c24275	2.3157549e-05
134	0x3a516b12	0.0007988672
135	0x38a91aee	8.063564e-05
136	0x37c58ff7	2.3551269e-05
137	0x380b4f8b	3.3214263e-05
138	0x39533c20	0.00020144926
139	0x3796c92f	1.7975077e-05
140	0x382f550f	4.180247e-05
141	0x39227e72	0.00015496628
142	0x37ef9a7c	2.8562958e-05
143	0x38afb52f	8.378398e-05
144	0x3a446bb5	0.0007492856
145	0x37895c60	1.6374688e-05
146	0x37f4b840	2.9172865e-05
147	0x3a3c8b31	0.0007192372
148	0x3818be92	3.6417106e-05
149	0x38375e08	4.3718173e-05
150	0x380b6718	3.3236196e-05
151	0x396dc435	0.00022675174
152	0x38794740	5.9432583e-05
153	0x37874761	1.6126492e-05
154	0x3920cdd5	0.00015335467
155	0x379eaebd	1.8916437e-05
156	0x383ec37a	4.548158e-05
157	0x370c2c32	8.35494e-06
158	0x385e3241	5.2975727e-05
159	0x37dc1ccd	2.6239455e-05
160	0x37dce505	2.633269e-05
161	0x36dc297a	6.5613394e-06
162	0x370fb446	8.565437e-06
163	0x373dd411	1.1314653e-05
164	0x381d7c6d	3.7547597e-05
165	0x376cceac	1.4114816e-05
166	0x3995bfcc	0.00028562394
167	0x3808c5b3	3.260905e-05
168	0x375ff90f	1.3349824e-05
169	0x37880c3b	1.6218159e-05
170	0x38ac51a5	8.2168066e-05
171	0x3721b890	9.63932e-06
172	0x37ab9f3b	2.0458936e-05
173	0x38894c32	6.5468616e-05
174	0x375a7c17	1.30227045e-05
175	0x37e926b0	2.779378e-05
176	0x39893455	0.00026169667
177	0x3747f2ef	1.1917887e-05
178	0x378d8f36	1.6875198e-05
179	0x398542b4	0.00025417435
180	0x37d00f47	2.4802646e-05
181	0x37787f45	1.4811584e-05
182	0x37913974	1.73121e-05
183	0x38cd3362	9.7847325e-05
184	0x37c68223	2.3664039e-05
185	0x373b8930	1.117801e-05
186	0x388d0380	6.724056e-05
187	0x37713bca	1.437864e-05
188	0x3801105c	3.0771233e-05
189	0x36d67926	6.3918005e-06
190	0x37c5936c	2.3552879e-05
191	0x3783046d	1.5618478e-05

exp_avg f4 [6]
0	0xbbbd11bb	-0.005769936
1	0x3b65b6c1	0.0035051557
2	0xbbc4e162	-0.006008313
3	0xb911fe28	-0.00013922958
4	0xbaee575b	-0.0018183993
5	0x3b1a575e	0.002355061

exp_avg_sq f4 [6]
0	0x3a0eafed	0.0005443085
1	0x3a0ff26a	0.00054911396
2	0x3a1b3e1d	0.00059220364
3	0x39c05639	0.00036685335
4	0x3a98a3a8	0.0011645453
5	0x39e53ffb	0.00043725953
