flare-benchmarking/39fbd77s/checkpoints/epoch=35.ckpt (torch_old, 101026 bytes, 36 tensors)

exp_avg f4 [6]
-0.0028624728 0.0011271661 0.0027440889 0.0003242897 -0.002912197 -0.001456661
00000000: 5398 3bbb 6bbd 933a 2cd6 333b 6d05 aa39
00000010: 8fda 3ebb 6fed beba

exp_avg_sq f4 [6]
0.00017746414 0.00013232649 0.00022358938 0.00016476391 0.00014961693 0.00014882856
00000000: ab15 3a39 1fc1 0a39 5173 6a39 7ac4 2c39
00000010: 7de2 1c39 dd0e 1c39

exp_avg f4 [64, 26]
-0.0002956129 0.0 0.00018571729 7.430626e-05 0.0 -0.0001627181 0.0 0.00031315823
-2.2731017e-05 -0.00013389195 -0.00026057533 -5.8222213e-05 -0.0001249338 -5.6999503e-05 0.00014838776 -0.0001212179
-2.6401733e-05 -0.00016939835 -0.00010924746 -0.00041795245 0.00014711659 0.00072410743 5.996919e-09 0.00034178118
-7.554088e-21 0.00018982422 -0.0002311456 0.0 0.00022831243 -4.88127e-05 0.0 -0.00013919084
0.0 0.00015300146 0.0004899738 -0.0002335603 1.739623e-05 -0.00042688425 -0.0003064119 -0.00027294725
-5.857218e-06 -0.00024678136 -0.0006740008 0.00017959098 -0.00024320337 -0.00080697367 0.00021715675 0.00021007692
-4.171619e-08 -0.00036925307 2.2624592e-20 -8.014323e-05 0.00029815917 0.0 -0.00042805026 5.0612995e-05
0.0 0.0002520839 0.0 -6.730342e-05 -0.00096047163 3.910818e-05 0.0005107547 7.326866e-05
-0.0002299756 0.00012241678 -0.0007870886 -0.00023393547 0.0012171597 0.00053120794 -0.0002922732 -0.00030859417
-0.00040187838 -0.0003079951 2.6819587e-09 -0.0005474304 -4.425773e-20 5.796729e-05 -0.00010275334 0.0
0.00028406575 -1.7067699e-06 0.0 -4.539617e-05 0.0 -8.203246e-06 0.00024015787 -2.618222e-06
-3.7046655e-05 -0.00014059171 -0.00026229696 0.00015636401 0.00010615728 -0.00029285895 -0.00023691781 0.00037014973
5.4159897e-05 -0.00025284273 0.00031751106 0.00018734406 -2.6709014e-08 0.00022089275 4.1088135e-20 -5.1097977e-05
0.00012327604 0.0 -0.00014003128 6.108718e-05 0.0 7.1673036e-05 0.0 -6.588703e-05
-0.00025031395 0.00019404579 5.8531372e-05 0.00015180667 0.00022803803 3.874365e-05 0.00016347546 0.00015166668
1.5645435e-05 9.4650095e-05 0.00023947156 0.00016605607 -0.00014331935 -9.991189e-05 -3.1888177e-09 -1.655227e-05
-1.7988918e-20 5.468971e-05 -0.00015319989 0.0 0.00020926465 6.541224e-05 0.0 -2.4704059e-05
0.0 0.00012904312 -0.00012065054 -0.00018544517 -4.7146128e-05 0.00013890528 -0.0002928261 0.0001722468
-0.00015152921 0.00035647998 7.0993374e-05 -0.00048331247 2.669292e-05 0.00022969555 0.00044289447 0.000103805665
1.801717e-08 0.000333499 -5.8086577e-21 -7.330371e-05 -3.4937475e-05 0.0 0.00010740257 -0.00024751585
0.0 -0.00015416567 0.0 -0.00014511216 0.00023109511 1.2381563e-05 0.00034275855 -0.0003583983
-0.00044444643 -0.00013651198 0.00013550559 -0.00035537005 -0.0005895368 0.0002069514 0.00018628854 -0.00078396394
-0.00020231443 -0.00038301968 3.372182e-09 1.0124405e-05 9.372712e-20 -9.095373e-05 -0.0003003599 0.0
0.00011039371 0.00015158736 0.0 -0.0002919994 0.0 0.0003377875 0.0001484723 -0.00043422444
-0.00022793739 -6.970453e-05 0.00012400006 -0.00016987593 -0.00017965898 -5.7464367e-05 -0.00020720456 -0.00020168017
7.621981e-05 0.0003174931 0.00021535768 0.0008735736 -3.144759e-08 -8.343378e-05 -5.776569e-20 0.00021306785
0.00019485674 0.0 -0.00026753978 -1.3423356e-05 0.0 0.00016737661 0.0 -7.4757874e-05
-0.00029844826 0.00025749547 9.06433e-05 -4.2601023e-05 0.0003609233 -7.815308e-06 0.00038312154 -0.00011637224
5.4138534e-05 9.10167e-05 -3.6037516e-05 6.6390836e-05 -0.00035739515 -6.551741e-05 3.5209972e-08 0.00018859742
-1.0337852e-20 0.00017452969 -2.0480977e-05 0.0 -0.00013776071 -9.1127884e-05 0.0 -3.0459834e-05
0.0 2.6226497e-05 0.00011166792 -0.00020976695 0.0002230298 0.000103441766 -0.00060255604 -0.0004887373
-0.0004897961 -0.00031761747 0.00028700975 0.0005733013 -0.00034106 -0.00012461151 -6.618185e-05 0.0003118901
00000000: 7efc 9ab9 0000 0000 1bbd 4239 dfd4 9b38
00000010: 0000 0000 4f9f 2ab9 0000 0000 632f a439
00000020: 7dae beb7 5965 0cb9 d49d 88b9 a033 74b8
00000030: a900 03b9 c012 6fb8 8998 1b39 5d36 feb8
00000040: 4a79 ddb7 86a0 31b9 c91b e5b8 a120 dbb9
00000050: 4f43 1a39 07d2 3d3a 750d ce31 1831 b339
00000060: 54b1 0e9e 8d0b 4739 ad5f 72b9 0000 0000
00000070: 2767 6f39 3dbc 4cb8 0000 0000 c2f3 11b9
00000080: 0000 0000 046f 2039 9671 003a dee7 74b9
00000090: 1fee 9137 6fcf dfb9 e9a5 a0b9 5c1a 8fb9
000000a0: 1f89 c4b6 6f62 81b9 6eaf 30ba 9650 3c39
000000b0: 6804 7fb9 168b 53ba 92b4 6339 1848 5c39
000000c0: 702b 33b3 4f98 c1b9 e8ae d51e 9212 a8b8
000000d0: 3f52 9c39 0000 0000 ef6b e0b9 4a49 5438
000000e0: 0000 0000 212a 8439 0000 0000 4025 8db8
000000f0: 29c8 7bba 1708 2438 2be4 053a d0a7 9938
00000100: 9b25 71b9 015d 0039 9f54 4eba 934c 75b9
00000110: 1a89 9f3a c340 0b3a 3f3c 99b9 cfca a1b9
00000120: 34b3 d2b9 677a a1b9 844d 3831 6f81 0fba
00000130: 5000 519f e721 7338 487d d7b8 0000 0000
00000140: a9ee 9439 2b14 e5b5 0000 0000 c467 3eb8
00000150: 0000 0000 aca0 09b7 e3d2 7b39 b6b4 2fb6
00000160: 8b62 1bb8 cd6b 13b9 e784 89b9 a5f5 2339
00000170: c1a0 de38 dd8a 99b9 246d 78b9 a810 c239
00000180: bf29 6338 fa8f 84b9 9d77 a639 ca71 4439
00000190: be6d e5b2 729f 6739 8208 421f 0952 56b8
000001a0: a943 0139 0000 0000 5cd5 12b9 ee1b 8038
000001b0: 0000 0000 2b4f 9638 0000 0000 d42c 8ab8
000001c0: 923c 83b9 c578 4b39 957f 7538 4b2e 1f39
000001d0: 7e1d 6f39 ad80 2238 9c6a 2b39 b708 1f39
000001e0: 513e 8337 e27e c638 a81a 7b39 561f 2e39
000001f0: ff47 16b9 ca87 d1b8 4622 5bb1 bbd9 8ab7
00000200: 89e6 a99e a162 6538 48a4 20b9 0000 0000
00000210: 0d6e 5b39 ee2d 8938 0000 0000 903b cfb7
00000220: 0000 0000 c04f 0739 c405 fdb8 0f74 42b9
00000230: c5be 45b8 1aa7 1139 7486 99b9 269d 3439
00000240: d0e3 1eb9 efe5 ba39 47e2 9438 1a65 fdb9
00000250: 9cea df37 6eda 7039 4a34 e839 3eb2 d938
00000260: 2dc4 9a32 7ad9 ae39 e471 db9d a1ba 99b8
00000270: d489 12b8 0000 0000 513d e138 04c5 81b9
00000280: 0000 0000 88a7 21b9 0000 0000 4029 18b9
00000290: 1f52 7239 68ba 4f37 46b4 b339 68e7 bbb9
000002a0: 9704 e9b9 a824 0fb9 8116 0e39 f650 bab9
000002b0: 258b 1aba 1801 5939 7356 4339 ee82 4dba
000002c0: 5e24 54b9 08d0 c8b9 0ebc 6731 fddb 2937
000002d0: 914e dd1f 69be beb8 a079 9db9 0000 0000
000002e0: 2c83 e738 6cf3 1e39 0000 0000 7f17 99b9
000002f0: 0000 0000 1219 b139 3baf 1b39 9ea8 e3b9
00000300: 7a02 6fb9 562e 92b8 0306 0239 b920 32b9
00000310: d762 3cb9 e505 71b8 0d45 59b9 1c7a 53b9
00000320: 33d8 9f38 3475 a639 a3d1 6139 8800 653a
00000330: fe10 07b3 2bf9 aeb8 3865 889f f76a 5f39
00000340: 7552 4c39 0000 0000 9544 8cb9 e034 61b7
00000350: 0000 0000 d181 2f39 0000 0000 54c7 9cb8
00000360: 0c79 9cb9 7500 8739 c017 be38 80ae 32b8
00000370: 4e3a bd39 7e1e 03b7 b4dd c839 df0c f4b8
00000380: cf12 6338 38e0 be38 fd26 17b8 4f3b 8b38
00000390: c460 bbb9 6466 89b8 c639 1733 3cc2 4539
000003a0: c946 439e f501 3739 90ce abb7 0000 0000
000003b0: dc73 10b9 e91b bfb8 0000 0000 ff83 ffb7
000003c0: 0000 0000 f900 dc37 422f ea38 e3f4 5bb9
000003d0: 1bdd 6939 e0ee d838 daf4 1dba 9b1e 00ba
000003e0: a965 00ba e585 a6b9 cc79 9639 9949 163a
000003f0: 4cd0 b2b9 26aa 02b9 1ccb 8ab8 2e85 a339

exp_avg_sq f4 [64, 26]
1.6961075e-06 0.0 1.26801115e-05 1.02346974e-07 0.0 9.2977395e-08 0.0 2.9023266e-07
1.1090819e-05 3.09956e-07 9.422589e-06 4.3887792e-07 1.0851872e-05 5.749192e-07 9.065067e-06 4.9270557e-07
7.4871496e-06 1.5622372e-06 5.6621016e-06 2.065184e-06 1.0966457e-05 3.900278e-06 4.7235616e-07 1.00098005e-05
1.9462941e-08 6.547398e-07 2.617517e-06 0.0 2.1438656e-05 2.1506428e-07 0.0 2.557135e-07
0.0 4.5369083e-07 1.6591202e-05 4.1998572e-07 1.4005166e-05 8.257391e-07 1.6229049e-05 7.477363e-07
1.2036452e-05 1.3683855e-06 1.29711725e-05 4.5762195e-06 9.485466e-06 3.542485e-06 1.6308275e-05 7.5919233e-06
1.1508828e-06 1.5673251e-05 3.0052757e-08 1.7790857e-06 4.985574e-07 0.0 4.2901465e-06 7.7186534e-08
0.0 1.1425032e-07 0.0 9.549288e-08 3.3358915e-06 1.8093598e-07 2.8193977e-06 2.3789593e-07
4.4881344e-06 3.3050847e-07 2.3558234e-06 5.251098e-07 3.702221e-06 1.525204e-06 2.0347018e-06 1.3370346e-06
3.2455098e-06 1.6040963e-06 1.881391e-07 2.9931264e-06 1.7064433e-08 4.5493863e-07 3.5509615e-07 0.0
2.991163e-06 6.239065e-08 0.0 4.566493e-08 0.0 6.932266e-08 2.2573854e-06 1.2663492e-07
1.8341011e-06 2.1286898e-07 2.6919272e-06 2.787084e-07 1.702645e-06 3.101076e-07 2.3459424e-06 9.650003e-07
1.4363014e-06 9.5127433e-07 2.1483202e-06 1.5306315e-06 2.6047465e-07 2.1813958e-06 1.4888526e-08 5.354097e-07
1.8569581e-07 0.0 1.8167348e-06 5.1655988e-08 0.0 4.1969503e-08 0.0 5.0150614e-08
1.1190364e-06 1.3548063e-07 1.0762614e-06 2.2696709e-07 1.4411019e-06 1.7618365e-07 8.299014e-07 3.097901e-07
1.2183884e-06 9.426958e-07 7.3035034e-07 6.8718913e-07 1.0913045e-06 5.36566e-07 1.3762777e-07 1.2012457e-06
1.7093912e-08 2.0878905e-07 1.1099866e-06 0.0 9.264784e-06 8.9270614e-08 0.0 1.2473919e-07
0.0 1.8365897e-07 7.2251983e-06 2.0875534e-07 5.8561072e-06 4.0272005e-07 7.227086e-06 4.127457e-07
5.2320956e-06 8.416136e-07 5.747536e-06 2.9873895e-06 3.9537417e-06 2.3971543e-06 6.922944e-06 2.932864e-06
5.4595813e-07 6.53728e-06 3.4053368e-08 7.689337e-07 1.7065089e-06 0.0 1.3646372e-05 1.4031956e-07
0.0 1.06075674e-07 0.0 2.9932824e-07 1.0414875e-05 3.2486105e-07 8.744724e-06 5.9855887e-07
1.0342738e-05 5.5942536e-07 7.900137e-06 1.059659e-06 7.047531e-06 3.4346372e-06 5.476572e-06 2.5823301e-06
1.00194075e-05 5.0382123e-06 7.8692466e-07 9.7335815e-06 3.21274e-08 1.2636324e-06 1.3007693e-06 0.0
1.0324368e-05 1.5247481e-07 0.0 8.22885e-08 0.0 2.4906726e-07 8.832214e-06 3.3864464e-07
7.741431e-06 5.473376e-07 9.92731e-06 7.6415637e-07 7.265725e-06 6.834218e-07 8.131349e-06 2.6541697e-06
4.858797e-06 2.3749196e-06 9.059402e-06 3.5248383e-06 2.977188e-07 8.429659e-06 1.4172593e-08 5.0697264e-07
6.902913e-07 0.0 5.428202e-06 7.782503e-08 0.0 6.12204e-08 0.0 1.260189e-07
4.5431425e-06 1.5035882e-07 3.646619e-06 2.423107e-07 4.6554364e-06 2.813137e-07 3.4895775e-06 5.136392e-07
3.5760688e-06 1.4692328e-06 2.4453177e-06 1.0571115e-06 4.3683776e-06 2.0314912e-06 2.2496464e-07 4.399478e-06
2.7261688e-08 6.2098496e-07 5.6128897e-07 0.0 4.8198335e-06 6.940843e-08 0.0 3.8871786e-08
0.0 1.0656438e-07 3.9876945e-06 1.0529134e-07 3.4420943e-06 1.9288721e-07 3.5216162e-06 2.545686e-07
2.8024917e-06 3.9590208e-07 3.208776e-06 1.5259604e-06 2.515047e-06 8.55661e-07 4.2785005e-06 1.6825028e-06
00000000: cfa5 e335 0000 0000 aabc 5437 d8c9 db33
00000010: 0000 0000 ddaa c733 0000 0000 46d1 9b34
00000020: b412 3a37 0768 a634 b615 1e37 ec9e eb34
00000030: 6f10 3637 2654 1a35 2b16 1837 7842 0435
00000040: 203a fb36 10ae d135 15fd bd36 9797 0a36
00000050: 93fc 3737 22df 8236 2398 fd34 c4ef 2737
00000060: 762f a732 60c1 2f35 9aa8 2f36 0000 0000
00000070: 2ad7 b337 6bec 6634 0000 0000 ff48 8934
00000080: 0000 0000 cb92 f334 562d 8b37 667a e134
00000090: bbf7 6a37 5ca8 5d35 9e23 8837 0cb8 4835
000000a0: 2bf0 4937 5ea9 b735 c39e 5937 6d8d 9936
000000b0: c423 1f37 6ebb 6d36 c1cd 8837 20be fe36
000000c0: 0878 9a35 0d7a 8337 5b13 0133 ebc8 ee35
000000d0: 9bd4 0535 0000 0000 14f4 8f36 bfc1 a533
000000e0: 0000 0000 c759 f533 0000 0000 c411 cd33
000000f0: 2ede 5f36 4e47 4234 e234 3d36 5670 7f34
00000100: c898 9636 bd70 b134 bd18 1e36 45f5 0c35
00000110: ac73 7836 9cb5 cc35 e98b 0836 2974 b335
00000120: 6fcd 5936 544c d735 4803 4a34 85dd 4836
00000130: 1695 9232 4a3e f434 0ba4 be34 0000 0000
00000140: cabb 4836 9ffb 8533 0000 0000 1f21 4433
00000150: 0000 0000 89de 9433 967d 1736 24f9 0734
00000160: 3c2b f635 fb90 6434 f5a6 3436 64a1 9534
00000170: 7086 e435 dd7c a634 fc6e 1d36 2885 8135
00000180: f1c6 c035 135b 7f35 dc2b 1036 1970 cd35
00000190: 5dd7 8b34 1864 1236 6ec8 7f32 13b9 0f35
000001a0: ad63 4734 0000 0000 88d6 f335 5cdc 5d33
000001b0: 0000 0000 f541 3433 0000 0000 2f65 5733
000001c0: cc31 9635 a278 1134 0f74 9035 3db4 7334
000001d0: e26b c135 fe2c 3d34 64c6 5e35 3a51 a634
000001e0: 8287 a335 900d 7d35 4b0d 4435 4777 3835
000001f0: f078 9235 8908 1035 d5c6 1334 7d3a a135
00000200: e9d5 9232 7f2f 6034 d9fa 9435 0000 0000
00000210: f26f 1b37 0ab5 bf33 0000 0000 0cf0 0534
00000220: 0000 0000 cb33 4534 fb6f f236 3b26 6034
00000230: 947f c436 6c35 d834 3280 f236 5697 dd34
00000240: 5c8f af36 3feb 6135 f5da c036 f67a 4836
00000250: 62aa 8436 ccde 2036 a34b e836 38d2 4436
00000260: f58d 1235 cf5a db36 1342 1233 b968 4e35
00000270: 330b e535 0000 0000 b9f2 6437 bfaa 1634
00000280: 0000 0000 b8cb e333 0000 0000 5cb3 a034
00000290: 8cbb 2e37 9068 ae34 4eb6 1237 a7ac 2035
000002a0: b985 2d37 6b2b 1635 d48a 0437 9b39 8e35
000002b0: d579 ec36 9e7e 6636 65c3 b736 184c 2d36
000002c0: 0719 2837 ea0d a936 0d3d 5335 6a4d 2337
000002d0: 73fc 0933 149a a935 1896 ae35 0000 0000
000002e0: d336 2d37 f5b7 2334 0000 0000 95b6 b033
000002f0: 0000 0000 8bb7 8534 122e 1437 f7ce b534
00000300: 31e1 0137 c1ec 1235 798d 2637 6d20 4d35
00000310: 1acc f336 6374 3735 e16b 0837 4a1e 3236
00000320: c008 a336 cf60 1f36 d6fd 1737 438c 6c36
00000330: 29d6 9f34 1c6d 0d37 b97b 7332 e516 0835
00000340: 754c 3935 0000 0000 e623 b636 c320 a733
00000350: 0000 0000 4578 8333 0000 0000 d04f 0734
00000360: 4c71 9836 5172 2134 70b8 7436 ee16 8234
00000370: e535 9c36 7607 9734 7c2e 6a36 04e1 0935
00000380: 65fc 6f36 7432 c535 3d1a 2436 13e2 8d35
00000390: 1494 9236 c154 0836 cf8d 7134 3a9f 9336
000003a0: 162d ea32 c3b1 2635 7cab 1635 0000 0000
000003b0: 0eba a136 b00d 9533 0000 0000 fbf3 2633
000003c0: 0000 0000 63d8 e433 09ce 8536 871c e233
000003d0: bbfe 6636 6f1c 4f34 e854 6c36 a4ab 8834
000003e0: 7112 3c36 5e8c d434 5a56 5736 9acf cc35
000003f0: 2ec8 2836 94b0 6535 0a90 8f36 5bd2 e135

exp_avg f4 [64]
0.00018571733 0.00022831197 -0.00042805081 0.00028406526 -0.00014003122 0.00020926428 0.000107402404 0.00011039537
-0.0002675399 -0.00013776078 -0.00022349835 0.0002852669 -5.0928807e-06 8.739757e-05 -0.00010133927 0.00028838238
0.00015495077 0.00023376226 -0.00010094218 0.0003537863 0.0003818031 -0.000290416 -0.00023399077 9.0160276e-05
0.0002790885 -0.00027653127 -0.0004678266 -0.00052766857 -0.00029664292 -5.0226772e-05 0.00026992516 -0.0001936471
8.69641e-05 0.00021542085 -2.2949076e-05 0.00040943612 0.00012560454 -9.683216e-06 -0.00043061437 0.00022323588
-8.943383e-05 0.00022996239 0.000119554024 -0.00045976724 9.406475e-05 0.00036453924 -0.000255171 -0.0002180342
0.00013830491 9.809444e-05 -0.00027858274 0.00018210932 -0.00033451765 8.108269e-05 0.0005777437 -0.00024765913
-0.00017435574 0.0005542408 -6.677058e-05 0.00026600767 0.00026493255 -0.00030830814 3.4830533e-05 -0.00014870128
00000000: 1ebd 4239 0767 6f39 026c e0b9 98ee 9439
00000010: 58d5 12b9 f46d 5b39 3a3d e138 1084 e738
00000020: 9944 8cb9 e173 10b9 e25a 6ab9 e08f 9539
00000030: 83e3 aab6 3749 b738 1b86 d4b8 0732 9739
00000040: 487a 2239 141e 7539 ecb0 d3b8 657c b939
00000050: bf2c c839 fa42 98b9 6b5b 75b9 6e14 bd38
00000060: a052 9239 66fb 90b9 a046 f5b9 3d53 0aba
00000070: bd86 9bb9 96aa 52b8 be84 8d39 bf0d 4bb9
00000080: 7f60 b638 98e2 6139 c482 c0b7 96a9 d639
00000090: b6b4 0339 1975 22b7 15c4 e1b9 6d14 6a39
000000a0: 6c8e bbb8 0f22 7139 14b9 fa38 ea0c f1b9
000000b0: a144 c538 a11f bf39 79c8 85b9 1ca0 64b9
000000c0: f105 1139 0db8 cd38 be0e 92b9 99f4 3e39
000000d0: 3362 afb9 f00a aa38 b973 173a 3fd8 81b9
000000e0: 43d3 36b9 784a 113a 2f07 8cb8 f276 8b39
000000f0: a5e6 8a39 6ba4 a1b9 0017 1238 b2ec 1bb9

exp_avg_sq f4 [64]
1.2680112e-05 2.1438658e-05 4.2901474e-06 2.991162e-06 1.8167343e-06 9.264784e-06 1.3646372e-05 1.0324366e-05
5.4282013e-06 4.819834e-06 1.0876464e-05 8.387887e-06 2.516252e-06 4.154597e-06 2.882446e-06 5.8406113e-06
9.05633e-06 8.620209e-06 9.160362e-06 4.9683917e-06 5.1432535e-06 9.840646e-06 1.6340506e-05 1.8100725e-05
1.42193285e-05 1.7711815e-05 1.3175582e-05 5.832057e-06 3.6373372e-06 4.686214e-06 1.1402341e-05 2.2166401e-05
9.48399e-06 9.233543e-06 1.01616415e-05 1.2217762e-05 4.5714514e-06 4.3139858e-06 5.330468e-06 2.8945358e-06
5.7917173e-06 4.090572e-06 1.301167e-06 1.28011925e-05 3.9134075e-06 7.824795e-06 1.1659747e-05 7.969088e-06
2.9317687e-06 4.936257e-06 2.5671065e-05 7.038047e-06 6.0782404e-06 5.484673e-06 1.4406744e-05 1.0723204e-05
1.3062947e-05 1.4555084e-05 6.398747e-06 3.744321e-05 9.635674e-06 3.1232228e-06 9.885875e-06 2.1751537e-06
00000000: abbc 5437 2bd7 b337 16f4 8f36 c6bb 4836
00000010: 84d6 f335 f26f 1b37 b9f2 6437 d036 2d37
00000020: e523 b636 0fba a136 0f7a 3637 b3b9 0c37
00000030: e1dc 2836 b767 8b36 0c70 4136 78fa c336
00000040: a4f0 1737 849f 1037 75af 1937 29b6 a636
00000050: 3694 ac36 4119 2537 f812 8937 03d7 9737
00000060: 8d8f 6e37 d593 9437 b20c 5d37 fdb0 c336
00000070: fa18 7436 463e 9d36 af4c 3f37 fcf1 b937
00000080: 6d1d 1f37 c4e9 1a37 eb7b 2a37 e3fa 4c37
00000090: 7864 9936 dbc0 9036 5fdc b236 bf3f 4236
000000a0: 7956 c236 bf41 8936 c2a3 ae35 b4c4 5637
000000b0: ea4f 8336 3d47 0337 3b9e 4337 f9b2 0537
000000c0: 67bf 4436 20a2 a536 3158 d737 5d28 ec36
000000d0: b0f3 cb36 fb08 b836 7fb4 7137 cfe7 3337
000000e0: ee28 5b37 9c31 7437 d1b4 d636 570c 1d38
000000f0: e8a8 2137 8f98 5136 83db 2537 dbf8 1136

exp_avg f4 [32, 64]
-0.00029451458 4.088251e-06 -0.00023520822 0.00024497326 0.00018864288 0.00031920697 3.6162044e-05 -6.5148975e-05
0.00026021284 0.00020399733 -0.00014109752 3.0229337e-05 0.00024933205 8.888807e-05 -0.00017442126 0.00010884071
-0.00023283839 0.00022424827 -0.00011135238 0.00015864299 0.00015491621 -3.2153144e-05 -0.00021270901 -0.00021639786
-0.00013567675 4.862018e-05 1.49628295e-05 -0.00022544595 -0.00026096997 -0.00019677293 0.00013137174 -1.0616269e-05
0.00021958053 -0.00013024641 -9.191993e-05 -0.00011741337 -8.013616e-05 -0.0006312788 -3.0478966e-05 -5.8323214e-05
1.0498286e-05 -0.00045354487 0.00021816952 4.855904e-05 0.00015957895 -0.00015685371 -0.00010000383 0.000131805
-0.00054519635 0.00018880346 0.00023353497 -1.7218434e-05 4.014436e-05 -0.00013038999 0.00021228101 4.9255264e-05
-0.00013130711 -0.00016944217 -1.2396436e-05 -3.7640817e-05 -7.307008e-06 -0.0004966515 -0.00012223481 -3.706428e-05
-0.00020583585 -2.340914e-05 -0.00013097672 0.00027112645 0.00013497601 0.00034001365 8.728721e-06 8.614239e-06
0.0002655642 0.00024957594 5.354429e-05 1.22289e-05 0.00023121345 3.972658e-05 -0.00022669829 0.00019784491
-0.00017699787 0.00022560098 -0.00017097434 0.00011915428 0.00017275126 5.013712e-05 -0.00016954866 -9.870341e-05
-1.7024517e-05 0.00011515122 3.1958916e-05 -0.000115107694 -0.00018472142 -0.00023918811 0.00015377482 1.809887e-05
7.006989e-05 -9.0512694e-05 -0.00021631426 -0.00010886285 -2.834095e-05 -0.0004897804 8.3790845e-05 -9.344278e-05
-0.00012433178 -0.0002541427 0.00020960259 7.544905e-05 6.4965905e-05 -1.8850915e-05 8.391238e-05 0.00028112836
-0.0005801106 0.0001494655 0.00013414797 2.3945448e-05 0.00015843594 -0.00014239403 0.00026138127 -5.7008354e-05
-0.00010577222 -8.963771e-05 3.8392656e-05 -0.0001038786 -3.0130343e-05 -0.00029833106 -0.00015458446 -0.00020410633
0.00031873782 -8.595869e-05 -0.00015732228 -1.728932e-05 0.00010369057 -8.197535e-05 -0.000366537 8.353795e-06
8.3588144e-05 -0.00015574106 9.462713e-05 0.00019098919 -0.00017344109 -0.0001940693 0.00011993747 -7.282408e-05
0.00034302624 -0.00011758694 0.00022483189 -0.00015304945 0.00020199243 0.00017075906 4.236937e-05 -0.00022961163
0.00036067734 -1.0576224e-05 0.00019386821 1.1225786e-05 0.000115361996 0.00042093708 9.9372635e-05 -0.00040271055
-0.00028105726 0.00015935925 -0.00016089431 -0.00015031648 0.00016706315 0.00010045365 0.00013241898 -6.164614e-05
-0.00021080083 9.3384064e-05 0.00020186557 0.00027910376 6.1235645e-05 0.00025284983 1.8035133e-05 -5.812501e-05
0.00030563938 -0.00043940908 6.573165e-05 9.370201e-05 -0.00032177882 -5.2801868e-05 -7.747582e-05 9.324287e-05
-0.0002732004 0.00017711597 -5.811651e-06 -3.6466896e-05 -0.00018038698 0.0004237625 7.188672e-05 -0.00045268214
-4.073599e-05 -1.0014135e-06 7.767472e-05 0.00013198175 -0.0001988013 -0.00020799525 -3.253884e-05 -9.608635e-06
-0.0002368039 -0.0002441255 -3.4060242e-05 -6.642912e-05 -0.00028694447 -8.295579e-05 0.0003171437 -4.403481e-05
-0.0001358073 -4.4768753e-05 8.230486e-05 -0.00012730535 3.6058686e-05 -6.679829e-05 -1.08042535e-07 0.000110526176
-0.00014326813 7.173548e-06 -0.00032309946 -3.4533317e-05 -0.000155147 0.00014827447 -2.564316e-05 0.00021526685
-4.5726556e-05 0.00017485072 -8.8744106e-05 0.00010299832 -9.03194e-06 0.0004849146 -0.00025002751 -0.00012082887
0.00029071353 4.8805945e-05 9.0796835e-05 7.1544478e-06 4.7383273e-05 6.0845916e-05 -0.0002443864 -0.00031821095
0.0004147799 -0.00022016389 -3.9594142e-05 -9.97803e-05 -8.042189e-05 0.00031193587 0.00010414117 -8.986909e-05
0.00023511835 -0.00014176904 -0.00013096078 0.00012340449 0.00021217803 9.978409e-05 -0.00019231359 0.000141817
00000000: 1469 9ab9 cf2d 8936 3aa2 76b9 c16f 8039
00000010: 70ce 4539 3c5b a739 b3ac 1738 97a0 88b8
00000020: 2d6d 8839 1ee8 5539 94f3 13b9 0295 fd37
00000030: c8b8 8239 6b69 ba38 dae4 36b9 6941 e438
00000040: 1426 74b9 3024 6b39 db85 e9b8 6759 2639
00000050: 0171 2239 2ddc 06b8 a40a 5fb9 dce8 62b9
00000060: 7344 0eb9 85ed 4b38 dd08 7b37 b065 6cb9
00000070: ccd2 88b9 d554 4eb9 d5c0 0939 871c 32b7
00000080: 333f 6639 c192 08b9 23c5 c0b8 d33b f6b8
00000090: c60e a8b8 677c 25ba 15ad ffb7 13a0 74b8
000000a0: cc21 3037 c3c9 edb9 6fc4 6439 dfab 4b38
000000b0: a654 2739 1979 24b9 26b9 d1b8 2335 0a39
000000c0: 82eb 0eba 8bf9 4539 11e1 7439 4e70 90b7
000000d0: ae60 2838 4cb9 08b9 c097 5e39 7097 4e38
000000e0: 7caf 09b9 49ac 31b9 4afa 4fb7 85e0 1db8
000000f0: b92e f5b6 b831 02ba 282c 00b9 7875 1bb8
00000100: a4d5 57b9 bf5e c4b7 cc56 09b9 fa25 8e39
00000110: 5988 0d39 dc43 b239 9271 1237 e085 1037
00000120: 6c3b 8b39 84d9 8239 be94 6038 ba2a 4d37
00000130: e371 7239 17a0 2638 dcb5 6db9 9774 4f39
00000140: 8198 39b9 4d8f 6c39 9347 33b9 78e2 f938
00000150: 9024 3539 534a 5238 dfc8 31b9 fdfe ceb8
00000160: dfcf 8eb7 577d f138 a00b 0638 f965 f1b8
00000170: c7b1 41b9 92ce 7ab9 9d3e 2139 07d3 9737
00000180: 7cf2 9238 a2d1 bdb8 6bd2 62b9 4c4d e4b8
00000190: babd edb7 9b64 00ba deb8 af38 b6f6 c3b8
000001a0: 0f5f 02b9 753e 85b9 c4c8 5b39 663a 9e38
000001b0: 4e3e 8838 0822 9eb7 1efa af38 6964 9339
000001c0: 9012 18ba d7b9 1c39 12aa 0c39 75de c837
000001d0: d321 2639 9b4f 15b9 000a 8939 411c 6fb8
000001e0: 07d2 ddb8 e1fb bbb8 cd07 2138 66d9 d9b8
000001f0: 6bc0 fcb7 5169 9cb9 f317 22b9 6005 56b9
00000200: 441c a739 b844 b4b8 e1f6 24b9 8808 91b7
00000210: 7374 d938 2eea abb8 c32b c0b9 4727 0c37
00000220: 0b4c af38 6c4e 23b9 8e72 c638 4544 4839
00000230: bddd 35b9 157f 4bb9 f086 fb38 21b9 98b8
00000240: 34d8 b339 0299 f6b8 dac0 6b39 e67b 20b9
00000250: eecd 5339 c90d 3339 c4b5 3138 e7c3 70b9
00000260: 4b19 bd39 8970 31b7 1a49 4b39 6256 3c37
00000270: 80ee f138 38b1 dc39 4766 d038 e522 d3b9
00000280: de5a 93b9 ac19 2739 bdb5 28b9 469e 1db9
00000290: ac2d 2f39 a5aa d238 f3d9 0a39 0548 81b8
000002a0: 6b0a 5db9 30d7 c338 e0ab 5339 ac54 9239
000002b0: a36b 8038 ee90 8439 274a 9737 41cb 73b8
000002c0: 393e a039 7d60 e6b9 69d9 8938 e281 c438
000002d0: 6cb4 a8b9 9377 5db8 847a a2b8 628b c338
000002e0: 563c 8fb9 35b8 3939 b401 c3b6 08f4 18b8
000002f0: 4326 3db9 712c de39 e4c1 9638 f855 edb9
00000300: f0db 2ab8 4e68 86b5 4ce5 a238 9564 0a39
00000310: 5175 50b9 4d19 5ab9 507a 08b8 c634 21b7
00000320: 904e 78b9 f1fb 7fb9 e8db 0eb8 dd4f 8bb8
00000330: 0971 96b9 8df8 adb8 4f46 a639 04b2 38b8
00000340: 7f67 0eb9 15c6 3bb8 169b ac38 457d 05b9
00000350: b83d 1738 0f16 8cb8 0305 e8b3 4aca e738
00000360: 3f3a 16b9 4fb4 f036 ad65 a9b9 ded7 10b8
00000370: f5ae 22b9 207a 1b39 441c d7b7 41b9 6139
00000380: 84ca 3fb8 2258 3739 211c bab8 cd00 d838
00000390: e387 17b7 233c fe39 2016 83b9 8165 fdb8
000003a0: e96a 9839 fcb4 4c38 2e6a be38 3d10 f036
000003b0: 67bd 4638 ce34 7f38 fd20 80b9 8dd5 a6b9
000003c0: d176 d939 cbdb 66b9 e311 26b8 2441 d1b8
000003d0: 2ca8 a8b8 538b a339 5d66 da38 1a78 bcb8
000003e0: 1a8a 7639 d6a7 14b9 8452 09b9 2466 0139
000003f0: 1b7c 5e39 2d43 d138 c9a7 49b9 b6b4 1439

exp_avg_sq f4 [32, 64]
1.33714e-06 1.6311132e-06 6.944701e-06 1.7445649e-06 9.905367e-06 6.8734425e-06 1.5207766e-06 1.206736e-06
1.8340479e-06 4.8977217e-06 2.6996468e-06 1.4818353e-06 1.3655642e-05 4.9586743e-06 4.6366235e-06 1.3196471e-05
4.744782e-06 7.483367e-07 9.2521464e-07 2.0844857e-06 6.692052e-06 2.4445624e-06 1.4901922e-06 4.6718433e-06
5.3212295e-07 1.5442387e-06 4.36539e-06 1.5454112e-06 1.8677829e-06 1.1874462e-05 2.1701649e-06 3.1519317e-06
5.422062e-06 7.36264e-07 1.8527899e-06 1.211908e-06 2.3409261e-06 7.4296636e-06 9.076387e-07 3.118754e-06
1.3107423e-06 4.055604e-06 5.249526e-06 9.240028e-07 1.250191e-06 3.6000754e-06 3.8590524e-06 1.5478176e-06
5.0208637e-06 4.979333e-06 1.5503061e-06 6.8631687e-07 3.0348656e-06 7.2731245e-06 6.706872e-07 5.842961e-07
2.0610607e-06 2.0545267e-06 1.8517684e-06 8.264715e-07 3.8872386e-07 7.3449146e-06 5.804464e-06 4.487554e-06
1.2740129e-06 2.8772786e-06 1.3869122e-05 1.8170825e-06 1.974431e-05 1.33453495e-05 2.2459692e-06 1.6898881e-06
3.0319663e-06 1.0693855e-05 2.6421549e-06 2.7519577e-06 2.7130178e-05 9.956598e-06 8.430623e-06 2.736211e-05
9.523617e-06 7.888382e-07 1.1722763e-06 3.0789902e-06 1.3483699e-05 4.125299e-06 2.3231316e-06 8.590332e-06
6.1028715e-07 2.6042865e-06 5.4051625e-06 2.6096293e-06 1.6094041e-06 2.3574283e-05 2.633852e-06 5.6292324e-06
1.035137e-05 8.3357475e-07 1.7310426e-06 1.1570993e-06 4.3161103e-06 1.1850941e-05 1.2388853e-06 6.0714365e-06
2.2634065e-06 7.733375e-06 9.92665e-06 1.1007947e-06 1.3757904e-06 7.209442e-06 6.7379838e-06 2.3683006e-06
8.633377e-06 9.416431e-06 1.9864383e-06 6.71867e-07 5.864913e-06 1.3852155e-05 8.0278943e-07 5.671239e-07
3.4282778e-06 1.9463826e-06 3.4206955e-06 1.1728018e-06 3.9319826e-07 1.3274913e-05 1.1470558e-05 9.132102e-06
1.1627654e-06 1.5640287e-06 6.134913e-06 2.1481364e-06 8.939691e-06 6.0701427e-06 1.8101231e-06 1.5019267e-06
2.2467732e-06 4.163513e-06 3.0712347e-06 1.6016527e-06 1.2402068e-05 4.228007e-06 4.4876724e-06 1.1836886e-05
4.3839123e-06 1.0346547e-06 1.0985001e-06 2.4576482e-06 5.946333e-06 2.1063597e-06 1.5865864e-06 4.410098e-06
7.608532e-07 1.7768044e-06 4.78707e-06 1.3960732e-06 1.9345357e-06 1.0711318e-05 2.3509763e-06 3.4408847e-06
4.812936e-06 1.2836676e-06 1.6605313e-06 1.2163468e-06 2.480563e-06 8.518892e-06 9.016956e-07 2.8294244e-06
1.4693792e-06 3.7687948e-06 5.2041078e-06 1.4283924e-06 1.8393613e-06 3.2062844e-06 4.1373346e-06 1.8281754e-06
4.2466213e-06 4.531493e-06 1.8651327e-06 7.7471776e-07 2.8350348e-06 7.074253e-06 9.2891224e-07 5.4820475e-07
2.376692e-06 2.2519557e-06 1.9176362e-06 1.026944e-06 5.113448e-07 7.590465e-06 5.4170814e-06 4.294554e-06
1.4568658e-06 2.523993e-06 1.2761156e-05 2.5637157e-06 1.8549687e-05 1.2666465e-05 2.6045982e-06 2.1203255e-06
3.7191262e-06 9.4437855e-06 3.122158e-06 2.7472613e-06 2.5887806e-05 9.153063e-06 8.680118e-06 2.546193e-05
8.875356e-06 1.195076e-06 1.541875e-06 3.8384974e-06 1.2778964e-05 3.8821036e-06 2.467461e-06 8.091476e-06
9.817612e-07 2.901661e-06 6.9569883e-06 2.6470918e-06 2.178945e-06 2.2117956e-05 3.5789262e-06 5.991383e-06
9.473718e-06 1.4135562e-06 2.1095634e-06 1.364984e-06 4.6235377e-06 1.4484704e-05 1.4050908e-06 5.49717e-06
2.1794217e-06 7.718678e-06 1.0283895e-05 1.6460325e-06 2.270846e-06 6.7965734e-06 6.6098823e-06 2.7133306e-06
7.925171e-06 8.801815e-06 2.5827599e-06 8.267759e-07 5.3905783e-06 1.38283085e-05 1.2703056e-06 5.939237e-07
3.7095365e-06 2.2759327e-06 3.503503e-06 1.4294509e-06 4.0911945e-07 1.4218194e-05 1.08561335e-05 8.542843e-06
00000000: c877 b335 9fec da35 8706 e936 cb26 ea35
00000010: 3a2f 2637 6ca2 e636 7c1d cc35 22f7 a135
00000020: 6829 f635 1c57 a436 942b 3536 79e3 c635
00000030: 891a 6537 b062 a636 4b94 9b36 6966 5d37
00000040: 5e35 9f36 4ee1 4835 445c 7835 31e3 0b36
00000050: 4a8c e036 430d 2436 9d02 c835 d4c2 9c36
00000060: 36d7 0e35 a343 cf35 6a7a 9236 ed6b cf35
00000070: 88b0 fa35 6d38 4737 26a3 1136 c685 5336
00000080: 28ef b536 ada3 4535 60ad f835 d8a8 a235
00000090: ce18 1d36 534c f936 75a4 7335 c94b 5136
000000a0: c3ec af35 6015 8836 1625 b036 fd08 7835
000000b0: 3ccc a735 d398 7136 027d 8136 9cbe cf35
000000c0: e478 a836 2514 a736 1d14 d035 563b 3835
000000d0: 98aa 4b36 aa0b f436 4609 3435 86d8 1c35
000000e0: c150 0a36 80e0 0936 478a f835 b0da 5d35
000000f0: cdb1 d034 5674 f636 f7c3 c236 cc93 9636
00000100: c0fe aa35 4517 4136 6daf 6837 7be2 f335
00000110: 95a0 a537 d7e5 5f37 75b9 1636 1dd0 e235
00000120: c978 4b36 c269 3337 e04f 3136 46ae 3836
00000130: 9d95 e337 430b 2737 4071 0d37 af87 e537
00000140: a0c7 1f37 8cc0 5335 1b57 9d35 a6a0 4e36
00000150: 0c38 6237 0c6c 8a36 19e7 1b36 321f 1037
00000160: 9dd2 2335 4dc5 2e36 fe5d b536 1721 2f36
00000170: b402 d835 63c1 c537 3cc1 3036 bde2 bc36
00000180: ccaa 2d37 d2c2 5f35 2c56 e835 a14d 9b35
00000190: 1bd3 9036 67d3 4637 c647 a635 3eb9 cb36
000001a0: 07e5 1736 98be 0137 a38a 2637 05bf 9335
000001b0: cca7 b835 a3e8 f136 d716 e236 18ef 1e36
000001c0: 12d8 1037 43fb 1d37 c04e 0536 595a 3435
000001d0: 38cb c436 8d66 6837 457f 5735 753c 1835
000001e0: 5d11 6636 999e 0236 1a8f 6536 2a69 9d35
000001f0: c218 d334 51b7 5e37 ac71 4037 1436 1937
00000200: 5110 9c35 9eeb d135 80da cd36 b428 1036
00000210: aefb 1537 21ae cb36 5bf3 f235 cf95 c935
00000220: 45c7 1636 4eb4 8b36 691b 4e36 5ef8 d635
00000230: 7a12 5037 4ede 8d36 d094 9636 0a97 4637
00000240: 8519 9336 77de 8a35 2d70 9335 13ee 2436
00000250: 9d86 c736 fc5a 0d36 b2f2 d435 74fa 9336
00000260: 6f3d 4c35 897a ee35 9ea0 a036 b660 bb35
00000270: 12d3 0136 c3b4 3337 77c5 1d36 f3e9 6636
00000280: ce7e a136 7c4a ac35 6cdf de35 5c41 a335
00000290: bf77 2636 5dec 0e37 0d0c 7235 24e1 3d36
000002a0: 7c37 c535 67eb 7c36 f29e ae36 30b7 bf35
000002b0: f9df f635 8c2b 5736 6fd3 8a36 a15f f535
000002c0: 337e 8e36 3a0d 9836 7955 fa35 33f6 4f35
000002d0: 8741 3e36 5f5f ed36 5d5a 7935 5828 1335
000002e0: 427f 1f36 4e20 1736 bdb0 0036 87d5 8935
000002f0: 5943 0935 99b1 fe36 60c4 b536 f019 9036
00000300: 8789 c335 df61 2936 bf18 5637 4d0c 2c36
00000310: 269b 9b37 0e82 5437 a8ca 2e36 ea4a 0e36
00000320: 1a96 7936 c070 1e37 4486 5136 975d 3836
00000330: a429 d937 1b90 1937 d3a0 1137 1497 d537
00000340: 5de7 1437 8066 a035 6cf2 ce35 71cc 8036
00000350: 3c65 5637 0443 8236 a896 2536 a0c0 0737
00000360: 0fc5 8335 28ba 4236 1370 e936 b1a4 3136
00000370: fd39 1236 f389 b937 7c2d 7036 9709 c936
00000380: 4ff1 1e37 6cb9 bd35 0692 0d36 7e34 b735
00000390: e323 9b36 5403 7337 8d96 bc35 5574 b836
000003a0: 2e42 1236 787f 0137 fe88 2c37 3fed dc35
000003b0: d664 1836 1f0e e436 75ca dd36 aa16 3636
000003c0: 5af6 0437 82ab 1337 7a53 2d36 9bef 5d35
000003d0: b7e0 b436 2200 6837 5e7f aa35 206e 1f35
000003e0: 5af1 7836 3abc 1836 b91d 6b36 8fdb bf35
000003f0: f3a4 db34 ae8a 6e37 bd22 3637 3b53 0f37

exp_avg f4 [32]
-0.0003650515 -0.00022808564 0.00035151327 0.00019914005 0.00024350178 0.0004735165 -0.00014342178 5.499197e-05
-2.9353352e-05 0.00016831938 -0.0001345795 5.0105227e-05 0.00042902204 6.11218e-05 -0.000105997686 0.00045827476
-0.00017206778 -6.797228e-05 4.7845137e-05 -6.934301e-05 -0.00020826909 6.579971e-05 0.0002691541 0.00012303557
0.00054758834 -0.00055738067 0.00030410575 0.00013979191 -0.00083997333 -6.353718e-05 -0.0001579679 0.00010848556
00000000: 6264 bfb9 462a 6fb9 504b b839 40d0 5039
00000010: 8354 7f39 4f42 f839 7e63 16b9 2ea7 6638
00000020: d83b f6b7 e47e 3039 e91d 0db9 1428 5238
00000030: 5dee e039 842e 8038 134b deb8 9944 f039
00000040: 186d 34b9 578c 8eb8 53ad 4838 3f6c 91b8
00000050: cf62 5ab9 f3fd 8938 401d 8d39 1c03 0139
00000060: 088c 0f3a 2f1d 12ba 6270 9f39 1b95 1239
00000070: a831 5cba 443f 85b8 2fa4 25b9 be82 e338

exp_avg_sq f4 [32]
3.0376093e-05 5.595144e-05 2.9931934e-05 5.7051402e-05 4.645864e-05 1.7228685e-05 1.0628298e-05 4.2069583e-05
2.6326856e-05 2.3908246e-05 1.0439509e-05 2.3432021e-05 2.6347108e-05 1.9428167e-05 3.4557914e-05 1.56189e-05
5.8424237e-05 5.7451067e-05 1.5387139e-05 5.360983e-05 2.9362272e-05 1.3780905e-05 2.4457366e-05 2.2041098e-05
2.8733974e-05 2.098456e-05 2.3387887e-05 2.5131158e-05 2.7682558e-05 1.4104705e-05 1.1591728e-05 2.8527327e-05
00000000: 2ad0 fe37 67ad 6a38 5716 fb37 7a4a 6f38
00000010: 96dc 4238 5286 9037 3150 3237 df73 3038
00000020: 7ed8 dc37 918e c837 5a25 2f37 e28f c437
00000030: fc03 dd37 acf9 a237 47f2 1038 5505 8337
00000040: 8c0c 7538 9df7 7038 a113 8137 1edb 6038
00000050: 004f f637 8934 6737 cb29 cd37 e6e4 b837
00000060: bd09 f137 0008 b037 1b31 c437 c0d0 d237
00000070: d737 e837 3fa3 6c37 187a 4237 f84d ef37

exp_avg f4 [6, 32]
-1.7517094e-05 5.6379056e-05 -0.0003934179 0.00050981593 0.0004648292 0.00031931454 -0.00019959197 -4.2649932e-05
4.8196827e-05 -1.39834265e-05 0.00042111063 -0.00035703185 -3.3689605e-05 0.0005695801 0.0004677841 -0.00013969462
0.00021836246 0.0007564218 0.0009555534 0.0001998622 2.163599e-05 -0.00028034617 -0.0003471811 -0.0001570316
-0.00020358131 -0.00018636757 0.0003183653 0.0004641745 -0.00019604193 0.00010722802 0.0005770567 0.00043568
9.657117e-05 -0.0002476422 -0.0005749034 8.923208e-05 -0.00025391203 -0.00052641187 0.0010665853 6.129536e-05
-0.0006069086 -0.00034548208 2.1958974e-06 -0.000846913 -0.0006764206 0.0008452381 0.0007400708 -0.00011074447
7.310922e-05 -0.00038746133 0.00090091757 0.0009481869 -0.00083321583 0.00070762914 -0.00062714296 -0.0003714838
0.0002906909 -0.0001991597 -1.1738348e-05 0.00039350975 -0.0001288882 0.0005523635 0.00040706643 -0.00030540486
5.6223184e-06 0.00014283009 -0.00013364232 0.00055655616 0.00044702686 -0.00024860326 0.00026876258 -0.00021395188
-9.1304435e-05 -0.00026263774 -0.00041713673 -0.00040301037 3.9478276e-05 0.00030519173 -0.0012611322 0.00031636428
0.00017101364 -0.00039194946 0.00094270916 0.00028635497 -0.0013289258 0.000595402 -3.6653295e-05 0.0006736906
0.000455107 -0.00026081988 -0.00039731167 -0.00048299335 0.001444268 -0.00016544438 0.00034707546 -0.00017366976
-0.0004396062 -0.00026056723 -0.00092160545 0.00048281075 0.0006930128 -0.00029487445 0.0002636111 1.09137245e-05
-0.00065665157 -0.00045520844 0.0007526958 -0.00011302776 0.0011434968 0.00082222576 9.513085e-05 -0.0005607786
0.0005908178 0.00013129627 0.00023818624 0.00081605266 -0.00020816729 -5.3568678e-05 -9.103656e-05 0.0008504259
6.7671404e-05 -0.0009210129 -0.00050562946 0.0002416747 0.00091977505 -0.00023856579 0.0010063259 -0.0003722074
0.0003967212 0.00030903937 6.54726e-05 0.00016961177 0.00050610374 0.0005054023 -0.0005849105 -0.00011976998
0.0005905907 0.0006784113 -0.00046983437 0.00017949675 -0.00025989694 -0.0008828059 -0.0007064616 0.0016674632
-0.00076311425 -0.00031155936 -0.0003734864 -0.00095732335 -0.00020702602 -0.000272093 0.00045585056 -0.0006996283
0.0007456996 0.000186071 0.0005625878 0.00042211183 0.00022781457 -6.5988366e-05 -0.0001702443 0.0006905921
7.407121e-05 -0.0002570953 -0.0003385081 -6.059578e-05 0.00031935124 -0.00020250535 -0.0006546658 -0.00030287026
-0.00023225289 9.9168705e-05 0.00020513801 0.0005627133 0.0004597689 0.00016174997 0.00085151294 4.7341022e-05
0.0006179211 -0.00010914284 0.0018093513 0.0010290621 0.0006537837 -0.0002120862 0.0007994053 0.00048962317
-0.0004342471 -6.528945e-05 -0.00027706404 -0.0003390998 -0.0011203588 -0.00012724606 0.00076287263 0.00020047117
00000000: acf1 92b7 8d78 6c38 a843 ceb9 2ba5 053a
00000010: 52b4 f339 ac69 a739 9049 51b9 04e3 32b8
00000020: f326 4a38 5c9a 6ab7 83c8 dc39 0130 bbb9
00000030: f04d 0db8 e04f 153a eb40 f539 fd7a 12b9
00000040: 3af8 6439 9c4a 463a 1a7e 7a3a 1a92 5139
00000050: ef7e b537 6dfb 92b9 dc05 b6b9 d9a8 24b9
00000060: 7178 55b9 aa6b 43b9 44ea a639 725c f339
00000070: 9b90 4db9 9bdf e038 9f45 173a fb6b e439
00000080: 4186 ca38 f9d5 81b9 1db5 16ba 1c22 bb38
00000090: 7f1f 85b9 e7fe 09ba aacc 8b3a b28b 8038
000000a0: f218 1fba d221 b5b9 3b5d 1336 5f03 5eba
000000b0: d151 31ba f892 5d3a 5001 423a 7c3f e8b8
000000c0: 3752 9938 2e24 cbb9 8e2b 6c3a bf8f 783a
000000d0: 2b6c 5aba 3080 393a da66 24ba b6c3 c2b9
000000e0: df67 9839 86d5 50b9 d2ef 44b7 fc4f ce39
000000f0: 2a26 07b9 7dcc 103a 886b d539 bf1e a0b9
00000100: 59a7 bc36 a9c4 1539 5622 0cb9 dae5 113a
00000110: ee5e ea39 f756 82b9 b4e8 8c39 4558 60b9
00000120: b27a bfb8 a4b2 89b9 25b3 dab9 234b d3b9
00000130: 7a95 2538 2402 a039 934c a5ba b2dd a539
00000140: 2052 3339 917e cdb9 2420 773a ea21 9639
00000150: 5a2f aeba c014 1c3a 2dbc 19b8 9c9a 303a
00000160: 6d9b ee39 a7be 88b9 454e d0b9 453a fdb9
00000170: 984d bd3a 237b 2db9 aef7 b539 1f1b 36b9
00000180: f27a e6b9 be9c 88b9 e597 71ba c321 fd39
00000190: 4dab 353a 6199 9ab9 4835 8a39 171a 3737
000001a0: 2423 2cba 0ba9 eeb9 8f50 453a 5109 edb8
000001b0: 63e1 953a a38a 573a fc80 c738 3701 13ba
000001c0: 1de1 1a3a 93ac 0939 a2c1 7939 5eec 553a
000001d0: 7b47 5ab9 eeae 60b8 e2ea beb8 1eef 5e3a
000001e0: cfea 8d38 2170 71ba 388c 04ba 0f6a 7d39
000001f0: 0f1d 713a 8427 7ab9 b2e6 833a d524 c3b9
00000200: 05ff cf39 9006 a239 564e 8938 d0d9 3139
00000210: 0cac 043a f97c 043a ae54 19ba 052d fbb8
00000220: dfd1 1a3a 69d7 313a 1a54 f6b9 4b37 3c39
00000230: c742 88b9 1a6c 67ba d631 39ba c88e da3a
00000240: bb0b 48ba ca58 a3b9 7fd0 c3b9 e2f4 7aba
00000250: 2015 59b9 b4a7 8eb9 3aff ee39 4367 37ba
00000260: 0e7b 433a 0e1c 4339 a17a 133a e44e dd39
00000270: 82e1 6e39 3c63 8ab8 9b83 32b9 da08 353a
00000280: ae56 9b38 bfca 86b9 ca79 b1b9 3928 7eb8
00000290: 996e a739 9e57 54b9 e19d 2bba 8fca 9eb9
000002a0: e988 73b9 cbf8 cf38 511a 5739 0d83 133a
000002b0: 230d f139 6d9b 2939 1138 5f3a 0990 4638
000002c0: fcfb 213a 9ee3 e4b8 c127 ed3a 98e1 863a
000002d0: ae62 2b3a 7563 5eb9 2e8f 513a 0e5a 003a
000002e0: a9ab e3b9 02ec 88b8 e842 91b9 34c9 b1b9
000002f0: 01d9 92ba 5b6d 05b9 84fb 473a 9235 5239

exp_avg_sq f4 [6, 32]
8.478913e-06 8.795533e-06 1.1298478e-05 1.4118427e-05 3.9222556e-05 4.5526754e-06 9.688525e-06 6.536519e-06
1.8841523e-05 4.5238044e-06 1.0259773e-05 2.9575836e-05 3.3151122e-05 7.0452174e-06 8.400358e-06 1.8776745e-05
5.5333667e-06 9.127281e-06 6.369724e-05 1.2672715e-05 5.8481205e-06 4.3903556e-06 1.0352009e-05 4.4279383e-05
1.0192484e-05 2.0117388e-05 9.841761e-06 5.260779e-06 2.075504e-05 5.040052e-06 6.3133935e-05 2.055786e-05
1.2930659e-05 1.00765155e-05 1.620992e-05 2.4263903e-05 5.3338186e-05 5.9950307e-06 8.8834995e-06 6.8894215e-06
3.07695e-05 6.568758e-06 1.4699216e-05 3.6585014e-05 5.5369546e-05 6.4704627e-06 8.9124105e-06 1.7079248e-05
7.2105736e-06 1.2769613e-05 0.000104715094 2.1101976e-05 6.5921263e-06 6.639588e-06 1.1986327e-05 7.13278e-05
1.0073483e-05 3.33404e-05 1.1036568e-05 5.391043e-06 2.2800978e-05 6.028927e-06 0.00010146407 2.947347e-05
1.2542972e-05 1.3601542e-05 2.0533049e-05 2.428904e-05 5.916949e-05 9.205219e-06 1.196481e-05 8.957094e-06
2.9391687e-05 7.060788e-06 1.6967218e-05 4.623306e-05 4.9764134e-05 1.0591623e-05 1.2554113e-05 2.346793e-05
6.941465e-06 1.4019911e-05 0.000104851526 1.8999961e-05 7.825577e-06 6.771035e-06 1.3671963e-05 7.2936746e-05
1.349572e-05 3.612027e-05 1.33866415e-05 6.3172115e-06 2.9222105e-05 6.841207e-06 0.00010131702 2.783748e-05
1.2920499e-05 1.3178767e-05 2.1549378e-05 2.339987e-05 4.9239778e-05 7.6213005e-06 1.4155022e-05 9.36896e-06
3.010048e-05 6.9847533e-06 1.40545235e-05 3.7690243e-05 4.7897505e-05 8.712489e-06 1.2064778e-05 2.5858197e-05
6.440058e-06 1.3571994e-05 0.000100976635 1.8959085e-05 9.292588e-06 7.890085e-06 1.1858735e-05 7.019006e-05
1.2316117e-05 3.3500783e-05 1.3941069e-05 6.2222116e-06 3.0221006e-05 5.3104595e-06 9.289787e-05 2.7977316e-05
3.193806e-05 1.8819701e-05 3.4527944e-05 6.95191e-05 9.8525124e-05 6.5884933e-06 1.7206325e-05 1.0392155e-05
7.756363e-05 1.4633792e-05 3.8485217e-05 5.853862e-05 0.00014388116 1.0760562e-05 1.6542182e-05 2.7890841e-05
1.2154981e-05 1.4041171e-05 0.00026081942 6.356916e-05 6.935537e-06 1.4581762e-05 1.748165e-05 0.00017510893
2.3853747e-05 7.458352e-05 1.0391768e-05 6.6983835e-06 4.8976606e-05 1.317904e-05 0.00026095906 7.6259064e-05
1.8446914e-05 1.3148601e-05 2.4712483e-05 3.8314534e-05 7.164164e-05 7.6060887e-06 1.306901e-05 8.856769e-06
4.6600107e-05 9.1761485e-06 2.1270595e-05 5.179995e-05 8.0633035e-05 9.021652e-06 1.1487015e-05 2.4375271e-05
9.30435e-06 1.3472293e-05 0.00015708161 3.2079755e-05 7.758405e-06 1.1191247e-05 1.438639e-05 0.00010497484
1.542752e-05 4.7407786e-05 1.2205966e-05 5.599086e-06 3.187027e-05 8.839091e-06 0.00015314657 4.194214e-05
00000000: a740 0e37 8790 1337 988e 3d37 2fde 6c37
00000010: e682 2438 2fc3 9836 e68b 2237 4554 db36
00000020: dd0d 9e37 2fcb 9736 6421 2c37 a019 f837
00000030: bf0b 0b38 f565 ec36 43ef 0c37 c182 9d37
00000040: 42ab b936 6021 1937 3295 8538 e59c 5437
00000050: f93a c436 de50 9336 8aad 2d37 a0b8 3938
00000060: 6300 2b37 c3c1 a837 0b1e 2537 bf85 b036
00000070: 1c1b ae37 b81d a936 c666 8438 ab73 ac37
00000080: c2f0 5837 4e0e 2937 8afa 8737 568a cb37
00000090: 71b7 5f38 ec28 c936 570a 1537 ae2b e736
000000a0: 800e 0138 3469 dc36 a79c 7637 dc72 1938
000000b0: 993c 6838 da1c d936 8386 1537 6845 8f37
000000c0: 5bf2 f136 123d 5637 7d9a db38 2604 b137
000000d0: ef31 dd36 a0c9 de36 e218 4937 d295 9538
000000e0: 4801 2937 fbd6 0b38 b329 3937 b5e4 b436
000000f0: ba44 bf37 174c ca36 1cc9 d438 cb3d f737
00000100: a86f 5237 2e32 6437 633e ac37 51c0 cb37
00000110: c22c 7838 1d70 1a37 78bc 4837 6d46 1637
00000120: 2b8e f637 b5eb ec36 d354 8e37 5fea 4138
00000130: d5b9 5038 adb2 3137 819f 5237 ffdc c437
00000140: bbea e836 0f37 6b37 bce3 db38 1b62 9f37
00000150: 994a 0337 bf32 e336 a260 6537 9ef5 9838
00000160: ad6b 6237 d87f 1738 3097 6037 6ff8 d336
00000170: fe21 f537 858d e536 297a d438 8884 e937
00000180: 1fc5 5837 601a 5d37 f0c4 b437 d74a c437
00000190: cf86 4e38 79ba ff36 5b7b 6d37 602f 1d37
000001a0: 4a80 fc37 935e ea36 b8cb 6b37 9715 1e38
000001b0: 8ee5 4838 db2b 1237 d469 4a37 0eea d837
000001c0: ad17 d836 45b3 6337 6bc3 d338 530a 9f37
000001d0: 5de7 1b37 a85f 0437 e1f4 4637 0033 9338
000001e0: 52a1 4e37 3183 0c38 6fe4 6937 64c8 d036
000001f0: 1e83 fd37 8030 b236 2ad2 c238 d4b0 ea37
00000200: 3bf5 0538 00df 9d37 19d2 1038 c8ca 9138
00000210: 469f ce38 ba12 dd36 4d56 9037 f759 2e37
00000220: a8a9 a238 a883 7537 306b 2138 5d87 7538
00000230: cede 1639 4388 3437 11c4 8a37 20f7 e937
00000240: 3fed 4b37 5f92 6b37 97be 8839 6f50 8538
00000250: cfb7 e836 31a4 7437 8fa5 9237 729d 3739
00000260: 8819 c837 b969 9c38 4e58 2e37 adc2 e036
00000270: 3b6c 4d38 8c1b 5d37 55d1 8839 46ed 9f38
00000280: 72be 9a37 d098 5c37 a74d cf37 ebb3 2038
00000290: 503e 9638 ce37 ff36 f842 5b37 8997 1437
000002a0: 7c74 4338 42f3 1937 416e b237 c643 5938
000002b0: 8819 a938 b35b 1737 5bb8 4037 7f79 cc37
000002c0: e119 1c37 0f07 6237 46b6 2439 608d 0638
000002d0: 192a 0237 0ac2 3b37 135d 7137 f025 dc38
000002e0: 596a 8137 b9d7 4638 3ac8 4c37 c8df bb36
000002f0: 71ac 0538 9b4b 1437 f895 2039 08eb 2f38

exp_avg f4 [6]
-0.0009160846 -0.00012896035 -0.001133942 -0.0008979128 -0.0003795938 -0.00019351853
00000000: 6625 70ba 8839 07b9 c8a0 94ba e861 6bba
00000010: 3804 c7b9 3ceb 4ab9

exp_avg_sq f4 [6]
0.00019538241 0.0003015257 0.00033510258 0.00030886475 0.00060416857 0.00041823476
00000000: 91df 4c39 1816 9e39 b5b0 af39 20ef a139
00000010: 1161 1e3a 8546 db39

exp_avg f4 [64, 26]
0.029213319 0.0 0.07144054 -0.022700423 0.0 0.041633602 0.0 -0.016847394
-0.17693979 0.006973694 0.021751128 -0.03176762 0.086435765 -0.020546904 0.048052736 0.051684372
0.28029102 -0.037357546 -0.079453215 -0.023892634 -0.011109105 -0.121551074 3.7654016e-13 -0.034221545
1.541295e-29 0.010625138 0.009671989 0.0 0.090857536 -0.0031324027 0.0 -0.029383998
0.0 0.060846083 -0.42660925 -0.0045631584 -0.037768036 -0.00221914 -0.029024497 0.0053698746
0.1081411 -0.02413322 0.13656215 -0.032275595 -0.23964107 -0.045786873 0.12513876 0.23006278
8.711181e-14 0.07554278 1.7085541e-29 -0.0043813386 -0.091341846 0.0 -0.0014252126 0.09682895
0.0 -0.23306851 0.0 0.1212084 0.23394342 0.00564755 -0.26279008 0.082937144
-0.6597449 0.13680986 -0.22950482 -0.20809008 -0.8522635 0.012909625 0.32070014 -0.11677074
0.15501033 0.5797989 -5.054479e-12 0.20318836 -3.2131658e-29 -0.014072482 -0.010373107 0.0
0.08788845 -0.020713313 0.0 0.04091255 0.0 0.028879205 -0.15623024 -0.006370774
-0.03709697 -0.013599109 0.1503832 0.024191147 0.13411596 -0.033331387 0.11491462 0.06834825
-0.18724677 -0.077419184 0.08314455 0.074897796 -1.33055e-13 0.039538324 1.2828558e-29 0.0042971484
0.023561323 0.0 -0.06590255 -0.010711169 0.0 0.028813392 0.0 -0.027735205
0.0065378924 0.006336476 0.043519977 -0.027735865 0.11649194 -0.04045462 -0.027667861 0.03903568
0.08970088 -0.00763828 0.01724083 -0.0037511282 -0.052662518 -0.17324412 2.8632486e-13 -0.07162767
-2.9058205e-30 -0.0047477265 0.01520392 0.0 0.07665209 -0.010589252 0.0 0.015730198
0.0 0.00420459 -0.15769684 -0.0007572672 -0.020842819 -0.009566266 0.02266708 -0.009327103
0.05017754 0.03225646 0.1868739 -0.021347519 -0.08167563 -0.020057589 0.038177032 -0.009374601
2.6677299e-13 0.015716465 1.4132004e-29 -5.684941e-05 -0.01937229 0.0 -0.034807883 -0.0039920295
0.0 0.04260467 0.0 -0.046910822 0.3698969 0.0047518234 -0.024629535 -0.00019090422
0.17571323 -0.037822064 0.004370134 0.016558386 -0.056703757 0.0878413 0.12981059 -0.003794661
-0.06514737 -0.22173032 3.3221142e-13 0.004782258 -8.061846e-30 -0.00011388565 -0.002635088 0.0
0.15481474 -0.025591979 0.0 0.039783962 0.0 0.016156016 -0.13683096 -0.0051966584
-0.09730719 1.7961947e-05 0.13125303 -0.044675115 0.15454613 -0.0071015363 0.24661984 0.0979822
-0.15134075 -0.10811517 0.11393368 0.011124423 2.561779e-13 0.084094375 1.4629893e-29 -0.011154187
-0.00604939 0.0 -0.04645833 0.0079671 0.0 0.009103637 0.0 -0.0094276825
0.10384918 0.0026415528 -0.016405422 0.0036140787 0.041930094 0.0013745221 -0.021631291 0.0319275
-0.015403982 -0.03137254 -0.009171402 0.016703043 -0.0040820274 -0.040660914 3.60717e-13 0.007880147
-6.6794154e-30 0.0032123518 -0.021276489 0.0 0.13734852 0.021039158 0.0 -0.05092282
0.0 0.05711451 -0.15473408 -0.0019888817 -0.0819194 0.015243567 -0.15650223 0.014669315
0.06303927 -0.017483393 -0.05717411 -0.07383821 -0.058908883 0.0341369 0.078512765 0.24963783
00000000: c550 ef3c 0000 0000 6b4f 923d 3df6 b9bc
00000010: 0000 0000 ff87 2a3d 0000 0000 8c03 8abc
00000020: b42f 35be 9683 e43b 6c2f b23c c41e 02bd
00000030: 3c05 b13d fb51 a8bc f2d2 443d feb2 533d
00000040: 4e82 8f3e 3a04 19bd 5eb8 a2bd 7cba c3bc
00000050: f702 36bc c5ef f8bd 28f9 d32a e42b 0cbd
00000060: 4e4e 9c0f 0f15 2e3c 4377 1e3c 0000 0000
00000070: 8413 ba3d ff48 4dbb 0000 0000 b6b6 f0bc
00000080: 0000 0000 be39 793d 876c dabe 8c86 95bb
00000090: a8b2 1abd fe6e 11bb c8c4 edbc c6f5 af3b
000000a0: 1579 dd3d 08b3 c5bc f3d6 0b3e 6a33 04bd
000000b0: 7864 75be 048b 3bbd 6024 003e 9495 6b3e
000000c0: 8a28 c429 2cb6 9a3d 9a44 ad0f 5591 8fbb
000000d0: 6f11 bbbd 0000 0000 33ce baba 424e c63d
000000e0: 0000 0000 83a9 6ebe 0000 0000 1c3c f83d
000000f0: dd8e 6f3e 150f b93b 6c8c 86be f3da a93d
00000100: 0be5 28bf e217 0c3e 5003 6bbe 9115 55be
00000110: f12d 5abf e482 533c cf32 a43e 7f25 efbd
00000120: 07bb 1e3e b36d 143f b3d6 b1ac 9c10 503e
00000130: 47ed 2290 4490 66bc f7f3 29bc 0000 0000
00000140: dcfe b33d f7ae a9bc 0000 0000 eb93 273d
00000150: 0000 0000 1594 ec3c d2fa 1fbe edc1 d0bb
00000160: fef2 17bd ccce 5ebc 0efe 193e 832c c63c
00000170: b255 093e 7e86 08bd 5b58 eb3d 2bfa 8b3d
00000180: 9ebd 3fbe f38d 9ebd b147 aa3d 0464 993d
00000190: 7ece 15aa f0f2 213d d718 820f 18cf 8c3b
000001a0: ad03 c13c 0000 0000 ebf7 86bd e67d 2fbc
000001b0: 0000 0000 100a ec3c 0000 0000 f134 e3bc
000001c0: d13b d63b 37a2 cf3b 0142 323d 5336 e3bc
000001d0: 5493 ee3d beb3 25bd b6a7 e2bc e1e3 1f3d
000001e0: 18b5 b73d 894a fabb a43c 8d3c 7dd5 75bb
000001f0: a7b4 57bd e866 31be c32f a12a 87b1 92bd
00000200: 88bf 6b8e d192 9bbb dd19 793c 0000 0000
00000210: c5fb 9c3d 8b7e 2dbc 0000 0000 9edc 803c
00000220: 0000 0000 a8c6 893b 487b 21be 5783 46ba
00000230: 8fbe aabc d4bb 1cbc 50b0 b93c b5d0 18bc
00000240: f786 4d3d 5a1f 043d df5b 3f3e fee0 aebc
00000250: 8d45 a7bd d04f a4bc 855f 1c3d ed97 19bc
00000260: 0a2e 962a d1bf 803c c850 8f0f 9771 6eb8
00000270: a3b2 9ebc 0000 0000 b692 0ebd 92cf 82bb
00000280: 0000 0000 3c82 2e3d 0000 0000 9025 40bd
00000290: 2063 bd3e 2fb5 9b3b e1c3 c9bc 762d 48b9
000002a0: 2bee 333e 4feb 1abd 5733 8f3b 74a5 873c
000002b0: 3342 68bd 24e6 b33d 11ed 043e d9af 78bb
000002c0: fc6b 85bd 460d 63be b604 bb2a 7db4 9c3b
000002d0: 7f83 238f e5d5 eeb8 71b1 2cbb 0000 0000
000002e0: c187 1e3e 45a6 d1bc 0000 0000 82f4 223d
000002f0: 0000 0000 9f59 843c 6a1d 0cbe bb48 aabb
00000300: fe48 c7bd fdac 9637 3267 063e 41fd 36bd
00000310: 5741 1e3e 01b4 e8bb e989 7c3e e4aa c83d
00000320: 12f9 1abe 7c6b ddbd 1056 e93d 3643 363c
00000330: 2037 902a ac39 ac3d 605d 940f 0dc0 36bc
00000340: f639 c6bb 0000 0000 174b 3ebd 7088 023c
00000350: 0000 0000 6c27 153c 0000 0000 9176 1abc
00000360: e1ae d43d e71d 2d3b aa64 86bc 2eda 6c3b
00000370: e4be 2b3d 4f29 b43a 1b34 b1bc 69c6 023d
00000380: fc60 7cbc 7e80 00bd a643 16bc d2d4 883c
00000390: 87c2 85bb 0f8c 26bd cc10 cb2a bb1b 013c
000003a0: 8279 078f 5286 523b 084c aebc 0000 0000
000003b0: 17a5 0c3e 505a ac3c 0000 0000 7294 50bd
000003c0: 0000 0000 e8f0 693d 9c72 1ebe e657 02bb
000003d0: 5cc5 a7bd 27c0 793c 1f42 20be 9157 703c
000003e0: bc1a 813d 5539 8fbc 662f 6abd 7d38 97bd
000003f0: 714a 71bd 22d3 0b3d 4dcb a03d 0fa1 7f3e
