flare/polgrad/lightning_logs/version_38/checkpoints/epoch=95.ckpt (torch_old, 146766 bytes, 36 tensors)

exp_avg f4 [6]
000000 12 35 b3 3b 6e f8 02 3c f6 68 df 3a 2c ab 51 3c
       0.005468973 0.007993801 0.0017044831 0.012797158
000010 50 4e 9c 3b d8 61 d0 39
       0.0047700778 0.0003974575

exp_avg_sq f4 [6]
000000 af ca 9c 39 4c 63 c2 39 d8 b4 58 39 97 b0 cc 39
       0.0002990565 0.00037076545 0.00020666735 0.00039041482
000010 cc ac ac 39 bf bf 24 39
       0.0003293514 0.0001571169

exp_avg f4 [64, 22]
000000 36 a1 d4 b8 00 00 00 00 24 45 d8 3a 61 26 93 38
       -0.000101389756 0.0 0.0016500098 7.016655e-05
000010 00 00 00 00 de 9d bb 38 00 00 00 00 e5 33 02 ba
       0.0 8.94626e-05 0.0 -0.00049668393
000020 84 30 b3 3a 53 e6 f9 38 58 cf d1 3a cb fe 72 b9
       0.0013671075 0.000119161465 0.0016007228 -0.00023173836
000030 78 d0 d9 38 ec 66 82 b7 66 63 8b 3a d9 ab 92 39
       0.00010386197 -1.5545134e-05 0.0010634481 0.00027975327
000040 0a a8 c1 3a 10 71 0b b9 8b b4 33 3a f5 04 41 b9
       0.0014774811 -0.00013298192 0.0006855211 -0.00018407761
000050 d6 f0 b6 3a 4c c5 de 3a 98 0b 03 b9 00 00 00 00
       0.0013957273 0.0016996055 -0.00012497453 0.0
000060 8e a6 49 3b 5e e1 c9 38 00 00 00 00 d9 de 16 39
       0.003076944 9.626405e-05 0.0 0.00014388132
000070 00 00 00 00 b9 56 51 ba e4 5c 22 3b c4 b0 af b7
       0.0 -0.000798564 0.0024774605 -2.0943939e-05
000080 82 9a 2e 3b 9f 47 4a 38 ab 26 8a 39 e4 87 a5 38
       0.0026642387 4.8227255e-05 0.0002635022 7.893125e-05
000090 3c 71 09 3b 50 5c fc 38 c2 3b 30 3b 34 8d 89 b8
       0.0020972034 0.00012033491 0.0026891087 -6.55897e-05
0000a0 df 1b 59 3a 9a 02 2e b9 11 bc 28 3b b1 73 25 3b
       0.0008282046 -0.00016594902 0.0025746862 0.002524596
0000b0 0e 72 39 b9 00 00 00 00 60 71 35 3b 9a 0b 0b 38
       -0.00017685464 0.0 0.0027685985 3.3150987e-05
0000c0 00 00 00 00 be cb 4c 39 00 00 00 00 e3 5f 14 ba
       0.0 0.00019530856 0.0 -0.000566004
0000d0 7b a0 0b 3b 18 03 fd b8 2c 32 0f 3b ba c8 90 b8
       0.002130537 -0.00012064556 0.0021849973 -6.903843e-05
0000e0 42 2b 19 39 3a 26 2b 39 fd 28 0a 3b c1 a4 90 39
       0.00014607332 0.00016322071 0.002108156 0.00027588572
0000f0 fc ac 12 3b 36 93 31 b9 ac bb bd 39 3e 02 26 39
       0.0022380939 -0.00016934876 0.00036188716 0.00015831829
000100 3a db 08 3b 71 ed 06 3b 37 16 00 39 00 00 00 00
       0.0020882622 0.0020588303 0.00012215307 0.0
000110 f0 77 f7 39 00 00 5d b7 00 00 00 00 08 82 82 39
       0.00047200872 -1.31726265e-05 0.0 0.00024892413
000120 00 00 00 00 50 b5 b9 b8 98 70 69 39 20 51 c1 39
       0.0 -8.8552595e-05 0.00022262556 0.0003687227
000130 34 34 b8 39 fa 19 6e 39 52 34 97 b8 60 a0 1b 39
       0.0003513411 0.00022707126 -7.2099865e-05 0.00014841696
000140 9a d5 ac 39 e4 68 8b 39 38 cb cd 39 f7 58 d3 b8
       0.00032965542 0.00026590296 0.00039252057 -0.00010077835
000150 6c 12 c7 38 ea a9 ac 38 be 76 13 3a 20 77 84 38
       9.492491e-05 8.233248e-05 0.0005625299 6.316439e-05
000160 d5 9a c2 b9 00 00 00 00 f8 b4 2c ba 2b b7 03 3a
       -0.00037117922 0.0 -0.0006588246 0.00050245476
000170 00 00 00 00 36 48 1a b9 00 00 00 00 d0 08 1e 39
       0.0 -0.00014713485 0.0 0.00015071337
000180 40 ad 09 b9 ea 86 9e ba f8 57 b0 ba de fe 64 39
       -0.00013129879 -0.0012094651 -0.0013453951 0.0002183872
000190 8f e1 a5 39 9b 8d 25 b9 b0 6a 5c 39 e1 90 26 ba
       0.00031639307 -0.00015788378 0.00021020579 -0.0006353986
0001a0 18 3f b7 ba 67 e0 1b 3a 8f 22 e6 ba 92 e5 01 3a
       -0.0013980595 0.00059462193 -0.0017557907 0.0004955168
0001b0 d0 22 a0 ba 70 02 c6 ba 10 8b 86 39 00 00 00 00
       -0.0012217406 -0.0015106928 0.0002566208 0.0
0001c0 62 fc 3f bb 70 50 4d b8 00 00 00 00 cf 9a c9 38
       -0.002929472 -4.8950722e-05 0.0 9.613262e-05
0001d0 00 00 00 00 4a f3 0f 3a c6 15 0b bb 1a bb e4 39
       0.0 0.000549127 -0.0021222695 0.0004362695
0001e0 da 9f ce ba 04 a4 8e ba da 2d a6 b9 5f 76 70 39
       -0.0015764192 -0.0010882621 -0.0003169615 0.0002293228
0001f0 fb 15 02 bb 6d 45 1e 39 c2 56 11 bb 5e 62 b2 b9
       -0.0019849527 0.00015093917 -0.0022176956 -0.00034024095
000200 10 52 5b b9 1d cc d8 38 d2 fc 1b bb 2e d7 fa ba
       -0.00020916038 0.00010337702 -0.0023801816 -0.0019137615
000210 a0 d7 d4 b7 00 00 00 00 00 ff 22 b7 a9 da 69 b9
       -2.5372778e-05 0.0 -9.715324e-06 -0.00022302069
000220 00 00 00 00 99 ba 8e b9 00 00 00 00 a4 3a 05 39
       0.0 -0.00027223377 0.0 0.00012705714
000230 da c1 1a ba 38 bd f1 b7 25 47 92 ba 04 08 05 3a
       -0.000590352 -2.881755e-05 -0.0011160119 0.0005074742
000240 eb 64 86 b9 18 aa 78 37 a4 bb df b9 d2 23 1c 39
       -0.0002563366 1.4821555e-05 -0.00042673678 0.00014890663
000250 50 02 a8 38 62 c4 9f 38 7e 84 d5 39 ef 61 00 3a
       8.011295e-05 7.61829e-05 0.0004072524 0.0004897406
000260 6c f4 93 b9 6e 68 68 ba 95 76 29 39 00 00 00 00
       -0.00028220133 -0.0008865659 0.00016161271 0.0
000270 33 8f b7 bb e8 34 68 b9 00 00 00 00 d1 96 11 ba
       -0.0056017875 -0.00022144953 0.0 -0.00055537844
000280 00 00 00 00 68 48 c3 3a 52 d5 97 bb 6c 57 93 38
       0.0 0.0014898898 -0.004633584 7.02579e-05
000290 5b 31 b5 bb 70 ba 56 39 74 59 c3 b9 c2 a1 d9 b8
       -0.0055295653 0.00020478084 -0.00037259946 -0.00010377496
0002a0 ba 57 82 bb bc 80 fa b8 bd 67 9d bb 74 64 0e 39
       -0.003977743 -0.000119449076 -0.0048036263 0.00013579597
0002b0 a0 8a e4 ba 9e ad 12 3a c7 d1 9f bb 9e c1 a7 bb
       -0.0017436333 0.0005595329 -0.0048773023 -0.0051195165
0002c0 47 d9 22 39 00 00 00 00 9d a2 a8 ba 86 60 46 b8
       0.00015530466 0.0 -0.0012865845 -4.7296773e-05
0002d0 00 00 00 00 d9 5c d0 b8 00 00 00 00 72 f2 9f 39
       0.0 -9.935507e-05 0.0 0.0003050748
0002e0 ed ae 95 ba f2 e3 88 39 83 b3 88 ba 82 c8 28 38
       -0.001141993 0.00026109774 -0.0010429475 4.024106e-05
0002f0 44 9c 4a b9 71 11 a0 b8 e7 ab 8c ba 55 3e 47 39
       -0.00019322435 -7.632643e-05 -0.0010732383 0.0001900134
000300 85 15 5e ba 4a 24 de b8 28 ea 01 38 db d4 90 38
       -0.00084718346 -0.00010592544 3.097407e-05 6.9061025e-05
000310 95 7c 86 ba 46 5d 8e ba 57 47 0e b9 00 00 00 00
       -0.0010260517 -0.0010861538 -0.00013568751 0.0
000320 d0 81 9a 38 f7 bf 47 38 00 00 00 00 8e 71 b0 b7
       7.367472e-05 4.762408e-05 0.0 -2.1033713e-05
000330 00 00 00 00 00 66 92 36 20 2c 1c 39 31 c2 9c b9
       0.0 4.3630134e-06 0.00014893757 -0.00029899323
000340 00 ca d9 b8 98 34 0d 39 4e 70 fc 38 ec c9 80 b7
       -0.00010384992 0.000134664 0.00012037215 -1.5352816e-05
000350 48 f3 74 39 40 41 7c b9 d0 1e 7d b9 8a 70 56 39
       0.00023360283 -0.000240569 -0.00024139439 0.00020450554
000360 90 ba ce b9 20 ab 80 b6 a0 6f 1b b8 40 13 c7 38
       -0.00039430382 -3.834619e-06 -3.705884e-05 9.492645e-05
000370 3a d8 19 b9 00 00 00 00 0e 02 73 3b 67 e3 b8 39
       -0.00014671768 0.0 0.0037080082 0.00035264643
000380 00 00 00 00 58 e1 ec 39 00 00 00 00 4d 2f 84 ba
       0.0 0.00045181322 0.0 -0.0010084898
000390 b4 ea 62 3b 7b fb 07 ba 0d 66 87 3b 88 ee 11 ba
       0.0034624757 -0.0005187315 0.0041320384 -0.0005566855
0003a0 1d 5b 6a 39 bc 8f 06 37 6a 2a 39 3b 0e 9f 90 b8
       0.00022349921 8.020488e-06 0.002825404 -6.896081e-05
0003b0 48 ae 58 3b 80 2b c1 b7 3c a5 b1 3a 02 cc ca b9
       0.0033062864 -2.302765e-05 0.0013553272 -0.0003868044
0003c0 f1 fc 3b 3b 2a c5 60 3b ac 5f 82 b8 00 00 00 00
       0.00286847 0.0034297206 -6.216703e-05 0.0
0003d0 90 56 eb b9 55 26 da 37 00 00 00 00 a7 64 0a 38
       -0.00044887187 2.6005475e-05 0.0 3.2995504e-05
0003e0 00 00 00 00 40 01 e1 38 40 03 82 b9 7e 8c c7 b9
       0.0 0.00010729069 -0.00024797954 -0.00038060913
0003f0 40 44 da b9 a8 21 5b b7 40 7e aa 38 10 85 65 b8
       -0.0004163105 -1.3061253e-05 8.1297476e-05 -5.472178e-05

exp_avg_sq f4 [64, 22]
000000 fe fd 81 34 00 00 00 00 ce cd 56 38 ec 26 30 34
       2.4212926e-07 0.0 5.1213246e-05 1.6405437e-07
000010 00 00 00 00 2c 8e 07 34 00 00 00 00 0e 34 af 36
       0.0 1.2624577e-07 0.0 5.2214664e-06
000020 81 f7 12 38 be 3e ca 35 f0 1c 31 38 1c 17 5b 35
       3.503962e-05 1.5068433e-06 4.222704e-05 8.1617486e-07
000030 2e 38 01 36 19 9f d8 34 18 87 f8 37 b8 76 aa 35
       1.9255199e-06 4.0348894e-07 2.9626812e-05 1.2700539e-06
000040 9d f5 3d 38 70 39 22 35 6b 8b 0d 37 5d ff e3 34
       4.5289857e-05 6.0433285e-07 8.436716e-06 4.2467846e-07
000050 68 05 40 38 d2 50 39 38 70 21 d3 34 00 00 00 00
       4.5781402e-05 4.4182707e-05 3.9326142e-07 0.0
000060 88 2c c4 38 3f 67 49 34 00 00 00 00 5f 93 53 34
       9.354303e-05 1.8757144e-07 0.0 1.970452e-07
000070 00 00 00 00 1f 69 25 37 f2 d0 86 38 9e 18 3c 36
       0.0 9.859242e-06 6.428537e-05 2.8028512e-06
000080 84 8c a4 38 ae 8d ce 35 5c 6a 1e 36 49 c1 35 35
       7.8463025e-05 1.538943e-06 2.3605744e-06 6.770902e-07
000090 af 08 5d 38 17 dc 14 36 8c 05 b2 38 ed 2e 60 35
       5.2698593e-05 2.2181828e-06 8.4887346e-05 8.351479e-07
0000a0 73 df 76 37 1d d8 1f 35 71 e3 af 38 7d 5e a9 38
       1.4714768e-05 5.95466e-07 8.3870145e-05 8.076148e-05
0000b0 18 dd d7 34 00 00 00 00 34 44 bf 38 ee 66 8b 34
       4.0207738e-07 0.0 9.1202935e-05 2.596566e-07
0000c0 00 00 00 00 19 01 69 34 00 00 00 00 08 0a 07 37
       0.0 2.1700215e-07 0.0 8.048963e-06
0000d0 32 74 89 38 87 b7 3f 36 76 76 9f 38 cb b9 e7 35
       6.554312e-05 2.8568045e-06 7.603776e-05 1.7264914e-06
0000e0 09 06 60 36 41 1f 67 35 22 01 6a 38 b5 7e 1a 36
       3.3382114e-06 8.6099686e-07 5.5791003e-05 2.3021541e-06
0000f0 37 f5 a9 38 27 4a 89 35 5f ec 80 37 8d 53 6f 35
       8.104223e-05 1.0228877e-06 1.5368858e-05 8.915602e-07
000100 97 5c a7 38 bb 52 a0 38 9f 70 bb 34 00 00 00 00
       7.980427e-05 7.644804e-05 3.4913407e-07 0.0
000110 1f 39 a8 38 13 56 a2 34 00 00 00 00 69 2c 4f 34
       8.021504e-05 3.023748e-07 0.0 1.9294534e-07
000120 00 00 00 00 23 27 0e 37 42 8a 6c 38 65 8c 34 36
       0.0 8.472972e-06 5.6395547e-05 2.690381e-06
000130 bd 22 8d 38 d8 e1 a3 35 27 96 1e 36 19 ef 63 35
       6.7298744e-05 1.2210176e-06 2.3631235e-06 8.491202e-07
000140 f0 36 44 38 26 2e 16 36 40 a5 98 38 18 16 6f 35
       4.6781206e-05 2.2378604e-06 7.278705e-05 8.906659e-07
000150 f8 73 6e 37 75 f1 3b 35 87 4d 96 38 af 32 93 38
       1.42129065e-05 7.0014295e-07 7.166998e-05 7.018947e-05
000160 b8 cd d2 36 00 00 00 00 5c 03 bd 3a 30 fe 5f 36
       6.2824365e-06 0.0 0.0014420557 3.3377546e-06
000170 00 00 00 00 cb 25 3a 36 00 00 00 00 16 b3 22 39
       0.0 2.7738158e-06 0.0 0.00015516239
000180 94 73 82 3a 29 78 05 38 19 06 9e 3a 17 1d 95 37
       0.0009952658 3.182158e-05 0.0012056261 1.777573e-05
000190 3d fc 17 38 6e 9d 0e 37 41 a3 50 3a 04 5a d5 37
       3.623612e-05 8.500514e-06 0.0007958897 2.5433495e-05
0001a0 91 d4 ac 3a f4 8c 24 37 86 14 7c 39 0b a5 08 37
       0.0013185908 9.80798e-06 0.00024040238 8.144659e-06
0001b0 02 c3 a9 3a 12 9b a2 3a d7 66 2f 35 00 00 00 00
       0.0012951794 0.0012405834 6.534223e-07 0.0
0001c0 05 21 0b 39 fb ac 07 35 00 00 00 00 a1 b9 f3 34
       0.00013268374 5.054314e-07 0.0 4.539734e-07
0001d0 00 00 00 00 4b 8e 6d 37 36 df be 38 46 95 b2 36
       0.0 1.4159431e-05 9.101482e-05 5.322191e-06
0001e0 1e ef e8 38 d4 a0 4b 36 d9 6e 9f 36 b4 03 ec 35
       0.00011107161 3.0342972e-06 4.7514736e-06 1.7584448e-06
0001f0 6c e2 a0 38 24 46 86 36 e2 92 f7 38 f7 63 c2 35
       7.671569e-05 4.0016766e-06 0.00011805237 1.448322e-06
000200 cd cb cc 37 22 7e 9c 35 f6 70 f3 38 99 11 eb 38
       2.4413597e-05 1.1659615e-06 0.000116081836 0.00011208951
000210 4b ad 21 35 00 00 00 00 f8 3c 0e 39 29 f4 ee 34
       6.022935e-07 0.0 0.00013564888 4.4508604e-07
000220 00 00 00 00 99 bb c0 34 00 00 00 00 e9 79 89 37
       0.0 3.5899282e-07 0.0 1.6388442e-05
000230 21 03 c2 38 0f 8b 8e 36 ea fb ee 38 60 12 14 36
       9.251224e-05 4.2481183e-06 0.00011395647 2.2064414e-06
000240 0d 3e 4f 36 43 0c cd 35 fc 51 99 38 db 1e 87 36
       3.0881522e-06 1.5277259e-06 7.310879e-05 4.0269056e-06
000250 f7 01 03 39 58 be 08 36 39 e6 dd 37 63 3c ca 35
       0.00012493866 2.0376374e-06 2.6452459e-05 1.5067748e-06
000260 84 03 00 39 f9 fb fc 38 49 05 19 36 00 00 00 00
       0.00012208341 0.0001206323 2.2801853e-06 0.0
000270 96 fa 0f 3a 6d a4 94 35 00 00 00 00 c7 15 8f 35
       0.00054923573 1.1074713e-06 0.0 1.0660668e-06
000280 00 00 00 00 9d d6 6c 38 59 dc c6 39 1d 9a 82 37
       0.0 5.646666e-05 0.00037929675 1.5568972e-05
000290 35 47 f1 39 41 db 17 37 e0 fe 70 37 07 81 8b 36
       0.00046020155 9.05135e-06 1.43644575e-05 4.1575436e-06
0002a0 10 80 a3 39 52 a4 5f 37 77 1a 03 3a 82 64 c0 36
       0.00031185197 1.3330095e-05 0.0005001197 5.7337465e-06
0002b0 1d 84 b6 38 e7 12 83 36 20 a6 00 3a c1 ce f6 39
       8.703044e-05 3.9063048e-06 0.0004907567 0.0004707482
0002c0 f5 41 a5 34 00 00 00 00 1d eb 93 38 65 55 5a 34
       3.0781635e-07 0.0 7.0532995e-05 2.0333898e-07
0002d0 00 00 00 00 1d 49 34 34 00 00 00 00 e0 6c 00 37
       0.0 1.6790405e-07 0.0 7.654744e-06
0002e0 93 02 4c 38 74 cc fa 35 4a 9d 78 38 e7 c5 74 35
       4.8639788e-05 1.8685955e-06 5.9274294e-05 9.118507e-07
0002f0 02 fb ff 35 58 f7 ff 34 2d 34 26 38 36 af bf 35
       1.9072033e-06 4.7677418e-07 3.9626077e-05 1.4281602e-06
000300 3a 25 86 38 6e e1 0f 35 c1 da 3a 37 05 ed e4 34
       6.396552e-05 5.3599695e-07 1.11373965e-05 4.2640764e-07
000310 06 b4 81 38 bf cd 7f 38 62 aa b5 34 00 00 00 00
       6.184731e-05 6.0988354e-05 3.3837847e-07 0.0
000320 99 14 a0 38 51 2e 79 34 00 00 00 00 40 0a 3b 34
       7.633231e-05 2.3206782e-07 0.0 1.7419461e-07
000330 00 00 00 00 84 bf 0b 37 c2 d8 5d 38 7b cc 07 36
       0.0 8.329636e-06 5.2892377e-05 2.023559e-06
000340 65 0a 86 38 b9 1f 7d 35 15 05 0d 36 a9 78 18 35
       6.391554e-05 9.4296007e-07 2.1013595e-06 5.6799996e-07
000350 d5 47 33 38 d5 c2 d7 35 81 72 91 38 3a e4 2b 35
       4.2743824e-05 1.6075452e-06 6.935467e-05 6.403458e-07
000360 57 ca 5c 37 76 b5 02 35 bf a9 8d 38 0b a8 89 38
       1.3160133e-05 4.8692834e-07 6.7550216e-05 6.5639695e-05
000370 23 82 16 36 00 00 00 00 94 2e 02 3a e3 d5 bb 35
       2.2427491e-06 0.0 0.0004966047 1.3994835e-06
000380 00 00 00 00 ad 18 b0 35 00 00 00 00 98 ae 57 38
       0.0 1.3120203e-06 0.0 5.1422598e-05
000390 2d 2b b4 39 76 05 80 37 86 94 d9 39 09 14 1c 37
       0.00034364444 1.5261332e-05 0.00041500124 9.302989e-06
0003a0 dd b2 80 37 9a a7 a3 36 43 83 96 39 11 ed 5c 37
       1.5342079e-05 4.87729e-06 0.00028708027 1.3168218e-05
0003b0 e7 49 eb 39 64 44 df 36 9a e5 ab 38 d6 97 b2 36
       0.00044877754 6.6538796e-06 8.196682e-05 5.3224894e-06
0003c0 f3 fb e6 39 f7 2e df 39 97 53 6f 34 00 00 00 00
       0.00044056735 0.00042568866 2.228902e-07 0.0
0003d0 bb e3 4a 38 85 bb 17 34 00 00 00 00 02 e0 ef 33
       4.8372644e-05 1.413119e-07 0.0 1.11700516e-07
0003e0 00 00 00 00 ca d5 a8 36 c4 34 0c 38 ee e0 b4 35
       0.0 5.0316785e-06 3.3427743e-05 1.3476508e-06
0003f0 7b 7b 28 38 83 ca 35 35 2b 8b ef 35 27 1b f8 34
       4.016932e-05 6.772245e-07 1.7847391e-06 4.6213356e-07

exp_avg f4 [64]
000000 4a 45 d8 3a a1 a6 49 3b 6a 71 35 3b a8 77 f7 39
       0.0016500142 0.0030769485 0.0027686008 0.00047200662
000010 48 b5 2c ba 78 fc 3f bb 00 df 22 b7 32 8f b7 bb
       -0.00065882923 -0.002929477 -9.707874e-06 -0.005601787
000020 76 a2 a8 ba 10 80 9a 38 38 02 73 3b 46 56 eb b9
       -0.00128658 7.367146e-05 0.003708018 -0.00044886972
000030 b3 c8 63 3a 50 93 6e 3b ed e0 49 3b a6 ab f3 ba
       0.00086892693 0.0036403723 0.0030804232 -0.0018590584
000040 f0 ba c9 3b 24 56 2f bb d8 51 23 3a f8 81 3f b9
       0.006156318 -0.0026754225 0.0006230152 -0.00018263597
000050 67 82 aa bb e9 c6 1d 39 3d 86 6a 3a 3d d1 01 bb
       -0.0052035335 0.00015046787 0.00089463947 -0.0019808554
000060 b0 99 07 3b 62 bb ed 39 24 93 21 b9 eb 83 30 bb
       0.002069097 0.00045343774 -0.0001540897 -0.0026934098
000070 d0 07 6c b8 cc 6c 92 3b 28 f0 44 ba 52 f3 ae 3a
       -5.627406e-05 0.004468536 -0.0007512593 0.0013347662
000080 c0 6b d0 3b 8e 97 39 bb 12 ce 21 ba 64 65 0b bb
       0.006360501 -0.0028319093 -0.00061723695 -0.002127015
000090 f6 95 3c bb 90 a4 c7 ba 48 ca 63 b9 0e 8f 88 3b
       -0.0028775907 -0.0015231539 -0.00021723763 0.004167444
0000a0 d8 ae 97 3a 0c c8 ae 37 7c b8 62 3a a0 87 f1 bb
       0.0011572493 2.083557e-05 0.0008648706 -0.007370904
0000b0 7c 77 61 ba 97 8b ba 3a 5c 0a c8 ba 11 a2 40 bb
       -0.00086008734 0.0014232275 -0.0015261876 -0.0029393474
0000c0 0c 1a f2 ba 44 d7 29 ba 87 e8 24 3b 95 fe 0d 3b
       -0.0018470897 -0.00064789155 0.002516301 0.0021666635
0000d0 74 2f ea 39 03 0a b2 ba 29 1f e3 bb ce c5 7f 3b
       0.00044667313 -0.0013583306 -0.006931205 0.0039027813
0000e0 79 d5 0d bb cb a8 8a ba 1c a8 10 3a c0 ab 7c 38
       -0.0021642132 -0.0010578869 0.00055182143 6.0241437e-05
0000f0 d2 a0 82 3b 2c 1b 28 3b d4 06 6c 3a 3d 70 32 38
       0.0039864564 0.0025650961 0.0009003703 4.2543037e-05

exp_avg_sq f4 [64]
000000 cd cd 56 38 8b 2c c4 38 36 44 bf 38 20 39 a8 38
       5.1213243e-05 9.354305e-05 9.120295e-05 8.0215046e-05
000010 5e 03 bd 3a 04 21 0b 39 f7 3c 0e 39 99 fa 0f 3a
       0.0014420559 0.00013268372 0.00013564886 0.0005492359
000020 21 eb 93 38 9c 14 a0 38 96 2e 02 3a b9 e3 4a 38
       7.0533024e-05 7.633233e-05 0.0004966048 4.8372636e-05
000030 2d 56 dd 37 08 0c 91 39 3a fb 2a 39 ec 64 61 38
       2.6385382e-05 0.0002766552 0.00016306053 5.373817e-05
000040 39 37 c3 39 ad f6 a1 38 46 e2 a3 39 3f 39 2b 39
       0.00037234442 7.723025e-05 0.0003125837 0.00016329157
000050 22 59 d9 39 22 25 70 37 5f e8 3d 37 b5 ab e4 38
       0.00041455874 1.431376e-05 1.1319381e-05 0.0001090387
000060 e1 ef 28 39 ba 78 d0 37 5d 3b 80 38 f3 36 33 39
       0.0001611109 2.485175e-05 6.114573e-05 0.0001709124
000070 93 de 67 38 47 1c a5 39 3b 83 11 3a ea c6 c2 38
       5.528198e-05 0.0003149232 0.0005550866 9.2876915e-05
000080 b4 77 44 3a 23 58 87 39 e0 db 3b 38 28 43 26 3a
       0.0007494644 0.00025814874 4.478905e-05 0.00063424045
000090 d4 bd 0a 39 73 a8 05 3a 47 0b 14 38 87 a1 e7 39
       0.00013231422 0.0005098648 3.5296453e-05 0.000441801
0000a0 11 d2 a7 39 d2 7e aa 37 90 bb 09 38 0d 9b 4c 3a
       0.00032009234 2.0324635e-05 3.2838027e-05 0.0007805087
0000b0 ad c4 ad 39 31 11 12 39 cf 6d a5 38 ba d1 ec 38
       0.00033143666 0.0001393005 7.8882666e-05 0.000112924216
0000c0 bd 8a 4c 38 a5 7a bd 38 ac 0a 00 39 d1 5a a7 38
       4.87666e-05 9.0350666e-05 0.00012211007 7.9800964e-05
0000d0 76 51 bd 38 d5 2d 03 38 8f 8f 4c 3a b0 e7 83 3a
       9.0273956e-05 3.127552e-05 0.00078033743 0.0010063555
0000e0 c8 c4 eb 38 34 79 3c 39 09 ff d4 36 86 8b b7 38
       0.000112423266 0.00017974229 6.3477823e-06 8.752108e-05
0000f0 32 fa 9f 39 c8 4e 87 39 65 89 a1 38 67 c3 0d 37
       0.00030513253 0.00025807903 7.70267e-05 8.449751e-06

exp_avg f4 [64, 64]
000000 cd 29 5c 3a d0 9e 54 b7 7c 2d 2c b9 d2 d8 78 38
       0.0008398563 -1.2673161e-05 -0.00016420142 5.9329737e-05
000010 fa 91 5f 38 7d 77 3c 3a c2 99 98 39 c0 ef 94 36
       5.3303294e-05 0.0007189436 0.00029106258 4.4386543e-06
000020 7c e4 1a 3a 85 f2 84 b9 34 67 a5 38 ef 8e 1d 3a
       0.00059086806 -0.00025357693 7.887036e-05 0.00060103735
000030 2a a9 e3 39 17 e9 04 39 92 cc 88 39 d0 b9 33 ba
       0.0004342285 0.00012675334 0.00026092358 -0.00068559963
000040 a1 68 03 39 1a 02 dc 39 a9 99 ba 38 db bf 6b 39
       0.00012532111 0.00041963236 8.8977926e-05 0.00022482818
000050 8f 10 d5 39 f2 d8 1f 3a 0d 2d 69 3a 12 34 94 b7
       0.00040638863 0.0006097696 0.0008894958 -1.7667222e-05
000060 61 2f 26 3a c6 38 86 b9 9d 76 99 39 74 0b ca 39
       0.00063394575 -0.0002560077 0.00029270808 0.00038536976
000070 cd 45 dc b9 13 8f 20 39 24 5d b9 38 09 48 41 ba
       -0.00042013676 0.00015312088 8.838836e-05 -0.00073731
000080 ed 6d ef 38 46 31 bd 39 84 e6 28 3a 6c 05 46 b8
       0.00011416883 0.000360856 0.0006443041 -4.7211928e-05
000090 13 22 2c b9 2e 8c 21 b9 de e5 95 39 30 07 1e b5
       -0.00016415892 -0.00015406377 0.0002859076 -5.8870046e-07
0000a0 4e f1 c7 38 5c 37 62 b9 40 3e de b9 6a d9 07 39
       9.534006e-05 -0.00021573663 -0.0004238952 0.00012955596
0000b0 49 4e c2 b9 8e 4c 11 b9 ba 51 3e ba e0 c3 59 ba
       -0.0003706089 -0.00013856796 -0.0007260103 -0.0008307081
0000c0 a6 68 36 ba 20 01 51 b9 aa d0 2b 3a d9 ea 0b ba
       -0.0006958343 -0.00019932212 0.00065542257 -0.0005337424
0000d0 ca 21 13 ba b9 9e 10 ba f6 cf c8 37 da 60 90 b8
       -0.000561264 -0.00055168156 2.3938697e-05 -6.884495e-05
0000e0 ba 37 f8 b9 64 95 75 39 16 37 28 ba 9a d1 0c 3a
       -0.00047343766 0.00023420673 -0.00064169 0.0005371809
0000f0 fe 8b 23 39 c4 17 dd b9 13 e5 51 b9 96 76 bc ba
       0.00015597043 -0.00042170112 -0.0002001713 -0.0014378603
000100 2a f4 c7 39 58 53 62 b8 df 12 b8 38 d2 c4 85 38
       0.00038138154 -5.396022e-05 8.777319e-05 6.378595e-05
000110 70 d7 4e 39 ec e9 5c 39 8b 83 ec 38 38 af 6e 38
       0.00019725948 0.00021067978 0.00011277859 5.6906807e-05
000120 a8 d3 4b 39 59 93 20 b9 66 14 63 38 d2 f8 be 39
       0.00019438437 -0.0001531368 5.4140015e-05 0.0003642501
000130 95 87 ba 39 be 2d 94 38 40 df c0 38 e4 87 d0 b9
       0.000355777 7.06571e-05 9.196857e-05 -0.00039774098
000140 b8 9a c4 36 f9 38 7f 39 20 9c 76 38 3e 04 89 38
       5.859267e-06 0.00024339919 5.8796373e-05 6.533459e-05
000150 b4 13 9a 39 24 82 f7 39 7e b6 23 3a 56 d5 2f b9
       0.0002938785 0.00047208474 0.000624515 -0.00016768774
000160 78 8d b7 39 de 97 86 b9 ff 87 91 38 0e 7b e5 39
       0.00035009882 -0.00025671622 6.93947e-05 0.00043769967
000170 50 f8 bf b9 b1 46 55 39 7c 2b c3 b7 b0 a4 0a ba
       -0.00036615366 0.00020339598 -2.326606e-05 -0.00052888226
000180 6c 49 e9 b7 e8 94 5e 39 83 af b3 39 c2 2c 5b b7
       -2.7809954e-05 0.00021227042 0.00034272307 -1.3063838e-05
000190 29 56 0d b9 de e1 3f b7 68 f7 55 38 21 48 02 b8
       -0.00013478905 -1.1437076e-05 5.1013572e-05 -3.106159e-05
0001a0 c2 75 08 39 28 9a 41 b9 14 b4 c9 b9 57 59 3c 38
       0.00013013839 -0.00018463342 -0.00038471876 4.4905897e-05
0001b0 6f ce 05 b9 2c d9 8e b8 7a ee ea b9 2e 05 10 ba
       -0.00012760771 -6.811539e-05 -0.00044809637 -0.0005493936
0001c0 f3 b2 a4 b9 fe 57 83 b9 5c 4c 90 39 9c 86 d0 b9
       -0.00031413845 -0.00025051826 0.00027522712 -0.00039773143
0001d0 a3 d4 cc b9 ba b1 a9 b9 be f9 6d 38 7a 49 63 b9
       -0.0003906834 -0.00032366609 5.6737794e-05 -0.00021675779
0001e0 44 69 50 b9 84 f5 b5 38 68 8e f5 b9 0f c9 c9 39
       -0.0001987564 8.6764834e-05 -0.00046836142 0.00038487508
0001f0 ec 46 c2 38 08 29 85 b9 96 2c be b8 58 ad 46 ba
       9.263851e-05 -0.00025398307 -9.068211e-05 -0.0007578931
000200 78 8b b0 38 f2 e8 47 38 a0 a5 9e b9 13 aa 50 39
       8.418312e-05 4.7662244e-05 -0.0003025951 0.00019899783
000210 da f1 79 b9 2b 7d 75 39 53 1c be b8 88 4f fa b8
       -0.00023836587 0.0002341165 -9.065182e-05 -0.00011935743
000220 44 5b 91 39 a1 21 12 b9 1e d4 85 38 60 04 ee 36
       0.00027724553 -0.00013936173 6.381444e-05 7.093462e-06
000230 b0 00 96 b7 df e6 f2 b8 d0 e9 1b 39 80 a9 6d b8
       -1.7881714e-05 -0.00011582462 0.00014869054 -5.6663062e-05
000240 d0 08 83 b6 42 9f a4 38 54 62 97 b7 78 00 70 38
       -3.90513e-06 7.8497935e-05 -1.804639e-05 5.7220896e-05
000250 db 11 0c 39 d3 09 2a b9 64 dd fc 38 8e 96 33 39
       0.00013358092 -0.00016216123 0.000120575336 0.00017126856
000260 e4 f7 91 38 88 22 be b8 8e 32 4a 38 f6 3c 0b b9
       6.960312e-05 -9.066338e-05 4.8207636e-05 -0.00013278783
000270 c8 69 86 38 f5 b5 4d b9 22 34 06 39 28 67 ad b8
       6.409321e-05 -0.00019618108 0.00012798657 -8.268497e-05
000280 bc de 66 38 88 42 61 b8 0c 7e 18 39 52 6e c7 b8
       5.504371e-05 -5.3706142e-05 0.00014542806 -9.509608e-05
000290 2a f0 06 b9 22 cf 23 39 bd 1c ae 38 2e 50 a5 b7
       -0.00012868704 0.00015622054 8.3023195e-05 -1.970687e-05
0002a0 02 cb 2b b8 d4 fc a8 b7 88 13 df b7 a3 09 40 39
       -4.0958643e-05 -2.0144893e-05 -2.6592767e-05 0.00018314137
0002b0 12 e6 08 b9 cf f5 23 b9 e0 ed 4b 37 58 f2 74 38
       -0.00013055679 -0.00015636462 1.21551275e-05 5.8399834e-05
0002c0 a4 3f 68 b9 d8 51 0b b9 98 e8 90 39 e6 38 53 39
       -0.00022148952 -0.00013286562 0.00027639116 0.00020143724
0002d0 60 4c 57 38 ba f8 84 38 6a 14 2d 39 01 56 21 39
       5.1331124e-05 6.3405794e-05 0.0001650617 0.00015386195
0002e0 08 f4 bf 38 dd bd 83 b8 90 6a 59 38 d2 b3 fa b8
       9.153044e-05 -6.2819316e-05 5.1836076e-05 -0.00011954423
0002f0 f8 19 9f 37 d8 b5 63 38 48 d8 6d b9 2e 84 a1 b9
       1.896637e-05 5.4290373e-05 -0.00022682652 -0.00030806795
000300 b4 27 22 ba ec fd 27 b7 66 cd 24 39 49 c6 ad b8
       -0.0006185726 -1.00130965e-05 0.00015716776 -8.286216e-05
000310 5e e1 66 b8 4d 41 0f ba 50 48 55 b9 b9 d0 82 b7
       -5.5046163e-05 -0.00054647477 -0.00020340201 -1.5594402e-05
000320 20 cd d8 b9 24 1c 35 39 5d c3 9a b8 8a ca 07 ba
       -0.0004135156 0.00017271988 -7.3796815e-05 -0.0005180022
000330 bd b2 bc b9 7b 6f b1 b8 8b cb 8a b9 6a 7a 1a 3a
       -0.00035991325 -8.4607826e-05 -0.00026473062 0.0005892875
000340 38 bc 6f b8 66 9b a6 b9 39 86 d6 b8 22 c8 d7 b8
       -5.7157333e-05 -0.00031777768 -0.00010229316 -0.000102892765
000350 30 e5 9d b9 26 9d 07 ba ce 96 3f ba ee da 9b 38
       -0.00030116132 -0.0005173258 -0.00073085434 7.431755e-05
000360 4c ab ea b9 a1 79 8c 39 d1 10 91 b9 62 ca a5 b9
       -0.00044759584 0.00026793501 -0.00027669084 -0.0003162204
000370 ef 8b bf 39 0e 6b de b8 50 a9 12 b7 71 3a 2b 3a
       0.00036534618 -0.000106057254 -8.741699e-06 0.0006531841
000380 2f a7 a4 b7 b7 2d 84 b9 54 a3 1a ba e2 69 97 38
       -1.9628174e-05 -0.00025211062 -0.00058989716 7.219963e-05
000390 31 1a 44 39 fe a8 1f 38 3c 6e 34 b9 b2 05 17 37
       0.00018701774 3.806594e-05 -0.00017207203 9.001627e-06
0003a0 5c 06 9e b8 61 77 3f 39 04 ae d6 39 0e 98 e6 b8
       -7.5352116e-05 0.00018259652 0.00040946912 -0.00010995577
0003b0 1a a5 94 39 de 0c 13 39 87 a4 0c 3a e1 be 21 3a
       0.0002835177 0.00014023806 0.00053650927 0.0006170106
0003c0 50 43 28 3a 4e dd 60 39 e4 b0 f4 b9 05 ee be 39
       0.0006418722 0.00021444747 -0.000466711 0.00036416962
0003d0 5a 5d f5 39 08 17 e5 39 ea 05 82 b8 76 4d 1c 39
       0.00046799594 0.00043695443 -6.199985e-05 0.00014906176
0003e0 3e e5 b3 39 bc c9 24 b9 7c 19 f9 39 80 d4 ff b9
       0.0003431234 -0.0001571541 0.00047511968 -0.00048795715
0003f0 78 89 d1 b8 f8 34 94 39 3e b9 28 39 f7 6e 93 3a
       -9.991502e-05 0.00028268225 0.00016090737 0.001124828

exp_avg_sq f4 [64, 64]
000000 f1 37 32 37 61 0d 00 35 36 da 57 35 56 ba b1 34
       1.0622652e-05 4.7703185e-07 8.041128e-07 3.3104396e-07
000010 fa d5 49 34 50 30 a2 36 68 48 a0 35 e7 93 4d 34
       1.8797428e-07 4.8336005e-06 1.1942002e-06 1.914592e-07
000020 e4 49 ca 36 39 4c 28 36 48 b8 b1 34 f8 72 a1 36
       6.028671e-06 2.5078318e-06 3.31029e-07 4.811558e-06
000030 be 32 93 36 52 ae f7 34 ca 79 dd 35 4d d4 fd 36
       4.3868486e-06 4.613417e-07 1.6501228e-06 7.5647026e-06
000040 ad e5 ec 34 48 3a 1e 36 47 7d 43 34 8b 91 10 36
       4.4125537e-07 2.3577759e-06 1.8206366e-07 2.154239e-06
000050 a1 71 53 36 c5 b3 4b 37 bc 84 8e 37 c6 b4 27 35
       3.150759e-06 1.2141599e-05 1.6989528e-05 6.247541e-07
000060 0f 48 a9 36 e6 10 15 36 ce 43 bd 35 aa a6 70 36
       5.044981e-06 2.2212566e-06 1.4101331e-06 3.5859798e-06
000070 07 7e 90 36 18 24 79 35 1e fa 78 34 1e 67 29 37
       4.306206e-06 9.281225e-07 2.3187792e-07 1.0097194e-05
000080 d7 19 08 35 6d 05 17 36 8b 01 ce 36 25 a2 43 34
       5.070155e-07 2.2503912e-06 6.139458e-06 1.8219778e-07
000090 1c 22 77 35 dd 2a 6c 35 11 42 6f 35 85 c8 93 34
       9.2064306e-07 8.7979225e-07 8.913058e-07 2.752678e-07
0000a0 01 21 b8 34 d5 30 be 35 0b 37 a1 36 02 02 26 35
       3.4296684e-07 1.4170315e-06 4.8045817e-06 6.184274e-07
0000b0 0b 9c a6 35 c8 34 6c 35 e6 13 26 37 06 a3 43 37
       1.2413378e-06 8.799366e-07 9.899004e-06 1.1660863e-05
0000c0 a3 d2 f3 36 a8 50 9a 35 d2 b0 bc 36 a7 65 c1 36
       7.2664857e-06 1.1497368e-06 5.623421e-06 5.763682e-06
0000d0 3a ab ab 36 7e 05 0d 37 75 70 30 34 21 78 35 35
       5.1161305e-06 8.405534e-06 1.6432189e-07 6.7602565e-07
0000e0 2e 60 54 36 8c 14 01 35 2f 1a 1b 37 73 6e c3 36
       3.1646446e-06 4.8086144e-07 9.244816e-06 5.824311e-06
0000f0 1f f6 8a 35 42 78 58 36 31 32 78 35 ed 20 11 38
       1.0353432e-06 3.2256507e-06 9.246024e-07 3.460136e-05
000100 6a bf fa 36 c7 1f ce 34 dc 11 16 35 a5 91 a2 34
       7.472864e-06 3.839361e-07 5.5905343e-07 3.0280822e-07
000110 d1 eb 37 34 18 57 61 36 06 30 67 35 0e 1b 49 34
       1.7128993e-07 3.3578308e-06 8.612409e-07 1.8729426e-07
000120 33 fb 8c 36 b3 a8 e4 35 b2 37 89 34 04 e1 6b 36
       4.2015686e-06 1.7036422e-06 2.5558762e-07 3.5148705e-06
000130 ee 88 4e 36 3e 56 d4 34 c9 87 a7 35 16 01 b3 36
       3.0776096e-06 3.9550827e-07 1.2481988e-06 5.334742e-06
000140 0a a9 ae 34 f9 e0 d8 35 40 f6 26 34 b1 c2 c9 35
       3.2533018e-07 1.615873e-06 1.554954e-07 1.503233e-06
000150 42 0a 15 36 f8 3c 14 37 9d 3d 4e 37 b0 29 f4 34
       2.22087e-06 8.835683e-06 1.2292902e-05 4.5478873e-07
000160 ad c8 60 36 a5 18 ea 35 1b d9 8d 35 3b f1 20 36
       3.349541e-06 1.7441531e-06 1.0568505e-06 2.3982273e-06
000170 c9 36 54 36 2e a3 39 35 15 84 42 34 82 ef e8 36
       3.162235e-06 6.915533e-07 1.8115709e-07 6.942021e-06
000180 1b 69 cc 34 21 0f cf 35 8a c0 8f 36 83 b9 29 34
       3.8074435e-07 1.5427105e-06 4.2841466e-06 1.580684e-07
000190 0b c6 45 35 34 13 1a 35 a9 ee 38 35 e9 c5 84 34
       7.367641e-07 5.7397415e-07 6.889264e-07 2.4730915e-07
0001a0 65 a9 9a 34 8c 54 89 35 3e 28 69 36 6a 00 0f 35
       2.8807986e-07 1.0231902e-06 3.474313e-06 5.3272254e-07
0001b0 9d ad 75 35 c3 20 57 35 2f 46 e8 36 de f2 03 37
       9.1522253e-07 8.0141416e-07 6.9223092e-06 7.864755e-06
0001c0 bd 31 ac 36 0f a2 63 35 5d f5 79 36 e4 a5 84 36
       5.1317897e-06 8.4799916e-07 3.7246712e-06 3.9532188e-06
0001d0 54 99 68 36 24 9b c7 36 d1 59 38 34 87 85 24 35
       3.4659943e-06 5.948723e-06 1.716901e-07 6.128907e-07
0001e0 3a d6 11 36 da 2c ce 34 04 4b d8 36 af 6f 92 36
       2.173138e-06 3.8403124e-07 6.4460346e-06 4.3641408e-06
0001f0 f4 9f 3c 35 a5 c2 14 36 f6 dd 44 35 b9 51 c7 37
       7.026822e-07 2.2167017e-06 7.3338686e-07 2.3760704e-05
000200 b5 49 83 37 bf c2 23 35 3d 34 b3 35 d1 77 01 35
       1.565074e-05 6.1005625e-07 1.3351743e-06 4.82306e-07
000210 9d f2 9d 34 0c 49 f1 36 e5 af e7 35 34 d6 90 34
       2.9420053e-07 7.1908635e-06 1.7262033e-06 2.6977943e-07
000220 76 fc 13 37 6c 7c 75 36 8c ff 07 35 88 fa f1 36
       8.820663e-06 3.6580268e-06 5.066329e-07 7.2115254e-06
000230 c1 1f d6 36 ea 90 41 35 6b 0b 30 36 3b d9 3a 37
       6.3813936e-06 7.210898e-07 2.623269e-06 1.1137042e-05
000240 c9 fc 2f 35 df ea 64 36 20 e3 b0 34 87 4e 53 36
       6.556043e-07 3.411136e-06 3.294781e-07 3.148716e-06
000250 ca 3c a6 36 cc aa 93 37 ca 0f d2 37 1a d8 7f 35
       4.9542623e-06 1.7603299e-05 2.5041303e-05 9.530937e-07
000260 1d b2 ef 36 59 7d 67 36 83 18 0e 36 20 a0 b2 36
       7.14349e-06 3.4494644e-06 2.1173917e-06 5.3234544e-06
000270 d3 14 d1 36 1c 58 ba 35 a3 83 bf 34 a0 a5 7d 37
       6.2311096e-06 1.3883723e-06 3.56723e-07 1.5118538e-05
000280 42 d1 5a 35 59 cc 5b 36 4b a2 15 37 43 a3 98 34
       8.151584e-07 3.275249e-06 8.918879e-06 2.8430995e-07
000290 ac 18 ae 35 81 86 ac 35 82 13 c1 35 a7 82 e7 34
       1.2971191e-06 1.2854144e-06 1.4385298e-06 4.3122165e-07
0002a0 99 b8 0e 35 95 b3 0c 36 29 39 ed 36 c3 d2 8b 35
       5.316775e-07 2.0966156e-06 7.0698047e-06 1.0417647e-06
0002b0 22 70 ec 35 41 fc be 35 00 be 72 37 0f 20 8c 37
       1.7616005e-06 1.4229519e-06 1.4468562e-05 1.6704229e-05
0002c0 e4 4b 31 37 ad 6f ea 35 f9 37 07 37 37 38 0e 37
       1.0567692e-05 1.746686e-06 8.059659e-06 8.476948e-06
0002d0 a5 15 00 37 9d 5f 4e 37 25 97 93 34 49 41 8f 35
       7.634434e-06 1.23008185e-05 2.7490856e-07 1.0673331e-06
0002e0 4b 6c 96 36 4e bd 52 35 f4 bf 66 37 9c 98 10 37
       4.4829553e-06 7.850657e-07 1.3753761e-05 8.618601e-06
0002f0 f7 d8 ca 35 1d 37 a1 36 56 af b0 35 5d 89 53 38
       1.5113318e-06 4.80459e-06 1.3164051e-06 5.043425e-05
000300 f7 46 13 37 ac c7 da 34 cc 34 23 35 32 c1 92 34
       8.778406e-06 4.0750945e-07 6.079906e-07 2.7335187e-07
000310 38 63 21 34 1e 6b 87 36 8a b5 8a 35 60 d6 3b 34
       1.5030389e-07 4.0357836e-06 1.0334636e-06 1.7493721e-07
000320 65 7a a9 36 e9 82 0b 36 2c a9 84 34 b9 e5 7e 36
       5.050841e-06 2.0788814e-06 2.4710005e-07 3.7982666e-06
000330 ef b7 70 36 6f 1b d5 34 3d 36 ab 35 c3 4a c7 36
       3.586985e-06 3.9694302e-07 1.2756278e-06 5.9393656e-06
000340 03 de b5 34 da cb 04 36 83 13 28 34 71 60 fc 35
       3.3875412e-07 1.978819e-06 1.5653318e-07 1.8803531e-06
000350 1b 44 2d 36 fb 6a 2e 37 6d 21 6f 37 a6 f0 ff 34
       2.5818651e-06 1.03961165e-05 1.4253293e-05 4.7672546e-07
000360 05 4e 87 36 75 b9 ec 35 26 b0 9e 35 9d 98 47 36
       4.032396e-06 1.7637345e-06 1.1823183e-06 2.9742143e-06
000370 e0 98 7a 36 a9 1b 49 35 9d 7c 4c 34 76 25 08 37
       3.7341888e-06 7.4918586e-07 1.9044315e-07 8.114954e-06
000380 36 ef dc 34 68 a0 fd 35 fc e0 9f 36 a3 83 25 34
       4.1152242e-07 1.8896653e-06 4.764761e-06 1.5414712e-07
000390 5f f8 35 35 0c 86 39 35 b0 b5 4d 35 18 63 80 34
       6.778918e-07 6.9112934e-07 7.663284e-07 2.3913958e-07
0003a0 b8 f3 a2 34 46 1f a1 35 1c fd 84 36 cd ed 11 35
       3.035218e-07 1.2004537e-06 3.9633724e-06 5.4362755e-07
0003b0 fc 9e 8d 35 67 7b 5d 35 dc 2e 0a 37 f8 79 23 37
       1.0551589e-06 8.250849e-07 8.236351e-06 9.743955e-06
0003c0 90 49 be 36 bc 6b 6f 35 b7 05 93 36 4f ce a5 36
       5.671005e-06 8.919121e-07 4.3816067e-06 4.9414007e-06
0003d0 96 04 87 36 ba a3 ed 36 09 da 22 34 b9 ab 0d 35
       4.0238474e-06 7.0822107e-06 1.5166746e-07 5.277648e-07
0003e0 fe 31 2d 36 10 b8 e4 34 d1 dd 01 37 18 7b a3 36
       2.5808108e-06 4.2602232e-07 7.740645e-06 4.8721085e-06
0003f0 ed d6 58 35 91 ad 39 36 ce e0 43 35 78 b7 ed 37
       8.077903e-07 2.7668177e-06 7.2970295e-07 2.8338036e-05

exp_avg f4 [64]
000000 76 9b 10 3b 5c 55 8a 3a bf 58 10 3a 63 2b e3 ba
       0.0022065318 0.0010554004 0.0005506388 -0.0017331656
000010 1a 2f 0d b9 1c e2 59 3a c0 f0 b8 b9 56 f7 d2 39
       -0.00013464355 0.0008311586 -0.00035274588 0.000402386
000020 b0 2c 72 ba 08 93 48 ba 11 d6 e4 ba 2d 8b 9a 3a
       -0.00092382263 -0.0007651304 -0.0017458816 0.0011790745
000030 13 e4 08 bb ac 8d e9 39 ad d0 db b9 81 bf 23 38
       -0.0020887896 0.00044546777 -0.0004192641 3.904058e-05
000040 5c 41 40 b9 e0 55 19 3b e2 7f d3 39 f4 97 f8 3a
       -0.00018334895 0.0023397133 0.00040340336 0.0018966184
000050 34 ce 89 b9 e5 63 af ba d2 12 10 bb 78 5e ab b8
       -0.0002628431 -0.0013381211 -0.0021983874 -8.1715116e-05
000060 ea 27 1a ba aa 3e 3e ba 0e 4b 83 3a 1a fd 03 b9
       -0.00058805814 -0.00072572625 0.0010016875 -0.00012587421
000070 fc 6e 30 3a 20 e5 ac b8 c7 bd e6 ba 65 50 91 ba
       0.0006730405 -8.244277e-05 -0.0017604165 -0.0011086582
000080 c8 88 01 b9 07 56 4f ba ac b3 d0 ba 32 4c 3b 3a
       -0.00012353354 -0.00079092424 -0.0015922687 0.0007144838
000090 00 55 50 b9 7e 7a 23 3b 18 d7 ad b9 f2 d7 81 3a
       -0.00019868091 0.0024944837 -0.0003315739 0.0009906276
0000a0 09 e7 63 3a b6 0d d4 3a da 43 e3 3a d4 36 36 bb
       0.000869379 0.0016178403 0.0017338947 -0.0027803676
0000b0 54 2b 01 ba fc 1e d9 b9 ba 45 c6 ba bd 42 ae 3a
       -0.0004927416 -0.0004141255 -0.0015126981 0.0013295036
0000c0 93 f4 ab 3a c6 88 e8 ba ca 5e 44 39 a0 cd 31 b9
       0.0013119153 -0.0017740957 0.00018727328 -0.00016956637
0000d0 ce a5 e1 3a c0 74 05 bb 9a e9 ff ba cc 1f 77 3a
       0.0017215551 -0.0020363778 -0.0019524575 0.00094270403
0000e0 48 74 0b bb 73 c4 ec ba a0 63 b2 b9 2b 61 a6 3a
       -0.0021279026 -0.0018063918 -0.00034025032 0.0012693753
0000f0 60 3e d0 ba 41 1d 5b ba cc 3d 8b 39 fb 3a 18 3b
       -0.001588773 -0.0008358546 0.00026558188 0.0023228514

exp_avg_sq f4 [64]
000000 cb b2 9a 38 4b df 54 38 aa 38 e0 38 c6 97 7e 38
       7.376595e-05 5.0752697e-05 0.00010691707 6.069967e-05
000010 53 99 ba 37 56 b0 19 38 fb c4 01 38 e2 79 3a 38
       2.2244325e-05 3.664227e-05 3.093945e-05 4.4459368e-05
000020 cf 14 93 38 d2 1f 59 37 24 ea a7 38 9e 39 0e 38
       7.013382e-05 1.2941617e-05 8.0067926e-05 3.39091e-05
000030 9a 06 ee 38 b8 36 e1 38 5c a5 10 38 45 2b f4 37
       0.00011349954 0.00010739028 3.448628e-05 2.9107216e-05
000040 37 ad b3 37 bc a5 c1 38 ce b5 a2 38 14 55 6e 38
       2.1419122e-05 9.2338276e-05 7.758626e-05 5.6822857e-05
000050 ce 21 2b 38 db 3b e7 38 16 dc bd 38 79 2f d5 37
       4.080106e-05 0.00011026087 9.0532165e-05 2.5413685e-05
000060 72 2d 99 38 89 1d b4 37 20 45 46 38 3d 4e 82 37
       7.3040734e-05 2.1471425e-05 4.7271256e-05 1.553364e-05
000070 04 a3 0b 39 04 2f 7b 38 f1 e4 62 38 05 ad ba 38
       0.00013316801 5.988685e-05 5.4095817e-05 8.9013985e-05
000080 97 c3 34 38 05 4f bc 37 58 a1 34 39 1d 7d 19 39
       4.30975e-05 2.2448143e-05 0.00017226243 0.00014637825
000090 12 23 40 38 14 9d 9a 38 7f ef 17 39 1f 43 07 38
       4.580903e-05 7.37255e-05 0.00014489701 3.224902e-05
0000a0 1e ef ab 37 5a a2 4c 38 fd fd 6a 38 57 3d ec 38
       2.0496136e-05 4.878859e-05 5.6026493e-05 0.000112647824
0000b0 d9 a7 93 38 17 2f 1a 38 3b 16 8b 38 0d c7 a8 38
       7.04077e-05 3.6760317e-05 6.632177e-05 8.04794e-05
0000c0 96 c8 42 38 ef 50 e3 38 3a 91 df 37 a0 8c f4 37
       4.6440015e-05 0.000108392785 2.6651298e-05 2.915255e-05
0000d0 f2 a4 90 38 c3 d3 d6 38 1e 33 d3 38 58 37 f7 37
       6.8971785e-05 0.00010243759 0.00010070785 2.9470466e-05
0000e0 02 da 16 39 f3 f7 6e 38 4b 7e c7 37 41 06 4a 38
       0.00014386329 5.6974543e-05 2.3781458e-05 4.8166377e-05
0000f0 bd 81 5a 38 d4 ba d1 38 03 e2 80 38 7b 29 0e 39
       5.209608e-05 0.00010000696 6.1456136e-05 0.00013557628

exp_avg f4 [6, 64]
000000 4c 04 2a 39 36 c6 67 3a 2e 74 0d 39 34 7b 9d ba
       0.00016214064 0.00088414864 0.00013490088 -0.0012014867
000010 ca 19 c4 3a 81 24 9a 39 5a 89 85 ba 42 e1 f7 39
       0.0014961299 0.00029400366 -0.0010188029 0.0004727934
000020 44 59 88 ba a9 5f a2 ba 72 76 5f b9 28 d9 c7 38
       -0.001040258 -0.0012388128 -0.00021311062 9.529508e-05
000030 1c 20 0a ba 2a 2a 78 39 f0 fa 2f 3b 2d 2b 94 b9
       -0.0005269067 0.0002366683 0.0026852451 -0.00028260928
000040 6e 70 72 ba b0 40 3b 3a 95 a6 47 39 7e 49 59 3a
       -0.0009248321 0.0007143123 0.00019040176 0.0008288844
000050 38 ec c6 37 50 2e 22 b9 be e5 2b ba 3c 1e 94 39
       2.3713437e-05 -0.00015466777 -0.00065573666 0.00028251286
000060 8a 4d e8 39 9e 65 a5 3a 53 f3 e7 b9 34 98 5b ba
       0.0004430826 0.0012618785 -0.00044241044 -0.0008376867
000070 be 10 2c 3a 38 eb b2 37 d5 40 69 ba 3a 6e 70 ba
       0.0006563774 2.1328786e-05 -0.00088979054 -0.00091716985
000080 a4 de a6 b9 b2 96 4a ba 7e 75 66 b9 f0 da ab ba
       -0.00031827867 -0.0007728144 -0.00021978279 -0.0013111513
000090 7a e3 95 39 ad c6 a2 b9 a7 79 73 3a 48 0d 1a 38
       0.00028588978 -0.00031047073 0.0009287842 3.672883e-05
0000a0 52 c1 89 3a 49 60 14 3a 6a 05 2d 3a 5a 62 15 39
       0.0010509884 0.00056600996 0.0006600233 0.00014246386
0000b0 78 dd 7f b9 62 6c d6 b9 d4 1e 3d ba 2a d6 74 3a
       -0.00024401199 -0.00040898012 -0.00072143716 0.0009339774
0000c0 f4 f6 1b 3a 49 52 05 b9 7a ed b5 b9 ae dd be 3a
       0.00059495796 -0.00012714522 -0.00034699944 0.0014561915
0000d0 99 01 44 ba 08 b4 c5 37 c2 05 0e ba f0 e6 88 38
       -0.0007477045 2.3568064e-05 -0.0005417728 6.528001e-05
0000e0 e3 46 bc ba 96 9e df b8 06 c6 d0 b9 6a 41 db b8
       -0.0014364388 -0.000106630076 -0.0003982039 -0.00010454918
0000f0 94 4a 92 38 58 d2 8b 39 20 c3 19 ba 21 0f 2c 3a
       6.975714e-05 0.00026668864 -0.00058655627 0.00065635337
000100 93 40 92 38 18 8c 36 3a 5c 36 8f b8 9a e7 45 ba
       6.9738504e-05 0.00069636246 -6.8288966e-05 -0.0007549465
000110 91 29 63 3a a4 3a 30 b9 be 83 89 b9 08 18 1b 39
       0.00086655567 -0.00016806513 -0.00026228832 0.00014790904
000120 78 7b cf b9 1d f9 22 ba f2 f7 ec b9 56 2c ae 39
       -0.00039574108 -0.00062169303 -0.0004519816 0.000332209
000130 0b 12 e8 b9 88 51 04 39 64 e9 bb 3a c8 bb 5c 39
       -0.0004426393 0.00012618874 0.0014336524 0.00021050789
000140 a4 57 15 b9 e0 8e a9 39 1c d7 84 39 4a 38 06 3a
       -0.00014242396 0.00032340642 0.0002533727 0.0005120082
000150 68 35 8a 39 bc 54 aa b9 56 e0 6c b9 a9 80 76 b9
       0.00026361202 -0.0003248806 -0.00022590286 -0.00023508318
000160 40 1a 0a b8 d6 a7 30 3a 50 9e 77 39 d3 e0 a8 b9
       -3.292621e-05 0.00067388767 0.00023614732 -0.00032210964
000170 4c 3e c6 39 30 2b 1a 38 7c 5b 14 ba 56 cb 5e b9
       0.00037811918 3.6756683e-05 -0.0005659384 -0.00021247318
000180 2f 6a 18 b9 04 c5 90 b9 80 7a 27 b9 39 d3 88 b9
       -0.00014535406 -0.00027612608 -0.00015971996 -0.00026097315
000190 57 73 78 39 dc 9d f4 38 df 17 d8 39 e8 93 86 38
       0.0002369409 0.0001166423 0.00041216516 6.4171676e-05
0001a0 32 97 08 3a c1 43 4a 3a 2f 41 0a 3a 08 27 d9 b8
       0.0005210518 0.00077157846 0.00052739953 -0.000103546365
0001b0 03 8d 62 b9 ac 0f 9c b9 c8 f5 b5 b9 f2 13 c8 39
       -0.0002160557 -0.00029766315 -0.00034706132 0.00038161833
0001c0 1c 39 0c 39 0c d4 5e b9 be 11 8a b9 60 00 5d 39
       0.00013372715 -0.00021250563 -0.0002633463 0.00021076342
0001d0 78 a9 f7 b8 e9 76 4c b9 19 22 81 b9 40 07 3c 37
       -0.00011809444 -0.00019499254 -0.00024630202 1.1207361e-05
0001e0 a8 6b 32 ba 1f 5d 5f b8 b0 3a 08 b9 db b7 0e 39
       -0.0006806203 -5.325407e-05 -0.00012991834 0.00013610667
0001f0 7a 51 96 38 02 9b 95 38 06 6d c3 b9 88 f9 03 3a
       7.1677336e-05 7.133746e-05 -0.00037274527 0.00050344365
000200 3c 55 32 38 a4 7c ed 39 22 f0 57 3a f5 d6 39 ba
       4.2517888e-05 0.00045297027 0.00082373817 -0.0007089221
000210 54 a0 99 3a 6e 39 59 39 00 85 73 ba 5c 05 39 3a
       0.0011720755 0.00020716127 -0.0009289533 0.00070579886
000220 b6 44 a9 ba ad 59 02 ba 3c 0a 38 3a 52 19 30 38
       -0.0012914154 -0.0004972469 0.0007020568 4.198525e-05
000230 c1 f9 4e 3a a9 1e a0 3a 9d 5e 89 3a 94 48 c7 b9
       0.00078954926 0.0012216169 0.0010480467 -0.00038010313
000240 b7 29 83 3a 25 11 79 39 12 1f 3b ba da 03 64 3a
       0.0010006939 0.00023752877 -0.0007138114 0.00086980837
000250 46 5d df b9 df 96 73 3a d4 aa d3 37 41 e7 78 b8
       -0.0004260337 0.0009292196 2.5232708e-05 -5.934318e-05
000260 61 f2 55 39 2c 65 83 39 1e 09 23 ba f8 87 ac 39
       0.00020403556 0.00025061646 -0.0006219315 0.000329077
000270 42 b1 17 ba d6 36 b8 3a ba 32 5a ba 7b 05 6d 3a
       -0.00057866063 0.0014054428 -0.0008323599 0.0009041649
000280 53 01 d5 b9 f7 9c a8 ba ad 52 95 ba 4b 79 df 39
       -0.00040627512 -0.0012864162 -0.0011392437 0.00042624245
000290 1c c1 0a 3a 0a e4 4c 38 30 9c a0 b9 b6 1a bd b9
       0.0005293058 4.8849768e-05 -0.00030633947 -0.0003606879
0002a0 5c 12 e0 39 1e ce 66 39 32 23 9e 39 d0 63 0b b9
       0.00042738288 0.00022011294 0.0003016233 -0.00013293256
0002b0 fe 3d e2 39 e2 99 de b9 ff b3 b4 39 ca a2 d5 39
       0.00043152267 -0.0004245779 0.00034466383 0.00040747813
0002c0 51 df c4 39 b4 da 38 3a 84 88 0e 3a 14 da 3c 3a
       0.00037550417 0.0007051632 0.00054372125 0.0007204127
0002d0 2c 90 39 ba c0 bc 0c 37 04 a4 30 3a b2 ce aa 39
       -0.0007078673 8.388597e-06 0.00067383074 0.00032578927
0002e0 1b 4e f0 39 89 48 99 b9 7b 25 05 ba 86 de 0e b9
       0.0004583456 -0.00029236477 -0.00050791324 -0.00013625072
0002f0 74 e8 54 ba 0d 1d 8c b9 83 0f ad ba 7d 15 8b ba
       -0.00081217964 -0.00026724525 -0.0013203475 -0.0010611262
000300 62 6d c3 b8 47 7f fa 39 2a 80 59 b9 c5 b1 8f ba
       -9.318699e-05 0.00047778545 -0.00020742477 -0.0010963014
000310 20 98 80 3a 36 f4 89 ba 6c be 2f b9 67 48 fa 39
       0.0009810962 -0.0010525051 -0.00016760238 0.0004773766
000320 6f bd 06 ba f2 e5 60 ba b1 62 35 b9 f4 38 8c b9
       -0.0005139922 -0.00085791864 -0.0001729827 -0.00026745314
000330 8a 33 5b ba a2 21 3e 39 f2 53 02 3b 51 9f dc b9
       -0.0008361867 0.00018132341 0.001988646 -0.0004208037
000340 89 65 f9 ba 52 22 26 3a 50 4a ef 39 72 79 94 38
       -0.0019027452 0.00063375116 0.00045641 7.079811e-05
000350 de 4c 35 ba c8 d5 8a 39 05 1a d9 b9 82 2a 32 3a
       -0.0006916056 0.0002648069 -0.0004140885 0.0006796495
000360 70 11 8d 39 84 2d 05 3b 81 bb ad b9 40 d9 2e ba
       0.00026906608 0.002032132 -0.00033136833 -0.0006669946
000370 fe 1b 3b 3a 9b 4e 02 ba aa 01 85 ba 9a 7c c3 ba
       0.0007137655 -0.00049708196 -0.0010147591 -0.0014914453
000380 1e 8d fb b8 fb f5 bb b9 3c f4 05 3a 34 55 59 ba
       -0.00011994898 -0.0003585069 0.0005109941 -0.00082905893
000390 76 13 d2 b9 fa d0 35 ba 61 ec 83 3a b1 35 63 ba
       -0.0004006882 -0.0006935742 0.0010064953 -0.00086673634
0003a0 c6 92 5a 3a b3 5c 85 3a d9 eb 04 3a 2c 0c 16 3a
       0.0008337911 0.0010174721 0.00050705444 0.00057238596
0003b0 08 76 62 ba 71 fe 78 b9 ce f4 48 ba ef a3 c5 b8
       -0.0008638804 -0.0002374591 -0.0007665873 -9.424227e-05
0003c0 dc 7d 0c 3a 99 1c f0 b9 b6 97 80 ba 9e cf 99 3a
       0.00053593307 -0.00045797674 -0.0009810838 0.0011734848
0003d0 c0 36 38 38 5d 1a ca b9 8d bf 29 b9 f0 35 94 ba
       4.392001e-05 -0.00038548085 -0.00016188454 -0.0011307579
0003e0 13 4a a2 ba df 22 7b 39 e0 9e 74 ba 07 3b df b7
       -0.0012381695 0.00023950216 -0.00093315355 -2.6611158e-05
0003f0 26 67 a5 39 73 5b 0d 39 d3 fc e1 b9 00 8f 91 3a
       0.00031548104 0.00013480875 -0.00043103713 0.0011105239
