flare/polgrad/lightning_logs/version_37/checkpoints/epoch=61.ckpt (torch_old, 189270 bytes, 36 tensors)

exp_avg f4 [17]
00000000: 691b 3a3c 394b ed3c 0904 1b3b b81b f73b
00000010: b5c8 ef3c c453 c63c f654 f83b 6ab4 03bb
00000020: 1f47 583d ee0f 503c ea55 203d 3a15 233c
00000030: 284f 21bc fe61 133d 2947 82ba a140 8e3c
00000040: 7639 9e3c
0.011359074 0.028966533 0.0023653528 0.007541146 0.02927051 0.024209864 0.0075784875 -0.0020096549
0.0528022 0.01269911 0.039144434 0.009953791 -0.0098455325 0.035982125 -0.000993942 0.017364802
0.019314509

exp_avg_sq f4 [17]
00000000: bcc6 053a 3041 0c3a 2694 c539 d7a4 9d39
00000010: 7215 563a 2bf3 843a 0735 313a 5d7e af39
00000020: 54ab 8e3a 09dd 7d3a b964 433a 4599 8439
00000030: f1b2 b639 712d 9b3a 2b95 8439 3bdb f439
00000040: 9059 913a
0.0005103161 0.000535029 0.00037685147 0.0003006819 0.0008166648 0.001014327 0.0006759916 0.0003347275
0.00108848 0.0009684121 0.00074536685 0.00025291197 0.00034847067 0.0011839104 0.0002528814 0.00046702646
0.0011089314

exp_avg f4 [64, 44]
00000000: 91bf bab9 8fcc 3bba ec77 0239 d8ab 083a
00000010: 6ff8 6138 7dc6 2fbb 971a 8739 b3e0 13bb
00000020: d475 f5ba 7350 bb3a d6fe 963a 1fa4 d2b9
00000030: 912b ffba 7851 b1b7 c8fa 43bb bd72 96b9
00000040: 849e ca3a 0edd 4cbb a9c9 b63a b69d 8139
00000050: 9445 213a 28f3 193a 3ac8 f2ba 6088 54ba
00000060: 8adb d23a ea70 093b 1dea de3a 4a15 923a
00000070: 1658 16ba 0964 adb9 2376 c73a a61c 053a
00000080: 9cb2 323b c888 223b 8c24 5e39 7fa5 deba
00000090: 7d56 09bb b3b6 76b8 bc00 543a 0d0d 8b3a
000000a0: 425d 853a 0ee1 3c3b 54eb 1dbb 0546 c63a
000000b0: ed2e bbba 1c3d 37ba d4e3 0fbb 268f 0d3a
000000c0: 44f8 f639 a9f5 05ba ba0d 1138 237d 0e39
000000d0: f0e1 5c3a dc97 ea39 50c8 ea36 50bc 26ba
000000e0: 2422 c3ba eaa1 e939 6b23 34bb 1ecf e3b9
000000f0: 1606 053a cdc2 46ba c292 34ba 1cb7 66ba
00000100: 6e67 d1ba a699 1639 26b0 e1ba 659f 58b9
00000110: 9d4e 1d3b d9c1 fd3a a0b7 04ba 858d b539
00000120: f6b2 ffba d9eb ac3a f267 993a 3bba 20ba
00000130: f0b9 223a d4b8 0f38 0d25 82ba 0b1f fb38
00000140: a0f7 c9ba ea30 8bb9 3427 e93a 4310 98b8
00000150: 8ab5 23ba c4d9 5eba cbc5 0e3a 0d5d ed3a
00000160: 5ac4 c8ba 6cf1 2dba 9684 57bb 543f 72ba
00000170: 7f0e 013a af6c 9bba 8d64 35ba a3c7 46ba
00000180: a446 0ab8 2b24 0c3a e070 b839 dc75 f639
00000190: b088 b3ba 9602 38ba e4ab 723a 18b6 7a39
000001a0: c334 ca3a 8816 16ba 6146 c5ba 7aaa 8437
000001b0: 58f2 f6ba d888 b6ba 7123 0f39 b00b cd39
000001c0: d6de 93ba feb9 f6ba 1e93 84ba 352d 943a
000001d0: 4618 08bb fec9 7139 87b9 1ab9 6c27 1cba
000001e0: 39aa 2c39 8074 6a39 c646 cc3a 4e91 bc3a
000001f0: 351e e039 cff5 1c3a 0d0b 843a 678c da3a
00000200: 7c25 03bb 167b baba a659 25ba c7b2 7d3a
00000210: 361b 89b9 732b 4539 d963 b4ba c106 24b9
00000220: c5ab 5739 eee9 04ba 5eda 17ba a9e9 123b
00000230: 6d7e f73a c3c8 11bb a850 6138 9ab0 053a
00000240: 8d07 a4b9 057e 82b9 b3f1 a33a 597c 9fba
00000250: 9c10 22bb 7aba 9b3a 109a ddb9 02af 9139
00000260: 7cd5 96b9 0ecf de38 38b4 6f39 624d 363a
00000270: 3018 d7ba 89e0 993a 886f 50ba 4b9f 1cb9
00000280: a857 ba38 6801 093b a5c7 22bb 0879 efba
00000290: 81fc 26ba dee1 3dba 0669 da3a 7906 3c3b
000002a0: a3d2 113b ba53 1d3a 0130 5d39 3aed 8bba
000002b0: fc0a 7b3a b3cd 38bb 0efb b139 b257 063a
000002c0: 8d6e 923a 0f4d 8f3a 2a9d 093b eb01 c239
000002d0: 2554 11ba e61e bd3a d43a bcb9 1813 adb9
000002e0: 01a7 863a 5ec1 b83a 620b 353a 8bca 93ba
000002f0: 63e1 453b 48f1 fa39 ea52 30b9 ff93 8039
00000300: 2b89 c4b9 258e f63a 6abf 8e39 ba16 3939
00000310: d172 353a be48 123a b642 ed39 70a3 96ba
00000320: 2e22 fc39 1311 ab3a 5a4e 5339 38df 1b3a
00000330: 2a02 933a 9563 9eba 514c ad3a eccb 3e3a
00000340: 3a94 eeba 4ddf 9bb9 e9a3 19ba e2fc 1ab9
00000350: 454c 223a e56c 5dba 666b 17bb 9462 91ba
00000360: ba5b 003a af29 9cb9 855c 6f3a 775f 8cba
00000370: 919f 803a c0cf 373a d43a 8239 d066 8ab9
00000380: 124f a9ba b84d 64b9 1a79 3d3a c88b 413a
00000390: 406f 8d3a a044 8db9 03db 0b3a 0669 3a3a
000003a0: d365 773b f2d3 08ba 6ffb 013a 8850 1f3a
000003b0: acf3 19ba a44b 373a 0c27 fd39 99d0 b939
000003c0: ff3b 243a d410 7eb9 12bf 78b9 d8eb ebba
000003d0: fb6d c5b8 1826 31ba b0b1 aab8 c763 a0ba
000003e0: 3c01 a8b8 4322 24bb 34b4 f8ba e88d b5b7
000003f0: 851e b8b9 e017 b1b6 513b 49ba e6ac ffb9
-0.00035619413 -0.00071639655 0.0001244244 0.0005213595 5.3875552e-05 -0.002682119 0.00025769018 -0.002256435
-0.0018727132 0.0014290944 0.0011520039 -0.000401766 -0.001946794 -2.1137981e-05 -0.0029904116 -0.00028695716
0.0015458618 -0.0031259689 0.0013945597 0.000247223 0.00061520305 0.000587272 -0.0018522807 -0.00081074797
0.0016087156 0.0020971843 0.0017007027 0.0011145261 -0.0005735172 -0.00033071663 0.0015217703 0.00050778163
0.0027267104 0.0024800766 0.00021185185 -0.0016986578 -0.0020956092 -5.8821122e-05 0.00080872676 0.0010608748
0.0010174888 0.0028820666 -0.0024096565 0.0015127069 -0.0014280953 -0.0006990002 -0.0021955865 0.0005400054
0.0004710575 -0.00051101536 3.4583478e-05 0.00013588792 0.00084260013 0.00044745102 6.997063e-06 -0.0006360458
-0.0014887494 0.00044561859 -0.002748693 -0.00043451128 0.0005074454 -0.0007582128 -0.00068883237 -0.0008801089
-0.0015976259 0.00014362353 -0.0017218634 -0.00020658744 0.0024003156 0.0019360139 -0.00050627626 0.0003462845
-0.001950829 0.0013192847 0.0011703952 -0.0006131266 0.00062075164 3.426599e-05 -0.0009929255 0.00011974395
-0.0015408881 -0.0002654859 0.0017788173 -7.250954e-05 -0.0006245008 -0.00085010775 0.00054463436 0.0018109396
-0.0015317306 -0.0006635401 -0.0032885424 -0.0009241004 0.00049231196 -0.0011857952 -0.0006919585 -0.0007582849
-3.2967553e-05 0.00053459656 0.00035179313 0.00047008588 -0.0013697352 -0.00070194283 0.0009257181 0.00023909693
0.0015427101 -0.00057254033 -0.0015050882 1.581501e-05 -0.0018840535 -0.0013926281 0.00013650746 0.00039109355
-0.001128162 -0.001882374 -0.0010114645 0.0011304977 -0.0020766421 0.00023058799 -0.00014755699 -0.0005956802
0.00016466611 0.00022359379 0.0015585057 0.0014386566 0.00042747115 0.0005987556 0.0010074094 0.0016673923
-0.0020011356 -0.0014227356 -0.0006307609 0.0009677824 -0.0002615095 0.0001880357 -0.0013762667 -0.00015642775
0.00020567987 -0.00050702586 -0.0005792732 0.0022417104 0.0018882282 -0.0022244907 5.3719297e-05 0.0005099863
-0.00031286143 -0.00024889424 0.0012507945 -0.0012167796 -0.0024729138 0.0011881136 -0.0004226719 0.00027786946
-0.00028769288 0.00010624352 0.00022859953 0.000695428 -0.0016410407 0.001173989 -0.000795119 -0.0001493666
8.8854984e-05 0.002090538 -0.0024838236 -0.0018270323 -0.00063700235 -0.00072434347 0.001666338 0.0028690381
0.0022250793 0.0006001551 0.00021094085 -0.0010675557 0.0009576527 -0.0028198778 0.0003394712 0.0005124762
0.0011171863 0.0010933 0.0020998218 0.00037003992 -0.00055438495 0.0014428764 -0.00035901985 -0.00033011357
0.001027316 0.0014095714 0.0006906298 -0.0011275572 0.0030194155 0.00047863484 -0.00016815556 0.00024524328
-0.0003748623 0.0018810673 0.00027226965 0.00017651441 0.0006921711 0.00055802974 0.00045253866 -0.00114928
0.0004809065 0.0013051353 0.00020151716 0.0005946043 0.0011215855 -0.0012084121 0.0013221597 0.00072783115
-0.0018202134 -0.00029730276 -0.00058609113 -0.0001478079 0.00061911746 -0.00084467075 -0.0023104786 -0.0011092001
0.0004896481 -0.00029785695 0.0009130913 -0.0010709603 0.000981318 0.0007011853 0.00024839363 -0.00026398012
-0.0012917242 -0.00021772727 0.00072278234 0.0007383195 0.0010790601 -0.00026944745 0.00053350645 0.00071109866
0.00377499 -0.00052195706 0.0004958426 0.0006077369 -0.0005872797 0.00069921673 0.00048285013 0.00035441367
0.00062650436 -0.00024229597 -0.00023722302 -0.0017999364 -9.4141775e-05 -0.00067576906 -8.1393286e-05 -0.0012236767
-8.011094e-05 -0.0025044836 -0.0018974603 -2.1642962e-05 -0.00035117954 -5.2777905e-06 -0.00076763803 -0.0004876621

exp_avg_sq f4 [64, 44]
00000000: 1fe6 5936 d0c3 0a36 e362 a837 48bf 8335
00000010: 9d45 ce34 0830 4336 45f3 0d36 856d 9936
00000020: a21a 2a37 e3c9 6c36 84ea 3a37 1d78 3b36
00000030: 61b6 0437 2b0a 4336 12fc 2437 9290 4a36
00000040: 6596 8a37 b0c0 c036 3244 b037 fec7 8236
00000050: bb6d b437 62ca 7936 b202 8f37 d3c2 2d36
00000060: 999e c936 5ed6 2537 a10e b537 24a4 6636
00000070: 2199 a937 cd0e 7236 9a3e f836 037a 7835
00000080: da5b 8636 bc89 0936 2b84 a237 f12c ba36
00000090: 4a7a 0e37 734b 9735 c8a7 3e36 146c 3536
000000a0: d7d4 8c37 e1c5 2c37 ebbc 0f37 6633 1a37
000000b0: 6637 0236 54ba d335 11fc 3437 eb3f 1d35
000000c0: 4797 8034 31e6 d635 86ed b735 c7cf 2236
000000d0: fc22 9636 8f5d f835 01a0 cd36 81c4 3036
000000e0: 9187 8136 b790 8035 7661 0a37 b087 e635
000000f0: ea48 0437 8ace 3b36 9af3 3c37 ee20 3036
00000100: 5777 3737 47fe 1a36 8900 0737 484b d835
00000110: 0221 6436 4e08 c636 cfb3 3737 de9d 5636
00000120: 6838 3337 9a44 7a36 7267 6236 859d 0435
00000130: eedf 0536 d27f cc35 3ac9 2037 00d3 af36
00000140: ca58 7636 7df4 e934 0fe5 0436 2992 9e35
00000150: 9580 0a37 588d a336 7d3d 5436 c65c 8a36
00000160: 4682 4736 56de 0c36 514c a737 1f7b 8b35
00000170: 3554 e434 3430 f735 8972 1d36 4e10 a836
00000180: c97d 0937 e9a3 1e36 cb71 4237 6374 1436
00000190: 9190 e236 3d13 d735 ff64 0e37 a3ee c235
000001a0: 6d4e 8737 1a97 9236 341d b137 be58 1636
000001b0: a584 ae37 9f91 1e36 054e 6537 7ba5 f235
000001c0: 0783 c436 5680 f736 6f1c b137 cbe6 2936
000001d0: 61fb a537 e82f 1e36 ea33 eb36 95ff 1b35
000001e0: bc56 3f36 0e4a f135 f9d2 9c37 5026 ca36
000001f0: 0997 0837 66e4 8535 aa40 1b36 5af6 f235
00000200: c9bd 8937 43cf e336 70fc 0f37 3538 1e37
00000210: 9409 8736 d79f 2836 9f13 f237 36a8 d935
00000220: 0068 1535 5fac 3a36 52b5 9136 db9c d936
00000230: 5d85 6d37 1da0 5336 e44d 7d37 633c 4636
00000240: f61d 6737 8597 1036 22b3 4537 0cd1 2836
00000250: 254e cb37 596b 6b36 4d19 0138 fffb 3236
00000260: e8e1 0138 6a46 7636 e73f c937 e4d7 fb35
00000270: 4d65 dc36 75c0 f436 a7c0 0238 cf2f 3436
00000280: 7a62 f337 b788 5b36 4d78 3537 f83d 8135
00000290: 9b37 9836 9463 1a36 16b8 ed37 5c02 e236
000002a0: 9bcc 5a37 1a9b 9935 ef7e 8936 5068 3436
000002b0: 6528 d537 3a0b de36 9902 4037 1077 4d37
000002c0: 0aae 5d36 6b8c 4b36 d438 ba37 3691 8a35
000002d0: 8603 ce34 a927 4936 0c54 3336 4576 a436
000002e0: 4da2 2637 da9e 3f36 0485 3a37 915d 2936
000002f0: 2c88 1737 e607 fb35 aec4 1737 2747 1a36
00000300: 5ad1 8f37 b2fc 9b36 ff15 be37 7e2e 4036
00000310: faee b337 f1ba 8036 4601 8037 b44a fb35
00000320: beaa c136 aea9 f336 50dc c037 a8db 5836
00000330: f6f9 ad37 8359 a836 ac46 f136 b834 6935
00000340: 3e94 9a36 05e0 0536 24a0 aa37 bfbb 7536
00000350: 5654 0a37 b16f 8135 b4d1 5136 e979 2336
00000360: 98b0 9337 b0ec ef36 8468 1137 bf87 2037
00000370: 5af1 7436 4736 2036 83f3 ef37 e7d6 d535
00000380: 257d f034 2dcb 1936 3d04 4b36 5a74 ee36
00000390: 5580 4e37 5de2 4036 ef5d 8d37 0379 3e36
000003a0: 6202 3e37 09cc da35 8f1f fb36 d0ef e835
000003b0: 3d19 cd37 1228 c436 2b0b 0338 d1b6 5736
000003c0: 095d 0138 f310 2636 6a89 8837 b6b3 1436
000003d0: 64ed c036 51af c136 dfba 0338 f617 3e36
000003e0: babc ef37 d8ed 5436 5d1e 3737 ca8b 9935
000003f0: 1725 aa36 caa3 ec35 6768 f037 f3eb f136
3.2469468e-06 2.067758e-06 2.0073208e-05 9.815931e-07 3.842114e-07 2.9085222e-06 2.1152239e-06 4.572505e-06
1.0138991e-05 3.5284254e-06 1.1141066e-05 2.7935087e-06 7.9102765e-06 2.9063183e-06 9.833851e-06 3.0184497e-06
1.6520915e-05 5.7444777e-06 2.101259e-05 3.897584e-06 2.150877e-05 3.7221694e-06 1.7048184e-05 2.5892411e-06
6.00873e-06 9.884678e-06 2.1583694e-05 3.4368213e-06 2.0217676e-05 3.6069425e-06 7.3982637e-06 9.256475e-07
4.004204e-06 2.0494763e-06 1.937345e-05 5.548464e-06 8.492332e-06 1.1272335e-06 2.8409868e-06 2.7034012e-06
1.6788412e-05 1.0298071e-05 8.56745e-06 9.191082e-06 1.9403756e-06 1.5774954e-06 1.0787525e-05 5.858007e-07
2.3951927e-07 1.6011237e-06 1.3703691e-06 2.4260823e-06 4.474421e-06 1.8504669e-06 6.128103e-06 2.6340424e-06
3.8602816e-06 9.578861e-07 8.248133e-06 1.7175826e-06 7.88479e-06 2.7985393e-06 1.1262391e-05 2.6245211e-06
1.0935436e-05 2.3095797e-06 8.046752e-06 1.6115164e-06 3.399386e-06 5.9018266e-06 1.0949515e-05 3.1980376e-06
1.06823645e-05 3.7292834e-06 3.3736837e-06 4.9403053e-07 1.9948889e-06 1.5236385e-06 9.583595e-06 5.23997e-06
3.6708539e-06 4.357752e-07 1.9802862e-06 1.1814456e-06 8.255379e-06 4.874233e-06 3.1626253e-06 4.1235207e-06
2.972914e-06 2.0991042e-06 1.9943489e-05 1.039214e-06 4.2529578e-07 1.8416963e-06 2.3461491e-06 5.0086883e-06
8.195123e-06 2.3639243e-06 1.1589796e-05 2.2121465e-06 6.7521546e-06 1.6024347e-06 8.4873745e-06 1.4523579e-06
1.6129774e-05 4.3687296e-06 2.1113643e-05 2.2403397e-06 2.0804184e-05 2.3628597e-06 1.3667629e-05 1.8078566e-06
5.856509e-06 7.376114e-06 2.1113285e-05 2.5317302e-06 1.978659e-05 2.357172e-06 7.0095894e-06 5.811392e-07
2.8511704e-06 1.7977452e-06 1.8694891e-05 6.0245293e-06 8.141397e-06 9.975745e-07 2.313444e-06 1.8102103e-06
1.6420048e-05 6.7892556e-06 8.582239e-06 9.430621e-06 4.0244286e-06 2.512699e-06 2.8857785e-05 1.6216716e-06
5.5658165e-07 2.7816493e-06 4.342445e-06 6.4853643e-06 1.4157352e-05 3.1534648e-06 1.509811e-05 2.9539449e-06
1.3775649e-05 2.1545868e-06 1.1783823e-05 2.5155632e-06 2.4235875e-05 3.5080213e-06 3.077956e-05 2.6670748e-06
3.096639e-05 3.6697843e-06 2.3990824e-05 1.876379e-06 6.568304e-06 7.2941716e-06 3.1173837e-05 2.6849918e-06
2.9013714e-05 3.2713122e-06 1.081645e-05 9.629284e-07 4.5364263e-06 2.300575e-06 2.8338323e-05 6.7355995e-06
1.3041451e-05 1.1444529e-06 4.097695e-06 2.6882808e-06 2.5410389e-05 6.6174225e-06 1.1444697e-05 1.2246674e-05
3.303287e-06 3.0331091e-06 2.219939e-05 1.0324063e-06 3.8373054e-07 2.997442e-06 2.6722e-06 4.9013493e-06
9.93216e-06 2.8553682e-06 1.1117434e-05 2.5237425e-06 9.032006e-06 1.8703256e-06 9.046094e-06 2.2989204e-06
1.7144415e-05 4.6487776e-06 2.2660008e-05 2.8637292e-06 2.1449745e-05 3.83646e-06 1.5259382e-05 1.8722699e-06
5.7717252e-06 7.2617177e-06 2.2990775e-05 3.2314365e-06 2.0739604e-05 5.0172107e-06 7.190587e-06 8.687598e-07
4.6068153e-06 1.994894e-06 2.034015e-05 3.6617128e-06 8.245077e-06 9.643755e-07 3.126549e-06 2.4359854e-06
1.7605998e-05 7.150309e-06 8.667008e-06 9.568349e-06 3.6499318e-06 2.3873451e-06 2.8604414e-05 1.5932281e-06
4.4794538e-07 2.291704e-06 3.0251824e-06 7.106498e-06 1.2308436e-05 2.874199e-06 1.6852251e-05 2.8382644e-06
1.1325437e-05 1.6301648e-06 7.484057e-06 1.7355142e-06 2.4449657e-05 5.84592e-06 3.1243235e-05 3.214391e-06
3.0842642e-05 2.4745793e-06 1.6276452e-05 2.2158324e-06 5.749682e-06 5.7722577e-06 3.140687e-05 2.8326153e-06
2.8578903e-05 3.1728905e-06 1.09147195e-05 1.1440072e-06 5.0707126e-06 1.7631039e-06 2.8658846e-05 7.209828e-06

exp_avg f4 [64]
00000000: 6c75 8e3a bb1f 92ba ae39 08bb d748 2fba
00000010: d497 443a 324a 0a3a fa4e 383b dd22 7eba
00000020: 7937 ed3a cd4d 33ba 7589 763a f965 ad3a
00000030: 0e83 06bb 7c58 43b9 d72b bdb9 e663 ffb9
00000040: b3f0 b73a ec95 b2ba 7253 39ba 82f7 003a
00000050: a0b5 7938 664e 6eb9 c254 5539 cf03 9cba
00000060: 0c7a 8eb8 b85d 68ba e20d 803a 0ee9 afba
00000070: 6645 8aba 1e7f 12bb ddfa 88ba e803 25b9
00000080: 40b8 8dba 2ebc 123b 2254 c73a 4549 e3ba
00000090: 323b 31bb 3428 bbb8 b04a 18b7 ba85 b7ba
000000a0: 446a 81ba 80ca e036 e149 9bba e729 e2ba
000000b0: 76c4 7c3a afcf 863a 089e 24ba 58af 3939
000000c0: 7c05 b439 42c2 27b9 b612 59ba f821 26b9
000000d0: b6e2 fe3a 4e91 16bb d4f8 a5ba f6c6 15ba
000000e0: 26ba 673a 9ffe 9ab9 f7f5 29bb 720f f13a
000000f0: 6433 c939 77eb e3ba 5457 a338 eb0c 0c39
0.0010868735 -0.0011148372 -0.0020786333 -0.0006686574 0.0007499431 0.0005275338 0.0028123246 -0.0009694526
0.0018098197 -0.00068399013 0.0009404638 0.0013229243 -0.0020524892 -0.00018629612 -0.00036081552 -0.0004871182
0.0014033526 -0.0013625002 -0.0007069624 0.0004919694 5.9535378e-05 -0.00022726654 0.00020344838 -0.001190299
-6.793821e-05 -0.0008864063 0.0009769762 -0.0013420896 -0.0010549247 -0.00223536 -0.001045074 -0.00015737081
-0.0010812357 0.0022389996 0.0015207569 -0.0017340562 -0.002704334 -8.924343e-05 -9.0772955e-06 -0.0014001646
-0.0009873589 6.6992943e-06 -0.0011847579 -0.001725492 0.0009642312 0.0010285283 -0.0006279652 0.00017708295
0.00034336362 -0.00015998728 -0.0008280681 -0.00015843648 0.0019446227 -0.0022974792 -0.0012662658 -0.00057135464
0.0008839689 -0.00029562876 -0.002593396 0.0018391444 0.00038375997 -0.00173889 7.788712e-05 0.00013356253

exp_avg_sq f4 [64]
00000000: c0b5 c337 21fb 5237 13f0 c137 7be7 0d38
00000010: c3d0 d937 6900 0e38 2320 8037 abcc 9737
00000020: 5a1d ba37 a26a b737 cc2d 8f37 5a35 4b38
00000030: 0fa9 9d37 1c0c 4c37 f44a fb37 00f9 e937
00000040: a91a a937 067c 8937 8c43 e737 c4be 9e37
00000050: 4bd7 2538 1f8d 9837 eea2 ad37 4aef 5a38
00000060: 30a2 0c37 a22f 9d37 e2b7 ca37 ca7c a637
00000070: ac2a d837 da33 9837 a554 6b38 e40b 7238
00000080: eaea 0b38 ba01 bc37 c469 ce37 3ef7 8537
00000090: 71e2 c837 5205 f837 6b5d 1e37 3b3b f837
000000a0: f1e1 2438 3215 4d38 7c06 e736 9571 9637
000000b0: aea1 c337 001c 7837 d0ef 1038 83d3 a537
000000c0: 8258 a137 e4a7 b537 5b8b db37 7657 5837
000000d0: 0979 9c37 0db8 e437 3326 2438 9dee 4f37
000000e0: 7a8c 5638 cab4 b437 db93 6a37 f048 6d37
000000f0: 4ba4 0238 59e0 c237 49ba 6c37 322e 1137
2.3330445e-05 1.2575446e-05 2.3119186e-05 3.3832603e-05 2.5965628e-05 3.385582e-05 1.5273754e-05 1.8095909e-05
2.2186596e-05 2.1864955e-05 1.7068254e-05 4.844866e-05 1.8794583e-05 1.2162167e-05 2.9956434e-05 2.7891714e-05
2.0158785e-05 1.6389426e-05 2.75688e-05 1.89239e-05 3.9539573e-05 1.8185527e-05 2.0699077e-05 5.2198106e-05
8.3824125e-06 1.873804e-05 2.4165904e-05 1.9846852e-05 2.5769077e-05 1.8143957e-05 5.6107197e-05 5.770837e-05
3.3358963e-05 2.241215e-05 2.4606365e-05 1.5969967e-05 2.3947303e-05 2.9566381e-05 9.439284e-06 2.9591485e-05
3.931107e-05 4.889555e-05 6.8850914e-06 1.7934284e-05 2.33211e-05 1.4788471e-05 3.455562e-05 1.9768026e-05
1.923391e-05 2.1655062e-05 2.6171727e-05 1.2894967e-05 1.865301e-05 2.7265423e-05 3.9136223e-05 1.2393718e-05
5.1152405e-05 2.1541859e-05 1.3981912e-05 1.4143283e-05 3.1147425e-05 2.3231072e-05 1.4110069e-05 8.653429e-06

exp_avg f4 [64, 64]
00000000: c01f 9d3a d640 0f3b 6071 7ab8 54d1 673a
00000010: f8c0 79ba 2ccd b4ba bc08 f83a 9604 dc3a
00000020: d7a9 cbba e86f c3b9 d3b6 8dba 84be 8739
00000030: e438 65ba c044 d73a 8578 aaba 78c7 afb8
00000040: dd70 cb39 801c 12ba d896 c2b9 6a86 dd39
00000050: 86b5 123b ff80 03bb 19e4 063b 2864 d038
00000060: 1456 ecba 6aa8 0c3a fc50 f5b9 f918 fe39
00000070: 82b9 153a f6da 57b9 7ddd 51ba 0005 0d3a
00000080: 42b6 f4b8 aef3 6f39 98bf f2ba 9315 61ba
00000090: e9d9 a939 c846 47ba f61c cf39 0409 8338
000000a0: 34ef 2338 d026 9d3a 2650 14ba 60ac d5b6
000000b0: d1ee 95b9 0e52 1c3a 5415 133a 90fe ed3a
000000c0: da91 9d39 6049 69b7 1abd 973a 3705 29bb
000000d0: 6d01 eb3a 7329 9939 e7de e83a dd06 12b9
000000e0: 239f d03a 8849 e0b8 66c5 c239 15ff c3ba
000000f0: c0e7 383a 190f 9139 96d8 31b9 8972 42bb
00000100: a42f 5b39 5ec4 063a 5008 71ba fbe7 c23a
00000110: 2476 38ba 4612 35ba 6445 b93a 5bf6 e2b9
00000120: a2f6 ecba 8672 94b9 80ca a839 cf88 2fba
00000130: 2bbd fa39 7864 42ba 58e6 e337 3ce2 7e3a
00000140: 5955 613b 570e d4ba e6f9 253a 7087 f939
00000150: aff3 ce39 bb64 ab3a d058 1839 3e73 09ba
00000160: 4a4c df3a a3d2 d1b9 fd3f 50ba 87b1 3dba
00000170: 5817 a139 ae95 c73a 2795 be3a 304f 8939
00000180: 9100 1b3b d6bf c539 5afc 8a39 dd52 e23a
00000190: 1da3 99b9 9e06 20ba 6ec3 98ba a059 9cb9
000001a0: 4aae 56b9 9fb6 313b 50f3 b339 2775 0dbb
000001b0: 7022 fcb9 ad45 583a a1f3 903a 870c 073a
000001c0: d7fd 03ba 74d6 ecba b5c9 31ba 52ad 433a
000001d0: 680a a73a 5f8a feba d56d 5dba 7797 a83a
000001e0: 0c99 2eb9 6823 ca39 f8a2 ecba a621 de3a
000001f0: a3b8 11bb 9619 073a a382 e6b9 3ea3 d8ba
00000200: c41e a539 4daf d439 4b42 8b3a 5615 993a
00000210: 32db 1f39 f178 8d3a 49fc 543a 8430 4b3a
00000220: b6d8 3bba 3404 f6ba 7edb 89ba 9ad6 7c3a
00000230: 0364 8f39 f02e ed39 284f 64ba a4e5 48ba
00000240: 38dc 4539 dc4d 2fba c521 a238 637a a53a
00000250: 5fdc 073b 1bb2 f6ba c09e feb6 82f7 403a
00000260: 0ae8 51ba 6514 52ba 5de5 4eb9 6920 0a3a
00000270: faaa 4f3a 20df 3038 5ff8 08bb d5d5 2cbb
00000280: 38f8 68ba c94f beb9 90c6 ea38 36ac d23a
00000290: fc3f 03ba 867a 29ba 0011 5b38 c22c ab3a
000002a0: 2598 533a f6ed 9bb9 124d 28ba deb6 87ba
000002b0: 68f2 1aba 94c8 b6b9 1085 bbba 8277 093b
000002c0: 75e3 d2b9 1435 353a 3cc5 df39 934e 05bb
000002d0: ea53 0a3a 9b2c af3a df51 aa3a 2957 50ba
000002e0: 93f9 bf3a 0d16 19ba 8a86 b63a 5e2a bfb9
000002f0: 9c42 c93a 7fcd e8ba 69b4 1cba ce9f 25ba
00000300: 61e8 653a 2b8a 0d3b 847c 4fba 1955 db39
00000310: 48ec 91b6 7eae c5b9 eafe dd39 aa33 a33a
00000320: 51a5 c6ba adae 53b9 9cd1 5cba c896 b539
00000330: b926 b8b9 55ff e539 2700 9bba 1ca5 933a
00000340: e234 963a 517a fab9 e099 a539 c5a1 733a
00000350: 86b0 123a 16e5 92ba 3179 8e3a 8ef1 be39
00000360: a8b7 b2b9 7624 883a a88b 26ba 58d6 c2b7
00000370: 4241 be39 d648 e6b9 9152 443a 4a0b bc3a
00000380: fd27 183a d6c8 f439 35c9 b0ba c2d4 5fb8
00000390: 17a7 163a dab3 f9b9 be65 293a 9879 32b6
000003a0: 26eb 5738 1a2d 893a 2f36 a7ba f3ec 86ba
000003b0: 0468 373a 1cd0 d339 4de6 0d3a 5de8 8f3a
000003c0: 88e7 2e3a 9ca3 acb9 cc1a 7eb9 ba30 11ba
000003d0: 9827 6f3a 63b6 123a cad3 a0ba b587 8a39
000003e0: 3422 953a 6eb6 46ba 4a6f b639 4e6a 03b9
000003f0: b4ed 73ba 7022 403a 8ed9 8db8 5d2b 99ba
0.0011987612 0.0021858714 -5.9710233e-05 0.0008843143 -0.0009527351 -0.0013794056 0.0018923501 0.0016786035
-0.0015538287 -0.00037276675 -0.0010811932 0.00025891152 -0.0008744134 0.0016423687 -0.0013005888 -8.381804e-05
0.00038803267 -0.0005573705 -0.0003711495 0.0004225255 0.0022386028 -0.0020065901 0.0020582734 9.9368684e-05
-0.0018031024 0.0005365672 -0.0004679038 0.0004846526 0.0005711542 -0.00020585567 -0.00080057216 0.0005379468
-0.00011668775 0.00022883594 -0.0018520234 -0.00085862837 0.00032396548 -0.0007601795 0.00039503694 6.248246e-05
3.9085004e-05 0.0011989716 -0.0005657695 -6.3679618e-06 -0.00028597427 0.0005963155 0.0005610783 0.001815753
0.0003005404 -1.3904966e-05 0.0011576742 -0.0025790462 0.0017929502 0.00029213316 0.0017766625 -0.00013926202
0.0015916567 -0.000106948486 0.00037149637 -0.001495334 0.00070535764 0.00027667804 -0.0001696072 -0.002967032
0.00020903215 0.00051409553 -0.0009194659 0.0014870161 -0.00070366473 -0.0006907325 0.001413506 -0.00043289628
-0.0018078873 -0.00028314086 0.0003219433 -0.0006696106 0.00047824657 -0.00074154837 2.716777e-05 0.00097230426
0.0034383147 -0.001617859 0.0006331488 0.0004759389 0.0003947294 0.0013076285 0.00014528935 -0.00052433077
0.0017036286 -0.00040020523 -0.00079441053 -0.00072362315 0.00030725705 0.0015227103 0.00145403 0.00026189676
0.002365146 0.00037717697 0.00026509428 0.0017267127 -0.00029303963 -0.00061045017 -0.0011654922 -0.00029821415
-0.00020473558 0.0027116907 0.00034322822 -0.002158472 -0.00048090843 0.00082501286 0.0011058935 0.0005151708
-0.00050350785 -0.0018069283 -0.0006782071 0.00074644864 0.001274419 -0.00194199 -0.0008446847 0.0012862523
-0.00016650948 0.00038554822 -0.001805394 0.0016947284 -0.0022235296 0.0005153654 -0.0004396635 -0.0016528142
0.00031494175 0.000405664 0.0010624615 0.0011679332 0.00015245078 0.001079349 0.00081247516 0.0007751065
-0.00071657763 -0.0018769563 -0.0010517684 0.0009645015 0.000273496 0.00045239134 -0.0008709305 -0.00076636137
0.00018869422 -0.0006687322 7.731052e-05 0.0012624975 0.0020730717 -0.001882139 -7.588271e-06 0.00073611
-0.0008007294 -0.0008013903 -0.00019731135 0.0005269112 0.0007921901 4.216947e-05 -0.0020899994 -0.002637257
-0.0008887085 -0.0003629907 0.00011194975 0.0016073051 -0.0005006788 -0.0006465096 5.22295e-05 0.0013059604
0.00080716825 -0.00029741199 -0.0006420176 -0.0010354181 -0.0005910755 -0.00034863187 -0.0014306623 0.0020975773
-0.0004022379 0.00069125113 0.00042680826 -0.0020341023 0.00052767864 0.0013364734 0.001299437 -0.0007947558
0.0014646522 -0.00058397726 0.0013925594 -0.00036461925 0.0015354934 -0.0017761438 -0.0005977811 -0.0006318063
0.0008770284 0.0021597247 -0.00079149776 0.00041834338 -4.3488435e-06 -0.00037704775 0.0004234233 0.001245131
-0.0015155469 -0.000201876 -0.0008423568 0.0003463535 -0.00035124065 0.0004386852 -0.0011825607 0.0011264416
0.0011459852 -0.0004777485 0.00031585898 0.000929382 0.0005595762 -0.0011207189 0.0010869858 0.00036419596
-0.0003408764 0.0010386843 -0.0006353208 -2.3226414e-05 0.00036288245 -0.00043923286 0.000748911 0.0014346626
0.00058042986 0.0004668894 -0.0013487699 -5.336549e-05 0.0005746944 -0.0004762698 0.0006461999 -2.6594844e-06
5.1478994e-05 0.0010465712 -0.0012757237 -0.0010294005 0.00069963955 0.0004040011 0.00054130406 0.0010979284
0.0006672074 -0.00032928295 -0.0002423331 -0.0005538572 0.00091230264 0.0005596636 -0.0012270149 0.0002642252
0.0011377991 -0.0007580285 0.00034796662 -0.00012532735 -0.0009305135 0.00073293503 -6.763927e-05 -0.0011685897

exp_avg_sq f4 [64, 64]
00000000: 1db2 bb36 3318 d837 05ce dd36 9e28 5736
00000010: cc80 1f37 15bd fa36 c8ad b636 8565 fe36
00000020: b2d7 b637 8897 af35 1c14 da37 0032 2736
00000030: 31c9 9836 46da 1837 3a84 ac36 69c8 2e37
00000040: 80bf 1936 9305 2837 5589 9b36 189e cf37
00000050: 4f08 9536 aaac 8937 00a2 5936 448c 3136
00000060: 5009 2837 d5fa 7236 4de9 2e36 ec3f 7237
00000070: c919 9036 7581 8936 587d 3d36 b801 3f36
00000080: 663d d535 fab4 f435 73a6 dd37 de48 7a36
00000090: 178e 7537 b234 a336 682e 5c37 a1b4 1137
000000a0: ff70 8036 5ae9 6036 e343 9537 74da e136
000000b0: d0e2 0c37 1489 8537 40ad b936 d80b 8337
000000c0: f647 5e36 bd7b 5336 8202 f036 2f55 ae37
000000d0: 86fa aa36 b175 0f36 985d 0236 be5d 8336
000000e0: 9eaf 1536 822c 9536 5599 c036 3e08 8937
000000f0: aa6a 5437 e752 1c36 30fe b536 2ee7 6237
00000100: c938 9536 09dd 9a37 38e7 ab36 38c7 4136
00000110: a391 0937 0033 bc36 7453 9736 1659 aa36
00000120: 5bd1 8837 ef62 0c36 783d 9c37 9cd0 3a36
00000130: 0ce3 9236 2184 ea36 c79a 8236 3934 fe36
00000140: bc34 0236 6236 fb36 b274 8536 53f3 9037
00000150: a57f 5f36 7394 3537 d75a 4636 eb1e 1336
00000160: 4903 0337 4923 6336 e631 0a36 d1ca 3937
00000170: 5ced 5d36 dee0 7636 6d2d 2036 acf5 6636
00000180: 75c5 f135 001d 2d36 dd32 9a37 1e1d 6336
00000190: 4766 2437 5e22 9736 b3d5 2237 4d27 f636
000001a0: aa77 4136 1dbf 6236 f5ee 5537 214c b136
000001b0: 5c89 db36 241e 5637 ca79 8e36 9b26 3a37
000001c0: 28ed 4e36 6957 6036 26bd c236 2243 7a37
000001d0: 1d1a 8536 ee79 1336 b9b4 1136 bd30 6036
000001e0: ad29 2136 ee88 9636 e1dd 9036 641b 4b37
000001f0: f66c 2337 019c 3036 f0b9 7f36 40e2 1e37
00000200: 9881 7236 559c 7b37 1c70 aa36 deb9 4436
00000210: e05c bc36 ff64 9336 bbb7 7736 a30b 9c36
00000220: 82e6 6237 41ac 0436 56cf 7b37 d3a0 3d36
00000230: c920 4736 9b70 a736 53ed 7436 a8c0 fa36
00000240: 5ece 2436 2023 b936 66f2 7036 4b9a 7537
00000250: dba8 6436 0107 1737 c5ca 1e36 a752 2e36
00000260: 0924 d036 5055 4b36 5604 0a36 528f 1237
00000270: ac48 4b36 12cb 5236 e7d9 2b36 563d 2936
00000280: cb1e d935 f5ad e735 44f3 7a37 60e5 3b36
00000290: b08f 0e37 df30 6136 13e1 ed36 fa42 d136
000002a0: 9c7f 5436 d603 2f36 79a9 2637 a261 9d36
000002b0: e6c8 9b36 e19b 1937 1d60 9736 c8ce 1537
000002c0: 33cd 6436 1097 2736 2a90 9f36 e344 4737
000002d0: a952 6a36 495f 1536 1c45 2936 c938 8536
000002e0: 16eb 1b36 9cfa 5536 8124 8636 fb51 1f37
000002f0: 26d4 f836 d0e8 ec35 9678 8036 8cb2 0537
00000300: 01a8 3c36 ff18 5837 67cf 9f36 3aa5 1b36
00000310: cefd b336 a66c 8836 c5ef 3d36 0cd2 6b36
00000320: 1d26 3637 773a ae35 72f6 4d37 24cf ee35
00000330: 3d95 2236 c54e 8e36 fd6d 7936 ad61 bb36
00000340: 20b1 bf35 8356 9c36 8de9 2f36 5a9d 4537
00000350: c3f5 2836 3261 ff36 9f20 0236 2061 c435
00000360: 96e5 9c36 3a76 2036 0649 dc35 9402 de36
00000370: 8a88 1536 ad05 2336 7df7 0736 b370 0d36
00000380: e195 b335 af63 cb35 6882 4c37 0222 d435
00000390: b424 da36 b882 4236 d230 cc36 46bf 9c36
000003a0: 744d 0836 7232 0536 958b 0f37 d224 7136
000003b0: 20a9 8036 d84f 0637 2ee0 5036 1fb8 f036
000003c0: ce7a 1d36 5b3e 1236 25ee 6e36 0b74 2337
000003d0: c073 4836 f6f2 a635 6230 e335 8859 0c36
000003e0: f284 0636 d8d1 3636 d0f3 3536 8a0a 0737
000003f0: b022 d536 13f4 c135 6bf2 2f36 a348 d436
5.5937694e-06 2.5760475e-05 6.610297e-06 3.206114e-06 9.507126e-06 7.4725926e-06 5.4442535e-06 7.5816083e-06
2.1796532e-05 1.3082617e-06 2.599699e-05 2.4914043e-06 4.5533748e-06 9.110727e-06 5.1413926e-06 1.041787e-05
2.2910244e-06 1.0014878e-05 4.6353475e-06 2.4749941e-05 4.4415133e-06 1.6412076e-05 3.2429816e-06 2.64567e-06
1.0015749e-05 3.6206814e-06 2.606382e-06 1.4439207e-05 4.294536e-06 4.097989e-06 2.8236154e-06 2.8462218e-06
1.5887606e-06 1.8232088e-06 2.6422762e-05 3.7295317e-06 1.4636221e-05 4.863913e-06 1.3123827e-05 8.684729e-06
3.8278517e-06 3.351443e-06 1.7793796e-05 6.730954e-06 8.397459e-06 1.5918667e-05 5.5335986e-06 1.5621932e-05
3.3122465e-06 3.1513475e-06 7.1528493e-06 2.0782083e-05 5.0955596e-06 2.1377166e-06 1.9425988e-06 3.9150173e-06
2.2304953e-06 4.4457274e-06 5.739896e-06 1.633551e-05 1.2661019e-05 2.3294067e-06 5.4238117e-06 1.3524475e-05
4.4471567e-06 1.8461158e-05 5.1231145e-06 2.8875202e-06 8.199745e-06 5.608774e-06 4.509866e-06 5.076766e-06
1.6309952e-05 2.0919213e-06 1.8625273e-05 2.7837586e-06 4.377571e-06 6.9891253e-06 3.8923204e-06 7.5758694e-06
1.9402205e-06 7.486714e-06 3.977294e-06 1.7279444e-05 3.3303888e-06 1.0823004e-05 2.9557175e-06 2.1922704e-06
7.808973e-06 3.3846175e-06 2.0592647e-06 1.1074081e-05 3.3069728e-06 3.6787746e-06 2.38683e-06 3.441567e-06
1.8013367e-06 2.579589e-06 1.8381916e-05 3.3842584e-06 9.798975e-06 4.5041515e-06 9.705708e-06 7.3359465e-06
2.8828895e-06 3.3787867e-06 1.2751426e-05 5.2838736e-06 6.5426993e-06 1.2762412e-05 4.246108e-06 1.10954525e-05
3.0834435e-06 3.342948e-06 5.8036703e-06 1.4916792e-05 3.966749e-06 2.197568e-06 2.1711878e-06 3.340697e-06
2.4015128e-06 4.486289e-06 4.3173645e-06 1.210612e-05 9.7409265e-06 2.631685e-06 3.810619e-06 9.470212e-06
3.6136244e-06 1.4997165e-05 5.079446e-06 2.9314465e-06 5.6136487e-06 4.392699e-06 3.6912813e-06 4.650517e-06
1.3524319e-05 1.9769798e-06 1.500904e-05 2.8256807e-06 2.9672394e-06 4.990097e-06 3.6496974e-06 7.4730087e-06
2.4558026e-06 5.5175187e-06 3.5903881e-06 1.4639062e-05 3.4072934e-06 9.001932e-06 2.3661862e-06 2.597613e-06
6.203078e-06 3.0299016e-06 2.0566126e-06 8.7356475e-06 3.0291658e-06 3.141064e-06 2.5607821e-06 2.5218665e-06
1.6176722e-06 1.7261469e-06 1.4957801e-05 2.7998685e-06 8.497314e-06 3.355606e-06 7.0893525e-06 6.2364825e-06
3.166474e-06 2.6079265e-06 9.9338295e-06 4.6903306e-06 4.6427476e-06 9.155804e-06 4.5113397e-06 8.929237e-06
3.409409e-06 2.497287e-06 4.755352e-06 1.1877363e-05 3.4916832e-06 2.2258193e-06 2.522319e-06 3.9703195e-06
2.3233638e-06 3.1885347e-06 3.997761e-06 9.496226e-06 7.4156733e-06 1.7651128e-06 3.8287353e-06 7.968989e-06
2.8111974e-06 1.2880423e-05 4.762714e-06 2.3192974e-06 5.3641625e-06 4.065764e-06 2.830276e-06 3.5139992e-06
1.0856919e-05 1.2981026e-06 1.2276332e-05 1.7792668e-06 2.422675e-06 4.2410998e-06 3.7167913e-06 5.5844052e-06
1.4282159e-06 4.6592336e-06 2.6212977e-06 1.1778751e-05 2.5177003e-06 7.6109072e-06 1.9390498e-06 1.4631405e-06
4.6758896e-06 2.3910675e-06 1.641253e-06 6.6164157e-06 2.2282206e-06 2.4292196e-06 2.0260625e-06 2.1076237e-06
1.338016e-06 1.515369e-06 1.218971e-05 1.5805128e-06 6.501179e-06 2.898434e-06 6.085357e-06 4.6714295e-06
2.0310663e-06 1.9847907e-06 8.555963e-06 3.593323e-06 3.834386e-06 8.0056125e-06 3.1124905e-06 7.173992e-06
2.3466305e-06 2.179199e-06 3.5603382e-06 9.7425755e-06 2.9869698e-06 1.2438675e-06 1.6926899e-06 2.091374e-06
2.004494e-06 2.7242259e-06 2.711302e-06 8.049081e-06 6.351933e-06 1.4450655e-06 2.6218138e-06 6.3265484e-06

exp_avg f4 [64]
00000000: 294c e9ba 2572 feba f5ec abba 8400 0abb
00000010: f004 c53a 7adf a2b9 9cc5 853a ed2f 893b
00000020: cc03 f5b9 5d7b d63a 46ee 86b9 f138 80b9
00000030: f0b3 333b db15 beba 9e25 343b 8374 073b
00000040: 55f2 d739 394a 873a e7ef cd39 41d6 b33a
00000050: 10ad d039 767d 94b9 f509 143b 2c3b 843a
00000060: 2331 23ba 4a65 003b 12f3 3f39 cb12 51ba
00000070: 1a3b d43a 6608 f13a eebd 863a 35b8 0439
00000080: 6796 cdba e846 32bb 7989 033b c03a ff3a
00000090: 5981 ef3a 61e0 feba ccb3 673b e6bc afba
000000a0: 686e d8ba f37f 653a 5d85 063b 64ff d938
000000b0: 9324 4a3b 025c 613a c73d 233b 2990 cbba
000000c0: fe9d 3cba b5bb 5ebb a226 7e3a 1d7e 4b3a
000000d0: fc92 e03a 892e 343b 0bcb 05bb b0ec b3b9
000000e0: 15b4 0d3b da24 c4b9 4209 64ba 6265 b7b9
000000f0: fbdc c5ba 1c9e c6ba a2ce 9b39 04ff 973a
-0.0017799187 -0.001941268 -0.0013116883 -0.0021057436 0.0015031379 -0.0003106555 0.0010205987 0.0041866214
-0.0004673287 0.001636367 -0.00025736 -0.00024456487 0.0027420484 -0.0014502363 0.0027488242 0.0020668812
0.00041188547 0.0010321803 0.00039279388 0.0013720469 0.00039801793 -0.00028322235 0.0022588943 0.0010088435
-0.00062252785 0.0019591623 0.0001830573 -0.00079755177 0.001619193 0.0018389344 0.0010279992 0.00012657123
-0.0015685082 -0.0027202908 0.0020070954 0.0019472465 0.0018272802 -0.0019445532 0.003535497 -0.0013407737
-0.0016512396 0.00087547227 0.0020526268 0.000103949365 0.0030844554 0.0008596779 0.0024908648 -0.0015530634
-0.00071951735 -0.0033986394 0.0009695088 0.0007762628 0.0017133649 0.0027493557 -0.0020415212 -0.00034317886
0.002162223 -0.0003741149 -0.0008698889 -0.00034980016 -0.0015095765 -0.0015153321 0.00029717857 0.0011596386

exp_avg_sq f4 [64]
00000000: a0f6 a238 12d5 6d38 7a77 3b38 7fc9 1938
00000010: 9776 5738 af68 8a38 5c24 4a38 a253 7c38
00000020: a028 3138 14d5 4b38 3dc7 0938 f9e6 5238
00000030: bbcd 0c38 6f64 9438 9c0a 5438 fd18 e937
00000040: c8da 5238 5830 d037 20c5 3938 94c0 a237
00000050: 029e 4138 a9df 1138 2bf3 3238 67d9 8138
00000060: 1078 7038 c77a 2538 c834 3038 13fe 3638
00000070: ffdd 5c38 2826 5238 6a7a 7d38 cc41 1138
00000080: 69ce 6d38 4450 4538 66ce 0c38 92c2 0f38
00000090: 86ae 2c38 6811 3138 15f0 6b38 f545 9e38
000000a0: 6bb0 2238 b2d6 a637 f342 e437 58ac 5b38
000000b0: 7eec 2438 aa4f 7e38 278d 5538 ea76 1038
000000c0: 720b 3238 6f13 2038 f8d8 4938 a2d0 f437
000000d0: 4b9d 3038 8ed6 f637 e857 6f38 5bfe 6e38
000000e0: ceab 2938 55e6 8638 afc6 0a38 3b28 5c38
000000f0: 6c8d 6538 94eb 2138 11ef 5138 fffd 4038
7.7706994e-05 5.670364e-05 4.4695546e-05 3.66657e-05 5.137044e-05 6.5998516e-05 4.8194415e-05 6.015937e-05
4.2237923e-05 4.8597416e-05 3.28489e-05 5.028301e-05 3.3570203e-05 7.075897e-05 5.055462e-05 2.77874e-05
5.0271658e-05 2.4818044e-05 4.4291024e-05 1.9401581e-05 4.6161942e-05 3.4778994e-05 4.2664975e-05 6.191694e-05
5.7332276e-05 3.945341e-05 4.2010826e-05 4.3628806e-05 5.2658837e-05 5.0103437e-05 6.0433907e-05 3.4631972e-05
5.6697438e-05 4.7043213e-05 3.3570825e-05 3.4275065e-05 4.1170533e-05 4.22163e-05 5.625196e-05 7.5470576e-05
3.8788112e-05 1.9888717e-05 2.7210894e-05 5.2374176e-05 3.9320897e-05 6.0632512e-05 5.0914616e-05 3.4443023e-05
4.2449166e-05 3.816507e-05 4.8124202e-05 2.9184219e-05 4.210816e-05 2.9425395e-05 5.706391e-05 5.698051e-05
4.0452745e-05 6.4325206e-05 3.3086802e-05 5.2489555e-05 5.4729564e-05 3.860479e-05 5.005213e-05 4.601292e-05

exp_avg f4 [17, 64]
00000000: 20b4 13bb 9ae0 cdb8 a400 ea3a 73e1 0c3b
00000010: 757c 633b e2b1 2abb 3681 b03b d6ea 36bb
00000020: 12fd 9a3a d23d e9ba 8930 8abb 86b8 22ba
00000030: fbf8 eaba 95e6 b93a fdd1 c63a 1624 18ba
00000040: 3ca3 9dba 451b 9439 6165 0c3b a81d 31bb
00000050: 8542 863a 0a6a 2abb f213 59bb ae2f 0b3b
00000060: d483 7239 9043 8fb8 7084 42bb 367b cfbb
00000070: ae13 d0ba 1fe8 9b3a cf8e 26ba 94aa 103b
00000080: 4b85 79ba 4693 603a 4fb6 2dbb 0d03 91ba
00000090: 0748 69ba 18f7 3fb9 8857 2c38 f18a 70ba
000000a0: e2db 7639 4d3e 0e3b 95c3 8aba a63e 5e3b
000000b0: d954 133b 5c2e 8a3a 50ca 313b 39e8 b5b9
000000c0: 0c3a 3f3b bcdd 91bb 1121 1d3b cc36 603b
000000d0: ce96 c9ba 43fb 05ba c0cd 7a38 e827 dfba
000000e0: 5987 173b 1201 b838 5a0a 613a cded 9dba
000000f0: 224d 7eba 7c71 7b3a cc86 4a3b 484b 4e39
00000100: 2adf cdba ce69 923a a0fb b53b 70f8 fa3a
00000110: 7bf1 0339 00da 1eba 70be dd3a 5e74 39bb
00000120: ce05 fb39 b131 7abb 5eb9 a5bb 88d4 1abb
00000130: a557 beba 1123 923b be36 9a39 fc17 8bba
00000140: 0198 39bb 00c0 a536 c9ba 8f3b 03bc 87bb
00000150: 10fe 19ba 60af eabb c218 daba e40b 213b
00000160: b12c d03b f0f7 24bb 32d6 54bb 5175 b5ba
00000170: af42 4a3b aaa0 ccb9 66a4 c83a 5a63 9f3b
00000180: e16f 863b 5808 13bb c9a6 a73a e3be 013b
00000190: b073 88bb 3f14 8a3b 4ebf fd39 e22b 7abb
000001a0: 48e0 4abb 8258 803b 7797 88ba 0aa0 cd3b
000001b0: 453b 8e3b 6db3 06bb de0f d9ba c4a3 86bb
000001c0: 2824 68bb 54cc 85bb f24d bc3a dbd0 b73b
000001d0: fa9b a0bb c293 04bb 2d56 5dba 00d2 753b
000001e0: 1a57 dbb9 539d fe3a 754d f6ba b5e9 f2b8
000001f0: 6cfa eeba 9a40 a5bb 3034 1b3b 6e84 4cbb
00000200: e798 4f3b f01a c5ba b5bc c539 644b aa3a
00000210: d4f2 ceba 56b2 a3ba 00c1 fbb7 2589 7bba
00000220: 148f 1f3b cfad 863b ca9b 3539 2e86 99bb
00000230: 46e0 f23a 40f2 5837 86b1 51ba 35e4 573b
00000240: 75ac 203a 9667 fb3a 6081 e9ba 3b46 3b3b
00000250: 620a ecb9 22ee 223b 16b0 303b e128 76bb
00000260: 6505 783b 6f1b 383b 5232 9e3b d14b acba
00000270: 0b6c beba 038d 873b cea4 d43a 52a4 083a
00000280: 6618 9f3b 12e0 1f3b 0a72 32bb 3813 45ba
00000290: 625c 8e3b b9ee cdb9 7a07 a03b 7892 54b9
000002a0: 2d56 0ebb e2bf 8fba 5f8d 5839 38d8 47bb
000002b0: 800a aaba 1fc7 243a 217f 573b 3e20 43ba
000002c0: e985 b83a d8da 2dbb 4781 273b d4cd 133b
000002d0: d0f0 08ba a5bd bcba df12 993b 428b e5ba
000002e0: cff7 15bb 8ca9 483b 0e39 09bb fedd 3739
000002f0: 546d 733b eeb5 9fb9 9555 71bb c732 e43a
00000300: 6e6e 323b c55a 52bb 180a 7bbb c0a5 d8b9
00000310: e94a 42bb c04e 49bb 7c5e 4bbb 448d a33b
00000320: 8b91 363b bea3 11bb 242a 48ba 266b bd3a
00000330: 8a4a 41bb 159d b8ba e177 aeba ded3 b63a
00000340: 1e4f f239 6e3d 553a 4b21 29bb f264 06bb
00000350: 8027 c1ba 347c 363b 2f8b 0b3b a1a7 79ba
00000360: de18 27bb f614 93ba 9400 85ba 1d8b d13a
00000370: c8e9 90bb 4844 3a3b 1784 b2ba a733 f2ba
00000380: 4ceb dbba c076 003b 1327 9c3b 4174 453a
00000390: bdd0 13bb 82d7 9eba 1702 1b3a 1107 473b
000003a0: 1c03 a8ba 492c 373b 793f 553a a03c e5b7
000003b0: c154 95b9 f100 023b 1d76 ecba 288a 233a
000003c0: 9955 49bb a34a d13a 8bf3 31ba 4353 0dbb
000003d0: d1e4 0f3b f225 90ba 32ca 79ba 2705 7aba
000003e0: ee73 8d3b d8c6 b23a 16c2 e6ba d171 9aba
000003f0: f07d 9938 6247 29bb 944e b23a 7e62 ac3a
-0.0022537783 -9.816997e-05 0.0017852974 0.0021496683 0.0034711633 -0.0026045968 0.005386497 -0.002791097
0.0011824688 -0.0017794913 -0.0042172116 -0.00062073057 -0.0017926985 0.0014183099 0.0015168783 -0.0005803717
-0.0012026797 0.00028249077 0.0021422731 -0.0027025733 0.0010243213 -0.0026003146 -0.003312346 0.0021238136
0.00023128028 -6.831356e-05 -0.002968099 -0.0063318266 -0.0015875006 0.0011894739 -0.00063536776 0.0022074329
-0.00095184584 0.00085668673 -0.002650637 -0.0011063531 -0.00088989775 -0.00018307229 4.1089515e-05 -0.00091759773
0.00023542301 0.0021704615 -0.0010586852 0.0033911853 0.0022480993 0.0010542381 0.0027128644 -0.0003469603
0.0029178886 -0.0044514816 0.0023976008 0.003421235 -0.0015380026 -0.0005110988 5.9796264e-05 -0.0017025443
0.0023121445 8.774003e-05 0.00085846114 -0.001204902 -0.0009700825 0.00095918006 0.00309031 0.00019673735
-0.0015706767 0.0011170448 0.0055536777 0.0019147526 0.00012583092 -0.0006059706 0.0016917717 -0.002829812
0.00047878776 -0.003817659 -0.005057498 -0.0023625214 -0.001452197 0.0044597466 0.00029413955 -0.0010612006
-0.002831936 4.939735e-06 0.00438628 -0.004142286 -0.0005874345 -0.0071620196 -0.0016639458 0.0024573738
0.006352984 -0.0025172196 -0.0032476303 -0.0013844167 0.00308625 -0.00039029616 0.0015307784 0.0048641386
0.0041026925 -0.0022435393 0.0012790795 0.0019797615 -0.0041641816 0.0042138393 0.00048398454 -0.003817313
-0.0030956436 0.003916801 -0.0010421117 0.0062751817 0.0043405616 -0.0020553723 -0.0016560515 -0.004108878
-0.0035421941 -0.0040831957 0.0014366491 0.0056096143 -0.0049014064 -0.0020229672 -0.0008443322 0.0037509203
-0.0004183583 0.0019425548 -0.0018791395 -0.000115829906 -0.001823259 -0.0050431015 0.002368223 -0.0031206864
0.003167683 -0.0015037935 0.00037715366 0.0012992439 -0.0015788921 -0.0012489061 -3.0011404e-05 -0.0009595326
0.0024346756 0.004110075 0.00017319541 -0.004685185 0.0018529973 1.29310065e-05 -0.00079991703 0.0032942418
0.0006129214 0.0019180651 -0.0017815046 0.0028575796 -0.00045021164 0.0024861176 0.0026960424 -0.0037560987
0.0037845012 0.0028092524 0.004827776 -0.0013145154 -0.0014528049 0.004136683 0.0016223432 0.0005212474
0.0048552034 0.002439503 -0.0027228617 -0.00075178174 0.004344509 -0.0003927851 0.004883704 -0.0002027246
-0.0021718845 -0.001096722 0.0002065203 -0.0030493867 -0.00129731 0.0006285775 0.0032882171 -0.0007443464
0.0014077994 -0.0026528146 0.0025559233 0.0022553103 -0.0005223872 -0.001439978 0.004671439 -0.0017512816
-0.00228833 0.0030618636 -0.0020938548 0.00017534939 0.0037144022 -0.0003046239 -0.0036824693 0.0017410152
0.0027226466 -0.003209756 -0.0038305577 -0.00041322224 -0.00296467 -0.0030717105 -0.003103166 0.0049912054
0.0027857746 -0.0022222842 -0.0007635674 0.0014451488 -0.0029493892 -0.00140849 -0.0013310873 0.0013948639
0.00046216784 0.0008134459 -0.0025807198 -0.0020506945 -0.0014736503 0.0027845027 0.0021292677 -0.0009523575
-0.0025497 -0.0011221457 -0.0010147267 0.0015986894 -0.0044224 0.0028422046 -0.0013619688 -0.0018478528
-0.0016778498 0.001960203 0.0047654 0.0007532277 -0.0022554838 -0.001211867 0.0005913092 0.0030369202
-0.001281831 0.002794998 0.00081347633 -2.7327158e-05 -0.0002848264 0.0019836987 -0.0018040572 0.00062385434
-0.0030721186 0.0015967678 -0.0006788305 -0.002156452 0.0021956454 -0.0010997637 -0.00095287256 -0.0009537511
0.0043167984 0.0013639582 -0.001760545 -0.0011783188 7.319066e-05 -0.00258299 0.001360374 0.0013151912

exp_avg_sq f4 [17, 64]
00000000: f579 1e38 1fea 7d37 4865 d737 1eda 0738
00000010: 2e9f 7837 135f 8237 4827 8337 ae93 7a37
00000020: 7b11 aa37 7b13 3538 2fef 9538 1b66 8a37
00000030: 60b6 0138 2630 e537 e120 0337 6b9d 3e37
00000040: ff66 3f37 9810 a537 c18a b038 cb72 f638
00000050: 4f4e 6537 bd25 1539 04b2 f936 566f 2738
00000060: 0092 5037 3ae5 2d38 8fe9 ac38 f312 0738
00000070: ed54 5b37 c19c e036 b80a 5f37 f727 0e38
00000080: 9c43 2338 6b4c 3337 107a 7538 451b e036
00000090: 3892 1738 4485 ca37 3d53 8a37 678d 1238
000000a0: 1263 d037 e30a 0339 5f2e 7537 f807 0b39
000000b0: c3bf 8038 1d03 3b37 2d1d 8f37 bf69 3838
000000c0: 6459 f937 efea 7938 f2be 9c37 1cd7 aa38
000000d0: 59ef 9038 15f6 5c37 b760 ee37 6b39 5d38
000000e0: 68db 5338 47ee 8437 fc1c 4038 1c5a 2937
000000f0: 266d d237 85e9 df38 250a a838 544b 8037
00000100: 1cbc 1b38 b3a5 6d37 e268 e137 c358 0c38
00000110: 6b17 3937 e0d5 4e37 ed4d 8737 55ee 5137
00000120: c0fd b737 c3f0 4a38 e5c3 a338 b511 9537
00000130: 9eaa 0938 db21 d337 c31f f136 617c 5537
00000140: 7551 3f37 d933 9437 a230 bd38 f1f5 0339
00000150: f75d 8237 f2b6 2439 8b68 0537 9648 3538
00000160: 4f27 8e37 902e 2c38 3722 be38 b1b4 0e38
00000170: 3088 6637 b639 bc36 fe90 2e37 3148 1838
00000180: fda8 3338 2c61 4837 98f7 7938 3698 e036
00000190: e34c 2138 b99f cc37 63be 4137 1e88 1738
000001a0: feaa ef37 bbcc 1139 3b3c 8537 077c 1439
000001b0: 09aa 8c38 0382 4b37 edff 8037 daba 4c38
000001c0: fe80 e537 c2d2 8838 7bf9 8837 c4d5 c838
000001d0: 9728 a938 2ea6 5b37 1f7c 1238 ba1a 5f38
000001e0: 1d5f 5138 2b64 a237 3284 4638 d2ad 1737
000001f0: 4e58 d337 9d6c e938 dc59 b038 b317 2d37
00000200: bd41 1138 97a5 4337 bac9 a737 6ee5 f137
00000210: b65a 2237 7d74 6b37 09a8 5937 9c69 6337
00000220: d298 a037 8d25 2e38 393f 8538 5fb3 8537
00000230: 7905 e637 561a b737 2c0f fb36 2a49 4037
00000240: b180 0c37 c573 9837 a777 9c38 9be7 d638
00000250: eb64 4237 3ecb 0239 e254 f536 23f0 1738
00000260: 8345 7037 80f5 0738 f972 9e38 6302 ff37
00000270: 8a2f 1d37 52fa 0037 1df8 3937 b6d5 df37
00000280: 74c8 1138 f70c 2437 820d 4738 aed4 df36
00000290: 1e35 0f38 e53a ab37 af21 7c37 7584 0138
000002a0: 08c3 c237 68c3 e538 e68f 4e37 32aa f038
000002b0: d3e2 6a38 66f9 4437 689d 6337 16c1 2938
000002c0: a853 c437 d9f3 6538 9aa3 8437 8ba3 8d38
000002d0: 919a 8138 32fd 4737 4eea ef37 d24f 2c38
000002e0: a2f5 3038 4498 6c37 4459 1238 00f0 fe36
000002f0: aab7 be37 30f6 bc38 1e78 9238 c70e 2237
00000300: f2a2 ef37 7dd4 3f37 d7ca 8b37 4e38 a737
00000310: 04ca 2037 4c75 4f37 e5e3 3d37 3bfb 4737
00000320: 7f63 8a37 af9d fd37 d4be 3038 8957 6c37
00000330: a81e a337 38aa 8e37 66dd 0137 4aa3 d336
00000340: e3e1 1237 4de9 7037 d259 4e38 874c 9238
00000350: 6def 3937 0b25 a838 0f0a 2537 9392 d737
00000360: 60c7 2037 7d3f d637 c6d3 4a38 c481 a437
00000370: 99a7 2f37 f3c3 ec36 1fee 1f37 1e94 b137
00000380: 07d0 c837 b9a0 1f37 c377 1238 73fd ca36
00000390: 5a2d da37 2ec4 6e37 dd58 2b37 a063 b137
000003a0: 8762 9837 1d97 9d38 e3ca 3737 2a9e 9d38
000003b0: 56e0 1338 2983 3c37 60ba 6037 c6d8 e537
000003c0: e45c b337 06cc 1838 3237 4737 bcde 5838
000003d0: 9d50 2838 1904 1637 d4e1 c237 3e94 0738
000003e0: 8f4e fe37 77d4 5e37 7943 e237 3d66 d536
000003f0: 79ff 8037 3ef9 8338 a13d 4d38 a5c8 1537
3.7783717e-05 1.5134486e-05 2.567716e-05 3.2389646e-05 1.4819014e-05 1.554148e-05 1.5634709e-05 1.4935546e-05
2.027372e-05 4.3171905e-05 7.149425e-05 1.6498429e-05 3.0925847e-05 2.7321348e-05 7.815864e-06 1.1361534e-05
1.1408468e-05 1.967726e-05 8.418179e-05 0.00011751576 1.3667696e-05 0.00014223806 7.441502e-06 3.9919592e-05
1.2431759e-05 4.1459898e-05 8.245103e-05 3.2204156e-05 1.30731905e-05 6.6939688e-06 1.3294331e-05 3.389266e-05
3.8925195e-05 1.0687024e-05 5.852623e-05 6.678895e-06 3.6137382e-05 2.4142333e-05 1.6489643e-05 3.4940804e-05
2.4841665e-05 0.00012497189 1.4613935e-05 0.00013259042 6.139234e-05 1.1146793e-05 1.7060514e-05 4.3967502e-05
2.9724739e-05 5.9585025e-05 1.8685565e-05 8.146299e-05 6.911037e-05 1.3170317e-05 2.8416847e-05 5.274398e-05
5.051066e-05 1.5846583e-05 4.580336e-05 1.0094165e-05 2.5084777e-05 0.00010676965 8.012754e-05 1.5293866e-05
3.713007e-05 1.4164881e-05 2.687093e-05 3.3461267e-05 1.1032312e-05 1.23283535e-05 1.6129541e-05 1.2512862e-05
2.1933462e-05 4.838478e-05 7.808934e-05 1.777043e-05 3.2822245e-05 2.5168925e-05 7.1860572e-06 1.2724749e-05
1.1403453e-05 1.7667118e-05 9.021281e-05 0.00012584754 1.5540963e-05 0.00015708411 7.951759e-06 4.3221364e-05
1.6946024e-05 4.105136e-05 9.066279e-05 3.402372e-05 1.3740777e-05 5.609555e-06 1.0404967e-05 3.6306858e-05
4.283431e-05 1.1943554e-05 5.9596816e-05 6.69344e-06 3.8456998e-05 2.4393072e-05 1.1548024e-05 3.6127974e-05
2.8570645e-05 0.00013904546 1.5882883e-05 0.00014160584 6.707392e-05 1.2130014e-05 1.5377964e-05 4.881141e-05
2.7358994e-05 6.524242e-05 1.6328637e-05 9.57656e-05 8.0661084e-05 1.3092109e-05 3.492471e-05 5.3192234e-05
4.9918064e-05 1.935855e-05 4.7329995e-05 9.040772e-06 2.519428e-05 0.000111305366 8.4090716e-05 1.0317121e-05
3.4631918e-05 1.166146e-05 2.0001888e-05 2.8836275e-05 9.677073e-06 1.4034214e-05 1.2973332e-05 1.35548435e-05
1.9144649e-05 4.1519805e-05 6.35371e-05 1.5938362e-05 2.7420685e-05 2.1827564e-05 7.482149e-06 1.1461127e-05
8.374614e-06 1.8173721e-05 7.460947e-05 0.00010247455 1.1586798e-05 0.0001247348 7.3114506e-06 3.622485e-05
1.4321299e-05 3.2415148e-05 7.5554424e-05 3.039948e-05 9.368998e-06 7.687677e-06 1.1084628e-05 2.6683188e-05
3.475738e-05 9.77818e-06 4.7457877e-05 6.670677e-06 3.4143326e-05 2.0412213e-05 1.5028213e-05 3.0879357e-05
2.321742e-05 0.00010955968 1.2312061e-05 0.00011475793 5.6001194e-05 1.1740578e-05 1.3566903e-05 4.0472565e-05
2.3403976e-05 5.4824955e-05 1.581181e-05 6.753866e-05 6.1799896e-05 1.1920276e-05 2.8600127e-05 4.1082334e-05
4.2190433e-05 1.4102148e-05 3.4892248e-05 7.5977296e-06 2.273529e-05 9.0103946e-05 6.984196e-05 9.659393e-06
2.8566898e-05 1.1433961e-05 1.6664546e-05 1.993417e-05 9.583779e-06 1.2365472e-05 1.1318339e-05 1.19198185e-05
1.6497213e-05 3.0233377e-05 4.2139392e-05 1.4087077e-05 1.944539e-05 1.7006983e-05 7.7405475e-06 6.3072994e-06
8.7548715e-06 1.4359434e-05 4.919788e-05 6.976077e-05 1.1082605e-05 8.017764e-05 9.837108e-06 2.5698251e-05
9.583164e-06 2.5540352e-05 4.8357782e-05 1.961075e-05 1.0469835e-05 7.0561596e-06 9.53258e-06 2.1169017e-05
2.3938728e-05 9.51456e-06 3.492065e-05 6.0495745e-06 2.6008744e-05 1.4231582e-05 1.0213084e-05 2.1146436e-05
1.8165692e-05 7.5144904e-05 1.0954888e-05 7.515804e-05 3.525646e-05 1.1236211e-05 1.3394834e-05 2.739987e-05
2.1381718e-05 3.6429636e-05 1.18741755e-05 5.170585e-05 4.01294e-05 8.941651e-06 2.3231762e-05 3.232457e-05
3.0315741e-05 1.32816995e-05 2.6972719e-05 6.3597968e-06 1.5377753e-05 6.292992e-05 4.8933205e-05 8.927808e-06

exp_avg f4 [17]
00000000: 9e64 8f3b d99a 4f3c 62f8 96bb 794c 3f3b
00000010: 9820 95ba 7d08 f83b 8f5f 36bb 9a62 1cbc
00000020: f106 b53b c07b b338 0cd0 8fbb b957 b5bb
00000030: fe5f 3ebb 16a5 c63a 5f89 a03a e0e9 ae3b
00000040: e825 f437
0.004376008 0.012671196 -0.0046072463 0.0029189868 -0.0011377512 0.0075693713 -0.0027827953 -0.009544993
0.005524509 8.5584354e-05 -0.004388815 -0.005534139 -0.0029048915 0.0015155401 0.0012247971 0.0053379387
2.9104718e-05

exp_avg_sq f4 [17]
00000000: 577c f239 7af5 013a 57d1 d239 5647 9339
00000010: 0752 153a 0ac2 fb39 f794 103a 0126 d439
00000020: 636e ec39 fd4b 143a 2fc7 053a e0b5 aa39
00000030: 24e0 d739 50b0 ed39 309d bc39 d792 173a
00000040: eb53 003a
0.00046250477 0.00049575383 0.00040210292 0.00028091174 0.0005696122 0.0004801902 0.00055153616 0.00040464106
0.00045095672 0.0005657075 0.0005103228 0.00032560434 0.00041174993 0.00045335526 0.00035975268 0.0005782074
0.0004895317
