flare/polgrad/lightning_logs/version_26/checkpoints/epoch=49.ckpt (torch_old, 152910 bytes, 36 tensors)

exp_avg f4 [6]
00000000: 0333 18b9 0691 153b 7890 08bb fff7 b43b
00000010: c0c5 703b 0bb4 a83b
-0.00014514853 0.0022822036 -0.0020838063 0.0055227275 0.0036738962 0.005148416

exp_avg_sq f4 [6]
00000000: 996a 2639 6d90 3239 9b8d 7439 f921 4439
00000010: 889d 5f39 a614 3639
0.00015870704 0.00017029206 0.00023322405 0.00018704672 0.00021325622 0.00017364565

exp_avg f4 [64, 26]
00000000: a1fa 0739 0000 0000 14e2 c0b9 11ef da39
00000010: 0000 0000 bce3 a039 0000 0000 23e1 98b9
00000020: 5bf6 df39 e5a5 3639 c3a0 8139 1664 19b9
00000030: 85d8 3e3a 6093 cbb6 953f 143a 810a 5d39
00000040: 1c42 38ba 90a6 e739 5455 b239 8ca5 a9b9
00000050: 2287 98b9 83fb 82b9 f92b 45b7 c6d2 2339
00000060: 2add 29a6 0a8c 95b2 912c 20b9 0000 0000
00000070: b257 513a 7a27 a4b8 0000 0000 9df2 f338
00000080: 0000 0000 653d 9b39 1d9f 8ab9 6329 e7b8
00000090: b969 0aba 5a3f 0cba 78fc 91ba 30c4 f638
000000a0: e31d 95b9 4225 88b9 bcd1 96b9 b445 d4b8
000000b0: 749d c339 8df3 053a 8e78 d738 e7f0 eb38
000000c0: 98f2 35b6 6b3e eb39 9d47 aa25 9f97 fd32
000000d0: 12a0 e9b8 0000 0000 66b2 df38 96e6 5039
000000e0: 0000 0000 98b7 83b7 0000 0000 f9e7 b939
000000f0: 0b77 6b3a 1dd7 073a 29c5 f6ba c6d2 d5b9
00000100: 2e1a 65ba 1960 acb9 74f5 c23a 58c2 ac39
00000110: d6bc f7b9 744a da38 b18f 60b9 35c6 43ba
00000120: c19e e03a 9924 b638 1420 d237 65f7 b63a
00000130: 6d33 c024 f2f8 46b3 fb8a 56b9 0000 0000
00000140: 6998 2f39 405b ad38 0000 0000 0ac7 41b9
00000150: 0000 0000 b159 2639 00f9 1e39 0e25 cbb8
00000160: 68aa 8b37 aaf8 6eb8 f7a1 01ba fa2c 62b9
00000170: db50 2cba e020 9938 bbd9 5939 bf73 0a39
00000180: b852 02ba 8b05 2ab9 36ea b6b9 2371 7739
00000190: 2490 05b7 a4ec 2fb9 4c4b 1725 aa6f f632
000001a0: 664c 1cb9 0000 0000 b42c 183a 5ae9 7238
000001b0: 0000 0000 6eae 84b9 0000 0000 d383 2239
000001c0: ac05 2f3a e41a b5b9 504b c9b9 d15f 323a
000001d0: 263d 87b9 ce7b 4339 1882 ac39 631d 8239
000001e0: 081d acb7 0223 fd38 42cb 6a39 b6f5 77b9
000001f0: 546d 4239 4c71 c0b8 1b10 4038 38eb 1cba
00000200: bd63 6aa4 1902 7733 7370 dcb8 0000 0000
00000210: 7d37 0e3a feed 7239 0000 0000 e4a8 133a
00000220: 0000 0000 a8a1 82b6 9492 a939 c887 06b9
00000230: 829d 44b9 f3d5 9738 3c74 3e3a 7c6b 8db9
00000240: ecbe ff39 56af 7539 3993 a9b9 a009 23b9
00000250: 2ca9 7fb8 097c d239 ea61 ea39 a081 7636
00000260: 574b 8bb7 b480 163a 266b d2a5 1d28 23b2
00000270: 0e26 2ab9 0000 0000 3c73 0639 e218 4039
00000280: 0000 0000 958d e3b9 0000 0000 39c3 9239
00000290: fcbe c739 552c 1b3a 6201 34ba 61e2 85b9
000002a0: 41a2 343a d90f 64b9 fef0 c639 9c44 6739
000002b0: fe4f 073a 9fcc a2ba 904d a838 0c2c 8db8
000002c0: bccd 023a 742f d738 94ec ff37 034b 9a39
000002d0: afd4 f1a5 3942 4fb3 ddae 6338 0000 0000
000002e0: 3af3 8aba 3be4 6938 0000 0000 b421 9739
000002f0: 0000 0000 422f b7b8 a676 6539 024f ab38
00000300: 7d2a 013a 373e 55b9 9679 ae39 2330 263a
00000310: db05 0439 20c6 c0b9 243b 8ab8 42e4 c539
00000320: 8409 f9b8 a66f 3739 140b 5039 ae6e 2a39
00000330: 58e4 0e38 9e73 bfb9 0ffd 72a5 e45a 8b32
00000340: 0721 7db8 0000 0000 a973 143a 764a 87b9
00000350: 0000 0000 dce9 b5b9 0000 0000 56d6 9637
00000360: 7a5d 08b9 5ca0 20b9 ee72 7eb9 7437 1d39
00000370: f359 39ba 3787 75b9 2e6e 09ba e036 6739
00000380: 05ef e139 7704 23ba 60e2 9db8 aee3 8d39
00000390: 26b4 a7b9 0a37 0f39 16bf 45b8 f11f 4a39
000003a0: 5564 1526 35ff 47b1 9fee 9038 0000 0000
000003b0: e646 5fb9 2e73 5db9 0000 0000 2737 7fb8
000003c0: 0000 0000 a746 54b9 6bf2 c6b8 0b1f 9a39
000003d0: 51ac 8939 fe60 19b9 4a19 9db9 a780 3839
000003e0: ff36 8839 24b8 7d38 4cdf 3039 1e24 a7b9
000003f0: c047 d8b7 30d3 0339 0aed 8338 78c4 f838
0.0001296797 0.0 -0.00036789535 0.0004175832 0.0 0.00030687253 0.0 -0.0002915944
0.00042717424 0.00017418673 0.00024724574 -0.00014628502 0.0007280189 -6.067028e-06 0.00056552264 0.00021080115
-0.0007028894 0.00044183852 0.0003401438 -0.00032357534 -0.0002909238 -0.00024982923 -1.1752353e-05 0.0001562341
-5.8933387e-16 -1.7409565e-08 -0.00015275391 0.0 0.0007985785 -7.8274825e-05 0.0 0.00011632333
0.0 0.00029609646 -0.0002643996 -0.00011022647 -0.0005280036 -0.0005350016 -0.0011137864 0.00011766737
-0.00028441762 -0.000259677 -0.00028766494 -0.00010121931 0.0003731061 0.0005109839 0.00010274454 0.00011250545
-2.711231e-06 0.00044869198 2.9538826e-16 2.9522026e-08 -0.00011140121 0.0 0.00010666698 0.00019922326
0.0 -1.570191e-05 0.0 0.00035458783 0.00089822774 0.00051818957 -0.0018827069 -0.00040783564
-0.0008739558 -0.00032877995 0.0014874176 0.00032951194 -0.00047252205 0.00010408918 -0.00021415834 -0.0007468195
0.0017137156 8.685253e-05 2.5048888e-05 0.0013959227 8.3353846e-17 -4.6326882e-08 -0.00020460405 0.0
0.00016746078 8.2662795e-05 0.0 -0.00018480062 0.0 0.00015864406 0.00015160814 -9.686696e-05
1.6649443e-05 -5.697521e-05 -0.0004945094 -0.00021569795 -0.00065733277 7.301732e-05 0.00020775844 0.00013203824
-0.00049714325 -0.00016214528 -0.00034888246 0.00023597902 -7.960978e-06 -0.00016777456 1.3122674e-16 2.8688948e-08
-0.0001490578 0.0 0.0005805001 5.791462e-05 0.0 -0.00025306962 0.0 0.00015498632
0.00066765654 -0.00034543045 -0.0003839382 0.0006804439 -0.00025794766 0.0001864277 0.00032903324 0.00024817427
-2.0517517e-05 0.00012070501 0.00022391698 -0.0002364729 0.0001854201 -9.1763766e-05 4.5791367e-05 -0.0005985978
-5.0825143e-17 5.7511077e-08 -0.00010511363 0.0 0.00054251385 0.00023167577 0.0 0.00056327716
0.0 -3.893121e-06 0.000323434 -0.00012829818 -0.00018750693 7.240092e-05 0.0007265245 -0.00026973698
0.00048779638 0.00023430338 -0.0003234388 -0.00015548477 -6.095429e-05 0.00040146735 0.0004470491 3.6732308e-06
-1.6605174e-05 0.0005741224 -3.65018e-16 -9.496969e-09 -0.0001622664 0.0 0.00012822164 0.00018319816
0.0 -0.000434023 0.0 0.00027992742 0.00038098532 0.0005919387 -0.0006866661 -0.00025536402
0.0006890633 -0.00021749678 0.00037945056 0.00022055436 0.0005161761 -0.0012420601 8.0253114e-05 -6.731608e-05
0.0004989763 0.00010260838 3.0508534e-05 0.00029429057 -4.1950956e-16 -4.8256172e-08 5.428387e-05 0.0
-0.0010601052 5.5764085e-05 0.0 0.00028826075 0.0 -8.7349224e-05 0.00021883342 8.168632e-05
0.0004927291 -0.0002033644 0.00033278455 0.00063395704 0.00012590682 -0.00036768708 -6.5913686e-05 0.00037744833
-0.00011875018 0.00017493832 0.00019840553 0.00016253695 3.40681e-05 -0.000365165 -2.1075894e-16 1.6223062e-08
-6.035066e-05 0.0 0.00056629867 -0.00025804684 0.0 -0.0003469725 0.0 1.7981201e-05
-0.00013004793 -0.00015318528 -0.00024266142 0.00014993345 -0.00070705934 -0.00023415392 -0.00052425533 0.00022050319
0.00043093428 -0.0006218622 -7.528509e-05 0.0002706325 -0.00031986943 0.00013658046 -4.7146423e-05 0.0001927612
5.1830735e-16 -2.910338e-09 6.910902e-05 0.0 -0.00021293349 -0.0002111911 0.0 -6.0848102e-05
0.0 -0.00020244216 -9.4865296e-05 0.00029396298 0.00026259062 -0.0001462735 -0.00029964215 0.00017595534
0.00025980917 6.0491395e-05 0.00016867853 -0.00031879632 -2.5782618e-05 0.00012571807 6.290719e-05 0.00011862157

exp_avg_sq f4 [64, 26]
00000000: bd51 3436 0000 0000 797a a037 b196 4b34
00000010: 0000 0000 c59f 7834 0000 0000 1131 ed35
00000020: 485c 0d37 e9c0 1935 7221 5f37 91fc 9f35
00000030: e205 0837 b6f9 ba35 1600 8737 53f7 9435
00000040: cfef 0037 62dd 8736 4816 5436 b01f 1736
00000050: c268 8937 4284 0f36 6a47 2736 fa00 5c37
00000060: 5a87 6533 57aa 2835 b4c3 1b35 0000 0000
00000070: 9c1b d436 aee7 0f34 0000 0000 da6c 0e34
00000080: 0000 0000 dc5b 3b35 c291 f935 9605 b834
00000090: 4b55 8f36 2283 2835 485f 7236 e0d6 4235
000000a0: acd3 a336 09b1 3035 24cd 9c35 97d1 0636
000000b0: c656 1536 6fe7 fc35 acd1 9536 01f9 4335
000000c0: f9f9 5134 0cfb 8036 c8b2 3033 1368 7734
000000d0: d8d7 1936 0000 0000 bdc3 9137 9892 6c34
000000e0: 0000 0000 6821 9834 0000 0000 b2b3 f835
000000f0: e202 1337 1ab1 8e35 69b9 6137 c999 ee35
00000100: 7a8f 2837 9a84 1936 9f65 8137 cfcd b635
00000110: 5bd9 c636 8650 8536 38c2 d236 52e0 3e36
00000120: a6cb 8637 98da 0c36 d88a 1536 32f7 6f37
00000130: 430a 9033 0671 2c35 83fb 1836 0000 0000
00000140: 71d2 9237 5958 3134 0000 0000 f021 5634
00000150: 0000 0000 d904 0136 a114 ee36 01b4 3935
00000160: 2052 5b37 614a b135 9551 1637 6469 c635
00000170: 0d63 8237 01bf 8235 a610 af36 8b4c 9336
00000180: 7f6e 8f36 c99e 4c36 266d 8637 8a70 1336
00000190: 34c8 d235 419b 5e37 5dcd 9d33 a4ba dc34
000001a0: 2b54 3b36 0000 0000 9eff ad37 b714 5234
000001b0: 0000 0000 299a 9934 0000 0000 7e67 0f36
000001c0: 6399 0a37 9011 4535 74f2 6937 8ace 1136
000001d0: f931 3737 49a7 2b36 6824 8e37 8c87 b735
000001e0: a305 0737 ef54 ad36 ff63 cd36 c343 3036
000001f0: 854a 8937 f155 2336 5bea 7d36 d2a7 5537
00000200: 1fd4 af33 8c5c 2b35 39d4 2936 0000 0000
00000210: 26c9 aa37 df85 4534 0000 0000 6f3f fe34
00000220: 0000 0000 e491 1536 dca4 d536 f3c5 3f35
00000230: aff9 6b37 975f d635 1103 2d37 79f4 ec35
00000240: 54ff 8d37 38b6 8b35 d0b4 d136 dc7a 9136
00000250: 7162 7b36 c673 5636 ed8c 8e37 8370 0636
00000260: cdfc 0736 6f4c 6737 bcc1 a033 01d6 2735
00000270: 2b25 5436 0000 0000 292c e737 ab15 a734
00000280: 0000 0000 026c ae34 0000 0000 9112 6336
00000290: cb38 0837 4fc5 3835 0af9 a337 fabb b735
000002a0: f860 8237 34b2 1b36 f1df c437 7763 9935
000002b0: 0b78 1837 93ff ae36 4da1 e236 0c3a 7f36
000002c0: 622f c337 f3c1 cf35 be09 2a36 9600 aa37
000002d0: 9eca fb32 6f64 0935 d693 ad35 0000 0000
000002e0: b77a 5b37 b52d 1434 0000 0000 ad3e 0f34
000002f0: 0000 0000 6160 bd35 7517 6636 afef 1b35
00000300: b05e 1437 e68d 9035 f72a 0537 b2eb 9335
00000310: b08d 2f37 7797 6235 3aa6 4536 600a 7f36
00000320: 46fa 4636 409c 0236 3d00 2337 971e 6335
00000330: 0db8 8a35 efe1 0a37 436f b932 2c71 8a34
00000340: 0389 2a36 0000 0000 4e8d b737 35cc 7634
00000350: 0000 0000 3c2b 9a34 0000 0000 760a 1236
00000360: cae7 fa36 cccb 6735 2980 7e37 9c36 dc35
00000370: b03e 5737 6cb0 b535 d229 9b37 f750 9935
00000380: fa5f ce36 e9a0 9936 684f 9236 2fe3 3736
00000390: b11f 9237 b548 ee35 9a8c e535 6bb8 7a37
000003a0: b05c 9533 2dab 0035 c615 3036 0000 0000
000003b0: 74fc a337 b43e 5d34 0000 0000 5877 9f34
000003c0: 0000 0000 31f4 0b36 fc90 0637 6037 4b35
000003d0: f846 6a37 9269 c735 8fd3 1a37 ae08 e135
000003e0: 35c8 8937 5aa8 9e35 337d d636 f4cf 9f36
000003f0: d794 c136 48ca 5b36 1a58 8d37 a268 1a36
2.6869668e-06 0.0 1.9130517e-05 1.896067e-07 0.0 2.3154924e-07 0.0 1.7672156e-06
8.425741e-06 5.727766e-07 1.3299623e-05 1.191993e-06 8.107601e-06 1.3930755e-06 1.6093294e-05 1.109884e-06
7.685229e-06 4.049086e-06 3.160343e-06 2.2519198e-06 1.6380454e-05 2.1385645e-06 2.4926508e-06 1.3113249e-05
5.344132e-08 6.2832754e-07 5.8026785e-07 0.0 6.3213065e-06 1.3402197e-07 0.0 1.326438e-07
0.0 6.97966e-07 1.8594367e-06 3.4276735e-07 4.2716615e-06 6.27757e-07 3.611627e-06 7.2583316e-07
4.8824204e-06 6.582273e-07 1.168261e-06 2.0089553e-06 2.225324e-06 1.8842819e-06 4.464955e-06 7.300551e-07
1.9555581e-07 3.843923e-06 4.1140794e-08 2.304153e-07 2.2924414e-06 0.0 1.7376495e-05 2.2032543e-07
0.0 2.8336513e-07 0.0 1.8529738e-06 8.762554e-06 1.0631368e-06 1.3454214e-05 1.7777139e-06
1.0046986e-05 2.287596e-06 1.542532e-05 1.3619955e-06 5.9261633e-06 3.973083e-06 6.2810977e-06 2.8442778e-06
1.6068876e-05 2.0988864e-06 2.2283548e-06 1.4303065e-05 6.707389e-08 6.4239464e-07 2.2796164e-06 0.0
1.750255e-05 1.651655e-07 0.0 1.994265e-07 0.0 1.922532e-06 7.0953542e-06 6.917981e-07
1.3072538e-05 1.3209175e-06 8.9596915e-06 1.4782822e-06 1.5543332e-05 9.741344e-07 5.2173446e-06 4.389852e-06
4.2745955e-06 3.0490794e-06 1.6024871e-05 2.1970213e-06 1.5704486e-06 1.3268379e-05 7.3482376e-08 4.1113992e-07
2.7914164e-06 0.0 2.0742238e-05 1.956531e-07 0.0 2.8610637e-07 0.0 2.13689e-06
8.261154e-06 7.3413776e-07 1.3944333e-05 2.1726905e-06 1.0919285e-05 2.5578358e-06 1.6944672e-05 1.3674012e-06
8.047939e-06 5.1656893e-06 6.121117e-06 2.6265486e-06 1.6366374e-05 2.4338917e-06 3.783635e-06 1.2734863e-05
8.187657e-08 6.383714e-07 2.5306492e-06 0.0 2.0359246e-05 1.8395757e-07 0.0 4.735734e-07
0.0 2.228765e-06 6.367087e-06 7.14411e-07 1.40652255e-05 1.5972063e-06 1.03123175e-05 1.7654521e-06
1.6927406e-05 1.040934e-06 6.2497347e-06 4.3356395e-06 3.7459215e-06 3.1955874e-06 1.6993343e-05 2.0033046e-06
2.0263717e-06 1.3786469e-05 7.485821e-08 6.2523765e-07 3.1612096e-06 0.0 2.755791e-05 3.112194e-07
0.0 3.2488612e-07 0.0 3.3836443e-06 8.119455e-06 6.8832463e-07 1.9547082e-05 1.3689271e-06
1.5542362e-05 2.3200528e-06 2.3469302e-05 1.1428336e-06 9.087856e-06 5.215357e-06 6.7541027e-06 3.8031749e-06
2.3267876e-05 1.5479148e-06 2.5337645e-06 2.0265852e-05 2.9312385e-08 5.118263e-07 1.293253e-06 0.0
1.3081989e-05 1.3800202e-07 0.0 1.3340714e-07 0.0 1.4109647e-06 3.4286325e-06 5.8090785e-07
8.843534e-06 1.0770134e-06 7.937421e-06 1.102095e-06 1.0463802e-05 8.441197e-07 2.9452044e-06 3.8004e-06
2.9649977e-06 1.946246e-06 9.715613e-06 8.4608604e-07 1.0335367e-06 8.278045e-06 2.158743e-08 2.5786846e-07
2.5411725e-06 0.0 2.18811e-05 2.2984825e-07 0.0 2.8716192e-07 0.0 2.1761784e-06
7.4775644e-06 8.635077e-07 1.5169419e-05 1.6407171e-06 1.2829594e-05 1.3536896e-06 1.8496914e-05 1.1422952e-06
6.1504516e-06 4.5784877e-06 4.360383e-06 2.7401363e-06 1.7419314e-05 1.7753542e-06 1.710275e-06 1.4944099e-05
6.955213e-08 4.793281e-07 2.6238718e-06 0.0 1.9548672e-05 2.060504e-07 0.0 2.9702892e-07
0.0 2.0854752e-06 8.020779e-06 7.5703974e-07 1.3964011e-05 1.485738e-06 9.228373e-06 1.6766332e-06
1.6424901e-05 1.1820914e-06 6.392272e-06 4.762778e-06 5.7691755e-06 3.2751286e-06 1.6849535e-05 2.3008693e-06

exp_avg f4 [64]
00000000: 1ae2 c0b9 bc57 513a 56b3 df38 b998 2f39
00000010: c02c 183a 8237 0e3a 5c72 0639 32f3 8aba
00000020: 9673 143a 0447 5fb9 c1a7 5e39 ba95 43b9
00000030: d899 45b9 c697 dbb9 3ad1 3fb9 dc3e 42b9
00000040: c230 f539 e760 6fb9 e0db 8239 c903 cb39
00000050: 6ed2 86b9 f060 1f37 6d3f 2ab9 d46c a839
00000060: 3dab ea38 0de2 9f39 181b dc39 5553 d739
00000070: 8a31 8db9 7f24 4fba 30cd 6138 9a94 1eba
00000080: 9f9f 77b9 014a 8d39 724b 4539 06de 9c38
00000090: 4438 f3b9 0843 6639 b476 2838 5bc0 103a
000000a0: 382f 13ba c711 97b9 72c8 0039 2977 253a
000000b0: 39b3 883a c6c9 87ba 88e8 ea38 44ec 82b9
000000c0: 2de2 93ba c206 14ba 8f65 d139 4e7b 6dba
000000d0: 602b 3e3a c053 1439 ee90 a3b9 7c05 cbb9
000000e0: f337 923a e7e6 bab9 6283 653a 2abd d639
000000f0: dede 10ba 476b 9eba a2b7 793a 2456 9fb9
-0.00036789553 0.0007985791 0.000106668725 0.00016746194 0.0005805008 0.00054251414 0.00012821838 -0.0010601042
0.00056629756 -0.00021293393 0.00021234063 -0.00018652427 -0.00018844695 -0.00041884015 -0.00018293122 -0.00018524699
0.0004676637 -0.00022828915 0.00024959352 0.00038721997 -0.00025715254 9.4997085e-06 -0.00016236091 0.0003212454
0.00011189885 0.00030495264 0.00041981856 0.00041070083 -0.00026930525 -0.00079018617 5.3835276e-05 -0.0006049365
-0.00023615219 0.00026948753 0.0001881549 7.480015e-05 -0.00046390493 0.0002195948 4.0164872e-05 0.0005521827
-0.0005614641 -0.0002881421 0.00012281703 0.0006312007 0.0010429389 -0.0010359816 0.00011201302 -0.00024971564
-0.0011282616 -0.0005646759 0.00039939253 -0.00090592063 0.0007254388 0.00014145579 -0.00031197764 -0.00038723263
0.001115559 -0.0003564872 0.00087552343 0.000409582 -0.0005526374 -0.0012086414 0.00095259596 -0.00030391023

exp_avg_sq f4 [64]
00000000: 7e7a a037 9b1b d436 bcc3 9137 6cd2 9237
00000010: a0ff ad37 26c9 aa37 2a2c e737 b77a 5b37
00000020: 4d8d b737 75fc a337 b166 e736 e685 0a38
00000030: 3eec b236 c7b8 ec36 800c be36 5b63 b137
00000040: c26f b237 e174 c736 f108 8c37 31fe 0138
00000050: 7879 c036 2204 a337 9ec1 a337 706d 6237
00000060: 2943 2738 e6b1 cf37 e624 a037 50f8 a636
00000070: 9821 4038 16c0 1038 4e11 5937 03a0 cd36
00000080: 27b5 be36 4818 8637 b32e c838 e9c2 4736
00000090: 8b22 ac37 08a3 1b38 ee90 f437 e7d4 3d38
000000a0: abff 1d37 9e51 4f36 b77f 9f37 39a4 cb37
000000b0: a335 5e37 f955 a337 2549 0637 3569 7b37
000000c0: e1f9 4838 8def 0f37 5930 3b37 bbf9 4137
000000d0: 333a 3c37 33ea 5737 30b7 4b37 703c 3b37
000000e0: 1225 4138 ee55 0137 68a7 2238 38ff e237
000000f0: 9ede 5c37 850f 6038 39d2 3e38 a283 9937
1.9130526e-05 6.321306e-06 1.7376493e-05 1.7502542e-05 2.0742242e-05 2.0359246e-05 2.7557911e-05 1.3081989e-05
2.1881098e-05 1.9548674e-05 6.8962913e-06 3.3026467e-05 5.3323156e-06 7.054859e-06 5.6638964e-06 2.114631e-05
2.1271295e-05 5.9442687e-06 1.6693464e-05 3.099273e-05 5.7361867e-06 1.9433039e-05 1.9521274e-05 1.349613e-05
3.987845e-05 2.4759163e-05 1.9090669e-05 4.976093e-06 4.5807654e-05 3.451117e-05 1.2938237e-05 6.128104e-06
5.68353e-06 1.5985352e-05 9.5454416e-05 2.9766763e-06 2.0520083e-05 3.7106714e-05 2.9154555e-05 4.5259392e-05
9.417457e-06 3.089291e-06 1.9013749e-05 2.4275958e-05 1.3244719e-05 1.9471148e-05 8.004053e-06 1.4985261e-05
4.7916434e-05 8.579239e-06 1.1157325e-05 1.1561841e-05 1.1219224e-05 1.2869527e-05 1.2142395e-05 1.116014e-05
4.604931e-05 7.709006e-06 3.877972e-05 2.7060145e-05 1.3164854e-05 5.3420215e-05 4.5495315e-05 1.8300318e-05

exp_avg f4 [64, 64]
00000000: f05a 3939 e6e7 1939 0ee3 0c39 9389 59b8
00000010: 52b8 1a38 da76 0cb8 69cf afb8 868f 3cb9
00000020: d03e 8235 44d5 cbb8 d473 f337 adf2 f837
00000030: 13b5 99b7 e443 9eb7 38cb bdb8 20be 3ab5
00000040: abb8 2539 c0d6 0eb6 7153 40b8 efaf 26b8
00000050: 1d04 e6b8 1725 90b8 5602 0e39 a62e 86b8
00000060: b41f 6f38 045e d938 2163 54b9 cf80 0039
00000070: 40f8 9cb4 a916 e0b8 7043 1bb6 f650 beb7
00000080: f474 80b8 3337 6b39 1415 0f37 04c9 bbb8
00000090: 2b46 de38 d1e5 94b7 1c8d 8ab8 5dc6 b2b8
000000a0: 58ff f338 1103 39b7 9d78 8538 b711 ae38
000000b0: df9e 7738 30f4 7138 41e1 9238 f098 4738
000000c0: eab9 6a39 beab bd38 6c61 8938 3988 6fb9
000000d0: a1cd c2b7 72db 0fb9 9461 97b8 adb7 0ab8
000000e0: ff55 c538 c3e8 67b9 1d6b 1639 780b 4338
000000f0: 2b74 68b9 dbd9 c3b7 4abe 0b39 6d13 eb37
00000100: dc65 42b8 dee3 3c39 4784 0e3a fee4 5b38
00000110: a30c b238 dd86 1639 a66b 7c39 79ae ff38
00000120: 7660 4438 3baa 9fb8 d4d2 4938 5c26 3ab9
00000130: a88e 08b9 68d0 4239 a0ba bc38 91c7 8338
00000140: 46b6 3338 ece6 2a39 e570 df38 eb7a a738
00000150: b077 a4b9 18f5 45b9 4829 e138 3df9 ceb8
00000160: 30ce c339 ec0b 7439 e9b8 17b9 a05c 3537
00000170: 6c93 f238 d450 1839 acdf 3b38 55d8 8738
00000180: b2b2 b039 0e95 e7b7 2ed7 8438 c144 27b8
00000190: e47f 05b8 94bc ceb7 ea22 70b9 c5ac 03b9
000001a0: 9486 afb7 1ed6 9039 c596 43b8 2ff5 1bb9
000001b0: b0df 9039 3a1d d7b8 a904 9bb8 c568 d6b9
000001c0: f632 5739 e03c 60b9 e41b f5b8 3c87 e6b9
000001d0: db87 97b9 aaba 9e39 39c6 3bb9 108f b9b6
000001e0: ac4c f0b7 8676 91b9 9b4e 4439 1ab3 9438
000001f0: 8b75 a838 eda1 9c38 d0d5 a8b7 83da e238
00000200: 7953 de39 fd27 e5b8 43ef ad39 d03f f7b7
00000210: 3adc 42b8 f74d 6a38 20f3 4339 f27c 28b9
00000220: d005 7937 6cdb 73b8 b685 9039 8d47 4bb9
00000230: dbda 9c39 a55b 9937 b5b8 69b8 dbe5 9d38
00000240: 076a 4339 0ae5 fd37 0a97 9739 d8ff 1c38
00000250: ee46 4ab9 e3fd 6d38 a56d 3e39 15f6 a938
00000260: be3a 3f39 e220 e138 7574 8cb9 7eb8 efb8
00000270: a384 0639 9a1b ac39 1f28 8a39 7825 e5b8
00000280: 92d0 3f39 ecb5 8a37 8d02 57b9 88e1 5cb9
00000290: c417 c0b7 fb10 0f38 c2fc e3b8 c4a5 1cb9
000002a0: 4683 31b8 df18 c938 ae0d d037 e751 3bb9
000002b0: aad3 d738 3694 21b9 9172 edb9 a19a 55b9
000002c0: 5477 3c38 0956 36b8 0165 ef38 8c5f 37b9
000002d0: 4128 4fb9 d61c 00b8 1e5e b6b8 c8d6 56b9
000002e0: 70b1 b136 2f54 fa38 f75e 1f39 dc13 a737
000002f0: 2038 96b7 7ec0 ea36 7685 b5b9 8390 54b9
00000300: a06b 2b39 fec2 e5b9 7f30 b7b8 78b9 e938
00000310: 0685 d038 04f7 b138 21cf 0c38 6065 6739
00000320: 4560 e637 5cf8 35b7 545e 2eb9 26c8 77b8
00000330: cffb 07b9 3927 ba38 f6ab a538 83b0 91b8
00000340: 9536 91b9 fa2a b138 ee52 6539 e8c1 1c39
00000350: 564f 9038 0680 bbb7 dc29 cab6 8937 0d38
00000360: babe 08b9 8e5a 21b9 8b07 ce38 d9db 3f39
00000370: b67a c5b6 cea7 0837 00b5 59b8 46c1 a137
00000380: 70f5 9fb8 a537 02b9 4897 3638 0c16 2d39
00000390: 24ad 79b9 10a7 7a37 581f d538 4a0a a338
000003a0: a17e 7e38 fe3a c538 1d61 53b9 4b0a 5138
000003b0: dea6 8cb8 0f2b a0b8 bad3 0138 7101 6538
000003c0: bd83 1fb9 0072 37b9 821d 4fb9 e2c3 5739
000003d0: 0c09 d638 51df 1e39 b259 16b9 de6b 4db9
000003e0: ae24 ff37 c218 9438 8041 3f38 6a1a a338
000003f0: 947a 8239 270a 9838 a996 08b8 2768 2138
0.00017676852 0.00014677606 0.00013436025 -5.1864958e-05 3.6888123e-05 -3.348929e-05 -8.3832834e-05 -0.00017982544
9.704036e-07 -9.719518e-05 2.9021794e-05 2.9676909e-05 -1.832334e-05 -1.8866682e-05 -9.050075e-05 -6.956707e-07
0.0001580442 -2.128465e-06 -4.5854078e-05 -3.9741335e-05 -0.00010968021 -6.8733636e-05 0.00013543045 -6.398307e-05
5.7011566e-05 0.00010364878 -0.00020254824 0.00012255016 -2.923789e-07 -0.00010685373 -2.3136054e-06 -2.2687465e-05
-6.1253e-05 0.0002243191 8.528372e-06 -8.954297e-05 0.00010598855 -1.7749991e-05 -6.6066365e-05 -8.5246495e-05
0.000116347044 -1.1027573e-05 6.3644e-05 8.300266e-05 5.903735e-05 5.7686295e-05 7.003779e-05 4.758773e-05
0.00022385237 9.044212e-05 6.550815e-05 -0.00022843563 -2.3222356e-05 -0.00013719292 -7.2184164e-05 -3.3072825e-05
9.40971e-05 -0.00022116587 0.00014345018 4.6502304e-05 -0.0002216852 -2.3347258e-05 0.00013326961 2.8023229e-05
-4.634807e-05 0.00018013964 0.0005436581 5.2426934e-05 8.490055e-05 0.00014355355 0.00024072695 0.000121918456
4.6819878e-05 -7.613419e-05 4.8118483e-05 -0.00017752632 -0.00013023114 0.00018578919 8.9993e-05 6.283739e-05
4.284668e-05 0.00016298488 0.00010654497 7.986076e-05 -0.00031369692 -0.00018878689 0.00010736525 -9.86927e-05
0.0003734692 0.00023274095 -0.00014469367 1.0810007e-05 0.00011566919 0.0001452596 4.4792585e-05 6.4775966e-05
0.00033702474 -2.7606755e-05 6.334331e-05 -3.9879935e-05 -3.182878e-05 -2.4644927e-05 -0.0002290119 -0.00012557495
-2.0924293e-05 0.0002762535 -4.6632038e-05 -0.0001487329 0.0002763248 -0.00010257443 -7.391844e-05 -0.0004089532
0.00020522982 -0.00021384982 -0.000116877054 -0.00043969776 -0.00028902185 0.00030275184 -0.00017907553 -5.5300843e-06
-2.8645933e-05 -0.00027744862 0.000187213 7.09055e-05 8.032758e-05 7.468821e-05 -2.0126725e-05 0.00010817221
0.00042405332 -0.00010927019 0.00033175395 -2.947441e-05 -4.6458306e-05 5.5862558e-05 0.0001868722 -0.00016068274
1.484291e-05 -5.8140067e-05 0.00027565443 -0.00019386243 0.000299177 1.8281697e-05 -5.572355e-05 7.529157e-05
0.00018636147 3.0266605e-05 0.00028913497 3.743157e-05 -0.00019290645 5.6741654e-05 0.00018160658 8.104384e-05
0.00018237063 0.00010734961 -0.00026789648 -0.000114307724 0.00012828647 0.0003282696 0.00026351304 -0.0001092655
0.00018292878 1.6535596e-05 -0.00020504948 -0.00021064852 -2.289925e-05 3.410967e-05 -0.00010871283 -0.00014939072
-4.2322346e-05 9.5890595e-05 2.4801902e-05 -0.0001786422 0.000102914244 -0.0001540937 -0.0004528952 -0.00020370867
4.4933826e-05 -4.3472308e-05 0.000114152215 -0.00017487834 -0.00019756054 -3.0544434e-05 -8.695967e-05 -0.00020488643
5.2956675e-06 0.000119366094 0.00015198799 1.99172e-05 -1.7907529e-05 6.9961525e-06 -0.00034622446 -0.0002027173
0.00016347924 -0.00043823564 -8.735153e-05 0.00011144852 9.9429904e-05 8.486028e-05 3.3571505e-05 0.00022067642
2.7462966e-05 -1.0846266e-05 -0.00016629073 -5.907579e-05 -0.0001296841 8.876477e-05 7.899843e-05 -6.947017e-05
-0.00027697222 8.448023e-05 0.00021870036 0.00014949555 6.8812325e-05 -2.2351753e-05 -6.024942e-06 3.366874e-05
-0.00013041022 -0.00015387891 9.8242504e-05 0.00018297079 -5.885343e-06 8.145302e-06 -5.19054e-05 1.9282696e-05
-7.627427e-05 -0.00012418495 4.3533073e-05 0.00016506779 -0.0002381099 1.49400585e-05 0.0001016247 7.774362e-05
6.067625e-05 9.40468e-05 -0.00020158706 4.983907e-05 -6.706802e-05 -7.637415e-05 3.0953182e-05 5.4599197e-05
-0.00015212498 -0.00017494708 -0.00019752051 0.0002057697 0.00010206 0.00015151246 -0.00014338529 -0.00019590507
3.041545e-05 7.0618014e-05 4.559895e-05 7.777366e-05 0.0002488686 7.249816e-05 -3.256524e-05 3.848239e-05

exp_avg_sq f4 [64, 64]
00000000: f9ef 7b36 f6a7 1137 6132 4f36 46d4 4c35
00000010: 10b8 c036 b325 9035 9ec8 2435 c760 1736
00000020: c4c3 ca34 818e d035 665f bc36 af38 5436
00000030: 7428 8a36 8dfa c935 92a1 aa35 4ba4 0b35
00000040: 858d d935 4266 4436 6af2 3f36 02ec eb35
00000050: 326a 5535 fd6a 1b36 8ee3 5635 4606 5335
00000060: 05f1 0735 8e0d 1535 d082 c235 52df ba36
00000070: a90f 1e35 5748 1e35 eabf 2936 8a74 0836
00000080: 43e8 1836 bbab 3735 d86e 7a34 7de9 2536
00000090: a7c7 9235 e757 7a35 6554 ec34 dd81 8034
000000a0: c94f 8936 f4ba c935 1079 0836 fe45 0e36
000000b0: ffbf 8834 6b87 e134 69ea 9a36 f05f b835
000000c0: 4183 0a35 6baa b635 79ef 6e36 9ad9 bd34
000000d0: 3423 7a35 e85a a135 9909 0a36 dc22 a335
000000e0: c4f0 6335 6e03 1d36 bd42 2835 6308 2136
000000f0: d9a4 0136 bdd5 6635 91fc 8a35 3d63 5236
00000100: 1fdc c736 d6f3 7637 d08b b536 005d c135
00000110: 8360 1737 9c36 fa35 9b7f a535 8af1 8836
00000120: 801c 2b35 8083 2236 c734 1b37 185a a736
00000130: ddea ec36 f3f4 2a36 cf9b 3e36 2461 7f35
00000140: 31e7 4536 65f2 a636 10ac aa36 3fd4 5c36
00000150: 14dd a835 ed52 8036 9ea2 b535 4248 c835
00000160: 666c 8235 7a64 7c35 e8b2 1f36 ac25 1737
00000170: c8bf 9435 32a5 7a35 a45f 9036 46f8 6636
00000180: 41b7 7d36 d04a 9c35 1909 1f35 c66e 9036
00000190: d6eb 0836 7c80 d935 56ac 4935 8aae f034
000001a0: 874f de36 a8e1 4736 1dfb 8036 8b71 6336
000001b0: 1e0b 1535 4a53 8135 4878 0137 f3a3 1336
000001c0: 0a91 1935 9963 2936 a214 c636 df88 6335
000001d0: 1f40 ce35 fbd4 f235 161c 6436 da04 f035
000001e0: 5302 cc35 e3e5 8536 c8e7 ab35 eba6 8836
000001f0: d721 6436 cf3f b235 285b eb35 a93a c136
00000200: 211a 8d36 a086 0b37 40f4 4836 3dbe 6935
00000210: 36bd c636 8cc0 6c35 d0c4 7235 4831 1536
00000220: 1085 0535 fc51 0236 8d6e b836 56b4 7136
00000230: a17b 8236 2c21 c935 9d55 a135 df50 2135
00000240: 29eb c135 dc69 3e36 55a2 3a36 fea2 d335
00000250: f77c 7f35 952f 1836 2ce9 6935 f9be 4735
00000260: 9080 1135 7f26 ff34 cd62 c535 5861 b536
00000270: 5a22 6335 43db 2135 9fad 1a36 f237 fe35
00000280: 9fc6 2436 dbc9 5b35 57f2 8834 59eb 3136
00000290: 5cac a435 22af 8835 e94d ac34 addd 5034
000002a0: 6bd1 8736 e45b c335 4bdb f935 c1d3 0c36
000002b0: cbc7 a134 68ba cd34 4016 9836 4721 f635
000002c0: 021e 0535 1bd4 e035 cd74 6836 eb08 f934
000002d0: 201e 9035 3599 7e35 cfd1 1036 05b3 9c35
000002e0: 4b7c b335 4d12 1936 733d 4c35 704f 2b36
000002f0: 25fa 1836 5dbe 6e35 0cb2 9635 7cba 5f36
00000300: 66b9 8536 4a66 1a37 1afa 4f36 1712 5f35
00000310: ccc7 c836 89d9 9535 05f7 1f35 d75f 1c36
00000320: 7b8d fb34 6029 f135 ee19 cb36 a58f 6036
00000330: bb90 9536 58aa b935 c3e2 c535 5a9b 1a35
00000340: fe82 f335 0e13 5536 580d 4e36 1f65 f635
00000350: 0e17 8235 a18e 1436 a3cf 6335 1cfd 6135
00000360: 38b1 1035 8d72 2335 195b c335 91dd c536
00000370: 31b2 2735 bad1 3835 f7aa 3c36 7f02 0036
00000380: 1366 1c36 2521 4e35 7e9e 7b34 7e77 3b36
00000390: d6a8 9e35 a194 8a35 f004 0135 e230 5d34
000003a0: 8071 8f36 891e d435 1d40 1b36 6706 2536
000003b0: b85b a834 c9cf 0335 ecbc a736 1b89 dd35
000003c0: 4555 0635 c90e df35 654a 7b36 1e43 a734
000003d0: 2260 8d35 6956 a035 dd58 0c36 3788 aa35
000003e0: 2439 8b35 6add 2036 e260 2c35 efcd 3836
000003f0: fac1 1436 bd7f 7a35 c17b a835 a535 6436
3.7541597e-06 8.68178e-06 3.0874728e-06 7.630482e-07 5.7434736e-06 1.0739808e-06 6.13867e-07 2.2557085e-06
3.776787e-07 1.5538682e-06 5.6139424e-06 3.1623456e-06 4.11743e-06 1.5048587e-06 1.271301e-06 5.2020613e-07
1.6208947e-06 2.9265798e-06 2.8602321e-06 1.7577552e-06 7.950322e-07 2.3159075e-06 8.005235e-07 7.8612754e-07
5.064215e-07 5.552655e-07 1.4492198e-06 5.56923e-06 5.8882375e-07 5.8964855e-07 2.529467e-06 2.0333414e-06
2.278496e-06 6.8422713e-07 2.3323389e-07 2.4722824e-06 1.0935954e-06 9.326017e-07 4.401983e-07 2.3936346e-07
4.0922064e-06 1.5030078e-06 2.0336047e-06 2.120039e-06 2.547167e-07 4.2008045e-07 4.6168466e-06 1.373699e-06
5.1600006e-07 1.3609655e-06 3.5604155e-06 3.536232e-07 9.3183485e-07 1.2021892e-06 2.056919e-06 1.2154592e-06
8.491445e-07 2.339682e-06 6.2681994e-07 2.3995751e-06 1.9318452e-06 8.5992707e-07 1.0355308e-06 3.1350203e-06
5.9562876e-06 1.4719515e-05 5.4104967e-06 1.4406687e-06 9.022772e-06 1.8642345e-06 1.2330596e-06 4.0812347e-06
6.3743937e-07 2.4216424e-06 9.251008e-06 4.987476e-06 7.0606898e-06 2.5474553e-06 2.8402899e-06 9.513626e-07
2.9489859e-06 4.975404e-06 5.0864255e-06 3.2906098e-06 1.2581318e-06 3.824351e-06 1.3532879e-06 1.4922191e-06
9.717303e-07 9.402353e-07 2.3796983e-06 9.0090725e-06 1.1082675e-06 9.337265e-07 4.3026685e-06 3.4417185e-06
3.7806606e-06 1.1644679e-06 5.9245355e-07 4.30443e-06 2.0402854e-06 1.6205154e-06 7.5129117e-07 4.4830477e-07
6.6253738e-06 2.978466e-06 3.8439307e-06 3.3891727e-06 5.5523003e-07 9.635489e-07 7.717004e-06 2.2000138e-06
5.7208e-07 2.5240936e-06 5.903262e-06 8.4763263e-07 1.5366858e-06 1.809239e-06 3.3990996e-06 1.7882805e-06
1.5199861e-06 3.990471e-06 1.280795e-06 4.0725477e-06 3.3994345e-06 1.3280604e-06 1.7535394e-06 5.758677e-06
4.2051693e-06 8.31639e-06 2.9944495e-06 8.7076097e-07 5.922887e-06 8.8197044e-07 9.0438425e-07 2.2231416e-06
4.973999e-07 1.941923e-06 5.496497e-06 3.6016768e-06 3.888694e-06 1.4985321e-06 1.2020352e-06 6.0094857e-07
1.4448061e-06 2.8373825e-06 2.781065e-06 1.5768162e-06 9.517675e-07 2.2677461e-06 8.7138574e-07 7.441118e-07
5.420379e-07 4.752546e-07 1.4706399e-06 5.4055527e-06 8.461408e-07 6.029624e-07 2.304885e-06 1.8940757e-06
2.4553517e-06 8.1877596e-07 2.55083e-07 2.6512046e-06 1.2269115e-06 1.018376e-06 3.2094184e-07 1.9452155e-07
4.047693e-06 1.4555376e-06 1.8615768e-06 2.0984883e-06 3.0133955e-07 3.8319854e-07 4.5325432e-06 1.8338113e-06
4.959003e-07 1.6751031e-06 3.463868e-06 4.6386353e-07 1.0737604e-06 9.484532e-07 2.1579797e-06 1.1675007e-06
1.3372713e-06 2.280943e-06 7.608534e-07 2.5527224e-06 2.2795368e-06 8.8938924e-07 1.1227689e-06 3.3338138e-06
3.985292e-06 9.202931e-06 3.0990982e-06 8.31003e-07 5.983724e-06 1.1164676e-06 5.9591576e-07 2.3301598e-06
4.6855334e-07 1.7967941e-06 6.05289e-06 3.3462213e-06 4.457395e-06 1.3833151e-06 1.474364e-06 5.7595537e-07
1.8143035e-06 3.1750565e-06 3.070416e-06 1.8357858e-06 9.692465e-07 2.213674e-06 8.486624e-07 8.4187354e-07
5.390207e-07 6.0888925e-07 1.4555145e-06 5.8968512e-06 6.247165e-07 6.8850534e-07 2.8113698e-06 1.907494e-06
2.3305226e-06 7.678921e-07 2.3433856e-07 2.7934725e-06 1.1821055e-06 1.0325058e-06 4.806343e-07 2.0600012e-07
4.2749452e-06 1.5804118e-06 2.3134119e-06 2.4590643e-06 3.1359173e-07 4.910367e-07 4.9989812e-06 1.6505686e-06
5.0042973e-07 1.6619098e-06 3.7445218e-06 3.1155008e-07 1.0533297e-06 1.1946078e-06 2.091335e-06 1.2705631e-06
1.0372937e-06 2.3970738e-06 6.4215976e-07 2.7538006e-06 2.2166628e-06 9.331814e-07 1.2552993e-06 3.4005873e-06

exp_avg f4 [64]
00000000: 11d6 ccb8 32c2 82b9 1d25 c6b9 2214 fb39
00000010: 837a c4b9 385b 9bb7 3639 26ba daca 2aba
00000020: c24e ef38 0c4f d638 48c7 5b38 3313 bcba
00000030: 68b3 55b9 1840 013a d651 00ba c041 06ba
00000040: 5e4e 0b3a de3e 473a d223 9eb9 5676 5aba
00000050: 86ed 08ba 7968 91b8 6048 b336 62dc 5c3a
00000060: 64ee 8f38 f470 b5b8 280c a7b8 618d a639
00000070: 81f3 bbb8 ca1f 78b9 4ec5 673a cf41 8eb8
00000080: dc16 da39 341f ac39 f2d9 173a 0927 07ba
00000090: 9452 62ba 23f7 9eb9 8735 08ba 31d0 ad3a
000000a0: 8345 5539 1e0b 89b9 6228 e8b9 7078 c238
000000b0: 03f9 8a39 599d aeb8 1d63 91b9 f76c 27ba
000000c0: 4179 093a d366 7b39 987c 9538 f97e dfb9
000000d0: 518f 6d39 8ebb ae39 d481 8db9 348a 8539
000000e0: 9a79 6539 649c 5fb9 84cb 15ba 59ae 3a3a
000000f0: 563b e0b9 2f58 bfb9 c288 0bb9 dbf0 f539
-9.767351e-05 -0.0002494022 -0.00037793154 0.0004788945 -0.00037475312 -1.8519917e-05 -0.00063409226 -0.00065152126
0.00011411078 0.00010219039 5.2399264e-05 -0.0014348984 -0.00020380097 0.000493051 -0.0004895007 -0.0005121492
0.0005314107 0.00076006155 -0.00030162797 -0.00083336735 -0.0005223382 -6.933598e-05 5.3430413e-06 0.00084251736
6.863175e-05 -8.651792e-05 -7.965445e-05 0.00031767323 -8.962211e-05 -0.00023662965 0.00088413514 -6.7833455e-05
0.00041597232 0.00032829645 0.0005792669 -0.0005155658 -0.0008633521 -0.0003032024 -0.00051959645 0.0013260898
0.00020339158 -0.0002613896 -0.00044280576 9.273074e-05 0.0002650694 -8.326275e-05 -0.000277304 -0.00063867815
0.00052442035 0.0002397553 7.128081e-05 -0.00042628477 0.00022655471 0.00033327605 -0.00026990345 0.00025470706
0.00021884442 -0.00021325197 -0.0005714225 0.0007121317 -0.00042768818 -0.0003649606 -0.00013307019 0.00046909493

exp_avg_sq f4 [64]
00000000: 39db a737 4b9c 0b38 5273 a537 9a08 b237
00000010: c35f 8a37 a722 a037 1ffe bc37 d208 9737
00000020: e75a a637 9a7b b337 de09 5437 792e 2d38
00000030: 844f 5438 cc63 d237 87f5 0637 28c6 8b37
00000040: 505b 4c37 4a85 8237 af33 5337 fb93 3738
00000050: ea7e 9037 d5f8 2b37 5a8f 7637 6be0 6137
00000060: 76e1 6c37 5b66 b837 8d39 d737 1671 6337
00000070: cbc7 2f37 2164 0737 f660 1c38 ca15 3137
00000080: aba5 a737 240c 8d37 8f5e 1b37 ce4b ab37
00000090: 8331 c637 50bf 3337 405f 7537 c63d 2738
000000a0: b34a 3437 203b bb37 1f16 6f37 6c38 5737
000000b0: 3f59 aa37 16fe 8537 a4ad 5d37 08bb 6e37
000000c0: 99f0 8237 9727 a037 8244 0638 39e0 1837
000000d0: da72 0838 c3f6 9837 e6a4 5d36 f87a 6537
000000e0: ee21 ca37 a071 ff37 de15 ac37 2351 1a38
000000f0: 6499 4e37 e785 3637 7ac0 7c37 7fab d436
2.0010035e-05 3.328574e-05 1.9723233e-05 2.1223259e-05 1.6495474e-05 1.9089623e-05 2.252968e-05 1.800471e-05
1.9831072e-05 2.139602e-05 1.2638482e-05 4.1289695e-05 5.0618793e-05 2.5080422e-05 8.044189e-06 1.6662365e-05
1.2180608e-05 1.5559275e-05 1.2588614e-05 4.3768418e-05 1.7225237e-05 1.025033e-05 1.4696119e-05 1.3463296e-05
1.411919e-05 2.1982172e-05 2.5656796e-05 1.3556584e-05 1.0477331e-05 8.06994e-06 3.72836e-05 1.0555095e-05
1.9985097e-05 1.6814163e-05 9.260736e-06 2.0420088e-05 2.3626495e-05 1.0713775e-05 1.4625315e-05 3.9873434e-05
1.0746228e-05 2.231967e-05 1.4250661e-05 1.2828135e-05 2.0307138e-05 1.5973153e-05 1.3213055e-05 1.4229452e-05
1.5609245e-05 1.9091922e-05 3.2011892e-05 9.112112e-06 3.253189e-05 1.823472e-05 3.302755e-06 1.3678095e-05
2.4096076e-05 3.045128e-05 2.051418e-05 3.6792026e-05 1.2314271e-05 1.0879222e-05 1.5065185e-05 6.338057e-06

exp_avg f4 [6, 64]
00000000: 0758 84ba 39d7 5bb9 3259 bfba a648 9e39
00000010: 9cc8 d4b9 ebb4 17bb cc7f d938 4c9e 8d38
00000020: fe5e 80ba ecca 95b8 46ae e8b9 7d22 d339
00000030: 906d 6539 20b5 0dba ec57 863a f42d 6239
00000040: be62 8e39 8e50 8bb9 bfc2 ccba 0531 a339
00000050: b24a 4a38 0b7d a93a 15c1 ce3a d4a2 c8ba
00000060: b195 f63a 9828 803a 4b62 1fba c532 be3a
00000070: bc71 9f3a 50d0 8f3a b9eb f2b9 c13a d23a
00000080: c8e1 9bba 4a2f 143a a45a 963a d864 8a39
00000090: e528 3f38 6056 7737 24fe b73a c0eb 47ba
000000a0: d299 6cba e0d1 ebb9 beea 0cba ee25 5739
000000b0: 36d7 553a c33d ddba 8020 c8b9 6c67 d1b9
000000c0: 0982 a73a 30cc 8db7 8d20 68ba 0838 9e3a
000000d0: 7832 50ba d9b7 303a cb94 29ba 6178 9e39
000000e0: 85fd 51ba 5519 093a 0a45 cbb8 10b0 b7b9
000000f0: 77bd 63b9 e362 7bb9 6cbf 7ab9 165f 9dba
00000100: 10b2 ed39 8b34 ffb9 8e03 2c3a dad8 feb9
00000110: 1bb9 2c39 b647 3f39 96c0 32ba 29e2 2eba
00000120: 49fe 09ba 7fa5 c0b9 2988 af39 98dd b1b9
00000130: b07d 8db7 2460 3f39 b745 7dba 2c65 2f3a
00000140: de34 e139 e620 1fb9 a004 0db7 a692 96b9
00000150: 1efb e539 893b 9fb8 ed76 34ba a214 cf39
00000160: de9c 89b8 70da 98b8 2023 9739 6009 3a39
00000170: 2b2f 3fba 4cb3 e737 5888 4cb8 c6f2 a4b9
00000180: 5187 3839 e2fb 19ba a5af 61b9 ca89 3ab9
00000190: 9687 6cb8 4c9a 52b9 3273 faba 94b6 293a
000001a0: 014e 443a 00e0 ebb2 a015 1a37 1ee3 8a39
000001b0: 32f6 24ba a5e7 9d39 247b 9cba 14a3 9639
000001c0: 5ee5 003a bc28 6b3a 5557 a439 edf7 4aba
000001d0: 83da 043a 3178 09b9 c0f1 c539 505e 9fb7
000001e0: b436 5038 ce3b c9b9 969a 0fba b05b 033a
000001f0: 66a8 86ba 5bfe 1eba 0df4 f6b9 df62 293a
00000200: 0004 24ba 01cc 013a 5bf9 1db9 e8ea dd37
00000210: 77a1 ad39 b4c3 1a38 703f 73b7 d199 e7b9
00000220: c85c b038 0d24 8139 3d45 a5b9 2911 6b3a
00000230: 56ac 7f39 8379 6cb9 2a3f d339 2839 e5b8
00000240: e864 d139 8323 6339 3a9c 3f3a 84d3 5a38
00000250: a6f8 053a 4475 35b9 c851 f038 30ba 2037
00000260: 47dd c4b9 848d 0dba b46b 0039 5d0d 5539
00000270: f76b b139 01b6 a239 0257 e6b9 20c2 13ba
00000280: 9435 35b9 bad5 2038 8ec0 2fba 9020 333a
00000290: 8f4a b839 f3de e9b8 c0d7 c539 7041 a0b6
000002a0: 38c1 9237 55c1 7938 bc47 16b8 7aca aeb9
000002b0: c856 6eba ca3b 0a3a 326e d1b9 e798 eab9
000002c0: c7a1 8f38 395f b2b8 0eb4 113a b2e7 9c3a
000002d0: 7e83 95b9 2bbe 8fba 2419 113a b724 53b9
000002e0: 30de aab9 4b6c 97b9 0c1f a838 e609 3d3a
000002f0: 861e 4838 f185 e239 4283 033a e0d8 84b9
00000300: cf2a a839 ec55 ed39 847b cab6 7758 ad39
00000310: 80fb c5b6 a1c3 0c3a 365a d1b9 34c5 61ba
00000320: 1793 d839 ca36 e0b9 9496 c6b9 7fd1 dab9
00000330: 3b9d 25b9 e93e a3b8 c5cf 30ba 5cf1 ff39
00000340: 1137 4239 e534 773a a0a5 7eba 0024 3039
00000350: 4020 7736 c112 0dba 6861 b138 d275 7c3a
00000360: 458a 27b9 ea22 d1b8 222a 603a 7ea9 03ba
00000370: fe95 e538 18f3 1438 35b7 2c38 44c5 94ba
00000380: 280c b1b7 2757 97b9 e625 95b9 da11 1eb9
00000390: 7763 7eb9 947b b239 345c 9cb9 1169 9439
000003a0: 6c59 9339 c9e3 c339 5215 873a 74c9 ecb9
000003b0: 72d6 4439 ea06 263a 0552 22ba e510 49b9
000003c0: cc11 59b9 e19e 3eb9 af4c 9638 ae72 35ba
000003d0: 98a0 96b9 4afd a3b9 862d 0e38 08e3 2f3a
000003e0: 3dc3 e7b9 156a 10b9 2415 2f3a 6ab9 f939
000003f0: 38ff c239 9207 d439 3421 f339 2c9f 4539
-0.0010097035 -0.00020965644 -0.0014598726 0.00030190236 -0.00040585257 -0.0023148607 0.0001037117 6.752889e-05
-0.0009793935 -7.142671e-05 -0.00044380332 0.00040270752 0.00021879957 -0.0005405713 0.0010249591 0.00021570158
0.0002715792 -0.00026572164 -0.0015622004 0.00031126305 4.823012e-05 0.0012930942 0.0015774096 -0.0015307316
0.0018812922 0.0009777723 -0.00060800154 0.001451098 0.0012164633 0.0010972116 -0.00046333464 0.0016039239
-0.001189285 0.00056527986 0.0011471105 0.00026396546 4.5576035e-05 1.4742458e-05 0.0014037532 -0.0007626377
-0.00090256066 -0.00044979062 -0.00053755555 0.00020518128 0.0008157374 -0.0016879368 -0.00038171187 -0.00039940642
0.0012779842 -1.6903592e-05 -0.0008854948 0.0012071142 -0.0007942091 0.00067412626 -0.000646901 0.00030225798
-0.00080104946 0.000522991 -9.692654e-05 -0.00035035657 -0.00021718988 -0.00023974064 -0.00023913168 -0.0012006487
0.0004533683 -0.00048676538 0.0006561809 -0.00048608222 0.00016472155 0.00018241894 -0.00068188587 -0.0006671274
-0.00052640267 -0.00036744398 0.00033480048 -0.0003392517 -1.6867038e-05 0.00018250995 -0.00096615724 0.0006690796
0.00042954733 -0.00015175677 -8.405332e-06 -0.0002871949 0.0004386538 -7.5928e-05 -0.00068841764 0.0003949749
-6.561888e-05 -7.288612e-05 0.00028827135 0.00017741835 -0.00072931004 2.7620837e-05 -4.876437e-05 -0.00031461398
0.00017598017 -0.000587402 -0.00021523105 -0.00017789673 -5.639306e-05 -0.0002008464 -0.0019107817 0.00064740446
0.000748843 -2.7459464e-08 9.18415e-06 0.00026490627 -0.00062927895 0.00030117962 -0.0011938554 0.00028731732
0.0004916991 0.00089706085 0.00031345585 -0.00077426323 0.0005067961 -0.00013110113 0.00037754886 -1.8998195e-05
4.964201e-05 -0.00038382265 -0.0005478052 0.0005010916 -0.0010273575 -0.00060651236 -0.00047102608 0.00064615713
-0.00062566996 0.00049513584 -0.00015065579 2.645464e-05 0.00033117432 3.6898724e-05 -1.4498699e-05 -0.00044174356
8.409616e-05 0.00024631657 -0.0003152284 0.00089670956 0.00024382895 -0.0002255198 0.00040292117 -0.00010930217
0.00039938767 0.00021661636 0.00073093513 5.217224e-05 0.0005110599 -0.0001730519 0.00011459325 9.580093e-06
-0.00037548898 -0.00053998106 0.00012247154 0.00020318241 0.0003384051 0.0003103465 -0.00043933844 -0.0005636532
-0.00017281465 3.834602e-05 -0.0006704413 0.00068331603 0.00035150765 -0.00011151833 0.00037735514 -4.7759895e-06
1.749453e-05 5.954628e-05 -3.5829595e-05 -0.00033338723 -0.0009091911 0.00052731915 -0.00039945688 -0.0004474588
6.848905e-05 -8.505438e-05 0.0005558141 0.0011970906 -0.00028517464 -0.0010966709 0.0005535057 -0.00020136205
-0.0003259047 -0.0002888165 8.016647e-05 0.0007211253 4.7712143e-05 0.00043205873 0.00050168124 -0.00025338586
0.00032075352 0.0004526818 -6.0344482e-06 0.00033063043 -5.900336e-06 0.0005369727 -0.000399308 -0.00086124544
0.0004130832 -0.0004276543 -0.00037877692 -0.00041736287 -0.00015794199 -7.7841636e-05 -0.0006744827 0.00048817217
0.00018521796 0.0009430184 -0.0009714011 0.00016798079 3.682464e-06 -0.00053815177 8.458161e-05 0.00096305937
-0.0001597787 -9.9724e-05 0.00085512 -0.000502251 0.00010947509 3.551235e-05 4.117862e-05 -0.0011350294
-2.1105705e-05 -0.00028865898 -0.0002844773 -0.00015074704 -0.00024260381 0.00034042879 -0.00029823335 0.0002830704
0.0002810465 0.00037363012 0.0010306037 -0.00045163522 0.00018771904 0.0006333428 -0.00061920314 -0.00019175147
-0.00020701363 -0.00018178999 7.166841e-05 -0.00069216907 -0.0002872988 -0.00031278498 3.3897835e-05 0.00067095505
-0.00044205217 -0.00013772429 0.00066788704 0.00047631125 0.00037192716 0.0004044143 0.0004637331 0.0001884668

exp_avg_sq f4 [6, 64]
00000000: ddd2 7e37 ec6b 2338 f1fd 2837 e555 a737
00000010: 85b8 b036 8157 5038 7fce 0437 5100 8437
00000020: 4c6d 2438 e930 9f36 0376 9136 30b3 0437
00000030: 9199 ce36 bb79 c436 2913 2c37 a066 d636
00000040: 9415 2537 5c0b 6538 546c 9638 2034 4036
00000050: 238f 4138 ff01 6b38 d170 8636 4221 f737
00000060: 6936 af38 9207 2f37 d60c 3637 8a8e 5b38
00000070: 9d03 8337 6c59 2b38 cb10 6236 1f6b a338
00000080: ba73 b637 0755 3537 c0bf 1338 4bca c736
00000090: cfb4 4a36 ec90 c237 e249 f037 7c73 9a36
000000a0: 81cf cc37 dd32 0536 682d e237 cdcf b137
000000b0: 57b9 3838 5eae 1839 c3cf cd38 699f a437
000000c0: 3e40 9a37 28a1 1137 c764 f736 b7b1 4338
000000d0: 0838 4a36 785c 8b37 7b61 9636 f26c 4238
000000e0: 421c 2137 3029 0137 3556 7138 a40c f637
000000f0: 6d8f f637 adf8 0638 28f7 ad37 60d2 0b37
00000100: 7b59 3d37 71ef df37 1973 3b37 33fe 8437
00000110: a435 3a36 591e 1838 c135 d136 54f9 3937
00000120: 4cf2 fa37 7929 7936 7e2e a936 504a f436
00000130: ac3c b636 2249 d436 11df f436 677e f236
00000140: a5b1 f636 9cf4 2038 c9f1 4238 e146 7336
00000150: 3faa 1438 f059 2d38 8209 3f36 cf96 e037
00000160: e6ee 8338 94dd 0337 093c 5437 b30c 1638
00000170: cd4c 6a37 6d67 fb37 b77c 7236 ad91 7b38
00000180: 570f 8437 c1a3 2937 852d f137 95e7 a036
00000190: 7849 8436 d547 a737 6b7c ad37 7ae2 6636
000001a0: eb7e c337 3a8c 3236 8314 aa37 cbf4 8b37
000001b0: 05cb ef37 218d d438 524f 9438 252d 8b37
000001c0: d6bc 8037 fbdf 5037 68d6 ff36 fa4e 0f38
000001d0: a0a3 8b36 5755 4337 999f 9a36 43f6 1f38
000001e0: acca 0737 f99f cd36 a7fd 2638 5d43 c637
000001f0: a5aa e037 6038 f237 ca87 8237 f7e2 f936
00000200: a13e a637 f055 8c38 2274 5b37 98b8 0f38
00000210: a698 a836 c1a4 9f38 d079 0d37 cdc9 7e37
00000220: 8f7a 9a38 dab6 0037 0cc3 d436 cc51 2137
00000230: b2f7 0637 c83f 3337 eb77 5a37 67bc 4a37
00000240: a3ac 9637 d1ec b938 9013 fc38 92f9 8536
00000250: c30a 9638 eb71 b038 d316 e836 d097 4238
00000260: 07d7 0739 8866 9237 6b9c a337 b4f3 a638
00000270: 67d7 db37 e9b1 9638 a0f7 9636 acef 0639
00000280: ca9a 2038 1146 6537 bf8c 6938 9763 0e37
00000290: 3744 9d36 b502 2538 bd97 0d38 279f 8e36
000002a0: 6da3 2d38 e278 1136 865c 2c38 33d8 0b38
000002b0: 7dfa 9838 9a04 7839 889f 2939 0278 1838
000002c0: 05c4 bd37 be53 8037 78fd 6937 2f91 9838
000002d0: 5e70 b736 11d3 da37 89b7 8a36 eda9 a638
000002e0: a8b7 6537 9973 1f37 0452 db38 a6d4 4038
000002f0: 9943 5938 34a6 6e38 ddd1 1638 98dd 5037
00000300: 39e3 7b37 92e0 1b38 6c6a 3537 9c75 a837
00000310: fe28 5936 c55d 4138 6a6a 0937 a48a 7d37
00000320: 5cf7 2b38 2d27 a236 0868 ae36 6500 0d37
00000330: 2acb b536 c836 0537 24e7 1f37 8974 0937
00000340: 69fb 2037 92b9 5638 ade3 9038 fe9b 7136
00000350: ed7a 3a38 c348 5338 336d 6036 b01f e737
00000360: f514 a338 c9a4 3a37 e856 3f37 f424 4738
00000370: 30bf 8937 8ab5 2638 fea5 6e36 4f2b 9c38
00000380: 6858 b237 3280 1e37 3b86 0c38 2aec f236
00000390: 1879 5236 42b7 bc37 cce6 d537 c78a 9e36
000003a0: 215f d937 00d7 0d36 caf5 d237 a1a3 ab37
000003b0: e2fd 2f38 e2d7 0c39 21b7 c538 d325 af37
000003c0: 1797 8137 3ae2 5337 4388 2537 5e5a 2938
000003d0: 35df 8636 6d1c 8137 291f 7e36 859b 4438
000003e0: df76 2037 6c4f d836 9a4d 6538 cc30 e937
000003f0: 72a0 fd37 80b2 0f38 0703 a137 6ac9 1537
1.5188675e-05 3.896274e-05 1.0072706e-05 1.994795e-05 5.2666896e-06 4.967256e-05 7.915892e-06 1.5735774e-05
3.9202438e-05 4.744263e-06 4.335075e-06 7.909533e-06 6.157156e-06 5.8554265e-06 1.025646e-05 6.389644e-06
9.83979e-06 5.4608434e-05 7.172735e-05 2.864057e-06 4.6148092e-05 5.6030225e-05 4.0066448e-06 2.9460181e-05
8.354785e-05 1.0432575e-05 1.0851034e-05 5.234642e-05 1.56181e-05 4.0852858e-05 3.36864e-06 7.7923985e-05
2.174998e-05 1.0808238e-05 3.5226112e-05 5.954212e-06 3.020559e-06 2.3194087e-05 2.8644634e-05 4.603002e-06
2.4415322e-05 1.984815e-06 2.6962443e-05 2.1196809e-05 4.404163e-05 0.00014560806 9.8138604e-05 1.9624555e-05
1.8388146e-05 8.680196e-06 7.3729057e-06 4.6657133e-05 3.013296e-06 1.661315e-05 4.4816966e-06 4.6354668e-05
9.602927e-06 7.698589e-06 5.7539164e-05 2.9331371e-05 2.9392273e-05 3.2179687e-05 2.0738298e-05 8.334027e-06
1.1286112e-05 2.669517e-05 1.1172867e-05 1.5853997e-05 2.7747383e-06 3.6267887e-05 6.234943e-06 1.10849105e-05
2.991515e-05 3.7128032e-06 5.042005e-06 7.280418e-06 5.431086e-06 6.326606e-06 7.297735e-06 7.226877e-06
7.352052e-06 3.8374783e-05 4.6478384e-05 3.6251079e-06 3.5444504e-05 4.1330175e-05 2.8466752e-06 2.6773107e-05
6.291065e-05 7.859799e-06 1.2650163e-05 3.5774614e-05 1.3965368e-05 2.9969693e-05 3.6133404e-06 5.9978734e-05
1.574277e-05 1.0111312e-05 2.8750635e-05 4.7953313e-06 3.9424594e-06 1.99414e-05 2.0681144e-05 3.4404497e-06
2.3304912e-05 2.660569e-06 2.027513e-05 1.6684082e-05 2.8585559e-05 0.00010135235 7.0719645e-05 1.6591113e-05
1.5346723e-05 1.2449916e-05 7.6245524e-06 3.416741e-05 4.1615713e-06 1.16427755e-05 4.6081373e-06 3.8137903e-05
8.093815e-06 6.1280994e-06 3.9813716e-05 2.3634808e-05 2.6782343e-05 2.88749e-05 1.556044e-05 7.4472005e-06
1.9817906e-05 6.691727e-05 1.30804565e-05 3.4265773e-05 5.024561e-06 7.6123986e-05 8.432617e-06 1.5186565e-05
7.3661206e-05 7.671968e-06 6.340799e-06 9.615393e-06 8.0446935e-06 1.0684082e-05 1.3021733e-05 1.2084004e-05
1.7961784e-05 8.865598e-05 0.0001201994 3.9927627e-06 7.154562e-05 8.413553e-05 6.916796e-06 4.639459e-05
0.00012954707 1.7452301e-05 1.9503952e-05 7.96089e-05 2.6207139e-05 7.185696e-05 4.4991757e-06 0.0001286852
3.829113e-05 1.3665777e-05 5.568261e-05 8.487047e-06 4.686906e-06 3.9341587e-05 3.3758337e-05 4.2504576e-06
4.1398616e-05 2.1677047e-06 4.1094165e-05 3.3341534e-05 7.294582e-05 0.00023652837 0.00016176526 3.635139e-05
2.2621834e-05 1.5297785e-05 1.39468975e-05 7.274967e-05 5.4669063e-06 2.608591e-05 4.134087e-06 7.947148e-05
1.36922245e-05 9.504053e-06 0.000104580104 4.597441e-05 5.1799787e-05 5.689841e-05 3.5958237e-05 1.244936e-05
1.501367e-05 3.7164027e-05 1.0813219e-05 2.0081927e-05 3.235938e-06 4.6102115e-05 8.190613e-06 1.5112255e-05
4.099995e-05 4.832537e-06 5.197715e-06 8.404347e-06 5.4178718e-06 7.9401725e-06 9.530955e-06 8.192969e-06
9.595279e-06 5.11944e-05 6.908863e-05 3.6002598e-06 4.446034e-05 5.0374085e-05 3.3442163e-06 2.7552102e-05
7.776349e-05 1.1124831e-05 1.1404722e-05 4.7479713e-05 1.6420701e-05 3.9746556e-05 3.5561384e-06 7.4467265e-05
2.126042e-05 9.447382e-06 3.3503613e-05 7.239655e-06 3.1362924e-06 2.2496683e-05 2.5499052e-05 4.7249227e-06
2.5912714e-05 2.1135784e-06 2.5148405e-05 2.0460984e-05 4.1959698e-05 0.00013431863 9.4278024e-05 2.0879239e-05
1.5448355e-05 1.26292525e-05 9.866492e-06 4.03769e-05 4.019496e-06 1.5391235e-05 3.7867087e-06 4.687488e-05
9.56442e-06 6.4465476e-06 5.4670127e-05 2.7798487e-05 3.0234663e-05 3.4260098e-05 1.9194105e-05 8.927987e-06

exp_avg f4 [6]
00000000: a79a 7dbb 5c35 e539 1672 583a f4fb 2f3b
00000010: acd0 143b 50f6 89b8
-0.0038696916 0.0004371804 0.0008256746 0.0026853057 0.0022707386 -6.578548e-05

exp_avg_sq f4 [6]
00000000: 785d da39 8cd4 b239 1828 353a 96c2 cb39
00000010: 1ca8 003a 6814 ea39
0.0004164984 0.00034109165 0.00069105765 0.00038864155 0.0004907863 0.00044647162
